balderdash_lstm/lstm_model/models/lstm_model_8.npz (npz, 903256 bytes, 19 tensors)

forget_gate_weights f8 [108, 81]
000000 0c 7a a4 57 ab 5c ba 3f e8 d2 06 f4 8e ac e4 bf
       0.10297652139386332 -0.6460642591615313
000010 d3 42 0d 60 61 ec ec bf 8c 5c 51 44 51 29 f1 3f
       -0.9038550258647667 1.072587267748335
000020 3a 0b 69 2a 7f d1 04 c0 42 33 d0 bf ef b2 9f bf
       -2.6022933305079308 -0.030956026155809065
000030 93 69 6b 05 0e 0f e1 bf b8 04 1f 39 ee 02 f8 bf
       -0.5330877405024687 -1.5007154685302293
000040 f6 8c e3 7d 21 37 df 3f d2 93 92 70 5d c0 b6 bf
       0.48773991865000654 -0.08887275694230759
000050 f0 08 bd 4e bc eb f7 3f a1 a3 3a e5 b2 51 da 3f
       1.4950526309699477 0.41123649964952774
000060 50 00 35 f7 ad bd e3 bf 5b c5 9d 5a 29 59 e0 bf
       -0.6169042423498556 -0.5108839769219843
000070 c5 09 55 da c2 00 a7 bf 31 ee c3 48 05 8e d4 bf
       -0.04492768206775425 -0.32116825204841165
000080 3b 98 83 34 60 c1 e3 bf 51 f1 10 cc 4d b0 da 3f
       -0.6173554444947124 0.417010735782033
000090 0b 28 de f7 3b 9e c7 3f 91 52 22 fc 96 b7 ec bf
       0.18451642611427163 -0.8974108623975373
0000a0 92 01 7c ee 98 07 c8 bf 80 00 10 01 7e 10 f3 3f
       -0.18773185391183894 1.1915264169220166
0000b0 0e fb e5 2a 50 45 f4 3f a7 10 10 d4 05 a9 cc bf
       1.2669221568791644 -0.22390816549898782
0000c0 43 cf 42 4b b4 40 d1 bf f4 b1 bb d5 ae 6e ea bf
       -0.26957423543648334 -0.8260111021496059
0000d0 ab 36 3a 6f 9a 02 e4 bf f1 26 82 fe 90 d3 e3 3f
       -0.6253177807245341 0.6195759745471304
0000e0 e4 4a 0a a5 c4 2e 01 c0 5a 21 0a a5 42 b9 af bf
       -2.147836007477382 -0.06196029915469366
0000f0 60 79 b5 76 3d d7 ee 3f 29 f5 83 ed d4 d5 f1 3f
       0.963774425366676 1.1147050168941155
000100 d8 3c 36 10 ed b6 fa bf 21 f7 30 1a 25 95 fa bf
       -1.669659674956895 -1.6614123366447944
000110 09 8d b4 7c d3 a9 b5 3f 60 fc 3f 62 8f e8 d0 bf
       0.08462259096682002 -0.26419434160920297
000120 21 75 f0 5f 12 bb 00 40 3e 9f 18 ed 9b 0a e5 bf
       2.0913436408287827 -0.6575450545105708
000130 a5 2c 2b 23 f3 a6 d1 3f ce b1 62 8c 9a a5 f0 bf
       0.2758148044055793 -1.040430591946563
000140 b4 c8 2a d7 60 15 e3 bf 9a b5 47 40 e6 ea c4 3f
       -0.5963596537096891 0.16341856135060767
000150 81 3f 96 a4 56 63 e9 bf 71 11 ad 9a 27 36 f6 3f
       -0.7933762755001085 1.3882213632615186
000160 23 0e b1 c9 02 05 00 40 6c 5e 81 83 72 90 bb bf
       2.0024467236669508 -0.10767284117297898
000170 78 ba 5f a7 74 02 cc 3f 1b 54 b9 8a 7f 24 cf bf
       0.2188249413734018 -0.24330133699064124
000180 57 b9 fe 93 60 7f 96 3f 0c 2f 81 92 89 f7 ea bf
       0.021970280678652667 -0.8427169667643013
000190 21 2d 7b 57 9f 23 fb 3f f7 e9 7e 04 c2 24 f6 3f
       1.6961968819840154 1.3839740920653847
0001a0 b9 eb 46 31 0a 25 d3 bf 19 43 d6 1d cd 8d f7 3f
       -0.2991357308598555 1.4721194425112059
0001b0 f0 93 45 29 6b d6 c4 3f 20 87 6e 0d fc c6 e3 bf
       0.16279353633140614 -0.61804010985745
0001c0 1a 22 1d f6 3a 50 e3 bf 02 28 ea 2a 04 d3 a9 bf
       -0.6035437399778545 -0.050438051451308766
0001d0 7a 0a 8e 28 1f f7 b9 bf a3 c9 40 a6 11 bb e5 3f
       -0.10142702808483675 0.6790855643396764
0001e0 d1 2d 82 04 4d 72 e5 3f 44 82 b9 b1 e5 13 c4 bf
       0.6702027404839389 -0.15685721567116861
0001f0 86 12 9e 6d cd 6a e8 bf 3a 0b dd 96 bc 41 e2 bf
       -0.7630374089208807 -0.5705244967033203
000200 06 a1 b2 bc 3d 66 e1 3f 97 9f b7 31 e3 c4 e6 3f
       0.5437306104186355 0.7115341158905605
000210 51 50 f4 52 f8 1a d0 bf f6 bb 5d 90 57 75 e0 3f
       -0.2516461191273765 0.5143239802981714
000220 d6 49 6f 72 e8 5f e2 bf 80 56 ba 45 59 78 e3 3f
       -0.57420751905948 0.608441005885382
000230 0d c0 b7 6f a1 0b d6 3f 41 2d cd 72 5a 4b e3 3f
       0.34445987615527046 0.6029484026161428
000240 4e 63 44 9d f2 c2 f5 3f 4d a4 a9 de 36 6c e4 bf
       1.3600946563003222 -0.6382097576980726
000250 97 ce ba f9 3d d3 e2 bf 04 c7 fb fa 66 5a f4 3f
       -0.5882863881619923 1.2720708660166915
000260 a1 86 49 c4 0e 98 e7 3f 05 8f 31 c6 7b 06 e9 bf
       0.7373117288336354 -0.7820414420097853
000270 a0 f4 f6 29 88 93 e8 3f c9 a3 10 b2 e7 9d ce 3f
       0.768009263956305 0.23919388002948797
000280 a5 1d 4b 56 e6 d4 ec 3f 47 76 8a 3e 13 e2 ec bf
       0.9009887395304089 -0.9025970670224489
000290 e6 eb 5b 9e be b3 e0 bf 54 b4 f3 82 b5 31 e2 bf
       -0.521941479964309 -0.5685679967551871
0002a0 5d fc a7 c3 ef 3d b9 3f 29 95 b3 5f 12 10 da bf
       0.09860132719767152 -0.4072309431633863
0002b0 04 e6 ca fd b4 f7 e8 3f 71 d1 38 3d 3c 37 f3 bf
       0.7802376706014802 -1.2009851829035052
0002c0 07 7b 0b 64 e7 e3 f6 bf 6a 54 d9 43 57 b6 ee bf
       -1.430640593338184 -0.9597584080862707
0002d0 0e ce 10 05 6b 48 d3 bf bf 83 de 48 08 01 f1 bf
       -0.3012950467557126 -1.0627520414784468
0002e0 df f2 59 1a a6 6c a1 bf 40 6d 57 1a 73 34 df bf
       -0.034032049862593665 -0.4875762707940403
0002f0 df 92 a3 a6 31 e7 de bf 07 35 5c c4 60 c5 ec bf
       -0.48286095879875107 -0.899093993679032
000300 cd 99 a1 71 00 fb eb bf 21 14 f0 c6 86 d7 db bf
       -0.8743898600922023 -0.43502969195862035
000310 74 4c a6 bb 4d b2 f2 bf 84 c4 5e 56 cb 20 fd bf
       -1.1685311632216129 -1.8205064176402468
000320 94 e4 57 f1 71 2d ea bf 06 fc cc bd 0d ce dc bf
       -0.8180474961983628 -0.45007651839472407
000330 42 d2 54 29 de c0 ab bf 71 71 dc af 2c 92 00 c0
       -0.054205839677170534 -2.0713742961071877
000340 ac f9 91 f4 4c 20 04 c0 6f 5a 0e 4e 27 f1 f3 bf
       -2.515771780686199 -1.2463753747048505
000350 a8 66 0b 04 aa b4 c7 3f 7c 45 fc f2 13 fe d9 bf
       0.18520093152510708 -0.4061326859383241
000360 9e b4 e6 7c 32 f2 e9 bf b8 87 f1 7b 66 48 e0 bf
       -0.8108150901295124 -0.5088379307528532
000370 d0 61 2d 2a 48 c2 d2 bf 13 ac 0e 04 aa 00 f2 bf
       -0.2931080257308425 -1.1251621397484584
000380 6d 6c d1 2e 23 29 df 3f fc f4 dc 2b e2 c3 de 3f
       0.4868858296592354 0.48070577891833444
000390 90 7d 57 5e 27 31 d8 bf 1f 52 33 1e 4c 2b e5 bf
       -0.3780001088434455 -0.6615353193142858
0003a0 fb 97 2c 9f a6 96 e8 bf eb b4 23 f4 2a 1f f2 bf
       -0.7683899983283021 -1.132609323186723
0003b0 10 ff bb bd a9 55 e5 3f 2a 2d 1c 37 7c fd f4 bf
       0.6667069154500229 -1.3118860390412217
0003c0 ec 7a ea 5a 90 74 c7 bf 4f f0 1a cb a1 48 f2 bf
       -0.1832447475362281 -1.1427324231908818
0003d0 71 14 45 9f 09 15 f0 bf 70 0b a1 a2 7c 89 fb bf
       -1.0051361295202492 -1.7210661270807712
0003e0 d8 34 47 8c d4 53 d1 3f 4e a3 71 57 6b e1 ad 3f
       0.2707415933517274 0.05836043779783627
0003f0 dd 95 3a 88 90 7a e6 bf b1 c9 7a ae f3 a7 db bf
       -0.7024614964217865 -0.4321259693052993
000400 de 04 e5 b6 de 16 e7 bf ae c6 02 20 61 57 f9 bf
       -0.7215417453918709 -1.5838328600333784
000410 f3 5b 58 f3 1c 0c a9 bf f0 4d 78 27 70 91 ef 3f
       -0.04892054052850616 0.9865036745927096
000420 f3 91 47 89 39 9d dd 3f e2 9f 65 ce 02 36 fa bf
       0.46272123724182207 -1.638186269987266
000430 f7 83 f5 5d 1e bb b6 3f a6 0b 6a f4 b0 83 f2 bf
       0.08879270357057566 -1.1571511790686855
000440 bf d2 f9 74 11 16 e3 bf d3 78 7f 4b da ce fa bf
       -0.59644387099123 -1.6755011510027102
000450 09 1b 8a 3c df 87 e9 bf 53 72 ba a6 2b 7d d4 bf
       -0.7978359396373388 -0.32013980180798746
000460 ca 58 cc 00 4c fa be 3f 93 e4 5f 38 f3 61 eb bf
       0.12100672740448029 -0.8557067967477842
000470 18 79 f9 c9 58 97 f4 bf 92 76 11 6e 82 29 db 3f
       -1.286949910128504 0.42440853833054704
000480 98 46 8e b4 ca 13 f9 bf 2a c1 7d 6e a2 fb ed bf
       -1.5673319867095525 -0.9369671018630801
000490 26 42 9f 5a 68 24 e5 bf 3c 31 d4 d3 3f 70 01 c0
       -0.6606942911112739 -2.1798092412119825
0004a0 06 b7 bd 76 f2 5d f5 3f c5 ee c4 27 65 ba f7 bf
       1.3354363096545412 -1.4830066255080265
0004b0 a3 d0 e4 1d c8 64 fb bf e4 6c 60 3a 56 68 dc 3f
       -1.7121049087263962 0.44386821461530546
0004c0 32 30 f8 72 12 93 ab 3f 9f c0 b7 cf 5c 65 ef 3f
       0.05385644582210637 0.9811233574855754
0004d0 39 00 5f 68 5f 44 e9 bf c2 09 99 49 44 be f5 bf
       -0.7895962751863471 -1.358951842776705
0004e0 b4 6c 1c 0b 22 05 b5 3f eb 02 f3 8a 9a 0f f2 bf
       0.08210957309022399 -1.128809492846069
0004f0 3c 89 c0 8f 69 49 c6 3f a1 5a 9e a6 c2 f1 fb bf
       0.174115367118313 -1.7465235241449266
000500 63 a7 65 24 c3 66 f4 bf b8 42 5e 44 39 fb f6 bf
       -1.2750884458314082 -1.436333911002448
000510 a3 49 a8 49 ba bc ed bf 45 1b 65 f5 d0 c4 ea bf
       -0.9292880476589754 -0.8365254204626146
000520 68 0b 54 51 09 31 f2 bf ec 0a ed 77 cd e5 9d 3f
       -1.136971776665371 0.029196939892481774
000530 d4 43 28 04 6c b0 f5 bf 6b 4c 13 bd 2d c6 f4 3f
       -1.3555717623132653 1.298383463454935
000540 5d 0d 62 07 93 7d b2 bf 4c 96 6e 1d f1 b2 f7 bf
       -0.07222861223458694 -1.4811869764029266
000550 e6 2c 43 ff c4 b6 c2 3f 1c 19 9f 81 ac 7f d0 bf
       0.14620268310532153 -0.25779259355876305
000560 2a 79 65 22 9a 3d dd 3f d0 77 44 6c 10 94 cd 3f
       0.4568848930265569 0.23108105932709444
000570 04 63 65 43 b1 1c d1 3f 0d fd 89 73 d5 4e e0 bf
       0.26737624723095643 -0.5096232658978878
000580 e9 2d 69 60 6d 17 d5 bf 39 14 19 79 c7 c0 9e bf
       -0.32955488600847943 -0.03003226925490685
000590 1b f7 c8 9a fa 55 93 3f 58 33 0d db 11 bb 88 bf
       0.018882671067550576 -0.012075557229445685
0005a0 ef 4d 87 26 e2 0c eb bf 16 58 84 b4 36 4a f4 bf
       -0.8453226807127389 -1.2681185771411996
0005b0 2c 01 34 7a ed c8 e0 3f 30 6b ba 20 83 7e 98 3f
       0.5245273005275854 0.023920105812617
0005c0 a6 d4 04 52 30 44 da bf 52 15 d7 4c 17 73 02 c0
       -0.4104119111028218 -2.3061967852724274
0005d0 4c 47 9b d3 2d 1d f5 bf 80 82 93 74 50 88 d5 bf
       -1.3196237817650909 -0.3364449633063842
0005e0 35 c8 96 b4 93 05 d2 3f 0b f9 b6 2e 3f a7 c9 bf
       0.2815903914989833 -0.20041646748536154
0005f0 61 94 12 10 b5 f2 ef bf 0f 75 b6 24 d2 21 c5 3f
       -0.9983773530881416 0.16509463112462483
000600 0f bd 7f f7 51 be d1 bf 17 b8 4e 41 f6 e0 ef 3f
       -0.27724122209379315 0.9962111735856095
000610 73 3c ee 89 f8 de d1 bf 93 59 b8 fe 83 6b ee bf
       -0.2792340609530079 -0.9506244635584146
000620 03 f6 b6 f5 19 28 c5 bf 91 dc 0c b2 6b 82 d5 3f
       -0.16528629777705825 0.33608524692267233
000630 23 a2 fe eb 3b 89 b5 bf a2 c0 1d e3 c9 2e b9 bf
       -0.08412527572239319 -0.09837018771009068
000640 d9 e5 3f af 5d 14 c5 3f 16 e3 b1 17 01 fe e3 bf
       0.164684019633383 -0.6247563803472953
000650 78 c8 3a 17 55 89 c3 bf 9c 2a 90 24 0b 5c e9 bf
       -0.15262855180987223 -0.7924857820629145
000660 f4 d4 d9 b2 3f 04 ff bf 0f 03 1e 5a ec cf cc 3f
       -1.9385373102534773 0.22509531402831626
000670 c8 7d 49 b9 b5 3f ce 3f 1d b5 7a 32 94 32 dc 3f
       0.2363192705843018 0.44058709077474295
000680 48 8c 15 4e 13 dc f1 bf f6 a6 3c 44 86 f1 b7 bf
       -1.1162293481982193 -0.09352912107410902
000690 0c 68 61 49 51 11 e1 bf f8 55 2b d2 77 1d ec bf
       -0.5333639558041354 -0.8785971741551171
0006a0 8e 4c 45 0a 2b e5 d0 3f 07 8f 04 f3 ae af f6 3f
       0.26398731234548556 1.417891454017935
0006b0 a5 39 bd 5a 4f e8 d5 bf e6 a4 f6 bb fb 46 e8 3f
       -0.3423040758251779 0.7586649581109242
0006c0 73 3d f1 5b 51 99 d2 bf 45 e5 36 c4 38 64 e7 bf
       -0.29060777643913766 -0.7309840996087266
0006d0 90 3e e7 5f 8f ec f0 bf 8c 87 79 eb e6 5f 9c 3f
       -1.0577539201948731 0.02770958721374188
0006e0 95 d4 b6 ff 83 09 d5 bf 86 0d b6 65 76 6f 9b 3f
       -0.32870578739250195 0.02679238315387302
0006f0 51 7a 4f 4b ee 9d ea bf 94 e1 0b 8d bf b6 b6 bf
       -0.8317786665828156 -0.08872601693645371
000700 64 08 0f 34 81 07 f1 bf 1b 89 e0 19 63 08 02 c0
       -1.0643322022956676 -2.2540952703140085
000710 bf bd 3d 5d 97 64 f3 bf 3c 5f 82 90 0f 68 bb 3f
       -1.2120584146722277 0.10705659177835697
000720 42 4f 39 c6 d6 3e b6 3f 2a a5 af fd 97 14 e2 3f
       0.08689634646844716 0.5650138811880983
000730 3e 63 c2 dc 97 f5 f4 bf f1 8c b2 ac cd ca ce bf
       -1.3099592803393558 -0.2405640691041309
000740 48 98 3b 19 4e 4a cc bf 96 7b 6f 4a 8f 82 dc 3f
       -0.22101761085576954 0.44546873349275395
000750 c1 c8 b5 9f eb 7a ef 3f 1d cb 6a b0 90 b1 cc 3f
       0.9837549323404106 0.22416885961646296
000760 dd ea 35 ce 0b 8c d8 bf c9 f9 49 6a 74 0d f1 3f
       -0.383547736527971 1.0657848503029632
000770 bd 25 4f 98 32 b7 f4 bf 0b 1c c0 85 7a 2c e1 3f
       -1.2947259854866922 0.5366795170128865
000780 8f 12 9e 3a cf 8a c6 bf de bd 98 55 3d 8f be 3f
       -0.17611112940007387 0.11937316264879125
000790 b8 1d 2a a2 07 fb d5 bf 2d 35 0e c7 62 e3 f4 3f
       -0.34344664417627824 1.3055141234975267
0007a0 6a 81 79 b9 90 5a f1 bf 1a 5f 49 04 24 76 f2 bf
       -1.0846106762984058 -1.1538429419942475
0007b0 b2 66 9a a1 f2 35 ea 3f f1 b6 15 8f 5d 2e f4 bf
       0.8190854221640704 -1.2613196934939277
0007c0 e5 b8 49 6b ab aa f4 3f a9 cd 56 5e b5 d8 df 3f
       1.2916673842369673 0.4976018353729282
0007d0 7d 14 c8 b9 eb ef f4 bf 3a 71 d1 50 04 67 ea 3f
       -1.3085744149296084 0.825075300071638
0007e0 a8 45 a7 16 11 a3 f1 bf d5 13 78 8e d3 9d ed 3f
       -1.1023112187288948 0.9255159170721706
0007f0 d5 1a 66 e9 1d 51 f5 3f 3d bd 84 99 15 b7 e8 3f
       1.332303916658636 0.772349166718335

input_gate_weights f8 [108, 81]
000000 77 b4 41 5d b5 70 f7 3f 5d 72 c9 04 d3 35 e8 bf
       1.4650167124594 -0.7565703481191793
000010 b9 d1 f9 e3 46 c0 f9 bf 6b f2 6e 0e 51 9e f4 3f
       -1.6094426064783944 1.2886515201381836
000020 5f 20 8f f5 73 07 fc bf 19 36 59 b6 78 81 f9 3f
       -1.7518195717002738 1.5941092608439986
000030 7f b9 cf 46 bb 5b be bf e7 77 54 7d fc 83 f4 3f
       -0.11858721236032997 1.2822232146931982
000040 8a b1 64 3e 82 67 fa 3f a0 d8 52 17 ab 2b e1 bf
       1.6502706944694148 -0.5365806060351765
000050 94 fa 29 ff 0c 37 e5 3f 14 00 99 73 32 b0 d6 bf
       0.6629700645133476 -0.354504216087663
000060 8f cc 3d 80 de 0c d2 3f 97 03 21 82 10 30 f5 3f
       0.28203547023367376 1.3242344935572186
000070 ff 9a 25 57 83 91 a5 bf 18 d5 66 6b 3a 7e ea 3f
       -0.04212580145649802 0.8279087159814109
000080 b1 6b 03 3b b0 86 d4 bf 4f 33 53 c5 99 15 fa 3f
       -0.3207207275678981 1.6302736003883245
000090 ed 0b 95 8b 07 20 f6 3f 85 8e 8b 80 c2 94 ce 3f
       1.3828196957044796 0.23891478802316982
0000a0 63 36 4d 8a 9b 03 d1 3f cf d1 6d 70 de a3 fd bf
       0.2658451891519233 -1.8525070564038406
0000b0 42 2b 92 8f b1 84 fa 3f 01 9a 51 df b5 53 d5 bf
       1.6573958976975551 -0.33323427971336633
0000c0 56 03 6b cc 41 60 e3 3f 5c b4 10 b1 14 c9 ec bf
       0.6055001251735159 -0.8995459993653969
0000d0 af 06 f0 80 8f 2c e0 3f 90 b7 ea e5 22 77 e1 3f
       0.5054395216286219 0.5457930079044093
0000e0 30 d2 62 c2 f9 00 ff 3f 8d 8d eb d0 94 5b c9 3f
       1.9377381890491385 0.19810733987024456
0000f0 88 48 74 20 63 37 fc 3f f8 bf 11 db 27 1a fb bf
       1.7635222690337589 -1.69388566564521
000100 6b 97 5f d4 5a da 7a 3f 11 00 c8 87 b7 77 00 40
       0.006555895617543199 2.058455525198959
000110 84 68 fe ea 8a 11 f7 3f d5 bf 5e df 7c ed b6 3f
       1.4417828731007214 0.08956127599117221
000120 3a ef 40 d1 90 79 f4 3f bf 41 7d 41 9c 7b ec bf
       1.279679124257156 -0.8900891570174777
000130 78 a5 9a 84 35 4e f2 3f 8a fd 14 d0 4b 80 ee 3f
       1.1440940074774897 0.9531611503697814
000140 73 e2 bb 1f 45 a9 ce 3f 62 08 58 b8 61 f2 e8 3f
       0.23954071092136395 0.7795876121965757
000150 04 21 47 9c 3d b3 ee bf 06 74 97 c8 20 4b f5 3f
       -0.959379964094325 1.330841811715119
000160 bf 86 fc cd 3c 94 d7 3f 40 4b 0f 24 a9 d7 d6 3f
       0.3684227000795594 0.3569128849168699
000170 0b 88 50 c4 c8 28 e3 3f 94 be 8e 14 07 62 e3 3f
       0.5987285455960331 0.6057162667766129
000180 f8 6c 63 cd 6d 39 e8 3f 8a 8c 0c 39 5e c9 e0 bf
       0.7570103656284166 -0.5245810617674505
000190 4e 9d be d4 49 d1 ba bf f9 29 c1 e7 e4 ec e4 3f
       -0.10475598758659041 0.6539177442985525
0001a0 13 cf eb be 60 16 d8 3f 0c 58 be 0d f7 57 f0 3f
       0.37636583943025065 1.021475843129795
0001b0 c3 58 06 9c d1 39 f2 3f 8b 67 67 7e e9 fe ef bf
       1.1391159147947725 -0.9998671978785166
0001c0 96 f2 d8 78 92 ca ed bf d0 53 44 0d 28 05 e8 3f
       -0.9309780464460171 0.7506294497603623
0001d0 92 87 96 31 94 57 e0 3f 02 99 b8 d2 b1 f8 fa 3f
       0.5106907814517732 1.6857164603512165
0001e0 2f a3 4d c2 4d 5e 02 40 01 3b d8 dd 4d 78 b4 bf
       2.296046751016909 -0.07996069589738043
0001f0 94 1a 9b 5d 1e dd e1 3f a1 f5 43 51 77 26 e7 bf
       0.5582420185317738 -0.7234455668655536
000200 c4 d9 7e 25 06 b9 f4 bf d4 f4 1f ee 4d b0 f9 3f
       -1.2951718773525593 1.6055430700064806
000210 69 17 8f c2 69 8b f0 3f 6c 74 d0 4c 9d 94 e8 3f
       1.0340364074667951 0.7681414127615773
000220 36 30 9a e9 b3 1c f9 bf bd c0 d6 ef ec 5f f4 3f
       -1.5695075154390117 1.273419319983119
000230 94 73 54 6d 29 3b dc 3f f3 04 0c 7c 55 c2 c5 3f
       0.4411109512018865 0.16999310070972448
000240 de 04 f0 cb 05 ea f6 3f 04 51 25 16 54 cc ea 3f
       1.432134434348249 0.8374424393209954
000250 dd e4 1d 6b 65 6f e1 3f b1 88 65 bd c7 01 89 bf
       0.5448481647610169 -0.01221042677633863
000260 38 be 31 72 35 a2 02 40 27 2d f7 67 ef f2 cd bf
       2.32920350279144 -0.23397629333917644
000270 e7 98 f7 42 0e 88 f5 3f 02 72 ae bc 54 64 f0 3f
       1.345716725912604 1.024494874035668
000280 03 04 0b 04 09 d8 f8 3f d2 9c a2 11 52 d3 e1 bf
       1.552742973130308 -0.5570459694326024
000290 28 2b ef 69 5b e9 e9 bf ce 2e 1c b3 88 f0 b3 3f
       -0.8097359723118176 0.0778890073090068
0002a0 1d f1 16 fe 5f 0b d0 bf 97 1b 12 1a 2b 88 e3 bf
       -0.25069427312316056 -0.610372115058328
0002b0 48 05 83 6d f8 50 cd bf 4f 7a be f9 e0 10 f3 bf
       -0.22903352114921405 -1.1916208034159756
0002c0 f6 e4 c2 b9 d7 08 e9 bf 1f 17 e6 f2 77 91 d9 bf
       -0.7823294284964095 -0.39950369568428984
0002d0 53 54 02 09 1c 62 a9 bf f4 77 36 9e 13 8a d9 bf
       -0.049576641177886537 -0.3990525288626252
0002e0 b5 dd d0 8d 82 21 f4 bf 15 89 e0 e0 57 f2 da bf
       -1.2581811465914658 -0.42104145966199386
0002f0 4f e8 e6 d9 e5 90 e1 bf e0 67 4c 78 65 b7 98 bf
       -0.5489377265832988 -0.024137101619181922
000300 5f 87 d7 b4 69 cd df bf f7 a4 0b 99 e2 fd c0 3f
       -0.4969124094042083 0.13274795983242146
000310 3e 06 34 56 2b e0 be bf b7 2d 82 89 b3 ab d2 bf
       -0.1206080518204766 -0.2917298167091888
000320 94 1f 1a d6 b0 11 ed bf b0 e7 ed 92 10 e2 d2 3f
       -0.9084095174484781 0.295047896848355
000330 72 ee 41 37 4e 37 d0 3f 7e 70 27 b0 ad 19 ec bf
       0.25337558170551866 -0.878134578753375
000340 2a 94 01 b6 7c 91 f0 3f b1 25 45 c2 fd b1 eb bf
       1.0355193242660428 -0.8654774469697967
000350 bd 8d 40 03 8f 3b a8 3f c2 50 d5 bd 95 96 e0 bf
       0.047329396388046764 -0.5183819492035797
000360 6b a5 63 8e 05 b9 b6 bf 5f 94 de 79 4a 28 ee bf
       -0.08876070715236543 -0.9424183254492496
000370 50 e0 2f 4a 84 3e e0 bf cd c6 70 52 5d e5 c6 3f
       -0.5076314400639692 0.17887465024391816
000380 58 1d 8f 8c d2 5e e4 bf b3 82 20 a0 a3 99 ec bf
       -0.6365750069898395 -0.8937547805290563
000390 47 25 c8 c6 68 36 b0 3f d9 c0 fb b9 b3 16 df bf
       0.06333021977493046 -0.4857606235737087
0003a0 ac 03 08 e9 ec a3 c8 bf 6b 06 f9 c3 fe 5e e1 3f
       -0.19250260714036693 0.5428460910408835
0003b0 83 90 9e f8 02 6e 88 bf 59 8f 15 ce d9 5f e8 bf
       -0.011928580486547219 -0.7617005372126001
0003c0 a7 e0 4f 76 8e 07 db bf 29 c7 fd cc c3 85 ed bf
       -0.42233621171863905 -0.9225787166344378
0003d0 64 93 c7 55 f3 36 ed bf c1 a8 88 ef 0f e0 d7 3f
       -0.9129578280813857 0.3730506743619451
0003e0 70 44 5d 3e 74 bd f8 bf 5d 2c 46 6e 7f 41 f2 bf
       -1.54625343667092 -1.1409906680662723
0003f0 a9 44 9e bd e4 19 ed bf 99 50 9e b1 90 ed e5 bf
       -0.9094108298760563 -0.6852496594533647
000400 db 11 cf 03 49 8f f1 bf 50 74 bf 48 90 f2 90 bf
       -1.09748174178923 -0.016550306739976428
000410 7f 0a b9 48 df c8 b7 3f 73 0f 14 ab ce af f2 bf
       0.09290881658038506 -1.1679217036007372
000420 a0 57 b0 19 c6 0d c6 bf 1a 15 47 25 34 f1 d1 bf
       -0.17229534391725299 -0.2803469051398949
000430 af 96 86 fd 57 94 e8 bf e5 01 4b da e3 08 98 bf
       -0.7681083633112474 -0.02347141284804079
000440 73 a8 19 fc fb 0e d3 3f f3 c0 31 4a 48 6c f5 bf
       0.2977895700374866 -1.338936128446275
000450 42 71 93 3e cf 99 db bf 04 6b f3 90 0a 59 f0 bf
       -0.431262789830516 -1.0217385923521656
000460 ad 18 d1 04 a4 24 f4 bf a9 da 33 47 7e 09 c4 3f
       -1.2589454830318048 0.15653971172988193
000470 10 10 ab 15 b1 2c fa bf 99 4e 93 31 3f dd ec bf
       -1.6359110685743907 -0.9020076721448788
000480 5d 5f 30 2b 9b 84 d8 bf 40 40 45 ca e6 fc d6 3f
       -0.3830936357276096 0.359185884027287
000490 ee 84 c7 e2 c0 bf d3 3f f6 79 d2 e4 7d 78 f0 bf
       0.3085787024156862 -1.0294169367185737
0004a0 84 af ff 37 42 b7 e7 bf d0 30 88 d9 c3 ac b1 bf
       -0.7411204427457823 -0.06904243527259557
0004b0 e9 59 9d d2 b6 b7 e2 bf 64 34 cd c8 8a 6e f0 bf
       -0.584926043850655 -1.0269878238498444
0004c0 bc 3c 16 4f 30 95 f7 bf 69 11 7e 8b fb aa e1 bf
       -1.4739230241137156 -0.5521218990766502
0004d0 95 da e9 ff 6c 9e db bf f5 83 6f de 40 4c ea bf
       -0.4315445422320548 -0.8218082756467299
0004e0 5c 54 af 42 30 b3 fa bf f5 50 79 18 eb 21 bb 3f
       -1.6687471966627276 0.10598630282885664
0004f0 4d 74 5d f6 65 19 b5 3f 9a e7 61 64 49 8a e6 bf
       0.08241879715701934 -0.7043806992144142
000500 ab 9d ab 35 82 de f3 bf 74 3d df 03 13 f5 a1 3f
       -1.2418233963488585 0.035072893355045404
000510 68 69 50 4b f0 dc bc bf 0a 8e 30 61 86 68 eb bf
       -0.11274625624392842 -0.8565093897090617
000520 d1 6f 19 45 a0 4d f1 bf 09 fc 05 0e 33 d1 e5 bf
       -1.0814516734308095 -0.6817870401281435
000530 bd ab e1 0c 2f 12 fa bf c4 b5 f0 78 b3 5e a5 bf
       -1.6294394019302978 -0.04173813678094576
000540 22 8e 1f 58 52 5f d6 bf d2 d4 44 d1 6d ea e1 bf
       -0.34956797223842007 -0.5598668181688942
000550 d7 4a 16 de 72 50 a7 bf e1 3c b3 cd 41 29 d7 bf
       -0.04553564988159103 -0.36189313018708275
000560 b5 a7 23 25 59 1a d9 3f e2 92 90 6f 1d f7 f2 bf
       0.3922331679046878 -1.185330806541224
000570 60 f6 c8 17 57 da a0 3f ee b6 66 6d 16 0c e7 bf
       0.03291580357879975 -0.7202255379431486
000580 49 89 40 d6 48 d0 ef bf 6b 3e ef 6e 9e 5d d2 3f
       -0.9941753563510157 0.2869640429825952
000590 4b 46 bd 58 95 57 d4 3f a6 56 6b 15 82 81 e0 3f
       0.3178456656069996 0.5158090990396047
0005a0 77 93 96 90 78 42 df 3f 15 db 0f 6b 1f 53 e2 bf
       0.48843206520023535 -0.5726468173078013
0005b0 ec bf eb 4c 96 36 e0 3f 6c 0d e8 8f 80 e7 de bf
       0.5066634657250666 -0.482879772695205
0005c0 17 bb 0a 73 70 59 d2 bf f8 c2 f2 77 46 2d f1 bf
       -0.28670893892824395 -1.0735535321693401
0005d0 bf dc 45 32 fb e8 ee bf be 41 c6 28 f6 16 e6 bf
       -0.9659400922672815 -0.690302924764232
0005e0 d4 d4 23 d8 57 ec e1 3f 83 04 b4 dc 98 33 d7 bf
       0.5601004811748234 -0.36252423813864015
0005f0 b0 20 0c a0 c8 4d e5 bf ca d6 9b bf d6 e3 ca bf
       -0.665745079605605 -0.21007809024711427
000600 79 c8 a0 ee ae 11 e5 3f 08 42 7a ea 3c fe f4 bf
       0.6584086094574239 -1.3120698127060013
000610 00 f6 ff f9 e2 8f f3 bf 78 50 02 56 be da ca 3f
       -1.222628571092514 0.2098005218473451
000620 07 9f 5c 5e 8a fd ed bf 7d 50 86 68 26 7a b3 3f
       -0.937199768352884 0.07608261157867165
000630 2a e8 fd 85 a8 c9 e0 3f 43 b1 f9 51 fa 2a ea bf
       0.5246164910342987 -0.8177463151055594
000640 5b 80 d2 b2 ef 10 d0 3f 7b 34 24 b7 c0 5b d2 bf
       0.25103371108162315 -0.2868501461496817
000650 6a a9 61 29 47 9c 93 bf b0 86 cc 94 e2 40 e8 bf
       -0.019150840664602077 -0.7579205423573594
000660 5e f2 e2 82 ef d1 f0 bf 27 32 3b 36 1d bd ef bf
       -1.0512538063768697 -0.9918352183536329
000670 fe a3 93 de d9 d0 f0 bf 73 f2 18 ed ee 2d ed bf
       -1.0509890264895598 -0.9118570929345665
000680 b3 5e 60 da 63 d6 d2 bf 3a 53 7d 67 31 37 f5 bf
       -0.29433533025574404 -1.325974849945125
000690 41 78 57 03 a1 8a d9 3f 3f 95 54 63 88 3b d3 bf
       0.39908624006591614 -0.30050859165415383
0006a0 51 60 7c c0 a4 27 f4 bf 6b a4 39 de 0d 3b e5 bf
       -1.2596786040285404 -0.6634587612471824
0006b0 3c 9f e7 55 2c 5b b6 bf e3 06 02 d6 69 47 f1 bf
       -0.08732869241032132 -1.0799349174198418
0006c0 89 6a 1b e2 bb e8 e2 3f 35 ed 2a 0e 95 b9 dc bf
       0.5909099022058665 -0.4488270414692182
0006d0 fc 6b dc 19 9c 27 f8 bf 15 e3 3b 67 e6 d3 be 3f
       -1.5096703539081764 0.12042083759650908
0006e0 69 53 08 4f 8c e6 f3 bf 29 a8 8c 58 51 9f e0 bf
       -1.243786152573387 -0.519447968433501
0006f0 05 b9 b0 3a 4f e3 e4 3f a7 bc 80 6b 01 26 d9 bf
       0.6527477403922438 -0.3929446744759368
000700 ac 9b b4 7f 04 bd f6 bf 26 13 7b fd 6a 2a fa bf
       -1.4211468685623272 -1.6353559400169586
000710 fb 76 61 12 31 4a e4 bf 03 bf 75 ae 50 1b 98 3f
       -0.6340566023825142 0.023541699073972754
000720 84 af 17 28 a4 3b d7 3f ef 97 69 3d 9e 82 d5 bf
       0.3630152122047934 -0.336097297642822
000730 e5 40 07 72 1a 53 ea bf d2 d1 23 7d 65 b3 ad 3f
       -0.8226444460979364 0.05800931122385901
000740 82 20 29 64 cd be f7 bf 3d cf 7c 9d ad 40 f3 bf
       -1.4840825951123695 -1.2032905723435328
000750 10 07 ba 8a 6c 55 dd bf 63 84 75 ab 4c 5c da 3f
       -0.4583388666870727 0.4118835138706968
000760 33 1d c9 02 a7 0c da 3f e0 92 f3 0f d5 0c fc bf
       0.4070222403720038 -1.7531328795532133
000770 20 04 fb 0f 66 de e3 3f 92 b7 a2 5e 24 a4 e4 bf
       0.6208982765311966 -0.6450368736602619
000780 69 62 b4 40 b5 45 de bf 23 8f 6d 1c a3 d2 d0 bf
       -0.47300463980494684 -0.26285627151649943
000790 ca a9 e3 85 46 67 e4 3f d2 e4 91 d1 7c 0b d0 bf
       0.6376068701768471 -0.25070114579973535
0007a0 13 d9 74 57 e6 a0 db bf b7 ea e4 f5 74 25 cd 3f
       -0.4316955427233477 0.22770559317162561
0007b0 e5 e3 7d 00 5c 59 e8 3f 7e 96 ff dc 37 f5 e3 bf
       0.7609081277470265 -0.6236838642477804
0007c0 0d 49 f7 e6 be a3 f3 3f 0e 73 bf 84 8f 33 ce 3f
       1.2274769804103614 0.23594850522831518
0007d0 6f 98 80 76 3e d7 c1 3f 4d 01 70 6e ec 78 d6 3f
       0.1393812254547728 0.3511305883876233
0007e0 62 c3 24 6d 5f ae a3 3f a4 2c 1f 00 d6 30 fc 3f
       0.038439733575052384 1.7619228367573578
0007f0 67 cd 2c e9 7b c8 e9 3f f1 ca 6b 2e be 94 de 3f
       0.8057231477927588 0.47782854588801543

output_gate_weights f8 [108, 81]
000000 c3 de ae 3f fd 80 d6 bf 36 b5 b3 2c fe e7 f3 bf
       -0.35162287921000884 -1.2441388841792338
000010 2b 75 24 23 8f 3b f6 bf f4 20 1e 05 3f ed e9 3f
       -1.3895408032179357 0.8102107143359079
000020 e2 8d a0 58 48 4c f9 bf d3 4d b8 b9 df f6 ff 3f
       -1.581123682212699 1.99777195498324
000030 2e ef 4f a1 35 b4 d8 3f 45 07 80 31 d7 29 d9 3f
       0.38599911454342617 0.3931787475013276
000040 f5 b3 49 c2 da 27 01 40 69 c2 2d 27 3e 66 ee bf
       2.1444602183096273 -0.949980808754913
000050 1c 5e 42 4f 28 bd f2 3f b6 7b e0 88 ce 7b d1 3f
       1.1711810203613657 0.27318156592258036
000060 cb 8c 5e 3f 6b 74 d3 bf f5 92 19 ab dc 2e ee 3f
       -0.30398064793025686 0.9432204572482009
000070 e1 6c 45 9a 2a ad e6 bf 15 45 97 b2 4b e2 d5 3f
       -0.7086384785756331 0.3419369930316674
000080 a5 8c 43 f8 31 89 b6 3f 98 1e a0 ab 31 0a 01 40
       0.08803093253259194 2.129977551292381
000090 6c 45 a2 06 50 72 f8 3f 87 80 a9 dc 66 03 f3 bf
       1.5279083499084107 -1.1883305186857187
0000a0 d9 ea 65 03 e4 60 e7 3f 93 21 98 5a c6 3e f0 bf
       0.7305774752015523 -1.0153258837545749
0000b0 6f 60 40 54 ea 64 fa 3f 34 59 fd d8 3d 59 af 3f
       1.6496375361512283 0.06122773431586595
0000c0 e8 fb 87 e0 4e 3f df bf 60 cb 4f d8 00 4e f0 bf
       -0.4882390206038836 -1.0190437745738663
0000d0 b0 e4 72 19 b5 32 d2 3f 52 de 96 64 d3 f6 ea 3f
       0.2843449352763612 0.8426300968776081
0000e0 34 6e 12 a6 6c 28 d7 3f ec 48 bd 12 df 10 c2 3f
       0.36184231012314005 0.14113987364778013
0000f0 8e 9f e0 a6 a7 83 00 40 8f 11 ff 9b b7 bc ee bf
       2.064284614305456 -0.9605367705158175
000100 43 32 6b 14 d4 9d e8 bf 11 69 81 fc b0 ba ef 3f
       -0.769266166572898 0.991539471793006
000110 bb 7d 63 d3 63 77 d2 3f bb bf 1c 7c 0b ea de 3f
       0.28853698390409094 0.48303496475545743
000120 3d a5 11 e6 84 49 f6 3f 3c 0f 94 f7 0d 66 f6 bf
       1.3929490077083095 -1.3999156638173664
000130 ed 3f 38 45 6e 65 f7 3f 9d fa 76 0a f7 8b e3 3f
       1.4622633651633763 0.6108355717077135
000140 17 8c a1 06 8c 0b d9 3f f1 76 2e 3e da fa db bf
       0.39132977149546505 -0.43718582222378105
000150 bc 93 28 2a b7 d5 e9 bf f3 9e f8 82 0e 8a fc 3f
       -0.8073383162887846 1.7837052455960787
000160 26 8b c4 cd 9d 62 f5 3f eb ab 62 f0 ce 76 d7 3f
       1.336576274662272 0.36662648654117785
000170 45 cc 94 dd 99 5d e0 bf 1e 8d b7 27 21 8a c4 3f
       -0.5114259078749305 0.16046537818247314
000180 e8 eb e6 45 c5 f3 e8 3f de a8 ef f0 81 cc db bf
       0.7797571530603564 -0.4343571522609987
000190 1b 74 e7 8a e1 29 e6 3f 80 2a 26 58 77 ba e4 3f
       0.6926124299021724 0.6477619859372936
0001a0 81 84 f1 b5 2f df da 3f 4e a2 3a 33 8c 10 f7 3f
       0.41987221496498967 1.4415399552473391
0001b0 9a c8 96 a9 81 57 e7 3f e7 08 f5 a4 44 ea dc bf
       0.7294319450650335 -0.45179859265421246
0001c0 86 c8 cc 59 38 6b ff bf e6 15 83 11 7d 33 df 3f
       -1.9636767871675445 0.4875176116005079
0001d0 a2 3a 8e cd bc 29 e4 bf 05 e3 49 e7 69 fc f4 3f
       -0.6300949110753502 1.311624434920476
0001e0 20 01 00 0b 86 fd f0 3f e3 84 89 95 25 a7 e8 3f
       1.0618954114616557 0.7704036636970638
0001f0 b3 03 7d b7 a6 52 d8 bf 4b 74 a8 9b e9 8d f4 bf
       -0.38004463118346193 -1.2846466141120512
000200 87 16 02 16 27 b3 f7 bf f6 7f f6 6b db 2a fb 3f
       -1.4812384471601108 1.6979631631183998
000210 1c bf ca 2a b6 ed ef 3f 76 9b 41 b6 7f 7d f5 3f
       0.9977675281315643 1.3431393737207293
000220 85 f0 f9 33 f2 ab fb bf ce b1 97 79 0f 40 f5 3f
       -1.7294790296864744 1.3281397580823184
000230 3d 5c 16 a1 0f b4 d4 bf 56 fd 89 37 21 3d e4 3f
       -0.32349005442796736 0.6324621281382103
000240 18 32 61 e9 14 82 fb 3f 4e 2a 97 97 8e 54 e0 3f
       1.719258224143351 0.5103218994857543
000250 f3 21 07 dc 6e 63 b7 bf c7 17 13 41 07 7e d7 3f
       -0.09136097785734147 0.36706715922298055
000260 8a eb 04 39 14 0b 00 40 f4 82 c6 7a ff b2 f0 bf
       2.0054096655489433 -1.043700675574823
000270 2c eb 6e 5b b8 53 f7 3f 7e 58 5c 12 c7 15 f8 3f
       1.4579394885647146 1.5053168027129966
000280 8b 14 f8 15 ad 0c f9 3f ab 2e 7c 07 c0 7d e3 bf
       1.5655947549978773 -0.6091003557389362
000290 83 4b 12 a7 ce 06 ca bf 2e 76 95 46 b1 49 e2 bf
       -0.2033327403811108 -0.571495664462139
0002a0 77 a4 11 db 7f 0b ba bf 58 b9 84 a2 49 f3 78 3f
       -0.10173796747553064 0.006091392170033259
0002b0 86 e9 7e 35 e9 68 c2 3f 31 95 44 72 00 ce da bf
       0.1438266288003655 -0.4188233486077762
0002c0 fc 66 54 64 fc a9 e8 bf 83 c9 de f2 bc fe cd bf
       -0.7707502326549895 -0.23433648928546455
0002d0 0e 32 c0 28 23 0a da 3f e5 68 e9 b0 32 20 d5 bf
       0.4068687341648748 -0.3300902106908679
0002e0 ed 7c 39 d9 60 ab f4 bf 77 e3 66 b5 c4 60 f0 bf
       -1.2918404088339301 -1.0236250959407849
0002f0 38 ae 00 5b 63 6f d5 bf a2 5e fd 29 90 54 f1 bf
       -0.33492359053591114 -1.0831452980254785
000300 ef d2 28 3f 7d 96 f2 bf 0f f7 7f 6c 21 f3 db 3f
       -1.1617405383269064 0.43671451183023263
000310 77 f0 45 01 c4 e0 cb bf 3d ce 8e 18 92 0d e1 bf
       -0.21779680311363211 -0.5329065780301289
000320 77 8f 07 14 16 bd f6 bf fd 40 41 d6 8a 24 dc 3f
       -1.4211636335757853 0.43973036692933914
000330 7a b6 7b 3f e5 10 fd bf 61 4a 4f 38 3e ee f8 bf
       -1.816624877912004 -1.5581648063277032
000340 19 05 1a 28 98 51 87 3f 3b a1 c0 a9 0e 5c f6 bf
       0.011386097644619885 -1.3974749213176227
000350 12 8e e8 ea 15 f4 9b 3f ab 2f 1d 14 7d c3 f8 bf
       0.0272983002306671 -1.547726706095072
000360 36 f6 62 3c d8 8a f1 bf 8a 11 2a a0 99 51 e5 bf
       -1.0963976248598448 -0.6662109497270177
000370 62 c4 51 0f 6b 01 e7 bf df 38 ac 8e 54 37 b6 3f
       -0.7189231204230391 0.08678177340718517
000380 2b 3f e9 47 63 44 ee bf ac 54 ef d4 c3 a2 e6 bf
       -0.9458481220735612 -0.7073687704929816
000390 7f 73 9b 57 14 36 e9 bf 43 37 bc 13 bb b6 fd bf
       -0.7878514967993481 -1.857112004366585
0003a0 da 1a 0d 92 4d b4 bb bf 7c 97 87 44 9d e4 b5 3f
       -0.1082199555940905 0.08551962779128347
0003b0 fe 4e 7c 79 01 52 f4 3f f3 2c 1c 48 61 3f f3 bf
       1.2700209374933702 -1.2029736344146016
0003c0 01 80 56 d5 6d dc c3 bf aa a2 b6 c3 3b da fc bf
       -0.15516446034325784 -1.8032796521239711
0003d0 65 d4 fb 38 ac 46 f9 bf fe a3 c0 6c 2f 39 df bf
       -1.5797540880132825 -0.48786531086312823
0003e0 82 14 99 3b 36 09 f8 bf 56 36 27 e3 8c 84 e8 bf
       -1.5022489860578223 -0.766180461557904
0003f0 7f 9e d9 a8 a6 e1 e7 bf f6 db ce ae e4 97 ef bf
       -0.7462952897885343 -0.9872916616649252
000400 4c 6b c3 ba 72 0e fb bf 5f 6f 48 2b a5 00 e2 bf
       -1.6910273833697884 -0.5625787587518792
000410 f0 b9 38 37 96 14 a4 bf ab 88 f8 c8 5f d7 dd bf
       -0.039219564667622 -0.4662703955274405
000420 2d 15 3a fb da 95 c0 3f 88 b8 3f cb 49 9b d5 bf
       0.12957322375238203 -0.3376030430653221
000430 bd 2a a2 ef 3a 6f a0 bf 86 c3 77 61 b8 51 d3 bf
       -0.03209861922467414 -0.30186280744879246
000440 9d bd 16 4a ff 53 da 3f 72 16 93 7b ef b3 f2 bf
       0.4113767837070215 -1.1689295603877352
000450 4e c9 01 50 83 c0 e0 bf cb 0a 49 b4 00 29 e3 bf
       -0.5235001146923339 -0.5987552186200785
000460 2e 65 40 83 8b 55 eb bf 0c 7c 82 d6 27 1d e8 bf
       -0.8541925014025418 -0.753559035267132
000470 9b 76 56 5f 7c 01 e4 bf ea b7 ef fd 05 32 c6 bf
       -0.6251813757005097 -0.1734015932010487
000480 b2 d4 b8 80 31 e0 bd bf 00 7e 42 e1 4d c0 d7 bf
       -0.11670216934801905 -0.3711123180200673
000490 e4 7c 1c 19 58 93 d8 bf a8 f7 4e 8f e3 d0 fc bf
       -0.3839931721904135 -1.800998267935464
0004a0 08 b1 aa 39 e6 e5 d7 bf f6 15 af ba 43 fb e0 bf
       -0.3734069407608023 -0.5306719442530141
0004b0 83 02 ae eb a3 9a e7 bf ba a5 d6 79 29 97 d6 bf
       -0.7376269915694852 -0.3529761972264073
0004c0 18 17 a8 27 57 79 ed bf 17 49 e7 a5 cb 2d e9 bf
       -0.9210620665114417 -0.7868402710248884
0004d0 75 47 a4 a6 8c 03 f2 bf 16 4e 37 c7 36 77 01 c0
       -1.1258665570680624 -2.1832099498512987
0004e0 e6 2c cf 6e 93 23 d7 bf 79 36 6e ed 7e 08 d6 bf
       -0.3615463811990608 -0.34426854311536875
0004f0 bc 0e a7 13 f1 6c e3 bf b6 30 51 56 99 c3 f2 bf
       -0.6070485481108885 -1.1727536556018499
000500 c0 e7 ba 6f cb 2a f8 bf 60 da 51 47 92 5b d9 bf
       -1.5104479183632833 -0.3962140747529812
000510 ae 4c 95 68 f4 9b e9 bf 6f 5e e9 4c 4e ab de bf
       -0.8002874415054941 -0.47920567999742664
000520 e9 4d 97 07 22 0a f4 bf 49 1c de 99 18 5b d2 bf
       -1.2524738594555578 -0.2868100645650356
000530 41 bc 68 05 0b 91 e7 bf e1 bb eb 1d 3e d6 ee 3f
       -0.7364554505965161 0.9636526665107078
000540 d9 99 d7 ab e1 a9 db 3f 66 46 6e 80 b8 3f ea bf
       0.43224374562705986 -0.8202784069455447
000550 19 ca 01 da a0 1b d8 3f 50 37 4a 9d 0a 2e d2 bf
       0.3766862992262375 -0.2840601478609317
000560 be e6 e1 22 9f 17 d3 3f 83 e1 a2 7f fb 0d eb bf
       0.29831674963461896 -0.8454568379302575
000570 3a 5d 96 58 d8 df c4 bf b7 b4 1d 6a 0b 13 ae bf
       -0.16308121038012208 -0.058739048675172816
000580 d5 bb 82 2f 5e dc f3 bf be 4e 27 af 6e ed c0 bf
       -1.2413007598768122 -0.13224586059970095
000590 5f c0 4c 26 08 16 d2 3f 52 11 87 c5 ce cf e6 3f
       0.2825947164556108 0.7128671510659308
0005a0 57 36 3f c9 32 82 d1 3f d0 77 ec 3e 01 50 f8 bf
       0.27357167866725746 -1.5195324380833775
0005b0 8e 3b d6 5b 1b f8 e8 3f 0c f8 20 1b 39 69 00 c0
       0.7802864831627276 -2.0513784522472687
0005c0 57 dc db 26 fc cb df bf 75 19 13 eb 6d d8 f6 bf
       -0.49682525439079 -1.4278392012216419
0005d0 fd 09 46 72 b3 90 f4 bf 5b 95 fa 9b d9 c3 f1 bf
       -1.2853273834049326 -1.110314950268125
0005e0 18 eb db 45 e7 f6 d8 bf 64 8f 5c 51 8c 51 f1 bf
       -0.39006978819058835 -1.082409208124738
0005f0 eb 2a fb e8 6b c2 f3 bf 8a bd 9e 02 8e 16 d8 bf
       -1.234966192324175 -0.37637663131587173
000600 89 a2 46 d0 95 62 da 3f 6c 4b 69 60 26 0a f3 bf
       0.41226716365284993 -1.1899780050341304
000610 43 b8 b3 37 17 5c f7 bf 7a 54 82 57 5c d7 52 bf
       -1.4599830795155107 -0.0011499788070399573
000620 60 07 3b e6 74 2d 00 c0 52 72 c1 eb 27 23 d2 3f
       -2.022195624042908 0.2833957483578945
000630 b4 89 80 71 f6 6d cf 3f f0 92 a3 df 25 b8 c7 bf
       0.24554329435438904 -0.18530724925871978
000640 70 83 7f 2f a3 a6 cb 3f 77 c0 f0 de 1a b4 cd bf
       0.21602287120097285 -0.2320588673187591
000650 dc f3 b4 91 53 7f d3 bf 4a 84 00 5e 3a 2e fb bf
       -0.3046463892858904 -1.6987861320451594
000660 92 1b f3 e4 01 7b f2 bf a4 af d7 c1 e9 43 e9 bf
       -1.155031103453187 -0.789540175055198
000670 49 88 7f 05 72 ca e2 bf d6 99 1c e9 84 b6 c4 bf
       -0.587212572802181 -0.16182004339607542
000680 d8 ac 8e 45 bb 22 f0 bf b9 44 fe b0 8c a4 f7 bf
       -1.0084793774683956 -1.4776732362554823
000690 32 1d d2 9a b6 26 bf 3f e1 80 58 50 da d7 d5 bf
       0.12168446807674085 -0.3412996086717737
0006a0 fb c7 79 56 fe 4b f6 bf b4 5e ae 40 14 76 d3 3f
       -1.3935531022984822 0.30408197704808093
0006b0 6b 2f 01 f6 2f e9 c1 3f 8f 75 8b f1 8f 27 e5 bf
       0.13992881309456648 -0.6610793798133033
0006c0 e2 2d 0c 0e 40 4e bf 3f 90 fe 72 12 f1 1e c5 3f
       0.12228775351484658 0.16500676537360848
0006d0 c1 fd b8 0e 81 32 fc bf 77 9f 40 58 59 ca b5 bf
       -1.7623301100828572 -0.08511885075188085
0006e0 52 8d a3 e0 b6 9f f3 bf 39 55 03 6a dd 9d e9 bf
       -1.226492764945608 -0.8005206175390988
0006f0 da 31 3f 41 ea 21 dd bf fc 76 62 ed 48 4f da 3f
       -0.4551950108696282 0.4110891645631083
000700 b1 03 94 f9 02 66 fb bf 94 9d 52 7c b7 45 f7 bf
       -1.7124051808498104 -1.4545206886631137
000710 1b 68 f0 46 18 11 fa bf 4b 6e 4c 20 13 16 d7 bf
       -1.629173543077292 -0.36072233347087906
000720 75 e2 2c c7 ad b0 d1 3f e9 2a 5d 26 14 f0 89 3f
       0.27640861941066613 0.012664945050024428
000730 95 d6 b0 8b 52 ff f1 bf 11 1c ec 03 d6 f9 cb bf
       -1.1248345810576315 -0.21856188956755365
000740 74 7d ea e4 95 15 fc bf 83 6f a6 64 31 4f e6 bf
       -1.755269903376612 -0.6971671071837452
000750 71 96 99 6a 6b 2c bb 3f a8 0d 45 74 f9 aa 9b bf
       0.10614653923547636 -0.027019403192083097
000760 b9 81 53 a1 7a f3 d7 bf ae 7d 8c 10 73 52 e8 bf
       -0.3742357802821306 -0.7600646327227218
000770 ab 92 22 8c 0c a8 d8 3f dc 34 f5 7b 17 8c f1 bf
       0.3852568977838852 -1.096702083788208
000780 b9 42 ab 18 09 d7 d0 bf 9c 90 ad 1e ca fb cb bf
       -0.26312472733574627 -0.21862150667141556
000790 01 02 85 95 98 7c d5 3f 53 7f 38 da ef 0a bf 3f
       0.3357297382499667 0.12126063420919068
0007a0 85 cc ff f0 bc 85 e8 bf 8f 01 10 ab 4a 46 e2 bf
       -0.76632544584426 -0.5710805264534872
0007b0 c3 86 2b fe 91 57 fe 3f 7a 33 b6 03 47 30 02 c0
       1.8963794640080074 -2.273572949407421
0007c0 45 9d 1c 80 8c 89 f0 3f 87 35 6f 36 89 30 e1 3f
       1.0335812572828484 0.5371748030826645
0007d0 6c ed e0 c5 a8 fa d7 bf de cf bd 1c 96 68 e4 3f
       -0.3746740276726175 0.6377668916088586
0007e0 43 04 28 fb 19 f7 d1 bf 53 6b 11 81 be ee fe 3f
       -0.2807068779657735 1.933287147686049
0007f0 50 cb e0 44 59 7f e0 3f df fe 01 e3 6b ec 7f 3f
       0.5155454964900432 0.0077938284231320034
