balderdash_lstm/lstm_model/models/lstm_model_16.npz (npz, 903256 bytes, 19 tensors)

forget_gate_weights f8 [108, 81]
00000000: 36fc fb5a c952 e33f 4e9c 8176 5712 e6bf
00000010: f979 2fb6 f071 e8bf 188e 3452 4a37 e63f
00000020: e3b3 bc6b a8b4 04c0 9027 d1cf 111b e4bf
00000030: 94de cfb2 ac76 e3bf 89b7 80e8 bbbc fcbf
00000040: e5df 52af f3f8 d53f 7cc5 5577 02e1 c7bf
00000050: d63e e9e8 da5c f93f 7dab 030e ec98 db3f
00000060: ddfb bdd8 aafa e0bf 2acd ad0c 3105 e8bf
00000070: 1145 dd9f bdeb a93f b855 a331 f74c d9bf
00000080: bf47 0efe 7151 eabf de44 66bf a8b4 e13f
00000090: 291c 1aec 2fec e53f b953 1ec4 4e74 edbf
000000a0: 36a6 e7cd b64b ba3f dbff a6b9 52dd ed3f
000000b0: 7692 26f0 a00d fd3f bf32 9150 1920 d7bf
000000c0: 8cca fff2 36ed cabf bbc3 d0e8 4c3f e5bf
000000d0: 3dea 1e01 d917 efbf f9bd 374a dbc0 b8bf
000000e0: 4df3 2378 236f 03c0 16bc 8104 0ef5 d13f
000000f0: 08e5 61e7 2e67 eb3f 4aed 518f 952d fe3f
00000100: 16fe b037 2f22 fdbf e426 3f39 35e4 fdbf
00000110: 8410 112c 4e4c c43f d081 725a d9b1 e6bf
00000120: c913 8642 2cae 0340 6151 6784 60bf f0bf
00000130: 751b 1341 0f1c eb3f 230a cfae 539f eebf
00000140: ca2c 5d2e 608d e7bf 04c7 9226 e334 d53f
00000150: 696c 025c 3068 d3bf ea9a 0414 b39f 0040
00000160: d857 481b d915 fd3f a4e5 d3ed 39bb be3f
00000170: 02c2 156e 4aea bd3f faa0 e340 3736 e1bf
00000180: 8ce6 35f3 3472 d7bf 1e12 804d 1593 ebbf
00000190: e726 031e 49b0 0140 c761 3486 5b5c f73f
000001a0: 5b03 5c4e 3fbe d6bf 1a48 0e22 c531 fd3f
000001b0: fe12 8fd0 2b15 e33f 8c60 d7b6 4787 e2bf
000001c0: 7426 4981 ed2a e9bf 4ce0 e03f 3fbd e3bf
000001d0: c609 5fe6 baf9 c2bf b226 d0b4 775c f03f
000001e0: ed9a 2973 4e0c e43f 9492 e36e 339f babf
000001f0: 9840 29a8 3976 e7bf abf5 791f bb7d ddbf
00000200: b262 ba57 8841 d33f 4ad9 38a4 a76c c0bf
00000210: a44d e57f 5582 d23f bc9e 768f f8d3 e03f
00000220: 4ba4 7208 3218 f3bf 8e9a 6f70 5f39 cfbf
00000230: 6de8 0b7f 2df6 d13f 4558 3138 bc5c e93f
00000240: aeb2 a6a9 c6f0 f23f eb52 b63e 17fa ecbf
00000250: cdbf bd0f 612c e1bf 6822 a376 333a f83f
00000260: 8098 3248 ee97 e63f b8fb 6d2e 80f7 e1bf
00000270: dbca 28f4 0dd2 e93f 1568 3bae f3f8 c43f
00000280: 4211 1a05 e416 f43f f611 8067 9f88 f2bf
00000290: a7e6 0ef0 da50 ddbf cb26 b393 4444 dfbf
000002a0: 2cd3 a923 592b ec3f d644 5bc5 4403 e0bf
000002b0: 6750 aaf7 a9d4 f73f 6a6f e192 a5c6 f1bf
000002c0: 880c be29 f462 f3bf de7a 201b 755b e0bf
000002d0: bd94 c889 d316 bb3f fbbd 1b7f 7656 f8bf
000002e0: a2b4 eb08 9a14 c93f dea7 64ba c47c cbbf
000002f0: 0d68 18eb 1399 ca3f 987d 4a5b a040 e2bf
00000300: 4827 b7bf 95af f0bf 302f e4f6 a3bc 9f3f
00000310: 6354 b95a 05bb ebbf f0b3 5c23 024a febf
00000320: 70a9 aaa4 e309 e1bf 6c1a 1181 cb34 c33f
00000330: 698d 9231 94ca c2bf 6b9f 02e4 e793 02c0
00000340: 403f 7138 20c5 08c0 6742 483e ff17 f2bf
00000350: 6074 f77f a530 d1bf a0b2 dd2b 1385 c73f
00000360: cbc6 9d83 2bb0 eabf 3900 6a3a 58ed e1bf
00000370: 34d4 85f8 3e28 c63f 098a b783 53ff fbbf
00000380: 1bce b5db 9a13 e93f a4b1 7356 09d5 d33f
00000390: b629 aada e526 d3bf 7838 f362 af90 e3bf
000003a0: 90cb 7f32 5a4b e1bf 0605 d43c a3bb fcbf
000003b0: ba22 8049 3242 e73f 783f a6c6 7bfb f5bf
000003c0: 8be4 ce92 f154 d33f 4e77 e2a4 7c3c f3bf
000003d0: 6a04 7fd0 e7b7 f0bf ce63 b4e3 a2fd fcbf
000003e0: f46c 7dad c8d8 dc3f fa76 5859 0018 c03f
000003f0: 9805 73bd cf63 f3bf 9d07 7a86 eb9e bebf
00000400: ca01 f179 3367 e1bf de1f 7b5a f85c f9bf
00000410: a939 1ff7 7869 953f bb45 c584 22c4 f13f
00000420: e23e 19fc 0fd7 c63f 2914 f67a 3205 fcbf
00000430: 8635 6d70 83bc bdbf 4983 d3d7 96ce f2bf
00000440: a7a2 9519 abc4 bebf 20d5 e211 52c9 f3bf
00000450: 5ed2 db2e 2aa3 f1bf 097e f594 8911 a7bf
00000460: 07a7 d2ea b708 d63f eb5a 6cfd e569 ecbf
00000470: 4437 bd44 88e0 f8bf 6d7d 7b64 7c7f d33f
00000480: 000d 89f9 941c f8bf 20e9 4ae6 b7e7 dfbf
00000490: 1f54 ce94 25e5 96bf e4ec 4c53 4da5 05c0
000004a0: 81d9 3221 0bd6 f73f 8aa6 f0e6 8e16 edbf
000004b0: 64e5 dde0 deea f9bf bb85 2c0e 65ba d23f
000004c0: 971c b5a3 5e55 e43f 5df7 a284 c4bb f73f
000004d0: c157 3ebc 8804 ecbf b6b4 4a08 9cd1 f4bf
000004e0: cd93 7fb8 fd96 cd3f 459a 6291 3853 ecbf
000004f0: c533 0d8e c127 d1bf 5881 2797 9803 fbbf
00000500: 0f92 7275 c0e0 f9bf f3ae d43d e61a febf
00000510: b548 5955 367c f0bf 87fd 242b 853f ddbf
00000520: d33b 8774 1510 e4bf dab0 80d1 51f6 df3f
00000530: 058e cf74 1901 f6bf 72c2 90bb 546a f43f
00000540: 5bed f1ba 76a4 a33f 9fe0 e24d 5d77 fdbf
00000550: 2edc aaaa 60bf e13f 5100 9ffb 1018 c1bf
00000560: 7216 2c6c 6f12 c2bf 6b75 7166 15e1 e63f
00000570: 179a 4861 3540 a33f d1de 6109 a9ba cfbf
00000580: 3220 50e6 39d5 cabf 052d e70d 78ee bfbf
00000590: e08b 11f8 cf40 e23f 02ee e627 8a93 df3f
000005a0: 10c4 cdfa 4c96 e0bf 399c 16c3 3a4f f2bf
000005b0: a75d 24b8 557d f53f 5727 a46f b9d3 cbbf
000005c0: 9b03 473b 63a4 dbbf c71e bb79 48c3 06c0
000005d0: a749 94f9 716d efbf 32ff 5830 d6fa dfbf
000005e0: 9637 4b02 128a cf3f a048 1953 2058 e7bf
000005f0: dedb 9d32 659a ebbf 5c50 2071 2a74 e13f
00000600: 1436 1c24 0d50 c1bf d9ac 7a83 cadb fa3f
00000610: e423 319d e18f e0bf d1d9 a68e 277f e9bf
00000620: 113b bb82 5cd8 c43f 022f 52fc 53cc e03f
00000630: 50b0 ed53 b222 c6bf 20b7 5713 0267 ddbf
00000640: 0d47 671e 3b07 e13f 7ded c648 4789 dbbf
00000650: 9e1e 9a17 a2b1 cfbf c0c9 9fe7 5b4c d3bf
00000660: 8415 0eb6 fe18 fcbf 80a7 f041 7882 db3f
00000670: db26 8e26 4bf8 e03f 7a1f cae5 c347 da3f
00000680: 0549 906f 6dee f2bf 1858 50a7 8a35 ccbf
00000690: 9269 7120 5641 bcbf 759c 8336 3c17 ebbf
000006a0: 821b 8c26 f8ac d83f d2fa 0c8f f71c f43f
000006b0: dfe8 52b9 f34b ddbf f782 3c71 04a7 f13f
000006c0: e2e1 e04d f9a5 a9bf 9dcf 5edc 4cc5 d7bf
000006d0: fe7d 43b2 977f f3bf e0f6 eb41 b758 d7bf
000006e0: 7ba6 a7d0 a93d a33f dc84 203f 8fe1 c43f
000006f0: a22d 643c 5b46 f0bf 9bc0 1814 eea4 b53f
00000700: d925 5be6 3ef4 f0bf 76f8 21ba dfb2 01c0
00000710: 87da cf0f 09e1 f1bf e261 e658 238e e53f
00000720: 9ef5 c2da c5fb d03f 7ad8 3918 dd1e da3f
00000730: 6d35 0e64 e884 f0bf 332f 6640 fd7b 8a3f
00000740: 7bfd 4696 c364 b9bf 50b4 8100 42d0 f23f
00000750: bd85 8494 b859 f83f f887 f129 22aa d63f
00000760: af30 f730 54e8 eabf 35cc 2ea4 22ac f33f
00000770: 06dd ae50 5cd2 f8bf 7e1e 8535 2195 d43f
00000780: 461d f1e0 902a c7bf d10d 19cb fb74 d6bf
00000790: a151 6391 1239 e8bf 213b 09e2 afb4 f83f
000007a0: 3d3a e7de 997f e2bf b54c cba0 b53a fcbf
000007b0: 3f34 097e ea01 e93f 12c6 1d61 a9b3 efbf
000007c0: 03af 7d9f 440a f03f f975 67d9 8d92 d53f
000007d0: 8e31 85f8 9191 f4bf 14ab d9f0 e0ce f33f
000007e0: b491 fea2 4e03 eebf 724f 5f7b 4e5f ea3f
000007f0: 9be0 60ec dba5 fc3f acb1 0b71 5f8d e83f
0.6038557793652959 -0.6897389711929323 -0.7639087255773226 0.6942493062564976 -2.5882118622744072 -0.6283043917585349 -0.6082366459294968 -1.7960776407375951
0.34331981774766823 -0.1865542490664146 1.5851697061624939 0.43120862358653494 -0.5305990441555611 -0.7506337401995655 0.050626683964433046 -0.3953226074930529
-0.8224420511271474 0.5533031214019066 0.685081444870666 -0.9204477148474474 0.10271780516600235 0.9332669855139061 1.8158273106465947 -0.3613341604985116
-0.21036421647257375 -0.6639771029641602 -0.9716610929384114 -0.09669275819737057 -2.4292668710681142 0.28058195533861985 0.8563456076800842 1.8861289595068507
-1.8208458114094177 -1.8682148204992979 0.15857865478222177 -0.7092100874470422 2.4600453564803257 -1.0467229053511675 0.8471752425183313 -0.9569490827782982
-0.7360077767893014 0.331352985066687 -0.3032341860322903 2.0779782833009124 1.8178340020872295 0.12004434639302147 0.11685624301549782 -0.5378681437842083
-0.36634563208608806 -0.8617044938733363 2.2110769600593474 1.4600482218139506 -0.35536177303588595 1.8246508913330275 0.5963343690314955 -0.5790136881942245
-0.7864902043449562 -0.6168514487863006 -0.14824615715595096 1.022575098324904 0.6265022515552495 -0.1039917131161679 -0.7331817898175528 -0.4607990081202284
0.3008747917861384 -0.12831588286071344 0.2892049550038911 0.5258753587740652 -1.1934070901864 -0.2439383791927025 0.2806504955948473 0.7925702188029012
1.1837832095144836 -0.9055286621902189 -0.5366673762746302 1.5142092355983099 0.7060462389097353 -0.5614624888256605 0.8068914192902769 0.16384740836548475
1.255588550499923 -1.1583551447848754 -0.4580600113218715 -0.48854174064454686 0.880291528372799 -0.5003990034694208 1.4894199060845723 -1.1109977471851047
-1.2116586332856816 -0.5111642389127515 0.10581705201964815 -1.5211091008349047 0.1959412139471271 -0.2147451315043431 0.20779656390442405 -0.5703889639880115
-1.042867421043825 0.03099304384617979 -0.866579701609805 -1.8930684453327977 -0.5324571815629451 0.15004867364969543 -0.14680721684008383 -2.322219640092887
-3.096252861934687 -1.1308586533451945 -0.2685941457437533 0.18374862329382768 -0.8340051241522927 -0.5602227345370984 0.17310320982838479 -1.7498355050271377
0.7836431781019572 0.3098777145630953 -0.29924913743948467 -0.6114117558115728 -0.540448282843828 -1.7958099723912837 0.7268306193883156 -1.3738973388426228
0.3020595487283308 -1.2022673073583579 -1.044898809850816 -1.8119229216301735 0.4507314390409214 0.12573246347977102 -1.2118680382121507 -0.11961242707368887
-0.543847788016188 -1.5851977857982926 0.02091015823662593 1.1103844820357682 0.1784381848287842 -1.7512688449071538 -0.11615773672857274 -1.175436823912792
-0.12018842100736525 -1.236650533549728 -1.1023351507584702 -0.04505567496630298 0.3442821305458072 -0.8879270505593387 -1.554817455780225 0.30465612232906986
-1.5069780108904638 -0.4985179661704411 -0.022358500678439804 -2.7057138927317386 1.4897567078420197 -0.9090036879108123 -1.6198414596422817 0.2926266325394768
0.6354211041842913 1.4833417111508063 -0.8755534817344072 -1.3011741947077957 0.23117038258274505 -0.8851588096193345 -0.2680515181753516 -1.6883779434648059
-1.6173710429949357 -1.8815672316804324 -1.0303252538620147 -0.4570019646962113 -0.6269633556311142 0.4994091554569998 -1.375268417636904 1.2759597136283927
0.03836413414043235 -1.8416417162352798 0.5546115239475335 -0.1335469463938375 -0.14118759900900418 0.7149760247081479 0.03759924709838829 -0.24788392027016085
-0.2096321463179734 -0.12473249759129963 0.5704116673554118 0.49338010689436385 -0.5183472536574545 -1.1443431492459821 1.343099326424502 -0.21739881468993857
-0.4319084242707107 -2.84535307981773 -0.9821100115389542 -0.49968485566568 0.24640107261660366 -0.729507601072573 -0.8625970829588103 0.545430394124661
-0.13525547278588645 1.678659928885102 -0.5175636358409261 -0.7967717920462808 0.16285282500617673 0.524942391218673 -0.17293385599203015 -0.45941211594514364
0.5321326822106315 -0.4302538119042863 -0.24760843422358375 -0.30153558368251865 -1.7561022864841513 0.42983824195345477 0.5303092721016712 0.4106302017248634
-1.1832098348573379 -0.22038396043416308 -0.11037195484224174 -0.8465863289574275 0.38555721058258297 1.2570720279615455 -0.45776074502977154 1.1032757209106288
-0.05009440494217522 -0.3714172508291485 -1.2186505282805906 -0.36478978574437626 0.03757982894951525 0.16313353140234355 -1.0171768530879963 0.08454788199083156
-1.0596302984507615 -2.2123407880417814 -1.1174402825978704 0.6736008392645625 0.2653669964164126 0.40813376775566435 -1.0324481876771998 0.012931803252989127
-0.09919378680114292 1.1758441943923295 1.5219045449706379 0.35413412185710014 -0.8408604580268014 1.2295252240553627 -1.5513575698549302 0.3216021559387413
-0.18098650916565812 -0.35089011033798295 -0.7569668616875341 1.5441130475553069 -0.5780763009623296 -1.7643333703061164 0.7814838849677769 -0.9906813523104481
1.0025068502536107 0.3370699523055403 -1.2855395992110945 1.238007489034037 -0.9379037078365884 0.8241341027846671 1.7904929383785546 0.7672574241565164

input_gate_weights f8 [108, 81]
00000000: 265c 3720 95fa ff3f ad1d a964 dae3 ddbf
00000010: d76f d78a 7ec5 00c0 1f66 f4dd e4cc ea3f
00000020: 31fb 580e 85b0 f8bf 1266 1842 6b77 f73f
00000030: 8401 4c94 198b a63f 7917 f24d 4892 f83f
00000040: 691e 11d6 512a f93f c199 2e5d 0b38 dabf
00000050: 96c8 e0e5 fbd8 ef3f c2a5 8b6d 8d53 e7bf
00000060: 797a 94f9 1185 7a3f fb29 ff42 9242 f23f
00000070: 4243 ed00 64bb b33f 88ea fbc7 7aa5 ef3f
00000080: e3bd b8f5 046d b43f 6c54 73fb 950a fe3f
00000090: 5f68 7f0f 0f95 f83f f9d8 c8ac b78e de3f
000000a0: 80f1 b02d 964f c1bf cdef 0df7 7b7a 03c0
000000b0: 1880 38b7 1b79 f13f a017 c5b8 f075 bbbf
000000c0: 789e 54b0 5edf e43f ad37 e2b5 b63c e7bf
000000d0: 5eed 7add c35f e93f 39d8 bd80 b90f d83f
000000e0: 3bcf 53b6 f43b fe3f 5cbf 5589 733f b83f
000000f0: 560d eec5 22e4 0640 2ffe 8e8c 2be6 f7bf
00000100: aab2 9723 c572 943f a673 bea2 59a6 ff3f
00000110: d1b0 335a 34e7 f63f 5308 300f 5396 ca3f
00000120: 7ae8 d18d 0ac8 f73f f8bc 755e 3cd9 f1bf
00000130: b455 6e85 cd52 f03f 9152 92ed d461 df3f
00000140: 4e07 90c8 b5b3 d73f 8754 7811 80cf e43f
00000150: 6ab5 1467 d786 eabf 99dc d79e 9060 f63f
00000160: a9e0 6874 5451 b3bf 5df7 fa44 2e4a abbf
00000170: 6afa 4e21 19a8 cd3f 6f80 5b74 bcea d23f
00000180: 992d 5085 cc33 ec3f d422 c7a1 9c18 f2bf
00000190: d98e 8683 35ab d2bf ab9a 52dc 3aba e33f
000001a0: 9d01 8713 19c5 d43f b59f 77f2 fc26 eb3f
000001b0: e56b 519d 1877 f53f 253c 9714 883b e5bf
000001c0: 5079 06b4 6aeb f0bf e1db 7a48 5445 d13f
000001d0: 2b7b 4c72 1121 da3f 30fd e819 df6c f33f
000001e0: f2be bf82 0a90 0340 666c c92a 51cf d83f
000001f0: f52d 451d b744 e33f ee23 1994 7fa8 e0bf
00000200: 849e ee33 4cb2 ecbf b6eb 74db ac44 fe3f
00000210: 7b86 b5bf 0e89 f03f f18d 4fa3 fad2 f33f
00000220: b131 e76f 6d77 ffbf 79f1 dcad c51c f13f
00000230: 372a 0de3 aa6b cc3f ae3a cc5c b2de aebf
00000240: db2a 9082 1c37 f93f 85f2 2afc 5d58 f63f
00000250: 1450 e19d 4434 d03f 7096 ee28 9a93 cf3f
00000260: 8456 ff71 7700 0240 ac47 b03d 3e36 c2bf
00000270: 17a9 796e 8c90 f43f d3de 0904 88ad fd3f
00000280: b26e f0c4 50b5 f53f 3628 4319 456a e2bf
00000290: c384 6f6e c4a3 e8bf e972 984b 34ac cdbf
000002a0: b6de 610c 96a7 dabf 256d 4b9d 01e8 dbbf
000002b0: 08eb 99d2 61af 953f ee9a 3df1 0760 e7bf
000002c0: 8f1b 35c4 6a35 cfbf ff54 3e30 414c d3bf
000002d0: eece 5c1e 9e09 d2bf 635f fad5 85a2 d1bf
000002e0: a49d b19e ff93 fbbf 219a 28c1 f909 d3bf
000002f0: 1260 88f3 98ac d4bf 0e4a 740f 5727 c0bf
00000300: 75fb eaf9 96aa d2bf 64d2 dee9 ffc0 d1bf
00000310: d4d3 b31f f5c7 c4bf 1e51 3e56 0ab5 e1bf
00000320: 5ae4 0b89 3c37 f5bf e795 19c3 2f32 e83f
00000330: ef14 628c 675d e83f dd5e 9b3b e632 f0bf
00000340: 0453 f575 3684 f33f ce03 f27a 81f9 f4bf
00000350: 57a2 ca75 96e6 a7bf f77b 6d6f 7a02 adbf
00000360: 046c 715d 056f e13f 1361 1e13 7834 f1bf
00000370: 90bf b09b 8a01 f0bf e353 e1f9 5408 d7bf
00000380: 6998 3bb7 5d33 cabf 20a3 c7f2 c301 e7bf
00000390: 5a55 aaab bd76 833f f824 66c0 d37a d2bf
000003a0: c508 fa97 bbe6 ad3f ae24 213d 01be e63f
000003b0: 17ed b0d2 60e2 c8bf e37e 59bb a388 eebf
000003c0: 9e59 27af 8d93 e0bf 2cee e600 4196 dbbf
000003d0: 3c16 b85f 7049 f3bf 403b 4ce3 d2f2 ea3f
000003e0: ffbc 15d4 3b6b fbbf ed27 23a7 1728 fabf
000003f0: 3b40 5dec fe13 f4bf 3c50 0d1d 5e35 d4bf
00000400: f034 137f daf4 e5bf 6770 cb7c 7925 8ebf
00000410: 1800 2339 9e79 e03f cffb 8575 ea32 f5bf
00000420: 5fec 2a67 3656 d6bf 5e14 6c09 7ff2 e4bf
00000430: 8c45 8d5b ed2b f6bf b19a cd1f 0051 e03f
00000440: be39 bc29 ecaa d63f 3cf9 8e6a 550e e4bf
00000450: 91b4 7587 b837 e8bf f8c6 2579 de11 f1bf
00000460: e010 cfe1 9029 f3bf ab0c 0e73 6a9b a23f
00000470: 1004 18f9 e9b2 febf 6b05 c374 bbf0 e3bf
00000480: a469 1b72 8737 e0bf 7fbb 9d1f 0dae e03f
00000490: 1d8d 18b1 f18d c23f 6387 daf0 129f febf
000004a0: 0cb7 7ff2 7fc6 debf 6cf9 e4e9 2428 bc3f
000004b0: 6d87 3bd2 e017 d8bf 2e67 7d92 0b3c f5bf
000004c0: 2298 024c 4e85 f3bf 2287 36f6 4880 e2bf
000004d0: 2ede c6c5 e9e2 d8bf e673 0a2c 928f eabf
000004e0: 7bff d892 ae86 02c0 d453 fc3a d39b adbf
000004f0: ba99 5231 c5a1 a03f 44f1 8047 9eb9 e4bf
00000500: 0b0a 8664 e9b9 f9bf e478 5ab3 3f1d cd3f
00000510: ef71 46c1 591f b53f 12f0 b920 23ef e3bf
00000520: 1551 3d82 cc98 f7bf e95e 4be9 e502 f2bf
00000530: 85f1 4a57 deb3 fbbf 667d bc73 b883 b2bf
00000540: d9d3 b09e fbb6 b73f 9da3 81cc 0f96 a4bf
00000550: 1331 02c1 2787 c5bf efa4 7eb2 a1a0 dbbf
00000560: 677b d95f 351d e53f 59aa 21be e376 fdbf
00000570: bd6c 0a41 0663 9bbf 9576 f687 2f2c e6bf
00000580: 0009 2430 99ec f2bf 0ef6 e57d 0562 e73f
00000590: e849 78b8 aa19 e43f e468 ac37 ff86 e43f
000005a0: d80b 0524 bb04 d93f 515e 6b41 f4e8 e3bf
000005b0: 2069 9166 a91d e13f 29bc d799 6d14 cbbf
000005c0: 2ea6 95eb 37a2 ebbf 2717 c067 559d ebbf
000005d0: 6991 e7a8 6012 f2bf 4f07 497c bc50 e8bf
000005e0: 3c10 b98a 7281 f73f 10bd 13cb 1232 d9bf
000005f0: 7f0e 571b 66f9 edbf 74a0 8296 0a66 debf
00000600: 2efe 5a30 f861 e93f 2331 cf46 0421 f0bf
00000610: e581 b294 955a f5bf 6482 66dc b827 c63f
00000620: 9bb4 f557 1631 ecbf a38c a482 cd03 d63f
00000630: 6e07 e173 e757 e33f 61d4 a2dc c513 f6bf
00000640: 7bda 410e d936 b2bf aced 5376 5c58 dcbf
00000650: d5d6 d22c 1c4a 97bf ab3b 5d20 48cf f2bf
00000660: 8627 dd36 a37e e4bf b000 bfe6 4170 f1bf
00000670: 14f4 23c5 89a2 f5bf 3ab0 41c3 a073 fbbf
00000680: df6c aaa4 b866 d4bf 81a3 c07c c9e8 f2bf
00000690: 715d 5f29 8270 df3f 9ed1 4315 354a d7bf
000006a0: 2347 e414 ea1d f3bf bd7d 03c3 fab5 f1bf
000006b0: d4fa 9769 0032 e1bf 38be 8f3b c2f5 01c0
000006c0: bab6 250d ab5e f13f 95a6 953d 8b54 debf
000006d0: 5c58 eeae 1ec4 f1bf b930 f314 a7c4 d1bf
000006e0: 4e01 30c1 a016 f6bf a2d5 d6a0 202f e4bf
000006f0: 44e8 221e 90a8 e83f 29b7 d1c9 b0c7 c8bf
00000700: 566c 176e 0858 f4bf c417 a59c 1ffb ffbf
00000710: 4d04 3e80 7055 e3bf 23ec 0e28 79e6 aabf
00000720: acb4 d0d9 821a d03f 3a7f 1ab1 21a2 a53f
00000730: d7e4 2e27 fb01 debf dba4 6149 0f4a be3f
00000740: eb09 7db5 e665 ffbf f78d fa12 10bd f1bf
00000750: d3a5 329b 2ed1 e2bf 259e 5fc1 51f1 e53f
00000760: 15fd 1b52 5af5 de3f 7316 a312 ea3e 01c0
00000770: 1daf 745a a374 d33f 0f7f de4b 2971 dfbf
00000780: 378e 9e6b 8f6c e0bf e890 3ca3 6bf0 d3bf
00000790: bb7e 39b6 a07f e43f 103d 6c45 a779 b2bf
000007a0: d3d8 f397 b371 e4bf 3f11 baed 82f8 bdbf
000007b0: c231 1c70 6592 e43f 5e94 1205 a44e d4bf
000007c0: 693f 2e25 6a52 f93f 9971 7e38 6654 e13f
000007d0: 5903 5fe8 ce4a d8bf af26 e4dd 7beb e53f
000007e0: 873a 87c3 bcf4 c53f 02e0 07a7 e59d fc3f
000007f0: f8a1 4195 a475 ef3f 26c1 55b6 695d d53f
1.9986773737380275 -0.46703204946649174 -2.096432766627895 0.8375114760448844 -1.5430956421329933 1.4666550237510632 0.044029998161934564 1.535713486171032
1.572831951330864 -0.40967067813690156 0.9952373018079637 -0.7289492740211971 0.006474561895884017 1.1412527672824797 0.07707810423495423 0.9889501481951166
0.07978850363792094 1.8775844404492785 1.5363913159731266 0.47746078370563755 -0.13524129134192364 -2.4348067570808554 1.0920674473818561 -0.10726837645515142
0.6522668308216018 -0.7261613418975138 0.7929400754723408 0.37595975468082404 1.889637672630626 0.09471819022087175 2.861394449546121 -1.4936938753670679
0.01996906308879668 1.9781128270326263 1.4314464114677785 0.20771253816207266 1.4863381900636612 -1.1155360879745881 1.0202155315540553 0.49034617615078796
0.37034363352005506 0.6503296223842349 -0.8289601338671393 1.398575420838631 -0.0754597458079639 -0.05330032913251046 0.23169244886772172 0.29557715762167097
0.8813231090329509 -1.1310087508629083 -0.2916997703962188 0.6164831450631331 0.3245299044320065 0.8485092864693714 1.3415762086140088 -0.6635170366442976
-1.057474806999 0.269856520444078 0.40826831972110494 1.2140799533952524 2.4453325476423453 0.38765362909697954 0.6021380969700078 -0.520568646673494
-0.8967648519801092 1.891766412022418 1.0334613312374177 1.23900855820909 -1.9666571017470285 1.0695244590307011 0.22203575216765767 -0.060292791202404813
1.57595492364151 1.396574006109547 0.25319018762570633 0.2466919612754057 2.2502278238342246 -0.14228036892069207 1.285290175956623 1.8548660428768258
1.356766480725963 -0.5754724019436768 -0.7699911267228788 -0.23181775752245606 -0.416478645412535 -0.43603554116062276 0.021176842192725892 -0.7304725372058252
-0.24381765919153195 -0.30152921401288774 -0.28183701481906 -0.27554460426607913 -1.7236324500062006 -0.29748386252541265 -0.32303451330653943 -0.1262005639515142
-0.2916619721035468 -0.2774047645464519 -0.16235221908541908 -0.5533496555749797 -1.3259854653718066 0.7561262903733991 0.7614019147737546 -1.0124265983958403
1.219778500341989 -1.3109144976190126 -0.046681119803285646 -0.05665953264428219 0.5448023629245431 -1.07530982464056 -1.0003763276726865 -0.35988354112970294
-0.20469256827272211 -0.7189655057710276 0.009503824044524368 -0.28874677456822395 0.05840097646889001 0.7106939500746614 -0.19440851485874397 -0.9541796359225966
-0.5180118962260172 -0.43104577148526135 -1.2054294337298321 0.8421415748033283 -1.7136801037375446 -1.6347881821443437 -1.2548817856768568 -0.31575730168447413
-0.68613934344617 -0.014719914551669612 0.5148459545089308 -1.3249306288487224 -0.3490119941231508 -0.6546015914942804 -1.3857244087451788 0.5098877545504675
0.3541822822161541 -0.6267497140141027 -0.7568018575381236 -1.0668625576330992 -1.1976479359300853 0.03634197859266782 -1.9186801653124839 -0.623136261034387
-0.5067784527448578 0.5212464921477106 0.144956790421113 -1.9138364227623803 -0.4808654659417335 0.1099875517875028 -0.3764574101497747 -1.3271594736347185
-1.220045372881494 -0.5781597908828398 -0.38884968103545503 -0.8300257549450378 -2.3157626602623487 -0.05782947630920146 0.03248420931895475 -0.6476584812694814
-1.60788859622028 0.22745510346880515 0.08250962227470614 -0.6229415549455573 -1.4748044097405615 -1.1257075417578852 -1.7314132127640687 -0.0723223955687807
0.09263584732327902 -0.04020738002220201 -0.1681871120857826 -0.4316791766273828 0.659815489965564 -1.8415257861148773 -0.026744935722132313 -0.6928937583467866
-1.182763279008725 0.7307155093146223 0.6281331637313174 0.6414791190502709 0.3909137584452629 -0.6221867826197444 0.5348708155900432 -0.21156091701365767
-0.863552055479152 -0.8629557634710395 -1.1294867132029032 -0.7598555018850933 1.4691033762801586 -0.3936812384772148 -0.9366941961274761 -0.47497811029689463
0.793209165996762 -1.008060719107626 -1.3346153076637333 0.17308722268809895 -0.8809920995678512 0.3439821029480276 0.6044804824125387 -1.3798273676486803
-0.07114941213681363 -0.4428931384606709 -0.02274364493924604 -1.1756058944917906 -0.6404586860237351 -1.08990659842679 -1.3521821690367277 -1.715729487153125
-0.3187696083129605 -1.1818327782768565 0.49124197044644463 -0.36390425755168987 -1.1948033157427254 -1.106928598186513 -0.5373537123085392 -2.244999375652494
1.085612346035687 -0.4739101506625983 -1.1103808243983826 -0.2776277260388827 -1.3805244013202187 -0.6307528630629131 0.7705765331841197 -0.1935940728612249
-1.2714924145173163 -1.998809444326512 -0.6041796211940295 -0.05253962148659521 0.251618111334049 0.04225259100826269 -0.46887091471178394 0.11831756154574029
-1.9623782243148706 -1.1086579076153364 -0.5880349189002864 0.685707929308539 0.4837251474236422 -2.1557198959370054 0.3039940245969193 -0.49128181847662317
-0.5132519819202973 -0.3115491003138815 0.6405795630525611 -0.07216878361599677 -0.6388795821974561 -0.11707323364141063 0.6428706349993762 -0.3172998475586776
1.5826207592362727 0.5415526488682644 -0.3795659322022878 0.6849955877125548 0.171531291458866 1.7885490917815337 0.9831107058681132 0.33382647329473725

output_gate_weights f8 [108, 81]
00000000: 0ad4 a87d 8929 f0bf 8cc4 75be 8252 f3bf
00000010: af97 79e7 d899 f3bf 44de 2e0f 70c9 e53f
00000020: 5360 7f0a a102 febf 068a 8090 af1f 0140
00000030: cb46 f296 06d4 c43f d1db f6b6 d945 e03f
00000040: 4c73 3e2c 7436 0840 4ece b77b 9c93 e9bf
00000050: f29f 9489 9d30 f23f c337 9c77 6ebe dd3f
00000060: 5282 150b bf48 e1bf c2ef b7a1 740c e93f
00000070: 3f35 5ffe de99 f0bf fca7 b179 9d01 c73f
00000080: 5a35 d9f7 91fd d93f d3b1 dc06 9ce0 0340
00000090: ae86 af54 a194 0040 1ce5 8103 5978 f2bf
000000a0: a3cc 59a0 74a9 d33f de60 5b0f 0204 f5bf
000000b0: 156f 23a5 3e49 f63f 6da1 a1b7 a16c b03f
000000c0: 0855 983b 58e0 9e3f 155f 78cf 32fc e2bf
000000d0: 5f42 a2eb b63a b53f b6f2 48ca 5a84 ea3f
000000e0: 26b3 897c f217 d93f ea79 264f 73a7 cc3f
000000f0: ba34 cd84 b6cd 0740 cf10 caa6 58c1 d5bf
00000100: 13ae 45f1 2ccd e2bf db64 6e75 f393 f03f
00000110: fb6b f94b 6672 afbf 5df0 8a72 5988 e83f
00000120: 011c 444e a9a7 f33f 3998 aaf1 c711 fcbf
00000130: 4b8f 9d57 a4b6 f13f 135b 02df d162 ce3f
00000140: a958 30fc 6463 b83f e265 2d5c 6a8a e9bf
00000150: 3942 271c c71b eebf dde6 3227 c444 fa3f
00000160: e6a1 1feb 438f f43f e333 a1f6 28fd e1bf
00000170: c0b4 0e47 4f15 e8bf a46d edf3 5f83 d1bf
00000180: 90b5 10cc 9520 d63f a046 54af 6bf6 d2bf
00000190: b59b 238b 6c17 cd3f 8ca5 fc5c 5a86 c53f
000001a0: de08 d8b5 e2f5 c63f 6414 41d8 ffbe f33f
000001b0: 154b 06e2 aba8 f23f 189d c08d b61a e3bf
000001c0: 516d 7893 eeed fdbf b125 6474 8222 dc3f
000001d0: 04a0 f9c2 7e1a f4bf cc37 baac c0e0 e23f
000001e0: df2a 1e68 3012 e83f 4af8 fbc7 6966 f43f
000001f0: d41b dc6e 237b d9bf 828f b504 f257 f5bf
00000200: 1543 59a0 e004 f5bf 0433 26e5 d42b f13f
00000210: d951 e18d ab6f e83f 341c 1b7c c670 fb3f
00000220: 805a d4e5 e171 01c0 31c4 1838 5be2 f43f
00000230: 258f d4da 690c e3bf d65f 46b9 763f acbf
00000240: 0d35 15cb 8f80 0040 5199 89f1 e376 e23f
00000250: 14eb 3a25 491d e8bf 01e2 7755 a08e c53f
00000260: b8cf 654e e770 fb3f 8788 bafe 99b6 f1bf
00000270: b910 dc8e 2102 fb3f 82b9 f9e1 bdbe 0340
00000280: 6ed6 ab90 07e7 f73f bd0c b55b 5898 d9bf
00000290: ae85 a072 649e b8bf 4cfd 37fe b484 f3bf
000002a0: 08b4 a2d6 4e3b cdbf 2715 1fd2 3c75 d3bf
000002b0: 8fec 2e90 15aa d73f ea03 2ee0 a3cf dabf
000002c0: d921 651b c275 efbf ada4 3298 3539 dabf
000002d0: 1148 b235 a93a e93f f265 8388 27e8 ca3f
000002e0: ac98 aef4 4e44 f8bf 2754 0714 ae66 e4bf
000002f0: 133f b5d0 a054 bb3f ffcc ce51 7ed8 efbf
00000300: 99cc f206 516e f3bf 8f78 77f3 5b4d e73f
00000310: a48d dd61 7328 adbf 569a a604 01ec dfbf
00000320: 68a3 dc86 e0f7 f9bf 4528 654b 5842 e93f
00000330: e64a 4677 5015 f7bf 1f67 c34c 3a64 f9bf
00000340: 7c66 f4cf 9b25 d2bf f3e6 4348 1e4a ffbf
00000350: 1e27 030a 729c d23f 0e6b cc79 c34b fcbf
00000360: f301 9d13 5cee f3bf 3b2e 4f6c 37cd e8bf
00000370: fca1 51d8 1110 e3bf 764f 007f 1231 cdbf
00000380: f029 7ba1 f897 f1bf d78e eacd a43c e6bf
00000390: 6c85 916d 60cd f1bf 7ed2 9789 07f2 febf
000003a0: 9641 e993 83ad b63f d83d e402 01f4 cc3f
000003b0: b6b3 62c7 cb37 f63f 302d 24d4 75b5 f7bf
000003c0: 416c 713b 2354 c2bf 2715 84d7 888b ffbf
000003d0: 5ef0 321f d6db f7bf 4317 1122 9fc0 d6bf
000003e0: 2e75 a5b8 488f f1bf 93ff 3abf 9f22 e1bf
000003f0: 9655 4996 f458 edbf cfd1 85da 50de debf
00000400: 079d 0757 0f03 f3bf 5d55 8ed9 2b15 e5bf
00000410: b1dd fb77 e568 da3f 5c1d 5e3d 3676 e1bf
00000420: d3fb 9ca7 d733 c53f 5dfe 850d 10e9 c13f
00000430: 6d85 edec e485 d4bf fb6b f70f 9dc2 d53f
00000440: 9569 0daa c5f3 d83f 0f66 f105 db9b ecbf
00000450: 586e 2692 1d6e efbf fe70 11b1 9f3a f2bf
00000460: 5d05 3e01 b550 dcbf e69b d189 b26f e6bf
00000470: a447 1dec e808 f4bf 2733 2cfa 6abd c83f
00000480: bdd2 28d5 41b5 d2bf d9aa fadc 9a48 edbf
00000490: a514 7423 e2f7 ebbf a36f 7bc8 3ce2 04c0
000004a0: 5439 8c07 8c96 b7bf 749f 432c 5950 e1bf
000004b0: bc1e 724d a78b 8abf 1590 650c 5b7d 5f3f
000004c0: e76e a726 1fb0 d8bf 200d 6fa9 f90f efbf
000004d0: 0755 87ed 10b7 e8bf 6312 564e ab2d 06c0
000004e0: b2be 7bc4 4e54 cb3f 8545 6cf3 c34c efbf
000004f0: edf4 dc8e 2df9 e7bf 3d4c ab86 7f19 f2bf
00000500: 3888 c296 1665 00c0 c56f 7840 c1c7 edbf
00000510: ed6f 15ed 6a17 f2bf 78d6 7c2c 7b3a a4bf
00000520: a82a c782 f27b fdbf 16a7 224e ef8c e2bf
00000530: e734 d5e5 7cee f0bf ed3a 596c 9257 f73f
00000540: 2c90 ed9f 332f dd3f 943c d949 8eb0 e5bf
00000550: 7229 5497 2997 d93f 4671 b32a 6d61 af3f
00000560: 2840 7509 e4a7 d63f c691 562f 5eb4 ecbf
00000570: 66bd 4032 4bfe b5bf eefc ae2d d89d dc3f
00000580: 8ebc 26c6 792d f5bf 63bc 260b 7ee6 953f
00000590: d23f 5f84 c3dd e23f f538 eecc 4082 e73f
000005a0: 7f71 67be 5ee5 c83f a3a4 e872 a320 f7bf
000005b0: 886f 8f9e 78d5 f03f 7345 60af 94bc ffbf
000005c0: 1abc 8e78 ffae ddbf ca8e 84ed 9d06 febf
000005d0: 74b0 edc9 2611 f2bf 648e 336a 4e1b f0bf
000005e0: c19b 5837 e899 b6bf 8510 3ee9 9c23 f8bf
000005f0: 49ac 3a8f 1221 f7bf 1956 77df 00b5 b5bf
00000600: de25 17ba 9abc e53f 13b4 643b 2893 f0bf
00000610: 4aa7 3789 acb5 f9bf 7ac5 5627 2287 c0bf
00000620: 2bd8 ed3e 3b7d 00c0 9c5e e38b 044e e83f
00000630: 086b f5e2 3c7d 413f ae2f 588e bc05 bcbf
00000640: ebea e3cc 43f2 943f 16bc addb b3c3 d9bf
00000650: 7c08 17bf 0678 dbbf 3c7a 852f 650b febf
00000660: 4d20 34a6 3054 ebbf 6467 2f6a 7af0 e0bf
00000670: e76d 34ce 51a6 dfbf 3349 009b 2d87 e2bf
00000680: c1ec b508 76ef f0bf 1813 367b c119 fdbf
00000690: e388 d9a8 a49e d03f b60e 48a0 a392 c3bf
000006a0: 87a6 828f f7df f3bf 3bea d16c 2e21 9e3f
000006b0: 5435 fa72 f8a2 9d3f e886 be44 ae33 f9bf
000006c0: 4582 8eb8 e245 e73f ae23 bbf9 677d 96bf
000006d0: 51f1 436e 18d0 fabf 39fd 7747 e648 d8bf
000006e0: c7cd 83d5 c67e f7bf 132c 9985 0ea8 f0bf
000006f0: 0243 8258 03af d3bf 9c70 a99b 6d3f ea3f
00000700: 0d96 fd67 e18f f2bf 6dd3 8da8 c705 f9bf
00000710: b084 e52b 00fb 00c0 87ec 3730 38cf ecbf
00000720: c5f4 48ab f7f7 c63f 46d5 28c6 6156 e03f
00000730: 73d0 724f 5eda f4bf 8091 e3f6 a194 d53f
00000740: 0919 f875 060b febf 070c 8f19 d5d3 e6bf
00000750: 13dd 7dc9 543b c03f e972 7ea9 89aa b83f
00000760: 254e 14bc 5580 e6bf ae9e 7b35 a96b e2bf
00000770: ecf2 1beb 4fa1 833f d3fa bb55 b9c7 f6bf
00000780: a0e0 1fa7 154a d0bf 46de 8a02 123a b13f
00000790: 362a 1578 6240 b03f 31c1 9628 44c6 d33f
000007a0: 7abb 3946 1a19 f2bf 65ce 0943 aeae dabf
000007b0: 2ac4 f208 fd52 0340 6123 c375 ca39 06c0
000007c0: d880 241d 6298 e73f 9c07 34f4 21e5 ed3f
000007d0: 6c2c a263 abf7 f4bf 5dc7 d75f 9ab8 f13f
000007e0: 7580 5da7 08db dbbf f18c 8795 c79a 0740
000007f0: 038d 1783 8390 e53f 7f92 4bc0 4c08 e23f
-1.0101408871244097 -1.207644218430036 -1.2250603715888067 0.6808395668549072 -1.875641861921413 2.14047158138533 0.16272051210812885 0.5085266660233804
3.0265887695844977 -0.7992689529768968 1.136868989395222 0.46474801712690467 -0.5401301590428125 0.7827704580845352 -1.0375661789324366 0.17973679010475496
0.40610169605209523 2.4846725975132613 2.0725733390871346 -1.1543817650802515 0.3072177472997259 -1.3134785270577178 1.3928820086211477 0.06415758832156877
0.030152681958573374 -0.5932859470512734 0.08292716267374932 0.8286565733793256 0.3920866218748408 0.22386018147240289 2.9754457831500902 -0.3399259213258689
-0.5875458443019305 1.0361208521992953 -0.061419674658019084 0.7666442143595408 1.228432946898238 -1.7543410720914052 1.1070903227309425 0.23739074124451828
0.09526663929895797 -0.798146419557437 -0.9408908414716911 1.641788628693056 1.2849768814577316 -0.5621533219324387 -0.7526012790528043 -0.27364348240890934
0.3457388394188792 -0.2962903225135083 0.22727734369183641 0.1681626276052096 0.1793788326177212 1.2341307113104216 1.1661795453152923 -0.5970108765222077
-1.8705888519824223 0.43960629812553537 -1.2564685455527078 0.5899356244642546 0.7522203477431865 1.2750032245526364 -0.39814077211525256 -1.3339710411027856
-1.3136907828922564 1.0732010794774292 0.7636316081139355 1.7150330398451503 -2.1806066470556402 1.3052627745894478 -0.5952653192548253 -0.05517169009834759
2.062774263939565 0.5770129888085568 -0.7535749175216062 0.16841510937935314 1.715064340821284 -1.1070804548585629 1.6880202846960357 2.4681356100401795
1.4939036990375842 -0.3999234099939704 -0.09616687582504 -1.2198991709154425 -0.22837243538143093 -0.3040306140868147 0.3697561176338206 -0.4189233483558029
-0.9831247839984442 -0.40974178183621285 0.7884107636220979 0.21020979085623953 -1.5166768606082242 -0.6375341788467538 0.10676007361803057 -0.9951774213608643
-1.2144327422545642 0.7281932597359332 -0.05694923944136157 -0.4987795396249671 -1.623016859821485 0.7893487427293243 -1.4427036914027496 -1.5869696615758995
-0.2835454493339069 -1.9555952856885 0.29079867341771315 -1.7684969671015014 -1.2456932798523865 -0.7750508418479919 -0.5957116341569981 -0.228060066234885
-1.0996023471694762 -0.6949028035928347 -1.1126407890336294 -1.93408921954429 0.08858511315452797 0.22619640961828114 1.388622073030303 -1.4818018233080004
-0.14319267656796522 -1.9715660494415006 -1.4911709994039692 -0.3555066902812209 -1.097481461786923 -0.5354765639276472 -0.9171088156969514 -0.48231908168898213
-1.1882470512007914 -0.6588343857899123 0.41265236584828374 -0.5456801603876715 0.16564460453261506 0.1399250093490875 -0.32067225587350984 0.3400032668993728
0.38987866980246483 -0.8940253368447787 -0.9821918348784022 -1.1393124500964968 -0.44242596741977086 -0.7011349384091516 -1.2521752570359945 0.1932805749460382
-0.2923130590091139 -0.9151129070281413 -0.874009198422432 -2.610467497126551 -0.09214091476699099 -0.5410581459554877 -0.012961680460889517 0.0019219769615910255
-0.38574961447532846 -0.9707001027349271 -0.7723469390136025 -2.7722993965165172 0.21351036638178794 -0.9781207804064002 -0.7491672315879022 -1.1312251339447947
-2.049359491168641 -0.9306341418446143 -1.1307172070582923 -0.03950867574750999 -1.842760573245565 -0.5797039533692636 -1.0582245805592778 1.4588798744550175
0.4560059606358233 -0.6778022234301653 0.3998512246913811 0.061290179693716015 0.35399723933824356 -0.8970175671170686 -0.08591146447064588 0.44713406049045445
-1.3236024608884551 0.021387071066495966 0.5895707688705392 0.7346500399160322 0.1944998197276497 -1.445468376982071 1.0521169847260996 -1.983540234625562
-0.4638060262031459 -1.876615455440446 -1.1291873824912075 -1.006666579102693 -0.08828593589042467 -1.5086945639641567 -1.4455743403330124 -0.08479314285008178
0.6792729982927843 -1.0359270401052114 -1.6068539962820574 -0.12912394448134618 -2.061148158677516 0.7595236522856399 0.0005337283418314917 -0.1094625327606866
0.020455417042266538 -0.4025697369860962 -0.42920082722788044 -1.877782045011954 -0.8540271040119564 -0.5293552469185951 -0.4945263398855943 -0.5790012385716977
-1.0584621753940129 -1.818788033765662 0.25968281258805187 -0.1529125721573245 -1.24217945154888 0.029423451797337057 0.028941995637571452 -1.5751173672983274
0.7272809605238498 -0.021962761514064226 -1.6758045489542222 -0.37944943408361415 -1.46845134166948 -1.0410294741329877 -0.30755695002976335 0.8202426948805797
-1.160127073491256 -1.5639111122265732 -2.1225589208048277 -0.9002953473822267 0.1794423662521806 0.5105446691801852 -1.303312597604443 0.3371968184494776
-1.8776917083901614 -0.7133584498591298 0.12681064451656052 0.09635219944034258 -0.7031658814834755 -0.575642208536882 0.00958502231832755 -1.4237607335086764
-0.25452176399950055 0.06729233324119219 0.06348243171411458 0.3089762112022241 -1.1311285727676634 -0.416911664454551 2.4155216883741746 -2.778218193071027
0.7373514718238097 0.9342202920527032 -1.3104661838467804 1.1075690978872992 -0.4352437624384103 2.950575988959479 0.673890834845594 0.5635131603017526

gate_gate_weights f8 [108, 81]
00000000: d953 cd5f 5687 f03f 030e e9f4 3bf7 f03f
00000010: 9e38 e435 641a c73f a50c 393c 66fe fc3f
00000020: d3de 26dd 9b0a c1bf 28d4 134b 396a d33f
00000030: 9441 aa83 25fd 9f3f 6900 3fa1 2258 00c0
00000040: 03f1 77a1 f42c dabf 8789 27f7 8453 f33f
00000050: e12e ee63 8490 c0bf 94d7 968b c1b6 c23f
00000060: 09e8 4693 c76d c8bf d2a4 69a1 e559 e7bf
00000070: 2a44 3040 8054 f23f e584 abbf f837 d03f
00000080: 3af7 274a 3ef9 e7bf f9ee 1586 5742 ea3f
00000090: 5b0d a662 6a54 efbf e385 9b1e ab21 e73f
000000a0: 0994 861f dfc9 ae3f 0670 0116 e7db a23f
000000b0: 7683 8209 7738 f4bf ee24 f67c 3c53 ecbf
000000c0: 45b9 049f fe20 e03f 2139 2e19 5736 ebbf
000000d0: 0773 4f19 b0c1 d03f f022 bc92 2d2a ecbf
000000e0: 9a18 2a53 b024 f7bf f54f ccc4 45df ec3f
000000f0: d71e 932d b99b ddbf c96b f2dd 5b85 ee3f
00000100: 0dee ef70 8f39 0240 a53b 8e51 3eac f83f
00000110: 5436 0389 d0e2 df3f f97e 9198 48f3 e53f
00000120: 70c8 07ee 05c4 0140 f7cf 2f81 f4b0 e8bf
00000130: e5c7 78ba c5fa c83f cc50 ebbf da88 da3f
00000140: d104 bfde 1923 e1bf 6de8 d8ee 3742 933f
00000150: f15b 2741 9623 ebbf a8ea 2341 167e e83f
00000160: 567b 34f5 a4e7 f23f b541 1f95 bac6 c9bf
00000170: 6f76 a9a5 9a79 f3bf 5cbc a895 0045 e73f
00000180: fafc f18a a230 d83f 4736 d3ba e353 f43f
00000190: b383 5711 2127 f8bf 69ae 8fc1 ea4a fbbf
000001a0: e172 9e9c 8e96 c6bf d8d2 a04d d816 d13f
000001b0: c099 19b9 056e dd3f 66e4 cb3c a2c5 ecbf
000001c0: 9d17 569f c5ea c0bf 9b2d 07c7 3936 dbbf
000001d0: 461b 8e6e 9147 f23f f29e 5794 6a6b e4bf
000001e0: 93d4 08ed dc12 01c0 9a43 b0e7 6a04 be3f
000001f0: 4c3e 1cf5 ae74 e7bf 091c d278 c7fd e2bf
00000200: ef76 09d4 b5cc c2bf e2b5 1679 3374 0640
00000210: a2f3 9652 8ced e03f e4d3 ca36 e23c ebbf
00000220: 66c5 760d 1e63 d6bf d6b2 467b 75f7 c53f
00000230: 6b5d abf1 d7f7 fbbf 1235 0787 1eb3 e33f
00000240: f604 4c21 4f5a 06c0 7b35 e94f 19b6 d13f
00000250: ccab 7d85 3848 d1bf d2ab 39c7 7f80 0240
00000260: f7a8 77ba f3eb fe3f 576e 5a1c fc66 e4bf
00000270: 352b 383c b75d f03f 7895 f38d 47d3 cfbf
00000280: 26df a8ff 3a7a debf 152a c7d1 b85b fabf
00000290: 5905 b774 60f1 f9bf c433 9096 5bd7 f53f
000002a0: e844 6784 d8d6 c63f c2fb 9f58 38b1 ef3f
000002b0: b9e2 5670 06af b4bf f61b aade 04fe d13f
000002c0: 3b69 fadf bb0a f03f 9de5 27f9 a34b eebf
000002d0: f060 d5c1 207c f2bf 9e00 1618 2aca edbf
000002e0: dc98 b11c 35a3 fabf 686c 07c0 f0c8 d73f
000002f0: b052 d886 c77b fbbf eba2 9041 062f dd3f
00000300: 6d53 5371 01ca e7bf c1a6 77c7 050a f33f
00000310: 7a7c 73f1 77ca f13f 8101 5e68 85c5 b1bf
00000320: 6336 f1ff b10e f9bf 4988 793f cd6b e7bf
00000330: b5d3 d49e 4d2e a2bf 63f7 5d7c 8b42 debf
00000340: c96b fc4f a695 85bf 506b 3bd0 f053 03c0
00000350: f35a 2bd7 b950 d13f 9156 013e 08e1 d6bf
00000360: 57f6 bbeb 81da f3bf 9a4d 8781 4618 f63f
00000370: 92dc ac43 925a c7bf 9e19 74d2 3063 d3bf
00000380: 01d9 46b5 6f93 f4bf 39ad 5596 7657 d5bf
00000390: 922c ad7e 3564 e43f da45 97f4 9526 f4bf
000003a0: c7e3 134d 8675 d3bf 59eb 07f5 4a86 c83f
000003b0: fffc 86f2 9053 f63f 1265 6643 b12d e93f
000003c0: 184a f697 9561 f6bf eb76 d2d0 d554 dcbf
000003d0: e17f a37f 6a3a fdbf da40 af97 cd16 a3bf
000003e0: 442b 623c 07db febf f94a 8e93 2ec1 d43f
000003f0: 379e 0d73 69c9 e4bf dcb6 ea21 924d f03f
00000400: 40ba 83de 4cba d4bf b55e b608 143f e73f
00000410: dd90 db72 e7ed f3bf 194e b2c9 3fe3 f4bf
00000420: 262e b645 3d53 e3bf 6742 f718 89cb f53f
00000430: 6eb0 92f9 3ccd e73f b523 893f 128d c1bf
00000440: b058 7ed3 033f fe3f 0faa 96cb 1f17 e03f
00000450: 3d78 958a ffa4 d8bf 3209 776e f0db 02c0
00000460: 7ab5 9e7e d60c f63f 4c08 5113 ba11 d6bf
00000470: b3f1 b6cf e65e e4bf 9232 3de7 04bf e7bf
00000480: 40b9 57e4 7ab4 f1bf 250a 7a22 6e28 ddbf
00000490: 4aec 95f0 5cdb dd3f fd6a 94f3 8c67 db3f
000004a0: 4b62 eea4 3c17 e53f 4306 96c4 c0a1 b4bf
000004b0: 0730 758b 657c b8bf ab93 cbd0 4f07 db3f
000004c0: 72bb 4043 28d1 e33f 45e4 66ad a2b6 fcbf
000004d0: 4e83 b4ab d55b 983f 995b ecd5 eca5 e0bf
000004e0: 4285 d69e 31fb da3f 9e14 e82a 1bb1 f53f
000004f0: 1b49 7edf bbc0 d23f 3824 e446 f3a3 e53f
00000500: 68cf a645 b20a b5bf 0bc8 34b5 420e cebf
00000510: 128c 2a1f fed5 fdbf 19bd 528f 45f7 e3bf
00000520: 993b 9158 83db 0040 2328 cd52 7bf8 ef3f
00000530: 554c 88db 4173 e83f 9391 2bb5 273f b3bf
00000540: c1e3 af75 f2f6 c33f b3dd 1cef 7110 e23f
00000550: 39a0 4acd 8918 eabf 716c f4d7 7487 8dbf
00000560: 57a6 b302 5773 ddbf fab4 0f14 b136 f5bf
00000570: b605 4622 be41 c9bf 3617 4118 0c77 f3bf
00000580: 66bd df0e 572f f83f d617 5841 fea5 bc3f
00000590: 4080 9fc7 d5f3 e73f b66e ba27 3a66 f23f
000005a0: 69d6 c903 a9b8 d5bf ad60 f6af 3272 fcbf
000005b0: 06f6 f3d2 fee5 bebf 0804 c401 fafa d1bf
000005c0: 3aa3 186d 81cd e7bf c8f5 d299 9a3a e5bf
000005d0: c665 740e ad0b fabf 80fb de6a 7e3b ec3f
000005e0: fc34 a99a 121a e13f a605 35f9 c146 e8bf
000005f0: 1cef 381d 4eef ed3f cf3e 5219 0add c1bf
00000600: 1994 8bb5 4cb1 debf d7b6 7d55 2460 efbf
00000610: 5cc4 ab85 28c4 d7bf 03dc b4d4 2fcd fa3f
00000620: 2478 fcf4 6643 f3bf f747 2d7b 0282 b63f
00000630: 62e6 4cfc 9b9e f03f 6689 66c4 a0e8 d1bf
00000640: 59d5 4b38 a324 eb3f 5077 cfda 5f2e ffbf
00000650: 29da 8c05 cdeb e3bf 9fd7 17f6 e908 05c0
00000660: 68be c9f7 371e f3bf df48 f8d2 6475 edbf
00000670: 62c9 0f24 eb1f ea3f 941d 9f51 418d e0bf
00000680: 1b2c 1010 1b69 f73f 57c6 14ee 8250 e3bf
00000690: a47c 974c 28a8 de3f d5ce 0137 473c d83f
000006a0: a139 76e5 d987 f0bf 1523 a359 7d2e ebbf
000006b0: 943e fa40 3532 c4bf 777f 4e31 ad5a dd3f
000006c0: 9f19 09fe a816 b6bf d88b 5ed5 6a03 fa3f
000006d0: f067 f0df de00 f93f 5af5 4ea6 44b0 d8bf
000006e0: 256e 0d41 451a ffbf 42cf b6f6 03e4 f43f
000006f0: 8ae0 f73e 0367 f2bf 9a8c 47d8 20d7 a63f
00000700: 7bcc f4db 4d38 f3bf 2af5 122c 5d53 febf
00000710: 4fbf 741e c6f8 eabf 8aa4 02d5 031b f93f
00000720: 0fef ee8f 8506 e73f d23b ce35 35f2 733f
00000730: bbea 3488 3d05 f0bf f07c 44f6 f42b b6bf
00000740: 2895 8d3b 3622 a3bf 2687 3291 1320 df3f
00000750: 18e6 dc5a 8d91 02c0 fe82 9eaf 74bd d43f
00000760: 7b46 7b3e 57b7 e8bf 0f4a 73e1 d5d3 f73f
00000770: 4ce2 5683 d0d1 0140 daed 9339 b4e8 d73f
00000780: a8bc e62d 0495 e73f 523f e864 c652 d93f
00000790: 3f77 c14a 760c cfbf aeab 43f2 647c d4bf
000007a0: e829 d659 97f1 f6bf 47c3 8163 cebc f3bf
000007b0: d706 a174 9d41 ccbf 0292 44dc 7d84 ec3f
000007c0: 6c5b 426e 46c7 d2bf 446e 98b6 b7af dc3f
000007d0: a8ec 9967 6f41 d6bf a2dc d800 d228 e9bf
000007e0: c154 77e2 9bbc fcbf 183d 10bc 5c64 d4bf
000007f0: 5b5f 3f5d bc19 04c0 360a 7aee e738 d0bf
1.033041357256698 1.0603599135218935 0.18049290305538518 1.8121092178778693 -0.13313625620297972 0.3033583863428384 0.031239114915082647 -2.0430348012305797
-0.40899387138757975 1.2078904776068116 -0.12941031340994072 0.14620227161293242 -0.1908502072454328 -0.7297237541762576 1.1456301219334457 0.25341623990796186
-0.7491752098428386 0.8205983752118008 -0.9790546347361827 0.7228599164774859 0.06013390788874779 0.03683397430060613 -1.2637853976704867 -0.8851606789259259
0.5040276628331318 -0.8503833286102102 0.2618217703982712 -0.8801486841121839 -1.4464572189913611 0.9022549480164331 -0.4626295991006208 0.9537791571523196
2.2781056235523978 1.5420516191258937 0.49821866397983183 0.6859477023935759 2.22071443520786 -0.7716009638957065 0.19515296559399 0.4146029352389291
-0.535534796763523 0.01880729098613936 -0.8480941078695406 0.765391471125743 1.1815538004227242 -0.2013772228369938 -1.2171884986086317 0.7271731303243416
0.37796844071267766 1.2704808519223592 -1.5095530202308793 -1.7057902871119046 -0.17646963736924362 0.26701934414749706 0.4598402316682062 -0.8991252124243487
-0.13216467170803706 -0.4251846736558151 1.142472679000734 -0.6381123444852774 -2.1342104452438178 0.11725490719278611 -0.7329935824690863 -0.5934789047031482
-0.14687226155631758 2.8067388019614876 0.5289975750998688 -0.8511820860063577 -0.3497996455654032 0.17161434668869074 -1.748008674641677 0.6156151425617813
-2.794096241123607 0.27673943332487 -0.27003300701352084 2.312743717620358 1.9326054843791647 -0.6375713876509036 1.0228798248596835 -0.24863523894525108
-0.476210355441696 -1.6473930544331143 -1.621429878156354 1.365077579629756 0.1784315725804284 0.9903833132701652 -0.08079567186986027 0.2811290907342817
1.002620577730865 -0.9467334619832176 -1.1553046771642208 -0.9309282751492167 -1.664845573506276 0.3716394305499251 -1.7177195804007788 0.4559951439173761
-0.7434088910473357 1.1899469176955082 1.1119307929691602 -0.06942018316295241 -1.5660877225631331 -0.7319093932858404 -0.03550951541766471 -0.472811576320842
-0.010539340320567707 -2.415986658871965 0.2705521203292129 -0.3574848752517506 -1.2408465584152475 1.3809266147335166 -0.1824515181012641 -0.30292912056065713
-1.2859952050326344 -0.33346333199616 0.637232539572681 -1.2594203523952872 -0.30404813315504636 0.19159829105759732 1.3954019044611525 0.7868276897817472
-1.3988243042009625 -0.44267793076310963 -1.8267617212186382 -0.03728334881418656 -1.9284736975411798 0.32429088983296556 -0.6495864150173877 1.0189381909253177
-0.3238708661073453 0.7264499826587413 -1.2455820547702878 -1.3054807547349638 -0.6039110528522016 1.3621912932614124 0.7438034891579386 -0.13711765386895328
1.8903845082727848 0.5028227783525966 -0.3850706914289537 -2.357392180450142 1.378134245499807 -0.344831961501886 -0.6365846688200264 -0.742067767752433
-1.1065625114093365 -0.4555926644026463 0.46651385779086196 0.4281952265461511 0.6590865346252682 -0.08059315490211198 -0.09564814238291329 0.42232127561720273
0.6192818940670419 -1.7945887349617504 0.023787821393060064 -0.5202545335949821 0.42158165465851394 1.3557387996709518 0.29301354241865035 0.6762634644120515
-0.08219446373442241 -0.2348101982875622 -1.864744302504509 -0.6239345359116754 2.107184116298822 0.9990822427000733 0.7640694892637706 -0.0751824204740557
0.15597372766913334 0.5645074529810955 -0.8154953965759041 -0.014418518867890225 -0.460164787901339 -1.325852468838376 -0.19731880830299325 -1.216564268820958
1.5115576344504347 0.1119078549891975 0.7485150240791043 1.1499578048596226 -0.3393957650181166 -1.777880370476889 -0.12069695139140188 -0.2809433953516991
-0.7438361292634916 -0.6634037975670077 -1.6278505863796098 0.8822624289822301 0.5344326992723434 -0.7586374156309617 0.9354620524167987 -0.1395580886496561
-0.4795715115454314 -0.9804860753772243 -0.3713475518589513 1.6750944432112653 -1.203955609300018 0.08792129046676665 1.0387229781612395 -0.27982348613490726
0.848222360566676 -1.9488218829423722 -0.6225342853929919 -2.6293524957681735 -1.1948775939198644 -0.9205803032403103 0.8163963035897661 -0.5172430605097582
1.4631605746715255 -0.6035780572912682 0.4790135143247858 0.37867908832343505 -1.0331667865135403 -0.8494250059821719 -0.15778222725611057 0.45865945639706446
-0.08628326608695723 1.6258343062152019 1.5627125499363466 -0.3857585548501753 -1.9439137021171373 1.3056678426045925 -1.1501495799730344 0.04461004867678149
-1.2012461273232293 -1.8953525277750694 -0.8428679079861271 1.5690954514232396 0.7195461093137697 0.004869659282930665 -1.0012793846678238 -0.08660822880164054
-0.037370390672359755 0.48633279017859576 -2.3210703943884816 0.3240634646445385 -0.7723804684012089 1.4892176443723917 2.2274484883203396 0.373578125217788
0.7369404694089967 0.3956771836683305 -0.2425678124445145 -0.3200924268591575 -1.4339822301141059 -1.2335952651012165 -0.2207524127461997 0.8911732961756231
-0.2934127880811761 0.4482249529989739 -0.3477438461047293 -0.7862329498811003 -1.796047100671146 -0.3186256252819972 -2.5125663075413462 -0.25347326554052374
