balderdash_lstm/lstm_model/models/lstm_model_20.npz (npz, 903256 bytes, 19 tensors)

forget_gate_weights f8 [108, 81]
0.6831623591904677 -0.5699048646172128 -0.6381726949908326 0.7761489195073943 -2.553392111320698 -0.6992663772941791 -0.6407784704856296 -2.1187486456321434
0.34491499932929354 -0.2973811273337945 1.4758850786922892 0.25504470397630485 -0.4580953173731785 -0.6337780657427244 0.05539978924388058 -0.24702035692241256
-0.7641745490055686 0.5108060010879963 0.7878456915333679 -0.9741026519449189 0.2756793385190599 0.9154327773749696 2.035118643908984 -0.40095287345551067
-0.42540505955201907 -0.5462842103257458 -0.8405431049195281 -0.02205247520870122 -2.448541008044822 0.2535144451017376 0.8989867846909173 1.881171159881303
-1.87867252811818 -1.9159630417795432 0.15772811368996936 -0.8788160722190582 2.666186324101085 -1.017872799036824 0.9097817382893199 -1.0981516461800633
-0.8391137108548347 0.41295883459496535 -0.1960471651821927 2.183614935433384 1.8676505019882277 0.40485216055865875 0.20780755538657134 -0.31346965669906474
-0.525027073378737 -0.7658259435122837 2.276518239673261 1.461524463870563 -0.3713587981772111 1.962502374154802 0.699991242850593 -0.4687359980190427
-0.921845255068842 -0.5960298630298871 -0.06300369829233583 1.0729149555337043 0.7065892079188912 -0.12812922102564933 -0.5736291743428783 -0.5245730054743815
0.30840157118566236 -0.36023122001625607 0.2501211587889172 0.5041615823286171 -1.2383074492016999 -0.5936539998316905 0.4402763486413893 0.6871490916414312
1.0578609409010415 -1.0830302510491412 -0.5481614104299191 1.6327848100783307 0.8269406959352311 -0.5435445207906049 0.9651707574602325 0.26248387672939716
1.411410835320842 -1.2308674496231549 -0.4440958598283053 -0.3615965581261824 0.927203914843142 -0.3394320538197226 1.8580872064518845 -1.346004951184463
-1.167819279296763 -0.4211255304088894 0.09341366937012106 -1.5053686179214831 0.19478825430168867 -0.24007004312712296 0.32954876164886804 -0.5210422179352586
-1.2201046296992522 -0.12873922190161316 -0.5834711988241292 -1.75951322191125 -0.5468844866045338 0.36668347210500574 -0.2250259645717626 -2.4340559810528504
-2.988449188927149 -1.2488744756430559 -0.3452594086007725 0.3006814737610891 -0.8561715123686914 -0.5172449128344103 0.2358187777359411 -1.8496299806130594
0.7577421739196586 0.3027379447573662 -0.3837296251628291 -0.6283437904926159 -0.489063776386616 -1.871093660604303 0.762481369118425 -1.5482868199524513
0.31348198559259416 -1.0278946966555076 -1.1783232179287655 -1.8706067977164693 0.5239713005650829 0.012670920387758158 -1.2924764800756028 0.048537116286381694
-0.5253335410106611 -1.5479100053845452 0.019090496658129348 1.0592266414963971 0.3435162059763569 -1.6166594373842396 -0.06532192274947675 -1.1393928282881234
-0.18464471937878624 -1.2685979928694968 -1.036902052677131 0.1362690138001547 0.3820839739449132 -0.8687209428340114 -1.7554231708100143 0.22956542228006396
-1.254120127350718 -0.4272441878137908 0.12129492260520258 -2.7873587858112505 1.4905736943867056 -0.8868712663966797 -1.6952528976635035 0.3532719163599825
0.7979085529008263 1.5314486360503345 -1.0140152570908059 -1.2893006761943449 0.16137767149319213 -0.9652947097423004 -0.4020039229425329 -1.8089252462436625
-1.5925623451214406 -1.8967302024725896 -1.05164785275698 -0.46897503351524444 -0.44587891256402645 0.47725478022026124 -1.2418198269637168 1.280446315723518
-0.18270794094639053 -1.9193176109841867 0.6556292374863348 -0.2643352855277137 -0.20238394865120332 0.7601869820697015 -0.10245481736054099 -0.20914640467898593
-0.11117210477420474 -0.13382705637779183 0.6144258870531814 0.7578251776484959 -0.272462316445937 -1.1951550231856536 1.5801018413510495 -0.18260391251820934
-0.4003284151736955 -2.7572068105035967 -1.0419765127084584 -0.5702492564020396 0.357088619246491 -0.787349382111422 -0.8808934450963688 0.5208065518509553
0.00034067172255417325 1.7283756012538158 -0.47937173746936024 -1.0022672563678134 0.212370654459023 0.46846122042402416 -0.10609141347170349 -0.48257915424028597
0.34670472565270277 -0.5651376410897538 -0.15157897541404944 -0.30399705134202276 -1.6377107594824334 0.45959565570678684 0.46659546964343446 0.5291816014391469
-1.0951896728706136 -0.1355766741486933 -0.07169412435738796 -0.8416638536005462 0.3792739510931317 1.2941367533163497 -0.45906160791236006 1.2048758403593969
0.04297711640160512 -0.4898156985688845 -1.2694229212393364 -0.24512730312708436 0.3170184880190532 0.30830107947686 -1.0062142421955302 -0.030053026637742886
-1.0292073990547337 -1.8494752328062518 -0.9905959902948598 0.6276891341221932 0.29958407475888216 0.30395405374922135 -0.9473325816983026 -0.11993285070014569
0.07093362956427678 1.4017409000588175 1.59319321639877 0.38864426239478655 -0.7260646434952517 1.2039572417529028 -1.5177222373977104 0.4630666750544697
-0.17906342639886724 -0.22895881744721927 -0.9579996442212751 1.5521836713120925 -0.732578750927657 -1.7087704317139312 0.9206262448714653 -0.8236222249985913
1.0260723192432306 0.15875514777747463 -1.3270322218781523 1.1077651304510099 -1.1117864999453466 0.9873322585831593 1.4629569716448785 0.9193829031914863
00000000: b799 d24e 77dc e53f 7197 6b20 a93c e2bf
00000010: 26f2 c524 e96b e4bf 1485 4342 36d6 e83f
00000020: f2e4 dfd7 586d 04c0 fb77 b5e1 6360 e6bf
00000030: 0cef d6d9 4181 e4bf 8c79 6b7d 32f3 00c0
00000040: 353a 815c 1613 d63f 1c29 16da 4a08 d3bf
00000050: 4d34 1aac 399d f73f a428 a605 a752 d03f
00000060: ff62 a405 6f51 ddbf 3f30 29f0 e847 e4bf
00000070: 13f9 0376 5c5d ac3f 01c9 36f1 5c9e cfbf
00000080: 4f43 0d2f 1e74 e8bf 63c0 a8d3 8558 e03f
00000090: 2dc5 ed2a 0836 e93f 099c 2153 d92b efbf
000000a0: 5cd3 c7f3 baa4 d13f d761 10ae 394b ed3f
000000b0: 398d 9848 ec47 0040 1ea2 ae3d 36a9 d9bf
000000c0: f30b 9524 d639 dbbf cd72 3506 297b e1bf
000000d0: d53e 50a7 bae5 eabf fbd5 448f ec94 96bf
000000e0: 34bd 03ab 9c96 03c0 9ea2 b1a6 9439 d03f
000000f0: ef13 f9ee 7fc4 ec3f b8e5 1dee 4619 fe3f
00000100: 5f94 c2ec 0a0f febf e99a ccdc c8a7 febf
00000110: eaa5 fa50 6f30 c43f 3329 2ce2 421f ecbf
00000120: f373 d87e 5954 0540 449e f5fc 3449 f0bf
00000130: ce6b 8e97 ee1c ed3f 5e45 e675 0792 f1bf
00000140: 17e5 37ff 04da eabf 617f 4be4 ea6d da3f
00000150: e92b 77d1 1218 c9bf c3f2 751b 0b78 0140
00000160: d65b 267e e5e1 fd3f cf1e 5409 19e9 d93f
00000170: c39e 1f1f 7099 ca3f a5e4 f308 e30f d4bf
00000180: fca3 b593 05cd e0bf 0709 ba68 a581 e8bf
00000190: 3627 e131 4f36 0240 4b0c ea79 6762 f73f
000001a0: ed30 50b1 57c4 d7bf 6013 b5e3 6866 ff3f
000001b0: 3af3 f008 5466 e63f 09c8 7c45 c5ff ddbf
000001c0: 61ca cf9e c17f edbf 1fe3 2438 ad12 e3bf
000001d0: 6d50 b1a7 0221 b0bf 3f81 56df a82a f13f
000001e0: 59fb 76f8 609c e63f 92ca fbce 8966 c0bf
000001f0: 50b1 fa91 2b5b e2bf 8b0f dc53 4dc9 e0bf
00000200: 82c1 91f1 d9bc d33f b8f3 3d3f 070e d7bf
00000210: 314e 422d fc01 d03f 5f08 8078 1722 e03f
00000220: 856e cb78 1bd0 f3bf 9c55 4dac 36ff e2bf
00000230: ee7d a7d9 7c2d dc3f 096f 8217 20fd e53f
00000240: 152c 0e98 ffec f03f 0f5b 4d87 1754 f1bf
00000250: 3a39 57cc 898a e1bf 7012 0bf7 e21f fa3f
00000260: dbbe 9855 4c76 ea3f 86e6 967a b764 e1bf
00000270: a51c cbc8 ade2 ee3f 71ec 912c 89cc d03f
00000280: d9c4 2e87 2395 f63f 617a 1d11 a2b1 f3bf
00000290: bf19 900a 116c dcbf 24e1 dfe3 6524 d7bf
000002a0: cf2e 5f8b a7ab ed3f 23ab 9738 41b9 d5bf
000002b0: c13a 8da6 b9ba fd3f 2676 d97c 3c89 f5bf
000002c0: 777c c344 63af f2bf 337a 277f b8f3 dabf
000002d0: bfab f14e f5e9 b73f 1e5c 6667 fd15 f8bf
000002e0: 9472 ef4e d2ee c83f 8f7a fd7b 9dba cebf
000002f0: 2a07 6eb0 5317 d53f 6fc0 bbba 60ac e0bf
00000300: 891a a46e 8c85 f3bf 45d4 e3dd 867a c0bf
00000310: 0a71 a3ca cbab e2bf 86d0 0f56 f726 fcbf
00000320: c7ff 14e5 1380 e1bf be2e 2bf4 bd77 d73f
00000330: e414 4b9b a6cd ccbf a00a 9a57 f278 03c0
00000340: 4199 610c 58e8 07c0 1e23 5bcd 63fb f3bf
00000350: 53e7 24eb ba18 d6bf 1249 1482 5d3e d33f
00000360: 117e accc c165 ebbf 5ead 1434 458d e0bf
00000370: b14b 1449 4f2f ce3f 80f2 469b 1598 fdbf
00000380: b81d f983 6c3f e83f e16e fff8 0e60 d33f
00000390: 052a a5b3 068f d8bf 4cef d96f 641b e4bf
000003a0: 0e48 4f27 d24c dfbf 44c6 00e8 ffef fdbf
000003b0: b988 0554 3f66 e83f be60 8866 c8c5 f8bf
000003c0: 6957 00bf 1610 d43f 3de0 9db5 4172 f0bf
000003d0: c8f1 5172 69da f2bf 60e1 bd64 01ee fdbf
000003e0: 1b07 ff75 5fc4 e03f 6eb6 6725 36f3 893f
000003f0: ef61 4cd1 fbad f4bf 612f 2f5e dbd9 a83f
00000400: c93e 4449 88cf e0bf e471 2448 3dc4 f8bf
00000410: 4287 3e8b 758c 933f 8c76 84a2 97f2 f03f
00000420: fe1f 9465 2bfc d53f 715c 4549 d6dd f9bf
00000430: 3dbc eb01 f0b8 b0bf 00b6 6cf9 f33a f2bf
00000440: bc34 8e2b 70a2 c7bf e954 b268 2d4c f4bf
00000450: ee74 569b 2697 f0bf 4d6b dd56 4371 c13f
00000460: d6d2 1a57 1074 d83f cf50 dadc 8fcc ebbf
00000470: 6b50 549b 3616 fcbf 751e 7e56 6662 cd3f
00000480: 85a0 4344 e010 f4bf 7a3e 8401 f857 dbbf
00000490: 389c c21d 2f0d bf3f 8138 5ac3 824c 06c0
000004a0: 67b3 5acd 63d9 f73f 6df2 9dd9 3f61 ecbf
000004b0: ac9f 9e80 c11f fbbf b920 d7cf 019c d63f
000004c0: 2a0c 7d84 7788 e93f 9d70 f548 d080 f83f
000004d0: c799 ed0f 6839 f0bf 4472 efbe f9a0 f4bf
000004e0: 1317 af06 06a8 c43f 2e0a 2bbb b1e3 eebf
000004f0: 73b8 79a9 6eba d9bf 8967 5899 5bf1 fcbf
00000500: d333 52a7 227b f9bf a048 cfc4 0159 febf
00000510: 65ff e7b2 8cd3 f0bf a3a9 e5db af03 debf
00000520: fe10 dcb4 4789 dcbf d2f6 39a2 578b de3f
00000530: 3156 8577 7ede f3bf 280f a546 b57c f43f
00000540: 98c8 8a4b f962 c7bf de05 1d62 86b5 febf
00000550: 68c4 a92a eafa e43f 744d a18b deea d0bf
00000560: 079c 589c b7e7 c9bf a3b2 5aa6 7353 e83f
00000570: ca94 e199 7a3a babf 800b 1634 4fc5 cabf
00000580: e391 3b6a c675 bcbf 4d35 3bb7 3e21 c1bf
00000590: ccb1 567a 60a9 e33f e4bd 4296 1a40 e83f
000005a0: e0c5 a1c8 0570 d1bf 56b8 a3df 5a1f f3bf
000005b0: f53b 4fde 1848 f93f d294 31a4 905f c7bf
000005c0: 7127 b512 fb9e d9bf 105f bb71 c20e 06c0
000005d0: fe86 5490 efab f0bf 2015 5a5e 7b3f e2bf
000005e0: 97ff 5b39 8ada d63f 3d38 d654 f731 e9bf
000005f0: be63 3e73 4730 ecbf 96c1 7780 72aa e03f
00000600: 3cea 33e8 8553 363f 7e6e a92c 6da7 fb3f
00000610: b8af c3cb 06ae debf f638 ff63 4909 f0bf
00000620: 230c c42b f62e cb3f 6c96 4ac5 44fb dd3f
00000630: 5154 3f8f ce28 bbbf 2460 4cad 93e2 debf
00000640: 3902 8304 6930 d63f b102 c788 9b15 e2bf
00000650: 550f 159b f066 c3bf fd0a 660c b074 d3bf
00000660: cb8c 8432 1034 fabf a03c a9e5 036a dd3f
00000670: d423 a53e b3dc dd3f f16e fa40 0eef e03f
00000680: ef56 3e9b e585 f1bf d2d7 c892 935a c1bf
00000690: a72a 6ecf 8b5a b2bf d711 ae08 e9ee eabf
000006a0: 6fdc 0a40 0646 d83f b8b9 80bd c8b4 f43f
000006b0: f64b 35f0 4361 ddbf 9558 a1e3 2b47 f33f
000006c0: e8b1 d7ba 1801 a63f 9eed 9af1 2359 dfbf
000006d0: 7240 b868 8e4f f4bf fecc 24db 5460 cfbf
000006e0: 983a 91e9 074a d43f d12c 6b73 34bb d33f
000006f0: d4fc ef1a 7419 f0bf 9d3d 387a 38c6 9ebf
00000700: 60dc 7b2d a277 f0bf 2da3 7a57 7397 fdbf
00000710: 5caf bb5c f6b2 efbf 0580 e385 0716 e43f
00000720: f279 dfae 622c d33f e4ba 15b4 fb73 d33f
00000730: eb8a 1a6b 8c50 eebf 1722 7957 ebb3 bebf
00000740: 1b47 2ad3 b428 b23f da7d b3dd 876d f63f
00000750: af44 8a2b b87d f93f a8df 302f 8cdf d83f
00000760: 1702 53eb eb3b e7bf ffc6 31ab 6843 f33f
00000770: d48f e01c 9748 f8bf 717d 4e68 e2a2 dd3f
00000780: b67b 25e4 8ceb c6bf b187 88c4 854e cdbf
00000790: 0552 b0de eea7 eebf fcba 9a8b bed5 f83f
000007a0: 7752 1ffe 4871 e7bf 8654 09aa 1f57 fbbf
000007b0: ccfd b12b c575 ed3f 2516 14ff 1c5b eabf
000007c0: 52b0 e7ce ca6a f03f b650 e3b3 1652 c43f
000007d0: 3047 9b23 863b f5bf edfa eeed 67b9 f13f
000007e0: a364 16a4 e0c9 f1bf c5d0 1cd2 3998 ef3f
000007f0: 20b8 ca91 4568 f73f ddaf b6b1 956b ed3f

input_gate_weights f8 [108, 81]
1.9769077363642573 -0.3951055175638825 -2.081358291688601 0.8725292970203976 -1.6836255540678677 1.466488174708541 0.18399106273448929 1.4869478719670546
1.5816413639314797 -0.5307116569084367 1.140682633484559 -0.8399383572983219 0.05209117654250004 1.0755217480174875 0.023834799738397486 1.0369750952640575
0.20562615121315947 1.828133239555733 1.5240584428159003 0.5397786496333978 -0.26950036108219355 -2.4621131203230684 1.004507153826783 -0.18238414176162698
0.6803431830519708 -0.8992507038596014 0.7445872042265317 0.3003228371259595 1.8125605635887052 0.001167666357814542 2.975303288644563 -1.4344484487511528
-0.07319803448395411 1.9072547621837121 1.3663483770348168 0.257347990441293 1.6116754551973111 -1.1318820587690162 0.88968554741432 0.5587286333293094
0.25310136478175993 0.7020692753167177 -0.7796994195138431 1.3911515708428768 -0.21088508402436992 -0.08042462486194116 0.09078936132371432 0.2720679555709636
0.882984965862298 -1.167467287400969 -0.27485523990894856 0.7038970971996311 0.2459982060806292 0.702301396761642 1.4441295391152664 -0.627042521472832
-0.9854035403791878 0.29836520843108466 0.4324487641621984 1.0973270574048712 2.4693242943346947 0.41409425155793367 0.7021832894570134 -0.5123395087502031
-0.9355705007776328 1.9910633735139358 0.9743914391132771 1.3337416500444155 -1.9037772272014315 1.1116784771394375 0.07564111014410749 -0.11608528838307339
1.5415212427426723 1.5325257058816062 0.2295028370808143 0.3541981463815316 2.238572154139328 -0.11784900820127477 1.0201388015705408 1.8514684816234925
1.2266206425465782 -0.6847277310333392 -0.6923134507403751 -0.18643694625876672 -0.3203114094125421 -0.2795593825685811 0.058665608275894406 -0.8104263911469349
-0.2045509698815116 -0.24925997551854165 -0.25160896965395363 -0.32884537860265806 -1.7931667068782386 -0.10472030781232729 -0.2298524164202616 -0.15986675115051607
-0.2819922491900666 -0.2546417911755765 -0.20209235189915772 -0.70807864390484 -1.3968960296850426 0.7710785477753834 0.7562414159121361 -0.9699885766695269
1.250783320754261 -1.6893623944707306 -0.10833013642050494 0.07089158394648908 0.6289327205749801 -1.1798759183953025 -1.0307846637028308 -0.3765836069145077
-0.13713395928916847 -0.7807441845687265 -0.15245199483401045 -0.1708485349595738 0.08182399420045607 0.8151265386643385 -0.16812968595310626 -1.025365458308697
-0.5737522845976846 -0.18253379045839932 -1.254442621839428 0.7588523780604906 -1.752027664309834 -1.8209576612815463 -1.2352847613670241 -0.3094583482335523
-0.5581732561025536 0.08317034890937343 0.5006963271500929 -1.3347295597788316 -0.5438915337688583 -0.7390130893565618 -1.5331522000978468 0.5955833675922657
0.3080444255096488 -0.5219843293146599 -0.6731415567184851 -1.162416710870344 -1.0826344923386848 -0.028687254922535353 -1.9422422761487652 -0.5152919313792014
-0.4898921696562927 0.6061159215025421 0.15217285922017437 -2.0487774970271864 -0.40895292315897264 0.15737269584192456 -0.38945224169061066 -1.5100375511750626
-1.3493221733348997 -0.6073058682990454 -0.26965136338632356 -0.7759144652059633 -2.3360085306615703 -0.0295264907127139 0.143309618400155 -0.6221665168064472
-1.659637549615073 0.3107680714744939 0.08051451154006352 -0.5638669572414531 -1.4109159104509243 -1.0740021287960555 -1.7186767261556717 -0.09977702811171635
0.03763778699905846 -0.007726031731434857 -0.059308515185545765 -0.42097884755122034 0.6964236929475225 -1.8699537077298658 0.08387716226318236 -0.6322161653545405
-1.3129356365737304 0.8919383244741613 0.7790459057590756 0.597057042697054 0.21932231251636777 -0.6271285508158239 0.5190727733745492 -0.21128176367475593
-0.9244021533044128 -0.8939659761845309 -1.3356217048997225 -0.8745818550983034 1.6188049638557898 -0.3898715985975056 -1.0937855052000256 -0.49336601326090695
0.8644911189334977 -0.9218430731483177 -1.4153004005498777 0.1027246142163962 -0.732732680950249 0.40833695579500967 0.7375241370484646 -1.4742009912807232
-0.11786928915602543 -0.4077085641729879 0.08436115254615238 -1.2150804313374926 -0.6730380433316485 -1.0562082103978565 -1.4416453605744695 -1.6436365799000592
-0.3962517529263907 -1.1417135198621988 0.501210797105168 -0.4373672472473915 -1.1999014376140489 -1.16644753930844 -0.5857193996238627 -2.535057949603635
1.0828748295452961 -0.4746156880317883 -1.0881279336514662 -0.27049320407546396 -1.438126990433361 -0.6408822656387457 0.8118407008940992 -0.17481872164834536
-1.1368775553407924 -2.060709779067909 -0.6545490785118316 0.03838362764279081 0.11349648046516175 0.07012443639830904 -0.25708961607270475 0.25141035162259656
-2.1681792791261434 -1.2021222668634568 -0.618630216520193 0.8467586747060315 0.49636700951159324 -2.1755538722420265 0.24131190591552984 -0.3705313677915093
-0.6580882132076199 -0.28434017277313106 0.6270620689424371 0.08319495079338123 -0.5758909104082455 -0.10245059104529389 0.7313370601982512 -0.15646921401047956
1.6047208061092542 0.4061230909003542 -0.49579635508222514 0.6822081598718732 0.20052198972426274 1.738644656465021 0.8654460157782532 0.36649711135293583
00000000: 504d ae01 6aa1 ff3f 61fc 19a7 6849 d9bf
00000010: de7c 102d 9fa6 00c0 af24 708f c2eb eb3f
00000020: e6e6 5659 21f0 fabf b080 e54d bc76 f73f
00000030: 9cb7 99e6 048d c73f e348 0fda 89ca f73f
00000040: 7762 c12c 674e f93f fce2 4003 97fb e0bf
00000050: c0e6 de6e 3c40 f23f 7a12 e867 c6e0 eabf
00000060: bd05 52d7 b1ab aa3f 25f3 dd4a 5635 f13f
00000070: 5452 8855 2668 983f 4ecf 8e32 7397 f03f
00000080: f2d8 542d f551 ca3f 61f5 c9a3 0840 fd3f
00000090: 4364 111b 8b62 f83f c024 e8df dd45 e13f
000000a0: f4ec 4671 7e3f d1bf 82b8 165d 68b2 03c0
000000b0: 918b e417 7612 f03f 786d 1612 5d58 c7bf
000000c0: e278 2811 5fc5 e53f 4a6c 7f69 a9c6 ecbf
000000d0: 6f89 658b a8d3 e73f e5aa ec46 7d38 d33f
000000e0: 0520 6a81 3f00 fd3f 8bea 7134 8c21 533f
000000f0: f546 83cf 6bcd 0740 36f2 7237 80f3 f6bf
00000100: c774 3d3c 1bbd b2bf 4282 cb91 1d84 fe3f
00000110: 5bea a41d 90dc f53f 44bf a8b4 6378 d03f
00000120: f169 bd33 6cc9 f93f 2379 955c 301c f2bf
00000130: 9fc9 3bd3 4d78 ec3f 019f efde 1ae1 e13f
00000140: 48e1 1311 d032 d03f 0860 20fc 5977 e63f
00000150: 60b5 7032 4cf3 e8bf 74c9 4826 2842 f63f
00000160: 21a8 8c4d 48fe cabf 223a 934d b596 b4bf
00000170: d2c7 b5b9 f83d b73f 31e1 ddb6 8f69 d13f
00000180: b79f e7af 6941 ec3f 8897 a82d f2ad f2bf
00000190: 44c3 a26e 3a97 d1bf 9118 8734 5386 e63f
000001a0: 21d8 fe84 de7c cf3f 0cd8 60c7 4079 e63f
000001b0: 8000 5b93 271b f73f 8dab 5d7a bb10 e4bf
000001c0: bb51 6901 6d88 efbf 6572 1e63 6a18 d33f
000001d0: b16c d194 3dad db3f 0d1e 09d1 a68e f13f
000001e0: 1a16 7b18 2dc1 0340 7ac9 f92c 8580 da3f
000001f0: 957f 0017 4978 e63f 8bfc 50d3 1565 e0bf
00000200: 1f27 fe8b 31f0 edbf b417 9844 65db ff3f
00000210: 08ce 8ff4 362e ef3f bc0f 047c 0157 f53f
00000220: 0332 1b1c df75 febf 0bb2 ef5e 6fc9 f13f
00000230: d254 4d3e 375d b33f 5eeb 26f5 c3b7 bdbf
00000240: 73b4 ba2d 12aa f83f 2ca7 b0ac 3985 f83f
00000250: d7f7 cc55 5960 cd3f c8cc c0b3 2eab d63f
00000260: 131e 7e84 98e8 0140 b92b 1744 5a2b bebf
00000270: 8804 6210 7d52 f03f e35c 226a 9d9f fd3f
00000280: 8060 85f7 3ca0 f33f af7a 6e21 4ae9 e5bf
00000290: 9f58 b089 6e27 e6bf 1848 7975 2add c7bf
000002a0: 2c9a fd6c fb7f d4bf 2f02 5b09 4de4 d1bf
000002b0: b1cb e329 6b09 ae3f 1053 b953 03ef e9bf
000002c0: 4aca 00e7 b92e cabf 19e6 8639 c0e7 cfbf
000002d0: b0d0 0282 5c1a d0bf 8281 a27c cd0b d5bf
000002e0: bf16 a592 cfb0 fcbf 8def 4739 f3ce babf
000002f0: 923e b7d1 cd6b cdbf e061 f481 8376 c4bf
00000300: e0cb ff37 290c d2bf 48d0 5215 0d4c d0bf
00000310: 8fdc 1685 29de c9bf 7727 528b 94a8 e6bf
00000320: 538d b6a6 af59 f6bf 50f5 2aeb acac e83f
00000330: c125 a732 2133 e83f 2e41 c97b 250a efbf
00000340: 6959 105f 3503 f43f 2f81 b5dc a007 fbbf
00000350: d1e7 1819 86bb bbbf 879f 9c6a f325 b23f
00000360: 811f 4883 3720 e43f 5a88 2d92 c5e0 f2bf
00000370: fb26 3d0f 187e f0bf f914 fa20 f219 d8bf
00000380: 5fb3 2807 9b8d c1bf cd79 683a dbfb e8bf
00000390: 12d2 0206 8c83 c3bf de45 1c63 5dde c5bf
000003a0: 397a 1ed3 6af2 b43f ca47 3540 8415 ea3f
000003b0: 3fe2 5307 4685 c5bf 7a24 5e9c e567 f0bf
000003c0: 5e46 4bc0 2d5c e2bf db84 376a 445d c7bf
000003d0: 3424 386d 3212 f4bf 505f 48c8 8448 e83f
000003e0: 395e fe28 4e08 fcbf 9ead 2980 a422 fdbf
000003f0: b618 35f4 b9c3 f3bf 4dc9 4863 2ace d3bf
00000400: 2acb 0e29 8edc e1bf 050b 90e8 a64a b53f
00000410: 6dc8 ca4d b405 e03f ac12 0462 0d5b f5bf
00000420: 0c79 c337 8f67 e1bf 8646 43c7 fea5 e7bf
00000430: 075f f399 ca87 f8bf e235 bbd9 040f e33f
00000440: f3db 51f7 ffb6 d33f 69ca ed7a 18b4 e0bf
00000450: cae6 7529 608a e5bf 3731 d843 4299 f2bf
00000460: 03dc a18b 7852 f1bf 2935 d116 3160 9dbf
00000470: 137b 0fa3 6c13 ffbf b552 2581 457d e0bf
00000480: 6e60 cfaf 645a dfbf bb06 8e37 4d65 e33f
00000490: 4240 d876 667a c33f 9b19 d474 e563 00c0
000004a0: a191 a4e1 482c dabf 6f53 f6da c924 c43f
000004b0: 5a90 5a18 c9ec d8bf 0c76 a022 1d29 f8bf
000004c0: 4adb e3d8 d296 f5bf d16c 60b7 0c6f e3bf
000004d0: 843a c4ca f741 d1bf b4b1 9192 4ad4 e8bf
000004e0: 9af2 923d 25b0 02c0 2f32 e83f 313c 9ebf
000004f0: 508e 1d36 f857 c23f 9632 4bc1 c9e8 e3bf
00000500: 0ef7 6c1a e08d fabf aaee e7c3 9fe3 d33f
00000510: 3901 eb59 999c b43f cfb4 94b7 320b e2bf
00000520: 3faf cc8f 1c93 f6bf 0b37 30db 1c2f f1bf
00000530: 63c2 b32a b37f fbbf d4c3 a1c0 fc8a b9bf
00000540: 3971 8290 4245 a33f a676 d4d9 54a5 7fbf
00000550: 2a46 318a af5d aebf a393 a243 51f1 dabf
00000560: 1ed0 2b57 1a49 e63f 4dbd 3b94 54eb fdbf
00000570: 2b39 cd44 f978 b53f b168 4665 1d3b e4bf
00000580: d164 4dcc c801 f5bf 434c b53d c28a ec3f
00000590: 772c eaad f1ed e83f cd5e 075f 171b e33f
000005a0: eb3b c5e7 c012 cc3f ef89 04e5 6f11 e4bf
000005b0: 1b68 3c81 3e9c e03f 20b5 9ce4 470b cbbf
000005c0: fb6b 19d3 b394 edbf 7660 ee88 5e9b ecbf
000005d0: 01f4 65dd b45e f5bf a94f 2a16 93fc ebbf
000005e0: 2ccf a508 a0e6 f93f c764 6701 a8f3 d8bf
000005f0: 65c4 da3a 2580 f1bf bf76 fa0a 4f93 dfbf
00000600: e70e 7047 e9a9 eb3f c9ea 660b bd7f edbf
00000610: ef09 6608 12a5 f6bf 3ebb 8d0a 294c ba3f
00000620: fc88 acce 8b72 e7bf 21d1 b853 3122 da3f
00000630: e847 1438 cc99 e73f f980 54c7 5396 f7bf
00000640: d6bd 2086 ae2c bebf b103 5ba9 e517 dabf
00000650: 5714 3d47 b198 b53f 69aa a92d f870 f3bf
00000660: 2858 2214 8789 e5bf c5ce 9694 3ae6 f0bf
00000670: 418f c1b9 fa10 f7bf 77e1 d2de 554c fabf
00000680: 1c4c f34f 305c d9bf d858 5365 7544 f2bf
00000690: 5000 bf39 eb09 e03f d038 d131 d3fd dbbf
000006a0: 919c 8fd9 cb32 f3bf 5245 1de5 c4a9 f2bf
000006b0: 458d 409c 36be e2bf 7419 5876 cc47 04c0
000006c0: 1df0 a88e 7453 f13f e5f6 907a 1a60 debf
000006d0: 8b5a 0ed6 f868 f1bf fcd6 52ba c24f d1bf
000006e0: c17f 7672 9102 f7bf 4d27 7086 1b82 e4bf
000006f0: 27dc 7c59 99fa e93f 55a5 1aba 7560 c6bf
00000700: 11ec fb84 a630 f2bf 0627 9d68 557c 00c0
00000710: 65ba bae8 10f2 e4bf 12f2 dad2 04a7 a33f
00000720: d418 cff7 1a0e bd3f ea2d fbd0 acf3 b13f
00000730: 041a 4b01 2874 d0bf 0d13 8671 1b17 d03f
00000740: 71b1 bd60 6e58 01c0 088d df8e e43b f3bf
00000750: 2db1 8898 d1cb e3bf 45ef eea5 a518 eb3f
00000760: 6b99 2a22 7ac4 df3f afb9 dfc9 8867 01c0
00000770: e374 05fc 4ee3 ce3f a6a0 b332 c9b6 d7bf
00000780: 8183 3303 0f0f e5bf 3ef9 bf1f a132 d2bf
00000790: 886f d578 e410 e43f 2793 d9a8 434c b53f
000007a0: ec8b 48c6 b26d e2bf 0ad3 feb1 333a babf
000007b0: ccef 7cfa 1c67 e73f 31bf 80e6 2e07 c4bf
000007c0: 3733 57b9 efac f93f 3551 64b4 ebfd d93f
000007d0: 5d77 a3a2 20bb dfbf 60d9 f634 a6d4 e53f
000007e0: a14d ff5d b4aa c93f 651e 2e0f 7dd1 fb3f
000007f0: 3b13 c7d7 bbb1 eb3f 94b7 d54c b074 d73f

output_gate_weights f8 [108, 81]
-1.1218634205806248 -1.1657790598634346 -1.1398038877026133 0.6955375672173667 -1.9150534061120095 2.425490685617153 0.12827751363990192 0.5539732354752889
3.1908278047373195 -0.7950793041193049 1.0679756184826124 0.33087296509299147 -0.5267672962637987 0.7763713379945546 -1.1563849764677865 0.3408274631729456
0.30177564728261547 2.2442750799434514 2.004367228009574 -1.0899812511029414 0.39715179219936864 -1.443301033426962 1.2970713367292632 0.09012159232723564
0.1884427388570472 -0.6864981753391748 0.05592949013970569 0.8345069520888613 0.5213304778033342 0.295388750429966 2.9763938296490475 -0.2878618231142286
-0.5577147593090064 1.0755148265046106 0.07695112581928529 0.7993488359517658 1.218421991611379 -1.7788027676151386 1.0465468598041117 0.2834647086643279
-0.017927625018224275 -0.8063282844263864 -1.0715450695135431 1.574920653365129 1.1476138810047896 -0.7155108862603656 -0.7674604524204394 -0.4775282660745787
0.13853200962749276 -0.24934761045296863 0.15267190327553923 0.17273892767584342 0.2857668664952737 1.2503058166279393 1.1829098198402346 -0.7047356196234276
-1.8124944035293111 0.4740370625730502 -1.2192106261248785 0.622344491137899 0.8426446500949486 1.1486751787796603 -0.536175996612195 -1.1848209482216854
-1.2909011987714196 1.0735879501760521 0.8118516193698799 1.7856481454234443 -2.2456044058961084 1.2561065578061263 -0.6370653069096848 -0.13602235410029698
2.2485190681412326 0.5558861434501873 -0.8432582579184421 0.24165574653503064 1.711272466397841 -1.2623891688148658 1.5603264384561197 2.5180905546919807
1.416702750106623 -0.2753146388166403 0.029372508846658832 -1.1559755126058358 -0.19138893445758132 -0.4861277112243357 0.5660067661373263 -0.5768720574262901
-1.1163845417436944 -0.42225132939654536 0.7909880279229078 0.26728750581054755 -1.4222063454577998 -0.6797263899753185 0.07162080863870615 -0.948384012780978
-1.3260344179472001 0.9012526272813488 -0.009370410152139809 -0.6469819412291533 -1.6397288398173981 0.5008743651672185 -1.3443274118269084 -1.5777910669463442
-0.1721073372053911 -2.1521259801167076 0.3448257350548546 -1.6836159619880182 -1.2742713465080737 -0.990594344354466 -0.6097021557687301 -0.47704383744404166
-1.1276809868835165 -0.7779413327945741 -1.1287292344176516 -1.8910985795942232 0.09214458624420326 0.4258755672480435 1.334648056419885 -1.505286810394874
-0.19224237815931142 -1.8983899093225665 -1.6600613166053455 -0.4210830000340278 -0.9785500414382108 -0.5186882631904978 -0.8413037341345682 -0.24724451902654784
-1.1623211658148043 -0.7509154775708783 0.6167586317012972 -0.4165067204283677 0.29491665650942056 0.33750491474468225 -0.4555122741339627 0.35741826395163
0.3555171863080189 -0.8689745500039451 -0.9950229472665899 -1.1506038419611413 -0.4629684455650611 -0.733668845739392 -1.2457684186415556 0.20766291880961027
-0.3435264216873507 -1.0066983660005457 -0.6930162668417221 -2.6799748881544043 -0.11291769878976501 -0.6092079120696212 0.060693482092214444 -0.1286644325958461
-0.3016524960350196 -1.0240992744863258 -0.5981095781966411 -2.6690248060442077 0.298408579398223 -1.1137883561440343 -0.7296083771252316 -1.0596916345181722
-2.2007875954966782 -0.8751363849701019 -1.1021469256524175 0.08771738585046446 -1.8240422511898244 -0.6206687721605956 -1.1744083300254335 1.7812533369712271
0.3201734739081867 -0.6825841329339423 0.3755248692130054 0.10288826415357437 0.32185606526608534 -0.9363362065662103 -0.06986381476193508 0.5192019521917765
-1.3387641857289347 0.0784777865081925 0.580984504766608 0.59398961558943 0.14351903953812634 -1.4678848577738222 0.8950732167400759 -2.0990605999895475
-0.38297973693179066 -1.8179756898799266 -1.1688781522125045 -1.0702313295853392 -0.007390640986531654 -1.542866755207849 -1.4826791181220842 -0.08244575360328488
0.6660958224316059 -1.0460676217542122 -1.5419739875472287 -0.1098375394047449 -1.8920830211179576 0.8306377211602292 0.14397030447772902 -0.13392179721871386
-0.007595593119198351 -0.4166968346216647 -0.38512255976850407 -2.018524542792526 -0.9221644710101036 -0.4752398422959609 -0.4983664953016614 -0.6088448727140006
-0.9567034333446197 -2.0408653197774362 0.20490916224871097 0.12183901660541828 -1.1380621242980649 0.1829664989983555 0.07458718697326593 -1.6760152076412744
0.741973561144713 -0.052803136202393935 -1.6537898229791723 -0.38796506691305294 -1.4006694838163278 -1.094612205801978 -0.2635459442089812 0.7775855537353052
-1.0990748189933972 -1.4936321787050895 -2.1602280047186007 -0.7842445556991781 0.27722298226347225 0.5805682523031488 -1.2991105257384497 0.42894140599687325
-1.965927567540064 -0.6474671715202478 0.17589162696703686 0.30691330493705693 -0.7227448029241815 -0.4873477870087582 -0.08350990772462145 -1.4716362980167537
-0.3529025286740096 0.11395823087755926 0.01479926631415154 0.307417261469955 -1.0508856531929314 -0.4849381262599443 2.3521310621509715 -2.7689700350786453
0.6336027611460715 0.7053906262449445 -1.2864289745423456 1.0377472737454003 -0.46414382536828275 3.1053933798829214 0.667720535799598 0.5719817161048504
00000000: 448f df0e 27f3 f1bf eb99 87f1 07a7 f2bf
00000010: 0495 5800 a33c f2bf d4d0 0a00 d841 e63f
00000020: 0583 550a 0fa4 febf 8ad3 1ba9 6767 0340
00000030: 20a2 f2c6 656b c03f b638 2714 26ba e13f
00000040: 351d 64ba d086 0940 3e67 1d27 4a71 e9bf
00000050: 5cee 249a 6d16 f13f de1d 0dcd 052d d53f
00000060: 7fc5 c116 47db e0bf c3a0 47b4 08d8 e83f
00000070: eb3c 7888 8d80 f2bf 3503 fafd 1dd0 d53f
00000080: 55b7 f3cd 4a50 d33f e5ad 3c7e 46f4 0140
00000090: 68cd 6baf f108 0040 42d8 2b2e 9070 f1bf
000000a0: 25d2 c259 ef6a d93f fea0 0dd3 c217 f7bf
000000b0: 8d4c bddf cdc0 f43f e37b b56b 3512 b73f
000000c0: cca3 4744 e41e c83f c20d 7b05 cbf7 e5bf
000000d0: 0c61 1046 caa2 ac3f 9833 70ec 47b4 ea3f
000000e0: 1559 1241 bdae e03f 1dfe ac37 a6e7 d23f
000000f0: efde 7291 a7cf 0740 1eb9 02ff 536c d2bf
00000100: 7651 779f ccd8 e1bf e834 e308 4f35 f13f
00000110: 16c2 c8a8 11b3 b33f a845 9002 4494 e93f
00000120: 402b eb0e a87e f33f 990f 0fe4 f975 fcbf
00000130: 4871 89eb a7be f03f 2524 5229 4924 d23f
00000140: 35c8 978c 9e5b 92bf 8a6f 6ef9 70cd e9bf
00000150: ed02 5c71 0c25 f1bf 8df8 bfff df32 f93f
00000160: 8b9e 755f a05c f23f a872 0d16 77e5 e6bf
00000170: 16d0 0339 098f e8bf 7f2d 6db7 d28f debf
00000180: 734d 66b9 6abb c13f 8999 1d5c 9fea cfbf
00000190: f712 cbbf c08a c33f dc92 8e26 4f1c c63f
000001a0: 942a 781c 014a d23f 2fa6 06ac 4001 f43f
000001b0: 054c e5d8 32ed f23f 407c d3b6 318d e6bf
000001c0: 7376 b521 faff fcbf 46f6 358c 9f56 de3f
000001d0: c845 6200 e381 f3bf a60e 89fe 3eea e33f
000001e0: 51d4 c9e9 f1f6 ea3f 985e 6939 f960 f23f
000001f0: cb2f 4b90 5a28 e1bf 44a5 83cf 06f5 f2bf
00000200: 7472 f103 88a7 f4bf 532c f68e 6a2d f13f
00000210: aabe 4c3f b0fa e93f a11b 2cca 0392 fc3f
00000220: 4d9e 5871 fff6 01c0 5b18 a130 0319 f43f
00000230: 4efc 52c8 d662 e4bf d95e 3135 2e69 c1bf
00000240: bbca b090 f7fc 0140 3b61 cdbc d1c9 e13f
00000250: bbee fabd f8fb eabf f813 2154 93ee ce3f
00000260: 7295 db3c 5f61 fb3f cc26 2efc be32 f4bf
00000270: 120d 04db 18f7 f83f 0126 26a9 0c25 0440
00000280: 80c7 bd80 d0aa f63f 20f6 744a c19e d1bf
00000290: 546b 97b3 d313 9e3f 04e7 d92d e07e f2bf
000002a0: 7ce2 27bf 6e7f c8bf 99d2 5867 b71c dfbf
000002b0: 34fc bb38 ba1c e23f a7e8 9363 bc75 e2bf
000002c0: 2cc9 8809 b6dc f1bf 09d8 9c70 2a06 dbbf
000002d0: 069b ee1f c64f e93f 4d7c 050e 3d1b d13f
000002e0: 967a de70 5bc1 f6bf 2282 e58e 51c0 e5bf
000002f0: 2afa d0c6 bd55 b23f 8831 de6d 2959 eebf
00000300: 0742 a7dd 6f37 f5bf 6670 f3bf 0fd7 ec3f
00000310: c776 3a29 cb30 83bf 5ed1 d578 13b4 e4bf
00000320: 122e d54e 543c fabf ee88 39ad 2907 e03f
00000330: 389b ce75 5d82 f5bf b549 87d8 a13e f9bf
00000340: 3d72 59fc 9c07 c6bf 20c9 6bd3 8d37 01c0
00000350: 024e b8f5 9f11 d63f a231 7c4a 17f0 fabf
00000360: 85b6 f759 6a63 f4bf 1c5c 13e9 f2b2 efbf
00000370: 027a 6a18 ae82 e3bf e626 25e0 e287 debf
00000380: 76c5 ef37 fb0a f2bf 2ee6 d138 e5e4 e8bf
00000390: 91ce bd62 460f f2bf 6ae8 8d95 f041 febf
000003a0: 251c 6ca0 c996 b73f 1dbb 5f98 8b41 db3f
000003b0: d7e4 9feb b75a f53f 2df0 5b9f a715 f8bf
000003c0: a7bc 8cf3 659b c8bf 9c8c f918 ce5f febf
000003d0: 69cb 8274 9c8f fabf c90d 831c 06f3 dabf
000003e0: fb3f 2f2d 4850 efbf 7f1c e720 1899 e0bf
000003f0: 708a 03cf f5eb eabf 73c9 aa59 b5a5 cfbf
00000400: 89f8 2914 de98 f2bf c344 47e5 7f07 e8bf
00000410: 56d9 1599 7cbc e33f a175 b3cd 0ba8 dabf
00000420: 6c3b b01c eadf d23f d854 c436 ae99 d53f
00000430: c73e 15f4 1c27 ddbf 0a95 aada f0df d63f
00000440: e4f7 1628 cbc0 d63f 2758 2ab7 a3ce ebbf
00000450: f6f1 285d 3ad7 efbf 3900 fe92 df68 f2bf
00000460: 8c0a 3267 46a1 ddbf a76e 5116 377a e7bf
00000470: 2a48 87dd aaee f3bf f388 70d2 b294 ca3f
00000480: 8261 9d3e 56fc d5bf 318b eebe 6f1b f0bf
00000490: 70cc 3573 302d e6bf 9fcb 95ac 9670 05c0
000004a0: fa0d 719f 2ce8 bcbf 00b6 5997 a17e e3bf
000004b0: 5b35 5551 3713 af3f c62a 147d 1378 c0bf
000004c0: 198a 4e45 464e d3bf e46a bceb b562 f0bf
000004d0: fbec b8b2 b623 e3bf 8461 71ad 295a 05c0
000004e0: b11d 574c 2019 d33f 1ede 44bd 13d2 f1bf
000004f0: 037f d4aa f358 e7bf f89a 2137 7ff4 f0bf
00000500: 41ce e086 369b 01c0 648f 1f05 1e01 ecbf
00000510: 7506 91d0 64a2 f1bf 1cb3 8487 a574 b63f
00000520: c61e 76ed 462f fdbf e380 c2c1 84dc e3bf
00000530: 55bf 9963 60ca f2bf a7ea c27f 0380 fc3f
00000540: 2bdf dee1 b87d d43f 9708 f7ad bad7 e5bf
00000550: b5b0 0676 9908 d83f 2b8b aea1 e256 ba3f
00000560: b092 952e 4a99 d43f 0167 2859 77f6 edbf
00000570: 4389 934f 98e2 b1bf 6ddb 9569 4d9d e03f
00000580: 8430 acfe 936b f5bf 51e1 83c6 1e17 b43f
00000590: 2092 eed0 6c97 e23f cad8 a382 f601 e33f
000005a0: eab4 95f6 d45e c23f 33ea 26d5 747c f7bf
000005b0: 9a92 2d96 70a4 ec3f cc37 aa48 e0ca 00c0
000005c0: 3cc6 4971 bd82 d8bf 3251 4fad 6d16 fdbf
000005d0: 952f cc93 b9b3 f2bf fc93 fbe2 aa1f f1bf
000005e0: 128d 5615 a645 7ebf eb40 fb0c 95af f8bf
000005f0: 5abe 2cbd 0db9 f7bf 1891 6b37 2a1b b5bf
00000600: 3112 ab2f a850 e53f e36b 0d67 b1bc f0bf
00000610: d9c4 7cea ecab f8bf 55d2 9d1f 501e bcbf
00000620: cc4b 90d8 f845 febf fca0 e68e 9594 ea3f
00000630: 6adb a972 9e6d c23f 5751 a375 5924 c1bf
00000640: 999f a680 8e1c 7fbf 49fe 4233 29ab dabf
00000650: fa14 ca17 d9a5 d8bf eebc 0b32 f025 00c0
00000660: 6ab0 9010 5f82 edbf dbb5 1a5f 546a debf
00000670: 9989 af95 3ce5 dfbf f49a 143e a87b e3bf
00000680: 2ff4 c584 509d eebf 9be0 5f32 b153 00c0
00000690: fa25 41a3 763a ca3f 5773 b27f d730 bf3f
000006a0: d8d2 4aa1 8035 f2bf 3014 bb3c 726b c73f
000006b0: 5f35 c058 2518 b33f d0af 8652 f5d0 fabf
000006c0: 539f 7356 3fbe e73f dc24 3b3e 0309 abbf
000006d0: 6773 4251 ec75 fabf eb72 986e 6bd4 d8bf
000006e0: f7f0 9767 2469 f6bf f98c 9b16 8883 f1bf
000006f0: b5be d7ce efdd d0bf 7353 6419 fbe1 e83f
00000700: aff0 367a cf95 f1bf 57aa fcda eae5 f7bf
00000710: 985b c19e 2548 01c0 9d68 d909 8818 e9bf
00000720: 5d5b a176 05be d13f e29c 17df 0394 e23f
00000730: e3f9 5e1e 28c9 f4bf 7c09 aaa7 c673 db3f
00000740: 023b 0e77 7074 ffbf 0238 dd12 0db8 e4bf
00000750: 0c59 bbe8 9d83 c63f 245d dab3 77a4 d33f
00000760: f539 7db5 b920 e7bf fdc1 bec5 b430 dfbf
00000770: dbb8 91c2 e760 b5bf 5c6a b980 d28b f7bf
00000780: 1e28 d57c f495 d6bf 8da8 bada 5d2c bd3f
00000790: ceb4 97e6 134f 8e3f 4f51 0f73 b9ac d33f
000007a0: aec9 8479 6dd0 f0bf bfad 37ec 3909 dfbf
000007b0: dac0 1e17 2ad1 0240 5022 02c3 d926 06c0
000007c0: bae2 384c 7946 e43f 5a10 d45c 8f92 e63f
000007d0: 3d94 648c 3695 f4bf 95fe a3e2 9c9a f03f
000007e0: 0b37 a64d 88b4 ddbf 157f fe7b d8d7 0840
000007f0: 530f 0475 f75d e53f ba91 9299 ac4d e23f

gate_gate_weights f8 [108, 81]
1.0241204768090115 1.024333348709681 0.13654642963624114 1.8250518441610615 -0.1674589943947515 0.28767413453021246 -0.06158618028138743 -2.142300245990899
-0.44293966754381353 1.1986816504016984 -0.20244907567904302 0.26596839166522623 -0.19337878073305415 -0.774358708446878 1.1537099300349638 0.23233383399069402
-0.8094380403533789 0.9147404723887672 -1.0700339661785425 0.7670422655024188 0.06385158674028357 -0.04063451695479708 -1.347828203182153 -0.9831653687383575
0.4707489368877073 -0.9332733339608361 0.2669700152994651 -0.926280637820557 -1.5036650192890435 0.8920241636567191 -0.4500521425596582 0.9075934539148142
2.3697156944487223 1.66778136860864 0.5451492016744452 0.7618543239427944 2.3164285266795983 -0.7456687641959685 0.08017534748153463 0.4117777679333785
-0.6968489814146611 0.12140145930607144 -0.8284355359582969 0.8244991995352868 1.1787825541998547 -0.031539047862215785 -1.2617621192811794 0.7946248310934096
0.4319224104172738 1.3063413292500499 -1.6168484622079702 -1.7699826949860056 -0.2831235633500306 0.3558621461317575 0.4245022241709345 -0.8450635833924515
-0.21414716875808162 -0.4603527296774711 1.1190263495990151 -0.6339717405896658 -2.2320591486116927 0.2422279943734245 -0.6437646650483175 -0.6650799062343576
-0.1874442587189362 2.9083616116387705 0.5590908528087195 -0.8762090650363502 -0.4161987098463026 0.1885062838124422 -1.703581916278053 0.6268336457037796
-2.7900570922307604 0.23798627345509935 -0.33526998855496465 2.380026292902495 1.9644614264855609 -0.6787130895400169 1.0549738451668587 -0.21455560966675052
-0.4833838747895704 -1.7452329096371029 -1.7334560175128757 1.380336706907611 0.2616194187273647 0.9738289413784701 -0.03992808304410061 0.30178119803223913
1.028093210432666 -0.9634469117368296 -1.058863705850857 -0.842626639233626 -1.628955767384347 0.4872705236019093 -1.7749268025341136 0.46386732300355876
-0.7109453178236372 1.2151724531138992 1.0412966013491818 -0.08504294099635645 -1.5924678171759499 -0.7272597424005903 -0.09223391863661372 -0.6176506128022747
0.017281898878856772 -2.619978218374778 0.2592830900020898 -0.29715581191190693 -1.2750386895272023 1.4344359299397968 -0.16190353250327238 -0.40236648751375853
-1.2303086700331658 -0.3482960161567486 0.5438842343571175 -1.3377294144195273 -0.2854933290678897 0.14827593445947182 1.496732156223686 0.9372317194322729
-1.4283743892595075 -0.3972731285566501 -1.8963961604915331 0.01599267091419205 -1.9892719494417446 0.3378788957238794 -0.8119755799942062 1.0543698245553557
-0.2821057707542638 0.7600824044460517 -1.1710345950286276 -1.3841584862705714 -0.5132076768865022 1.5053982797857064 0.8055261173157942 -0.10283194653278026
1.9152588948388762 0.6101369058821454 -0.2263273352501449 -2.384758576926902 1.413480275350039 -0.3725465495491603 -0.613290650143987 -0.7511659635050822
-1.0492184006455703 -0.38394447122593833 0.5156039103401766 0.49458535753347127 0.5940632915268864 -0.017410527579377548 -0.1864104315970814 0.42202379867723866
0.57899025459134 -1.8253611397684413 -0.042535917140110444 -0.46853332502882744 0.31935543242617515 1.3139176741031635 0.299919242315256 0.749627169682913
-0.07043437602819419 -0.2238553430083593 -1.9104227000754797 -0.7195976354640331 2.108965640995626 1.0924345672987188 0.7664562682850502 -0.0466829651860362
0.10599609420995866 0.5227817477065537 -0.8541190985827684 0.012479720888591745 -0.45040296380376366 -1.2446797887336232 -0.15261239325682618 -1.2046603402618787
1.5544108563397383 0.11386200630668336 0.7348240921855581 1.1644968484339797 -0.39093315439078924 -1.7654220359916957 -0.0923541966470182 -0.3248696290631768
-0.7999208196143395 -0.7224169931561005 -1.791411805213074 0.8295344348125664 0.6035160435454333 -0.8207708441394409 0.9472571684100135 -0.10602861147292901
-0.520189076444773 -0.9795778001627947 -0.4219134770439645 1.6463126382551063 -1.2602069104993818 0.0657308141813638 1.0297086125772172 -0.26047623382625823
1.0265709305321606 -1.9620892656955542 -0.7329140712648862 -2.636919012054575 -1.1408675834114614 -0.9070462263365885 0.8067887028304915 -0.5339800807905196
1.4510070870912912 -0.6364091306047231 0.4745676936713915 0.43303463905605144 -1.1321252745180297 -0.8213469346909454 -0.20444646475046946 0.5855286976456099
0.008915661127556056 1.6634369320043938 1.5711585351512 -0.3154994018755265 -2.048681596284743 1.3722824971274075 -1.1359523326609966 0.1530708669948559
-1.210588682872805 -1.879626979959945 -0.8554982913890298 1.6433377801178812 0.9300729210433658 -0.1426959522210771 -1.0951421425230796 -0.10803864179201088
0.009861720151013819 0.4786414280806313 -2.35040376349336 0.2871021087059024 -0.868261222280898 1.4508810399562262 2.1816533658291495 0.3849855034599495
0.7631278845497514 0.5264554057709159 -0.1885444488712656 -0.33672780500694904 -1.5356141119005584 -1.2187229138512314 -0.3080589388556469 0.8015955635399477
-0.30242232994167934 0.4465999281398189 -0.34758630898414766 -0.8434142924490969 -1.7729087836556132 -0.33812637898901243 -2.597359246166144 -0.26926511412845144
00000000: 27f0 3027 cc62 f03f 5c90 8e5d ab63 f03f
00000010: 1a2c d678 5a7a c13f e9d1 0290 6933 fd3f
00000020: 475a 2cdc 4b6f c5bf 6b97 edc5 4069 d23f
00000030: 9463 634c 3988 afbf 07f3 b54f 6e23 01c0
00000040: 28ea 8c9e 1f59 dcbf 4ca6 6ccf cc2d f33f
00000050: 3cce 92ef d9e9 c9bf 0c33 fe49 a005 d13f
00000060: bc91 7ec9 a2c0 c8bf 55de 04ea 8bc7 e8bf
00000070: 4021 298b 9875 f23f 0246 5f75 1dbd cd3f
00000080: 4b98 ee9a eae6 e9bf 5798 a7cf 8d45 ed3f
00000090: 4289 a5ef db1e f1bf c571 9f38 9c8b e83f
000000a0: c0e3 d8dc 9358 b03f 87b8 d122 0cce a4bf
000000b0: 5db3 544e b490 f5bf 1650 2938 1776 efbf
000000c0: 5fce 2326 c020 de3f d4e6 f209 60dd edbf
000000d0: 1b53 2e67 0916 d13f 1c6f cb4a 17a4 edbf
000000e0: 3ac5 1f0d 030f f8bf 2db7 4442 768b ec3f
000000f0: 2876 7280 a7cd dcbf 0517 546d 010b ed3f
00000100: 31cd 8380 2df5 0240 efd5 3084 3baf fa3f
00000110: 663b 14bd dc71 e13f d4d0 b451 1c61 e83f
00000120: f9e1 ecad 0b88 0240 7cda 7bbd 84dc e7bf
00000130: b6ed 601f 5f86 b43f 6899 9f23 915a da3f
00000140: 03a9 2d3c 964c e6bf 1c00 6881 2a14 bf3f
00000150: ae1f b93d 8b82 eabf aca1 3225 4c62 ea3f
00000160: bb23 7618 4bdc f23f e8fa 3ad6 e225 a0bf
00000170: 1f4f da79 2d30 f4bf ce57 c40d 916d e93f
00000180: 23b5 c9e4 9da4 db3f 93ac 682a c6e6 f43f
00000190: 8656 3c7e 9cde f9bf a136 d75f d951 fcbf
000001a0: f32e 544b b21e d2bf 204c e105 72c6 d63f
000001b0: dd2d 7960 0b2b db3f b9c1 b6c8 c20a ebbf
000001c0: f968 2ca7 2c69 cbbf 46b3 a54b 6b76 ddbf
000001d0: 933d 6e2c 88e7 f13f 4777 8d1a 7f49 e4bf
000001e0: d732 b0d3 41db 01c0 4938 01b1 5301 cf3f
000001f0: 4e7e d65a b899 e4bf 231b d0a7 5548 e5bf
00000200: 5fa9 8268 2cfe c7bf 6771 b717 5344 0740
00000210: 64cc 0980 12e4 e13f 8b46 d997 e709 ecbf
00000220: 4658 dbe9 ffa2 dabf bd4f 0852 f920 c83f
00000230: 3b8a 871c df41 fbbf df90 0a6f 050f e43f
00000240: efd4 e873 0952 06c0 f37a b18e 5576 ce3f
00000250: a520 0b41 1075 d5bf 3617 9d39 4b0a 0340
00000260: d524 d01a 6f6e ff3f b420 5e83 04b8 e5bf
00000270: 4c08 3241 2ce1 f03f 9a94 58e7 8e76 cbbf
00000280: 3fa3 68eb c2ef debf 5fb5 ec57 79ec fbbf
00000290: f35a 8460 3cbc fbbf 362f 5af1 db15 f63f
000002a0: 16af db5f 5fbe d03f 75cd e34f 9b29 ef3f
000002b0: b796 bb25 7471 a4bf 9827 0616 6250 d33f
000002c0: 64c4 c0dd 1173 f03f b2f0 2a9e 8ed4 eebf
000002d0: 0ed0 b811 1bf1 f0bf e7e5 4724 ccf6 eabf
000002e0: debd 38ec 3310 fabf 2533 cbb4 702f df3f
000002f0: 8cd8 9aa5 1966 fcbf 43ef 7e91 00b0 dd3f
00000300: c77f 2965 10c0 e6bf 18fd 91ab 5871 f33f
00000310: e3b0 03a0 26a9 f03f 20c3 55ca 5fc5 b5bf
00000320: 5b40 ab88 bf7a f9bf 7bda 2939 b645 e7bf
00000330: 634d 2060 a49c b7bf 56e2 ca37 cbc3 e3bf
00000340: 7d68 fd99 58b2 913f 5537 e123 b7f5 04c0
00000350: 4abf fd19 1898 d03f 0597 7ecf 9904 d3bf
00000360: ea76 0af8 8e66 f4bf c8c7 f416 73f3 f63f
00000370: c4ad 9a44 41b9 c4bf e930 385e 5fc0 d9bf
00000380: 7871 dc24 58af f3bf c519 ae5f 7b4a d6bf
00000390: 54f6 ebe8 7f67 e13f ff43 5df5 5667 f5bf
000003a0: faa7 e4cf 8545 d2bf 4bc5 a4b0 b4fa c23f
000003b0: ffa2 dd6a 9df2 f73f e388 f75f cdfd ed3f
000003c0: 5604 851a 9fda f6bf 22bf ae45 ec6c d9bf
000003d0: 3c23 1980 a357 febf 9265 35fa 6160 903f
000003e0: 453d dbd2 0ed4 ffbf 4821 c9cd ce9f d53f
000003f0: 5339 2736 b4fb e9bf 13ac a5e4 b2de f03f
00000400: 84c1 d95c 050e d2bf fa8b ab55 9852 e83f
00000410: f71e 82c5 8ebc f2bf 1f35 705e 8325 f6bf
00000420: c213 8981 326c e0bf f525 b281 1c16 f83f
00000430: 0a3f 3eb5 dec6 e93f bfa1 57c7 3153 babf
00000440: 174c cb82 e6a4 fe3f 1316 1bd5 3d86 e33f
00000450: af8b 8b4b 4bf8 ccbf 670d 064e fc13 03c0
00000460: 3eb6 427e 9d9d f63f 4948 a37b cdd7 d7bf
00000470: baf3 a9b6 13a0 e3bf d0ec e333 8d09 e8bf
00000480: 7a25 d23b 99c9 f0bf 884e d9d4 8b92 d8bf
00000490: 8c39 93c5 d37f e03f 53f3 eb57 49a7 df3f
000004a0: 4096 1b05 9102 e33f 1ef6 3cba 10d4 91bf
000004b0: e9dd ab09 4cdc c7bf 95f4 5c1b 7002 db3f
000004c0: 4785 0592 1687 e23f a81d ebe1 ad34 fdbf
000004d0: f655 0b8a 44c7 a5bf db6f 0533 73fc ddbf
000004e0: c880 84c4 5170 d43f 348d fe89 ce05 f53f
000004f0: 12d9 4b7a e031 d33f 9d65 3f1e f2fc e73f
00000500: 8c25 8ebd fc07 b2bf ecbc a0b8 4aa7 ccbf
00000510: 63c3 a564 1791 febf 3b1a d39e f106 e7bf
00000520: 0cb6 c360 29df 0040 2716 39ab 9c7a f13f
00000530: da26 c34b cf86 e83f cf37 8261 d4e6 a7bf
00000540: 9db0 225e 8f22 bb3f 480d abc9 a0ba e03f
00000550: e7a9 6993 f154 ebbf ca3e a3c8 f78e 893f
00000560: b4c0 e3f3 66d3 dcbf 4da6 a95a 35ea f3bf
00000570: 504d 008b cd88 c3bf 7468 c3eb 4946 f3bf
00000580: ab6c 08eb ddde f83f 441a 5879 0f26 bd3f
00000590: ddfe 87d0 ad83 e73f ac1a 8572 c7a1 f23f
000005a0: acf4 417e 0c05 d9bf 978d 432d 2b3f fcbf
000005b0: cb4e 3f4e 86a4 b7bf 498f 12fc a9ca d4bf
000005c0: 6242 f48b f398 e9bf 71c3 f53d 0a1e e7bf
000005d0: 84ef d06c 9fa9 fcbf 4aa0 8dcc 8b8b ea3f
000005e0: 4372 b4e0 0050 e33f d3da a237 c143 eabf
000005f0: 501f e743 ee4f ee3f e36d b7ea b024 bbbf
00000600: c422 e28f 63a5 e0bf 49c7 f28a b358 efbf
00000610: 734f 6962 a100 dbbf 2bc1 c4eb 4b57 fa3f
00000620: d49b acb8 ce29 f4bf d597 3f11 bcd3 b03f
00000630: e2db f6bc af79 f03f 5bd1 6a82 a4ab d0bf
00000640: 068f daa3 d56c f03f c4eb bfb6 b764 ffbf
00000650: 7d8c db35 0874 e7bf dccc b7fe 6818 05c0
00000660: b819 fd5d fe40 f2bf 756d c2ce 8506 edbf
00000670: 1f0e ae8a 36d1 e93f 37be f664 5d16 e1bf
00000680: 2024 1535 5337 f73f a956 5aae 765d e4bf
00000690: 2aa2 032d 515f de3f 5afa 31eb d6b6 db3f
000006a0: b77a 5064 2f1d f2bf d25b e55d 7948 eabf
000006b0: 2c6b f13f 4d2b cabf 593c e8ad a6bc e23f
000006c0: 8977 b8c7 5f42 823f ddad 5e0b 709d fa3f
000006d0: 07e4 d421 7723 f93f eea0 3d67 2431 d4bf
000006e0: 2dae 3f2d b363 00c0 1e91 e07d def4 f53f
000006f0: 9680 695a dc2c f2bf 7e4c db7f d397 c33f
00000700: e88a 1d3d 925e f3bf 23b7 79bd f312 febf
00000710: a597 e9f3 3d60 ebbf 5c33 5e8e 1c4b fa3f
00000720: a6d8 5849 28c3 ed3f 47d2 0768 dc43 c2bf
00000730: 5cba 69c4 b385 f1bf 2b71 33a1 6ba8 bbbf
00000740: f94c 3fac 6132 843f b57d 07a8 0fa2 de3f
00000750: 5ecb 047d a0cd 02c0 8749 e085 e15f d23f
00000760: 2f9b 42c2 cbc8 ebbf b2f9 8f09 cf36 f73f
00000770: 618e 0bae 0674 0140 5dda b23c 9aa3 d83f
00000780: afd1 592b 8b6b e83f f0d4 d201 b9d8 e03f
00000790: 7a49 df78 3922 c8bf 5328 8ac7 f28c d5bf
000007a0: 4639 5e1a e091 f8bf a307 1e99 e37f f3bf
000007b0: a707 e8d6 3cb7 d3bf 7eba 40bd aba6 e93f
000007c0: 217f 2b30 e35a d3bf 0b6a 70dd 1795 dc3f
000007d0: f6f3 67a5 da3e d6bf ff87 61f8 3ffd eabf
000007e0: d378 c999 d55d fcbf ae0d ebd2 dca3 d5bf
000007f0: 73f9 d148 64c7 04c0 80aa c8be a33b d1bf
