balderdash_lstm/lstm_model/models/lstm_model_17.npz (npz, 903256 bytes, 19 tensors)

forget_gate_weights f8 [108, 81]
000000 dd aa 94 62 1c 2a e3 3f 81 94 f0 0b 98 20 e6 bf
       0.5988904881863523 -0.6914787514875941
000010 69 0d 9a 63 24 28 e8 bf ff 50 52 df 1c 5b e5 3f
       -0.7549001641604437 0.6673721658467285
000020 4c cb 22 ef 40 c5 04 c0 5e d7 f0 71 e7 a6 e4 bf
       -2.596315258263905 -0.6453740334897977
000030 4d 82 d4 6a df 41 e3 bf af e4 f8 04 da bd fc bf
       -0.6017911039853715 -1.796350497649012
000040 94 96 92 73 26 10 d6 3f 1c cc a7 ba 5e 03 c7 bf
       0.3447357300413867 -0.17979034532581373
000050 c9 aa d9 50 0a c3 f9 3f ab 67 d2 55 6e 54 db 3f
       1.6101172598088616 0.4270282590965688
000060 3f 01 4d 86 75 ed e0 bf 96 23 e1 3d 66 5e e8 bf
       -0.5289867041647439 -0.7615233620245927
000070 89 c7 ee ff 07 27 98 3f bf 75 e7 ec f4 60 d9 bf
       0.023586392398733422 -0.39654276976747477
000080 10 31 04 10 98 dc ea bf 9b 37 76 ab 69 df e1 3f
       -0.8394279778308675 0.5585220669615752
000090 dc 5d d5 d2 a5 1c e6 3f d1 74 e5 6f 73 9a ec bf
       0.6909970395890315 -0.8938538728213193
0000a0 60 ae 5b 9c 50 d5 c3 3f f7 db 3b f5 7a 3b ed 3f
       0.15494735369371693 0.9135107793543956
0000b0 75 7a ea d3 8a b5 fd 3f 44 00 d8 e8 69 78 d7 bf
       1.856821849629026 -0.36672446955345017
0000c0 2e 54 eb 9e a7 cd ca bf b0 ef 85 81 19 ba e5 bf
       -0.20940108546952402 -0.678967240309694
0000d0 c1 ab 41 8f 2c 98 ee bf 5d 03 a9 ae 34 a7 b7 bf
       -0.9560759351710361 -0.09239510788121437
0000e0 19 32 11 02 3f 7c 03 c0 a1 25 ca 2c 3f 17 d0 3f
       -2.435667053365489 0.25141887067783314
0000f0 37 78 1a 11 91 81 eb 3f 46 e7 d1 11 52 72 fe 3f
       0.8595662435579986 1.902910298928377
000100 12 40 23 2a e9 2e fd bf b5 42 ec ed a6 52 fe bf
       -1.8239528318408742 -1.895178727518368
000110 39 95 25 12 72 c8 c7 3f 20 aa fb c1 87 dd e7 bf
       0.18580461393427486 -0.7457922734004718
000120 e1 ce 00 91 f8 59 04 40 b2 65 0b 5b 22 04 f1 bf
       2.5439311340686435 -1.0635093265940267
000130 90 50 14 99 09 88 eb 3f 4c 81 c4 91 5b 68 ef bf
       0.8603561391669405 -0.9814889761947057
000140 d9 c5 53 4b 92 81 e9 bf 9c 9d 7d 0e bd fa d5 3f
       -0.7970668288455115 0.34342886366945335
000150 10 f8 6b 2b 3a bc cc bf 8d 6f 2c cb a2 e0 00 40
       -0.22449423904612376 2.109685504239627
000160 d4 c5 1e 13 1c 3f fc 3f 60 f0 62 46 0f fc c8 3f
       1.7654076334841777 0.1951922506031023
000170 9e ea 94 85 55 e5 c2 3f 39 e4 2e c1 19 9e e1 bf
       0.14762372038406552 -0.5505493901356494
000180 45 6a 03 de 2c 63 da bf 83 59 58 01 65 0b ec bf
       -0.41230317765226615 -0.876390936495952
000190 fe 63 9c 49 84 c1 01 40 f3 8f 1c 55 41 e3 f7 3f
       2.21949059971348 1.492982227770878
0001a0 f2 65 c7 d1 6a ce da bf db 97 7e 32 35 a3 fd 3f
       -0.4188487099287094 1.8523456547204578
0001b0 11 3f 6e 74 ab da e2 3f 95 3b b3 be 2c ca e2 bf
       0.5891930841480378 -0.5871795391666291
0001c0 eb 28 a6 32 b2 58 e9 bf 40 46 cd f7 10 43 e4 bf
       -0.7920771588553895 -0.633186801898951
0001d0 08 96 40 2d 4f ef bb bf 25 1a 8a 5c fb 79 f0 3f
       -0.1091203198889944 1.0297807326147759
0001e0 a4 8b de 30 8b 13 e4 3f 63 31 3a d7 c6 d9 c0 bf
       0.6273857073286888 -0.13164601811548512
0001f0 98 57 57 4d 4d eb e6 bf 79 7f 46 81 46 88 dd bf
       -0.716223383957856 -0.46144259094761925
000200 c4 88 84 99 2c cb d2 3f f3 ab 3e 69 11 87 c9 bf
       0.29365077011074114 -0.19943444861323165
000210 8e dd c3 19 cf 4e d4 3f 92 ea b7 57 4d 68 e0 3f
       0.31731011882899274 0.5127321923494768
000220 67 05 8c f6 8d 6b f3 bf c5 6a cb 8d 23 fe ce bf
       -1.213758433412602 -0.24213070319713928
000230 46 03 f1 cc f3 3c d5 3f ec 97 d1 af 91 c3 e9 3f
       0.3318452359563263 0.8051231798133336
000240 64 58 1a bb 1a 5f f2 3f ce 33 5d 8f 05 90 ec bf
       1.1482188519198866 -0.8925807762221838
000250 0b 6e 56 81 3c ce e1 bf 0e 14 0a 55 68 99 f8 3f
       -0.5564253355145764 1.5374530145502407
000260 b4 e3 5b c9 32 13 e8 3f 7a 4b 3d 42 00 ff e2 bf
       0.752343552855669 -0.5936280530680584
000270 57 4f 13 12 6b fa ea 3f 92 5f 70 df 6c 5a c0 3f
       0.8430686333690386 0.12775956068139444
000280 b0 21 c4 6a 50 b5 f3 3f 34 2a a4 37 da d8 f1 bf
       1.2317661448051744 -1.115442483280856
000290 a8 21 bc a8 2e be de bf f7 b6 5c 0d 32 34 de bf
       -0.4803578040887495 -0.4719357614984427
0002a0 cf b7 ea b2 b9 9e ed 3f af 1f 52 3b 30 4b db bf
       0.9256256575079024 -0.4264641360573433
0002b0 11 3b 18 c3 0b 7d f9 3f 37 82 84 e3 78 f1 f2 bf
       1.5930287953266922 -1.1839531791121212
0002c0 bf 2d 52 4a 03 8e f3 bf 4c a1 54 eb 35 2e df bf
       -1.2221711066402887 -0.4871954725408798
0002d0 52 a6 ef 28 ee d0 c1 3f ba 1b 33 7c 37 81 f8 bf
       0.13918854712328482 -1.531547055392123
0002e0 e5 fe 12 73 24 c0 c6 3f e9 2b 07 6d b4 ad cd bf
       0.1777387201200248 -0.23186354945786938
0002f0 c8 f6 f9 f1 f6 b6 cd 3f 3f eb 85 6e 3d 61 e0 bf
       0.23214613738303158 -0.5118701132445053
000300 ec a9 cd 9b 2e 40 f1 bf c8 a9 63 1b 12 4e 99 3f
       -1.0781694494313525 0.024711878701887874
000310 d8 a0 7b df 43 4c eb bf 04 b4 82 d6 1c 5e fe bf
       -0.8530597081089821 -1.897976720744965
000320 79 82 1e 48 ca f8 e1 bf ac c2 91 d4 0c 3b cc 3f
       -0.5616198929383948 0.2205520666061792
000330 a9 98 9b 7f 27 fe c3 bf ac 5c a9 a7 42 20 03 c0
       -0.15619367342805404 -2.3907521341858082
000340 a7 cb 02 01 1e d6 08 c0 c9 09 f1 3c 77 63 f2 bf
       -3.1045494154909252 -1.149283636143638
000350 9d 6b 83 d7 f2 63 d4 bf d0 89 e9 38 49 c6 ce 3f
       -0.3186003784773506 0.24042620924872304
000360 16 82 d3 08 c1 40 ea bf e8 92 69 ef 35 18 e1 bf
       -0.8204045460116187 -0.5342054058097263
000370 b2 16 10 be cf 36 c8 3f 13 48 44 c7 97 3e fd bf
       0.1891727140465967 -1.827781465898174
000380 81 94 ad 30 e2 0a e9 3f 49 92 61 94 f5 20 d3 3f
       0.7825785589926825 0.2988866757425837
000390 06 45 b8 86 77 e2 d2 bf 52 fe e2 da fa be e4 bf
       -0.29507244259100707 -0.648312976372788
0003a0 28 7a 11 d1 a9 5e e1 bf 3d c9 63 ed 2e 2c fd bf
       -0.5428055842747357 -1.823286940864434
0003b0 be 96 c9 1a c5 da e6 3f 7f d2 10 68 0a 9d f6 bf
       0.7142053149406917 -1.413340002543151
0003c0 4d 0f e4 9c 83 93 d6 3f 75 67 8d 64 5c 5d f3 bf
       0.35275354691861055 -1.2102931907488401
0003d0 00 8c ee 68 94 88 f0 bf 69 84 ac d6 3a 9c fd bf
       -1.033344659700333 -1.8506420503329315
0003e0 3d e3 36 09 04 52 df 3f 75 1a 5d 40 b1 1d c0 3f
       0.4893808450683997 0.12590613978155188
0003f0 25 69 ce 14 27 67 f4 bf e5 ba 85 80 e5 b6 bf bf
       -1.2751837551828171 -0.12388452899697773
000400 35 9d de 79 51 d4 e0 bf fd c1 97 06 ef da f9 bf
       -0.5259177570596082 -1.615950608971729
000410 38 89 a8 a4 c9 34 a5 3f 63 a7 f2 a2 fa f6 f1 3f
       0.04141836295117901 1.1227976193572082
000420 25 88 66 8b a6 a9 c6 3f d5 8a 52 92 e5 58 fb bf
       0.17705232435861365 -1.7092033115119893
000430 72 02 38 21 aa 75 c2 bf e9 ce 28 0c 70 65 f2 bf
       -0.1442158376885519 -1.1497650599457592
000440 96 e6 57 1d 17 63 bc bf df 78 f3 40 8e a5 f3 bf
       -0.11088699785605124 -1.227918866839495
000450 d6 14 e8 38 c4 9a f1 bf aa 33 2b 07 24 50 96 3f
       -1.100284788409501 0.02179008764032956
000460 ae 98 d1 71 4c df d4 3f 41 9d fd 8c af 04 ed bf
       0.32612906565771993 -0.9068219903682931
000470 c5 5d c1 37 4a 74 f9 bf cb 7a 7a f7 0d 67 d2 3f
       -1.5908910921042303 0.28753995101753266
000480 d2 df 16 f7 e2 25 f8 bf d1 ce d3 b0 8f e8 d9 bf
       -1.5092496540000764 -0.4048194147901372
000490 0c c4 1b 9d 14 29 90 bf 68 24 0a 3a e5 9f 05 c0
       -0.01578170975603048 -2.703073934015766
0004a0 95 4b 1d c9 90 be f7 3f a2 9e da dd ce 18 ed bf
       1.4840247970612144 -0.9092783291898352
0004b0 38 74 41 78 1e d2 f9 bf 85 50 ac d9 f1 1f d1 3f
       -1.6137985894668088 0.2675747514451888
0004c0 05 02 14 56 6a fd e4 3f b0 31 f4 43 70 03 f8 3f
       0.6559344941343289 1.5008394865463792
0004d0 3a e1 ee 5b 6b 34 ee bf 40 cb 9c 1c 66 40 f5 bf
       -0.9438988490647156 -1.328222381370054
0004e0 23 c4 de 60 94 0e cc 3f cc 16 dd ac a0 db ec bf
       0.21919493417729638 -0.9018100143664127
0004f0 95 73 f9 89 24 14 d2 bf bf 9a f0 90 68 2b fb bf
       -0.2824794146925396 -1.6980977689469652
000500 1c c2 18 e5 93 e0 f9 bf 89 93 3f d1 b9 38 fe bf
       -1.6173285435762699 -1.8888490842593646
000510 b8 b6 69 1a e7 26 f0 bf 03 b7 7d 9c 24 4e de bf
       -1.009497740912975 -0.4735194710000174
000520 fd 2a 9a f4 db 3c e3 bf 46 a3 50 f1 d8 ad e0 3f
       -0.6011791016947822 0.52122161037287
000530 72 74 72 0e fb 0e f5 bf 02 17 66 da 6e d4 f4 3f
       -1.3161573948230196 1.301863530273693
000540 1d fa 57 84 f7 fd 91 3f 58 cd cf ca ea ea fc bf
       0.0175703691984329 -1.8073528215725982
000550 3c e3 ce 8a 1c e1 e2 3f 2c fc 05 c0 fb d4 c0 bf
       0.5899794303032659 -0.13149973751203115
000560 e1 9c 35 4a ef f1 c2 bf 0c 73 64 29 be 8b e7 3f
       -0.14800826190478403 0.7358084495968753
000570 28 eb 75 67 6d 86 7c bf 69 38 13 0f 9a a9 d0 bf
       -0.0069641374205911336 -0.2603516719071935
000580 f2 92 2c d0 a4 06 c8 bf fa c9 c8 02 d6 9e c1 bf
       -0.18770275273086373 -0.13765978942826945
000590 e8 d3 99 e5 3c a6 e2 3f 31 2d 3f 32 a6 5c e0 3f
       0.5827927097694756 0.5113097173101889
0005a0 63 07 96 9f 5e 83 e0 bf 40 fa 98 e5 0d 55 f2 bf
       -0.5160363308825534 -1.1457652062087078
0005b0 aa 84 c5 69 36 fe f6 3f 93 e0 9e a7 8f 4c cf bf
       1.4370636111928357 -0.24452396092033676
0005c0 3f a3 15 f7 8a 1a dd bf 1d 33 b2 db 4a fe 06 c0
       -0.45474504594180937 -2.8741662181622716
0005d0 57 6b 01 59 53 41 ef bf f5 a1 ce d7 90 fa e1 bf
       -0.9767243135823759 -0.5618366446479387
0005e0 48 58 9f 8e fa d3 ce 3f 44 6e b9 20 77 47 e7 bf
       0.24084407772051208 -0.727473796763157
0005f0 42 d5 96 ba 7c c2 ea bf 57 95 7e 95 f6 67 e1 3f
       -0.8362411159820697 0.5439408225835604
000600 3e 5c 3b 95 5c f7 c3 bf 06 99 73 b2 3a 13 fb 3f
       -0.15598637854302128 1.6921946497691933
000610 56 d3 a4 97 56 d0 e0 bf e0 0c 24 ba bd b9 e9 bf
       -0.5254319154542866 -0.8039234767496986
000620 f5 87 e3 39 e9 f4 c2 3f de b6 06 f9 fe d9 e0 3f
       0.14809909178353534 0.5266108382981789
000630 2e 41 45 4e 80 c0 bc bf da 06 dc a1 25 26 e0 bf
       -0.11231233511830815 -0.504656616336628
000640 84 bb be cf 26 63 e0 3f 6f dd 36 a1 1f f3 da bf
       0.5121034677048191 -0.4210890840872343
000650 3f 7b 96 b5 4d 3a d2 bf 9d 49 57 1c 0c 4e d2 bf
       -0.2848085664099251 -0.28601362960503157
000660 e1 6b e4 0a 4b e0 fb bf d5 53 75 89 eb 0e dc 3f
       -1.7422590661506023 0.43841064857161643
000670 a7 c8 70 6c af 28 e0 3f b6 60 c4 2a 67 98 d8 3f
       0.5049664609889718 0.3843019406936138
000680 d8 cd 24 31 2e 13 f3 bf e2 6b de ec cb ab cb bf
       -1.1921827239683491 -0.21618031564579981
000690 df 57 bc e5 f5 d1 c3 bf 85 f0 99 55 70 a3 ea bf
       -0.1548449870830941 -0.8324510261441139
0006a0 92 36 dd ff 51 42 d9 3f 68 7d eb a2 ff 39 f4 3f
       0.39467287050943256 1.2641598094995405
0006b0 81 a3 55 3c b6 c4 dc bf 21 94 84 b4 09 38 f1 3f
       -0.4495063389973027 1.0761811305503743
0006c0 dc d8 46 34 c4 41 91 bf 0c 43 a1 a1 7c 93 d7 bf
       -0.016852441492766754 -0.3683768824021605
0006d0 bf 3e 06 21 3e c9 f3 bf f6 8c 8a 40 37 1f d9 bf
       -1.2366315164580752 -0.3925302629742896
0006e0 16 78 73 48 a4 fb ba 3f 90 e8 b5 7c 01 b9 c2 3f
       0.10540224808525553 0.14627092923530371
0006f0 ce ed 76 31 15 59 f0 bf 3b b5 43 b6 27 60 ac 3f
       -1.0217487270555128 0.055421105383951695
000700 62 95 57 3c 85 32 f1 bf 47 7d 7a 4f 56 ec 01 c0
       -1.074834094726008 -2.2403989991431987
000710 2d 2b e8 2a 05 a3 f1 bf d0 2d 53 a5 c4 0f e4 3f
       -1.1022998500872732 0.626924822712164
000720 40 e9 0f 98 5a ab d2 3f 44 7a 1c 01 18 97 d9 3f
       0.29170861100978485 0.3998470316745719
000730 b6 51 17 7f 65 51 f0 bf 75 60 bc ee 0c d9 ad 3f
       -1.0198721851821637 0.05829658903366034
000740 a5 fe 85 9f a5 1c b4 bf 7a 85 fd d2 fe df f3 3f
       -0.07856211800207775 1.2421863786515517
000750 50 af d0 d9 79 cd f8 3f e7 43 49 80 52 14 d4 3f
       1.5501650341420437 0.3137403729243133
000760 dd 69 a3 52 97 58 ec bf 93 1a 82 10 82 c1 f3 3f
       -0.8858143438367808 1.2347431797840371
000770 3e c1 06 35 85 f7 f8 bf b3 49 50 d6 bd 4e d4 3f
       -1.5604297705977639 0.3173060028940668
000780 0d b8 6c 7f e5 f1 c6 bf 1f d1 7c 34 49 b7 d5 bf
       -0.17925709459217423 -0.33931188703287946
000790 dc 8c bf 0e 41 0e ea bf 51 da 23 e5 30 b8 f8 3f
       -0.8142400062610267 1.5449685049803927
0007a0 d2 fc 8a 7f 65 32 e2 bf cc 23 49 91 3b 50 fc bf
       -0.5686519137451802 -1.7695880580160859
0007b0 c3 90 6e be bc 0f e9 3f 55 99 d6 8b f2 cc ed bf
       0.7831710547802903 -0.9312679988113738
0007c0 3a 67 51 1f 37 93 f0 3f 5d a9 c7 2f f4 fd d2 3f
       1.0359412406309745 0.29675011316307637
0007d0 1a e7 3a f0 f5 d7 f4 bf 8d 20 5c 03 9e a4 f3 3f
       -1.3027247795093388 1.2276897555584896
0007e0 06 f9 9c 7b 43 fa ed bf 66 d2 4d 9b 0a 1d ea 3f
       -0.93679975646208 0.8160450967103088
0007f0 7a f2 76 73 1f 47 fc 3f 22 e7 3d 2a de b4 e8 3f
       1.767363978418102 0.77207859278062

input_gate_weights f8 [108, 81]
000000 6c ac 4b 5b 80 13 00 40 9c b5 f2 85 31 e3 dd bf
       2.0095221645802237 -0.4669917877280001
000010 82 b3 e5 2a 2b ef 00 c0 1f 9e 35 22 ae e5 ea 3f
       -2.116781554350781 0.8405371349480822
000020 09 5f d0 0c 86 fb f8 bf e1 63 7b fa 9c 77 f7 3f
       -1.5614071369690825 1.466702440686497
000030 c2 e7 58 b0 2b c0 b2 3f 9f f1 7a 3f be 61 f8 3f
       0.07324479155877753 1.5238630752274742
000040 49 a8 be 4b 40 4f f9 3f cb 6b fb 43 4d 81 da bf
       1.5818484267024522 -0.41414195670011783
000050 cd 9a a4 5e 0e ff ef 3f d2 fb d3 94 c7 a9 e7 bf
       0.9998847816940156 -0.7394750506208487
000060 4b 8c 43 bf 09 b2 86 3f 87 de ad 47 92 4e f1 3f
       0.011081768178376935 1.081682472225937
000070 0f 66 ef 69 63 65 b7 3f d0 90 38 0c 56 52 f0 3f
       0.09139081322009467 1.0201015927678334
000080 70 07 f2 12 71 e5 b4 3f af e5 83 12 14 9a fe 3f
       0.08162600243124785 1.9126167987109104
000090 23 d9 0c 94 c7 c2 f7 3f 84 1f e8 db 6c 60 e0 3f
       1.4850536139688948 0.5117706580212915
0000a0 aa 71 0f c7 e5 ca c0 bf 91 ca b2 83 33 b7 03 c0
       -0.13119194240324578 -2.4644537247598426
0000b0 55 84 63 5e 26 59 f1 3f 95 c9 2b a7 b5 41 b6 bf
       1.0842651068744733 -0.08694014865230877
0000c0 b5 16 04 7c 0c af e5 3f 34 cd a3 b8 a4 b9 e6 bf
       0.6776182577311461 -0.7101615530249661
0000d0 77 9c 7f 79 53 e7 e9 3f b5 f3 19 1b e3 0f d9 3f
       0.8094880459801875 0.3915946736013283
0000e0 93 6e 54 4f 14 16 fe 3f 5a 2d 66 a1 59 a1 b8 3f
       1.880390462762908 0.09621200743111072
0000f0 02 26 a2 ed dc 0d 07 40 18 63 3b 48 51 38 f7 bf
       2.8817690434559617 -1.4512493917047262
000100 70 66 23 9c a1 be 96 3f 13 be 12 cb 23 f3 ff 3f
       0.022211575655865123 1.9968603069827437
000110 91 7e 55 56 a5 2d f7 3f ff 14 35 ac ea b9 c8 3f
       1.44864400600628 0.19317372711717692
000120 21 99 d8 65 5c 5c f8 3f ff 0b 16 83 3e 6a f2 bf
       1.5225490549433476 -1.1509385223914703
000130 42 c8 48 bf 4d 1b f0 3f ab 53 ad 02 c8 a7 de 3f
       1.0066659423869315 0.4789905573027748
000140 0f 11 26 fc 38 db d6 3f 16 6e 87 28 1b aa e4 3f
       0.3571302854909541 0.6457649032194606
000150 4e 09 5c d5 4b 7b eb bf c7 e1 d8 c4 ac c7 f6 3f
       -0.8588008086374346 1.423748749670368
000160 ee c1 26 ce d1 8f b2 bf 9b cd 6a fd 57 3f b5 bf
       -0.07250701220505792 -0.0829977983183227
000170 d0 db df 74 f3 14 c6 3f d2 de 6e 6a 93 05 d2 3f
       0.17251437384376667 0.281590322435915
000180 02 09 ac 93 2c e8 eb 3f 58 51 62 ab 7a 39 f2 bf
       0.8720915683955186 -1.1390330023469541
000190 d3 f1 e1 02 f2 06 d2 bf d8 a7 f5 7b 60 e3 e3 3f
       -0.2816739109182695 0.6215059681974209
0001a0 9d 14 3a cf 0a 04 d4 3f 81 c2 ab 5d 82 2c eb 3f
       0.31274671780585966 0.8491832570562822
0001b0 f1 92 60 17 6e f4 f5 3f 7d a6 29 9b bd a7 e4 bf
       1.372175303761818 -0.6454761534234447
0001c0 11 ba 85 52 63 ce f0 bf 0d 7b e8 27 e9 56 cf 3f
       -1.05038768992711 0.2448398060668854
0001d0 80 dc cb 21 a9 c1 d9 3f c5 c5 22 a6 79 e3 f2 3f
       0.4024451093714063 1.1805359353714817
0001e0 f1 69 3a 1f 18 b2 03 40 18 ec 04 97 c6 db d9 3f
       2.4619600715352523 0.4040390467450279
0001f0 15 06 b5 92 a9 81 e3 3f 78 30 33 b3 ce 80 e0 bf
       0.6095779290555493 -0.515723562240523
000200 03 6c c9 52 fe 3f ec bf ef 47 44 43 11 1b ff 3f
       -0.8828117005281232 1.944108259926448
000210 3f 9e 08 22 19 ab f0 3f a9 40 fd 35 ae 3d f4 3f
       1.0417720155181909 1.2650587185817506
000220 5f 1d 69 e4 3f 05 00 c0 3c c4 db ee 22 80 f1 3f
       -2.0025632710054846 1.093783314743873
000230 0f 53 05 7b 79 d2 c7 3f 06 03 a7 42 f3 ef b3 bf
       0.1861106730163091 -0.07788010003333676
000240 ca f3 a9 b8 e1 e9 f9 3f 87 8b d0 b4 db 5b f6 3f
       1.6196000302727378 1.3974263251372763
000250 7a 1b a9 ee a1 7b ce 3f d2 23 47 28 01 11 d2 3f
       0.2381479659399835 0.2822878735865376
000260 93 87 09 72 1d 0e 02 40 f4 df a2 31 6a 96 bb bf
       2.256892100253887 -0.10776389800855651
000270 7f 57 07 0c 1b 4c f4 3f 35 91 7d 96 bf ab fd 3f
       1.2685804815168635 1.8544307592902218
000280 68 f9 3a 0c e0 56 f5 3f 90 a1 1f 07 64 57 e3 bf
       1.3337097623585468 -0.6044178141719829
000290 a5 6a 21 32 1d ea e7 bf a8 1d 0b 15 d3 ea cf bf
       -0.747328374777983 -0.24935377624045185
0002a0 44 53 58 f0 13 08 db bf cc ef a1 5e f7 f9 d7 bf
       -0.42236803504174625 -0.3746317314287324
0002b0 b1 91 73 02 b0 33 88 3f ed b6 24 1e c4 51 e7 bf
       0.011817336153804843 -0.7287312115419958
0002c0 44 95 1f 8e ac 99 c7 bf 71 96 28 16 9c 81 d4 bf
       -0.1843772596322798 -0.32041074909134354
0002d0 f8 ad 5e 75 26 c9 d3 bf d4 7f 84 b2 ba f9 d1 bf
       -0.30915223562143934 -0.2808672660194109
0002e0 1b 6d db 1a d0 26 fc bf 36 5c 7e 5f 63 d4 d0 bf
       -1.7594758080584316 -0.26296314549967137
0002f0 f2 db 52 b4 79 b0 d2 bf a3 eb 37 9b d8 a7 c0 bf
       -0.2920212040875746 -0.13012225703263622
000300 e5 62 db 75 0e d2 d0 bf 8e 79 1e a5 a7 1b ce bf
       -0.2628208304354714 -0.23521895945027577
000310 0b 7a fb 05 08 d9 c6 bf 4f 65 a9 02 fd 84 e2 bf
       -0.17849827091318135 -0.5787339260088319
000320 5e 86 76 54 92 83 f6 bf c2 f0 13 ae 21 14 e9 3f
       -1.4071219729743443 0.7837074661215626
000330 4c 9e 51 d1 96 73 e8 3f 53 74 7e 05 f9 3c f0 bf
       0.7641100013979183 -1.0148859228713902
000340 fe 6e b3 1f ad 98 f3 3f b8 8a 85 e0 31 9c f6 bf
       1.2247744787518395 -1.4131335039498207
000350 92 9e 4e 7e 0f 08 ab bf f3 29 39 c3 c0 d6 a2 bf
       -0.052795871895168336 -0.03679468520256881
000360 31 fd f4 24 35 ae e1 3f d3 b7 4f 84 0c 98 f1 bf
       0.5525155755821399 -1.0996213119901668
000370 f1 eb fe 5f 26 93 f0 bf 50 6a cd da a7 55 da bf
       -1.0359252691112 -0.4114780079595777
000380 94 3c 88 a2 a9 2a cb bf 09 d2 bc b4 1c 2f e6 bf
       -0.21223946033612562 -0.6932509927779061
000390 92 a3 12 b8 35 68 74 bf 51 23 5b 67 a9 02 d3 bf
       -0.004982194747903972 -0.2970374593101513
0003a0 76 1e e0 e0 25 a7 b3 3f f8 b7 2b 59 b0 3b e8 3f
       0.0767692255031934 0.7572862378708569
0003b0 00 d9 da 14 00 9b cc bf 52 0b b3 28 f6 d0 ee bf
       -0.2234802343206823 -0.9630080027494421
0003c0 34 57 39 a8 78 01 e1 bf 68 b8 53 89 dd 43 da bf
       -0.5314296041130775 -0.410392173870497
0003d0 7d 6a c0 7b 2f ea f3 bf eb 5a 9f 29 77 af ea 3f
       -1.2446741899535987 0.8339191258372386
0003e0 50 53 52 75 39 b8 fb bf fd 7d ea 25 44 9f fa bf
       -1.732476671492993 -1.6638833504765664
0003f0 56 09 d1 9b 5a 20 f4 bf 3a 95 fa 96 75 2b d3 bf
       -1.2578989111503538 -0.2995275473025064
000400 1f 18 3f ba d3 92 e4 bf 5d 08 4a 52 87 7c a0 bf
       -0.6429232251764495 -0.03220007781511989
000410 71 c5 95 fc fa 4c e1 3f 59 19 e4 c6 7f e8 f5 bf
       0.5406470235158577 -1.3692624825649402
000420 25 f7 e6 16 4c cf d7 bf d5 3f bd 35 f8 7b e5 bf
       -0.3720274184851056 -0.6713830041498975
000430 bf 4a a9 81 40 fa f6 bf a9 d7 88 06 90 a3 e1 3f
       -1.436096674432221 0.5512161376598118
000440 2f c7 5a 50 96 ce d5 3f 7f 1c a1 b9 2d a6 e3 bf
       0.34073407981041987 -0.6140354753087108
000450 e5 f2 9b 33 4d a7 e8 bf b0 9c c8 29 fb 1a f1 bf
       -0.7704225547782612 -1.06908718415961
000460 77 eb 7f 1a d9 14 f3 bf e9 96 70 93 92 e6 a7 3f
       -1.1925898585456858 0.046681004045508186
000470 28 b7 b6 ab 10 f6 fe bf 74 66 5e b8 bb f2 e2 bf
       -1.9350744922225633 -0.5921305275871434
000480 5c 94 8c d4 ac 03 e1 bf 86 53 11 1f 6b 5a e2 3f
       -0.5316986228323333 0.5735374075689925
000490 73 36 b1 f7 25 ef c1 3f d1 12 22 ae 4e 82 ff bf
       0.14011072725627435 -1.9693133165430263
0004a0 83 cd 97 28 ba d1 dd bf 37 d8 35 7c 83 56 b7 3f
       -0.4659257313171212 0.09116384298781176
0004b0 92 21 94 80 50 82 d7 bf 32 28 58 a8 49 79 f5 bf
       -0.3673287635470156 -1.3421112609817212
0004c0 0b 51 2d 6c 52 c7 f3 bf 8e 8b 3e ca bb f8 e2 bf
       -1.2361625886597405 -0.5928629827579799
0004d0 64 84 c1 90 50 17 da bf 09 9c a8 33 5d bb eb bf
       -0.40767301689454016 -0.8666215905149112
0004e0 e4 34 df 16 e1 70 02 c0 a4 8d 0d 0c 61 e0 b4 bf
       -2.305116823851323 -0.08154875320683758
0004f0 3d 07 fa 06 9c 53 b2 3f bf eb 5a 5b 84 fc e3 bf
       0.07158827944115571 -0.6245748314171279
000500 60 79 db fa 08 ea f9 bf b9 5a fc 88 cb f2 cc 3f
       -1.6196374701608747 0.22615951718099384
000510 aa 09 bf f3 be 63 b4 3f 75 9b 00 ae 3a 51 e2 bf
       0.07964700175128905 -0.5724156759723501
000520 91 3d c4 6a 7f c2 f7 bf 4f b1 2c 3f b8 f3 f1 bf
       -1.4849847956246303 -1.1220018832928706
000530 96 f5 c4 d9 b9 fb fa bf 75 9b a9 6d 4b cc b5 bf
       -1.6864565378776653 -0.08514853884990521
000540 91 ee 23 33 9f 23 bb 3f ba 84 fc 40 1d b0 83 bf
       0.10601229666274949 -0.009613255067565486
000550 e4 57 f2 f6 8c 5e c5 bf ed 95 28 0a 1a 64 dd bf
       -0.16694795663778372 -0.4592347239689321
000560 3f c5 65 12 78 f1 e5 3f f9 d5 ee 61 d3 00 fe bf
       0.6857262000395749 -1.8752015901094394
000570 08 48 7d 66 11 46 75 bf 9d a9 6d e6 85 ae e5 bf
       -0.005193775148500286 -0.6775540829233254
000580 6d 9f e3 e3 1f 2a f3 bf 8c 88 aa 70 fd ca e8 3f
       -1.1977843191070534 0.7747790527830758
000590 92 fb cf 72 8b 75 e5 3f 57 9b 4c 80 d5 48 e5 3f
       0.6705987207823105 0.6651408677906642
0005a0 79 5c 96 0b ff e9 d6 3f 4b ff 0b e2 ff c1 e3 bf
       0.35803199893548016 -0.6174315848329369
0005b0 6d 56 ba 02 e2 b5 e1 3f ff c1 13 0b ef 79 cb bf
       0.5534524968413287 -0.21465862313154102
0005c0 5e 80 d1 a1 a2 75 ec bf 67 4a 91 f5 46 67 eb bf
       -0.8893597755923215 -0.8563570781937643
0005d0 62 6d 97 1b 4b 74 f2 bf 9e 76 6c 98 a9 39 e8 bf
       -1.1533919408601254 -0.7570388772034737
0005e0 3c f1 7f 51 47 3a f8 3f ad b1 e2 e8 b0 8b d9 bf
       1.5142281707367848 -0.3991510652802173
0005f0 86 4e 65 d3 a0 a8 ee bf 13 dd b7 98 e2 d5 de bf
       -0.9580845002005425 -0.48180451311005007
000600 3b d2 19 dc de ed e8 3f ff 1f 1c e4 fe 65 ef bf
       0.779036931881428 -0.9812006430884138
000610 1c ad dd 8b cb 51 f5 bf 56 72 ab 47 db 08 c8 3f
       -1.3324695075523953 0.1877702808332226
000620 7d 7a 1a 67 3f e6 eb bf f3 55 60 82 51 6f d7 3f
       -0.8718564046610734 0.3661693356710593
000630 06 d8 14 21 d2 68 e4 3f 7f ec 2b 52 79 d4 f6 bf
       0.6377955099221715 -1.4268735132052652
000640 24 78 cc 97 9a f6 b2 bf ad 91 be c5 03 2c dd bf
       -0.07407537656806135 -0.45581144629457065
000650 8a 34 3e 69 4e 28 8f bf 82 91 34 63 01 2c f3 bf
       -0.015213596903573174 -1.1982435107430267
000660 fe ec 69 f5 6c ba e4 bf a7 94 1f 72 35 4a f1 bf
       -0.6477570336568588 -1.0806173761314228
000670 ce a6 03 df d2 a6 f5 bf d8 e1 38 f4 be 80 fb bf
       -1.3532284461493194 -1.718932107918695
000680 5d 49 3b 15 bb b6 d6 bf c6 e4 6c c4 d2 c4 f2 bf
       -0.35490300248524936 -1.173052565847955
000690 c6 7d 3f 74 5a ed dd 3f 05 41 2f e2 5e ad d6 bf
       0.4676118979677678 -0.3543317040284964
0006a0 0d cf 9d b5 dd ab f3 bf 69 d7 9e b9 2f 3f f2 bf
       -1.22945948547289 -1.1404263735580236
0006b0 29 16 b2 dd eb bd e1 bf e7 22 f9 31 2c 4e 02 c0
       -0.554433758735006 -2.2881702331691147
0006c0 c8 1b d0 6f 66 52 f2 3f 79 39 b8 78 7d ec de bf
       1.1451172225658741 -0.4831842116263015
0006d0 cb c6 f6 01 a8 f6 f1 bf 10 25 bc 05 20 da d2 bf
       -1.1227188183515178 -0.29456329879811083
0006e0 d7 68 1b 7c e1 54 f6 bf a5 84 89 05 5e 1c e4 bf
       -1.3957228515560496 -0.628462801756673
0006f0 14 5e c0 1e 2f 89 e9 3f f5 5f 7f 19 fd 99 c7 bf
       0.7979961014379477 -0.184386861276607
000700 35 12 1c 52 fc ce f3 bf ca d7 7c 15 69 68 00 c0
       -1.2380336005600274 -2.050981681702045
000710 b1 1f d2 5f f9 1f e3 bf cf c7 14 bb 8b c5 a0 bf
       -0.5976530906200336 -0.0327571550245832
000720 f6 34 5d 81 63 7a cb 3f 1b 60 28 5d 9c 37 a8 3f
       0.21467250649076391 0.04729927670649677
000730 28 7f 71 79 f1 6b de bf 14 db a4 e4 96 76 c4 3f
       -0.4753383336992436 0.15986906208282703
000740 53 a6 5d 25 81 df ff bf f7 c6 0d ef 41 07 f2 bf
       -1.99206652256034 -1.1267718637504325
000750 ba b3 8a d3 22 13 e3 bf 2e 99 4b f7 1c 53 e6 3f
       -0.5960859424281957 0.697645648001332
000760 e2 d4 f5 96 5a 68 de 3f dd d3 05 59 61 f0 00 c0
       0.4751192545148354 -2.117373176088661
000770 7c c5 7c 5e f9 fa d1 3f 64 df b9 c7 ea 8e dd bf
       0.2809432432869341 -0.46184796814440277
000780 3f 46 01 f1 53 21 e0 bf 9d ce d1 dc e1 c3 d2 bf
       -0.5040683467033843 -0.293205705303288
000790 94 d0 67 ad c5 71 e3 3f 78 f0 87 b8 3c 43 b1 bf
       0.6076382052256286 -0.06743220811034856
0007a0 e7 e4 1b 5a 46 89 e4 bf 76 8d af cd 48 d3 be bf
       -0.6417571792545943 -0.12041144391655742
0007b0 dd 83 58 ec b3 e8 e4 3f 4a c5 b3 73 dd 27 d4 bf
       0.6534061065796056 -0.3149331693558294
0007c0 75 0a 8d da fa 44 f9 3f a7 f1 ec 1e 73 1d e1 3f
       1.579340795244801 0.534844932939042
0007d0 54 54 f3 86 09 61 da bf f7 6f c6 95 f5 c9 e6 3f
       -0.41217268160591414 0.7121532368942088
0007e0 00 66 a9 4b 1c 28 c3 3f 00 de 2b 1c 73 9b fc 3f
       0.14966157621783793 1.7879515743678667
0007f0 39 b4 f7 b9 aa d8 ee 3f a3 30 53 3c a7 ce d7 3f
       0.9639485962085309 0.37198811427220785

output_gate_weights f8 [108, 81]
000000 ed 1f aa 24 9d 97 f0 bf 3b 7f eb a2 04 7f f3 bf
       -1.0370150978287669 -1.2185102809962263
000010 0e 82 7c 65 92 81 f3 bf 77 46 a4 32 77 46 e5 3f
       -1.2191337551413457 0.6648517598243434
000020 a7 ea 38 6a 81 f6 fd bf b9 bf 4e 5a 78 b8 01 40
       -1.8726820134458337 2.2150733046800863
000030 1c d2 5d 9b a9 99 c0 3f 59 30 eb a0 1e 77 e0 3f
       0.12968940817121755 0.5145409720366941
000040 d3 e6 4f cb e9 8c 08 40 19 79 0c a1 ee b7 e9 bf
       3.0688053020247508 -0.8037026544077747
000050 d6 79 f9 86 4f a6 f1 3f 5a 76 64 28 4f f2 dd 3f
       1.1031031868402486 0.46791438049863177
000060 00 14 75 d3 38 cb e2 bf bf d1 fa 7c fa 5d e9 3f
       -0.5873073701883413 0.792721981145
000070 06 98 74 f7 95 fb f0 bf 49 02 f8 cd 89 30 c7 3f
       -1.061422316191512 0.18116877133435796
000080 23 3f 79 d6 98 bd d9 3f 5d a9 88 39 f9 dd 03 40
       0.40219708389939707 2.4833855147200397
000090 66 e2 d2 22 cd 9a 00 40 9e ae d4 1d bb 38 f2 bf
       2.0755865784270098 -1.1388503232255185
0000a0 7f 28 72 d0 07 be d2 3f 0b a6 96 b8 1d 56 f5 bf
       0.2928485427479543 -1.3335244379508164
0000b0 82 13 2f c0 07 6b f6 3f 74 d3 22 4a d1 5b b8 3f
       1.401130438536001 0.09515102443658724
0000c0 11 7e 43 70 15 74 a9 3f cc ef 46 05 76 a0 e3 bf
       0.0497137736836032 -0.6133375266140262
0000d0 14 05 2f a7 0c 34 b6 3f aa 69 f3 0f 2a ee ea 3f
       0.08673171121246909 0.8415727912463826
0000e0 86 62 b9 02 aa 04 da 3f 36 b7 59 90 b9 ae ca 3f
       0.4065346743205186 0.20845717953073412
0000f0 f6 ce ac 3c c7 69 08 40 01 bd 7a 31 9d 82 d3 bf
       3.051649545692153 -0.3048470481107444
000100 50 47 09 7e 80 c1 e2 bf 4e 3c 07 7d 18 76 f0 3f
       -0.5861208402295492 1.0288319477001724
000110 69 6c 57 a3 f4 54 a6 bf 1e 24 47 f5 7d a9 e8 3f
       -0.04361690992274065 0.7706899443229565
000120 a7 eb 5f 6f 5e f1 f3 3f eb 42 3c 3b 0a 43 fc bf
       1.2464279509137925 -1.7663671792872104
000130 82 4b b0 a0 e4 63 f1 3f 78 c7 7f 2b 86 cd cc 3f
       1.0868879582310176 0.22502209781628912
000140 5c 8b f1 9a 11 58 b1 3f 02 9e 30 87 c8 a3 ea bf
       0.06775007279206363 -0.8324930801799726
000150 9a 29 bc 9d 45 4f ef bf 6a 39 1f ce 0c e2 f9 3f
       -0.9784267502557669 1.6176879932059713
000160 04 ad c8 64 3e 4c f4 3f 8a de 3e 23 ae 35 e3 bf
       1.2686141907568649 -0.6003027618780419
000170 52 e7 c3 c5 28 26 e9 bf 88 4d 88 c7 77 1e d3 bf
       -0.7859081137278088 -0.29873461232747234
000180 b0 5a 4f a0 b3 31 d4 3f e4 82 36 9a 41 61 d3 bf
       0.3155335488822102 -0.302811050985879
000190 d9 61 f2 d6 9f ff c5 3f 14 73 be 5b 81 bd c1 3f
       0.17186353679131974 0.13859574298557986
0001a0 df 7c f1 80 f9 38 ca 3f 92 90 88 cc 81 36 f4 3f
       0.20486372753200663 1.2633073796833156
0001b0 f9 86 cf 68 bd c6 f2 3f 5d 33 c9 13 62 86 e3 bf
       1.1735204786459106 -0.610154188770689
0001c0 8a 5e a0 00 6a a6 fd bf c5 07 ec 66 1b e8 dc 3f
       -1.8531284355612194 0.45166668940521176
0001d0 cc 3c 44 a1 ca 5b f4 bf 68 3c 9a fd a7 ab e2 3f
       -1.2724100398516383 0.583454127614357
0001e0 e5 06 6d 64 06 27 e8 3f 0a 68 7e 08 a9 ce f4 3f
       0.7547637902682395 1.3004541713512503
0001f0 00 ad a2 c7 63 d8 da bf 5c 26 03 d6 d3 f3 f4 bf
       -0.41945738311433445 -1.3095281944137218
000200 2c 18 4c b8 52 56 f5 bf c3 04 c5 23 a5 d0 f0 3f
       -1.3335749816046798 1.0509387395143654
000210 50 40 6e ab b7 9e e7 3f c6 06 a7 cb 3c bd fb 3f
       0.7381246898894549 1.7337005572484698
000220 ab ff 49 d4 a4 65 01 c0 ff ca a1 e7 f6 37 f5 3f
       -2.1746307931025135 1.3261632011532922
000230 33 c3 0b 7a f5 2e e2 bf fc 9d b8 3a f6 8b b1 bf
       -0.5682322868070514 -0.06854189809438788
000240 6a fe 52 73 89 a7 00 40 ed 25 9a 6a e7 70 e2 3f
       2.0818051347449016 0.5762822229455061
000250 fa 9b 35 c9 d9 64 e8 bf c2 c2 01 67 d1 1a c9 3f
       -0.762310879695064 0.19613091973908153
000260 a9 69 5d ca 5f 48 fb 3f ce 59 30 c3 83 22 f2 bf
       1.705169477928033 -1.1334264397206542
000270 83 52 c5 9f 0f 71 fb 3f 47 a9 a8 3b 70 15 04 40
       1.715102790932321 2.5104679737898183
000280 2b bf 3e c1 78 75 f7 3f 50 e7 3e cf d7 b2 d8 bf
       1.4661796139370817 -0.3859157108196216
000290 25 c0 55 f3 6f c4 b9 bf 7a 8f 59 ef da 76 f3 bf
       -0.10065364542765616 -1.216517386398634
0002a0 b1 49 60 18 a3 a1 cc bf a5 dc b2 ce bd 4c d5 bf
       -0.22368277254333926 -0.33280892548959634
0002b0 9e 1c 4a 7c 09 39 d8 3f f4 b3 f8 b3 c1 69 db bf
       0.3784812654270783 -0.4283298738035335
0002c0 3b b7 7d 69 d9 86 f0 bf 20 f1 e2 a5 6e f6 d9 bf
       -1.0329221840615463 -0.4056660289750358
0002d0 cd ee 8d 1d 81 d1 e9 3f 65 84 c8 4c cc 4b d0 3f
       0.8068242623553147 0.2546263456188796
0002e0 f7 b2 5c 76 ef 4b f8 bf 7b 25 ab 7d 73 e9 e2 bf
       -1.5185389159698255 -0.590997453161591
0002f0 62 04 9f f4 c3 68 bf 3f 0b 9c 88 f2 57 36 f0 bf
       0.12269234392353348 -1.01326746692371
000300 bd 25 a5 47 49 15 f3 bf 03 22 5e 37 bf bf e8 3f
       -1.19269683824892 0.7734066087151067
000310 06 3e db 42 88 55 a1 bf a5 a2 23 ac c4 82 e0 bf
       -0.03385568443411206 -0.5159629213422546
000320 06 26 6f bb de 16 fa bf db 7e 64 e0 40 4b e8 3f
       -1.630583507694952 0.7591862089793396
000330 d5 31 a4 dd af b1 f6 bf d2 83 f8 5d b6 d5 f9 bf
       -1.4183806093088738 -1.6146758719189518
000340 c9 e9 ad 5c e9 97 d2 bf e9 37 b7 10 c8 f6 ff bf
       -0.29052194643705015 -1.9977493908841046
000350 d1 64 d1 04 36 c8 d3 3f 36 a8 f6 9d fa 51 fc bf
       0.30909491034033204 -1.7700143976640113
000360 73 fe 98 75 9d 0a f4 bf c5 1c 24 32 e4 70 ea bf
       -1.2525915712029956 -0.8262806872670799
000370 7a 43 a1 e3 b4 79 e3 bf b2 c5 d3 36 fe d7 d1 bf
       -0.6086067624947724 -0.2788081679746838
000380 53 26 dd 78 56 91 f1 bf a0 05 b0 c3 3b a1 e6 bf
       -1.0979828568691985 -0.7071818182013665
000390 ce c7 03 a4 86 0f f2 bf 5a 09 d2 e5 37 bd fe bf
       -1.1287905127360207 -1.9211958863603145
0003a0 e9 b3 7f 2d cb d9 b1 3f a1 b8 5a 85 06 8a d4 3f
       0.06972951756297587 0.32092440626991886
0003b0 bb 13 e0 35 5e bc f5 3f 59 d6 17 1a ba 8a f7 bf
       1.3584882835868786 -1.4713688868772776
0003c0 20 1d ba af cf c4 c2 bf 73 d0 64 42 70 26 ff bf
       -0.14663120346470127 -1.9468844026096377
0003d0 35 ef 01 96 dd e9 f7 bf 1b c9 be 59 bd 13 d6 bf
       -1.4945960864706198 -0.3449548126619832
0003e0 cc d0 56 c6 cf 61 f1 bf c7 8a 5e d2 47 9c e0 bf
       -1.0863797900793086 -0.5190772160315981
0003f0 77 c8 b0 6e e8 2c ed bf 52 6d 62 5c f2 7a dc bf
       -0.9117319261479356 -0.4450040723983949
000400 a2 b5 0d cd d3 a0 f2 bf c4 68 c5 38 c9 3c e5 bf
       -1.1642644891647724 -0.6636701687632685
000410 da 5f fc d4 ca 0d dd 3f c8 6a 03 5f 5f 31 e1 bf
       0.4539668159427471 -0.5372769218186813
000420 a5 fc 85 58 57 23 cb 3f db 83 7b 4f aa 97 c5 3f
       0.21201602766447994 0.16869095688801292
000430 7d d8 53 2a 73 7a d6 bf 36 3f 23 4b 45 88 d8 3f
       -0.35122374661967354 0.38331730210937864
000440 01 05 6a f6 98 ce d7 3f ab da 85 ff 95 0d ec bf
       0.37198471130257366 -0.8766584387475026
000450 d5 79 84 69 8a 75 ef bf f1 ff fd 92 7d 86 f2 bf
       -0.9830982266319618 -1.1578346006281175
000460 49 6a ee 2c ed 47 dd bf f4 6c ef 21 ce 2a e6 bf
       -0.4575150431425397 -0.6927252447889303
000470 df e0 9e 8b cd 1e f4 bf a5 58 a8 dc 9e 30 cd 3f
       -1.2575202421121998 0.2280462815694523
000480 13 97 7d f5 39 47 d6 bf a6 58 b1 a8 60 ba ed bf
       -0.3480973145836838 -0.9290011687069366
000490 94 1b 98 b5 9c df eb bf b4 34 17 6e 6e 1c 05 c0
       -0.8710464045296811 -2.638882503588855
0004a0 f6 da b3 1e 19 df bc bf 2d 7f 59 c8 6f d9 e2 bf
       -0.11277920722555365 -0.5890425599172652
0004b0 ee c4 23 f5 2d c6 98 3f 62 e4 ff 92 ed 24 75 3f
       0.024193494879857384 0.005162170433316767
0004c0 2f 31 04 39 b1 9c d5 bf 3a 6a b3 8d ac 86 ef bf
       -0.3376887375641386 -0.9851897018045925
0004d0 d6 55 4c 34 b7 7d e8 bf ac 22 bd f0 8c 6d 06 c0
       -0.7653461476754113 -2.8034914787025027
0004e0 3d 83 8c b1 66 62 ce 3f 20 d5 d8 a7 a7 b6 f0 bf
       0.23737796468142305 -1.0445934826396481
0004f0 5c fd 5e 25 f1 56 e8 bf a5 45 3a 60 a5 a0 f1 bf
       -0.7606130342391384 -1.1017202147380456
000500 4f e3 98 91 2f 57 00 c0 35 89 fd be 89 00 ee bf
       -2.042571198919553 -0.9375656824379691
000510 fd 47 b1 95 61 55 f2 bf 41 b0 8a 7a 8c 03 95 bf
       -1.145845017181727 -0.020521349887232757
000520 4d 23 cd 2c cb 91 fd bf 35 c8 12 e4 fc be e2 bf
       -1.8480941534091528 -0.5858139471586187
000530 87 e4 e2 f0 bb 21 f1 bf 3f d5 68 51 54 5a f8 3f
       -1.0707358750935627 1.5220530681666131
000540 7a 60 b1 73 90 1d dc 3f 49 e2 2f da d8 41 e6 bf
       0.43930445955402997 -0.6955379735437158
000550 e1 2b bf 89 22 43 da 3f 1b 8e 9e a3 73 a6 b1 3f
       0.4103475899871097 0.06894610161412411
000560 34 af 74 e1 74 92 d5 3f e9 4a da 2d 7e 3e ed bf
       0.3370639993397504 -0.9138785262642531
000570 6a 83 bb 3e 39 29 a7 bf a4 01 66 fb 10 93 de 3f
       -0.045236386211178495 0.477726216799079
000580 46 34 f2 66 4f fa f5 bf 0a 0a 6c 3a 99 41 a8 3f
       -1.3736108800251414 0.04737547720107578
000590 9f 6a 7e 23 38 da e3 3f 07 2d 38 bb aa e9 e7 3f
       0.6203880971182406 0.7472737938527708
0005a0 2c 0c d9 4b 9e b2 c8 3f d0 66 7d 1d f2 14 f7 bf
       0.19295099929340276 -1.4426137115428226
0005b0 e5 c0 1a 03 e5 7c f0 3f 1b 7e 96 bd 94 91 ff bf
       1.0304918404836425 -1.97304224069365
0005c0 35 dc b0 72 15 48 dc bf 15 87 05 00 e9 57 fe bf
       -0.44189964485434824 -1.8964624405711608
0005d0 35 3c a4 2f 52 fd f1 bf 21 12 fb 36 3e e8 ef bf
       -1.1243459568975258 -0.9970999788134273
0005e0 ae df 44 d0 a8 28 b0 bf 48 65 71 cd a2 8e f8 bf
       -0.06312041363423646 -1.5348232293238926
0005f0 e1 f2 6a 77 3d 99 f7 bf bb 89 fe 52 be 23 b8 bf
       -1.4749121346241554 -0.09429540182330858
000600 97 e8 60 97 58 a6 e6 3f cc ae 1f 5a df 30 f0 bf
       0.7078059155094419 -1.0119317551097309
000610 1a ed c8 74 bc de f9 bf 49 6b 3e 0d 70 5d c1 bf
       -1.6168789445790197 -0.13566399237319107
000620 ac 65 9f 87 b8 59 00 c0 18 63 dc f6 3c 57 e8 3f
       -2.043808993865886 0.760649187231226
000630 e9 7a 57 ce ef 61 b4 3f 0f 1f b6 c6 ca 2c be bf
       0.07961939609183911 -0.11787097312310045
000640 42 1e 6a 29 61 d3 92 3f 67 a9 f2 b0 fe 04 da bf
       0.01838447394632526 -0.40655486373966315
000650 77 d6 5e 6f 99 f7 d9 bf 23 11 bc b3 f7 2a fe bf
       -0.40573726535817606 -1.88549013336985
000660 39 56 b6 64 89 94 eb bf 6d 6e fb 47 6d 72 e1 bf
       -0.8618819205318636 -0.5452181249524536
000670 c5 6d bc 6c a1 08 e0 bf bc 45 3b 1a 4b 97 e3 bf
       -0.5010535358191467 -0.6122184288344026
000680 95 7f 75 94 6d 65 f1 bf ba 12 ab 4d 1a ab fd bf
       -1.0872627066782787 -1.8542731317440215
000690 9b 8f 3f 6a 0f 1b d0 3f 29 bb 6b 5e cd c0 b9 bf
       0.25165162444886285 -0.10059817843624032
0006a0 a4 a2 75 f8 37 20 f4 bf 2c e0 96 a2 b2 4b a6 3f
       -1.2578658776712155 0.04354627833112121
0006b0 ff 4b 67 0b 34 ff 99 3f 13 db 71 c1 d8 93 f9 bf
       0.025387585826887712 -1.5985953861651907
0006c0 b6 f5 72 1b 1e 8f e8 3f 37 70 7c 24 27 a4 aa bf
       0.7674704109301078 -0.05203363724123771
0006d0 5c ea 9f dd 9e c6 fa bf ef 8d 10 52 b4 a0 d8 bf
       -1.6734913499082245 -0.38480861677291406
0006e0 01 7c 19 54 91 93 f7 bf b0 14 b4 41 a3 fb f0 bf
       -1.4735272679461107 -1.0614349905529643
0006f0 a9 8f aa 74 0d 19 d3 bf da b2 a0 24 ab 0f eb 3f
       -0.2984040870016949 0.8456626620660146
000700 5d c7 29 47 39 e3 f1 bf 07 78 21 30 ce 45 f9 bf
       -1.1179745464146074 -1.57954233933515
000710 e5 91 e6 c0 90 74 01 c0 2a 07 73 b5 ae e2 ec bf
       -2.181916720425067 -0.9026711982662381
000720 83 ff 72 37 6e c0 c4 3f cf f6 15 a3 e2 6b e0 3f
       0.1621225138424017 0.5131695924062231
000730 3e ef 3a e0 88 80 f5 bf fe 34 46 61 b0 09 d8 3f
       -1.3438805350296685 0.3755913686698732
000740 79 d8 63 e4 aa e8 fd bf 34 76 4e 8b ad ad e5 bf
       -1.8693036004529218 -0.6774509163694291
000750 2b c8 37 1f 4a a1 be 3f 6d b6 ba 99 eb 4d bd 3f
       0.11964858305125918 0.11447021964223732
000760 49 7c 13 4c ec bc e7 bf 14 af 2c cf 8f 59 e1 bf
       -0.7418118940221429 -0.5421828314187871
000770 6a ed a6 66 7c 7e a1 bf 00 7e 47 b1 43 65 f7 bf
       -0.03416813614918619 -1.4622227597209303
000780 b5 31 ef c2 46 41 d0 bf 26 5b 89 50 a8 ea b9 3f
       -0.2539841560035499 0.10123683897232336
000790 de 5b ae 26 1d bc a9 3f e3 59 a8 53 15 19 d5 3f
       0.0502633199422957 0.32965596360864263
0007a0 7b c6 32 41 6b d1 f1 bf 68 43 00 8e 20 02 db bf
       -1.113627676659603 -0.42200483195579475
0007b0 d1 e5 20 d5 ce 46 03 40 83 27 c0 53 8e 3a 06 c0
       2.409574189249476 -2.7785917799964763
0007c0 5f a7 6c 2b 2a fc e6 3f 98 8a ea d6 a5 76 ed 3f
       0.7182818267949463 0.9207333753186786
0007d0 25 95 76 4b c7 94 f5 bf cc dd 08 a3 0a b4 f1 3f
       -1.348822874811341 1.1064554565945057
0007e0 9f 95 e0 09 5d 8e de bf 2c 0e 37 fc 12 fc 07 40
       -0.4774391743142931 2.998083086424023
0007f0 11 a9 6d dc 7b be e4 3f c8 e1 65 56 39 63 e3 3f
       0.6482524209252764 0.6058623015842892
