balderdash_lstm/lstm_model/models/lstm_model_6.npz (npz, 903256 bytes, 19 tensors)

forget_gate_weights f8 [108, 81]
000000 54 e0 07 f2 d3 13 a7 bf d3 f0 10 77 16 aa e4 bf
       -0.045073149962207154 -0.6457626653205132
000010 3f 98 7a 44 78 9c e8 bf ca 75 4a 1a 60 d3 f2 3f
       -0.7691003167608484 1.17660532255046
000020 21 f2 e9 15 b5 97 02 c0 51 9a 8d 14 81 49 c5 3f
       -2.324075862123451 0.1663056707722768
000030 20 33 9f 51 e8 60 d9 bf f6 d0 bb 90 07 79 f3 bf
       -0.39653976412664527 -1.217048230520104
000040 f0 97 cb dc 32 82 df 3f cc 27 57 1a 17 c0 c8 bf
       0.49232169687309035 -0.193362129079388
000050 cd ad 10 40 a8 eb e6 3f af 39 e9 ce e6 15 e2 3f
       0.7162667514107227 0.565173534510725
000060 24 92 1a 79 ce 3d eb bf 28 4b b3 18 d7 bf c0 bf
       -0.8512947430904814 -0.13085449892113243
000070 98 ee d2 88 30 82 c7 3f 99 56 70 03 25 2f e2 bf
       0.1836605709157666 -0.5682549540676575
000080 78 d0 a7 94 37 eb d5 bf 80 49 cf cf 5c c7 e6 3f
       -0.3424815131868466 0.7118362482818128
000090 e1 9e 8f 6b 49 be d6 3f 7c 42 d3 19 76 e6 ea bf
       0.3553641844177787 -0.8406324867629134
0000a0 90 c4 db 6e 77 05 a0 bf b7 be 82 76 58 1b f2 3f
       -0.03129170635464462 1.1316761617016888
0000b0 6f 86 cb 35 f4 f7 f0 3f f2 11 18 87 cb 4b da bf
       1.0605356313102694 -0.4108761615064217
0000c0 ae ba cf 12 04 80 d6 bf 84 83 c0 4a 8d bc f1 bf
       -0.35156347119383724 -1.108533184051539
0000d0 ad 61 0e b1 26 50 db bf be 6f 87 3e 3c a3 ec 3f
       -0.4267670373024213 0.8949261876364216
0000e0 12 2b 11 2a 75 3f fd bf a3 61 04 b6 04 aa c5 bf
       -1.827992595982043 -0.1692510498767322
0000f0 99 ce cd 4b 06 78 e3 3f 97 6d d0 8c 4e 80 f0 3f
       0.6084014397187786 1.0313249111703493
000100 43 6a ef 81 13 1b f7 bf aa 91 5a 6b c1 d8 fe bf
       -1.4441104007334082 -1.9279188340670808
000110 d2 e1 d6 46 92 52 bc bf dc 55 39 a9 81 32 ca bf
       -0.1106349394748414 -0.20466633570565207
000120 42 f2 9c e0 80 b6 f6 3f c3 d0 94 a5 e4 33 e2 bf
       1.4195565008113964 -0.568834613228795
000130 1c f6 df e0 a7 7a ab 3f 45 46 fb 92 5e 41 f2 bf
       0.05367016429952917 -1.1409593335596508
000140 2d d4 53 0b c6 06 e1 bf 95 9e 8e ac 1c 59 b3 3f
       -0.5320768567313557 0.07557849133319856
000150 9a a5 4b bf 3d ee ef bf a9 e5 ff cf 39 68 f1 3f
       -0.9978321777572774 1.08794575929492
000160 a1 b6 3f 38 e8 de f7 3f 57 01 1c a1 61 1a b8 3f
       1.4919206807348149 0.09415254767737245
000170 8e fb c5 7a 04 70 d7 3f 57 f5 6c ab 82 94 be 3f
       0.36621200551592714 0.11945358929820792
000180 d4 63 40 9e f3 4b c2 3f 0e 5b 31 6e 8a 1c e5 bf
       0.14294285990834388 -0.6597339775279083
000190 38 99 36 6b ff 81 f8 3f d9 1d 37 7f 9d 56 f7 3f
       1.5317377269762584 1.4586462945315957
0001a0 63 6d 98 8b f3 00 da bf ee 75 eb 2f 1b 13 f2 3f
       -0.4063080657230868 1.1296645995965906
0001b0 a0 22 03 b6 11 87 c0 3f 1f 37 aa 32 8b 5b e3 bf
       0.12912198436085465 -0.6049247731732271
0001c0 42 8c db 77 a3 da dc bf 2b 36 12 dc 89 d8 9a 3f
       -0.4508446379169905 0.026216653878284795
0001d0 58 1b 2e 47 65 61 c8 bf 67 85 3f 8e 04 c7 e5 3f
       -0.19047227836218883 0.6805441644939209
0001e0 48 d8 0c 20 ad cb e0 3f b9 fa 88 88 df 05 b8 bf
       0.5248628259639725 -0.09383961757064697
0001f0 22 08 ec c8 13 4f e5 bf 81 2b 95 65 f1 f9 e0 bf
       -0.6659029888398929 -0.5305106147801412
000200 f9 31 35 98 a6 0a da 3f 7d 16 ea 32 a0 f3 e7 3f
       0.40690007080118523 0.7484894747182832
000210 ec ec f1 ae 9e 1b d4 bf 7f 41 38 02 73 a2 d2 3f
       -0.3141857822844958 0.2911651155163994
000220 04 f6 30 a9 56 8b c4 bf 24 be 9b 96 e6 c8 dc 3f
       -0.16050227414409346 0.4497620077881683
000230 6b ff 45 ec 31 46 e4 3f f2 70 8b 7f 97 d1 e6 3f
       0.6335687269893077 0.7130849352938908
000240 e9 f4 72 fc 11 3a f5 3f fc a0 a1 67 3c a2 e2 bf
       1.326677309159374 -0.5823041938829472
000250 54 7a d1 5c 68 73 e4 bf 68 40 fa d1 6d 93 f2 3f
       -0.6390878498894588 1.1609934046028005
000260 30 31 b9 9b cf 50 eb 3f 1a 82 57 99 36 ab e7 bf
       0.8536146203491963 -0.7396500582654568
000270 34 63 a1 e7 97 ca ea 3f 58 c3 70 76 e2 df da 3f
       0.8372306369811668 0.4199148327489204
000280 52 fe 9f c3 80 0b f1 3f e1 77 10 a6 fa e5 e6 bf
       1.0653083459473192 -0.715573620170968
000290 a2 2f 02 f8 84 c4 e1 bf 90 b0 94 f5 e8 a2 e8 bf
       -0.5552391857067855 -0.7698864742756246
0002a0 b1 98 c8 b8 55 df db bf 1f 96 b2 48 94 78 e6 bf
       -0.435506277516093 -0.702219144809252
0002b0 bf 41 fd ab 88 5f 74 3f db a5 07 2d 40 7d f3 bf
       0.004973920702312672 -1.2180787810306046
0002c0 03 7c db ee 37 f3 f4 bf fe f0 01 fd 1d 6a e6 bf
       -1.309379513775412 -0.700453752665936
0002d0 a9 8b 70 4f e1 13 de bf cb 97 4c 84 f3 10 f3 bf
       -0.46996338613296956 -1.19163848571178
0002e0 5f 82 b3 15 ae 95 d0 bf df 00 95 4c 9b ca e9 bf
       -0.25913574332483863 -0.8059822555296953
0002f0 ac 18 77 a3 08 c5 eb bf 2c e5 f8 c3 57 32 e8 bf
       -0.8678019707374651 -0.7561453654845187
000300 ca 78 65 dd d6 74 ee bf 86 8c db ed d3 bc dc bf
       -0.9517626117847382 -0.44902513721735493
000310 31 80 61 ef c7 76 f3 bf d4 e5 04 40 1a 45 f4 bf
       -1.2164992667021688 -1.2668707371470775
000320 7e 50 c7 0c fe 87 ea bf b9 69 4d da a9 3c f0 bf
       -0.8291006326276287 -1.0148104216992648
000330 6b f5 b2 13 92 2b b3 3f 47 1e 43 0a 92 65 f8 bf
       0.0748835847943689 -1.5247974778047977
000340 a0 70 93 bc ad 59 ff bf b9 71 ea c4 84 d3 f3 bf
       -1.959394203781848 -1.2391402904532767
000350 a1 22 7f 1d e6 f8 d7 3f d8 f7 77 0a 7b b3 f0 bf
       0.37456658249406344 -1.0438185128145872
000360 e5 02 11 f0 fa 0f f1 bf b0 03 19 b4 81 0c e6 bf
       -1.0664014222713203 -0.6890266912015388
000370 3f 0f 41 0b 00 51 d7 bf 02 28 af 43 9b 53 f2 bf
       -0.3643188581374836 -1.1454117435373523
000380 32 a0 36 b7 67 7d c3 3f 62 c2 32 39 df 7f dd 3f
       0.152264561137828 0.4609296854569377
000390 b0 6e e7 c7 00 be e3 bf ba da f1 7f e9 0a de bf
       -0.6169437317252768 -0.4694160222492588
0003a0 a6 e6 04 e4 19 70 ec bf cd c8 98 28 26 21 f1 bf
       -0.8886842206477084 -1.0705930314839407
0003b0 5d 94 8e 16 09 9d e0 3f 2f 6a 7f 10 0e df f5 bf
       0.5191693726125198 -1.3669567722742035
0003c0 a6 4e 04 3c 60 83 cc bf ed e6 03 f1 29 50 f5 bf
       -0.2227592747736839 -1.332071248498717
0003d0 8d 72 37 ef 5b dd ec bf 6a e9 83 4d fa 70 f6 bf
       -0.9020213768195205 -1.4025824573460235
0003e0 a4 ca 70 28 5c 0c c1 bf 73 7c a9 cd e5 77 c4 bf
       -0.13318969702375683 -0.1599089864930395
0003f0 3c fc f4 4a b0 9c e3 bf f3 15 b2 93 17 fc e3 bf
       -0.6128770317080874 -0.6245229611092199
000400 80 07 50 47 03 98 e7 bf 70 1d e8 18 4b 85 f6 bf
       -0.73730625084157 -1.4075423214834153
000410 2c a4 8f 8e 12 ae cf bf 74 40 82 62 5e d3 e2 3f
       -0.2474997707461467 0.5883018421173021
000420 0b 33 57 99 d2 1f e3 3f 9d 4b b4 4a 7b fe f0 bf
       0.5976346011098895 -1.062129298986043
000430 18 ef 8c 8b 49 10 c1 3f f6 04 5c 44 e2 19 f2 bf
       0.13330954851141352 -1.1313193006793063
000440 8f 4a ef dc 56 56 f1 bf f4 8f 4c 54 df 28 f7 bf
       -1.0835789327872225 -1.447478608411072
000450 89 5c ff b1 27 6b f2 bf 35 55 23 69 42 0b e6 bf
       -1.151160903265721 -0.6888744405247623
000460 26 b7 53 9c ab d3 c7 bf 8d 4e f8 42 be ea ea bf
       -0.18614716656832647 -0.8411551769263085
000470 0e c9 f7 d3 15 03 f3 bf f2 7a f8 e6 72 c0 e0 3f
       -1.1882532386776492 0.5234922896523513
000480 e7 91 15 b0 de f7 f2 bf 26 3e 58 1a 70 32 e9 bf
       -1.1855151060382185 -0.7874069704575433
000490 fd ba a7 06 87 1c ef bf 6b 33 c3 5a 79 49 f8 bf
       -0.9722323541626278 -1.5179379983339583
0004a0 81 a4 d3 3a ce 70 ec 3f 84 5f 15 29 07 a1 f3 bf
       0.888770213027911 -1.2268134693931367
0004b0 bc 2f d9 74 a9 47 f6 bf f7 87 d9 38 35 68 c0 3f
       -1.3924955906286263 0.12818017269006507
0004c0 df 67 da ee 9d 69 d8 bf e4 7c bf a5 84 81 d7 3f
       -0.3814463455724972 0.367280160773545
0004d0 45 dd 0b 4e 50 0c f0 bf 1f 8d 30 8e f8 a0 f8 bf
       -1.0030062721906046 -1.5392995409282049
0004e0 d0 f2 34 99 7e 28 be 3f f9 1b 6a 1f 06 cd f5 bf
       0.11780539741898655 -1.3625546671989908
0004f0 5f 84 ab c2 31 3e d5 3f 7c 44 b5 80 49 ec f6 bf
       0.33192104349843093 -1.4326872852000454
000500 ca 1d 69 83 d3 62 f1 bf b1 62 81 ee cb 95 f2 bf
       -1.0866274960734352 -1.1615714375131285
000510 5d ec a6 3c 1e 81 ed bf eb db 87 a4 a8 fa ef bf
       -0.9220114884004819 -0.9993479932298873
000520 61 78 76 62 21 d4 f5 bf 63 d6 c7 bb 25 6b d3 bf
       -1.3642896505548594 -0.3034147580905026
000530 0b 63 ca 14 e9 92 f7 bf 58 4d e5 0f f1 49 e9 3f
       -1.4733668148166454 0.7902760801756967
000540 5c 92 6c dc 11 f8 b7 bf 4a 07 9b f6 df 53 f3 bf
       -0.09362899428794819 -1.2079772599249332
000550 fd 8d 59 42 cf 91 c4 3f f9 cd 37 01 ed 4d da bf
       0.16069975604760592 -0.4110062133688355
000560 07 10 cc 3c 6d 3f 85 3f 58 38 29 d8 af bc c2 3f
       0.010374883096581312 0.14638326697098836
000570 db f3 f4 d2 e6 a6 ba 3f ae 71 74 34 78 81 e1 bf
       0.10410921716989156 -0.5470543884762742
000580 db 2c bc f6 8b d5 c2 bf af d1 b9 62 a4 ba 9e 3f
       -0.14714192912683796 0.030008858228443177
000590 94 1d 03 24 2d 06 b6 bf 06 64 ac 8d 94 f1 b3 bf
       -0.08603174332812663 -0.07790497263739846
0005a0 55 19 c2 b8 e1 e1 c4 bf b7 b5 36 37 48 b1 f3 bf
       -0.16314336320301473 -1.2307817608628804
0005b0 df 60 aa b0 eb 8d c5 3f 9d dd f8 42 52 93 99 3f
       0.1683935749649725 0.024976048791555894
0005c0 62 99 7a 92 a0 ff d8 bf 06 50 53 90 87 10 fe bf
       -0.39060224823551526 -1.8790355336868756
0005d0 bb 52 6b d5 a2 ca f3 bf a9 af 70 b7 2b 86 c3 bf
       -1.236971696537849 -0.15253206688919121
0005e0 41 bc 61 c6 41 70 bc bf 70 d1 2a 5e 95 f8 d2 bf
       -0.11108790486626764 -0.29642233081837954
0005f0 22 6e 70 71 50 b2 f1 bf d9 de 66 c4 71 00 bc bf
       -1.106033747789191 -0.10938178105322595
000600 08 ff c0 6e 8b f2 c6 bf cd 72 63 f2 17 6f e2 3f
       -0.17927687557129723 0.5760612234258474
000610 e2 a9 5e 0a 2b 23 ca bf 71 1f a9 d7 2f 98 f5 bf
       -0.20419824606263065 -1.3496550010913462
000620 e0 61 b3 aa 06 db d4 bf 32 1d a6 51 08 62 c9 3f
       -0.3258682887076514 0.19830421435129036
000630 8a 21 5d 0a c1 e3 c4 bf 76 f8 d2 79 46 ad c4 bf
       -0.1632005024532755 -0.16153794239466251
000640 69 d4 38 75 7e 86 a9 bf b3 ee 6d d4 4b 85 e7 bf
       -0.04985423260624417 -0.7350215100300005
000650 cf e4 bd 14 90 77 d1 bf f2 f0 78 10 82 bb e9 bf
       -0.2729225351864217 -0.8041391679503518
000660 90 dc d7 9f 5f 84 fe bf 11 f4 57 65 76 e1 c2 bf
       -1.9073177570224153 -0.14750556896606828
000670 f7 68 e5 a7 97 2f d4 3f 58 f4 58 87 88 15 b8 3f
       0.3154048099146531 0.09407857231504246
000680 2b 60 84 51 4b 2c f1 bf d6 2d 70 92 61 c8 b7 bf
       -1.073314016748564 -0.09290132355834343
000690 c4 88 d7 04 72 fc d8 bf 33 7a 5c fd 7e 6e ee bf
       -0.3904080436024169 -0.9509882877790176
0006a0 9c f3 4e de 6f 02 a8 bf 35 e9 d1 c4 bb 57 f4 3f
       -0.04689359272695201 1.271419304683673
0006b0 57 48 9f 20 8c 02 bd bf 67 62 1d 1f c8 49 db 3f
       -0.11332011982384081 0.4263782790999699
0006c0 80 c5 d9 17 63 75 ce bf cb 7f 05 6f 32 11 ef bf
       -0.23795736946662416 -0.9708492439640336
0006d0 47 bf 31 3a 35 8b ed bf 74 e7 6e 91 26 19 c1 bf
       -0.9232431542022618 -0.133580037128748
0006e0 e7 69 d4 66 36 f2 e5 bf 0b 4e 78 6a 4a 2e b9 bf
       -0.6858169563668611 -0.09836258983005323
0006f0 1f 9b bc 1b 47 f7 ea bf 8c 87 d7 50 2f e4 81 3f
       -0.8426852742894403 0.008736009268378607
000700 9a 4b 11 b8 20 41 ed bf fb e9 2e 95 55 c7 ff bf
       -0.91420017195411 -1.9861656024428374
000710 a3 54 38 e8 1e 5d f1 bf c3 b2 c5 96 ff ac d3 bf
       -1.0852345534415597 -0.3074339840302793
000720 7e e5 e6 4c cd d4 94 3f e7 72 7f 28 e2 c4 d1 3f
       0.020343025034639244 0.2776418109404361
000730 56 91 e7 f6 14 6b f1 bf 50 68 5f 65 4b 33 d4 bf
       -1.0886430401524954 -0.315630768772853
000740 8d 69 c7 5c 42 ce cd bf 13 32 6f 97 7c f1 cd 3f
       -0.23285703211042766 0.2339320887971473
000750 37 54 9f 9f 00 80 dc 3f 23 09 6a 9b b6 b8 8e 3f
       0.44531264865992476 0.015000750177254723
000760 b9 28 0c 73 67 12 d5 bf f5 66 79 4c ad 5b eb 3f
       -0.329248297072478 0.8549410337102176
000770 9d f9 1b f0 b0 46 f1 bf 08 b5 b4 b4 1f 3e e2 3f
       -1.0797585849064497 0.5700834779178487
000780 e3 1f 33 18 ac ba d0 bf 85 bd 60 04 ce c9 c0 3f
       -0.2613935695958373 0.1311585923553872
000790 b4 0e d4 39 38 ad ba bf 88 a1 a0 c0 17 48 f1 3f
       -0.10420562183213172 1.080100777102503
0007a0 64 3a d9 4b af dd f3 bf a1 49 e5 08 85 69 eb bf
       -1.2416222536882282 -0.8566308187239892
0007b0 1e 03 04 df 47 a9 e8 3f e2 ca 93 c7 58 85 f3 bf
       0.7706641536497931 -1.2200553699482772
0007c0 d5 3e d3 79 54 e2 f0 3f f7 76 29 b2 a4 bb e1 3f
       1.05525634372673 0.5541556815839773
0007d0 d5 62 7a 3b 14 64 ee bf c7 27 10 eb 87 f9 e5 3f
       -0.9497166787797037 0.6867103186680134
0007e0 58 94 a9 a6 8e 6f f0 bf 86 49 f4 8e 7e 68 e8 3f
       -1.0272356519938253 0.7627556602549681
0007f0 f9 1c 23 51 da 1f ee 3f e4 70 ca 1a e3 bc e3 3f
       0.9413882813177273 0.616807510686638

input_gate_weights f8 [108, 81]
000000 0b 64 f7 b5 b2 d0 f4 3f e8 0f 14 53 96 38 e7 bf
       1.3009516819058742 -0.7256576178192491
000010 23 ec be c2 75 d0 f5 bf 85 2a 52 b3 80 e0 f2 3f
       -1.3633935553796241 1.1798102383351374
000020 7d 6d aa f2 24 02 fe bf 1d 77 9c 66 47 7e f7 3f
       -1.8755235175256921 1.4683298118829449
000030 3d 78 d5 10 57 00 c1 bf ad 7b 11 12 0a 4d ee 3f
       -0.1328228790470706 0.9469042160889011
000040 8d 93 35 9d c9 06 f8 3f 03 46 3b 19 48 be e1 bf
       1.5016571179378133 -0.5544777386477907
000050 30 39 45 4c ac 12 e7 3f 95 75 a0 92 89 4e c8 3f
       0.7210294236809087 0.18989677104484018
000060 ae d9 42 a6 64 f2 cb 3f db 9b ab 09 9a 99 f0 3f
       0.21833475225657878 1.037500417494576
000070 a7 ba e8 a5 4a 10 c1 bf d3 45 04 52 09 6b e5 3f
       -0.13330967999487095 0.6693159677399144
000080 12 f6 13 c3 94 98 e1 bf 61 d9 64 0b 4b a7 f7 3f
       -0.5498756227604551 1.4783430523944718
000090 e7 5b 04 ad 2e b5 f1 3f db 1b 7c ac 66 1d da 3f
       1.106733966682208 0.4080444988653064
0000a0 26 4d 00 ea 4a d7 dd 3f 21 eb 22 13 81 33 f9 bf
       0.4662654194991823 -1.5750742671504627
0000b0 95 87 1b 7e b0 60 f7 3f 0b b8 65 c3 b3 02 bc bf
       1.4611058164668738 -0.10941623230402812
0000c0 3e e6 f8 bb f9 67 e2 3f fb 2b 69 66 d6 6b f0 bf
       0.5751923247655168 -1.0263275146887725
0000d0 fa 2c 9f 13 8e 7b da 3f 08 11 a3 b9 55 cf eb 3f
       0.4137911979311891 0.869059431621765
0000e0 34 17 05 60 5c f6 fc 3f 9d 0f e8 c6 d2 30 c3 3f
       1.8101466894890565 0.14992747032385703
0000f0 a4 dc 90 84 78 4c f5 3f 9d c8 4e 25 41 9c f7 bf
       1.331169622264306 -1.4756480653127604
000100 8b 74 3d bb 15 6d b9 3f 88 cd 25 96 d3 c9 00 40
       0.09932075330057637 2.098548100498821
000110 63 37 52 93 08 b6 f6 3f 38 cf 29 44 8f f9 d0 3f
       1.4194417719586105 0.2652319112450985
000120 a3 73 3e c8 91 ef f3 3f c3 fe 31 d4 be 29 eb bf
       1.2459886381177305 -0.8488458771170929
000130 62 f3 72 35 d8 7b f0 3f 6c f0 ab 5d 35 65 f3 3f
       1.0302354896404826 1.2122090968178112
000140 02 25 ec 89 e5 8d c0 3f 11 30 7f 1a 72 f4 e4 3f
       0.12933034166807295 0.6548395650402218
000150 43 3e d6 22 53 1d e9 bf e7 d3 86 5f b0 a9 f1 3f
       -0.7848296814353904 1.1039279681692677
000160 5e c5 54 86 fc 04 e1 3f 27 6e aa 43 99 c7 e7 3f
       0.5318586944251071 0.7431150743099736
000170 bf c4 78 12 60 ba ec 3f 13 35 5a a2 d1 c6 e8 3f
       0.897750888898507 0.7742698832459233
000180 cb b0 47 5a 61 76 e5 3f 82 52 03 52 4c 1d e3 bf
       0.6707007182390269 -0.5973264314475986
000190 3e 76 bf d3 70 b6 cf 3f 92 90 aa 74 e5 b3 e4 3f
       0.24775514926197845 0.6469599989545876
0001a0 ca 21 21 12 18 42 e6 3f 4e 74 91 87 2c b6 f1 3f
       0.6955681184854765 1.106976060450751
0001b0 5c f3 bf c2 69 78 f1 3f 90 5f 7a c9 88 c2 ec bf
       1.0918977363027897 -0.8987468657605735
0001c0 49 b5 9e 1d f2 3e ef bf 6e fe 0c 7e 6f 48 eb 3f
       -0.9764338091387482 0.8525922262123922
0001d0 f6 79 a8 6e 45 5a e1 3f fe df 86 b7 69 fc f9 3f
       0.5422694360057096 1.6241242569940364
0001e0 19 a8 96 81 db 8a 01 40 b4 a6 fb b1 62 c6 c4 bf
       2.192801487360168 -0.16230424585892467
0001f0 8c a4 eb ba 6a 98 d8 3f c5 10 33 b3 02 1d ea bf
       0.384302790202647 -0.8160413265218486
000200 00 e3 ac 4b 57 79 f4 bf 97 50 52 10 f2 e3 fa 3f
       -1.2796242672031326 1.6806507718620531
000210 55 6d ff ed fe e1 ed 3f d8 e9 ed c2 40 a8 e2 3f
       0.9338373802560606 0.5830386931623321
000220 72 08 45 99 fe ae f4 bf af ac b6 27 b8 3c f0 3f
       -1.292723273000345 1.0148240615188049
000230 8c 94 cc 32 39 7f e3 3f 3e 03 5d 33 cd a0 e2 3f
       0.6092802040262923 0.5821290972890905
000240 69 53 1e 5d 9f cc f5 3f 62 db f5 a9 b2 ff e3 3f
       1.3624566686096051 0.6249631232775352
000250 88 6f ba 4d 82 11 d7 3f 10 97 2c b6 eb d1 c0 3f
       0.36044366446162046 0.13140627284263262
000260 c6 92 10 55 00 26 ff 3f 0f 34 e4 68 a9 e7 d1 bf
       1.9467776606408491 -0.2797645115213649
000270 52 b7 34 1f bd ae f6 3f 39 e4 78 b6 b2 c1 e3 3f
       1.4176608294469202 0.6173947872076787
000280 ab 54 a3 77 1d 50 f4 3f 98 d7 3c b5 b5 0d d9 bf
       1.2695593522414963 -0.3914617795847959
000290 0e b6 d8 a9 4e d7 e4 bf 00 ad 98 4f ae 5f d4 3f
       -0.6512826268496512 0.3183398988064283
0002a0 43 f8 25 fa ff 85 d0 bf e1 2d d9 0a 96 36 e4 bf
       -0.2581787054876978 -0.6316633426553687
0002b0 98 12 b7 e4 5b c1 ce bf 82 b6 65 9a 13 27 f3 bf
       -0.2402758471272548 -1.1970401793618355
0002c0 88 8d d6 ad 2a 2f e7 bf f4 54 cf 5d ba 6f da bf
       -0.7245076556468328 -0.4130693355667312
0002d0 19 1c fd 5e 0c 53 ce bf 27 7d 82 44 18 4d db bf
       -0.23690943372841458 -0.4265804928817993
0002e0 aa 20 71 5e 62 b4 ef bf 99 a0 a4 6d 11 44 e4 bf
       -0.9907695622032595 -0.6333090917078322
0002f0 6d 87 e0 2f 3c dc d4 bf 5c 43 b0 0c 2a c7 b3 bf
       -0.32594208407873887 -0.07725775537279617
000300 18 b2 d2 d9 82 28 e1 bf 6f 00 4c 70 70 9d d2 3f
       -0.5361952070575766 0.2908593269967303
000310 36 5b 15 91 3d 2e bd bf 22 16 a1 01 7f 83 e0 bf
       -0.11398682396007306 -0.5160517722912952
000320 ef 9a 67 f9 11 59 e7 bf d2 b6 2c 21 b7 c3 d2 bf
       -0.7296228285966587 -0.29319551696503965
000330 fa c8 6f 87 92 21 c9 3f a3 f6 1f d6 58 07 e5 bf
       0.19633704770200905 -0.6571468526960483
000340 24 61 6d 1d dd 20 da 3f 18 6a b0 af a4 0c e7 bf
       0.40825584291225625 -0.7202933722904303
000350 00 29 ac 89 c8 3e c4 bf 0c 4d 94 71 9e c1 e1 bf
       -0.15816599581041402 -0.5548851221414295
000360 b4 3f f4 42 27 e5 d1 bf f7 74 60 a1 a3 16 ed bf
       -0.279611411461697 -0.9090135719194724
000370 51 7a 2a 5f 4d 82 b6 bf 25 f1 14 91 77 11 c6 bf
       -0.08792575429331718 -0.17240805229256143
000380 15 b5 00 e8 1c 23 e2 bf a8 b7 a3 14 bc 82 e7 bf
       -0.566786244516751 -0.7347088244548461
000390 cd 29 fc 10 a2 13 8a bf 13 3c bc 50 ac a8 ee bf
       -0.012732759612409073 -0.9580899788724103
0003a0 57 3f db 07 9e 54 e5 bf 45 2a 07 dc 99 de ab 3f
       -0.6665792611547471 0.05443268595589194
0003b0 27 82 e8 71 2f 95 9e bf 7d b2 8e 9f 63 0c e6 bf
       -0.02986597187748621 -0.6890123478274998
0003c0 87 c1 1a db 0f 38 d2 bf a1 f1 05 36 35 ac f0 bf
       -0.284671749085668 -1.0420429334909402
0003d0 bf b7 41 92 0c 68 ea bf 00 fc b8 75 e2 53 90 3f
       -0.8252013069702498 0.01594499438783359
0003e0 d7 5a 82 18 78 3c f6 bf 11 c6 50 cc 5f 53 ef bf
       -1.3897629697218485 -0.9789275160348457
0003f0 ce 79 84 56 c1 2b e2 bf 92 c5 82 cc 2a b5 e8 bf
       -0.5678412141604043 -0.7721151346542448
000400 10 6d 9a 94 80 5e f2 bf 6d 8e d2 4c f7 15 d5 bf
       -1.1480718426526586 -0.3294656992168033
000410 63 d8 ce 41 29 fc 92 bf cd 5b e5 95 ca 8b f0 bf
       -0.018540043489075574 -1.0341287474927754
000420 b3 eb 08 bc a8 21 e0 bf c7 f9 7d cc 57 6a c8 bf
       -0.5041087791972728 -0.19074532971349198
000430 17 a3 18 23 83 4b e2 bf fa 38 12 53 4b ff d1 bf
       -0.5717178044770631 -0.2812069236032496
000440 79 46 55 88 4c 3a e1 3f 04 e4 37 7c 1a cb f5 bf
       0.5383665716892231 -1.36208580515654
000450 be d0 ae 74 d5 fa db bf e9 46 4f b7 c6 a5 e7 bf
       -0.437184680889242 -0.7389863567607026
000460 97 12 30 98 80 a1 f3 bf b7 8f 05 e0 8f 6e d4 3f
       -1.226929277881174 0.31924816968080044
000470 b5 51 2f 98 77 43 f6 bf 5a e2 e8 03 c3 66 ee bf
       -1.3914714760513622 -0.9500441624032405
000480 c8 38 12 1e aa 17 e1 bf 6d a4 b7 c6 89 ee b3 3f
       -0.5341387355163301 0.07785855390069836
000490 4d bb 8c 45 e2 cc d6 3f 70 29 52 f3 3c 84 e4 bf
       0.35625511924711334 -0.6411423447000697
0004a0 46 c2 f8 8c 15 b8 ec bf f2 33 b9 b5 57 1c 84 bf
       -0.8974712136606022 -0.009819684251079128
0004b0 dc c1 b3 9f 01 8c e4 bf 14 b5 2b 5b 6c 9b ec bf
       -0.6420906180556432 -0.8939725666693072
0004c0 7a d4 22 c6 ba 9e f0 bf 75 cd 57 33 62 f5 e7 bf
       -1.0387523402871737 -0.7487040522377543
0004d0 03 c3 4c db 49 d8 df bf e4 42 6d c8 ac 25 e6 bf
       -0.4975762025451759 -0.6920989908777213
0004e0 8b 36 7f cf 3c ef f3 bf 91 12 5a e6 c0 13 c9 3f
       -1.2459076028202698 0.1959153294339058
0004f0 25 c5 de 8e 67 bf bb 3f 42 b0 35 75 45 14 da bf
       0.10838935125390899 -0.4074872631670169
000500 c2 d2 ee 69 ff a1 f3 bf d7 60 54 ae d4 d9 c3 bf
       -1.227050222206501 -0.15508516800105696
000510 58 1f 75 35 04 0d c6 bf 86 ef 94 24 42 d3 ea bf
       -0.1722722302458759 -0.8382883753288162
000520 40 ce 66 fe 97 9f e9 bf dc c5 12 16 d2 ee e1 bf
       -0.8007316559582662 -0.5604029112930067
000530 39 18 8f 35 7d d8 f6 bf a8 a1 5b 63 6b 4b 9d 3f
       -1.4278537838122374 0.02860801500256263
000540 45 38 a9 98 8a 04 d6 bf 47 74 7b 61 8d ed e4 bf
       -0.3440271845655654 -0.6539980796766337
000550 8b 80 4e 3c 5c 0e be bf 4b 06 32 2a aa 99 e4 bf
       -0.11740662071543022 -0.6437578987244675
000560 2c 64 9a c0 e5 e8 d1 3f cf fe 9b 56 99 2f ed bf
       0.27983993348022085 -0.9120604220952034
000570 16 86 ab 59 65 50 b8 bf e7 c3 c9 2f e8 11 e1 bf
       -0.09497674407204956 -0.5334359105455605
000580 38 f2 64 01 3e ce ef bf ac fd 47 e3 ad d7 b1 3f
       -0.9939260508759338 0.0696972541700151
000590 9d e4 00 6d b9 bb c1 3f fb 17 9a 60 e9 35 d9 3f
       0.1385413915866466 0.39391550477773735
0005a0 d7 e0 4d ce f2 22 b4 3f 07 84 3c f1 0b 6b df bf
       0.07865827118610312 -0.49090860899201555
0005b0 73 5c 2a 21 12 66 cc 3f d6 aa d2 68 d3 11 e3 bf
       0.22186495417983884 -0.5959260032007829
0005c0 57 a5 cf a3 fe 0f c9 bf 62 8c 97 ac 99 12 ee bf
       -0.19580061911191635 -0.9397705431878303
0005d0 f4 89 95 2e 79 0f e9 bf 97 70 dd 07 f5 29 eb bf
       -0.783138838753358 -0.8488717225659624
0005e0 d7 cf ae 0d 72 c1 c1 3f ef 91 af 0f 6b 74 cc bf
       0.13871598880871147 -0.2223028017607613
0005f0 eb 91 c1 ea 04 34 e6 bf 75 a0 e4 d5 0d 2e d1 bf
       -0.6938500008660048 -0.2684359158324761
000600 9a 98 56 ba 71 60 d3 3f ef 6a ed ff 18 d6 f0 bf
       0.30276148984047213 -1.0522699353375022
000610 01 67 fd 3a 8f ce ef bf eb 4e d4 04 fb 0f cf 3f
       -0.9939647819657865 0.2426751874523839
000620 e6 04 ad 00 88 c7 ef bf ef 2a 57 42 d8 40 9a bf
       -0.9931068432998955 -0.025637988137343134
000630 aa d9 4b cb e6 3b c7 3f d0 8f 4d fa c9 2f e6 bf
       0.1815155499131838 -0.6933336151819223
000640 ef ae cd 6d 70 8c ca 3f 72 13 01 6a 3e 2e ba bf
       0.2074108635091458 -0.10226812446587788
000650 03 03 87 0a 22 68 b8 bf e7 5d e2 ff c5 60 e4 bf
       -0.09533894307152128 -0.6368131635417144
000660 b5 d2 8b f2 2f 81 f3 bf 21 94 d8 bd a4 64 ec bf
       -1.2190398668728168 -0.8872855861596954
000670 a0 73 8d 27 ea be ed bf 9a 08 af 73 87 6c d6 bf
       -0.9295550129423766 -0.3503740911220433
000680 4a 0b c2 e4 d8 d4 d4 bf d8 ed 02 0a b5 8b f5 bf
       -0.32549116458556127 -1.3466081992217962
000690 e0 54 a4 e1 fe e6 d2 3f 76 70 d1 3a f3 0d db bf
       0.29534885440200576 -0.42272644752461674
0006a0 14 13 63 ad 3b 79 f0 bf 73 a9 bc 4b c2 32 e4 bf
       -1.0295979283266137 -0.6311961631047737
0006b0 16 7e c2 e0 d6 67 7f 3f 4e f0 e5 e4 02 5c e0 bf
       0.007667388312398346 -0.5112318487804346
0006c0 c0 5f 91 7d 5c 7a c0 3f bc 71 49 32 bc e4 cb bf
       0.1287341702579834 -0.21791794257559427
0006d0 cf 3c 52 64 ba 8b f8 bf 62 3a eb b3 28 61 a2 3f
       -1.534113304023595 0.0358975143077387
0006e0 2c 8b 3d ae 0b ad ee bf 24 12 0f 49 32 0d e6 bf
       -0.9586237338192851 -0.689110892003161
0006f0 82 c0 f7 5e 8d e2 de 3f 19 68 f1 47 f1 03 d5 bf
       0.4825776507777918 -0.3283656313484485
000700 3c 96 de fd 48 5c f4 bf c2 41 98 f6 14 67 f8 bf
       -1.2725305477882918 -1.5251664764983706
000710 24 27 a3 56 03 f8 e9 bf 1e ce 28 9b 73 c9 bf 3f
       -0.811525029386051 0.1241676572615735
000720 8c 64 a4 be 93 97 c5 3f d3 7c 75 0e 51 19 e3 bf
       0.16868826683711224 -0.5968404085541813
000730 c7 81 d8 42 ae a2 e9 bf b0 93 3f af 5e 65 c2 bf
       -0.8011084848004025 -0.14371856267021377
000740 8f c2 13 c7 45 9d f3 bf 03 64 ca c3 5e 09 eb bf
       -1.2258966232731472 -0.8448938201937611
000750 04 bc f8 8a 41 ac da bf 41 c5 4a 8e 7b 65 c3 3f
       -0.4167636735100475 0.15153450439314933
000760 f7 14 58 ca f7 c4 c5 3f bb fe 0d 11 17 ce f5 bf
       0.1700734842308191 -1.362814966792867
000770 9c 80 c6 b2 60 62 e1 3f 34 3f 1a 09 71 8b e7 bf
       0.543258999987319 -0.7357716729911545
000780 6d 8e ff 27 22 24 c7 bf 8b 38 61 2a 6f 4d c3 bf
       -0.18079020455398923 -0.15080060548138294
000790 33 34 63 0a 4d 49 d8 3f 5d 2d b7 c9 30 d2 b1 bf
       0.37947393431096826 -0.06961350369163229
0007a0 18 b9 46 6d 63 38 e0 bf 12 07 5d fa f2 87 cd 3f
       -0.5068833479215611 0.23071133827948437
0007b0 b0 1c 57 d6 00 e3 ea 3f b9 23 16 7c 0f 13 e3 bf
       0.8402103601773856 -0.5960767196239579
0007c0 a1 c2 ec d4 e8 19 f1 3f 68 be 14 50 dd 6e d9 3f
       1.068825561273265 0.3973916322747528
0007d0 d0 b2 5b a4 b1 fa e5 3f dd f8 af d5 ac 3a df 3f
       0.6868522844430007 0.4879562460699967
0007e0 35 6c ee 6a 05 a7 c0 bf 69 8a 98 eb aa 72 f3 3f
       -0.13009708138710754 1.215495033546768
0007f0 3c ac 03 8c c5 71 ea 3f 92 08 cb d2 3e 99 e2 3f
       0.82638814302971 0.5812067143490529

output_gate_weights f8 [108, 81]
000000 c2 f7 8c 43 9e 6f b7 bf 53 ed 18 76 b2 f5 f1 bf
       -0.09154690884767461 -1.1224846471003118
000010 ca 38 23 e6 e6 b1 f4 bf c0 2a 6c 5d 65 96 f0 3f
       -1.2934330930470872 1.0367177628819917
000020 8f 85 95 a9 84 82 f9 bf ac e1 67 4e da 18 fd 3f
       -1.5943647980096534 1.818567568085295
000030 9a ff 2a aa 48 55 e1 3f c9 2d 1d 51 f1 3a c7 3f
       0.5416606258004208 0.18148628674167203
000040 7e 04 ba 5e a5 44 fc 3f 0c 5d 18 72 6e 27 ee bf
       1.7667592716464067 -0.9423134067937169
000050 1a 8a 08 c4 a3 51 f3 3f 43 f7 7c 20 84 3f e0 3f
       1.2074315698197382 0.5077534327062739
000060 86 65 c7 99 7e ae c0 bf 69 87 35 5e 9e 1b ef 3f
       -0.13032515057311062 0.9721214141866145
000070 32 f4 b9 3e 7a ce e2 bf af 31 aa 82 6f 2b da 3f
       -0.5877047753452926 0.4089010978721274
000080 6d ed d1 37 f6 65 ab bf 0d fe 63 49 d9 fb fc 3f
       -0.05351228171727027 1.8114865176029327
000090 9c 60 fb 94 7d 48 f5 3f 69 f6 f5 ef 57 24 f0 bf
       1.3301978892905373 -1.0088729260891347
0000a0 5f 2e 1a a6 40 fb e7 3f c5 3b f7 33 8a cd ef bf
       0.7494204754052126 -0.9938403143840949
0000b0 ed 01 29 1f 33 6d f8 3f 80 72 e3 ab 69 f1 b5 3f
       1.526660081595874 0.08571491667266606
0000c0 eb 7d 0e de 2c ac e3 bf 7c cc fe 9e cc 85 f3 bf
       -0.6147674881976263 -1.220165844989224
0000d0 0c db ab 1b a9 45 db 3f 2e 31 44 9a 10 9e f0 3f
       0.4261267442920349 1.0385900522260942
0000e0 9a fb 9e cb af 18 df 3f f3 8e ab 1c a1 45 be 3f
       0.48588175663820155 0.11824995946841081
0000f0 65 d6 33 eb d8 48 f8 3f f4 98 fb 30 97 f5 f5 bf
       1.5177849948498985 -1.3724586404219368
000100 27 be 03 6a aa 63 e4 bf e2 13 14 a6 67 ac f1 3f
       -0.6371662207220127 1.104591034644948
000110 ac 20 ae 43 eb 2a e3 3f ac 48 f8 ca b3 b1 e3 3f
       0.598989135921348 0.6154421772246415
000120 e6 04 00 0a 26 48 f5 3f 0e 9f 6c 9a a7 61 f4 bf
       1.3301144018772049 -1.2738414795111939
000130 4e 39 c2 1a 78 f3 f2 3f ec 81 18 28 71 19 e7 3f
       1.1844407124768455 0.7218557150954985
000140 b4 ee a2 40 a6 44 dd 3f e7 c4 1f 4b fa 0b e4 bf
       0.4573150283065204 -0.626462122656588
000150 38 8d 89 a9 f1 2c ed bf 73 6c 0c a0 b2 d8 f9 3f
       -0.911736327292977 1.6154047252555557
000160 92 b2 e5 ac 89 bc ed 3f 48 6a 09 95 38 1d e5 3f
       0.9292648674869091 0.6598170195459909
000170 4b 3b f2 98 db 33 db bf 90 ac 09 83 84 74 b2 3f
       -0.42504014907983806 0.07209041785397319
000180 ee d5 74 3e 9a 39 eb 3f 08 99 c0 c7 1f 5d e7 bf
       0.8507815570689539 -0.7301176930821223
000190 3c d1 98 31 3d ee ef 3f e4 ec 57 1d cd 4b ee 3f
       0.9978319138231551 0.9467530797113821
0001a0 b1 45 f8 e6 1c 3b e2 3f 98 ac b3 a5 04 7f f5 3f
       0.5697159300927322 1.3435102913597685
0001b0 84 69 d9 17 51 ac ea 3f 3d 0b 89 c7 47 5f e1 bf
       0.8335347619825346 -0.5428809067892427
0001c0 e3 c3 54 43 e9 38 fd bf 04 d1 be f5 6a 15 ed 3f
       -1.8263943319436684 0.9088644790377036
0001d0 51 30 b2 97 38 3d db bf 9f 3a 54 f5 97 bd f7 3f
       -0.4256116372496353 1.4837874968685936
0001e0 10 1e 55 56 d5 14 f4 3f 5d a0 f7 d2 a6 77 e7 3f
       1.2550862667429818 0.7333559151129624
0001f0 65 67 aa 13 3b 6e e2 bf 4c d9 b8 0f 59 a5 f4 bf
       -0.5759559043974433 -1.290368138708419
000200 e8 5e 6f ec d3 62 f7 bf 1a c3 60 cf 3e 68 fe 3f
       -1.4616278873199295 1.900450525350783
000210 fc 6b a4 44 03 cf eb 3f da 90 c5 05 52 2c f2 3f
       0.8690201130551709 1.135820410295358
000220 fd 57 09 37 d2 c0 f5 bf df a1 ca 1a 18 82 f1 3f
       -1.3595754766333805 1.0942612692398297
000230 6d f2 e5 80 80 41 d4 3f 6c 1a 39 04 58 21 ed 3f
       0.3164979227802068 0.910320289848483
000240 06 b6 f7 50 73 9d fd 3f b8 13 b3 88 a5 60 e0 3f
       1.8509400522992805 0.5117976827538007
000250 5c da b8 66 7f b7 ca 3f 07 49 35 ec 5c e6 ec 3f
       0.20872490421034484 0.9031204808655112
000260 75 e7 81 ef 35 53 fc 3f 17 d2 4f e9 73 c9 ed bf
       1.7703151088485047 -0.9308414036627849
000270 20 34 90 fd 3a f3 f7 3f b3 01 c3 2c 95 07 f3 3f
       1.4968824295822358 1.1893512485986377
000280 3a 5c 6b 4b ed 04 f9 3f e6 e0 76 96 66 2d e4 bf
       1.563702864272058 -0.6305420817143641
000290 3c 9f 17 ac 5a 0d d6 bf 5e 09 3d 2f f5 b5 cc bf
       -0.34456507497678834 -0.22430290991367036
0002a0 8b 3b bd 53 14 47 bf bf 38 59 fb 7c d9 c5 b9 bf
       -0.12217833561338247 -0.10067519475282871
0002b0 8b 31 08 c3 19 5a a6 3f c4 55 5d c8 03 3b e6 bf
       0.04365616327058593 -0.6947039521571061
0002c0 7a 14 44 89 ff ab e5 bf 08 70 99 d2 ae 6c e1 bf
       -0.6772458725905743 -0.5445169556874143
0002d0 8c fa 51 cf 5e 38 98 bf f1 08 85 6c ca 95 de bf
       -0.02365253582365283 -0.4778924999010448
0002e0 b4 27 49 41 ff 58 ec bf 10 75 d4 0b 9c 19 f0 bf
       -0.8858639025795498 -1.006252332888213
0002f0 8d 27 d1 cd c9 cc dd bf 7c d5 c0 d8 80 f0 e8 bf
       -0.46562428569142683 -0.7793583138906537
000300 ad 4f c3 ef 87 8d f1 bf 91 69 da 30 12 48 cd 3f
       -1.0970534673442487 0.2287619341412435
000310 8b 6a a1 e3 77 5a d1 bf 60 30 37 0d 5c 43 e1 bf
       -0.2711467478708662 -0.5394726045719942
000320 58 23 47 7b 2f 1b f1 bf b2 af 3b ab 22 60 bb bf
       -1.0691370788137728 -0.10693566017624681
000330 63 38 fa 6f 3e 42 f9 bf e0 69 8f 30 5f 84 f4 bf
       -1.5786728262060243 -1.282317342460935
000340 09 30 71 36 dd ed b4 bf 3a 44 36 09 58 f7 f0 bf
       -0.08175451831010618 -1.060386692032138
000350 44 24 1b 01 98 98 c2 bf 74 66 e6 fe 59 cf f1 bf
       -0.1452817922020434 -1.1131229359656603
000360 34 94 b7 a3 b2 02 e3 bf 3d ed e4 83 a7 80 ec bf
       -0.5940793225860319 -0.8907048774775955
000370 3e cf e0 c2 e1 47 e6 bf dd 6c b7 ba f7 32 da bf
       -0.6962746435369593 -0.4093608210948341
000380 c6 e8 31 2b 26 1a eb bf 41 1a 05 a6 4d 1a e3 bf
       -0.8469420283938909 -0.5969608538224024
000390 5c 1c 10 bd 72 e2 e5 bf 48 c6 81 03 0f 97 fa bf
       -0.6838926022181897 -1.661879552554085
0003a0 58 eb 89 7c 58 0d cf bf aa 26 97 20 eb ba b9 bf
       -0.24259477692597886 -0.10050839944519888
0003b0 2a 42 af 4d 1e 45 e7 3f 19 04 fc 30 78 66 f1 bf
       0.7271873013760957 -1.0875169671492186
0003c0 2f eb 87 08 85 63 c5 3f 90 56 d5 32 77 7b f6 bf
       0.1670995990424102 -1.4051429734876457
0003d0 77 e8 bb 15 f2 2b f9 bf ac bc 97 df 30 65 e0 bf
       -1.5732289170250888 -0.512352406219994
0003e0 2d aa f4 ac 76 5c f6 bf d0 2c 7a fc 5e 02 e9 bf
       -1.397574115379608 -0.7815394335933892
0003f0 30 24 a6 33 a4 a0 df bf fd ad bf b3 21 df f3 bf
       -0.4941797737488427 -1.2419755002437107
000400 0f c6 c4 bd 9a 9d f9 bf 12 8d 0c 03 0b 0a e9 bf
       -1.6009776509130267 -0.7824759540129966
000410 49 5c bd d3 a5 95 b6 bf 96 80 a0 40 ee 93 c5 bf
       -0.08822094363618861 -0.16857698588956244
000420 ac 3b d8 fb 95 80 d6 3f de 15 10 47 b4 38 db bf
       0.35159825891690377 -0.4253359502766595
000430 5a 6a dc 6c 87 78 b2 3f 12 42 04 ca 06 76 db bf
       0.07215162666072086 -0.4290787670916255
000440 8b 94 5f 3f 1a 21 d7 3f 07 b2 4d f6 f1 e3 f3 bf
       0.36139541806034775 -1.2431506749372845
000450 72 66 11 de 93 75 db bf 0f 8d 9d bb af 9c df bf
       -0.42905136762929097 -0.49393838235683146
000460 58 58 08 72 68 1e f1 bf 76 48 48 2d 35 2a e3 bf
       -1.0699238256834374 -0.5989023098393449
000470 8b 48 87 1f d7 4f e8 bf 9c 5b 9f 79 c9 05 d9 bf
       -0.7597461334028294 -0.3909782111854214
000480 d7 22 92 a8 93 db d4 bf 35 39 e1 c5 cd 10 cc bf
       -0.3259019037437105 -0.2192628112993106
000490 14 39 6c 7d b9 06 c8 bf ed 48 05 a8 cf c1 f3 bf
       -0.18770521759183423 -1.2348171771341712
0004a0 ae 3b 30 70 dc ed da bf 2a c3 4c 3f e5 09 e1 bf
       -0.4207678886022518 -0.5324579464268926
0004b0 84 c3 7f 98 7d 8f e8 bf d6 c2 e5 d2 2b ff e2 bf
       -0.7675159433839416 -0.5936488265125159
0004c0 61 f3 1f c7 8b 1a e4 bf 1d 40 97 91 18 67 e2 bf
       -0.6282404793888469 -0.5750849574633353
0004d0 da 74 c1 e8 10 ee f0 bf d3 b9 d4 78 2d 5c fb bf
       -1.0581215946215736 -1.710004302974643
0004e0 1c 6a ff 25 96 9e e6 bf 74 83 54 24 42 db d0 bf
       -0.706858705724986 -0.26338246868004167
0004f0 f8 f8 f6 17 1e c8 db bf ec be b2 0f 29 49 e8 bf
       -0.4340892061262731 -0.7589307123762103
000500 04 4f b6 30 0d ac f0 bf 4d ee 7d ec 32 c1 be bf
       -1.0420047667329877 -0.12013548158386662
000510 25 19 11 46 e7 d4 eb bf b7 15 de 47 00 e6 e5 bf
       -0.8697391861431113 -0.6843263057386854
000520 90 1f cc f0 31 24 f2 bf 06 bb 0f 97 f1 a1 ca bf
       -1.1338366895815604 -0.20806712986037484
000530 5a 9a 49 0b 66 fd e7 bf 81 3d d4 09 af 43 e3 3f
       -0.7496824474772652 0.602012175748243
000540 55 b6 c6 bd 12 f0 cd 3f b8 58 b7 f3 42 7f ef bf
       0.23388895288865066 -0.9842848548967345
000550 da ed d2 8d 51 d9 c7 3f f7 21 91 7b d3 61 e1 bf
       0.18631953644749794 -0.5431916631142134
000560 c5 ea 4c a7 5b e9 d0 3f 83 28 3e 6a 86 b6 e3 bf
       0.26424304330764087 -0.6160308909468458
000570 e7 45 8b ca 0f f2 c3 bf 83 7f 2a a2 0b c4 b6 bf
       -0.1558246363625095 -0.08892891606455859
000580 18 c9 72 ac 65 e5 f2 bf 53 37 d2 66 97 59 be bf
       -1.1810051666512376 -0.11855455646783968
000590 d5 61 4e c5 32 7d 9b 3f 68 38 5b 59 ae 1e db 3f
       0.026844781200994056 0.42374762273983047
0005a0 3e 69 8e 73 de e1 bc 3f 40 78 ad 66 7d ce f5 bf
       0.1128214866752488 -1.362912560543478
0005b0 c3 66 18 50 26 80 d5 3f 0b 97 ce 93 4c c0 fe bf
       0.33594663450058365 -1.921948029872001
0005c0 fd 3c bf 12 8e 32 e1 bf 63 f0 2a f5 e3 59 f3 bf
       -0.5374212614205188 -1.2094459130157922
0005d0 df 69 f6 0f 68 30 f2 bf c8 69 77 9e e4 65 f1 bf
       -1.13681799159405 -1.0873762312026987
0005e0 7e e0 bf 27 fb bb ce bf 06 8d 44 62 5a 90 e0 bf
       -0.24011172715086454 -0.5176212233822362
0005f0 91 20 14 ff cd 7a f4 bf 42 75 8b 04 8d 00 e5 bf
       -1.2799816097267789 -0.656317242504578
000600 82 d9 be 23 17 9e c0 3f 99 f0 6f 2f 49 cb f3 bf
       0.1298245358027082 -1.2371303418176807
000610 02 5e e1 04 b8 7b f3 bf 18 51 a9 40 9a 13 ab bf
       -1.2177047911299046 -0.052883930581318406
000620 e3 94 8f 29 13 88 fb bf f9 36 e5 6e b1 b3 ce 3f
       -1.720721399638301 0.23985879816830627
000630 fa 03 16 b6 bb d3 bd 3f bf b2 63 b8 f9 34 d5 bf
       0.11651204295596065 -0.33135836607725005
000640 cb 03 a1 69 3a 55 bc 3f c8 81 5a 47 54 ea b4 bf
       0.11067547873336918 -0.08170058004407743
000650 49 86 83 30 ad 2e be bf 2b 1c c9 c3 78 6c fa bf
       -0.11789972719591292 -1.651482357776113
000660 3c cc 98 8b 32 ed f6 bf b7 77 b5 d2 bd 15 e9 bf
       -1.4329095318796723 -0.7839039912612326
000670 56 72 5c 18 60 e3 e6 bf 45 68 43 90 7a 9c c5 bf
       -0.7152557826808088 -0.16883785289866374
000680 46 58 ca ea 6a fa f2 bf 8d 65 21 5a a4 1e f9 bf
       -1.1861371203899735 -1.5699809571000032
000690 cc 2a ad 8b 36 7c 82 bf 7d 16 55 2a 4d 9d df bf
       -0.009025980126940246 -0.49397591718693673
0006a0 e3 c7 8a ae a4 4d ed bf 07 41 5e 7a af 68 dc 3f
       -0.9157279404664646 0.443889493465591
0006b0 6e cb d7 1a 6e bb af 3f 81 d7 59 85 9b ab ce bf
       0.06197685315773681 -0.2396120453956279
0006c0 f2 31 76 78 57 67 b1 bf 43 17 94 7a e1 db 91 3f
       -0.06798311892470801 0.017440341097447087
0006d0 f4 a8 d6 a5 83 44 fb bf ba 22 88 5a 17 f2 6a bf
       -1.7042271116320622 -0.0032892662168289817
0006e0 5b 6c af 87 b3 93 f1 bf 8c 4f 94 e6 c8 64 e9 bf
       -1.0985598850445715 -0.7935528281691275
0006f0 c0 31 9b 33 24 67 cb bf b1 4c 3b e9 de 3a d0 3f
       -0.21408512611232133 0.25359318520095103
000700 b1 ce ba 49 28 48 fe bf d4 b7 dd 3a ee 70 f7 bf
       -1.8926165466372533 -1.4650709437805647
000710 d6 0a 7b ad 3b ef f5 bf 37 ad 98 a2 34 ea b5 3f
       -1.3709065224253911 0.08560494393957617
000720 9b ab 54 fe 7f 4d bd 3f a9 20 ae 63 05 4f d2 bf
       0.11446380576368968 -0.28607306227105284
000730 f4 d9 a6 a6 75 91 f2 bf 86 0d f7 ee 7e 50 ce bf
       -1.1605125913462162 -0.23683153789725625
000740 ee 8e ee 5c 98 d6 f4 bf 7e 51 9e 5e dc 20 da bf
       -1.3023913984442816 -0.4082556652076831
000750 d2 84 44 ec 01 f5 c7 3f bd ee e4 50 e8 d6 a7 bf
       0.18716453587061338 -0.04656148898581367
000760 35 71 93 2b da 6f c9 bf 04 a6 c3 b6 8d 3d e8 bf
       -0.19872595908862825 -0.757513863526754
000770 32 26 e0 f8 a0 32 d0 3f 4d 14 19 d3 dd 02 ef bf
       0.2530901365686048 -0.9690999148375653
000780 08 8e fe c3 4e cf ba bf a3 c0 ad 68 20 dd b3 3f
       -0.10472576413172174 0.07759287410385922
000790 00 33 c0 be 1c 92 d0 3f d5 9c cf 8d aa 40 ce 3f
       0.2589179861832207 0.2363484566151103
0007a0 56 35 3d c6 13 09 ea bf 09 76 30 3c 3f 05 e3 bf
       -0.8136080619675947 -0.5943905044147765
0007b0 f7 5e ee eb d7 f6 f7 3f eb 70 a7 6b 14 14 00 c0
       1.4977645126400014 -2.009804574057957
0007c0 9a fe 2a 59 db 9b f0 3f 1c f3 7e 7f 16 cb e5 3f
       1.0380509837267824 0.6810410013345947
0007d0 29 8c 70 99 4c a5 d5 3f f2 9c df 5e 73 34 db 3f
       0.33821406349506106 0.4250763346194183
0007e0 fe 0a 7d 24 f1 35 dd bf b7 e9 5b dd 07 ff f4 3f
       -0.4564173561413297 1.3122633597218802
0007f0 70 2a e2 0a 2a 81 e7 3f 0c bd 8c 45 de 18 cb 3f
       0.7345171177451686 0.21169641872391087
