balderdash_lstm/lstm_model/models/lstm_model_24.npz (npz, 903256 bytes, 19 tensors)

forget_gate_weights f8 [108, 81]
0	0x3fe65b46089134f6	0.6986417929962545
1	0xbfe39b4bb2161bb1	-0.6127069929360599
2	0xbfe6f2e774a410a0	-0.7171513822691118
3	0x3fea31b1bb65e85c	0.8185661945456206
4	0xc0030cc61e31a8c1	-2.3812372549919876
5	0xbfe8d69f47046103	-0.776198996262821
6	0xbfe56114f5597b35	-0.6681008140547876
7	0xc00102fb19cab3df	-2.1264554991707736
8	0x3fcf9016d9c483ad	0.246584755260327
9	0xbfe00b7bcc1fba01	-0.5014018046184107
10	0x3ff732108cb4f9b9	1.4497228142132441
11	0x3fc3460b6f0a195d	0.15057509347770806
12	0xbfd4fde1637422b3	-0.3279956313349814
13	0xbfe48310da01c612	-0.6409992464015792
14	0x3fc61a1927a74884	0.17267145572856546
15	0xbfc99ea1d1e64f74	-0.20015356778150883
16	0xbfec285e97d7bf79	-0.8799279180220615
17	0x3fde594aa801ab23	0.47419992834936603
18	0x3fec0ba2e0daf087	0.8764204398826373
19	0xbfec070cf4be87ed	-0.87586067010511
20	0x3fd74cf624b46a94	0.3640723570294224
21	0x3fe9dc9dc7c71da6	0.8081807042989808
22	0x4000ce6e3448e165	2.1007961354009006
23	0xbfdc445e256a78d4	-0.44167283681771363
24	0xbfd65f18103d4742	-0.349554077013739
25	0xbfe2cb90d0cee4a0	-0.5873493269238175
26	0xbfe976b03802300d	-0.7957383245388897
27	0xbfc2cf31ddede711	-0.1469480832709498
28	0xc00443c1a65d679e	-2.533084201550948
29	0x3fd1d32e4a2331e0	0.2785144542692972
30	0x3fed7984a8c0f52a	0.9210837646457197
31	0x3ffb4b710e7e1f09	1.7059183660621235
32	0xbffe1602b85038f5	-1.8803736877194386
33	0xbffde61a9859af17	-1.868677706831425
34	0x3fcd62d23c80b493	0.2295782847808466
35	0xbfee808e622639f0	-0.9531928936938225
36	0x4006917c90dac5a7	2.82103837173118
37	0xbff18e87c97bd757	-1.097297465368191
38	0x3fed3ae4aa14018d	0.9134391137923089
39	0xbff263ae11a923fe	-1.1493359269973094
40	0xbfed4bcc615fa027	-0.9155027295901207
41	0x3fdfe1039566f695	0.4981087645536289
42	0xbfbca0ec412375a1	-0.11183048811240905
43	0x4002f897301fef15	2.3713821182008226
44	0x3ffdf79abb1793bf	1.8729502971921048
45	0x3fdb6f801010084e	0.42868043488136187
46	0x3fd62308b21334b7	0.3458883036626718
47	0xbfd55dba58d93e88	-0.3338456981336795
48	0xbfe3f354ecc11d87	-0.6234535812481433
49	0xbfe76acd83079756	-0.7317874488041791
50	0x4000f9c9c0a68683	2.121966843683198
51	0x3ff6d1982d90e076	1.426170518867392
52	0xbfdacafeda3c27d0	-0.41863986312875756
53	0x400079fe28207a0e	2.059566796771157
54	0x3feaa8ab865de35f	0.8330896019316291
55	0xbfe08140f21e67fd	-0.5157780388719854
56	0xbfee32d09523a247	-0.9437029755473042
57	0xbfe5e7d329863e05	-0.684548932173073
58	0xbfb04a39e8b6ab8d	-0.06363260203822403
59	0x3ff2a33092a2e065	1.1648412445047367
60	0x3fe3b61adfa1c752	0.6159796111880758
61	0x3f99e30c1704f0f2	0.0252801789331309
62	0xbfe09483a9d671e4	-0.5181291882650467
63	0xbfd7fa5db4d57286	-0.37465613040493684
64	0x3fd3df5996fae554	0.3105071997084299
65	0xbfe00f13205e9c6e	-0.5018401748865366
66	0x3fd8257fe290359f	0.3772887909443287
67	0x3fd48fce468dfad7	0.3212772072801448
68	0xbff683205b00bf46	-1.4070132784654148
69	0xbfe01627b4e058f6	-0.5027044804326397
70	0x3fe3ed5858686280	0.6227227904046941
71	0x3fe4564c16b8221e	0.6355343288169626
72	0x3ff00341b4ac8d0b	1.000795083768767
73	0xbfeea8092e6c34e4	-0.9580121905034074
74	0xbfe0156350f06c2d	-0.5026108342020784
75	0x3ffaa98ea232b19f	1.6663957916126504
76	0x3fe92cfae5a918cf	0.7867407308156319
77	0xbfdbc59341546013	-0.4339340341553008
78	0x3ff1f32acc0dc99d	1.1218669863561452
79	0x3fc8826cc1024360	0.19148024963626664
80	0x3ff778acc0e68cbd	1.4669616255930997
81	0xbff46c2b350b4f8f	-1.2764083931005847
82	0xbfd88f21bbef5f5e	-0.383736070185014
83	0xbfd27839acff59c0	-0.28858796972545164
84	0x3fecd4fea23222a1	0.9010003250014799
85	0xbfd91b6827f1ba96	-0.3922977819519614
86	0x3fffbbaca3c290cd	1.983318938911043
87	0xbff9001eb3231871	-1.562529277567162
88	0xbff5db4ab05fe276	-1.3660380258208114
89	0xbfd5b7ea9f298499	-0.3393503717725906
90	0x3fd1ac18a586a041	0.27612892307888975
91	0xbff84cb21cc5b994	-1.5187245487137249
92	0x3fd056d25a4858a7	0.25529917542133734
93	0xbfbeb6886e5698f3	-0.11997273153119518
94	0x3fdd9c3ebfd0bddd	0.46266144496891376
95	0xbfdce3928c078270	-0.45138991999377875
96	0xbff51f1945e99a37	-1.320092461677303
97	0xbfad05dd3822395d	-0.05668536482072526
98	0xbfe30639739e805a	-0.594509816950459
99	0xbffadc9e3b283e6c	-1.6788618384197447
100	0xbfe464ead0b7298d	-0.6373189999078918
101	0x3fd864e15854eeb7	0.381157242070667
102	0xbfdef4be2be28120	-0.4836879185259182
103	0xc004a5f070deb015	-2.5810250108679704
104	0xc007646feba471ee	-2.924041596370663
105	0xbff2073a544593e1	-1.1267646114222247
106	0xbfe2b123cb32f10c	-0.5841235131006512
107	0x3fde1ada940a8102	0.4703890271866983
108	0xbfef947c649b74b3	-0.9868757214532223
109	0xbfd82efdaeb7e22f	-0.37786809980710506
110	0x3fe16321f39543ba	0.5433511502725346
111	0xbffd79b034aed792	-1.84220905856407
112	0x3fe9edd9307bcd50	0.8102842280335754
113	0x3fdd9c2b89c5251e	0.4626568646823034
114	0xbfdbb67056f39df9	-0.43301018229837457
115	0xbfe653ee18be94a5	-0.6977453692712926
116	0xbfda511588df9572	-0.4111989819196743
117	0xbffe323d9e81443c	-1.8872657958602437
118	0x3fe59bbf0c7e4c9c	0.6752619976054066
119	0xbff9ad46b8f15f71	-1.6048037742930001
120	0x3fd933917bcbcbf8	0.3937724789568047
121	0xbfee4367417b760b	-0.9457279471350274
122	0xbff2f8d807489e9c	-1.1857528957861296
123	0xbfff438043b32f4f	-1.953979744389432
124	0x3fdb54878d4bc07d	0.42703427122524557
125	0xbfbef87ea393b6c6	-0.12097922795848168
126	0xbff9e82f52b5eda8	-1.6191857558140814
127	0x3fa5398245014176	0.041454382823419886
128	0xbfe1e276ca2fbdfb	-0.5588945340113577
129	0xbff99a3bde10e69b	-1.6001547502950533
130	0xbfbcb1ab2c9b2e9f	-0.11208600844400472
131	0x3ff22ce307444b3f	1.1359586986406638
132	0x3fcb818028fc1687	0.2148895454521844
133	0xbffe4852c5895d6f	-1.8926570621750576
134	0xbfc7edaca00eedc4	-0.18694074454638898
135	0xbff5621c83eaad1f	-1.3364529755588774
136	0xbfc6bc76a20229d9	-0.17762644682473086
137	0xbff683b9c572fcf9	-1.4071595871790221
138	0xbfecbef26005f672	-0.8983089328246037
139	0x3fcabe03cb94eba1	0.20892379227174465
140	0x3fd96dfae3eb0ed9	0.39733764894138585
141	0xbfe8ba0907947070	-0.7727093837779773
142	0xbffaf89f70d186ff	-1.685698929497846
143	0x3fb52e0efb178f8a	0.08273404722382174
144	0xbff136b87304ba4a	-1.0758594983014
145	0xbfd7a14480efdf0a	-0.36921799270156497
146	0x3fb46c4ed33141be	0.0797776475531071
147	0xc0081ea317859f4a	-3.0149595105794207
148	0x3ff7a9f9d6e04d62	1.4789980310059367
149	0xbfe5df075c9b57a0	-0.683475190041225
150	0xbffbcd6e16926add	-1.7376538163868454
151	0x3fd074bc123f8337	0.2571249178127348
152	0x3feea9190f300dca	0.9581418320307702
153	0x3ff8b45d385eecb9	1.5440342142090187
154	0xbff364750623fc6e	-1.2120256652704273
155	0xbff82a8a8606749e	-1.5103860125885045
156	0x3fbe12798f027921	0.11746940366217419
157	0xbfef9646704ad00a	-0.9870941346366646
158	0xbfd233ace0bdfb4d	-0.2844040102717614
159	0xbffc634445a34511	-1.7742350311494344
160	0xbffc39da5ff2cea8	-1.7641242740618654
161	0xbffcef6436c08004	-1.8084451807735613
162	0xbfefa54e0b1a97a5	-0.9889288155434214
163	0xbfe25363b7506333	-0.5726793842651204
164	0xbfddfd4f8f8d3ab2	-0.4685858632919163
165	0x3fdd2c26ef32afb5	0.4558198295514971
166	0xbff37cec2ee907b8	-1.2179986793930606
167	0x3ff2accb9b171314	1.1671863611420052
168	0xbfd6347a61b1f42d	-0.3469530061773323
169	0xc000836795d9843d	-2.0641624171262536
170	0x3fe16ca712a156fd	0.5445132602569341
171	0xbfda4f3a2c3663de	-0.4110856467974012
172	0xbfcbb694d6631f90	-0.21650944202542322
173	0x3fe86fba2d797ac8	0.763638581101838
174	0xbf9a3f360e10bbce	-0.02563175640915088
175	0xbfb4bba1ad56a360	-0.08098803026099466
176	0x3fa3376ff15dad8d	0.037532327855696136
177	0xbfcff6b3c352102c	-0.24971625363480265
178	0x3fe656c573197989	0.6980921981847114
179	0x3fe75b657d26604f	0.7299067921003458
180	0xbfd27f2e135a8582	-0.28901245012283294
181	0xbff422bd461c361f	-1.2584812868766517
182	0x3ff7b6e73abfb71b	1.4821541113737513
183	0xbfddeb310c152181	-0.46747995548187055
184	0xbfdf39bb0a14be03	-0.48789859756922754
185	0xc00609877ffca97e	-2.7546529768926
186	0xbfec2dcd145d7c35	-0.8805909536130289
187	0xbfea0eb2bca9b08a	-0.8142942128011026
188	0x3fde5f46f65bbd52	0.47456525858338694
189	0xbfeecbec941b2d7e	-0.9623930828760618
190	0xbfea30306284741d	-0.8183824466865449
191	0x3fe8ee149dd0d55e	0.7790625650729159
192	0x3fc13d4d257b3e16	0.13468326883456488
193	0x3ffca97ab9d25f03	1.7913768061316098
194	0xbfd41eed1dad4120	-0.31438758752939755
195	0xbff0197dfa385e42	-1.0062236570573906
196	0x3fd4b9a37a7cf251	0.32383048021055055
197	0x3fe24f8eef375e51	0.5722117111390138
198	0x3f9182a12ca64804	0.017099874830428533
199	0xbfe411a62b81df9c	-0.627154431319457
200	0x3fdb918866553144	0.43075761788783873
201	0xbfe28ab7a2a03c6a	-0.5794332672393356
202	0xbfd0f740884c7cb1	-0.265091069320941
203	0xbfc8cff2bd5be372	-0.19384607549707372
204	0xbff9ac3add663f28	-1.604548325387393
205	0x3fd9c62ff5f31422	0.4027213956690635
206	0x3fd563f2480ba9c2	0.3342252448625481
207	0x3fd8f29be2f46247	0.38980767406022604
208	0xbfee6391a001e732	-0.9496544003625103
209	0xbfbb981284b59d47	-0.10778918971992822
210	0xbfba4d04c0fef4ff	-0.10273771011175724
211	0xbfedb07eef717a04	-0.9277949024797754
212	0x3fd99ceea9b9ba55	0.4002033860660153
213	0x3ff3fc58574d1177	1.24910768606159
214	0xbfe3df85b91c7132	-0.6210354438258376
215	0x3ff21069f51e5611	1.1290072989407955
216	0x3fc0e5bf8a50e51e	0.13201135877333398
217	0xbfe41438a3590b2c	-0.6274684133898965
218	0xbff598a2e0e3d5d5	-1.3497647080197244
219	0xbfd17ca489db2cfd	-0.27323258841052206
220	0x3fdc614bff8398d9	0.44343852951568646
221	0x3fdd69648e1935a9	0.4595576656036778
222	0xbfed098224600f03	-0.9074106893972104
223	0x3fae1f6036614363	0.05883312858407554
224	0xbff19b1537f18d01	-1.1003620324416377
225	0xbff79e23606e4b1d	-1.4761079565839232
226	0xbfefec0836047364	-0.9975625090624871
227	0x3fdf2b6962daf573	0.4870246377357354
228	0x3fd0d4403e4b163f	0.2629547699292267
229	0x3fc51bbb6321c2fe	0.1649088129084006
230	0xbfe9f901ec62d693	-0.8116464249530558
231	0xbfbdbccdee7dc56a	-0.11616217682401034
232	0x3fb0c1f8826a853c	0.06545975860583025
233	0x3ff8a1162316b0e2	1.5393277521753181
234	0x3ffafe890dc6a033	1.687142423450507
235	0x3fd53b54a121ef42	0.3317462514457824
236	0xbfeaef41c63dd57a	-0.8417061683564235
237	0x3ff416495a3dc6f8	1.2554410481502014
238	0xbff806b2f9e91e9e	-1.5016355287679413
239	0x3fe0b1602e92aec2	0.5216523084286211
240	0xbfa351e669a5a6a3	-0.03773422279011853
241	0xbfd61771cbdec751	-0.3451809397621349
242	0xbff18931c8bf0d34	-1.09599474350473
243	0x3ff8c929d7b9bf99	1.5491121699123822
244	0xbfe98803566fa00c	-0.7978531540111375
245	0xc00041b7dddbe153	-2.032088979027472
246	0x3fe87b6daa54ba5a	0.7650669409538964
247	0xbfee2e859b004cc6	-0.9431789424292212
248	0x3ff3e284550e4dee	1.2428019831175976
249	0x3fbdbccfb7a6cc75	0.11616228326492879
250	0xbff7dfe051b7e597	-1.4921572868464403
251	0x3ff28a3fca6fc73d	1.1587522418671619
252	0xbff08076ed0d9260	-1.031363416660632
253	0x3fee293f911deb4b	0.9425351938547036
254	0x3ff705551c19ba83	1.4388018701244227
255	0x3febdf993ade83f7	0.871044745425137

input_gate_weights f8 [108, 81]
0	0x3fff25ba3f9fb695	1.9467108235652735
1	0xbfdad6c0a03f6e3b	-0.4193574490470586
2	0xc0006aeada5bb6f9	-2.0522057589758984
3	0x3feba0c11f4b13af	0.8633733378597891
4	0xbffd77b2f527e200	-1.8417234016798147
5	0x3ff7c1de64d80c87	1.4848312319961978
6	0x3fd5b5ed145e7347	0.33922888745455676
7	0x3ff7530925d5378c	1.4577723958823041
8	0x3ffa6153a5737bc1	1.6487614119466658
9	0xbfe3ad175a82e418	-0.6148792999075594
10	0x3ff3171a917fcb1b	1.1931405719339583
11	0xbfee92279361f68f	-0.9553411367957824
12	0x3f96af527bd11484	0.022153176123783883
13	0x3ff0739476f0c10e	1.0282177587615169
14	0xbf70d795c29550b4	-0.004111847877840958
15	0x3ff329d609ec4f8a	1.197713888895097
16	0x3fdf2ba07d7aabd2	0.4870377755530032
17	0x3fff0056c0add9db	1.9375827337768132
18	0x3ff7979a3ee0b1f4	1.4745123344574695
19	0x3fdc8a02503189ab	0.4459234030856815
20	0xbfda3ae3b087e9ea	-0.40984432448718044
21	0xc00387ffd9d343a8	-2.4414059655759566
22	0x3feed19d975b324e	0.9630878406692973
23	0xbfc61ae408b89a9d	-0.17269564081035052
24	0x3fe9d3a8f7d3395b	0.8070874061902872
25	0xbfed4c863fc0e25c	-0.915591358679261
26	0x3fe42e934b326a30	0.630685469502458
27	0x3fd421fc31c25830	0.31457428798001086
28	0x3ffb0850ef58a91e	1.6895303105798756
29	0xbfbd13580cd49573	-0.11357641518823929
30	0x4007fc8c97e8dfb1	2.9983150356237833
31	0xbff6d698737cc02e	-1.4273914824698397
32	0xbfbdba7c4293b19a	-0.11612679124272632
33	0x3ffecdea04ea9a91	1.9252720062301345
34	0x3ff66555d7a09d6b	1.3997400687165633
35	0x3fcab15a3faa2628	0.20853736981034499
36	0x3ffd1514d1dea7dc	1.8176468084370674
37	0xbff12dc4f74b24b9	-1.0736741695312004
38	0x3ff096cc7d916f7f	1.0368161110881997
39	0x3fe14418b7db743d	0.5395625678025976
40	0x3fcb71e04f101af9	0.21441272602552156
41	0x3fe517e18df8b348	0.6591651699905947
42	0xbfe728551e25919f	-0.723673399811151
43	0x3ff7816f12a78461	1.4691000679670412
44	0xbfd5d18e36fa3a5d	-0.34091525429622554
45	0xbf9386bc8e62303d	-0.019068666639711507
46	0x3f9dd18219542142	0.029119522853791276
47	0x3fc71768c32ebdb6	0.1804018929519608
48	0x3fec0198052ce0f7	0.8751945592003086
49	0xbff3a7bcc6243f2b	-1.228451513281423
50	0xbfd3a466a9f893a7	-0.3069092426179005
51	0x3fe3d24232c92780	0.619416331473289
52	0x3fd62ed3da9f401c	0.3466081271153614
53	0x3fe5c2e64f04d3c6	0.6800414603554763
54	0x3ff794cb6b9054b2	1.4738268090925826
55	0xbfe72d3740171ef2	-0.7242695094837173
56	0xbfefd38d1794ea2b	-0.9945741139011423
57	0x3fd1e8b0af888c7e	0.27982728139813406
58	0x3fe0688b93bc98ab	0.5127618680460463
59	0x3fefb30d95ddcc72	0.9906070639684812
60	0x4003e53dfc160e38	2.4869346327048127
61	0x3fe2188aaa9919d1	0.5654958087914627
62	0x3fe58a91d81250b6	0.6731652469775529
63	0xbfe3a762fe185ffb	-0.6141829455182227
64	0xbfea4c437c8c7004	-0.8218095238294159
65	0x4000c522ebef2326	2.0962580139497673
66	0x3fe947a95bc6f8ad	0.7899977486156523
67	0x3ff571f3ae05fdf0	1.340320281771593
68	0xbfffab83552f759d	-1.9793732955507501
69	0x3ff0eae5b24af7a0	1.0573479618610477
70	0x3f71f2efca706dde	0.004382073099829379
71	0xbfb1fd9f7bfdfea3	-0.07027622964050777
72	0x3ffa228bfea9445c	1.6334342906668757
73	0x3ff6f9929b7ea707	1.4359308313382273
74	0x3fcb38f94a6ec654	0.21267620214853145
75	0x3fd8531613d16feb	0.3800711816345472
76	0x40017b90b50efd7b	2.185334600944484
77	0xbfb4ef8eb1d4e721	-0.08178035585015354
78	0x3fef50ffdbb6cd88	0.9786376277246953
79	0x3fff7fd2cd426a12	1.9687068956324123
80	0x3ff35a48a421213f	1.2095419322304932
81	0xbfe80183299f0158	-0.7501846135055912
82	0xbfe5037c85032232	-0.6566755864997218
83	0xbfc574ed205757f9	-0.1676308067241619
84	0xbfd19b486837a486	-0.2751027124164199
85	0xbfc26947ecb486a9	-0.14383791978712182
86	0x3f9c611c75f53e26	0.02771419973333713
87	0xbfe8f09e0a23822f	-0.7793722341558061
88	0xbfc21b4997a16b40	-0.14145774749598594
89	0xbfd8896f9d443ae1	-0.38338842733439377
90	0xbfd03e3c9bf792e0	-0.25379863005791314
91	0xbfd5d31562ca5976	-0.3410085167646665
92	0xbffa9f2d4789bea7	-1.6638615412192992
93	0xbfa753516ccc8f8b	-0.045557541400085354
94	0xbfb650ccfb1576ae	-0.08717042093254676
95	0xbfc3a0d8975d4dc7	-0.153346132191116
96	0xbfa15fb2ce49fd0d	-0.03393324630905612
97	0xbfb5baf3fa945a5f	-0.08488392703689261
98	0xbfc9a4cb83d063ed	-0.20034164367896726
99	0xbfe6d310a5ade1ff	-0.7132647739336447
100	0xbff6ed53251fb123	-1.4329406213901812
101	0x3feb0348d0e56fe6	0.8441509323124563
102	0x3feb22e8efc0fffe	0.8480114634221534
103	0xbfef545814645fe4	-0.979045905903146
104	0x3ff54268af88b0bd	1.3287131172938154
105	0xbffbbc3b616437f0	-1.7334550670961981
106	0xbfcc33d39b7e7f94	-0.2203316220520689
107	0x3fabc272089bc87a	0.05421787600597923
108	0x3fe457deeb62bbb6	0.6357264134766101
109	0xbff34612b532b3ad	-1.2046076849030485
110	0xbff343ac6b042e7c	-1.2040218525243338
111	0xbfd307b5696d2ecd	-0.2973454980426425
112	0xbfc2088a82df0b41	-0.14088565244863996
113	0xbfe4769886bc4e66	-0.6394770270876051
114	0xbfcc6fd91811754a	-0.22216333079533462
115	0xbfcbd6ef6a214d36	-0.21749680215962436
116	0x3fb40510be524451	0.07820229193227247
117	0x3feabe0b7e020237	0.8356988392916439
118	0xbfc96c3934534a12	-0.19861521773289376
119	0xbfef5e7a794a005f	-0.9802830094267952
120	0xbfe2b477046f9f92	-0.5845294081345733
121	0x3fa58757594e3bea	0.042048196460306844
122	0xbff5a7ce252e12bf	-1.3534680797903744
123	0x3fe5445bdc196de4	0.6645945833983515
124	0xbffc7c683f783788	-1.7803728560715815
125	0xbfff952fc0173aea	-1.9739224914116513
126	0xbff2b16eed5a4e90	-1.1683186790077436
127	0xbfc8526656e95ae8	-0.19001464122512535
128	0xbfe49d82494376f4	-0.6442271643570323
129	0x3fa8b5b69ff21d5f	0.048261363052968013
130	0x3fdc47b48b2235cf	0.4418765410162821
131	0xbff707436496cb48	-1.4392732552775716
132	0xbfe00c3c4546847b	-0.5014935830150898
133	0xbfe6f6cba2e44493	-0.7176263982274967
134	0xbff99fb3966b4b56	-1.6014896274325188
135	0x3fe5a44c7a5a3968	0.6763059987731994
136	0x3fd2cbda0c005e27	0.293692123146203
137	0xbfe285c54a454c7a	-0.5788294268226217
138	0xbfe90d26e29eac19	-0.7828554559868081
139	0xbff29adaf69f7aa7	-1.1628064759931165
140	0xbff0e1131c3ba400	-1.0549498656130254
141	0x3f89c61ecea804d7	0.012584915811205395
142	0xc00020b8a3f7f7e5	-2.0159771738099033
143	0xbfe01071efd2039b	-0.5020074542991212
144	0xbfe1259ff4742408	-0.5358428740011059
145	0x3fe6908d7aa4f4c6	0.7051455874822288
146	0x3fca03837ae2d125	0.20323222637456087
147	0xc0005e38e0d04eb0	-2.0460069240160337
148	0xbfd881ba795c5921	-0.38291799403795507
149	0x3fbfac7b91cdb927	0.12372562703760491
150	0xbfdb1be04fb71c17	-0.42357642922110145
151	0xbff81738477f9676	-1.5056689064889759
152	0xbff5c15793d1cfbe	-1.3597026609613603
153	0xbfe00850e6b1f39c	-0.5010151391758089
154	0xbfbea50bea647ff8	-0.11970591042017975
155	0xbff068d3428c1387	-1.0255920981882996
156	0xc0020a37211eeb5d	-2.254987963443837
157	0x3fbab5536e42502d	0.10432931367751115
158	0x3fb8b7cd1c947a35	0.09655458400491386
159	0xbfe85c8c07e5aa99	-0.7612972406617075
160	0xbff99bda061d7223	-1.6005497206562118
161	0x3fd6650bf17e30dd	0.3499173982934403
162	0x3f9529429d099046	0.020665207705306686
163	0xbfe00c0e5a099928	-0.5014716871781149
164	0xbff5984585b1da60	-1.349675676579544
165	0xbff0199e607aa167	-1.0062545555793692
166	0xbffa9f24985d85be	-1.6638532592554465
167	0xbfc56551d7f191ec	-0.16715453189966867
168	0x3fc4ecf6d665a523	0.16348157375913627
169	0xbf8dd12533c2dd21	-0.0145590692921887
170	0xbfc1bfa6986b4fcc	-0.13866121713965496
171	0xbfe040744ab0512c	-0.5078679522289682
172	0x3fe7fafe05e79abe	0.7493887057615536
173	0xbffe8dad8d32d9a9	-1.9095893397876387
174	0x3fb5d92f54861b7b	0.08534522832461093
175	0xbfe025e3e333a170	-0.5046252667935232
176	0xbff5163a2ae57198	-1.3179265666613897
177	0x3ff17582214c5568	1.091188554831513
178	0x3ff10a46857e86ae	1.065008660756955
179	0x3fe681152450c49e	0.7032571515357124
180	0x3fce6b5b5f9ce2eb	0.2376512734279211
181	0xbfe58c4739e733db	-0.673373807041226
182	0x3fe17ae1ce74981d	0.5462502510388308
183	0xbfb8e0b6798c92c8	-0.09717884509570773
184	0xbfef2d4b2dda7f22	-0.974279012258169
185	0xbfe820da54f9b119	-0.7540103587794277
186	0xbff48f9f986c801d	-1.2850643114143232
187	0xbfef4c3b0553e4f6	-0.9780554870659717
188	0x3ff8773b44704c38	1.5291092561135553
189	0xbfd4aef8bc9b2f4d	-0.3231794206483201
190	0xbff2b445a18d20c5	-1.1690117178532529
191	0xbfe5f06ddb0dda15	-0.6855992582703175
192	0x3fedc39228e69d77	0.9301234053463493
193	0xbfed211a981c3079	-0.9102910014057805
194	0xbff524f017e30ba6	-1.3215180333215613
195	0x3fb12a1e9d3588d2	0.06704894388306862
196	0xbfe98903e8f5dff7	-0.7979754972466243
197	0x3fdaee54e5459f2a	0.4207966078742965
198	0x3fe911368d8e44cb	0.7833512081871502
199	0xbff7bbc749d9c85e	-1.4833443531793118
200	0xbfc7ec690652b07c	-0.18690216835728168
201	0xbfdb20d1adb04d61	-0.4238781162432215
202	0x3fc8421d1633b2aa	0.18951762756423324
203	0xbff4a4f76468c8b9	-1.2902749941099911
204	0xbfe67248eca4f759	-0.7014507886849329
205	0xbff0071315255611	-1.0017271829614212
206	0xbff904cd4506e397	-1.5636723228801424
207	0xbff961242222c117	-1.5862161000660018
208	0xbfd7d0244e2cc065	-0.37207896837481363
209	0xbff38b47fedf1204	-1.2215042072213018
210	0x3fdf13d6ae053b5a	0.48558585161383905
211	0xbfdfe6d1c80a3eaa	-0.49846310172231745
212	0xbff426d25124c1cb	-1.2594779176398443
213	0xbff365b2a896558d	-1.2123285851897407
214	0xbfe333a55ea324d8	-0.6000544403442758
215	0xc0050eb7c4062183	-2.6321864427920345
216	0x3ff24d0413f37fa8	1.1438027171461531
217	0xbfe132a73bd0c4fd	-0.5374332588454817
218	0xbff2e46722577c64	-1.1807624188875474
219	0xbfd5bd396d8bdce2	-0.3396743364132374
220	0xbff6583374206a21	-1.3965334449955054
221	0xbfe51a7ec20f93ae	-0.6594842710734292
222	0x3fea9c9fe8db1f58	0.8316192195861545
223	0xbfcc510a0dc8dbf4	-0.22122312233997798
224	0xbff26c88bf5b2de2	-1.1514976000643107
225	0xc0029f67e1fa34ca	-2.327834859321773
226	0xbfe0de6552a5a6c3	-0.5271479238701534
227	0x3fb3cde6e2a4f6df	0.0773605635958705
228	0xbfa7c230961a2c63	-0.04640342552473766
229	0x3fbbcd44eb874289	0.10860090971187665
230	0xbfd3b68d404c3d83	-0.3080170753391586
231	0x3fd29dcab1a2091d	0.2908808455178063
232	0xc0013c102f92dfe4	-2.1543277470300257
233	0xbff1fe3ed2d5a396	-1.1245716319774366
234	0xbfe489f16d1f8559	-0.6418387538252929
235	0x3fee52b033a9ab4a	0.9475937851942515
236	0x3fdda5391de0e157	0.463209418466723
237	0xc0019a471a779c13	-2.2003309314491246
238	0x3fd08604c2fa6d19	0.25817984619944095
239	0xbfd39005a7580a36	-0.3056654104440527
240	0xbfe88c79db4e53f3	-0.7671479495353409
241	0xbfc5fe355c18bd51	-0.17182032582193554
242	0x3fe9d388fa191f82	0.8070721516350974
243	0x3f882666b852cf74	0.011791994571787014
244	0xbfe362d7b502a82d	-0.6058157477721174
245	0xbfbc476268c3238a	-0.11046423967049016
246	0x3fea55102804b353	0.8228836804970378
247	0xbf9bb643c104faca	-0.027062472015354534
248	0x3ffa5364e39399e5	1.6453598870954178
249	0x3fd1bde234f9d608	0.2772145764677991
250	0xbfe02b8fc7e8421c	-0.5053175835074089
251	0x3fe7172246c17b6c	0.721573961443807
252	0x3fc0cd25fb1982e7	0.13126063118672635
253	0x3ffd223988f5a2f1	1.8208556508999971
254	0x3fe9410536608d85	0.7891870557836432
255	0x3fd3b9f9271ecad3	0.30822590656604837

output_gate_weights f8 [108, 81]
0	0xbff361fda842c352	-1.21142354704735
1	0xbff1b5019122de1b	-1.1066909474738
2	0xbff0cdd67a51cdb7	-1.050253370104526
3	0x3fe4e290bf9db6e3	0.652656912088528
4	0xbffdfb14739fb300	-1.873798801093642
5	0x400238558afedbef	2.277506910231288
6	0x3faf7615a3b2afd2	0.06144778846041245
7	0x3fe294650e310282	0.5806145932366038
8	0x400ae5418bb8fcfc	3.3619414249257016
9	0xbfeb2409caaaaa29	-0.848149200280493
10	0x3fef832086ff2999	0.984756721177564
11	0x3fceaf093d420032	0.23971667758087417
12	0xbfda0ab99bff1785	-0.4069046042826517
13	0x3fe8d95427e65d1a	0.7765293864530662
14	0xbff370a4a10ad0cf	-1.2150007525170172
15	0x3fda28f3d8a329e8	0.40874954372398387
16	0x3fd6fa5e29221973	0.35903123871721404
17	0x4002fe6dda5a4f3d	2.3742329653559
18	0x40009cbb34d646ce	2.0765289428607963
19	0xbff1ba8e843445d7	-1.1080460705019186
20	0x3fddbfc1f8887244	0.46482896109390404
21	0xbff93d52601da820	-1.5774711374783763
22	0x3ff656cb3e18f303	1.3961899209672886
23	0x3f90bd5411feb76d	0.016347230528189472
24	0x3fcdcaf14aee39f8	0.23275581511229837
25	0xbfe0464768d9c7be	-0.5085789726128878
26	0x3f9de586428250d0	0.029195878800764075
27	0x3fe996d8aa016b54	0.7996638603611737
28	0x3fe0a21c891b9d7a	0.5197889974487417
29	0x3fd43506620c591e	0.3157363851072591
30	0x40075ccecc189d0e	2.920316309453148
31	0xbfcc263d010bdab8	-0.21991694022263686
32	0xbfdfd96aa592f3ec	-0.4976450554784708
33	0x3ff0263b2b05ffe8	1.009333770809457
34	0x3f9fb27c68c05d4b	0.03095430745460463
35	0x3fe997394430528b	0.7997099239169797
36	0x3ff451b8d043dec4	1.269951642547242
37	0xbffbc43b011790a7	-1.7354078333528749
38	0x3ff0ec1e2f4409df	1.0576459738082276
39	0x3fcf4e67e2fe6aca	0.24458025535280675
40	0xbfc6fd9cb7ce2331	-0.17961462950577237
41	0xbfe30061a89a7f26	-0.593796567252842
42	0xbff28a552e3f57de	-1.1587726408520136
43	0x3ff7d43068cca50c	1.489303979275351
44	0x3ff14642d1267f99	1.079653565400781
45	0xbfe9be442767c9c5	-0.8044758577000769
46	0xbfee2e558915cdbb	-0.943156020874475
47	0xbfdd3fa18fcc724f	-0.4570087341578856
48	0x3fbaf3572cc291d3	0.10527558176779132
49	0xbfc79c34774ee0c8	-0.18445449662772817
50	0xbfb0df6705c02e69	-0.06590885057829045
51	0x3fc75c939d7ef1f5	0.18251271429279795
52	0x3fd82916c13a7b35	0.3775078665730008
53	0x3ff30878c8584939	1.1895683122607592
54	0x3ff453f33198bcce	1.2704955994957348
55	0xbfe607231b392dd3	-0.6883712321954881
56	0xbffc0b4ea87635bb	-1.75276056104063
57	0x3fe0f85e000353d3	0.5303182602170814
58	0xbff2c8498cdd9398	-1.1738982679901024
59	0x3fe339981995f10e	0.6007805347176445
60	0x3fea77a7d9b7e3b9	0.8271064045248898
61	0x3ff2f2a0c4bc38b6	1.1842353520365072
62	0xbfe02cd7e837688a	-0.5054740462758371
63	0xbff3ae589a5dfb94	-1.2300649671521784
64	0xbff6021160a33640	-1.3755048537162935
65	0x3fed96385ec0e77b	0.9245874262480663
66	0x3fe99b4f94fead34	0.8002088460974961
67	0x3ffb5981875c7d84	1.7093520438719176
68	0xc0025858084e61d5	-2.2931366585655533
69	0x3ff52ed459e892a8	1.3239329826402955
70	0xbfe398e4c2a67ae7	-0.6124137689365313
71	0xbfc26a99c4f06cab	-0.14387819400949317
72	0x40028972b63979b7	2.317113326672565
73	0x3fe42f67430ff968	0.6307865438282478
74	0xbfe81d3ab5a1316e	-0.7535680339292818
75	0x3fd0b9000993d1b0	0.2612915128259159
76	0x3ffbe46e6d94e219	1.7432693748979828
77	0xbff226c5666c0992	-1.1344655991420933
78	0x3ff889df0c3f72b3	1.5336599806243327
79	0x40045dda29d353d3	2.5458262698761955
80	0x3ff6ae833c51d8d7	1.4176056247938982
81	0xbfd2b0d931006a8e	-0.29204396996798543
82	0x3fcc1565f1c981da	0.2194030218697794
83	0xbff1506bca4ec3ab	-1.0821340468066676
84	0xbfb8bfc4c6e0009f	-0.09667615752550994
85	0xbfdc23c5a4db25e3	-0.439683352462991
86	0x3fe4a4bce92b0ec6	0.645109610945348
87	0xbfe10fa6864802eb	-0.5331604597741636
88	0xbff1e844859bde06	-1.1192059725852928
89	0xbfdc3f8e17c2d750	-0.4413790924112293
90	0x3fecabe6be0ac13e	0.8959840499647169
91	0x3fd3b22193a3c99a	0.3077472631258843
92	0xbff683cb68b581f3	-1.407176407832705
93	0xbfe4e275168529f6	-0.652643722519598
94	0x3fb2a1e9794785f6	0.0727830811588531
95	0xbfef54c0fb887408	-0.9790959275011355
96	0xbff73832aefd0634	-1.4512202105983194
97	0x3fee149669b96961	0.9400131287505183
98	0xbf546a7689fdf41e	-0.0012460858924605643
99	0xbfe28762b3d5db61	-0.5790265571984997
100	0xbff8321805d9e41a	-1.512229941230777
101	0x3fe2675b95908772	0.5751169129546112
102	0xbff80981a4a1a4e9	-1.5023209029116578
103	0xbffbd125c45dc135	-1.7385614080959162
104	0xbfba00b44142efde	-0.10157324403093024
105	0xc0011a84cfe9494f	-2.1379486315792415
106	0x3fd1e376bdcabda9	0.27950829061861754
107	0xbffae8c7ed4495f2	-1.6818312900808192
108	0xbff46ff193f6c0ec	-1.2773299960936653
109	0xbff0838ab5214d18	-1.0321147036928036
110	0xbfe31a1e2bf65567	-0.5969382151258004
111	0xbfe3e5ebcbbf2117	-0.6218165378022914
112	0xbff04b4b1cc55eed	-1.018382179628982
113	0xbfe40c7f344cfa57	-0.6265254994867274
114	0xbff1ab8169ed248c	-1.104371465468179
115	0xbffe7d030e06bf74	-1.9055204914002077
116	0x3f96dc02635d0533	0.022323643984468688
117	0x3fe2c42f37e20fd2	0.5864482966867348
118	0x3ff6e69c8a838547	1.4313016329472974
119	0xbff7bbf24413db17	-1.4833853396682508
120	0xbfcac3274a39308a	-0.20908061145963003
121	0xbffe89c8cbc04e43	-1.9086387595206282
122	0xbffb3963d63aaf9d	-1.7015112274484416
123	0xbfd4018f7e5faf14	-0.3125952467078019
124	0xbfee769e7bfaa20e	-0.9519798680749447
125	0xbfe21a23d851e6c7	-0.565690920352801
126	0xbfeecfc713a532e8	-0.9628634818742201
127	0xbfd1437e5ee19695	-0.26974448457472394
128	0xbff1db92008c9794	-1.1161060353710797
129	0xbfe7f4619c61bfc4	-0.7485817007382072
130	0x3fe4316dde088d30	0.6310338341321877
131	0xbfdb94715b7f8c84	-0.4309352296388129
132	0x3fdb8deb494e21e1	0.4305370536681306
133	0x3fd7c097c86af38d	0.3711299378590461
134	0xbfd9620d9d9e0f56	-0.3966096915466911
135	0x3fe11db868a970fe	0.5348779720475532
136	0x3fd10969a6476f0d	0.26619950521647767
137	0xbff01cf369ea49b6	-1.0070680749237062
138	0xbfeacc5ea8588b87	-0.837447480011506
139	0xbff44d9bf58da053	-1.2689475624010995
140	0xbfd753c4945c9e10	-0.3644877861829352
141	0xbfe96de5ffdaaa5d	-0.7946653363372423
142	0xbff46052c73fd634	-1.2735164435556614
143	0x3fd6abf8c7313833	0.35424632503861914
144	0xbfd8a4e5775942c8	-0.38506447463172977
145	0xbff13ec2e7b53a9d	-1.0778225947466702
146	0xbfe8378e113bf991	-0.756781610165307
147	0xc0063fb1672bf668	-2.781100088147287
148	0xbfbc48a9c15c95dd	-0.1104837510179872
149	0xbfe44f251989b4f0	-0.634661245230431
150	0x3fb06badd938e61b	0.06414305260923252
151	0xbfcbf202cbb8300d	-0.2183230871891059
152	0xbfd13c7867ad9243	-0.2693158161621662
153	0xbff07a95eaca2a6c	-1.0299281283829727
154	0xbfe2331fef1b8479	-0.5687408132618109
155	0xc006832dd6b65bf7	-2.8140522741700766
156	0x3fdc2b677b1f0fde	0.44014918349807697
157	0xbff3300299c5d773	-1.1992212301970226
158	0xbfeb7420c19251fd	-0.8579257755941964
159	0xbff1e05e2d4372cf	-1.11727731400531
160	0xc000d8cafd82fac7	-2.105855923232727
161	0xbfeaaeb2bcb24d54	-0.8338254628637665
162	0xbff17140ab20bb47	-1.0901495632821978
163	0x3fd28be292d6ff6e	0.2897879060728802
164	0xbffccd72d4cdaa46	-1.8001583397514351
165	0xbfe53138c0e12d6b	-0.6622585074596093
166	0xbff490a9a8e44bea	-1.2853180501303947
167	0x3ffb9aa2df39db54	1.725252983070921
168	0x3fd5417e722e91c5	0.33212243223740884
169	0xbfe3a0f8384110d1	-0.6133996103967779
170	0x3fd7d324369de6f7	0.37226205190346157
171	0x3fc20a28384c4a8c	0.140934970368637
172	0x3fd81ddbea118333	0.3768224511932658
173	0xbff047db53e2d279	-1.0175431515500846
174	0x3fa5e34103605f8a	0.04274943510262037
175	0x3fe0932e397a2e45	0.5179663775065327
176	0xbff5d56f878ee048	-1.3646083159674323
177	0xbf9355897f307c0d	-0.018880985630058734
178	0x3fe7a0ce4b3439db	0.7383796185329702
179	0x3fe3e47e9a6bb729	0.6216424003630198
180	0x3fd1e5f913708f7a	0.27966143511206776
181	0xbff5e0b252de6e12	-1.3673575627389067
182	0x3fef1be1db254e51	0.9721535949888197
183	0xc00261d737b4c825	-2.297773776249431
184	0xbfd133bd72ac69ac	-0.26878296087820774
185	0xbffe69da06180a5d	-1.9008426893275534
186	0xbff0c7090c1d96b5	-1.0485926125779035
187	0xbff22389061944b2	-1.1336755979757922
188	0xbfb693d4360b1b3f	-0.08819319075983588
189	0xbff8de91fb8d5e0a	-1.5543384386309094
190	0xbff7b482c2b69d84	-1.481570015524853
191	0xbfbc36fd76b1cb11	-0.11021408222022112
192	0x3fe26126a43d80e1	0.5743592460458126
193	0xbfeeb1f1d54a0733	-0.9592217603496692
194	0xbff602c8d768a61f	-1.3756798185735375
195	0xbfb89ba17e7dd7a7	-0.09612473810361043
196	0xbffed6352d8d3ca8	-1.927296808182101
197	0x3fe9f1fc9add32ec	0.8107893967331541
198	0x3fcbab4b38e96a1a	0.21616497305770183
199	0xbfb670ced00064e8	-0.0876588113609561
200	0x3faa8d8236afca05	0.051860875297183674
201	0xbfd956e8e80618bb	-0.3959295526368682
202	0xbfd8198dd13e13e4	-0.37655969079815876
203	0xbffed99092eef26d	-1.9281163920960822
204	0xbfeec0de7ed5f06c	-0.9610435940990221
205	0xbfde87fac0806619	-0.4770495300195719
206	0xbfe0c5ca6d9809ee	-0.5241443768030061
207	0xbfe5aa11a5b5cd8a	-0.6770103680159292
208	0xbfed5688bff953b7	-0.9168132543078319
209	0xbfff36f60c3943f5	-1.9509182431686416
210	0x3fc61d2538d4857f	0.17276444697294477
211	0x3fcff2214f2d84f7	0.24957672468284617
212	0xbff3009fbe3ffd22	-1.187652342952625
213	0x3fd1b69845334655	0.2767697025093175
214	0x3faf567fbbb71243	0.061206809677547123
215	0xbffb44452eac92e9	-1.704167539902466
216	0x3fed6d41c7925c35	0.9195870302090784
217	0xbfaa60fae399595b	-0.05152114895161005
218	0xbffd0f193fb6793f	-1.8161861885815396
219	0xbfd221d10e709d38	-0.2833140030874861
220	0xbff60abf0c2f4054	-1.3776236034355138
221	0xbff0cf2c8b510829	-1.0505795900394423
222	0xbfd5c7a5ed6df752	-0.34031055628280626
223	0x3fe693eff4917db4	0.7055587555623135
224	0xbfee5f63dae8a845	-0.9491442943156093
225	0xbff940a73697ea89	-1.578284466987187
226	0xc00341d042ddc269	-2.407135507957993
227	0xbfeb4c676db6041e	-0.8530766623299575
228	0x3fc6fb481bb30512	0.17954350807671254
229	0x3fe394a9f42023f1	0.6118974464490049
230	0xbff5d96e43d183cb	-1.3655836724430965
231	0x3fe14a10d4c14a98	0.5402912288066828
232	0xc0014547739bcadc	-2.1588276893538545
233	0xbfdd91ac50865e3d	-0.4620161806464898
234	0x3fc6df9dcdb02d01	0.17869923156136028
235	0x3fd3f0516e5f1c4f	0.3115428521964007
236	0xbfea5fc1c3f37a3b	-0.824189074246369
237	0xbfd5f14023795302	-0.34284976448297766
238	0xbfc1444f6f5bb61e	-0.13489716470159946
239	0xbff6fc95a38501b0	-1.4366661441309638
240	0xbfdbbcbd641d4d29	-0.43339476372530555
241	0x3fc99f341c00f0a2	0.20017100684515748
242	0x3fd4dbcf7092e5cd	0.32591615670716295
243	0x3fd2e1d74866408c	0.2950342375779733
244	0xbfee31cd1fdd2525	-0.9435792562809736
245	0xbfd9122355cec948	-0.3917320573774714
246	0x4003f24cccc9a88c	2.493310546783567
247	0xc005cf3df85919a7	-2.726192417353747
248	0x3fe41f294c5ea351	0.6288038722605994
249	0x3fe4581fba2b7623	0.6357573162201259
250	0xbff5b86df4904722	-1.3575267365708403
251	0x3ff2c821c395500c	1.1738603248568351
252	0xbfe0c3be2b8ef5a3	-0.5238943911314674
253	0x4008e8aafed4a580	3.113607397903877
254	0x3feae9ba5066c180	0.841031224283185
255	0x3fe9f0a34e5b9f88	0.810624745409755

gate_gate_weights f8 [108, 81]
0	0x3fee866bd6aca685	0.9539088433131871
1	0x3fefe8a7f9fd7024	0.9971504099480666
2	0x3fcb5f729b74d2a0	0.21385033217088267
3	0x3ffcea747d56073c	1.8072399993838664
4	0xbfc66c2e77e62f80	-0.1751764378972176
5	0x3fd0716135b4f405	0.2569201492768232
6	0xbfb9f76a87511065	-0.1014315204966479
7	0xc0023e97a678f3a0	-2.2805626874600904
8	0xbfdfd1bfc578de8e	-0.49717706951512575
9	0x3ff30385cc64444a	1.1883600219773762
10	0xbfca440cc2ffed76	-0.2052017166277939
11	0x3fd013c19cf320ad	0.25120582892533144
12	0xbfc7e1a9ddd197ce	-0.186574204740451
13	0xbfe79097f110e2da	-0.7364005764312325
14	0x3ff27e724bc58242	1.1558707198929743
15	0x3fcad3e00dd925d4	0.2095909183138206
16	0xbfebca92d148d753	-0.8684782111729227
17	0x3fee53d85e35b1d8	0.9477350082429963
18	0xbff1933f03298f31	-1.0984487651375725
19	0x3fe83a4ad81b3415	0.7571157666039904
20	0x3fb01eed44fe967e	0.06297190603671685
21	0xbf822e4e1d948d12	-0.008877382543295318
22	0xbff53e91f3618647	-1.32777590819059
23	0xbfefc9d247489c39	-0.9933864013918373
24	0x3fde937ada4d3040	0.4777514583445317
25	0xbfef3db95e5e2be9	-0.9762846797105996
26	0x3fd0de4972f89ae3	0.26356731631896774
27	0xbff0bb16a07e79e6	-1.0456758755968791
28	0xbff8a061b7116ceb	-1.5391556883903899
29	0x3fed8f157ccabca2	0.9237163007109255
30	0xbfd9d4a0b951a66d	-0.4036027726893739
31	0x3fe9091b81a74018	0.7823617489139023
32	0x400309b89f4d7793	2.3797466702953414
33	0x3ff9f52095f42b7e	1.622345529324519
34	0x3fe1e12007ca131d	0.5587310936103652
35	0x3fe7ef9cdcb57384	0.747999602386344
36	0x4002bc86b0a6225c	2.342053775854124
37	0xbfeb1a6746bcfd42	-0.8469730741125334
38	0x3fb809fd0fafb64f	0.09390241272895959
39	0x3fde138596a82cb7	0.4699415179499726
40	0xbfe7798b019cd2eb	-0.7335867911811794
41	0x3fc3ff3e7a866547	0.1562269304529684
42	0xbfecb6c260b43dfd	-0.8973094834090599
43	0x3febfab9f6b91283	0.8743562525565526
44	0x3ff3e21804506a66	1.2426986855049562
45	0xbfc8f8bc7e2e41cf	-0.19509082947889886
46	0xbff48460bf31d3ba	-1.2823188274899011
47	0x3febe2fa78584866	0.8714573240743106
48	0x3fda237a1b48c23e	0.4084153429458047
49	0x3ff64879da0fe4d3	1.392694331936856
50	0xbff9d513a5e5c71a	-1.6145206909536172
51	0xbffb9956cbacbcb4	-1.7249362903637975
52	0xbfd4abda9288e8ec	-0.32298912344016517
53	0x3fdc2d43fa880836	0.44026278940157526
54	0x3fda73d4d928cdef	0.41331978995296387
55	0xbfeb290643d499c6	-0.8487578701795477
56	0xbfd4b4990174833e	-0.3235228075227957
57	0xbfd9c8d9f600f6cd	-0.40288399719052564
58	0x3ff2aec75a8440c0	1.1676705871396251
59	0xbfe909f6cfde03fb	-0.7824663219363396
60	0xc0025ccbc5c6bcda	-2.295310540320867
61	0x3fcc7ff418122d5f	0.22265483069746048
62	0xbfe2754801714001	-0.5768165615245381
63	0xbfe6bf1953511dc4	-0.710827505806201
64	0xbfbdd89575d94812	-0.11658605696837324
65	0x4007cdaf36192c86	2.975431845324752
66	0x3fe5b681cd6229c6	0.6785286914248949
67	0xbfecb6231d845bec	-0.8972335411552854
68	0xbfdb8d084a89d6b2	-0.43048293379920743
69	0x3fcdefc21d2562b7	0.2338793413462292
70	0xbffae515765ac7e6	-1.680928671190935
71	0x3fe3e9d5d94d23bb	0.6222943538824589
72	0xc007b8e2931ca1ea	-2.965275906859678
73	0x3fc3d19590f2832d	0.15483350350862093
74	0xbfd18f1abb7e0568	-0.27435940084259025
75	0x40034c729e9a3f4a	2.41232799442506
76	0x4000351a759c9eff	2.0259293735906563
77	0xbfe44c06281788cb	-0.6342802794499901
78	0x3ff0c2db886471da	1.0475726440264368
79	0xbfcf0d03ec89a82b	-0.2425846962899539
80	0xbfe07a6faeb65dc9	-0.5149458324767063
81	0xbffbf47c4b42f6a6	-1.7471888484864535
82	0xbffc3dbd8ef96128	-1.7650733551909727
83	0x3ff8443ff093a168	1.5166625401999116
84	0x3fd77de5ff84eb25	0.3670592303566756
85	0x3feff9b29fecff78	0.9992306827116257
86	0xbfb81ba83390a21e	-0.09417201289091578
87	0x3fd2522076e2c252	0.2862626229280397
88	0x3fefa8cdbb63d50a	0.9893559131584493
89	0xbff0a0e98ef19222	-1.0392852386222633
90	0xbff09b8711b67cf0	-1.0379706088932004
91	0xbfe946c09ee9f0ea	-0.7898867706094539
92	0xbffb73982e08a99a	-1.7157213018605035
93	0x3fdff3c1638f5d47	0.499252650477008
94	0xbffe0151dabdcb30	-1.8753222031197758
95	0x3fd780deaa7efd3e	0.36724058771138235
96	0xbfe600208078c493	-0.6875154980863435
97	0x3ff263bffdd12435	1.1493530192112875
98	0x3ff10e50233e873d	1.065994393990379
99	0xbfb6e25dc94bbedb	-0.08939157642793864
100	0xbff8ec0e494f5df2	-1.557630812041563
101	0xbfe541a26545b694	-0.6642620065665192
102	0xbfbbef08fe7e44be	-0.10911613667691974
103	0xbfe2d9a0d7b1ea83	-0.5890659535210293
104	0x3f91879c5e4ec09a	0.017118876701431952
105	0xc005f79fc266c91c	-2.745910185586707
106	0x3fd3c142e3413012	0.3086707324298469
107	0xbfd45d969c054e07	-0.3182121776237356
108	0xbff3c2cee513afa6	-1.2350605915371289
109	0x3ff66799cd5f3712	1.4002931616154837
110	0xbfd369d86a5de21e	-0.3033352888810742
111	0xbfd79dfeb9df615e	-0.36901825095767105
112	0xbff4b5a01057748d	-1.2943421018929115
113	0xbfd73c46ee5d399d	-0.36305402066946063
114	0x3fdeb0d0c6ebac08	0.47954196382369263
115	0xbff493d6b24b30ec	-1.2860934223745586
116	0xbfc89e3262650af7	-0.19232778362682953
117	0x3fd01650c909c37d	0.2513620341551855
118	0x3ff8f27ef3da7fc4	1.5592031026389899
119	0x3fef1b422758ac61	0.9720774429782858
120	0xbff70423c142c810	-1.4385106610539005
121	0xbfd8c11d62993103	-0.3867867911219635
122	0xbffee00334015905	-1.9296905547576568
123	0x3f816cc4309bc35c	0.008508236630832826
124	0xc00041ea3a12d346	-2.0321850335116407
125	0x3fd816bd02159032	0.37638783649004204
126	0xbfed8263948cb6b5	-0.9221666241989711
127	0x3ff24d0ac9a200db	1.143809116008973
128	0xbfcd11b8916ee042	-0.22710330105997129
129	0x3fe79bb54c80d74e	0.737757348461608
130	0xbff23623d971b2e4	-1.1382177823936042
131	0xbff68275db16205c	-1.4068506773055764
132	0xbfde8cdf7fe61300	-0.47734820833311176
133	0x3ff5a0dfeea8bc97	1.3517760584470915
134	0x3fe626f3160c642c	0.6922545843727952
135	0xbf79c1c32a8343aa	-0.006288301818316558
136	0x3ffee919aa996598	1.9319092430144789
137	0x3fe441760c041853	0.6329908594787049
138	0xbfd130330aeff9f6	-0.268566857033789
139	0xc003452d8d08a6be	-2.4087782877221278
140	0x3ff5386cc3e3e73b	1.3262756015742088
141	0xbfded1c4ffef9147	-0.4815533160565519
142	0xbfe6acb5db24141a	-0.7085828094574282
143	0xbfe9619fd7ef8d32	-0.7931670396323283
144	0xbfeee46b472389bf	-0.9653831853323068
145	0xbfd75edf93313bea	-0.3651656091141705
146	0x3fe11c3d1f0ae324	0.5346971136378653
147	0x3fe0a1c771a58c4e	0.519748422590405
148	0x3fe185ce33b3dc67	0.5475836763206531
149	0x3fb18f603b127a5a	0.0685939926356495
150	0xbfc527201a6af5c0	-0.16525651254589313
151	0x3fd898cfe57b2a94	0.3843269101168201
152	0x3fe58c0db6c83f9a	0.673346383091473
153	0xbffc0bca860703ca	-1.7528786883778928
154	0xbfa91ff7f38dfbb9	-0.04907202575758824
155	0xbfdf115218c24c16	-0.48543217103832725
156	0x3fd1eafa33f3a64f	0.27996687959111893
157	0x3ff603bac61e5e7f	1.3759105433472596
158	0x3fd3c66265025cae	0.308983420030425
159	0x3fe7df81d7e03c8d	0.7460335937811508
160	0xbfa6b3df97018d78	-0.04434107511840585
161	0xbfd6733f25debba0	-0.35078409860846627
162	0xbfff5da56f155164	-1.960362848204647
163	0xbfe9f58818f37f58	-0.8112221228911762
164	0x4002a0a9f7ed9c89	2.3284491891277566
165	0x3ff23e9d64644cbb	1.1402868196062588
166	0x3fe9c65b234db8b4	0.805463379814475
167	0xbfbed624baea184c	-0.12045507014599471
168	0x3fbe61d4bb94e8c6	0.11868028239851744
169	0x3fdddf0ac89b00d3	0.46673841085795437
170	0xbfee0c1b831640dc	-0.9389779625217005
171	0x3f3441304e46cfe0	0.0003090613302234573
172	0xbfdb15e1aac5201c	-0.42321054150352366
173	0xbff5bbe7b88f232f	-1.3583752831784286
174	0xbfc39249301ffa50	-0.15290179109429625
175	0xbff38f0418127c60	-1.2224160137482372
176	0x3ff84a60e5dd86e1	1.5181588152994936
177	0x3fbf906eaa7c2878	0.12329761183005583
178	0x3fe3a47daad84b01	0.6138294541181893
179	0x3ff2d5b76e29a93b	1.1771768859130833
180	0xbfd7c119813668be	-0.371160865959279
181	0xbffb7de717c7bcc8	-1.7182379654803288
182	0xbfb358c4b88e0a66	-0.0755732489178996
183	0xbfd626007dbf7b56	-0.3460694530494285
184	0xbfe7ff298152b6c0	-0.7498977208940332
185	0xbfe89cd78b20839f	-0.769145747883261
186	0xbffd3d0f9d7beda4	-1.8274074699137168
187	0x3feca9095831e4f0	0.8956343386227257
188	0x3fe049f84dddd41e	0.5090295334654262
189	0xbfe91e26e4300174	-0.784930654219393
190	0x3feb35da4276020e	0.8503238008561895
191	0xbfc2fc5cacee2b5d	-0.14832647746910768
192	0xbfdd7355ceaeb519	-0.46016450103600587
193	0xbff00ff5601e6c52	-1.003896117653103
194	0xbfdf48f244f6c635	-0.48882729277383713
195	0x3ff9692a7bbb7b96	1.588175280885229
196	0xbff2c41048d24808	-1.1728670925699607
197	0x3fb83d852197d613	0.09468872137207311
198	0x3ff1efaea9017cc1	1.1210161783017585
199	0xbfba4b994dab9488	-0.10271604677434898
200	0x3ff137c06e3205aa	1.0761112503536006
201	0xbffe9dfe9050cb3c	-1.913572849018876
202	0xbfe825d0d4524a38	-0.7546161791709158
203	0xc0057ef050446471	-2.686981799208802
204	0xbff2919d22288daf	-1.1605502447426763
205	0xbfedaafe1cc19c9a	-0.9271231233259585
206	0x3feb3114948eb05a	0.8497412587653443
207	0xbfe2e520cdb62a86	-0.590469743519251
208	0x3ff9a642dcc168cc	1.6030911086332251
209	0xbfe56dbd5e6a1904	-0.6696459621460069
210	0x3fda558663e43656	0.4114700294020158
211	0x3fdf072398ca474b	0.48481073304093475
212	0xbff1e28a67cafea0	-1.1178077749645254
213	0xbfea12b07e65a9a2	-0.8147814243978255
214	0xbfd77490d5793fdb	-0.3664896092132019
215	0x3fe2889fce358c64	0.5791777637026709
216	0x3fb65964e454d56f	0.08730154585358262
217	0x3ffbba648f54357b	1.7330060576235542
218	0x3ffa2de6488f96d7	1.636205943528173
219	0xbfd762841e7c46d4	-0.36538794495673454
220	0xc0004ab325fe3b0a	-2.0364745109758404
221	0x3ff63c5138dc9e59	1.389725896946308
222	0xbff189cc604205b5	-1.0961421737741663
223	0x3fc7c544ea16c6d4	0.1857076781284862
224	0xbff38c7db760e2c5	-1.2217995799275496
225	0xbffe8e36cd675754	-1.9097202323514084
226	0xbfea741e617d205a	-0.8266746429517398
227	0x3ffb709a8d825950	1.7149911430074845
228	0x3fef5d89871d4bc6	0.9801681174234254
229	0xbfc4557d34b2ca5d	-0.15885891984142378
230	0xbff2afb4c5f92d52	-1.167897008260145
231	0xbfafbe52aa0dc942	-0.06199892354824722
232	0x3f816e7c949b5cd0	0.008511517796632978
233	0x3fde20376995ad6d	0.4707163363552443
234	0xc0032856a4752439	-2.394696507286906
235	0x3fc98e441d12f555	0.19965411586410178
236	0xbfec48b7404064f4	-0.8838764433777713
237	0x3ff768254370e1ef	1.4629261621868144
238	0x4001c50ade2c608c	2.2212121350567653
239	0x3fd96b70bc5bc931	0.3971826400221686
240	0x3fe7df957cd88f52	0.746042960967751
241	0x3fe16265d61b09a8	0.5432614499807658
242	0xbfcf1637e1a92cd4	-0.24286554831119267
243	0xbfd45c8b397bce90	-0.3181484280932887
244	0xbff899bf30dee080	-1.5375358494766544
245	0xbff22cb5a90bf07e	-1.1359154322990714
246	0xbfd50ac45461e74f	-0.3287821601912712
247	0x3fea866b6f979fb5	0.828908651307748
248	0xbfd41710d9fe0b45	-0.3139078263122211
249	0x3fd69ac68736b8b7	0.3531967468687855
250	0xbfd93dcc6c72a1d8	-0.3943968829212543
251	0xbfeda3672ee2b0bd	-0.9261966624958614
252	0xbffb917d1acadbbf	-1.7230196997240765
253	0xbfd6dd7a0fb11a8b	-0.35726787121203846
254	0xc004a704cd2b2447	-2.5815521267691426
255	0xbfd01be3eb33f01e	-0.2517022892859603
