balderdash_lstm/lstm_model/models/lstm_model_19.npz (npz, 903256 bytes, 19 tensors)

forget_gate_weights f8 [108, 81]
000000 62 4c ea 2d 8a 9b e5 3f 4f 6c d3 75 b7 98 e2 bf
       0.6752367874891088 -0.581142168167739
000010 db 63 59 d7 95 8d e4 bf 72 17 f7 0b 12 97 e9 3f
       -0.6422833639181776 0.7996912225432722
000020 55 dd 85 cd 0e 5a 04 c0 5a 2d 88 d3 c6 90 e6 bf
       -2.5439735466458537 -0.7051729327662699
000030 80 bf d5 75 4b 75 e4 bf 0c 32 13 ff f1 07 01 c0
       -0.6393182088340694 -2.1288795402272225
000040 8b a5 d1 1a d8 25 d5 3f c0 8e b6 d9 36 0c d3 bf
       0.33043482417141296 -0.2976204992394109
000050 f7 11 17 1e da a3 f7 3f af e5 34 bd fb a3 d0 3f
       1.4775029349704007 0.26000874974451
000060 65 b4 1c 8c 26 2e de bf 82 01 90 bc 4e de e3 bf
       -0.4715668075830933 -0.6208871538984087
000070 ce 25 cd 2b 45 15 b5 3f e8 fa 1e f6 cc 7f d0 bf
       0.0823558074891004 -0.25780033145194503
000080 54 72 ac ac 35 6a e8 bf 88 37 a2 21 f5 c3 df 3f
       -0.7629650471240645 0.49633529934441656
000090 24 52 81 51 93 2a e9 3f ce 53 06 0d 12 22 f0 bf
       0.7864472000024461 -1.0083179959085444
0000a0 60 e0 bd 1a 03 f9 d0 3f 42 82 cc cc a4 38 ed 3f
       0.2651984940671408 0.9131645202615533
0000b0 c0 4c c7 65 59 0f 00 40 49 aa da 6b 4f bd d8 bf
       2.0074947310873483 -0.3865545800460138
0000c0 61 07 7b fc 26 21 dc bf 08 8d 19 53 9b 8e e1 bf
       -0.4395234552031209 -0.5486580489199762
0000d0 9d d8 5d 6b b1 03 ec bf 64 0c 10 e2 07 25 8c bf
       -0.8754508111003535 -0.013742505632768416
0000e0 6a 2e ef 39 46 92 03 c0 89 1f 04 5d 7f 04 d1 3f
       -2.446423008548483 0.2658995064125454
0000f0 c3 1c 4a e8 4b dc ec 3f a1 2a dd 01 e8 d0 fd 3f
       0.9018916642097782 1.863502509385093
000100 c9 26 cd 36 ac c0 fd bf 97 a5 ae 42 16 de fe bf
       -1.8595392361334453 -1.9292204479955666
000110 76 52 3e 9b 02 1a c3 3f bd aa 26 65 6a 20 ec bf
       0.1492312677406919 -0.8789569831472687
000120 ad 2a 14 24 17 3b 05 40 b9 a6 aa 76 a1 59 f0 bf
       2.6538527315763845 -1.0218824992574993
000130 13 08 be f3 f3 8f ec 3f 71 fe dc 44 74 b3 f1 bf
       0.892572380122376 -1.106312054631328
000140 29 ce 93 28 1c ad e9 bf ae fd 30 66 31 a3 da 3f
       -0.8023815910841609 0.4162105081522566
000150 b1 0d 7c ba ae 2a cb bf 2e 63 06 b4 8f 8d 01 40
       -0.21224006753628324 2.194121748394898
000160 0e aa 9b 50 e6 64 fe 3f 2f 75 94 f9 a7 ad d8 3f
       1.8996337078812107 0.3855991303733672
000170 e9 24 14 37 eb 3e cc 3f 48 59 f1 45 0a 0a d3 bf
       0.22067012967480729 -0.2974878008875703
000180 d1 16 c3 8d 55 30 e1 bf f8 0c 16 35 16 58 e8 bf
       -0.5371501702108735 -0.760752776798113
000190 50 00 e6 e3 38 47 02 40 2a ce 80 2b 08 c9 f6 3f
       2.2847764782491495 1.4240800570813783
0001a0 56 94 e3 cc 18 a3 d6 bf 8d 56 3a 6e 9a 4a ff 3f
       -0.35370464333238283 1.9557136827255903
0001b0 c3 b2 56 92 09 8a e6 3f 49 7f c9 1b f1 09 de bf
       0.7043502672364287 -0.46935680116256556
0001c0 83 bb 5b d2 90 ea ed bf 5d cb 59 dd d5 59 e3 bf
       -0.9348835094987041 -0.6047162364251154
0001d0 3e 37 dc 3c 12 6b a3 bf 51 71 83 da 99 1c f1 3f
       -0.037926263741708585 1.0694826636964374
0001e0 fc 31 7f 06 fd 23 e7 3f a5 00 f6 49 5d fe c1 bf
       0.7231431128398635 -0.14057508574842817
0001f0 1b 3e ff c7 2f 87 e2 bf f4 82 da 6d 74 3d e0 bf
       -0.5790022760574546 -0.5075018067910535
000200 c4 47 45 46 7a d6 d3 3f 1a b0 5a 08 aa 39 d6 bf
       0.309965675948771 -0.3472695428451985
000210 d0 b9 96 dd 97 84 cb 3f 70 30 5c 3b 54 1d e0 3f
       0.21498392410053535 0.5035802039506176
000220 21 e8 b1 3b a9 74 f3 bf ac a9 dd df c7 39 e4 bf
       -1.2159817058404843 -0.6320533153896597
000230 45 4e 07 d7 f8 d2 da 3f 5d c1 ec d6 2c f4 e5 3f
       0.41912671088104886 0.6860565374136446
000240 56 af 5d 64 95 37 f1 3f 1d 36 52 db e1 28 f1 bf
       1.0760702057404692 -1.0724810187560998
000250 05 05 c3 80 5d 08 e2 bf ab c3 17 71 4f 4d fa 3f
       -0.5635211481932464 1.6438745896996163
000260 73 65 4b b4 0d ae ea 3f 70 2d a3 ec 79 e4 e1 bf
       0.8337467690827637 -0.5591401693176703
000270 d4 9c 06 c8 2f 0d ee 3f 90 7a 91 6d f2 48 d1 3f
       0.9391096979860785 0.27007733058955186
000280 76 ed d1 56 28 a6 f6 3f ea 79 f7 4b 02 a7 f3 bf
       1.4155658141524703 -1.2282736747216583
000290 d9 3d a2 8a db 3d dc bf 13 68 ca 23 87 67 d5 bf
       -0.44127548731282 -0.3344438409345695
0002a0 89 10 5c fe 72 05 ed 3f 19 2e 8e 33 fc 85 d7 bf
       0.9069151847802611 -0.367552805277883
0002b0 34 b3 f5 aa c8 d4 fc 3f 98 07 e3 c4 db 8e f4 bf
       1.8019491842380377 -1.2848775568859079
0002c0 2f 7f 32 33 52 c2 f2 bf 3a 63 49 90 7e 77 dd bf
       -1.1724416732685758 -0.4604183587121501
0002d0 eb b1 98 87 f8 d2 b5 3f 3b bb 5d af 33 fe f7 bf
       0.08525040922604148 -1.4995610094299099
0002e0 ad fa 4c ed 2c be cb 3f eb a8 9d 99 c6 6c cf bf
       0.21674119555423968 -0.24550707340978958
0002f0 68 99 7a 65 8d 8f d3 3f 1c 39 3a f3 8f a2 e1 bf
       0.3056367388729968 -0.551094031385023
000300 e8 af ef be 14 2d f3 bf 23 d6 47 88 37 51 bf bf
       -1.1985061129043917 -0.12233302189982757
000310 80 e0 ab 27 40 b4 e2 bf 99 3e a1 a0 6e 65 fc bf
       -0.5845032477218552 -1.774763705692669
000320 15 a9 ec 86 02 e5 e0 bf 4b 66 5b 90 fe 80 d5 3f
       -0.527955306553198 0.3359981927620523
000330 6a 63 5a c0 07 10 cb bf 1c 3e 4b 60 8e 49 03 c0
       -0.21142670528640944 -2.410916092201445
000340 10 cd f3 45 fd dc 07 c0 88 19 6d 72 cd ca f3 bf
       -2.9829049553897065 -1.2370123357555673
000350 63 00 ae 3a b7 73 d4 bf f4 26 5e 1a 99 4d d2 3f
       -0.3195627282184487 0.28598620963076304
000360 74 d1 5c 0f f3 43 eb bf cc 65 cc 6e 79 4b e1 bf
       -0.8520446109819617 -0.5404631771117976
000370 2c 5a ed 68 0f 7e ce 3f 4b 8f d3 3c ac a0 fc bf
       0.23822205184360834 -1.7892267585784392
000380 7a 90 c2 f1 19 01 e8 3f ba e8 5a ac 6b 9a d3 3f
       0.7501344415545781 0.30630008536867204
000390 6b 59 82 24 68 e9 d8 bf 87 07 68 06 30 fb e1 bf
       -0.3892460209402972 -0.5619125485538782
0003a0 3f 9c 6d ed 24 fc de bf 07 b3 a0 bd d3 aa fd bf
       -0.4841396635660579 -1.854205837949111
0003b0 39 7a 0d 4e 86 63 e9 3f d9 ec e6 e6 21 ce f8 bf
       0.7933990025010821 -1.5503253001796138
0003c0 18 c3 2b ae 50 6a d2 3f 6b 63 7e 9b 40 7a f0 bf
       0.28773896225816165 -1.0298467706654388
0003d0 c8 23 06 f4 25 25 f3 bf e0 1a 5d 3c 5f 41 fe bf
       -1.1965693981348853 -1.8909599645573323
0003e0 10 04 c0 a4 81 70 e0 3f 0c d7 ae 5b 46 69 a6 3f
       0.513733693864312 0.043771933261650714
0003f0 10 4b b1 d6 34 88 f3 bf d9 0c 77 2f 29 d0 a4 3f
       -1.2207535158565328 0.04065064148337578
000400 c2 67 1b 9a fe a4 e1 bf 27 16 68 c4 b2 19 f9 bf
       -0.5513909349349364 -1.5687740013248772
000410 65 40 97 ad 19 e4 9d 3f 25 75 e3 34 ec 9b f0 3f
       0.029190446109908303 1.038067061038711
000420 48 44 3e 64 9e 51 d9 3f 6d f3 43 bb 75 07 fa bf
       0.39560661115053053 -1.6268212618881208
000430 c1 55 d4 21 7b 4b a8 bf bc fa 82 a3 c2 03 f2 bf
       -0.047450874213761825 -1.125918043820703
000440 cc 6e 59 e2 8a 76 cb bf 22 36 0b 55 7d 41 f4 bf
       -0.21455513050283626 -1.2659886667273743
000450 e8 2e 88 85 5b e9 f0 bf 33 13 b8 54 a6 da be 3f
       -1.0569720474331294 0.12052383011184702
000460 4a 54 9c d0 a3 b1 d9 3f ed ff 4b df 34 7d eb bf
       0.4014672791684616 -0.8590340005175655
000470 ee 4a 74 35 be 0b fc bf 81 40 a5 f9 f9 32 cf 3f
       -1.7528669441277844 0.24374317826960026
000480 6c fa ae d3 66 76 f4 bf d6 a5 c7 bd 78 16 dc bf
       -1.2789066571127945 -0.43887156041327324
000490 58 7a bd 8a 80 10 c0 3f 15 41 b6 db d6 21 06 c0
       0.12550360464497845 -2.7665230908388687
0004a0 93 87 a2 9a 49 2e f8 3f b8 33 e4 91 63 7d ed bf
       1.5113006630349204 -0.921556267685097
0004b0 da 4c 23 d2 f7 6f fb bf 83 22 70 dd 25 02 d7 3f
       -1.7148359497558006 0.3595060980301598
0004c0 c3 be 89 95 06 9c e8 3f 97 fd 69 7b 33 41 f8 3f
       0.7690461083093044 1.5159182377682094
0004d0 e5 47 13 be 45 ef ee bf 5b 66 88 3b 3b ef f4 bf
       -0.9667080604942809 -1.3084060979366743
0004e0 7e bb fe 9c 1b fe c4 3f 84 04 e8 fb 69 61 ef bf
       0.1640047566010842 -0.9806413574261943
0004f0 d3 70 05 2d 7c 74 d7 bf 07 4f 85 7a 05 fd fc bf
       -0.3664846839581177 -1.8117728029218954
000500 58 5a a7 0a 83 3d f9 bf 0c 55 a6 2b cb 7f fe bf
       -1.5775175491486575 -1.9061996178691656
000510 1c 6c b1 19 4b f5 f0 bf 29 27 20 56 34 6a de bf
       -1.0598860744128222 -0.4752322045393265
000520 99 f8 80 05 a3 7d dc bf 9b c0 78 c1 92 2f dd 3f
       -0.4451682618854505 0.4560286416408503
000530 9c b0 e8 c6 96 21 f4 bf 1b b9 5a 19 99 fb f3 3f
       -1.2582004327660234 1.248925303497862
000540 8b 55 22 d1 f6 65 c1 bf f4 bb 1b 88 32 94 fe bf
       -0.135924198261517 -1.9111810032588865
000550 90 3a f3 53 fe 03 e4 3f 06 be ce c7 8a 66 d0 bf
       0.6254874839449531 -0.2562586737867324
000560 b7 ac 99 1d 87 81 c8 bf 61 d7 b4 f2 6c c5 e7 3f
       -0.19145287461592428 0.7428498020515059
000570 43 e3 11 24 d9 37 b8 bf cc a6 ae 6a 7b 44 ca bf
       -0.09460217600452574 -0.20521490773290052
000580 c0 7b 56 6d 0f cc bc bf 60 d4 05 4f b3 eb bb bf
       -0.11248871249561798 -0.10906525306002512
000590 df e4 1d 50 86 20 e4 3f 2a de da 73 c5 d1 e7 3f
       0.6289702954083188 0.7443568480293312
0005a0 9e c2 1e 45 31 5e d2 bf 83 4c a4 39 38 fe f2 bf
       -0.28699905157103867 -1.187065339244129
0005b0 4a 1a d8 70 1a 9e f8 3f db c5 d8 4f 3d 60 c6 bf
       1.538599434659448 -0.17481199644821185
0005c0 c5 2b 2f d5 e0 42 d9 bf a5 89 23 e1 8e c7 05 c0
       -0.39470692461753415 -2.722440489670776
0005d0 1a 19 cc e6 97 95 f0 bf e4 46 d3 fa 11 b4 e1 bf
       -1.0365218177335636 -0.5532312296802187
0005e0 90 a5 54 4c b1 51 d6 3f a9 91 4f c7 47 83 e8 bf
       0.34873611883320965 -0.7660254376210577
0005f0 01 97 5f ba fb 87 ed bf 2b 14 9e be 4a b9 e0 3f
       -0.9228495254617145 0.5226186488149599
000600 f0 3c 6e 42 3f c4 9e 3f 93 89 f6 db e2 51 fb 3f
       0.03004549830398856 1.7074917404466745
000610 98 f3 fe c2 b1 43 de bf f7 3f a0 d3 c3 31 f0 bf
       -0.47288173716133874 -1.0121496454848946
000620 8a 4e fb b5 d5 c1 d0 3f d4 21 83 cc 99 af dd 3f
       0.2618307377972334 0.4638428208532137
000630 0b 8a 4f 7a 83 be bf bf 32 a6 26 49 c8 13 dc bf
       -0.12400075660801961 -0.43870741981172323
000640 fe b9 03 fd 39 5d d5 3f 60 39 b7 b6 12 26 e2 bf
       0.3338150950284272 -0.5671475952783958
000650 c0 b5 01 cf 04 8a c0 bf 4a 72 bf 52 bf 56 d4 bf
       -0.12921199901340508 -0.3177946384510376
000660 85 de 50 12 46 0f fa bf 0b 9d 32 65 41 c8 dd 3f
       -1.6287289348091758 0.4653476227053523
000670 fd 0a 98 6b 5b 17 e0 3f f3 05 a1 cf ae d6 e1 3f
       0.5028512097781853 0.5574564032796715
000680 c8 f1 f4 e8 1c 62 f1 bf 0d d7 1b 98 43 b9 c1 bf
       -1.0864533519626196 -0.13846630980668131
000690 cc f9 d6 77 67 d0 b9 bf 37 ec 54 b7 dd ea ea bf
       -0.10083624530577778 -0.8411701756189193
0006a0 ec af 56 bf 3f 3e d8 3f 5a 32 88 af c3 98 f5 3f
       0.3787993782559613 1.349795995399424
0006b0 91 55 e4 4e 95 ab de bf 31 f3 f5 57 8f a2 f3 3f
       -0.4792226095608721 1.2271874843565451
0006c0 db 30 5e 87 15 ef a4 3f c4 56 e9 5d f3 0d e1 bf
       0.040886566900640374 -0.5329529604157064
0006d0 a4 69 3c 5b e7 08 f4 bf de 98 2a fb 51 bf d2 bf
       -1.252173763647627 -0.29292726066559094
0006e0 e8 cf 39 7d 09 39 d4 3f ea ae 48 23 91 41 d4 3f
       0.31598126629910306 0.31650188871093
0006f0 11 48 8b 10 64 20 f0 bf 18 7b e0 97 0c 38 97 bf
       -1.0079079290630981 -0.022674748201207157
000700 29 7e 86 ba 26 62 f0 bf 63 16 2d 20 db 74 fd bf
       -1.023962715735147 -1.8410292870406912
000710 45 7e db 5f 5d e3 ee bf 7e 6b c3 2c 18 d8 e4 3f
       -0.9652544853415256 0.6513787149700503
000720 0d d3 86 e6 18 05 d2 3f 13 ef 81 d0 c1 ca d4 3f
       0.28156111252182897 0.32487531053605884
000730 a6 1e 24 52 e9 7c ee bf 0a 85 71 18 8e a3 c2 bf
       -0.9527479748075691 -0.1456163043358532
000740 8b 63 92 58 4b 74 ae 3f 19 47 11 ca 7b d4 f5 3f
       0.059481005250922335 1.3643758672009823
000750 83 16 3a fb 1b 2e f9 3f ed c2 c0 1f cc 94 db 3f
       1.5737571538496986 0.4309568700873985
000760 18 76 02 58 d9 d0 e7 bf 69 02 b8 18 1e 59 f3 3f
       -0.7442442625940116 1.2092572179391488
000770 31 0b 31 b2 04 57 f8 bf 3c 76 61 ec 59 9a df 3f
       -1.5212447128876188 0.4937958534627318
000780 31 08 37 c2 f5 fe c8 bf 93 41 2d 81 ac 48 cd bf
       -0.1952807615580823 -0.22878032977542925
000790 82 49 5d e9 c0 4c ee bf 20 37 53 60 22 28 f9 3f
       -0.946869331159448 1.572298408765569
0007a0 50 c5 ed 03 e3 e2 e7 bf 0d 1d 3e 0e 8f b3 fa bf
       -0.7464461399778575 -1.6688376003601804
0007b0 e4 72 57 fa 0a ab ed 3f c9 ce 5b a4 68 05 eb bf
       0.927129258106643 -0.8444102487687469
0007c0 fc 87 48 0e 2d ea ef 3f 23 da 43 07 43 dd ca 3f
       0.9973359374018851 0.20987737517107616
0007d0 24 77 ea 1e 91 41 f5 bf e7 0d 36 d2 65 41 f1 3f
       -1.3285075385715084 1.0784662448285134
0007e0 bd d7 9c 80 f1 81 f1 bf e8 19 c9 59 2d 0f f0 3f
       -1.0942244552547742 1.0037053591964824
0007f0 8c b6 38 94 e9 65 f7 3f b9 c2 77 3e 64 5c ed 3f
       1.4623809614089707 0.9175282688211929

input_gate_weights f8 [108, 81]
000000 fb 8e 2b 3c 31 9c ff 3f 20 6b 41 74 40 6b da bf
       1.9756328916927817 -0.4127961287792221
000010 6d 1c c0 eb bf c2 00 c0 71 0b 7b f8 aa ab eb 3f
       -2.0950926225664745 0.8647055485856595
000020 2b e0 5d 87 a0 c2 fa bf 96 46 00 c7 0d 9f f7 3f
       -1.6725163734208859 1.476331498477895
000030 02 14 bd 2e 0c 8e c3 3f 68 72 06 90 ef dd f7 3f
       0.152772448369575 1.4916835428222388
000040 6c 5d 38 76 78 48 f9 3f d3 f9 9c 58 bd 17 e1 bf
       1.5801930063224416 -0.5341479044653233
000050 44 2a 80 8e e7 3d f2 3f a5 e8 6d 2f 41 e7 ea bf
       1.14011340774836 -0.8407293249467968
000060 e9 b9 47 eb 5b 7d b2 3f 9b d1 a4 1e 25 0a f2 3f
       0.07222532743592293 1.1274768063568448
000070 ff eb 3a f2 9f 1d 82 3f 0a 1f 52 0d 6e 81 f0 3f
       0.008845567302492084 1.0315990944236
000080 c2 27 45 43 bb 3a c7 3f db c0 b6 3c 5d a7 fc 3f
       0.181479842993495 1.7908604022632548
000090 3b ce 5c 8a d6 ec f8 3f ba d7 2e 98 64 80 e0 3f
       1.5578217892442712 0.5156729671787084
0000a0 16 8c a3 02 6b 0b d0 bf 44 f3 83 6c d6 9c 03 c0
       -0.2506968999643403 -2.4515808561103842
0000b0 cb 6d 32 a4 8b 8d f0 3f 46 1c 6c ad 0d 19 c8 bf
       1.0345570005364262 -0.18826456992994361
0000c0 8f 7e 13 c9 85 2a e5 3f 4e 56 f4 ce 8a bd ec bf
       0.6614407470005562 -0.8981374780730194
0000d0 65 e5 57 52 65 c8 e7 3f 39 6c 67 9f 9f e9 d3 3f
       0.7432123764294088 0.31113424841686627
0000e0 4b fc 22 f7 2e 30 fd 3f 22 1c 82 a8 9c 48 89 3f
       1.8242635396743647 0.01234552754637092
0000f0 e9 25 31 0e bf b6 07 40 07 77 4e 1e ff 49 f7 bf
       2.964231596827393 -1.4555655654762079
000100 a6 d4 2b e3 23 0e b2 bf 0f 1c da bd 38 89 fe 3f
       -0.070528262101862 1.9085013786404976
000110 19 c6 e5 d4 89 cf f5 3f 68 71 47 ae fd 1c d1 3f
       1.36316855586154 0.2673944665855488
000120 3f 8f 70 0f 7b 76 f9 3f 50 4e 7b a2 23 00 f2 bf
       1.5914259532082295 -1.1250339838924397
000130 a7 9d d2 85 89 37 ed 3f bf 0b df e9 cb b4 e1 3f
       0.9130294431424105 0.5533198898123074
000140 06 62 17 07 2b e2 cf 3f 3a 6e 7a da 68 c5 e6 3f
       0.24908960195786295 0.7115978495743953
000150 29 a1 72 20 0f 68 e9 bf 85 c0 d9 10 62 2b f6 3f
       -0.7939525254960574 1.3855915697313617
000160 02 5e fb 03 f6 e2 c8 bf ea 8e 1e 0c 7f ea b2 bf
       -0.19442629999569766 -0.07389062925227177
000170 a0 29 70 3e b3 6e c0 3f 6a 98 ea 47 43 b1 d1 3f
       0.12837830113160198 0.2764442636784056
000180 4d 33 8c 0f 95 4a ec 3f 05 fc 08 c1 a5 7a f2 bf
       0.8841042808213416 -1.1549432316239756
000190 3c 0c ee 8b e5 12 d3 bf 84 1b 4a ec 56 8f e6 3f
       -0.29802836098696495 0.7049975028065636
0001a0 4e 0e 60 cc 23 10 cc 3f ea fd e3 47 f6 50 e6 3f
       0.2192425487447615 0.6973830608475826
0001b0 b9 59 0b 77 96 27 f7 3f a9 83 82 94 0c 6e e4 bf
       1.4471649789971777 -0.638433733041997
0001c0 ba 34 74 4a c0 57 ef bf d8 ef 73 6e b6 d7 d4 3f
       -0.9794618086031257 0.32566605364240564
0001d0 c7 56 1d c4 b9 db da 3f 3f 59 f7 dc 99 bc f1 3f
       0.419660989301843 1.108545172833672
0001e0 91 b4 81 43 3e 99 03 40 36 9e 85 e2 b4 6c d8 3f
       2.4498257898290565 0.38163492318423964
0001f0 f8 e7 0e 57 d6 27 e6 3f ca c2 06 5a 36 cd df bf
       0.6923629474979398 -0.4969001654781492
000200 ca af 7a 27 bd 45 ee bf 50 68 af 9b 15 ab ff 3f
       -0.9460130473212243 1.9792686540081554
000210 32 d5 c8 8b d6 5f ef 3f 1f 6a 53 a1 75 37 f5 3f
       0.9804489832082821 1.3260399152555988
000220 81 c6 7a a5 5e f8 fd bf eb 06 58 7e b4 6e f1 3f
       -1.8731371368452587 1.0895276007944925
000230 b7 36 0e 1f 88 1f bd 3f 4e fe ce 24 bc 7f b8 bf
       0.11376238592330422 -0.09569908045431783
000240 ef 6a 43 e8 af 3b f8 3f 65 fe 01 55 d0 1d f8 3f
       1.5145720551287771 1.5072787590615004
000250 71 9d df d4 72 58 ce 3f a9 fd 09 91 79 c0 d4 3f
       0.23707423586095502 0.32424773372619115
000260 dd 39 a8 3c 8a fb 01 40 94 d2 37 7b 9b 49 ba bf
       2.2478222597921858 -0.10268565901044219
000270 55 0d 8a 5a 58 8d f0 3f e5 b5 4c 46 26 9f fd 3f
       1.0345080887498928 1.8513548608856294
000280 03 54 54 28 b0 c8 f3 3f 1a 87 59 96 12 19 e6 bf
       1.2364961219184358 -0.6905606209295201
000290 92 77 14 4b 4e 91 e5 bf 66 02 18 85 a7 32 c6 bf
       -0.6739875284581436 -0.17342084883422898
0002a0 99 c0 ba a2 9e a3 d4 bf b6 03 1b 39 5f e6 d2 bf
       -0.32248655215790617 -0.29531078888617956
0002b0 33 dd a8 37 2e 99 ad 3f 2c a8 bd a1 18 b6 ea bf
       0.05780929974974427 -0.8347285422326016
0002c0 cf f2 47 49 a5 c2 ce bf b0 28 8f 88 b7 79 d0 bf
       -0.24031511381317336 -0.2574290116869049
0002d0 01 75 b9 73 10 0a cf bf 0a 4d 5a 2c 2b 1a d5 bf
       -0.24249463701827526 -0.32972220736810753
0002e0 c7 a1 eb 7d 5d d7 fc bf fb f9 80 e0 3a 95 bf bf
       -1.8025793951766091 -0.12337081891107708
0002f0 b9 fe 20 4c 6d b5 d0 bf 91 df ff b8 83 60 c3 bf
       -0.2610734218069229 -0.15138289006403885
000300 26 15 8b 78 2a 99 d4 bf 11 b4 47 fe 3f d0 d0 bf
       -0.3218485047512608 -0.26271056968727274
000310 21 dd 78 06 fa ea c7 bf a0 35 76 54 65 20 e6 bf
       -0.18685841861745536 -0.6914545678752582
000320 ca ef 1a cb af 0e f6 bf 84 eb fd bc 7e 8b e7 3f
       -1.378585618381282 0.7357782069442327
000330 09 bb c7 7d 08 4d e7 3f 4b 54 c9 3e 78 21 ef bf
       0.7281534630436407 -0.9728356577203469
000340 a1 22 30 93 96 9b f3 3f 64 a4 f4 74 dd 0a fa bf
       1.2254853963405952 -1.6276526039676122
000350 35 f6 e1 c6 c7 27 b6 bf d5 e6 99 e0 a3 ed a4 3f
       -0.08654450040372626 0.04087555042947392
000360 44 9c 2a 6b 64 65 e4 3f de bf 06 64 33 77 f2 bf
       0.6373769848913828 -1.1541017443923844
000370 72 35 9c e9 d7 70 f0 bf bb 50 f4 29 16 28 d8 bf
       -1.0275496602438037 -0.37744669053177987
000380 b0 95 58 2c 11 60 c1 bf 58 15 fc b7 7f da e9 bf
       -0.13574423470815367 -0.807922229142302
000390 e1 33 f6 2a 61 5e c5 bf c4 1d 72 06 28 5a c6 bf
       -0.1669427356504505 -0.17462635340437604
0003a0 46 b7 ee eb d7 63 b1 3f c4 f1 fe a2 a2 e2 e8 3f
       0.06792974004812632 0.7776654418481077
0003b0 d6 3a 84 e0 0e e9 c1 bf 43 71 e5 53 b0 ce f0 bf
       -0.13992486918183172 -1.050461127967609
0003c0 e3 81 6c 0d c5 79 e2 bf 52 2c 67 25 ac 5e c9 bf
       -0.577364469736548 -0.1982016737586912
0003d0 08 58 7b 36 ea 8b f3 bf 2c 00 51 1c f8 29 e8 3f
       -1.2216589096256047 0.755123191171156
0003e0 e8 13 7e 9e 14 9c fb bf 3d 8b 70 66 9a 2b fd bf
       -1.7256056014168681 -1.8231452943370663
0003f0 a8 d0 98 e0 54 d2 f3 bf d6 3e 4a b3 65 70 d4 bf
       -1.2388504765813568 -0.3193601847533335
000400 97 8b 9a e6 5c 04 e2 bf 80 fe 40 fe 15 53 b5 3f
       -0.5630325798014039 0.0832990403878231
000410 90 8b 6f 34 fb 03 e0 3f bb 4c a1 6c d9 2d f5 bf
       0.5004859947333546 -1.3236936801302324
000420 88 a3 60 0f 8a 94 e1 bf 63 a5 ab 71 b0 b8 e7 bf
       -0.549382238420649 -0.7412950725676349
000430 67 68 0f ee 4c 4b f7 bf ed df bb c8 3d 05 e2 3f
       -1.4558839129663512 0.5631398125251487
000440 a6 ad 6f ed 44 19 d4 3f f3 37 73 cc 94 73 e1 bf
       0.31404231249936243 -0.5453590386548498
000450 56 7d cc 58 f3 ec e4 bf c5 34 1f 9e 70 a5 f2 bf
       -0.6539246305800741 -1.1653906036984136
000460 49 ed b0 a4 a1 5f f1 bf 04 da 50 39 4e e2 a1 bf
       -1.0858475144621755 -0.034929699417649146
000470 b0 b1 4a b7 b0 27 ff bf bc a1 c9 e8 e1 1a e1 bf
       -1.9471900138697542 -0.5345315500863346
000480 47 c8 90 4f 07 c4 df bf 26 b5 ad 5f 33 cb e2 3f
       -0.49633963365625217 0.5873047703477468
000490 d1 d2 48 93 c4 c6 c5 3f 64 53 89 5d cd 3e 00 c0
       0.17012841407417637 -2.0306651408704273
0004a0 ee 41 44 ee 19 a4 da bf 6c 3d ad a1 00 bf c1 3f
       -0.4162659479925698 0.13864143270846385
0004b0 22 ab 76 0e 6c 62 d9 bf 84 02 d8 bf 65 b9 f8 bf
       -0.39663220798927246 -1.5452630514047607
0004c0 a7 ec 37 fe b1 e4 f5 bf 49 2d b4 fa fd 03 e3 bf
       -1.3683338098915472 -0.5942373177107722
0004d0 69 19 c1 e6 8d cd ce bf 4c a0 72 77 3d 89 e7 bf
       -0.24064801947879325 -0.7355029423679382
0004e0 94 26 f3 22 aa 91 02 c0 20 bd 3c d1 79 22 a7 bf
       -2.321125290913935 -0.04518490485349447
0004f0 9e ed 0c 6a 05 ce c1 3f 45 6f 26 0f 03 13 e4 bf
       0.13909976652381045 -0.6273207946683007
000500 b8 57 c6 61 66 d3 fa bf 4b 31 18 ff f7 05 d4 3f
       -1.6766113108946978 0.3128643027455566
000510 8c 9f 13 76 0c c4 b4 3f c5 4b 5e 92 6f 73 e2 bf
       0.08111646540385048 -0.5765912874943458
000520 8b bc 0a 25 57 bb f6 bf 80 c2 a7 0f f3 88 f1 bf
       -1.420737404532505 -1.095934926179467
000530 da f3 b7 ac cc 82 fb bf 73 38 3c da d8 f1 b4 bf
       -1.71943347423734 -0.08181529357918453
000540 81 01 58 5f cc 42 6d bf e1 aa da a2 0e b5 9b bf
       -0.0035718909882691 -0.02705786580069514
000550 07 6d 23 78 31 9c b0 bf aa a4 1f 8a 53 99 da bf
       -0.06488331969324089 -0.4156082962859481
000560 32 a3 2d e2 4e fd e4 3f 83 b6 fc 06 70 f7 fd bf
       0.6559214036507 -1.8729095719276365
000570 b5 58 02 ba f9 18 b6 3f e9 b2 b9 20 5e 53 e4 bf
       0.08631859580268293 -0.635176719586153
000580 27 2c c2 db 3e 0d f5 bf 62 5a 9b a2 da 88 eb 3f
       -1.3157337745967739 0.8604558158793447
000590 3e 9c 87 77 d4 02 e8 3f 4e 1c 50 b6 b8 ba e2 3f
       0.7503454527440068 0.5852931557464076
0005a0 b1 f3 00 4e 8c a5 ce 3f 73 a9 32 a9 d9 e0 e4 bf
       0.23942712601447405 -0.6524475388189742
0005b0 46 79 6b f6 f7 70 e0 3f ed 31 7b f6 d5 3a cd bf
       0.5137901127707571 -0.22835802588669143
0005c0 8d f4 81 7f aa a5 ec bf 90 76 da c6 ed 2c ed bf
       -0.8952229013808776 -0.9117344745497622
0005d0 64 8e bf cf 10 09 f5 bf 9c ec 65 7a 2a f3 eb bf
       -1.314713298336664 -0.8734333410824493
0005e0 c6 a6 a6 96 aa 9f f9 3f f1 55 59 7b 71 c1 d7 bf
       1.6014810452274317 -0.37118184133336657
0005f0 f7 75 a4 53 fd f3 f0 bf 55 05 5b a0 12 5c df bf
       -1.0595677630693652 -0.4899946752521676
000600 1e c3 11 0c 9f be ea 3f be 3f 70 99 66 c9 ed bf
       0.8357691989641329 -0.9308350560040635
000610 9f bf 69 aa 14 0d f7 bf fb f9 e5 17 03 14 b6 3f
       -1.4406935364495224 0.08624286015945153
000620 c7 33 15 5a 41 3c e7 bf 03 c2 ce 0a 6a c7 da 3f
       -0.7261053809576133 0.4184212785285412
000630 d4 64 01 0c 29 8d e6 3f 32 65 a7 4d f5 50 f7 bf
       0.7047314867478698 -1.4572651894907946
000640 b3 91 f2 52 3e 38 bf bf 05 58 10 d1 88 7b da bf
       -0.1219519569882042 -0.4137899438513844
000650 13 a1 19 68 7b cc b1 3f 14 e7 3b ba 14 00 f3 bf
       0.06952639857775393 -1.187519767262022
000660 97 ef b0 5a 21 90 e6 bf a9 21 f7 ac ad dc f0 bf
       -0.7050940295516622 -1.053876567502906
000670 ef e2 65 39 b7 04 f7 bf ce fc 3e 03 27 14 fa bf
       -1.4386512987240925 -1.6299200178907998
000680 48 a6 b9 73 6e 63 d7 bf 2d 96 11 47 3d 4b f2 bf
       -0.36544381428993633 -1.143368985759831
000690 b4 02 41 17 c4 ab df 3f 1f 03 27 32 bd 51 dc bf
       0.49485876341718016 -0.44248895547575445
0006a0 d5 03 ee 39 d9 30 f3 bf ac 07 7f e4 f9 60 f2 bf
       -1.1994259131317808 -1.1486758161195025
0006b0 71 e4 da 84 be fd e2 bf 44 29 1e 63 25 cb 03 c0
       -0.5934746355843697 -2.4741924041346994
0006c0 ff 1b b4 b1 3e f9 f0 3f ea 03 a6 72 fd 26 de bf
       1.0608508054299362 -0.4711297626127463
0006d0 94 71 86 b0 8f 72 f1 bf 8c 60 5c d1 16 6a cf bf
       -1.0904690642847514 -0.2454250833768622
0006e0 97 ab 4e 95 b1 ff f6 bf eb fc 57 5b a8 8f e4 bf
       -1.4374252159420615 -0.6425363334709834
0006f0 81 79 3b 6e e8 9b e9 3f d8 2b ad c3 c3 3b ca bf
       0.8002817299819044 -0.20494887403978512
000700 a9 47 cd 19 20 6f f2 bf c9 d8 33 df 58 5b 00 c0
       -1.1521302230725985 -2.0446031034181016
000710 85 b0 8c 75 f9 f0 e4 bf 9b b4 eb 9c 96 c5 a7 3f
       -0.6544158264055261 0.046429354338991057
000720 b9 79 b8 df 92 de c1 3f 14 e6 45 af b9 12 b5 3f
       0.13960491107805043 0.08231697587134362
000730 f5 cd 57 46 28 d4 d0 bf 08 a8 bb 96 d1 49 cd 3f
       -0.26294905538017527 0.22881526813517916
000740 b8 da b2 c8 5b 5a 01 c0 08 6c f2 14 8e 2c f3 bf
       -2.1691203765470526 -1.19837768728644
000750 e5 f0 0b e1 6c 8e e3 bf ce b7 4e fc a3 10 eb 3f
       -0.6111359019701267 0.8457813194161135
000760 b8 2f ea b4 ae 47 e0 3f 77 82 c8 dc 8b 77 01 c0
       0.5087502988330845 -2.1833722351732905
000770 d3 0d ee 86 32 0f d1 3f 46 4a e6 69 45 90 d8 bf
       0.2665525739359655 -0.38380561200861896
000780 43 6d 1e 1c f2 93 e4 bf d6 3c e0 86 0f b4 d3 bf
       -0.6430597829052335 -0.3078650300166833
000790 ba 73 ad 60 43 84 e4 3f 3f 0f f0 77 cb cb b1 3f
       0.6411454094155637 0.06951591184775639
0007a0 b0 cb 35 28 04 14 e2 bf 80 62 07 eb 32 d2 b9 bf
       -0.5649433884958537 -0.10086363065728143
0007b0 1c 9e d0 44 f3 b7 e6 3f 45 22 70 06 3f 60 c5 bf
       0.7099548667947064 -0.16699970068317974
0007c0 a7 0c 97 44 4f 8e f9 3f 85 fe 3d 71 3e 4b da 3f
       1.5972435645387948 0.4108425241356389
0007d0 7e 15 ef 60 18 1f df bf 35 78 b8 85 12 3e e5 3f
       -0.48627290216639796 0.6638271915178452
0007e0 55 50 4d 81 9f 58 cc 3f 19 03 22 3d 85 07 fc 3f
       0.22145456136297761 1.7518360507967314
0007f0 ff 00 5b 35 27 79 ec 3f 5c 7b 30 a1 ea 1a d8 3f
       0.8897892038440033 0.3766428541293203

output_gate_weights f8 [108, 81]
000000 35 67 6b 2e bb f4 f1 bf 4d 72 62 fd 00 a9 f2 bf
       -1.1222488225234433 -1.1662607095560305
000010 14 7a f6 57 c0 3e f2 bf 4f 5e db 2a c6 a7 e6 3f
       -1.1403201519057165 0.7079802357720356
000020 87 11 b3 2e f7 00 ff bf 65 f5 36 b7 c4 31 03 40
       -1.9377357315252952 2.3993009866377855
000030 31 49 c1 53 f6 53 c2 3f 8c 24 39 fe 93 fe e1 3f
       0.14318732347107635 0.5623264279648921
000040 04 ce 4e f9 bc 43 09 40 12 f1 31 3d 02 73 e9 bf
       3.1580752827810574 -0.7952891535965441
000050 aa c5 e8 d5 c0 4b f1 3f ee 81 7d 5d 00 69 d6 3f
       1.0809944492178638 0.3501587784758432
000060 1a 0b 68 fb d6 34 e0 bf a5 96 21 e6 96 57 e8 3f
       -0.506450167682803 0.760692071414003
000070 ed b1 d8 0a 07 1d f2 bf 97 67 0e 8f 52 9e d6 3f
       -1.1320867942514454 0.3534132382425183
000080 e1 e1 ee b4 70 16 d1 3f 55 61 3f 78 41 a1 01 40
       0.2669946448254717 2.203738154825411
000090 27 2e 94 03 aa 28 00 40 df 33 bd bd 0c 32 f1 bf
       2.0198555259319337 -1.0747191821749238
0000a0 1c 0a 1a 0e b6 1e da 3f 5f 02 34 c8 da 54 f7 bf
       0.40812446000214364 -1.4582164593158706
0000b0 d2 2c 83 df ee 1b f5 3f e4 e6 19 41 3f 3c b4 3f
       1.3193196040108899 0.07904429759392034
0000c0 be f0 ec f5 e9 04 c8 3f 7e cd b2 a8 fe fb e6 bf
       0.1876499605949728 -0.7182610793010296
0000d0 73 a4 d4 70 77 a1 b2 3f 41 87 84 43 52 b9 ea 3f
       0.07277628426221998 0.8351222342209682
0000e0 12 34 2f 79 ed 2e e1 3f a9 7c d5 88 62 7e d3 3f
       0.5369784705050071 0.3045889221447831
0000f0 af 3e ec 5f 57 b4 07 40 0a 00 56 9a d3 b7 d0 bf
       2.9630572790118417 -0.26121988365048365
000100 46 3b 0d b6 17 08 e2 bf d9 e5 88 8f 43 97 f1 3f
       -0.5634878688523279 1.0994296652628377
000110 ea cf 37 44 88 8d b8 3f 72 0e 29 58 30 ee e9 3f
       0.09590961137274659 0.8103257867700917
000120 54 7d d0 a6 95 93 f3 3f 39 e5 86 6e 54 95 fc bf
       1.2235313907802565 -1.7864574735124974
000130 33 dc 3d 2c 7b 1a f1 3f b1 30 22 79 0d 6a d3 3f
       1.0689651230038748 0.3033479388184431
000140 ba 51 f4 51 6c ee 64 3f 07 4a f0 a9 f4 34 e9 bf
       0.002555095255624998 -0.7877143210519656
000150 fc 1b dd 8b b0 a3 f0 bf 52 42 b0 63 81 8e f9 3f
       -1.039963289587603 1.597291364105463
000160 90 74 50 89 a0 cb f2 3f 4c 27 da ac 0d af e6 bf
       1.174713646301175 -0.708868825532798
000170 81 ce 6d e3 9b 09 e8 bf 9c 50 3f 60 dd 8f df bf
       -0.7511729661914189 -0.4931558074870368
000180 23 4a 59 82 dc 04 c3 3f 38 48 53 85 0f 8f ce bf
       0.14858585705458535 -0.23874086389565874
000190 02 6a 56 ed d4 1a c7 3f e3 1d 07 0f b6 0d ca 3f
       0.18050633991954618 0.20354343160418784
0001a0 73 e1 0e 63 2c 19 d2 3f ee 96 62 67 ba 10 f4 3f
       0.2827864615788009 1.2540840185624194
0001b0 d3 63 08 b3 17 09 f3 3f cd 97 a3 0e db 8e e6 bf
       1.1897198670833304 -0.7049384389799741
0001c0 d0 ea 58 52 29 21 fd bf 3b 95 ae 32 91 72 df 3f
       -1.8205960480396932 0.49136762570772746
0001d0 df 39 ac 39 9c 62 f3 bf a8 a0 8f bd 7b c9 e3 3f
       -1.2115747692911254 0.6183451368679203
0001e0 ff 5c 5b 98 23 3a eb 3f 98 f4 71 e1 52 f9 f1 3f
       0.850847051212355 1.1233700567675324
0001f0 1f f5 ce 46 0a 1c e1 bf 3c 10 ae 77 d9 2b f3 bf
       -0.5346728690125565 -1.1982054400441617
000200 6d d8 89 64 4e 54 f4 bf c8 16 18 e8 42 59 f1 3f
       -1.2705825736316243 1.084292322747773
000210 71 08 86 cf a1 36 eb 3f 67 20 d8 42 e9 64 fc 3f
       0.8504189542002348 1.774636517629938
000220 36 3c ee a8 7c 0e 02 c0 c9 7f de 35 67 d2 f3 3f
       -2.257073707361566 1.2388679603827646
000230 9e 9d 20 9f 84 04 e4 bf 67 06 ac ac 7b b8 bf bf
       -0.6255515201527719 -0.12390873876213392
000240 ca bd 87 ab 2d ff 01 40 64 23 27 1b 3e 18 e1 3f
       2.2495988274383523 0.5342093019799958
000250 ed 84 8a 81 72 11 eb bf 48 82 86 1a 3a 0a cb 3f
       -0.8458797960376195 0.2112496022719077
000260 4d cb a6 7c 96 87 fb 3f ba 0c 41 04 6f e4 f3 bf
       1.7206024998856322 -1.2432699361968802
000270 be f4 d6 92 c3 f4 f8 3f 9c d3 d6 61 c2 1e 04 40
       1.5597568260121046 2.5150191920933604
000280 1e ed 4a d4 62 07 f7 3f 48 d3 d1 9b 74 0c d2 bf
       1.4393032353098714 -0.2820102235485149
000290 f8 ae 93 7c 00 f1 96 3f 53 e5 bb db f5 6f f2 bf
       0.022403724292344912 -1.1523340781553386
0002a0 82 52 eb 5d 35 40 c8 bf 90 b9 31 6a d3 5a dc bf
       -0.18945948682689467 -0.4430435692837813
0002b0 d8 c2 d1 1b 0e 79 e2 3f dd dd 7b 16 c9 c7 e2 bf
       0.5772772353503468 -0.5868878783357406
0002c0 22 f3 ab 85 cf bc f1 bf 24 23 47 5d ea af da bf
       -1.1085963460493038 -0.4169870291630551
0002d0 24 8e f2 c5 c3 71 e9 3f 6d 82 6a 42 ec 00 d0 3f
       0.7951372972642656 0.2500563286394371
0002e0 f9 e3 39 a7 2f f2 f6 bf 57 1c e6 75 c0 59 e6 bf
       -1.4341274769087689 -0.6984560301506332
0002f0 ac 42 81 d9 3c bd ae 3f 01 ed b0 7e 0c 83 ee bf
       0.06003751902665519 -0.9534971689639918
000300 ad b4 ac 78 89 5c f5 bf 57 5f 75 66 37 f4 eb 3f
       -1.3350920404293831 0.8735615731375032
000310 83 f8 e3 8b fb ee ab bf 0b 59 87 0b e6 7a e4 bf
       -0.05455766756675564 -0.6400022721452684
000320 46 87 43 7e 61 72 fa bf ad 02 2d 79 63 ac df 3f
       -1.6529250080279367 0.49489676316810965
000330 22 e2 0d 13 ea 3d f5 bf 3b 54 17 b7 4a cb f8 bf
       -1.3276158088975838 -1.5496318008420207
000340 c8 7d 3c c2 bc d5 c5 bf 3d a9 7f b2 7f 13 01 c0
       -0.17058524593538338 -2.13452090694514
000350 9b 6c c4 86 13 a2 d6 3f d1 f3 92 0f 87 0f fb bf
       0.35364235077731515 -1.6912909134255083
000360 cd 3a b3 37 a2 63 f4 bf af bd 58 f1 72 dd ee bf
       -1.2743246246133595 -0.9645323480416915
000370 1e f7 ab a2 38 f4 e3 bf 64 9a f1 5c 3d 4e de bf
       -0.6235621621305858 -0.473525372281449
000380 fe 7a 34 8a 94 a0 f2 bf 5e 5f fe 38 5d 57 e9 bf
       -1.1642041586525802 -0.791914569202145
000390 e6 19 3a d6 f7 f7 f1 bf 7f 2d 1c 90 07 85 fe bf
       -1.1230390899887595 -1.9074779156970576
0003a0 6b 51 7b 3c 54 0d af 3f 76 19 76 c5 73 33 d7 3f
       0.06064856756498468 0.3625153950055372
0003b0 6d 06 a6 26 59 ad f5 3f db f1 7b 2b df 84 f8 bf
       1.3548213491161747 -1.532439393863675
0003c0 60 6a ff c2 2e 36 ce bf 2d 70 05 de 40 6d fe bf
       -0.2360285236489572 -1.9016731903748323
0003d0 d5 5e f4 4b 93 b8 fa bf c6 e1 c0 82 88 18 dd bf
       -1.670062348077342 -0.4546223904503929
0003e0 52 84 c8 35 91 0f f0 bf 18 57 1c 6a cd f6 e0 bf
       -1.0038005925091693 -0.5301272461390196
0003f0 de 63 da ff 50 87 ea bf 56 a4 0f 8d c1 5e d1 bf
       -0.8290181157236665 -0.27140845084665466
000400 3e d1 96 ec b4 44 f2 bf 36 12 76 d4 1c 02 e8 bf
       -1.1417741052401449 -0.7502578878052819
000410 59 f6 4e c6 38 d0 e1 3f e3 dc 21 36 b9 17 db bf
       0.5566676972591252 -0.4233229664454951
000420 d7 7c c0 e7 32 40 d1 3f f1 46 67 99 7f 13 d5 3f
       0.2695433867647358 0.32931508999636977
000430 c3 fa 14 d4 fd b8 dc bf 7f c6 74 c3 17 7f d6 3f
       -0.44879098616722163 0.3515071305037977
000440 83 92 69 e9 f7 05 d8 3f 88 7c 46 ff fa ab eb bf
       0.3753642825525178 -0.8647437082144203
000450 ac d2 00 6b c7 5f f0 bf 11 18 17 30 9c 46 f2 bf
       -1.023383539182002 -1.1422387960933558
000460 cb ba a1 06 e8 16 de bf 0a 94 4b df ec 12 e8 bf
       -0.4701480927241561 -0.7523102151141086
000470 95 5b dc 06 5e ea f3 bf 0d 69 0d 9e d2 e9 c7 3f
       -1.2447185771941112 0.18682320325280735
000480 ef be 89 b3 08 9d d5 bf 52 23 80 8f 4c 15 ef bf
       -0.3377095940877401 -0.9713499834771062
000490 f5 34 6f e4 07 b4 e5 bf 8e 2b b3 51 88 4c 05 c0
       -0.6782264196023379 -2.662369383125628
0004a0 23 7c b0 06 4a 6c b9 bf d4 7d 6a 1d c4 cc e1 bf
       -0.09930861151995933 -0.5562458586245449
0004b0 d5 d4 b8 e3 85 ca 93 3f e0 a6 43 3f 40 00 bf bf
       0.019327251457259848 -0.12109757942712518
0004c0 74 4d ba 4b f9 e8 d5 bf 16 09 b2 18 67 66 f0 bf
       -0.3423445930031541 -1.0250006642023144
0004d0 ef ad e0 e6 f6 ad e2 bf 80 a3 ea 9e 0a 01 05 c0
       -0.5837358960465603 -2.6255085387569466
0004e0 a0 09 05 58 62 8d d3 3f 74 34 20 02 40 b7 f1 bf
       0.3055044040267152 -1.1072387774504735
0004f0 53 3b c8 f6 5d 96 e6 bf a3 ce 96 25 a5 1f f1 bf
       -0.7058553523982972 -1.0702258556674813
000500 f2 78 5e a9 16 8a 01 c0 77 87 50 41 94 71 ec bf
       -2.1924260360675527 -0.8888646388697755
000510 1c 74 aa d5 45 4a f1 bf cf 3c fe c6 84 32 b1 3f
       -1.0806330057450912 0.06717710359793048
000520 26 a0 f1 f1 c4 1c fd bf 83 be 61 54 55 a9 e3 bf
       -1.8195237589770925 -0.6144205711443224
000530 2b e1 ce d6 eb 46 f2 bf 55 08 4b 94 bd 91 fc 3f
       -1.1423147574369732 1.7855811875056322
000540 87 f1 23 cc a8 32 d4 3f e3 a1 86 8d 59 aa e5 bf
       0.31559200225435585 -0.6770446552446255
000550 e8 0b 6c 66 13 03 d7 3f 62 ca 5b a4 9d 88 bb 3f
       0.35956273080972645 0.10755334150943832
000560 1a ae ff 6c 28 b6 d4 3f 39 8d 3e d5 e5 ab ed bf
       0.32361803669366085 -0.9272336163452685
000570 66 ac 2f f2 2b 5d b7 bf bb 1c f1 6b a1 b8 df 3f
       -0.09126543677091234 0.495643954669912
000580 d3 e6 4c 8e 8f 2b f5 bf 0f dc 7e d9 81 26 b1 3f
       -1.3231349524125349 0.06699382362317884
000590 42 62 4b bd db 6b e1 3f 5b 9f 4c ea 43 34 e2 3f
       0.5444163033635692 0.5688800407560665
0005a0 42 7a 5e 0d 0e f9 c2 3f 7e 0d 3d c5 f1 cd f7 bf
       0.14822555210862914 -1.4877793984058765
0005b0 31 0f a9 5b a2 1a ed 3f 3e dd 93 1c 79 ab 00 c0
       0.9095012464754061 -2.0837270958542424
0005c0 84 13 e6 e4 5f a7 d8 bf 2f a3 0c c6 7a d8 fc bf
       -0.3852157340373241 -1.8028514610579796
0005d0 f2 af d6 35 8c c5 f2 bf ee 66 17 c9 0b 85 f1 bf
       -1.1732294180937939 -1.0949819426663754
0005e0 23 c1 6a cf cc 47 65 bf 2f 0e 37 2f 3d 60 f8 bf
       -0.002597713489500235 -1.5234958500231064
0005f0 bd b6 89 f1 09 4a f7 bf bb 72 55 eb 8a 29 b9 bf
       -1.4555758891178094 -0.09829014058545742
000600 dc 53 d9 41 0e 53 e4 3f b1 cd 1d d1 04 c7 f0 bf
       0.6351386343109158 -1.0485885780916357
000610 41 42 6c 0a cd f6 f8 bf eb 65 95 04 19 29 b6 bf
       -1.5602541358131392 -0.08656460153488126
000620 49 63 f9 dc 08 57 fe bf 52 3f 9f 75 bd cc e9 3f
       -1.8962486869624675 0.8062426850610598
000630 d0 1f 9c 45 ef 05 ba 3f a7 33 99 54 c4 aa c0 bf
       0.10165305566272242 -0.13021139269622248
000640 b0 46 97 2d ad 0f 82 bf 16 38 40 af f9 26 dc bf
       -0.00881896300680593 -0.4398788653787745
000650 95 c4 f7 96 88 0c d9 bf 84 cc 4e 5f be 0f 00 c0
       -0.39138998740151837 -2.0076873250887406
000660 c7 bf 61 b2 b4 2a ee bf 0d 60 01 78 70 30 de bf
       -0.9427131160755317 -0.47170650214457127
000670 0c 11 71 ce 2f 95 de bf f7 a7 98 1d 15 ac e2 bf
       -0.477855636218252 -0.583506162457751
000680 da 6c c1 e0 72 aa ee bf 38 87 3d 76 85 23 00 c0
       -0.9583067312009022 -2.0173444020773807
000690 ba 81 06 9d b4 0b c8 3f c6 fa 16 c6 bf 30 b2 3f
       0.18785722415215195 0.07105635248351935
0006a0 bf 48 5d 9d de 31 f2 bf d3 d5 6f 4e 94 54 c8 3f
       -1.1371751925512823 0.19008115606236106
0006b0 f3 1b 9b 9c c8 d0 b0 3f 18 1a 18 b8 6f 46 fa bf
       0.06568578551660646 -1.6421963874032652
0006c0 32 eb 57 d8 c4 d0 e7 3f 7a b1 58 21 ee 54 a3 bf
       0.744234488054053 -0.03775734097539192
0006d0 35 bf b7 c3 22 71 fa bf ee bb 0f d3 ba 93 d8 bf
       -1.6526210446572354 -0.38401671039076646
0006e0 bc ff 41 8b 62 61 f6 bf b1 db 92 6d e5 79 f1 bf
       -1.3987756194837706 -1.0922598152371672
0006f0 7f a0 48 82 0a e6 d0 bf 94 39 a2 37 43 00 e8 3f
       -0.264040591459441 0.7500320517154244
000700 db 5a 36 4d 04 fb f1 bf 5f 9b af ef 3b df f7 bf
       -1.1237833992105866 -1.4920005190594663
000710 44 a9 3b dd 1c b2 00 c0 db c0 19 71 4a e9 e8 bf
       -2.0869691165764 -0.7784778794284891
000720 18 04 b4 1c 96 31 d3 3f bf 01 04 5e b3 87 e2 3f
       0.2999015121750417 0.5790650211566158
000730 e2 fa 3a 35 60 3a f4 bf 45 ea 29 51 82 e7 d8 3f
       -1.264251907283033 0.38913019109864805
000740 f7 a7 f8 d7 e7 7e ff bf 68 4d 11 c2 d8 ce e5 bf
       -1.9684828220729267 -0.6814998426802221
000750 04 af a8 8c 48 ab c7 3f 5c 4f 61 de b0 b7 d2 3f
       0.18491465442763666 0.29246160237129515
000760 f0 9e 8e da 97 f0 e5 bf 7e ae ef 4c 96 3e e0 bf
       -0.6856192845052345 -0.507640028253675
000770 67 49 91 a7 7b 06 b3 bf b6 4b e9 d0 63 08 f7 bf
       -0.07431767312053737 -1.4395483170126062
000780 46 d4 6c 05 ee 59 d5 bf 35 a4 ff e5 17 66 b9 3f
       -0.33361387758060734 0.09921407094192676
000790 dd 4d 26 65 fe ed 7a bf 99 8f 01 91 3d 53 d2 3f
       -0.006574624758644868 0.28633059654952714
0007a0 ed 2f bc 1e 56 cf f0 bf 58 8b 87 80 0e 8a de bf
       -1.0506192398634042 -0.4771763091250043
0007b0 17 db e5 ed ab d8 02 40 d2 6a 9a 16 7f 23 06 c0
       2.355796679093497 -2.7673322454332743
0007c0 40 95 ce da e8 5a e4 3f 42 33 dc b6 d4 81 e7 3f
       0.6360973619054349 0.7345985003936237
0007d0 f8 1b e0 7b bc 32 f4 bf 8d 99 e8 97 dc 35 f0 3f
       -1.26238678349341 1.0131498273782171
0007e0 98 e2 d2 42 5f 4f db bf 58 61 d1 6c ca c5 08 40
       -0.4267194893432502 3.0965775014303
0007f0 d1 bb 9b e2 c2 67 e5 3f 42 e9 9a 11 19 eb e1 3f
       0.6689161706871066 0.5599484771585497
