balderdash_lstm/lstm_model/models/lstm_model_10.npz (npz, 903256 bytes, 19 tensors)

forget_gate_weights f8 [108, 81]
000000 4d 41 de c6 24 28 da 3f ad fe af 32 11 06 e5 bf
       0.4087001745292767 -0.6569906225194778
000010 ee e0 b1 c7 af ba e9 bf 88 c0 e7 9b 30 52 ea 3f
       -0.8040388965883076 0.8225329442048102
000020 12 7d 57 d8 a5 f1 04 c0 53 46 1b b5 36 de c2 bf
       -2.617992105646075 -0.14740642397969114
000030 d2 73 dd 1d c1 9c e4 bf d6 d5 36 cf 59 8a fa bf
       -0.644135053949521 -1.6587770551972105
000040 12 3b d1 b5 d3 7a e1 3f bf c6 65 ea 23 bc c1 bf
       0.5462435294265069 -0.1385540861625056
000050 97 d4 d6 77 e6 c9 f7 3f 28 18 dd 17 d0 a9 df 3f
       1.4867920571535131 0.49473955469545894
000060 b5 37 71 e4 57 a2 e4 bf f6 db b0 3a 05 4e e4 bf
       -0.6448173009646242 -0.6345239778810299
000070 8c 37 ad b9 6c 29 9e 3f d2 e7 ac da e7 74 d7 bf
       0.02945489772110181 -0.36651035647412045
000080 21 99 f5 66 da 6d ea bf 87 73 fa 68 72 f6 d4 3f
       -0.8259098063397553 0.3275419259242018
000090 6b c0 35 5d 2b cb da 3f 69 52 7d 3e 9f 0d eb bf
       0.4186504755261981 -0.8454128475664905
0000a0 ce dc b4 70 fe 98 cc bf d9 fc 60 0b 94 ae f2 3f
       -0.22341900351759708 1.167621654938378
0000b0 37 a9 38 6b 6c b7 f5 3f a1 68 70 aa 41 14 d4 bf
       1.3572811306317598 -0.3137363590664198
0000c0 f7 13 19 91 f1 a5 ca bf e4 63 44 63 07 29 e5 bf
       -0.20818919739591 -0.6612584055720814
0000d0 11 72 c3 5a 9f 5d ea bf 6f 66 ad 06 fb e0 d2 3f
       -0.8239285252307714 0.29498172428211594
0000e0 8d 03 a4 d0 14 28 02 c0 a5 5d 7e fc b2 03 cb 3f
       -2.2695709514668523 0.2110503895644175
0000f0 27 59 af ee 22 d7 f2 3f 34 e4 ac e9 0e d4 f7 3f
       1.1775235484725017 1.4892720344489705
000100 4e d1 8b 92 2c 8a fd bf 41 2b 4d 82 72 7a fb bf
       -1.8462339138469193 -1.7173943605327653
000110 db 43 be 73 b7 7b ad 3f 13 82 c0 0b 67 e9 ce bf
       0.05758450782662524 -0.2414978797323931
000120 4b a9 12 51 84 95 01 40 16 97 d4 33 c7 51 eb bf
       2.198006280309675 -0.8537326824486822
000130 cd e4 c7 12 73 f8 e2 3f d7 89 76 d2 f3 73 ec bf
       0.5928283087552245 -0.8891543493849053
000140 83 dd ee 0c 26 a0 e0 bf 17 bb 97 26 40 7e d8 3f
       -0.5195493939017272 0.38270572441881384
000150 e5 02 12 88 57 67 e0 bf ea 50 00 71 da 6f f9 3f
       -0.5126149804710535 1.5898079313383797
000160 9d 83 e4 91 d9 48 ff 3f e3 1f 55 1b 26 93 c6 bf
       1.9552856158190715 -0.17636562666507336
000170 65 07 09 7b d2 41 ce 3f b6 06 76 10 2e 67 de bf
       0.23638373382169245 -0.47504760367892673
000180 16 3e 01 48 f9 78 bc bf d1 d6 15 d8 98 63 ed bf
       -0.11122091300898548 -0.9184078426757997
000190 5c d8 11 52 12 c5 fb 3f f8 ea 62 9d 6e 52 f6 3f
       1.735613174996181 1.3951250217348257
0001a0 82 a9 19 38 ef 8b d0 bf 47 7d f1 fc ce dc f9 3f
       -0.2585409210065778 1.6164083366964677
0001b0 6d f5 33 47 b1 d5 df 3f dc eb 55 57 97 56 e5 bf
       0.4974177546826784 -0.6668202119611766
0001c0 ec a7 ff d8 13 6a e7 bf 4f 91 6a 17 c7 41 d2 bf
       -0.7316989172224999 -0.28526475226160114
0001d0 98 b3 e5 f5 76 15 c3 bf 08 5f 56 e0 88 b7 e8 3f
       -0.14909255034163205 0.7724041349019624
0001e0 0e cc a9 bb 55 95 e6 3f a3 bb b0 b0 ec 39 c6 bf
       0.7057293572710266 -0.17364271762332092
0001f0 4b 7c 92 20 32 6d ed bf ff a6 65 84 fa f8 de bf
       -0.9195795665908774 -0.48394644669916426
000200 a6 09 13 40 cc f7 da 3f 6f 00 1c d2 2d a3 d9 3f
       0.4213743806577902 0.4005846549844198
000210 1d 8b d2 ab 92 c1 c7 bf 1c 32 28 52 44 4d e1 3f
       -0.18559487714545578 0.5406819920186225
000220 11 4d ce 8d 2d 0b e8 bf d8 32 ba ea 5c 41 d2 3f
       -0.7513644952436228 0.2852394382723964
000230 81 a2 fa a2 dc b7 ce 3f 60 38 d0 08 48 f9 e8 3f
       0.23998601873360673 0.7804298565040533
000240 43 13 af 23 95 02 f4 3f cb 43 c2 1d 08 89 e5 bf
       1.250630511655985 -0.6729775029399375
000250 39 70 1a d3 8c ad e2 bf a6 e3 e7 41 13 fc f5 3f
       -0.5836853144751394 1.3740418028303139
000260 30 a8 c1 c4 b1 22 e7 3f b2 ad 39 b7 41 b9 e8 bf
       0.7229851572894912 -0.7726143435115118
000270 8d 0f 84 3f e8 b9 e4 3f b3 5f 1e 40 77 36 cf 3f
       0.6476937523407159 0.2438496649817786
000280 37 78 6f 16 c2 be f1 3f 80 65 c4 5a 3f 08 ef bf
       1.1090718151458654 -0.9697567723080027
000290 4c 51 8f 97 bc 4f d6 bf 7f a9 05 ac 11 b0 de bf
       -0.34861674118771613 -0.47949640082392614
0002a0 10 83 dc b0 2f 6f e0 3f fd de 5c e3 0c 61 e2 bf
       0.5135725454639175 -0.5743469658545731
0002b0 00 e9 02 61 42 88 f1 3f 2f c4 0a 7c bb 48 f1 bf
       1.09576642890039 -1.0802569241898359
0002c0 4d b6 21 53 47 c3 f5 bf 62 f2 eb 7b 24 a3 e8 bf
       -1.3601754424411354 -0.7699148578972876
0002d0 10 f7 6e eb 88 97 b4 bf bc cd 39 0f c3 75 f3 bf
       -0.08043723819625037 -1.2162504763372075
0002e0 a3 9a 88 ce 10 7f c7 3f 3f d9 2b 7a 46 82 d5 bf
       0.18356523594521432 -0.33607637339391155
0002f0 e8 f2 4b b1 db dc c0 bf 1e bb 1d f6 71 a4 e8 bf
       -0.13174005658210963 -0.7700738722759046
000300 6d 9c d7 59 9f 15 ef bf e2 a8 74 1d 08 00 cb bf
       -0.9713894610148494 -0.2109384673906965
000310 07 e9 f9 41 e0 64 f3 bf 68 fa 4a 2e 48 c7 ff bf
       -1.2121279313274174 -1.9861528213802107
000320 c6 7d 72 ed db a2 e6 bf ba 32 85 a7 66 c4 d4 bf
       -0.7073802602425807 -0.32448736533551037
000330 e6 cd d7 b2 8c c1 c0 bf af 97 52 08 1f 53 01 c0
       -0.13090666515891697 -2.1655865335660205
000340 fa e8 4a 9d 03 d5 06 c0 ac 2e 87 1f 36 21 f3 bf
       -2.854010800217222 -1.1956082564892467
000350 02 ae 78 f5 56 aa bb 3f 10 1a 76 32 d9 e4 99 3f
       0.10806792729334094 0.025287049965777852
000360 c2 b0 11 1c 74 9a eb bf e3 80 1a 0d 51 c6 e4 bf
       -0.8626041935181308 -0.6492085700920395
000370 9d 4e 64 29 b3 37 ba bf 37 fb 38 b2 0a 2e f4 bf
       -0.10241241226713745 -1.2612406694240244
000380 dc 71 ac bd 1d cb e4 3f 0d 64 75 af c7 be e0 3f
       0.6497944550097219 0.5232885767865142
000390 20 a9 f6 85 1b ca cd bf 9a 65 22 c4 1f 72 e4 bf
       -0.23273033181369218 -0.6389311629056238
0003a0 3d 06 d8 aa 75 e1 ea bf dd 85 30 5e 7a a2 f8 bf
       -0.8400219284814693 -1.5396674803999908
0003b0 df 2b 24 a8 21 26 e7 3f fb d1 21 35 a3 a9 f4 bf
       0.7234047206887871 -1.2914154124711092
0003c0 57 92 38 8e fe 18 a9 3f b9 99 cf ce c5 89 f0 bf
       0.04901881681533798 -1.033635909896118
0003d0 92 c1 88 9a 3e e7 f0 bf 51 37 45 fb 2a d6 fe bf
       -1.0564561878673868 -1.9272870841263805
0003e0 ad 31 fc 8f 1f 69 db 3f 4d a7 0f 22 23 24 c9 3f
       0.4282912164788069 0.19641532099859163
0003f0 a0 a5 2e 2f 5b 83 ea bf 4c cf 84 3b 35 65 d2 bf
       -0.8285346910026199 -0.28742724239713335
000400 fc fe aa fe 99 1b e6 bf 2d e0 40 0b 26 07 fa bf
       -0.6908693288787329 -1.6267452659212822
000410 06 27 94 1b f5 01 8f bf 90 9e 73 53 a1 1d f1 3f
       -0.015140452293525463 1.0697339305715197
000420 24 a0 ef 11 2f cc d6 3f 50 8d 8b df d7 4e fd bf
       0.3562123942524542 -1.8317488414985128
000430 b0 cc 48 25 2d 5c b9 3f be b3 41 90 3f 38 f4 bf
       0.09906274948370952 -1.2637324938798282
000440 9d a3 85 fe a8 43 d2 bf 94 02 7c 8e ca b2 f8 bf
       -0.2853796468321493 -1.5436502042577205
000450 0a a1 fc ce 11 50 f0 bf c2 35 d3 e4 7e 9b d0 bf
       -1.019548233549417 -0.2594907030696413
000460 bc 38 6e c8 5b 09 c4 3f b9 de c3 fd 28 fd eb bf
       0.15653559958122354 -0.8746533352231928
000470 33 02 5a b5 ff 1b f5 bf c0 0b c0 a1 43 54 d8 3f
       -1.319335659413025 0.3801430778113932
000480 3f f2 10 62 4f e1 fa bf 6f b7 18 a4 0d f6 ec bf
       -1.680007346221046 -0.9050358014116976
000490 de 5e e9 68 8a 63 d3 bf 8e be 8e 96 10 af 03 c0
       -0.302950479939211 -2.460480858069622
0004a0 59 b8 2f 4c 2e 57 f7 3f f9 f0 a5 e7 4b 02 f4 bf
       1.4587843872100363 -1.2505606697805531
0004b0 5c 72 37 b4 28 dd fb bf 98 d0 58 e9 10 b8 d5 3f
       -1.7414938964567659 0.33935950076853194
0004c0 a1 9e dc a6 89 65 d2 3f a1 12 9a a4 22 07 f3 3f
       0.2874473695287439 1.1892420224914206
0004d0 63 99 19 29 15 14 e6 bf d1 e9 51 f7 7b 4b f4 bf
       -0.6899514963850318 -1.2684287701546177
0004e0 75 23 96 8f 74 21 bf 3f 96 5f c5 37 e9 d2 f0 bf
       0.12160423760918866 -1.0514919451288498
0004f0 93 f3 83 30 10 d2 a1 3f 57 03 a0 2f a7 c8 fc bf
       0.03480578033666073 -1.7989875660279802
000500 c4 49 ed 09 07 22 f9 bf a1 a0 f4 5c 7e 0d fb bf
       -1.5708074939508245 -1.6907943373753727
000510 ee 80 ca 8b 05 55 ee bf 86 9b 92 10 c6 10 e5 bf
       -0.9478786211293746 -0.6582975696263567
000520 55 1d 3d 30 48 96 eb bf c8 82 ae 8a b7 6c cf 3f
       -0.8620949690020249 0.24550527831617885
000530 d6 4d 24 7a 2e a7 f6 bf b1 6f 4b 68 76 5c f6 3f
       -1.4158158084072645 1.3975738595972695
000540 0b 01 fa ed 77 17 b6 bf d6 8f db a2 a6 25 fb bf
       -0.0862956005094057 -1.6966921197535973
000550 41 b8 48 af 1d 2b d0 3f de a7 5d 39 1f 5e cd bf
       0.2526315891035474 -0.22943487454477823
000560 f0 2f 8f b9 77 a6 d0 3f 43 77 49 70 cc 61 e1 3f
       0.2601603805640016 0.5431883042435647
000570 c7 34 92 ed ce cf c6 3f 5e 12 11 72 f6 4c d9 bf
       0.178216806413195 -0.39532242907833914
000580 59 1c 27 00 ce d4 cf bf 0c 3f b0 bc f5 5b cc bf
       -0.24868178374728947 -0.22155639375022707
000590 4b af 77 6a 42 08 ca 3f d8 46 f1 74 44 cc b8 3f
       0.20337705801591208 0.0968668733123893
0005a0 60 bd 03 fd 96 8c ea bf 2b 04 46 ae 09 1b f2 bf
       -0.8296618406001635 -1.1316010291632306
0005b0 7c 4a 59 1f e0 8a ea 3f 06 84 ca cc 7d ee a8 bf
       0.8294525730401143 -0.0486945450295551
0005c0 62 4e 8f e8 28 46 d4 bf d1 1d 7f f8 4e 74 04 c0
       -0.31678221426884623 -2.5567912496369236
0005d0 a4 c8 0a 58 6f c0 f2 bf 2c 09 3d b6 24 9c d2 bf
       -1.1719811858315916 -0.2907802371666033
0005e0 f3 5a 18 aa 7a ae e1 3f fa 52 cb f0 da 9c dc bf
       0.5525487253351841 -0.4470736838823509
0005f0 1f 86 1a 96 cb 3d ef bf 3e b3 df 0a 7c ca d9 3f
       -0.9762933665953745 0.4029836755933508
000600 24 fe c1 59 d0 6f cb bf 38 19 a6 ab 6f 57 f5 3f
       -0.21434978850082687 1.3338467316658136
000610 5d ee c7 3b d7 83 d8 bf 46 47 8d 4f aa c8 e9 bf
       -0.38304692113863387 -0.8057452729937971
000620 ef 9c 2a 4c 6c 12 aa bf 36 0b 5c 70 7e 45 dd 3f
       -0.05092180661932299 0.4573665711651985
000630 8a 57 f4 0b 03 55 d1 bf c8 1c 01 80 42 a1 d3 bf
       -0.27081371467044646 -0.30671751499580724
000640 1f 31 ef 8d 38 61 db 3f 54 36 76 a5 5f 75 dd bf
       0.4278088937833377 -0.460288917144543
000650 65 c0 71 de a8 ce b7 bf 60 50 72 33 c8 9d e3 bf
       -0.09299712591905658 -0.6130105023207868
000660 6d c6 ee 8c e9 3b fe bf c5 24 84 23 60 d9 d6 3f
       -1.8896270280059995 0.3570175501668696
000670 d8 b7 15 84 e9 c6 d6 3f 3a 99 25 ba c4 41 d8 3f
       0.35589063548002065 0.3790141885605355
000680 d9 b6 87 0b dd 8a f2 bf a5 80 f4 60 bb eb c7 bf
       -1.1589022112270213 -0.18688146814475207
000690 f0 19 e8 09 ac 22 d4 bf c7 4d 91 67 f2 d8 e9 bf
       -0.3146162125343883 -0.80773277500196
0006a0 f9 20 1b 29 68 49 d0 3f e3 12 5b 6b 58 a9 f7 3f
       0.2544804002213961 1.4788440888962036
0006b0 db 0b 76 73 1b 81 dc bf 79 a7 0b e0 1d b5 f0 3f
       -0.4453800799894318 1.0442179443147934
0006c0 7f 7e 4c 76 ab 02 cb bf f2 30 d7 7d b5 35 e1 bf
       -0.2110189750319371 -0.5378062684845004
0006d0 90 80 c2 b5 ec ed f1 bf 19 d7 e5 84 b3 05 ce bf
       -1.1205870723715954 -0.23454898823882145
0006e0 d6 12 0f 50 bf 25 d1 bf 46 6c 26 f9 fc a5 73 bf
       -0.2679289132905017 -0.004796970535973227
0006f0 41 d7 11 3a e4 4a ec bf 9a 83 83 ea 45 72 c2 bf
       -0.8841420301602981 -0.14411233855119293
000700 0b af fd 61 26 a7 f2 bf b9 6f ac 40 9f 5d 02 c0
       -1.165808089043767 -2.2957139065383356
000710 31 45 5e 56 fb b8 f3 bf 73 fb 2e cf f4 0a df 3f
       -1.2326615690001967 0.48504371865049406
000720 21 46 a5 d4 d7 2d c6 3f 3b e8 12 1d f8 2d e1 3f
       0.17327402003370287 0.5368614738320113
000730 72 9e 72 dc d0 88 f2 bf da 07 a3 63 4f 1d c4 bf
       -1.158402310489603 -0.15714447369651802
000740 39 80 c4 7b 28 ed d4 bf 85 a7 6b ae 03 65 e8 3f
       -0.32697498404195674 0.7623308569575192
000750 69 b8 ed 12 07 51 f2 3f a2 86 83 37 db 8d d0 3f
       1.1447821368597266 0.2586582224013033
000760 be 18 d4 9b a1 9d e0 bf 26 03 cd e6 a1 35 f2 3f
       -0.5192421000981751 1.1380938544900316
000770 0e 50 45 72 22 44 f7 bf 2d 1d 67 fd 8c a3 d9 3f
       -1.4541344131184846 0.400607345069562
000780 1f e9 5f b4 96 20 d0 bf 07 7f ce 22 29 f8 c9 bf
       -0.2519890557738495 -0.20288576316396975
000790 29 46 cb c4 e4 fe e3 bf a3 7b ad b1 b8 42 f5 3f
       -0.624864944804533 1.3287894192251108
0007a0 60 ff e1 5c 20 b8 e8 bf 65 26 30 bb 35 0d f6 bf
       -0.7724763692967649 -1.3782250701937298
0007b0 85 74 9a 9d e5 81 e8 3f 83 71 10 fd b8 7c f5 bf
       0.7658565595808261 -1.3429498563119473
0007c0 ec 56 a4 46 e5 19 f2 3f f5 78 87 cb 35 84 d4 3f
       1.131322170205233 0.32056946636102107
0007d0 03 b0 2a c2 62 27 f3 bf e4 63 48 02 ce 7a ef 3f
       -1.1971156677855113 0.9837408108315882
0007e0 b0 f2 23 3f 59 b6 f1 bf a6 9b 5d 93 c8 cd eb 3f
       -1.1070187059805612 0.8688700559840654
0007f0 62 41 87 95 50 06 fa 3f 10 b9 6a 8c e6 a2 e7 3f
       1.626541694731792 0.7386353247182189

input_gate_weights f8 [108, 81]
000000 f0 fe 1d 1e a5 d1 fb 3f f4 ca 78 9e fb 68 e8 bf
       1.738682859082413 -0.7628152938035258
000010 36 3f 5a e1 fa a0 fd bf 5b 06 ec 2e c7 14 f1 3f
       -1.8518017580826842 1.0675727684869318
000020 b2 b5 3b e6 21 ac f9 bf 67 46 a5 f3 27 8b f8 3f
       -1.6045245164381012 1.5339736478239503
000030 3b f8 66 19 0d d4 bd bf 76 16 8c 0a 15 7e f7 3f
       -0.11651689405604852 1.4682817852020924
000040 c2 13 46 7a b5 97 fa 3f 3a a6 1b 3e 3b 43 df bf
       1.6620383049314431 -0.48847848000750427
000050 cb 61 3b 08 8b 19 ed 3f 7c f2 f3 f1 c9 75 e1 bf
       0.9093680535107124 -0.5456285215037293
000060 4a ac 2b ff 4d d9 cd 3f 01 c0 c2 5d ca 69 f7 3f
       0.2331941123914894 1.4633277571228975
000070 ec 4c 0e 7d 08 36 79 3f 6d cb 8b f9 23 e1 eb 3f
       0.006155045660210617 0.8712329744288191
000080 81 a9 2e e4 d0 1c b8 bf 1a 9b 99 96 bd 99 fb 3f
       -0.09418969698768899 1.725034321099605
000090 7e 04 d6 aa ac aa f9 3f d5 29 26 dc 97 28 c4 3f
       1.6041685746461378 0.1574888062426242
0000a0 cc b5 97 17 7f 7a c6 3f 88 4b aa 43 0d 1c 01 c0
       0.1756132950971917 -2.1386971746773646
0000b0 03 12 3f 76 88 34 f7 3f 04 d2 53 c6 48 e2 d8 bf
       1.450325452709081 -0.38881129615700183
0000c0 1c 2e 17 b9 6f 18 e0 3f 0e bf d9 05 e1 83 ea bf
       0.5029829611825707 -0.8285985101956344
0000d0 77 67 32 49 e3 a0 df 3f 88 08 c5 8b 92 ab d4 3f
       0.49419481418737327 0.32297195100193976
0000e0 d8 70 c1 63 59 11 ff 3f 31 b4 cc 90 56 ca c0 3f
       1.9417356392578338 0.13117487020773091
0000f0 f7 90 60 6d ad e2 02 40 81 84 d1 2a 40 e9 fa bf
       2.36068234873721 -1.6819459602923248
000100 94 62 de 33 e1 65 b5 3f 32 99 90 e2 0b 05 01 40
       0.08358581081700783 2.1274640751245437
000110 b8 9b 76 3a 46 d6 f6 3f e7 9f dc 5b cc dd cb 3f
       1.4273130687449633 0.21770624623718435
000120 a1 5d 3a 00 e5 53 f4 3f de 43 e9 af 09 6b ee bf
       1.2704820641427903 -0.950566142632052
000130 dc 11 05 a8 10 d3 f3 3f 8c f6 dd 3b 18 5e e8 3f
       1.2390295565866074 0.7614861649778546
000140 5b 0c 48 aa 60 26 d5 3f 2c b5 31 04 0e 0c ea 3f
       0.3304673827080415 0.8139715272824666
000150 95 8b cd 49 74 5c ef bf fc de 72 1d 0f 69 f6 3f
       -0.9800359193289859 1.4006491804447583
000160 95 bb 1b a7 b4 1d c1 3f ca bf 59 f0 07 e6 97 3f
       0.13371904525362469 0.023338436169467326
000170 9e 0d b7 fa 42 a1 d5 3f c7 ec 3e 32 92 01 dc 3f
       0.337967629279058 0.43759589106384705
000180 a3 ba aa 7c 08 e3 e4 3f 9c 92 33 0d 96 3b e9 bf
       0.6527140078449815 -0.7885236986008581
000190 aa 40 4a 9f dc a4 ce bf 0c 7c eb 8a d7 a5 e4 3f
       -0.23940618303141054 0.6452443803099199
0001a0 21 80 33 91 78 4a da 3f 26 0f a6 96 e0 7d eb 3f
       0.41079534702112325 0.8591158811909494
0001b0 21 ee ec b8 ac 9e f3 3f bb 08 aa b4 aa c7 eb bf
       1.2262389396336248 -0.8681233910176823
0001c0 e6 c9 a7 99 be ae ef bf fb 0e cc 06 40 04 e3 3f
       -0.9900811196405896 0.594268811488717
0001d0 58 8e b6 86 bc 88 db 3f a4 7a 32 0e 15 ef f7 3f
       0.43022072940423106 1.4958696894242758
0001e0 f5 2e 65 ba 34 05 02 40 20 bd 54 22 b8 db bd 3f
       2.2525419771317226 0.11663390005263752
0001f0 52 88 6a 00 52 f9 e5 3f 37 eb b6 2e 76 e6 e4 bf
       0.6866846092345986 -0.6531325256722543
000200 05 76 9a b6 60 d4 f2 bf b6 5d 1e 55 33 21 fa 3f
       -1.176850045484913 1.6331055951066964
000210 82 a2 71 37 dc da ea 3f 59 3d 2f c7 a8 78 ee 3f
       0.8392163355720899 0.9522289171526764
000220 d0 94 1c d5 e9 4c fb bf 04 bc 99 1b 08 53 f1 3f
       -1.7062776875184689 1.0827714040894998
000230 35 1c a5 1f d0 c0 d5 3f 17 fb 9c 36 9a 56 8f 3f
       0.3398933705361203 0.015301899711287299
000240 b1 d5 57 15 db 26 f6 3f 2a 2a 50 5a 62 31 f0 3f
       1.3844862779345528 1.0120566871506846
000250 0e 4b 90 1b d7 c9 d7 3f ad 37 8b cf db 0e 9a 3f
       0.3716943520714019 0.025447306196660403
000260 ba c6 81 33 87 a0 02 40 9e ff 18 57 33 51 d0 bf
       2.328382875822027 -0.2549560881197922
000270 9b c0 39 e4 47 7b f5 3f cd 2b e0 cc 51 e8 f7 3f
       1.3425978579580604 1.4942186358409686
000280 0c fb 0c 31 36 a5 f8 3f b9 00 1d 3a e3 9c e4 bf
       1.540334884266204 -0.6441513190293541
000290 81 f7 e2 d8 fd 37 f0 bf 4e 3a f5 15 b9 7b 94 bf
       -1.013669821942557 -0.02000321575661195
0002a0 b6 5a 46 b0 f1 21 d9 bf 47 ac 16 c9 e4 3b e3 bf
       -0.3926967832025342 -0.6010612418662128
0002b0 e8 90 dc 70 9f 8e bb bf c9 36 1f 1b 87 b3 ef bf
       -0.10764500146303002 -0.9906650094723882
0002c0 1b b0 af 58 b7 e9 e5 bf ee a5 6f 10 43 cc db bf
       -0.6847798092035221 -0.43434216122713465
0002d0 5a 66 67 d9 32 97 b6 bf b2 bf c8 f2 c4 77 db bf
       -0.08824460799896752 -0.4291851397456369
0002e0 05 e3 76 d1 63 fd f7 bf 72 e3 b7 04 9b fd d1 bf
       -1.4993627721980272 -0.28110385380528335
0002f0 92 5e 9d a5 c1 bd e2 bf c5 b0 10 4b f2 17 b3 bf
       -0.585663627115496 -0.07458414394995135
000300 39 71 7f ea 1c f3 de bf 90 f4 3f 14 f2 9b b4 bf
       -0.4835884370820796 -0.08050454134350304
000310 1d a7 4a c3 4e 8c c0 bf 1b c5 0f a3 88 05 d1 bf
       -0.1292818502018286 -0.2659627525709582
000320 05 f2 be ce 3f c5 ee bf 0d 45 ef 16 74 8a db 3f
       -0.9615782773976781 0.43032552947723063
000330 ca 83 0f 7e 50 c4 db 3f 71 c8 ca a5 7b e9 ec bf
       0.43385708151441504 -0.9035013425948489
000340 f5 ad b5 ac 46 8b f1 3f 3b 31 15 4e 1d 93 ed bf
       1.0965029474708647 -0.9242083096556039
000350 f5 8d 87 09 5a e5 ab 3f ab 79 f0 2c e1 41 dd bf
       0.0544841896660521 -0.45714597118958505
000360 da a4 9a 1b e8 39 d0 3f ef 0f 4b 72 16 b5 ec bf
       0.2535343427249025 -0.8971054298676772
000370 05 01 6c 41 98 ff e7 bf 3b fc 29 43 26 f9 b9 3f
       -0.749950530793314 0.10145796909090248
000380 60 81 07 97 da 08 dd bf 83 16 e4 c5 69 35 ed bf
       -0.4536653971572573 -0.9127701630647639
000390 d4 a2 83 3b 88 f8 90 3f 74 a6 ab 80 14 ed d5 bf
       0.01657307494397993 -0.3425952202365814
0003a0 80 72 c1 06 a7 58 a7 bf 61 a2 93 04 64 8b e3 3f
       -0.04559823949305031 0.6107654656780818
0003b0 bb 67 02 8e 8d 36 c4 bf 98 13 f7 83 e2 94 ea bf
       -0.15791482385685449 -0.8306744172519869
0003c0 9c 66 4a 51 a8 3f e0 bf 4a e1 08 30 81 59 ea bf
       -0.5077706897456724 -0.8234258592774861
0003d0 0d 71 fc a1 3f 86 f0 bf 57 4b 00 29 0a 77 e4 3f
       -1.0327755286771805 0.6395312119296744
0003e0 eb b2 5e e4 35 ea fa bf 4f f1 3a 3e 3a 57 f3 bf
       -1.682180301733008 -1.208795779311078
0003f0 07 76 cd fa 9a 21 f3 bf 14 b4 42 fc 93 37 e0 bf
       -1.1957044407821529 -0.5067844321216648
000400 c1 da 84 c1 f0 cc eb bf a5 6e 21 40 e3 9a 73 3f
       -0.8687671451251263 0.004786384293847289
000410 01 c7 42 ef c3 53 c6 3f a0 13 61 8c e2 b9 f2 bf
       0.17443131621035238 -1.170382068973801
000420 1a 17 97 9e ff fe c3 bf 6a b3 a2 10 e7 fa dd bf
       -0.1562194370619004 -0.46843887924733585
000430 73 64 a9 34 88 68 f0 bf 47 75 da 38 40 37 ca 3f
       -1.0255205208871103 0.20481112266581133
000440 02 3b 92 50 68 32 d3 3f 75 b3 5a 45 4c d9 f1 bf
       0.299951628382516 -1.1155512532379508
000450 b5 31 6c 20 20 08 e3 bf 07 23 90 64 ef da f3 bf
       -0.5947418816809235 -1.2409509590381178
000460 f8 c8 c0 1e 82 95 f3 bf 8c 3e ab bc 9f 2f a5 3f
       -1.2240010453502332 0.0413789670761818
000470 f6 8c 1a bf 6e c6 fc bf 11 6e 3f 5f b8 39 e8 bf
       -1.7984454598416142 -0.7570459232624122
000480 3d c8 2b 5e 85 7d d7 bf 55 ff b0 b2 47 ed dc 3f
       -0.36703619190587117 0.45198242616969725
000490 16 51 1b 39 c9 4a d6 3f 15 6d ce 61 94 9e f5 bf
       0.3483145768816639 -1.3512157269058822
0004a0 c6 a3 a4 44 aa 7d e3 bf 9f 0c 03 21 74 42 9c 3f
       -0.6090899792371764 0.027597250475775877
0004b0 8b c6 19 db 34 c5 df bf 9b b3 5f 3b b9 f0 f1 bf
       -0.49641152760077806 -1.121270400933304
0004c0 3a bb df ac 52 2f f7 bf 8a eb 7f 65 1c d0 de bf
       -1.4490534546745963 -0.4814520827491654
0004d0 f0 c9 6c 43 b9 6e de bf 4d c3 67 2e 25 85 eb bf
       -0.4755080374190177 -0.8600030809740048
0004e0 a3 fa 40 c8 d3 93 00 c0 67 d8 1b 4b cc 70 bc bf
       -2.072181286318782 -0.11109616121015763
0004f0 d1 ff 90 2f ca 00 c5 bf e7 17 2f cd a3 d4 e5 bf
       -0.16408660242632192 -0.682207012891692
000500 4c d5 8a f9 6e 79 f5 bf bf 7e 18 0d ae d1 b0 3f
       -1.3421468494173778 0.06569946117132995
000510 6e 23 11 76 82 fc 95 bf 72 24 be 77 bf fb ef bf
       -0.02147106023429351 -0.9994809473729573
000520 8f be c8 de 34 cc f3 bf 2f 8d 5f 70 ab 1a f0 bf
       -1.2373551085001144 -1.0065111531810762
000530 69 58 57 89 a9 a9 fc bf 75 d0 bf 0c d5 74 a0 bf
       -1.7914214482202857 -0.03214135914450448
000540 ec 3b b3 56 09 90 cb bf 67 e7 1d cf 7b 02 dd bf
       -0.21533314450650154 -0.45327658869029225
000550 df 88 57 04 88 99 82 bf 7e 00 29 75 77 70 d4 bf
       -0.009081900246148354 -0.31936441842481844
000560 82 56 4f 03 b2 1c e1 3f b9 8d 51 2b d0 50 f6 bf
       0.534752851929355 -1.3947297756320565
000570 c1 38 97 88 6d 1a bb 3f 02 46 ca fe 93 99 e7 bf
       0.10587200722440838 -0.7374973274583569
000580 19 7d f2 3f e8 4e f1 bf 29 04 89 10 b7 c1 da 3f
       -1.0817644594133695 0.418073431155849
000590 a7 2f a0 36 df 7b da 3f 2a c8 d9 d0 cd f4 e2 3f
       0.41381054243606247 0.5923832968821945
0005a0 b0 92 51 dd b4 d6 e4 3f 5f b8 ba f4 0a 8e e4 bf
       0.6512092898015762 -0.6423392085905667
0005b0 e9 92 fa 8a cd 27 dd 3f 7e 96 ba ef f5 39 d6 bf
       0.45555437633656354 -0.3472876397230279
0005c0 3f 58 22 b7 26 9e df bf da 79 4a 90 85 0a f1 bf
       -0.49402778515048235 -1.0650687824596532
0005d0 56 29 be 4c 1d 70 f1 bf 5c 41 66 7b 87 62 e6 bf
       -1.089871692444452 -0.6995274934907161
0005e0 15 db 55 95 d3 da e9 3f 4a 07 be b5 eb 26 d9 bf
       0.8079622189241912 -0.39300053356429443
0005f0 82 58 79 b5 c4 20 e6 bf 01 e6 4d 16 9a 11 d7 bf
       -0.6915000481046862 -0.3604493348899212
000600 e1 64 40 b2 b1 b0 eb 3f 2f c5 17 22 47 63 f4 bf
       0.865319107196367 -1.2742377597572376
000610 32 fe 65 ea 71 1c f5 bf 63 45 38 ae 60 70 c9 3f
       -1.3194445758998765 0.1987419939692173
000620 5b d0 b4 7e 70 20 f0 bf 06 99 b9 df 58 8c c9 3f
       -1.0079197835412035 0.19959555553504787
000630 e9 37 7d f5 3b 73 e1 3f aa f0 c0 b9 a2 bb f1 bf
       0.5453166765889793 -1.108309484100611
000640 6a ab 03 cd 28 d0 c5 3f a0 29 21 63 41 da da bf
       0.17041502008882087 -0.4195712535917213
000650 51 d3 70 30 b4 0d ad bf 53 6a 4f 4a 83 93 ed bf
       -0.05674517718617856 -0.9242569400187882
000660 c0 b9 f5 5a 95 d3 eb bf aa af 24 b9 6c 9f f0 bf
       -0.8695780541000246 -1.0389220459137314
000670 f2 9a a0 3d 88 d1 f2 bf 52 e6 48 ed 86 f4 f6 bf
       -1.1761553199118535 -1.4346989888130293
000680 fb b8 7a ae b9 76 d0 bf db 0d 95 24 67 5d f4 bf
       -0.2572464183712239 -1.2728034428590635
000690 ac 60 cd cf 00 49 d5 3f f7 df e7 a9 2a ef d7 bf
       0.3325807599371824 -0.3739725741611432
0006a0 12 91 c3 df 44 ad f3 bf 40 47 4e ae 8a 93 e9 bf
       -1.229802011564122 -0.7992604641351377
0006b0 88 e8 56 45 4b 00 d3 bf 56 c1 c8 f1 f8 d5 fb bf
       -0.2968929459708609 -1.7397393650718036
0006c0 65 e3 8b 2f 2a 8b eb 3f 2a 11 e2 93 ce 7f e0 bf
       0.8607378891602876 -0.515601433595781
0006d0 36 c0 b9 66 31 07 f6 bf 15 02 79 57 6c 9a a4 bf
       -1.3767560970991446 -0.0402406555917915
0006e0 5b e1 54 af 12 6e f7 bf d6 01 36 6e 2c 85 e3 bf
       -1.4643732880486684 -0.6100065376813812
0006f0 d5 d7 c1 9e dc 10 e3 3f 68 c0 4c 1b 8e af d5 bf
       0.5958083248831324 -0.3388400332069126
000700 dc 77 7a 09 20 6c f5 bf 6d c5 78 b2 b7 ad fc bf
       -1.3388977403878846 -1.7924115153840277
000710 f5 c5 cb 9e 95 3d e1 bf ec 35 d4 77 c1 21 89 3f
       -0.5387676335796515 0.012271415204419399
000720 b4 50 7b a1 cf 60 db 3f f3 73 66 3e 5a 43 bc bf
       0.4277838780374268 -0.11040271781389759
000730 a2 51 c5 b5 d5 87 e4 bf e3 01 ef cc cc 95 99 3f
       -0.6415813970766531 0.02498550415816848
000740 bf f1 87 d3 b2 34 fa bf 7f 8c 98 45 de 03 f4 bf
       -1.6378658545428235 -1.2509443968381502
000750 b9 ac 25 0f 4d 83 dd bf 7a 86 6a e8 78 99 e2 3f
       -0.4611389778062392 0.5812344111802326
000760 ac 6a 4b 78 70 5c da 3f 72 3c ec 33 32 eb 00 c0
       0.41189204928893264 -2.114841848036627
000770 d9 76 20 ff d8 fb dc 3f 66 42 90 18 ab 18 e6 bf
       0.4528715602371967 -0.6905112724071614
000780 c6 a6 fc db 63 d5 dd bf 8e 79 fc 27 f7 dd d2 bf
       -0.46614929659936555 -0.29479769616036655
000790 33 c2 a1 7d a5 7c e4 3f ee 1f d3 9b f6 4c c8 bf
       0.6402156308886958 -0.18984873398426266
0007a0 a7 f1 1b 0c 02 b7 e2 bf 50 0c c5 7d 0b 02 b9 3f
       -0.5848398434168772 0.09768745251226219
0007b0 20 6a 17 24 55 d4 e3 3f e6 f7 87 b9 bd 07 e1 bf
       0.6196695046340359 -0.532194959989053
0007c0 5c 7c 7f 5f b7 b6 f6 3f af 8d b8 46 7b dc d7 3f
       1.419608471907643 0.37283212572421126
0007d0 a1 f1 89 5f 7b 9b bf bf 22 96 ed 0f 3b 0a d6 3f
       -0.12346621592036523 0.3443744330928401
0007e0 a5 db 3b 8d a7 bf c4 3f fd fa 1f 33 0b 4c fd 3f
       0.16209883114035253 1.831065368372662
0007f0 2b 99 13 6f 7f 47 e9 3f 18 d6 17 cd 8b 2a dc 3f
       0.7899777574027999 0.4400968077528389

output_gate_weights f8 [108, 81]
000000 ea fd d2 fe 66 f7 e2 bf b2 55 a6 a1 72 d2 f4 bf
       -0.5927004792246724 -1.3013788523142975
000010 37 81 5b f5 05 d2 f4 bf 1b e5 b1 f9 58 81 e6 3f
       -1.3012752136492745 0.7032894970754201
000020 b5 36 56 8c 07 80 fb bf db 40 7f 45 f9 6a 00 40
       -1.718757198515431 2.052233260103191
000030 47 a6 de b1 ff 18 cc 3f 36 de 39 4d 65 f8 d7 3f
       0.21951290307088042 0.3745358709488501
000040 60 0c 4d 0c 50 98 03 40 86 70 c4 35 af 81 eb bf
       2.449371429539994 -0.8595806169646643
000050 44 0c 6b d4 8e f0 f1 3f 58 80 c9 9b c6 ff d6 3f
       1.121229963072225 0.3593613168104688
000060 50 18 e4 be c6 33 d5 bf 5e 7f 18 c5 23 81 ed 3f
       -0.33128517762850596 0.9220141267323745
000070 2b ba cb be 0c 3d ec bf 18 df 76 0b 59 bb d2 3f
       -0.8824523664932874 0.2926848041492902
000080 3d 1c e1 4a c7 0c cc 3f 93 2a 53 9b 91 3e 02 40
       0.21913996845452913 2.2805511603122084
000090 36 b7 d1 1c 49 94 fb 3f e5 07 8b 3f 22 e1 f1 bf
       1.7237025380849906 -1.1174643022682116
0000a0 1c 10 7c d6 77 80 e3 3f cf 77 3b 43 4d 7f f0 bf
       0.6094321431305647 -1.0310795427571866
0000b0 4f d7 8b 58 b7 19 f8 3f 37 a2 d1 9f 6e 0a b1 3f
       1.5062783678854037 0.06656543161228333
0000c0 d8 86 96 2b 88 4a d8 bf 6e 45 06 ce 6d 8a ea bf
       -0.3795490670837416 -0.8293980621257739
0000d0 89 51 c5 71 8b 98 c5 3f 7d 70 dc a0 7d 63 e9 3f
       0.16871779494489328 0.793394865209407
0000e0 55 69 fe cd ba 69 d0 3f 3d 45 c5 bb 39 77 c9 3f
       0.25645322910863416 0.198950974163873
0000f0 87 46 45 f3 34 97 04 40 d9 92 3b c1 ae c6 e7 bf
       2.5738314633861736 -0.7430032514644963
000100 a7 f9 eb f5 13 98 e8 bf 7d 23 e6 b4 1a 5a f0 3f
       -0.768564205471013 1.021998125683438
000110 be 54 78 d2 b8 c8 b3 3f e8 6d 8a c2 e3 57 e3 3f
       0.07728152407101427 0.6044787215827769
000120 08 25 29 19 2c 02 f4 3f 54 92 0a 74 18 85 f9 bf
       1.2505303366509128 -1.5949940235961053
000130 49 7d 00 9b ef c9 f8 3f 26 76 70 91 ed 7c d9 3f
       1.549300771213739 0.398250000029153
000140 e6 60 f4 ac 33 4a cf 3f b5 95 1d b3 39 38 e1 bf
       0.24445196099328043 -0.538113450846757
000150 46 d3 98 8a cb 32 eb bf fe f5 17 bf 42 1e fd 3f
       -0.8499505717250961 1.819887873134007
000160 a9 9b b1 76 4c 3c f6 3f b2 34 5f 90 0f 94 b0 bf
       1.3897213589168393 -0.06475922846512353
000170 76 ce 8e b1 f1 84 e2 bf 74 53 b3 1b b1 99 9d 3f
       -0.5787285297323723 0.02890660029955279
000180 70 0f 9a 39 24 c1 dd 3f 9c 26 16 a5 74 e3 d0 bf
       0.4649134218709525 -0.2638827907727348
000190 49 12 3e 7b 9b 0b e1 3f 92 69 ad c8 d8 df e2 3f
       0.5326669127540039 0.5898250503044429
0001a0 3c 1d 63 a6 68 ef d3 3f 7f 8c e1 2a a1 e1 f2 3f
       0.3114873528360993 1.1800853419343011
0001b0 41 73 36 86 3e da ee 3f b2 80 35 f8 6e 70 dd bf
       0.964141142019436 -0.4599873947063414
0001c0 c1 77 dd 3b db 4f 00 c0 c9 6e a9 32 e9 6a cf 3f
       -2.038992374130402 0.24545016263697608
0001d0 a2 22 1c cc 6d 48 ee bf 04 ea 79 bb 34 55 f1 3f
       -0.9463414179345657 1.083302242592823
0001e0 cc d7 06 d2 71 f6 ea 3f ec b8 65 0a bc 4d ee 3f
       0.8425835706791474 0.9469890788148212
0001f0 bb 0c 4f a7 e5 f2 d4 bf c7 fd 68 22 76 7f f5 bf
       -0.32732526148556546 -1.3436185211320308
000200 08 c6 e0 7a 93 61 f6 bf c0 64 57 07 03 49 f8 3f
       -1.398822288505814 1.517825153996725
000210 cb 45 40 11 ba 46 f0 3f 30 da 67 49 6f ed f7 3f
       1.0172672914380765 1.4954674594315627
000220 b7 a7 3c d1 14 9f ff bf 28 72 e0 84 d7 48 f4 3f
       -1.976338212329649 1.2677836599824648
000230 d2 70 22 bf 19 9e e6 bf 04 97 45 09 1e 14 d9 3f
       -0.7067993863197677 0.3918528643174428
000240 f0 96 5a fb 06 32 fc 3f f2 d9 16 a8 91 12 e3 3f
       1.7622136896620155 0.59601672010359
000250 ee e8 b4 2f 68 a2 dc bf c5 bf 3e 83 c4 60 d0 3f
       -0.4474125352750339 0.2559062272730411
000260 4a 6d 76 92 b0 56 00 40 81 29 53 27 17 e0 f1 bf
       2.042328972090819 -1.1172095810057672
000270 9d 8f 9f c6 6a f1 f5 3f 12 d3 46 9c bb 6c fe 3f
       1.3714397200319361 1.9015461067730866
000280 22 7e 61 58 b6 58 f9 3f 49 a5 dc 69 8f 43 e0 bf
       1.5841582729698378 -0.5082470958342721
000290 0b 83 68 b1 be a7 cc bf a5 36 1c 6f 9c dd ea bf
       -0.22386916792404352 -0.8395521326180712
0002a0 cf 05 1c b8 b0 b6 cf bf b0 a6 e4 cc f7 c1 c2 bf
       -0.24776276578636078 -0.14654443268346062
0002b0 d4 13 86 23 c9 02 d1 3f be 73 2e b7 47 18 cb bf
       0.26579502553096046 -0.2116784710350696
0002c0 39 9a 33 14 51 62 ea bf e0 20 3d 6a 89 0a d6 bf
       -0.8245015520631745 -0.3443931138504137
0002d0 23 f1 02 87 62 c7 e2 3f 56 a3 ba 57 86 7f bb bf
       0.5868389737075045 -0.1074146236593497
0002e0 19 f1 c4 b9 82 b1 f6 bf b4 e7 91 51 73 bd ea bf
       -1.4183375603307182 -0.8356262772715497
0002f0 34 de 3f 08 e6 36 ac bf 5a a8 03 fb a4 76 ee bf
       -0.05510634279920304 -0.9519829657194905
000300 e9 6e 23 92 44 6f f1 bf 4a 3f 4b 04 9b 97 e2 3f
       -1.0896650036365207 0.5810065349450977
000310 be 20 0b 67 54 c0 d0 bf 4b d6 a6 0c 1e b9 e3 bf
       -0.2617388731273528 -0.6163473364928874
000320 12 d4 27 e1 c3 9a f9 bf 3a 82 4e 8c e6 23 e6 3f
       -1.6002844615115959 0.6918823948254336
000330 54 a3 5a 03 4c e9 fb bf 98 e7 d8 2a 01 67 fa bf
       -1.7444572573678743 -1.6501475976678872
000340 fb ec 0c a8 7f 11 b9 bf 9d 41 c7 64 ba d4 f9 bf
       -0.09792325833125297 -1.6144355713514422
000350 dc 0e 41 0d e6 8d c8 3f 37 35 d8 21 67 ec fa bf
       0.1918304028241583 -1.6827155420354083
000360 99 33 63 50 a8 f3 f2 bf 85 ce 1d ca f8 b5 e1 bf
       -1.1844866886269527 -0.5534633586489269
000370 6d 8c c0 b9 d7 83 e4 bf 02 1c 45 fe d4 77 b8 3f
       -0.6410940769168413 0.09557849128496801
000380 7e 13 59 a9 31 21 f0 bf 95 15 24 27 2d 75 e7 bf
       -1.0081040015367928 -0.7330537571403278
000390 09 db 4f 42 14 c6 e9 bf 84 38 20 0b e4 2f ff bf
       -0.8054295821337699 -1.9491920885662077
0003a0 2a ad e5 c8 91 9f a0 3f 85 a5 35 14 03 f4 90 bf
       0.032467418454724076 -0.016555832012647115
0003b0 2e 2e f5 1e 14 42 f7 3f f6 fb 5d a4 2e b3 f5 bf
       1.4536324700628813 -1.356245653208814
0003c0 e1 7b 50 fc da 0e c6 bf e6 34 c6 b2 70 7f fe bf
       -0.17232835121191584 -1.9061133368843968
0003d0 e2 72 70 f3 7b 35 f8 bf 27 b0 1f 9c f0 9e d9 bf
       -1.5130576619478053 -0.40032592054808663
0003e0 3b 51 ee fa 4e fa f6 bf d7 a5 31 ec 3b 1e e8 bf
       -1.4361104776372275 -0.7536906827128246
0003f0 42 3e 59 66 44 36 e8 bf 97 3e 92 62 a7 a8 e8 bf
       -0.7566244124408927 -0.7705876279087133
000400 02 1e 16 f0 fc 6f f8 bf 4e 11 18 3d 9c f3 dc bf
       -1.5273408296942539 -0.4523687931653243
000410 2d 0c a3 f1 5a 8e a0 bf 0b 37 30 aa 2e 7d e4 bf
       -0.0323360843626904 -0.6402810405722631
000420 fc ff 6e 30 28 61 b3 bf 84 56 11 c2 04 a6 c5 bf
       -0.07570124800167827 -0.1691289851757355
000430 cd 95 f8 6b b8 c9 ba bf b2 7c 1d 73 f5 73 a4 bf
       -0.10464050899516693 -0.03994719534124992
000440 ae c7 cc 61 c2 9c d5 3f 18 57 d3 32 ce cc ef bf
       0.33769282866262074 -0.9937506668745497
000450 95 28 c8 7c a1 7d ea bf e8 6e 8a 23 fb 15 ea bf
       -0.8278357922693141 -0.8151832288890235
000460 83 72 4a 67 d1 de e8 bf 73 71 3e 3e 63 ad e9 bf
       -0.7771994607351903 -0.8024154868794952
000470 0f d2 15 46 2e 4f e6 bf d8 a1 e7 18 ea ff ab bf
       -0.6971656197407031 -0.054686847248209325
000480 ac 37 f7 9b 81 41 bc bf 47 79 e7 40 1b d3 e3 bf
       -0.11037454660183127 -0.6195198314342542
000490 74 d0 81 b3 b3 1c e2 bf 22 dd 8f 06 3e e3 fe bf
       -0.5660036569593232 -1.9304790741278528
0004a0 89 b4 36 7c db a1 cb bf b2 46 31 20 6e cd db bf
       -0.21587699475404445 -0.43441346305653916
0004b0 51 7b 53 db cd 1f dd bf 6f 72 2b 7a 63 51 c6 bf
       -0.45506616991581433 -0.17435878243749722
0004c0 76 59 7e 5d be c5 ef bf 21 90 22 74 85 77 ee bf
       -0.9928886247678708 -0.9520900028478573
0004d0 f7 b4 1b 9e 16 5d ed bf 35 e5 1c 54 f1 bf 03 c0
       -0.9176133239795082 -2.468722016460243
0004e0 b7 83 24 37 33 e0 a3 bf 80 b6 53 2f b6 56 e2 bf
       -0.03881988571288935 -0.5730849193912064
0004f0 01 81 af 9e 99 b2 eb bf 9e 21 19 5b 93 2c f5 bf
       -0.8655517672850978 -1.3233827169916377
000500 c0 5b 93 f0 16 79 fc bf ce 7d 76 5f e6 9e ea bf
       -1.7795628926739795 -0.8318969597348145
000510 fd 30 26 73 57 b1 ec bf 68 37 5b d1 2e dc d8 bf
       -0.8966481446273346 -0.3884388966079002
000520 22 9a d8 38 80 e1 f6 bf 5f c0 13 37 6f 6a de bf
       -1.4300539227057318 -0.47524624231937723
000530 9b 28 43 78 12 e4 ec bf d5 e0 68 ab 8a e7 f2 3f
       -0.9028408383249088 1.1815287299814845
000540 00 48 ed 23 13 01 e1 3f 79 d9 7e aa 2c 15 e8 bf
       0.5313811971375344 -0.7525847749700879
000550 b0 6b 9d b4 81 2c d0 3f 59 e8 b7 4e 18 53 c3 bf
       0.25271647108246054 -0.15097335666343062
000560 35 18 3d 30 a1 5a d6 3f 9a 82 22 b8 4e 3f e9 bf
       0.34928159437947964 -0.7889779659636418
000570 3b 74 34 21 2f c5 c1 bf 07 86 5e 66 21 9d c0 3f
       -0.13883008118946968 0.1297952413415688
000580 5e 09 19 71 99 ab f2 bf be ac d1 ba 69 7f 9f bf
       -1.1668943803675442 -0.030759479548959183
000590 20 d9 75 82 f0 0e db 3f 08 21 3a 53 ee 87 e5 3f
       0.4227868341471481 0.6728431344536441
0005a0 2d 57 a3 52 8c d0 ce 3f 7b f8 7a c3 1f 4f f9 bf
       0.24073938403187736 -1.581817401499875
0005b0 95 88 20 06 3a d4 f0 3f d3 a5 bb 88 0e 49 00 c0
       1.0518131484355184 -2.035672252871089
0005c0 85 29 64 67 ce e2 e0 bf 30 1f 0f c2 d7 a5 f9 bf
       -0.527686311660816 -1.6029889660293968
0005d0 d8 40 1c 6f f3 f2 f4 bf ba a1 ae 97 75 7a f0 bf
       -1.3093141880272494 -1.029897301205081
0005e0 e8 9a df d9 82 a2 d6 bf 5f 28 ea cb 89 49 f5 bf
       -0.3536688926382525 -1.3304536786477212
0005f0 08 2e 62 21 ff 39 f4 bf a0 12 78 96 fc 0c ca bf
       -1.2641593269389677 -0.20352132174607096
000600 0f b8 38 92 1f 82 e1 3f 51 70 64 91 b2 e7 f2 bf
       0.547134194935781 -1.1815667800319896
000610 24 45 a8 7d 7b 23 fa bf 7b 8a a6 87 19 c2 93 bf
       -1.6336626919258572 -0.019295119194462345
000620 ec ca 57 56 1f 88 00 c0 9d 9e 1a ae 72 c8 e1 3f
       -2.0664660211126513 0.5557187462299741
000630 d3 d2 a8 e5 3a 1a a6 3f 77 78 55 9a 32 f0 c6 bf
       0.04316886952839174 -0.17920525108178584
000640 e9 2f 90 9c d9 06 cb 3f 07 23 6e 6b 79 4f d7 bf
       0.21114654679001824 -0.3642257260440122
000650 53 b7 f3 01 d9 06 d8 bf 76 e5 93 af f6 cc fb bf
       -0.37541794958712166 -1.737539945459813
000660 55 c3 92 4e eb 84 ee bf f4 09 6b 31 4f 50 e9 bf
       -0.9537254843363409 -0.7910533871839207
000670 5e 7c 93 16 30 63 e2 bf bd 70 6f e9 4d d3 d3 bf
       -0.5746078911723875 -0.30977199360291846
000680 80 79 17 6d d6 f8 ee bf bc 48 f7 b7 a6 36 f9 bf
       -0.967875683850977 -1.5758425890131056
000690 a4 e7 9d 7d b9 40 d0 3f b0 c7 c9 c9 b6 fe d9 bf
       0.2539504744269101 -0.40617150979880545
0006a0 53 b0 68 49 6f 23 f6 bf a4 75 17 a2 ff 72 c2 3f
       -1.383651053193735 0.14413447775488664
0006b0 6d 7b df 05 ff b4 c2 3f 6e 92 aa a0 36 54 f2 bf
       0.14614856516615352 -1.1455599094416828
0006c0 a1 29 78 0e d2 f6 da 3f f8 20 a6 d2 4c b0 b8 3f
       0.4213147298147764 0.09644012587353135
0006d0 bf a4 1a 5d 41 36 fb bf a4 9c 87 26 d5 50 d5 bf
       -1.7007459294202787 -0.3330586315409596
0006e0 3c 7b 84 ac 91 21 f7 bf 60 a5 13 37 77 10 ee bf
       -1.4456955660786681 -0.9395099712102528
0006f0 04 bd ab 33 4b 8c db bf 26 62 30 05 7b 1c e4 3f
       -0.43043785139066437 0.6284766293857202
000700 76 03 7a c8 cc 66 f8 bf 76 b0 ab 55 9c 6e f7 bf
       -1.525097640144137 -1.464504561091443
000710 17 70 05 05 f9 94 fc bf 7d a9 39 27 15 af e0 bf
       -1.7863702961103678 -0.5213723913305298
000720 11 6d 46 dd 7c 6d db 3f c3 2e cb e1 22 61 d2 3f
       0.428557602013556 0.28717872667469296
000730 48 ac db c2 76 86 f1 bf da 32 9b e5 f7 89 bf bf
       -1.0953281032223163 -0.12319897990819176
000740 72 a8 c5 e6 cb bb fe bf 9d ff 6d 23 8c a6 ee bf
       -1.9208487524543014 -0.957830495070073
000750 42 ec a5 9d d7 20 a1 3f 8f 94 9e 8d d5 30 b7 3f
       0.03345369147697187 0.09058890063768586
000760 43 5e 5e 76 6d 6e e2 bf 0c 99 84 8e 9d 9f e4 bf
       -0.5759799301039908 -0.6444843085817253
000770 b9 d9 b0 c8 f7 08 d5 3f ac 34 95 eb 69 57 f4 bf
       0.3286723575469313 -1.2713412477926722
000780 17 db cf bc 5c af d6 bf 6b 7f 93 c5 da d2 d1 bf
       -0.35445326269784644 -0.27849454206988494
000790 9e d4 36 51 49 a7 b2 3f dc ef c9 10 46 14 b8 3f
       0.07286508782165632 0.09405935201533516
0007a0 8d 47 82 33 af a1 ed bf e7 81 c3 6b 7e c3 d8 bf
       -0.9259868627579962 -0.38693199657248417
0007b0 05 0f 22 74 89 0e 02 40 bd 56 d9 49 a9 ed 03 c0
       2.2570981095212823 -2.491045548386721
0007c0 9c 98 6f 45 2a 79 ee 3f 16 1a 56 14 48 15 e4 3f
       0.9522906643076285 0.6275978467172674
0007d0 4d 7c 6b f5 ab f8 e9 bf 19 97 64 58 48 e3 e8 3f
       -0.8116054337841746 0.777744457857554
0007e0 fb e2 11 c6 6c 20 d4 bf 1b bd c4 82 e9 d2 02 40
       -0.31447905867348397 2.3529844490327725
0007f0 13 b1 20 54 d8 24 e2 3f 71 14 47 d4 2c b2 c7 3f
       0.5669976847762278 0.18512497296447664
