balderdash_lstm/lstm_model/models/lstm_model_18.npz (npz, 903256 bytes, 19 tensors)

forget_gate_weights f8 [108, 81]
0.6752440382134877 -0.6518292202115625 -0.7236706855110815 0.7220701212120193 -2.5149191395414547 -0.6466880104247065 -0.6035524235594494 -2.0385745369842105
0.3517529006469306 -0.2546789229746519 1.3920767116899893 0.3148865436672147 -0.45797706005598326 -0.6745696560415116 0.10560794534621555 -0.29480867234991653
-0.8247143251585229 0.5342125721642269 0.7879618383133967 -0.9741818941817981 0.2693746027587004 0.8994145024611416 1.9793327132821021 -0.3787219889870305
-0.2590508591085645 -0.5428155166061903 -0.877419676780219 0.025494826834549168 -2.430732675083332 0.23344883436144911 0.8726989414696694 1.9090789215929562
-1.8558776373308121 -1.8926849503203156 0.12635643327898152 -0.7001781421722901 2.6765860969147752 -0.9961183343630114 0.8219418170621042 -1.124181114131312
-0.8267714437060527 0.4790090740210618 -0.18582041187244816 2.2612264788297667 1.8930521332564478 0.3879787220365546 0.22857103357013764 -0.33437990163284254
-0.5582524208409583 -0.7684590031478268 2.32230144193058 1.3748604317129955 -0.3145785537389592 1.9001253347857987 0.6934137882092828 -0.4625717660269354
-0.8343010900440803 -0.5659133381448247 -0.05566460465390541 1.1055693636028507 0.7109322754447867 -0.0916370851697911 -0.623007490208279 -0.4296197068965521
0.3398378093418338 -0.3577579088956123 0.31967397878837434 0.5352696971662227 -1.1854833663922457 -0.542407039752291 0.40139810084839794 0.6604705287305775
1.078410667493817 -1.0176010980242851 -0.5223742285647942 1.6905129361937736 0.7649424961608797 -0.5857196197199984 0.8993587909205213 0.19675364609277818
1.2929800988867657 -1.1504253361956478 -0.4658493111310794 -0.350623875868796 0.9353879261199162 -0.36417695468269634 1.8091628214853364 -1.2496792971118016
-1.3602415488877329 -0.43756896571724224 0.1192883315939456 -1.5311890895206228 0.17201193297229586 -0.21939412832814376 0.3003762606808988 -0.5613797653881167
-1.2321104045480846 -0.09695724511260892 -0.734895670362182 -1.801991206522032 -0.5293278700734838 0.2103492081017757 -0.2819689871020767 -2.3493740725425587
-3.0428677646168314 -1.2314283279996967 -0.288927648638169 0.375646902160714 -0.749081237514816 -0.4842241769119403 0.17550831666902172 -1.6382460307260973
0.6709436887971842 0.23022905023559978 -0.2690563443747278 -0.5280255036618177 -0.5030077870322464 -1.8117866432056935 0.7598657480097476 -1.5099500092631686
0.3370246851501025 -1.0686023946664682 -1.3334932003291893 -1.8944260522894025 0.48592093292822347 0.09251479439192427 -1.1749896209347144 -0.019417983832254897
-0.5614639360400393 -1.6062909145709343 0.09195729478280318 1.040798700872519 0.29492253874259283 -1.6378123546464265 -0.03556522438359623 -1.1564520262767715
-0.19965320101325984 -1.2061669518605485 -1.205159294382894 0.062199646676691235 0.4170532988192258 -0.7279831107659809 -1.8056541356222384 0.23845103427751824
-1.4204205313102587 -0.42533521942931757 0.1531210834587372 -2.8071790898550173 1.501417218788687 -0.8430455778833501 -1.6752688153885296 0.26840996315960713
0.7652438019586576 1.4680500834297827 -1.0379984839121983 -1.2840278571685417 0.09282065749543729 -1.0066735674716902 -0.270966369234815 -1.8108880577429138
-1.450084946149079 -1.8892805376301 -1.084988491480639 -0.5407114778991311 -0.5139275121284083 0.45807094376200075 -1.2653901275113941 1.2883374825749863
-0.05053260462286771 -2.0560906875652774 0.667389633906315 -0.2326204639810397 -0.20075452086534837 0.7820038139363794 -0.09250892816898487 -0.23223011632931054
-0.15625897964202914 -0.14988373112405162 0.635573727247111 0.7062424940145882 -0.3113671721175922 -1.183967329906075 1.4852350175245692 -0.24762400752179764
-0.3563564317802454 -2.803861842406081 -0.976870397999651 -0.5071261990708033 0.3889244550528438 -0.6630291697988577 -0.8689321946713106 0.4451785334168531
0.03040959533544738 1.6764725772788684 -0.5534429264790977 -0.9414276358955709 0.26174341825400615 0.6098916352530929 -0.12128494760483917 -0.4683353955036227
0.3703107547455477 -0.5810809075195859 -0.13618322004386924 -0.388908035008272 -1.6148304958345185 0.47572030810162336 0.5047923192096427 0.5639440496122125
-1.158574644236662 -0.12741282276334165 -0.134528154944057 -0.838284567971516 0.3126606915126201 1.2203112977885153 -0.48348339586252864 1.1743543559672303
-0.03241514737114638 -0.47621460681937094 -1.2629618634979314 -0.40993385344089045 0.2757060246212863 0.26573789856030383 -0.9252005524051832 -0.09527433020868598
-1.032705604831356 -1.9392683337833576 -0.957303206031977 0.64356542722287 0.1993630965369597 0.33458698974104084 -0.8817540852700773 -0.05865972729517691
-0.020897962741250657 1.3226736617197254 1.5192603283743595 0.35175682871310787 -0.8069392121032155 1.2047431572635319 -1.6398656412818413 0.4605335189498384
-0.22335701956215506 -0.2465716850454631 -0.998820743762444 1.5761163998601875 -0.7604713712884374 -1.6384678500589436 0.8363966158412327 -0.9092724441514508
1.1041746538641093 0.3136315059321729 -1.3944854755779796 1.0778999757349454 -1.1084761438929251 0.9385124511390167 1.5964632111808261 0.9128112855941422
00000000: d844 9e62 999b e53f d458 ecf3 c8db e4bf
00000010: 0402 eb6c 4f28 e7bf b6c7 80cc 321b e73f
00000020: f051 03ed 8d1e 04c0 57a9 ef0d abb1 e4bf
00000030: 0080 132c 4d50 e3bf b871 b62a 004f 00c0
00000040: 1f4f 2399 1e83 d63f 4606 4ad3 a84c d0bf
00000050: 25b5 e33a f245 f63f 0e13 c0e3 1927 d43f
00000060: 268e d003 7f4f ddbf f74f 721a 1396 e5bf
00000070: 41b2 754f 1f09 bb3f 0b7c 9431 25de d2bf
00000080: 7427 e34b 0f64 eabf 2dd6 d1f6 4418 e13f
00000090: a1aa c1be fb36 e93f 8cb7 fb81 7f2c efbf
000000a0: da2e 4ef9 6e3d d13f 83cc 33ec 00c8 ec3f
000000b0: 7431 77c7 58ab ff3f 6f6c 3e27 fb3c d8bf
000000c0: a8ce f70d 4a94 d0bf c4b7 72a5 be5e e1bf
000000d0: ef69 146e d213 ecbf bde3 e2dd 501b 9a3f
000000e0: 7b69 06f9 2372 03c0 5795 6fc2 a6e1 cd3f
000000f0: abb6 9b54 26ed eb3f 5a98 db56 968b fe3f
00000100: da6a dbbf acb1 fdbf 3f1d b403 7048 febf
00000110: 7145 4996 722c c03f f820 c0fd db67 e6bf
00000120: 006b b9f8 a569 0540 c31f a18e 33e0 efbf
00000130: c2e3 efec 584d ea3f e698 ff55 a5fc f1bf
00000140: 947e ff62 e974 eabf d117 daac 15a8 de3f
00000150: edf0 f597 f6c8 c7bf 7a62 7be8 fd16 0240
00000160: 055a 9f08 f149 fe3f 5237 acb4 a4d4 d83f
00000170: 8892 ffcc d041 cd3f f3f9 7cf5 7a66 d5bf
00000180: 8297 4d2e 34dd e1bf 0fc6 da55 3797 e8bf
00000190: 275d 44c7 1294 0240 1e59 eca6 6dff f53f
000001a0: 593c 1516 0e22 d4bf 024c b3d2 e966 fe3f
000001b0: f489 de1c 7230 e63f aadf c89b c69a ddbf
000001c0: 0d35 1833 98b2 eabf 8478 f649 f61b e2bf
000001d0: cc0b 1131 1280 acbf f323 4280 69b0 f13f
000001e0: 6099 160b f5bf e63f 5aaf e72b 8775 b7bf
000001f0: 7271 7367 adef e3bf 779e b5a7 e37e dbbf
00000200: 4151 4415 e7bf d53f 5ee3 a56d 81e5 d6bf
00000210: 1acf 11d9 8975 d43f cecc 7bea ed20 e13f
00000220: f7b4 0968 bdf7 f2bf 7f66 1b02 665b e1bf
00000230: 1781 f4a8 81b0 d93f 3fd4 1b17 9322 e53f
00000240: 12b2 488b 2b41 f13f 3a35 c616 1848 f0bf
00000250: 4bb0 7e28 4ab7 e0bf d2ac e64a 570c fb3f
00000260: 569c 8aaf 687a e83f 9b55 6a12 37be e2bf
00000270: aff5 4b16 8cc7 ec3f b22a ab35 392f c93f
00000280: 618f 71e6 0bb0 f43f a933 b765 2468 f2bf
00000290: ee03 0ba1 79d0 ddbf 5368 0320 9f70 d6bf
000002a0: 0744 f8a8 b2ee ed3f 656b 94db ac4e d7bf
000002b0: 9cb2 f6b6 54f2 fc3f d555 f9b7 affe f3bf
000002c0: 9421 72a4 8cc3 f5bf a601 6043 2101 dcbf
000002d0: d98a fd1a ae89 be3f beba 7721 c07f f8bf
000002e0: f3a1 51ad 7c04 c63f 7849 0d57 1b15 ccbf
000002f0: 7ba1 075a 5d39 d33f b64c 9fb2 d2f6 e1bf
00000300: 9186 4966 b9b6 f3bf f670 dea4 30d2 b8bf
00000310: a3ae c5ec 4384 e7bf 3e11 3bbb f4d4 fcbf
00000320: 6076 5a00 41f0 e0bf 20b0 c40c b9ec ca3f
00000330: 13bd 85a6 c70b d2bf fe1f 3da2 84cb 02c0
00000340: c4a7 f80d cb57 08c0 cb06 c230 eeb3 f3bf
00000350: 4ee9 7364 ca7d d2bf 43ef e74d 990a d83f
00000360: 078c 2537 79f8 e7bf 3e3c f166 87fd debf
00000370: aa7d 2278 0e77 c63f 8e53 4c78 4136 fabf
00000380: a2ed 1ae6 5e78 e53f f3ee ac40 2578 cd3f
00000390: b0ba f719 3838 d1bf 51ce b5bd 95e5 e0bf
000003a0: 85fa 5dc9 a318 e0bf 835e befd 13fd fcbf
000003b0: 9dad 21f9 d150 e83f 5315 4657 c128 f8bf
000003c0: 5185 2afc cf91 d53f f650 18d3 fe18 f1bf
000003d0: cba2 4df7 fc55 f5bf b95f 34b1 914f febf
000003e0: fc95 d71c 5419 df3f 033a 4fb0 0caf b73f
000003f0: 54dd b0ea c1cc f2bf 5e1f 0ed6 4ee2 93bf
00000400: ea9c 6537 83f7 e1bf 011b 1f1a 5eb3 f9bf
00000410: 7484 b865 838a b73f d577 df89 1ca7 f03f
00000420: b72c b0c8 02e0 d23f f90e 43ba 7a34 fabf
00000430: 0274 34e7 9a35 a2bf d306 04d7 d380 f2bf
00000440: 9e63 7270 3c8e c9bf ed1c bcb7 754c f3bf
00000450: fb84 bd1c 5548 f3bf 6529 99d0 a1d8 af3f
00000460: f684 c751 00b1 da3f acf7 983c a34b e7bf
00000470: 9427 4697 f5e3 fcbf 24ac f540 9085 ce3f
00000480: 4bb6 08e1 0aba f6bf 3b4c 5236 b138 dbbf
00000490: 3c45 e4be 7899 c33f ec89 874f 1a75 06c0
000004a0: 3994 c50f ce05 f83f 307c 41b8 3afa eabf
000004b0: 6aa3 61ac e6cd fabf 9d3a 6cfb a02d d13f
000004c0: e021 dc91 e07c e83f 2b89 9315 227d f73f
000004d0: 2435 5b4c a49b f0bf cd11 5bcb 608b f4bf
000004e0: fd0b 5638 18c3 b73f f09d 20be 551b f0bf
000004f0: 247b 8b53 8357 d1bf 7c90 8bc1 65f9 fcbf
00000500: 8e1d c245 8c33 f7bf 0173 a13a 7e3a febf
00000510: aa21 77e4 1c5c f1bf 4ac1 4428 824d e1bf
00000520: a365 231c 1872 e0bf 5829 adca 0851 dd3f
00000530: bb7b e5b7 093f f4bf b7ed 9dc3 079d f43f
00000540: f44c 79d8 68df a9bf c99f a5ac df72 00c0
00000550: 2825 6a81 415b e53f 92e6 96e2 81c6 cdbf
00000560: 6b06 d2fa 52b2 c9bf 5287 c6dc 2c06 e93f
00000570: c4e4 1245 aaae b7bf cfec 6369 b7b9 cdbf
00000580: 8369 a253 4b00 c4bf 54ac b0dd 632f c3bf
00000590: 2d24 97b6 9e56 e43f fad1 dadb 8999 e63f
000005a0: 85c1 5293 70ed d3bf 20aa 17ba 87f1 f2bf
000005b0: ae45 32cb 85c3 f73f a65a 01bb 24b2 cfbf
000005c0: 43c9 0d35 8bce d6bf 6517 1d1e 4f6e 06c0
000005d0: 21d9 7ab5 8542 efbf 3b86 feb8 603a e0bf
000005e0: f242 c465 23e4 d83f 6290 12f3 8837 e5bf
000005f0: cbc0 d1e3 4ace ebbf 2e06 7a1a ce7d dc3f
00000600: 1926 cd65 b123 9f3f 6fdb c0e8 d4d2 fa3f
00000610: aac4 adf0 cdb5 e1bf 381b 77d9 2c20 eebf
00000620: 7807 5677 67c0 d03f 0783 7076 3b84 e33f
00000630: 3db9 75c3 870c bfbf 84d3 cf05 35f9 ddbf
00000640: 1f4f 3fe1 2bb3 d73f 490d c4fc 3698 e2bf
00000650: 1e1b 2da6 736e c1bf 16c7 e086 dee3 d8bf
00000660: 6315 8380 58d6 f9bf a2ba 5597 3372 de3f
00000670: 87e0 c838 4227 e03f d176 3b64 d40b e23f
00000680: 708a ef90 8589 f2bf 4407 6e39 104f c0bf
00000690: fc1e f0f4 3738 c1bf 99bb 8528 3ad3 eabf
000006a0: 16a7 32fd a102 d43f 4c0e af23 6586 f33f
000006b0: 88de 5857 64f1 debf d9b5 0ccb 27ca f23f
000006c0: d24b b5db b798 a0bf 29ab 8ad4 4c7a debf
000006d0: ef19 bd7f 1735 f4bf 0752 8333 5b3c dabf
000006e0: 07c0 c3e1 2aa5 d13f 0cf4 e787 d901 d13f
000006f0: e048 5a30 3e9b edbf 3c05 6504 e663 b8bf
00000700: 5e58 f24f f685 f0bf 7449 7c3b 3e07 ffbf
00000710: e26c 4855 3aa2 eebf 9745 d885 1698 e43f
00000720: 7fe8 d3dd ba84 c93f feb5 a68c df69 d53f
00000730: 192e eb57 5437 ecbf b56e a6d4 a508 aebf
00000740: be56 1b8a 4666 95bf 5dde 85db ab29 f53f
00000750: 47a6 07eb e34e f83f 10eb dd12 2f83 d63f
00000760: 76fc ba2e 72d2 e9bf 2d6d c8c2 a046 f33f
00000770: b43b 32c1 e33c fabf 8e7c a694 6179 dd3f
00000780: 91fd 2c7b f696 ccbf 77e7 b135 a98f cfbf
00000790: c1d5 a0eb 56f6 efbf 946b 81d4 c537 f93f
000007a0: b24c a70e c855 e8bf 3ccf 7810 2a37 fabf
000007b0: cfbd f0d5 c2c3 ea3f 5c1a 5986 c218 edbf
000007c0: 0db2 b60a b3aa f13f 9654 3ee1 8912 d43f
000007d0: beab 8500 d04f f6bf a740 820b 143f f13f
000007e0: 2ea9 267b 51bc f1bf edfc 9043 4b08 ee3f
000007f0: e29e 1402 1d8b f93f 647d 6103 c035 ed3f

input_gate_weights f8 [108, 81]
2.001745583657479 -0.45444983903213526 -2.0954197858384354 0.8909802823433737 -1.6338162897496675 1.4630365858399907 0.12681163695569628 1.5166540612681783
1.5623594642588405 -0.49703285812776893 1.054675209185821 -0.7471666955333868 0.018414003291475772 1.185511468893872 -0.00796925106099615 1.1063327817925908
0.16608094488902198 1.8123836981909613 1.4815047272407345 0.5114838915634593 -0.16266284958141744 -2.428329189013017 1.048870254796318 -0.17294064566581024
0.6415998535173304 -0.8829745752608417 0.7068621490166741 0.402111626739313 1.8346937653573994 0.07037358060116368 2.904391718185561 -1.5148377528719768
0.0011397412495514887 1.893807187416344 1.41716885053762 0.2513726803254987 1.572362727385021 -1.1561973093484148 0.9739805687335306 0.5745131021820133
0.24320771723904036 0.668266953556068 -0.8815963953213117 1.3757144238940278 -0.22197955344302026 -0.07665329748102997 0.1307505877112322 0.22748837604831149
0.8720508892215907 -1.1565367356690295 -0.2944153213529835 0.691264956543884 0.21088674188768425 0.6728023520036983 1.3922271760597242 -0.7007791012695995
-1.0789532697463007 0.2916563245956803 0.3884197124360698 1.179990509205488 2.500854004370434 0.3252612734421056 0.7031801744680782 -0.49562486177158793
-0.893417815324958 1.914433739582567 1.0656058827615604 1.2974910780913886 -1.9473606197104345 1.0213959384334788 0.14560986425509231 -0.004607620488656447
1.5394174642716245 1.5200652059664401 0.27918221233418067 0.2822653511561667 2.253822129808566 -0.08289207999805795 1.1079403526140355 1.8142866131944586
1.221541322952021 -0.701012151960903 -0.6507396908359558 -0.2623608505826877 -0.3276010169273642 -0.35073428905590687 0.09029635692264025 -0.8192099139061415
-0.306153149638329 -0.23228430093572627 -0.26056693471444886 -0.40849976658594384 -1.7587095697368247 -0.025699438932600432 -0.3340681397050908 -0.08512594643386015
-0.24908185306087222 -0.18827980625684043 -0.14881271922215597 -0.617172080613361 -1.366811143420254 0.7429726308785425 0.7111734195670533 -0.9965424837257834
1.267686499997744 -1.5770762432479912 -0.0936306111775912 0.01413863491182902 0.550628954932228 -1.130024400153114 -0.9423246856995825 -0.3717909334074898
-0.15698322598847173 -0.8114486155703272 -0.22409216693754644 -0.23700132090145407 0.04641004640585199 0.8284640491786638 -0.23891747345490674 -1.0629857415716848
-0.5707130495003891 -0.23459007589645994 -1.1436999413723046 0.7847304525876048 -1.697859220978157 -1.8760929569225246 -1.183485651977086 -0.3817975246339437
-0.4772667061616242 0.0024262409271307147 0.5647064816241761 -1.3084694961493157 -0.46761155684429423 -0.7185600971781699 -1.4786390367356532 0.6150282928964348
0.23458585805133608 -0.5281809692910742 -0.6538502894004121 -1.1654824307092326 -1.105550302994268 -0.09922133193263272 -1.959859401325582 -0.6100688107416362
-0.5483915430397033 0.5405995232436075 0.09057177959884215 -1.9404249735617272 -0.45098270648714983 0.19555337590429128 -0.35224459806991987 -1.5044831195259922
-1.3227424596521558 -0.5969557155109293 -0.25179106437306975 -0.7201261640793631 -2.239716021970906 -0.12747021337269676 0.16663188044053778 -0.608191619226994
-1.6102479570440584 0.20974262381002579 0.057130177265308515 -0.5946096792031998 -1.5177175446920055 -1.1241613227200113 -1.7393616149859041 -0.005156216237496617
0.00943940810698659 -0.09021345047584052 -0.033586843869007794 -0.40862749389337927 0.5318215903102121 -1.8249169478539975 0.13656219998237654 -0.6809697414916365
-1.2890828865800004 0.9026605276739653 0.7777651587737711 0.5908889827662281 0.2727497025552004 -0.6463283860008169 0.5409536463941215 -0.23636904722517046
-0.8403054561504962 -0.8573316827068179 -1.2729134779767617 -0.8592831792506193 1.5392919567009804 -0.38420186585233496 -1.0007072535810093 -0.3600694249297756
0.7877160363230518 -0.9921164859312934 -1.449748451091993 0.059898578875518534 -0.8015488862270593 0.3704044434762719 0.7030562676348595 -1.536403958927002
-0.11127995599018034 -0.43362131047219377 0.08144827548840726 -1.1383412934292583 -0.7461660124058803 -1.0261101680167555 -1.511172831666975 -1.5652931994811008
-0.41914028360030625 -1.135625014666735 0.43456534012798126 -0.4059933317330929 -1.1778057683299163 -1.0490934380580472 -0.6029534095410253 -2.4509941190282656
1.129354039169347 -0.5771200975033199 -1.113287144059255 -0.22479975534114946 -1.4368137912942591 -0.6274200196522682 0.759106493010102 -0.30419987985782376
-1.2359105337680292 -2.1266561102373935 -0.5857481781200456 -0.054959314799070645 0.2433845153575388 0.08799537728373395 -0.34877050467005294 0.20071173648102195
-2.1307842025542048 -1.13286528228131 -0.6068664863511233 0.8953274129818267 0.5099808914276548 -2.1225634869170076 0.2636151541421513 -0.3763667884371006
-0.5955677519887145 -0.2983109365456611 0.6169900154401179 -0.05140953502198967 -0.594218737903756 -0.1265607876261533 0.626234824248044 -0.2805284884896322
1.6712421956077956 0.46530839640700133 -0.4433398448236563 0.629352332635137 0.2596188012816219 1.7758578282042845 0.9001800196988765 0.39566198600721914
00000000: 3bc5 4530 9303 0040 e930 14c7 b415 ddbf
00000010: 0b8a dc72 6bc3 00c0 da75 c114 e982 ec3f
00000020: a159 c28c 1c24 fabf 518c 100d 9968 f73f
00000030: 630c bd1c 5d3b c03f e5e0 870c 3744 f83f
00000040: a267 39a3 6cff f83f 238e ace7 62cf dfbf
00000050: 53ae b51c f3df f03f bb3d 3f21 cae8 e7bf
00000060: 5888 b3d7 1edb 923f e3e9 bedf daf7 f23f
00000070: 18da 71c5 2e52 80bf 8cab c400 8ab3 f13f
00000080: 9ac0 64f1 2342 c53f 178a 780c 86ff fc3f
00000090: c8e4 054d 3eb4 f73f 8d44 5677 135e e03f
000000a0: 35f9 9ce1 22d2 c4bf 69dd 95da 376d 03c0
000000b0: d78e 212d 2cc8 f03f e052 a448 eb22 c6bf
000000c0: dc35 7f6a fc87 e43f d93b 7ee5 5341 ecbf
000000d0: 13d2 995e 9d9e e63f 08f3 8b67 32bc d93f
000000e0: 7c29 86d9 e75a fd3f 0536 2fc3 0004 b23f
000000f0: b80a a3b9 313c 0740 e24c f582 c63c f8bf
00000100: 796b 22d9 6bac 523f 8620 eec3 084d fe3f
00000110: fc80 9f3e b9ac f63f bbc6 4670 7d16 d03f
00000120: a516 b9d1 6528 f93f 83fe f5bf c87f f2bf
00000130: c0cc 344c d92a ef3f 1ed9 1f4d 6962 e23f
00000140: 5997 d633 6e21 cf3f e9aa d060 7162 e53f
00000150: 10a6 c5a4 0936 ecbf 502a b420 ed02 f63f
00000160: f98f 3575 d369 ccbf e6c3 cfed 8c9f b3bf
00000170: d685 136d 6fbc c03f b77f accf 561e cd3f
00000180: 43f1 3444 d7e7 eb3f 2323 05aa 2c81 f2bf
00000190: d5c0 295c b3d7 d2bf 4c42 a7af d71e e63f
000001a0: 06a7 c835 56fe ca3f 72e3 50cc 9887 e53f
000001b0: 9476 dc00 9046 f63f df8a 354b c86c e6bf
000001c0: e28f f780 6443 f1bf 29d7 f349 7faa d23f
000001d0: 9d37 825a dedb d83f 1e0c 6aba 3de1 f23f
000001e0: b6bb 86be bf01 0440 bfb4 05a9 14d1 d43f
000001f0: ab26 91b5 7380 e63f f42e 1957 51b8 dfbf
00000200: b780 4ff5 e096 ecbf 92db dd45 85a1 fe3f
00000210: 842d 0ec1 b80c f13f 9911 3401 86c2 f43f
00000220: 33cb f29b 6328 ffbf a16c 7d44 a357 f03f
00000230: f2ad 7912 58a3 c23f d681 fab4 70df 72bf
00000240: 8a01 ff34 74a1 f83f 249d b6e4 2f52 f83f
00000250: 3b6a e611 1fde d13f ca9e 00b1 a210 d23f
00000260: 1a3b 94e5 d307 0240 3267 b054 6a38 b5bf
00000270: fa55 c6a9 1fba f13f 53da 5366 5107 fd3f
00000280: 00aa 0cea 6e8b f33f 41a9 5809 b16e e6bf
00000290: c52f 4b0b dcd2 e4bf 7b37 402a 85ca d0bf
000002a0: 44b8 7541 6af7 d4bf f82d 453b 6e72 d6bf
000002b0: 3f41 ee7b a91d b73f b625 99b5 f736 eabf
000002c0: a9e5 5061 0398 d3bf 4853 f2f1 7dbb cdbf
000002d0: 211f c1ef 20ad d0bf bd41 7a34 dc24 dabf
000002e0: 09e9 52a5 ac23 fcbf 88da f626 f450 9abf
000002f0: a7cf aa55 5f61 d5bf 5677 f963 d0ca b5bf
00000300: 0636 7606 eae1 cfbf 7e67 2f7d 8d19 c8bf
00000310: dfdc 2491 4b0c c3bf 1da3 c7a9 dfbf e3bf
00000320: 11c6 8c5c 75de f5bf 1249 ee89 6ec6 e73f
00000330: 3d66 5ac2 eec1 e63f c5a8 1510 ade3 efbf
00000340: e022 b1a3 7148 f43f 53c7 804c b43b f9bf
00000350: f888 e9fc 2cf8 b7bf 547c 7374 b7f4 8c3f
00000360: 3744 359d c09e e13f 2c6f 2577 9414 f2bf
00000370: c761 6919 8627 eebf 90ce fb32 6ccb d7bf
00000380: 5d0e d2be 0618 c4bf fd49 4816 63f7 e9bf
00000390: 29ad 2458 0daf ccbf bfb5 302d 0f56 cebf
000003a0: 4eb7 09bf 0ec3 a73f 854a a409 c782 ea3f
000003b0: 5344 7707 d994 cebf 96a2 4256 fd01 f1bf
000003c0: b025 6003 4843 e2bf 8b81 f82f 0c07 cebf
000003d0: 4119 4a4f 984c f2bf d33f c109 831c e93f
000003e0: f402 356e 6e2a fbbf 96cf 630c 7a04 febf
000003f0: dd6d a8a6 8eef f2bf 5ac7 7fe2 5e6f d8bf
00000400: abc3 9ba7 898b debf de51 e52d 32e0 633f
00000410: 2f48 cd53 1312 e23f 0766 dcb5 7def f4bf
00000420: 542f f805 59ed ddbf 03e8 b2be 71fe e6bf
00000430: ade5 1568 81a8 f7bf 505b 83d0 4fae e33f
00000440: 8aa0 37ce e806 ce3f 1a31 afc6 dbe6 e0bf
00000450: 968e 2e71 57ec e4bf 0057 bfe7 d0a5 f2bf
00000460: a417 b783 55b0 f1bf 105a b7b7 9166 b9bf
00000470: 6639 1788 955b ffbf f53c ce06 af85 e3bf
00000480: a645 d86b 6c8c e1bf 4510 125f 974c e13f
00000490: c34a 514f b62f b73f e7a0 9c0e fb0b ffbf
000004a0: c720 db91 e6dc dcbf 46cf 109d e407 c93f
000004b0: 45ca 39ed 2c8b d6bf 9cf8 3be4 5c12 f8bf
000004c0: 26c9 53ff f329 f5bf 7af3 68df 421a e3bf
000004d0: 4612 ba44 581d d0bf 99df 7606 460b e7bf
000004e0: bf89 d53b f0ea 01c0 162f d3a6 f150 c0bf
000004f0: 9846 7b86 3154 c53f caff 4845 4e76 e3bf
00000500: dc47 9f5c 93c3 f9bf 72af eba6 d8d8 ca3f
00000510: ba38 f0a5 2a40 ad3f 6a02 c2e0 0a07 e3bf
00000520: 0448 3031 9248 f8bf 372b 4895 90fc f1bf
00000530: e683 44d8 6cd4 fbbf 7747 c741 af1e 75bf
00000540: 6ca3 e7e8 f754 833f 21fb 738b 3a18 b7bf
00000550: d18a fc77 4b32 a1bf 2a2f a1ee f326 dabf
00000560: e00c 36b6 ae04 e13f 562f 0f1d dc32 fdbf
00000570: b1a5 65c3 de7a c13f 7ab5 280e 81ca e5bf
00000580: 2d1c 7b60 15a0 f4bf 3bfe b754 98e2 ec3f
00000590: dcd9 1cc2 73e3 e83f 6986 1103 90e8 e23f
000005a0: d9f8 1d2b bb74 d13f fa32 0bde b8ae e4bf
000005b0: 3945 7d05 7e4f e13f 6734 cf47 5741 cebf
000005c0: c322 9a44 c8e3 eabf 239d 61da 426f ebbf
000005d0: d2c3 e885 da5d f4bf 504c 1c70 3f7f ebbf
000005e0: c96c 509a f0a0 f83f 2478 396c c396 d8bf
000005f0: b201 f09b e502 f0bf f939 17a1 600b d7bf
00000600: 285a d142 f834 e93f 16b7 9c12 6bbf efbf
00000610: 45de 8d6e 2b32 f7bf f1c7 b1ca 06ab ae3f
00000620: b9b1 8fd9 49a6 e9bf c883 c1d6 b4b4 d73f
00000630: 5aaa 97db 6f7f e63f 1995 5051 1c95 f8bf
00000640: d69a addb d77c bcbf 38e9 d498 73c0 dbbf
00000650: 87ce 894f cbd9 b43f a870 2f5c a536 f2bf
00000660: 8770 958b 97e0 e7bf b999 db7e f26a f0bf
00000670: 5ed0 2990 c32d f8bf b1c2 c6e1 700b f9bf
00000680: 7df7 9fc4 31d3 dabf da35 a822 852b f2bf
00000690: 75c9 f424 ebcf db3f 7d03 8c74 cbfb d9bf
000006a0: 3846 80dc 4ad8 f2bf 2e85 6e33 16c9 f0bf
000006b0: 57b1 dff2 644b e3bf 5f51 ffcd a29b 03c0
000006c0: d467 7d8a d511 f23f d083 1491 c477 e2bf
000006d0: f9aa 2c2e 06d0 f1bf 9b65 ab06 3dc6 ccbf
000006e0: 4fcf 4075 30fd f6bf b163 2826 d313 e4bf
000006f0: c71b 35b3 994a e83f 53ef dbc5 0278 d3bf
00000700: a70c b51f 4ac6 f3bf 2577 5a47 6403 01c0
00000710: 21f3 96f6 72be e2bf 0b5c 5897 a023 acbf
00000720: c41e e84a 3927 cf3f 6700 a273 dd86 b63f
00000730: b981 d785 4152 d6bf 7dff 0d14 ecb0 c93f
00000740: 146e 8696 d80b 01c0 a7c0 a258 3720 f2bf
00000750: 0254 fd43 736b e3bf f203 bfac 85a6 ec3f
00000760: d788 4872 c351 e03f 2cf0 bf90 02fb 00c0
00000770: 8250 7118 12df d03f 52d3 e8b9 6416 d8bf
00000780: 2500 2b1a e40e e3bf fc2c 20c1 8617 d3bf
00000790: 4fc3 48d8 61be e33f 6578 3ebf 5952 aabf
000007a0: e4f1 be03 d703 e3bf e4b8 e7d5 2433 c0bf
000007b0: 7e5f 389d 1d0a e43f b031 eac2 2df4 d1bf
000007c0: 9e4a dd74 68bd fa3f 59d3 47de 9cc7 dd3f
000007d0: 2001 a215 ae5f dcbf 0789 ca80 a723 e43f
000007e0: 3d9a 3b2d 989d d03f 52ba e7e5 e969 fc3f
000007f0: 64d1 2354 46ce ec3f 7af8 8aa6 8652 d93f

output_gate_weights f8 [108, 81]
-1.0889786965767292 -1.1523924616589747 -1.119192878530621 0.6541364775899651 -1.8749015423047701 2.364957478728718 0.10773712684054655 0.647887995638171
3.1421238488228154 -0.7415729659859971 0.9972802122541408 0.49273236904371487 -0.5212426690172914 0.7751338905704578 -1.085832209340759 0.3647131131017316
0.2918002355295765 2.2797262285535087 1.9953546822426602 -1.070998689803432 0.34010340177486575 -1.4707388790141227 1.3305492243269839 0.0845197990597569
0.14002053304144013 -0.7218977816522207 0.06495777884041232 0.8838466001175447 0.5187798193933537 0.29827845481343407 2.9270964795666248 -0.26770522636777067
-0.5646272869259046 1.129158172607937 0.04910705749834484 0.8107197270326887 1.314633686840389 -1.799127326041768 1.051962009010063 0.29128096313839485
-0.016186556920648697 -0.7717352884107304 -1.029920962462461 1.6073409398006426 1.1606202495119489 -0.6385473073095169 -0.8220815743084156 -0.49225379223533694
0.1835946529082855 -0.20264466939931566 0.18462146392302017 0.27038449517906055 0.33200165854057917 1.2869839690987601 1.1644343600171538 -0.6389840593884457
-1.8543238680984981 0.4752039952721143 -1.238553715575327 0.606093396911081 0.8419180086090351 1.168593426942697 -0.47902613858195275 -1.228402593862697
-1.3269354574682597 1.1701707436029352 0.9505990358383505 1.7506065095240098 -2.287505988708023 1.2625610184771252 -0.5160735504548049 -0.04172018302562422
2.1278132691551734 0.5305871159137278 -0.711088999112967 0.20538784842710436 1.678692412270849 -1.1483344900715025 1.6313822206942616 2.5120484344794933
1.3732491318148339 -0.33220142670726344 -0.04501249905435747 -1.0843946142915712 -0.19726247026576382 -0.446686869717249 0.5593010541136402 -0.6224450327473628
-1.128207165212661 -0.301572361227922 0.8627744906649039 0.15206175760297258 -1.4333296949316483 -0.6387035777742462 0.090374560984541 -0.9482125168959842
-1.3145660692798247 0.8631195141632295 0.017706193774585603 -0.5750483156028534 -1.671980853690754 0.49770618575532233 -1.2661502876265938 -1.5792052670584331
-0.17675198651726565 -2.0336876193495916 0.28986991514737187 -1.6943522981008523 -1.2769146683701225 -0.9353649430716332 -0.5765023096570195 -0.4350001129871784
-1.1786986222360087 -0.8383333314481718 -1.1614760603450356 -1.9675234440368887 0.07174860454352482 0.31551166878402775 1.2342335386007655 -1.4818455945156626
-0.3308851956448426 -1.8831338230826395 -1.637457302654134 -0.5138867581206508 -1.095454699436557 -0.5743264311400745 -0.8167299709424298 -0.41390610368688974
-1.1430322919542162 -0.7284150237033076 0.5272336044017077 -0.5447999012215364 0.26746009142593197 0.2822956070167225 -0.3376030499674046 0.3721274599594948
0.3352322240315822 -0.9100682945558907 -1.0761111367235408 -1.165800617586336 -0.43760777921146593 -0.7687638512898739 -1.266174539260902 0.20751052374573012
-0.3578302125303515 -0.9475320534926518 -0.7979671444330779 -2.477268350565897 -0.011654410522356029 -0.5277608832138939 -0.0017737081571224931 -0.07197819815907346
-0.4099761489412846 -1.011522042644346 -0.5647014121586188 -2.6224396255462046 0.25365171438179024 -1.0774512668850933 -0.5719044430522621 -1.009716872067771
-2.114004606685782 -0.8828604240651932 -1.1259890503686356 0.022171871300561738 -1.7793824694426532 -0.6224984978472354 -1.0974332074224151 1.7771747005045193
0.28315006760899564 -0.6817026448839837 0.44155030240619947 0.11621772767644895 0.2368300997338197 -0.841884641096614 -0.1070212454766076 0.4440266062618396
-1.3338150000608706 0.0786770729945448 0.5887462498813346 0.704237070908886 0.1879028794618915 -1.5234919291260953 0.832949860089349 -2.0119940332193207
-0.3593498765993395 -1.778227677533344 -1.113267466334977 -1.108100582995222 -0.02191512042251465 -1.5149577870054787 -1.4608528629195427 -0.046425650838142325
0.6239586736813101 -0.9925043450872624 -1.611222972792159 -0.10811789785918002 -2.0216241145506646 0.8290493225376128 0.07035419897298685 -0.21633482492996076
0.07753394905977115 -0.5005343890779441 -0.3551608163587943 -2.0471114515987447 -0.9671359000724039 -0.5305354638684321 -0.5785861966372792 -0.5356575347757296
-1.1253643424496278 -1.9664851484901305 0.20985950646556084 0.051135878616055945 -1.2284934445206392 0.22535608230847473 0.028555359267017858 -1.5780703700289629
0.7378042080864474 -0.06466613149545931 -1.6835366113476355 -0.42026689302268966 -1.4602737283126428 -1.1089364429395097 -0.26715459698776167 0.7071375644081167
-1.105793850159122 -1.5299937261517376 -2.078870276615223 -0.8421838966454526 0.42794675828030554 0.6225892112927498 -1.31040145874793 0.3822607796301916
-1.9102209767338256 -0.7346490039227046 0.1197614328817391 0.2899120992007004 -0.6360215614554663 -0.5249936794174835 -0.046580136236600206 -1.3390607711614455
-0.2657941000253859 0.043390501656939744 0.004116743424751082 0.23895321966314162 -1.0982537686665907 -0.4038271049036629 2.3011517497338843 -2.7743277021515014
0.6932997645644451 0.825391220790159 -1.283040145838554 1.0549178758967657 -0.4560158480473753 3.0664448272767437 0.6614856781865817 0.516936012403444
00000000: 7667 fdec 746c f1bf 37b7 ef13 3370 f2bf
00000010: 2a48 b3ca 36e8 f1bf 3fd3 4b9f afee e43f
00000020: 03b4 76c2 98ff fdbf 4d90 9cd3 6eeb 0240
00000030: d55b 580c a994 bb3f f994 179b 7fbb e43f
00000040: b667 15d4 1123 0940 143e 903a f7ba e7bf
00000050: 0b8b 1231 b8e9 ef3f 804b ae58 ed88 df3f
00000060: 49b0 161b 05ae e0bf f9ae c096 e5cd e83f
00000070: e5fd 4098 915f f1bf 306f 4cab 7557 d73f
00000080: df22 24e5 daac d23f 14c4 db1a e13c 0240
00000090: 7371 0208 f9ec ff3f c23b ac85 cf22 f1bf
000000a0: ce68 f80e 41c4 d53f 4824 a57d 2588 f7bf
000000b0: b33d c3fb ed49 f53f 667e d3ec 16a3 b53f
000000c0: 803a 175d 31ec c13f 220a 6860 c919 e7bf
000000d0: 0089 bdaf 12a1 b03f ccf0 45aa 7848 ec3f
000000e0: d2d0 c322 d899 e03f 749b 2184 fe16 d33f
000000f0: 97cd 1f8f b16a 0740 49f1 0d1a 1522 d1bf
00000100: bcd4 783e 6d11 e2bf 9fcb f528 0811 f23f
00000110: eb96 ea6b 8f24 a93f 6e7a 3a7f 6af1 e93f
00000120: a530 3355 bd08 f53f 7707 2bbc 39c9 fcbf
00000130: a652 951d d6d4 f03f 491d a8e8 58a4 d23f
00000140: 33a5 6f72 3593 90bf 3795 1c34 0eb2 e8bf
00000150: 9adb 3367 8e7a f0bf 5d73 1f22 abb7 f93f
00000160: b9aa eb89 e691 f23f ccfb 3ac3 fa6e e4bf
00000170: 1690 8904 7e4e eabf 64e5 be0c 1681 dfbf
00000180: 5114 fb92 0780 c73f 7baf e3b1 42f0 c9bf
00000190: a931 d816 ada1 c73f 23ee 08c5 fa4d d13f
000001a0: 2c92 69e2 833f d53f 5216 9c80 7c97 f43f
000001b0: 40cc 69ec 85a1 f23f 66a3 b7b2 8e72 e4bf
000001c0: e5cd 1a81 4fab fdbf 44d3 a704 be69 de3f
000001d0: dac3 6bb3 1dd1 f3bf 9dbf c1fa 1d65 e33f
000001e0: c174 1c09 fef0 ea3f 95a1 7005 8fb2 f23f
000001f0: a8df c83f 5da8 debf c163 6f7a 89a7 f3bf
00000200: e1a9 9bac 203b f5bf 732b 28f5 04b9 f23f
00000210: 781d 51ab 4e6b ee3f 1720 a9f8 7b02 fc3f
00000220: a73d 97f0 cf4c 02c0 ef04 b92e 7333 f43f
00000230: 7816 b1ad ac83 e0bf c43b 5b0b 595c a5bf
00000240: 6a21 98f6 c205 0140 d5e8 d0d4 91fa e03f
00000250: c289 77b7 3dc1 e6bf 79bf fe25 264a ca3f
00000260: 43f2 2b93 ecdb fa3f 739d 7bfc 935f f2bf
00000270: f985 523e 241a fa3f 9a75 80d9 ac18 0440
00000280: 4f7b e614 d4f8 f53f 6b1a d9c5 c942 d5bf
00000290: 630b b3d6 e00b a7bf 0d74 c52a ae59 f1bf
000002a0: 2c83 4289 e53f c9bf a03e 3f86 8496 dcbf
000002b0: 472a 0153 cbe5 e13f 6fa4 66d8 11eb e3bf
000002c0: 5038 dbf4 220d f2bf b97d 3629 f64c d3bf
000002d0: 7d52 a73f d99b eb3f 1043 f079 c276 c33f
000002e0: 96df 411e ebee f6bf 541d 4c7c 4270 e4bf
000002f0: 70a7 d187 c922 b73f 353c b7c6 c157 eebf
00000300: 54cf 3f6e 7608 f5bf f8da bbd0 ac9e eb3f
00000310: 613f cb8c 9221 923f e44a a4b9 cb66 e2bf
00000320: 3c3d e2fe 6ec0 fabf 3281 b50b 6bda df3f
00000330: ded5 d2cd 2642 f4bf 9cfd fabd 6c44 f9bf
00000340: c41e cc20 cf9f c6bf be17 bb03 fe44 00c0
00000350: 95be 698b 3a8d d23f feed c327 111c fbbf
00000360: f4ea 4613 3e6e f4bf 8129 0a76 82ee edbf
00000370: 9f73 c1f8 b472 e2bf b151 c2b6 0ad7 dbbf
00000380: ae80 2516 f3db f2bf 9aee 366c a0d3 eabf
00000390: 364d e4eb 6795 f2bf 0f07 e4dc f97a ffbf
000003a0: b74e 0cd6 1d5e b23f 1bc3 bbda 5731 d43f
000003b0: 90aa beaa 6bbf f33f c5a9 e2b9 a3b5 f7bf
000003c0: 3b9c 8119 392d d5bf 291a 82ee 5021 febf
000003d0: 1fef b76d 0633 fabf 9638 7fa4 c271 e0bf
000003e0: b945 c581 fb86 f1bf 5533 dfd2 e160 e2bf
000003f0: 668b 5be4 a622 eabf 6acc bc06 707d dabf
00000400: cc71 833a dc49 f2bf 8e10 1706 2d4f e7bf
00000410: bd3d 0802 19df e03f 7589 d333 006f e1bf
00000420: 0836 6aee 101e d13f 1e3e fc97 2111 d23f
00000430: 69f3 a8d2 499b d5bf 980d 9eb1 efd0 d73f
00000440: c1fb b1db 7174 d53f 38cf 478b 471f edbf
00000450: 836c b14f c037 f1bf e509 638c 1ea7 f2bf
00000460: 510f 0c0f c401 dcbf 6f62 f4a5 b699 e8bf
00000470: 8074 d23b 4042 f4bf b528 8870 b48f ca3f
00000480: 72ab 15b1 b0e6 d6bf 8734 b5bd 2e52 eebf
00000490: 29ec 9364 f288 e9bf 68c5 a811 72d1 03c0
000004a0: b3a4 6180 44de 87bf 4160 b0ca 6ae3 e0bf
000004b0: 7a63 c2a1 780f 5dbf 2f44 1ec7 296d b2bf
000004c0: 21f1 f599 0c3d dabf 0873 c5bc 312f f0bf
000004d0: b93d 27b2 0812 e2bf bba4 5ba0 c1fa 04c0
000004e0: 1806 7666 d43b d03f 47e2 248a 3d3d f1bf
000004f0: 0517 eb8b 0a4d e2bf 0402 fce0 cc27 f0bf
00000500: 6078 4a3f 7be9 00c0 c45d 0981 6440 ecbf
00000510: 56cc 2f18 0d04 f2bf 1c15 8218 39b4 963f
00000520: 864f 95c0 5978 fcbf 1e04 42f8 81eb e3bf
00000530: 4dc7 761f 168f f1bf ca20 1fbd 4e6f fc3f
00000540: ae69 0f76 211f d23f fdf2 ab10 82d0 e5bf
00000550: 07e8 1733 5c42 dc3f d4f5 95eb 71c0 bd3f
00000560: 9e57 88de 7250 ce3f 0d78 100f b8f0 eabf
00000570: 8699 4c8d be65 bbbf bbb3 1c92 ee6a dc3f
00000580: 93cf c265 4e57 f5bf 14e2 743f 2e24 b43f
00000590: 5741 1c60 02d7 e23f 69e7 852e 1c89 e63f
000005a0: 8e78 0e99 330d c83f 8110 b512 3960 f8bf
000005b0: 3654 0977 86a7 ea3f 9964 e353 9018 00c0
000005c0: 0c36 f49f 96ff d6bf 5f90 7ddd 9e73 fcbf
000005d0: 8bc0 f98b f1cf f1bf c749 4aad c7ba f1bf
000005e0: 22aa 02d6 ea70 96bf 2125 6060 443d f8bf
000005f0: 571e 6840 a75f f7bf 5136 1758 1ac5 a7bf
00000600: 5289 302e 78f7 e33f c234 e978 98c2 efbf
00000610: ae4c 6bbd 91c7 f9bf c8dd 6a53 9dad bbbf
00000620: 8766 8643 492c 00c0 763d e271 9287 ea3f
00000630: 55aa b997 bb02 b23f 46b0 070b dcb0 cbbf
00000640: 469c 8acf 43d9 b33f 989e f3b1 6004 e0bf
00000650: 4d3a c56e f4ba d6bf cf11 fff7 7b60 00c0
00000660: e726 b3fc c6f2 eebf 00dc 5582 25fa e0bf
00000670: 262c 0f33 c783 e2bf bdf7 3645 1b24 e1bf
00000680: bb7d 6e0a 7e01 f2bf 665b 8d21 b976 ffbf
00000690: c01b 8322 addc ca3f 8fca 9d5c 7b2e aa3f
000006a0: 8810 f9bd e8a7 f3bf 4d1b bcd5 77d8 cc3f
000006b0: 11a1 b5b8 9d3d 9d3f eaf9 60b7 c63f f9bf
000006c0: 99a3 1292 179c e73f a18c eea7 f58d b0bf
000006d0: 47b5 f515 c4ef fabf 55ef 471c a7e5 dabf
000006e0: fff8 24fc 475d f7bf c348 bc23 34be f1bf
000006f0: ba76 4298 0f19 d1bf 95fd 1cf5 dea0 e63f
00000700: 58d2 68e4 54b1 f1bf a282 8eb3 da7a f8bf
00000710: c782 55bd 86a1 00c0 09ec a9a4 2bf3 eabf
00000720: 6f8f cfcc 7a63 db3f 8e08 ab35 40ec e33f
00000730: b43f 1f85 67f7 f4bf 5987 c3ea f576 d83f
00000740: 8247 f3de 4390 febf 3d62 bca0 3e82 e7bf
00000750: 4e96 8c6d afa8 be3f a207 327a eb8d d23f
00000760: 0e11 c0e3 495a e4bf b98d 768b bfcc e0bf
00000770: 7410 8f03 5ad9 a7bf 4feb b7fc ca6c f5bf
00000780: d10a c541 c502 d1bf 97ad 25a3 4737 a63f
00000790: ea58 01e6 b7dc 703f 8711 dde3 0496 ce3f
000007a0: ad1b 328b 7292 f1bf 8a2c 33a4 4dd8 d9bf
000007b0: f3eb a13f c268 0240 2d05 e9b8 d231 06c0
000007c0: 0f1f e4fc 822f e63f 3e60 76d9 9a69 ea3f
000007d0: 7b4e 9d1a 5587 f4bf 0d14 0f91 f1e0 f03f
000007e0: 418e 7418 5d2f ddbf c822 c139 1488 0840
000007f0: 12ae 5203 e42a e53f d9b7 6c64 bd8a e03f

gate_gate_weights f8 [108, 81]
1.0108274270003703 1.0960098235927211 0.20389600763773016 1.8973018323560946 -0.2234566481603061 0.3130895908215832 -0.06035922170194482 -2.1476306166142707
-0.46390424205796427 1.220688526779324 -0.18541200441624336 0.2328511479597311 -0.1607551149790777 -0.787367393615709 1.094576500515593 0.2677616864756562
-0.7865700882932078 0.9057482655320932 -1.0460728996236908 0.7655036419280897 0.04473634271143598 -0.059019137806937974 -1.2483680115951814 -1.0317775474664426
0.4028065898976147 -0.9192061654447985 0.29966621672763005 -0.9902449994900004 -1.5185748817845492 0.9039714688627527 -0.44819334707752656 0.9648552451481063
2.292191826448482 1.6943120664566182 0.5611218208301542 0.7278449973126362 2.338690741737246 -0.8205604611837825 0.06553737177111969 0.4081650636373616
-0.6699887956224108 0.08786786488136637 -0.8258551801049641 0.7788336474063297 1.2229198189606292 -0.059618646013291206 -1.2446268090480093 0.6858570558809738
0.40015027087096067 1.3250782063578341 -1.5940730585983032 -1.7774612445260773 -0.2798751756779376 0.37222129658879743 0.41364873591992285 -0.8499965709054729
-0.21849121751969652 -0.5373675903807471 1.1398552663183381 -0.6123755973877357 -2.2155059058521807 0.1911329185863795 -0.6414305259935416 -0.59832882299804
-0.23426553581539913 2.885967993322706 0.5693123865826853 -0.8550878281395814 -0.3586765315147914 0.1888978719477287 -1.7273021225029723 0.6458004123709472
-2.682479345473677 0.2362589317058264 -0.39247210466408566 2.367348528061559 1.9809355111940716 -0.6596209998766184 1.04901808877002 -0.2710458102853643
-0.4445772696022441 -1.780003728401848 -1.615268417654497 1.3251753546069838 0.1904547804494072 0.9365588884431892 -0.05301374707226595 0.26039173221684453
0.9789856916819206 -0.9279810975132833 -1.1096851200931646 -0.8734311737508431 -1.6818099395851491 0.495611685926856 -1.7395908808845075 0.5106979350713546
-0.7049879727371382 1.2409319495427513 1.0746593041076589 -0.08607312079742238 -1.5443072648149971 -0.7380228661586506 -0.13798832543357747 -0.5659764014233397
0.10121842450713253 -2.5944519174529908 0.23294309188226794 -0.28855934963826413 -1.2149490730858015 1.3238568221662148 -0.14731806735190314 -0.38309545917751875
-1.3004327221806735 -0.2373054687668128 0.5960734431710688 -1.3623422405259487 -0.26120684664912297 0.12291556558707985 1.492602122655828 0.8958317165712525
-1.4052566229592678 -0.3430615977592666 -1.8946326753742426 0.04336560403378601 -1.914954192319591 0.32112722806363414 -0.6882815964334678 1.0973082383364006
-0.2663649872765011 0.7697794032674428 -1.1613804498568512 -1.377096774393082 -0.5434287692604658 1.463595651568258 0.7799230132807684 -0.13217648061496037
1.918648563903929 0.5960069771802712 -0.303753557808199 -2.344800644686894 1.4221060920259512 -0.33863985358829074 -0.56739032904947 -0.7082044249728773
-0.9894004656417509 -0.2966523959752123 0.49835505654500634 0.452189479013973 0.5932912425653986 0.01139589773708672 -0.12807399814538145 0.44163637920351456
0.5931762392372145 -1.8838126717272163 -0.06845137089861511 -0.4126157291108112 0.325613294754411 1.364268742784484 0.26657047137873846 0.7296295193589669
-0.05978687322890322 -0.25143845428942796 -1.9933861666722474 -0.6050169483534689 2.083174085394227 1.0573447319668507 0.6853942868268609 -0.07390684520013029
0.08457011702225298 0.45904813069311273 -0.8688856065508324 -0.019324492017848117 -0.42645063379393766 -1.2755770741129233 -0.13168837599677866 -1.2019643468049255
1.5678040404985394 0.12637463063049365 0.7791638954416786 1.1566334070706026 -0.3747480713745468 -1.74454226097286 -0.08465344674771694 -0.35894115640634067
-0.7905256778036165 -0.6866826717091127 -1.7754163205577005 0.7699051883678995 0.6072976447792913 -0.8180859060309897 0.8287723545194832 -0.10799453440356117
-0.5265870058406258 -0.9709867200162539 -0.36135395635998663 1.6671883296577938 -1.2908019142333773 0.06849894151265681 1.0054138690808057 -0.2154431770222957
0.9378209423119206 -1.993697358972556 -0.6735747902499146 -2.5872238402636873 -1.1229149865714532 -0.9209129258827446 0.8222877128591528 -0.49789604088847067
1.4808396832871005 -0.6560669150946615 0.4622621951876354 0.4070491254950738 -1.1410589762783991 -0.882381230712 -0.217420739303072 0.5767086753048051
0.0020309362738717843 1.6760881851031673 1.5604524008568486 -0.3841848192465008 -2.0417742577099047 1.3127013441634945 -1.1019322372215 0.13475664810469257
-1.1333516962331593 -1.8216257709674657 -0.790238591223333 1.6509226712230034 0.862316445266574 -0.11632950529273282 -1.0023569064401252 -0.06897781249313621
0.01773589410396006 0.5245677698484881 -2.340794695819067 0.2930952195707274 -0.8307715611602439 1.4484124993543586 2.2628013907233724 0.3559363402781025
0.7390246276910403 0.48804639513439885 -0.1750425343177203 -0.3387626171868242 -1.4795888519731626 -1.1687413052567401 -0.2671454863348418 0.8189606464892492
-0.234758104857123 0.4517378442987695 -0.40108501199201463 -0.7716912648868325 -1.718519992367443 -0.35738920093148596 -2.6399018661133464 -0.2887324826528666
00000000: d9dc 4d61 592c f03f b6ce c698 4189 f13f
00000010: eb64 4bae 4319 ca3f cbc3 892a 595b fe3f
00000020: b50d f639 3a9a ccbf 7dfd 52ec a809 d43f
00000030: 7b98 7166 67e7 aebf 0df9 f1f5 582e 01c0
00000040: 0156 076b 9bb0 ddbf f3e9 51b1 f087 f33f
00000050: 1375 a09f 94bb c7bf 6a5b a900 11ce cd3f
00000060: 5dfb bfa4 9f93 c4bf f384 b01a 1d32 e9bf
00000070: 1ef4 0aa6 6283 f13f 5339 a2e9 0123 d13f
00000080: aa65 a708 952b e9bf 60cf 5bc9 e3fb ec3f
00000090: acd9 d1ef b6bc f0bf ed99 617e 017f e83f
000000a0: bcca c691 aee7 a63f ba15 70a5 c137 aebf
000000b0: 1ac8 72bc 50f9 f3bf ebd8 712c 2982 f0bf
000000c0: 774e 8e4a 95c7 d93f 42be 5b0c 236a edbf
000000d0: 04eb 2336 bb2d d33f 6ec9 fa47 16b0 efbf
000000e0: d3aa dc2c 154c f8bf 1a0b e992 55ed ec3f
000000f0: 70e5 fe25 33af dcbf 3020 691b 18e0 ee3f
00000100: b409 16ab 6856 0240 c163 2af8 e61b fb3f
00000110: 1133 b1bf b5f4 e13f b87a 8097 814a e73f
00000120: 71c1 d97d a3b5 0240 ca99 2503 0842 eabf
00000130: 8539 6ca4 0ec7 b03f 724d ec5b 601f da3f
00000140: 514f bc57 8c70 e5bf abe9 0826 827e b63f
00000150: 6c0e b9d7 676d eabf 7d4e 948a 34ec e83f
00000160: ec0e 415f 1491 f33f f9bf b7cd 5586 aebf
00000170: 6860 09cd fde9 f3bf 06ab 177f 8af2 e53f
00000180: 9615 b8e1 0f9c d93f 1330 8f34 8533 f53f
00000190: 99d4 61c0 5281 f9bf f459 b233 7b70 fcbf
000001a0: 90ef 9f91 79e9 d1bf 7c4f ee45 79d2 d73f
000001b0: 25b3 338c 3879 da3f 6e09 3802 2c33 ebbf
000001c0: baeb da2c 85f7 cbbf 44b3 5384 1d32 e1bf
000001d0: 8d2b 30e0 d83c f23f dfc2 74b5 9498 e3bf
000001e0: fbd6 0d29 5bb9 01c0 713e 4221 0b77 c83f
000001f0: fe8b 794f 9986 e4bf f1fb e07c 8225 e3bf
00000200: 691a 74bf 69fc cdbf 7afd 2463 7616 0740
00000210: 2b92 329c ce37 e23f 4326 2226 e15c ebbf
00000220: 32b8 2c69 8ef4 d6bf b555 2633 ce2d c83f
00000230: ed62 e78c 07a3 fbbf 8d0c 5ca0 65aa e43f
00000240: 180a 28bb b775 05c0 fa3e 8890 bb3d ce3f
00000250: 6af8 8751 431e d9bf a910 d26c 54f0 0240
00000260: 6c04 416f e9b1 ff3f 5932 c77f 9d1b e5bf
00000270: e4df 0231 c7c8 f03f 732e b986 d058 d1bf
00000280: ac24 5f38 f473 dcbf 70e7 8330 e57a fcbf
00000290: 5b67 41b2 23d8 f9bf 0109 9812 eb33 f53f
000002a0: ffd2 b27e d260 c83f 1288 9458 4af8 ed3f
000002b0: 55dd d32b 9e24 abbf ec49 8115 42aa d03f
000002c0: 42d3 20cd d953 ef3f 0d06 246a 05b2 edbf
000002d0: 1087 3a2f 45c1 f1bf f022 d2ee 25f3 ebbf
000002e0: fab1 098a b1e8 fabf b08f a413 1ab8 df3f
000002f0: c519 5d3f 5dd5 fbbf b584 2832 a357 e03f
00000300: d256 dfef 428f e6bf ee8f bd75 dbda f33f
00000310: 91c0 57f4 cd31 f13f f2bb e356 e308 b6bf
00000320: a3b0 d588 7bb5 f8bf 3940 3b21 e29d e7bf
00000330: 52c7 7bf8 99a9 c1bf ee78 cd8a 7a1c e2bf
00000340: 6cc2 025f 73e9 b93f 6b0a c401 70c1 04c0
00000350: c952 bb48 14d1 cd3f 1cb0 69a2 c177 d2bf
00000360: 3158 7370 6e70 f3bf 66a5 bc7d 842e f53f
00000370: e573 b184 51db c2bf 8a77 1ad1 a284 d8bf
00000380: c1a0 c68a 92ce f4bf f8f8 c18d 0660 cebf
00000390: 24e2 0d9d 0813 e33f 054b 9060 27cc f5bf
000003a0: 725a f6eb 9cb7 d0bf 69a8 5dfe 6477 bf3f
000003b0: 8ef3 6bc3 b2e1 f73f 0994 ac46 a7aa ec3f
000003c0: 308f 615e ee7b f6bf 80ee b8a1 b8f4 d5bf
000003d0: 4da5 2a5a 6a50 febf e55a 3136 0434 a63f
000003e0: 9f9c d501 a7a3 febf 3cdc 9837 598d d43f
000003f0: 6fda 6320 6706 e6bf 5594 5415 938e f13f
00000400: d5ba 49bb 1f0c d1bf c460 456a 08a2 e83f
00000410: 4695 a5aa 0395 f2bf 4420 97a0 9608 f6bf
00000420: 42bc f5ba c463 e1bf 0ddb 2046 e36a f73f
00000430: 9e09 6e1b 21f5 e83f 3954 c5ae 28eb c0bf
00000440: 80c1 27d6 c8b2 fe3f aaaa 6539 7d12 e33f
00000450: 6e1c 35c3 b270 d3bf 358f 24d7 26c2 02c0
00000460: ea19 4b51 f2c0 f63f 062c 127e 46ac d5bf
00000470: 60b1 6ac3 0f28 e2bf 0583 8453 9ca9 e6bf
00000480: 0183 522a 2ba9 efbf cc96 bf54 5afc d2bf
00000490: d40c 6a9b 0ce5 df3f 6e75 fd23 acf0 dc3f
000004a0: 774a 7aea 3dfc e23f 04fc b680 bb56 873f
000004b0: ec4d c090 ba64 c0bf edc9 593b c543 dc3f
000004c0: 2f38 89bc 4cfb e23f 8ebd 8dc1 1824 febf
000004d0: 2a3c 606f 0786 b1bf fb26 96cd 4b68 dabf
000004e0: 733b 0725 d9d6 d43f 296e 1376 0bd4 f53f
000004f0: c0a9 2998 7d0f d13f 8bf9 7a01 2059 e73f
00000500: f418 7f92 629c aebf 0550 8850 9117 d0bf
00000510: 6b7f a2e4 e8e4 ffbf 1a86 d680 4c5c e3bf
00000520: b124 c52c 57aa 0040 0254 464f e2ea f03f
00000530: eb2b d9ff bfee e53f bbc8 151b 8feb b2bf
00000540: 1c58 d41e 63a6 b53f 857a 2769 0b61 dd3f
00000550: f83a 0330 e9cd ebbf 3af4 e9b4 ccc9 93bf
00000560: 4638 6099 f74a dbbf 5d7a 8d81 c368 f4bf
00000570: b1b2 152a 2adb c0bf 34c3 87f7 3e3b f3bf
00000580: 6ca5 87b0 b915 f93f fa0f cd3c 0b2d c03f
00000590: d0ab 241f e9ee e83f c944 0d08 9281 f23f
000005a0: 74bc b255 dffb d7bf afe4 5525 a5e9 fbbf
000005b0: 626e 4629 d9ab b5bf ab08 fd53 e4f8 d6bf
000005c0: 9012 9a81 fc4b e9bf b10e 37f0 4df9 e5bf
000005d0: 9547 99f1 1a68 fcbf 77f2 a134 10a3 e83f
000005e0: e879 6878 fb6e e33f 9817 777e c22d eabf
000005f0: e2ae cf99 4d85 ea3f 85f8 68a1 87a5 bbbf
00000600: 87b0 12fe ccd9 e0bf 6a3e eabd 5212 efbf
00000610: a92a 3658 6c20 d7bf 1073 82ab cdac fa3f
00000620: e1f1 73e8 1fa7 f4bf aa83 9b89 2589 b13f
00000630: a559 6ada 2c16 f03f 3682 ba5b a493 cbbf
00000640: aa79 9710 a102 ee3f 098a ae33 2fe6 ffbf
00000650: f711 f1b7 ec8d e5bf 9be9 aa69 a2b2 04c0
00000660: e633 78b4 75f7 f1bf 7429 6462 1e78 edbf
00000670: 143f 5452 2e50 ea3f 8720 1b5b 87dd dfbf
00000680: bd64 a5f3 84b1 f73f b936 0a0b 80fe e4bf
00000690: 1984 a02c b495 dd3f b378 77c6 170d da3f
000006a0: 76c4 9e0e c741 f2bf 8664 1090 773c ecbf
000006b0: e7b0 635a 71d4 cbbf a91d 78c0 6574 e23f
000006c0: 629c 0c9c 2ea3 603f 7bae 43d8 41d1 fa3f
000006d0: 4b51 caef 9cf7 f83f 1923 92ec 7b96 d8bf
000006e0: 036e f5bd 8d55 00c0 278f e91f d300 f53f
000006f0: 2c64 94b2 83a1 f1bf 349d 43b2 b43f c13f
00000700: 3000 6363 3522 f2bf 63b2 7d10 6125 fdbf
00000710: 28ec 2a71 a249 e9bf 4e0b 12e4 2d6a fa3f
00000720: 1322 67a8 1898 eb3f 1bca ca3c c5c7 bdbf
00000730: f747 4165 a709 f0bf 83c1 cea8 87a8 b1bf
00000740: 473b 91b4 5b29 923f fe1d 0159 42c9 e03f
00000750: 988b c991 f2b9 02c0 c7e4 aa73 12c2 d23f
00000760: df29 b43d ae95 eabf 7283 bd95 b22c f73f
00000770: 6a00 949d 371a 0240 c2f3 3c37 a9c7 d63f
00000780: 19e4 dbf9 16a6 e73f a21b 82f2 263c df3f
00000790: 43db 2634 cb67 c6bf 8e2f 7b66 49ae d5bf
000007a0: c303 2c5c 65ac f7bf 2afe 3815 2ab3 f2bf
000007b0: 1e42 c561 e918 d1bf 263c 2cf5 ec34 ea3f
000007c0: 3888 6ab7 8d0c cebf 863d e8d8 45e9 dc3f
000007d0: 60f9 5a78 60ab d9bf bb87 29e1 b1b1 e8bf
000007e0: 6cd8 cbd1 0e7f fbbf 7e6f 7cf4 76df d6bf
000007f0: 7cd9 9cde 841e 05c0 615d 92ce 977a d2bf
