balderdash_lstm/lstm_model/models/lstm_model_23.npz (npz, 903256 bytes, 19 tensors)

forget_gate_weights f8 [108, 81]
00000000: a372 4037 2d5d e53f c257 f90d 446a e2bf
00000010: 6e44 1673 25a7 e6bf 14f5 de4c fee3 e83f
00000020: 6580 d545 0913 03c0 c98e b0b0 a0ff e9bf
00000030: 08e7 ca55 7670 e7bf ad91 f0be 14aa 01c0
00000040: 526b 7b72 e0fa cf3f 29ec 4390 6664 dfbf
00000050: 5bfc 9db9 92cd f63f 599d 4d41 44ff b83f
00000060: 0b8a 85df 2d7e d2bf 3e55 fbaa a113 e5bf
00000070: 2bc6 f672 1588 ca3f 0c4b b166 0788 c4bf
00000080: 9b21 d452 c90e ebbf 7953 c14c 707c df3f
00000090: ff6d 47d6 3130 ed3f 83d5 0f58 806d eebf
000000a0: 39b5 6b6d f604 d93f c630 ac24 074e ea3f
000000b0: 9ba9 1c37 1d93 0040 9eaa c124 b503 ddbf
000000c0: 7ffb 8da9 4e6f d6bf d1fa 1983 8140 e3bf
000000d0: 63c0 9691 3d2a ebbf 36e6 307a 4d7f c4bf
000000e0: bf6c 2511 8442 04c0 d7f8 b7f6 cbbe d43f
000000f0: 3051 4397 bc44 ed3f 7947 92bb a1ae fa3f
00000100: 0c05 8251 c79f fdbf c5ac 6a25 487a febf
00000110: a401 39c8 2aae c43f a4cd c162 e495 eebf
00000120: c53c 9f1c 3467 0640 a430 2f40 5350 f1bf
00000130: 37dc 06a4 c63d ed3f 1bf9 d237 3b44 f2bf
00000140: fed5 07da 5b1d edbf 7a70 7455 8494 e03f
00000150: 095a 97e5 3c40 bdbf e80e 875b 39ce 0240
00000160: 2305 733c 50e1 fd3f 46e7 e3d8 be7f d93f
00000170: c24c 2a61 f1f2 d53f 6cac eb7f e0b7 d3bf
00000180: 1cd1 32ee 39cf e3bf f6b6 1135 9e66 e7bf
00000190: cc5a 78f9 c0ed 0040 2414 fbf4 09f5 f53f
000001a0: 4858 5ac2 c15f dcbf ee75 c349 0e93 ff3f
000001b0: a900 d3ee b0ba ea3f 603e 4956 cd57 debf
000001c0: bfd3 e9a4 e7ab eebf 745b f0f5 72b2 e7bf
000001d0: 28b8 101e 121f bcbf 6b6b c852 8191 f23f
000001e0: 54a2 3547 591c e33f 29ae 03cf ff20 8dbf
000001f0: d6ed cb74 db11 e2bf 5a59 ea01 ed15 d5bf
00000200: 7bdb a53f a1ac cd3f 6ea1 bf61 1711 e0bf
00000210: e9a9 672b b97b d53f 3303 40c5 5ef6 d63f
00000220: 9104 8cd3 f582 f6bf 60da 391f 81c5 dfbf
00000230: c5dc 5db6 3dfe e23f 4307 9e72 acd4 e33f
00000240: 5190 7d92 0db0 ef3f fefe 3e9a 83c8 edbf
00000250: 2fe3 7578 2e21 e1bf cbff ab10 c84a fb3f
00000260: 5779 6476 a976 e73f cb07 c823 505f dcbf
00000270: 2dc6 7334 a0cb f13f c6db 981b f2b5 cd3f
00000280: 6571 89d8 fe11 f83f f6de 62ba 986f f4bf
00000290: b676 8859 543f dbbf c802 3ffe 8739 d2bf
000002a0: 3fb7 3136 0f6b ed3f 125b 9a8f ec0a dabf
000002b0: 3ab3 e172 fe8d fe3f 0666 c9a9 c698 f7bf
000002c0: 831b 0763 2771 f5bf 2043 fb39 0356 d6bf
000002d0: e1b7 9f5d 9aa5 d33f 2c45 876d bfed f7bf
000002e0: e293 499d f70a c63f b3a5 9d37 ecc0 c0bf
000002f0: 233d c827 1cbf dc3f 66b0 c211 79bd dfbf
00000300: 006c c8fc 58f5 f4bf d26f f0c5 3264 82bf
00000310: 960e e258 cd19 e2bf 42d6 c0c8 3fb7 fabf
00000320: 967c 5255 3e21 e6bf c5dc d412 33a7 d33f
00000330: 5b1e f8b8 e1c6 e1bf c36b 899d 7070 04c0
00000340: 23f9 0bee 7e64 07c0 47c0 6abf 00c2 f1bf
00000350: 17cf 21fb b670 e2bf a0cf 2122 6324 df3f
00000360: 039e 2c37 3fcb efbf 763e d5c3 c894 dabf
00000370: 85a3 a97f 328a e13f a37f 5663 13a8 fcbf
00000380: 0847 414d 7127 ea3f 6ac6 1a3a 42ab db3f
00000390: 8805 bce5 c469 dcbf 7f75 f63f 3aa6 e4bf
000003a0: dfde 9c42 8b37 dabf d433 365d 2b33 febf
000003b0: 3070 e510 b86b e73f 4e37 5dca e475 f8bf
000003c0: 69fa c2d2 ed31 da3f 764e 1d6c eb49 eebf
000003d0: 4471 9a6c 9e0c f3bf f5b9 a6ed a28b ffbf
000003e0: a0b4 6f14 43ee db3f 882c 569d 2586 b6bf
000003f0: 0a0c 5af6 6159 f9bf a0f5 eae9 d1c7 ac3f
00000400: c3b7 238b 36ff e4bf 9e4c 717d aea8 f9bf
00000410: 5f97 0d0b 0ec9 b5bf df13 7cc8 b8e4 f13f
00000420: 428b e6bc ed1a d13f 07f2 c5ee 8006 febf
00000430: a489 7388 f2e9 c5bf 76a7 9a60 8b0a f5bf
00000440: df36 1f67 21cc c7bf 0b1d 61bc 5499 f8bf
00000450: 4d42 b820 c9c7 ecbf 2fb3 f9c8 02bd c93f
00000460: 5d34 52ab 6855 db3f 2c15 3146 db46 e7bf
00000470: 940e 6d7a 7377 fbbf 5296 a3c0 8cd3 ae3f
00000480: 5afb 194f ad06 f2bf d3cc 2ebc 80a4 d9bf
00000490: 914b 2a79 8d44 af3f cf8d a1ae 244a 08c0
000004a0: 1247 ffe3 7905 f83f c26f 056f daae e5bf
000004b0: 2a12 6059 7cba fbbf f3b3 ec77 566a cf3f
000004c0: 478b 3e10 cc52 ee3f a806 26b1 111a f83f
000004d0: 808a 9b86 42c1 f2bf c231 a9eb 5c73 f8bf
000004e0: 9788 f72f e77a bc3f 87cb 2fbd 8ea3 efbf
000004f0: fc93 7799 7c44 d3bf ba88 e8f0 1527 fdbf
00000500: 9fb2 3a3b 997d fcbf 8a0b 49af 42d8 fcbf
00000510: f36a a918 018f f0bf dac5 11aa 4072 e3bf
00000520: 1de7 d063 d893 ddbf aad5 712e 52c9 dd3f
00000530: 8977 88cc 51da f3bf a2ad bf43 29ae f13f
00000540: f625 5d56 a083 d5bf 16aa 57a7 6695 00c0
00000550: bfd4 d318 771d e23f 59c8 5fd6 cd42 d7bf
00000560: 121f f25d b9e2 cabf 6e09 cca9 2bcd e33f
00000570: fd92 88df ca68 95bf ac4d a069 c32b b8bf
00000580: 5691 8be5 ae86 a13f 0ac0 fad2 e241 cbbf
00000590: e50b 838d d888 e83f c954 210d 81ff e73f
000005a0: 35ae cf26 034b d2bf 3870 39df e1b8 f5bf
000005b0: 7853 cfa1 dd40 f83f 4c3d ceca ebb5 dfbf
000005c0: 3799 52ee 51e6 ddbf 8701 565c 43bc 05c0
000005d0: b784 5c7f f9f1 ebbf 2028 1f59 c2c9 e9bf
000005e0: 2064 9f2c dbd9 da3f 1576 7954 db7c eebf
000005f0: c0f9 cd79 b056 ecbf 4be9 fe5a 2c7a e83f
00000600: e7fe 4144 db40 c63f 7cf5 df13 cf85 fc3f
00000610: 67d6 4a1e fcd2 d4bf 5c66 8d75 9d85 f0bf
00000620: 329c 3718 06e4 d33f 187d a563 9a21 e23f
00000630: b808 773b 01cb 653f a2d7 7c6b 3ea2 e0bf
00000640: c716 7759 e0c5 df3f 253d f3a2 b2f7 e1bf
00000650: 40eb e486 1919 d3bf 9101 d18d d307 c8bf
00000660: 70e9 fb5c f172 f9bf 1455 7fa2 48af d93f
00000670: 02f7 fa19 86d5 d63f 1352 df10 39b6 d83f
00000680: 7699 386d b628 efbf 8cbb 31de a2a5 c3bf
00000690: 6395 1018 2b8d bebf fc7e 350b 7a80 edbf
000006a0: 02e8 c3ed 60b4 d83f 6823 d026 3a17 f43f
000006b0: cf93 bca4 906c e4bf aacd 5e3f 049b f13f
000006c0: 2079 c18f 1533 c33f d62b 6cf1 b675 e4bf
000006d0: b15e 1881 c59a f7bf 9130 22b6 2f81 d0bf
000006e0: d85c 833f 034b db3f 54c8 dd57 d2b7 de3f
000006f0: 2e07 2358 c332 ecbf 7ca8 b62d 2bd5 7fbf
00000700: 84e5 1ace c02a f2bf d350 ce1e 3e72 f8bf
00000710: 22f4 c0b8 6079 f0bf 5e2f 7d7e fd97 de3f
00000720: f588 3ef3 950d cf3f 7f96 fabe 3c91 ca3f
00000730: 575a 95ac 47c5 e9bf cb09 2879 305b bebf
00000740: 7106 5e95 f1b1 a43f 3691 44f8 58dd f73f
00000750: 38e4 8544 f597 fa3f fa93 b526 0f39 d63f
00000760: a945 d394 ade2 ebbf d39d af32 1cf6 f43f
00000770: ab2a 35ec acc3 f7bf f496 61af 7eaa e03f
00000780: 0063 bea8 6f65 b2bf 2525 80a7 0d14 d6bf
00000790: 71f4 13c8 72e9 f0bf 2c46 01aa 1b27 f93f
000007a0: c7c0 f97d b8a0 eabf cfbc eece dddf ffbf
000007b0: e25f 68a7 511b e93f d7b5 6fd6 bca6 edbf
000007c0: 4442 c954 6db0 f33f 7c35 0d88 5cd8 c33f
000007d0: 89bf 7d54 ff90 f7bf 405f 4a86 fe4c f13f
000007e0: 3a7c 6006 571d f1bf 4f29 f5f8 954e ef3f
000007f0: 38ed 9f41 5cd7 f63f 82e6 bbc7 4323 ec3f
0.6676240996490218 -0.5754719040803524 -0.7079035995285616 0.7778312207589431 -2.384295030191469 -0.8124545527429855 -0.7324783015858154 -2.2080473820844504
0.24984365072199438 -0.4905029686776197 1.425188756052896 0.09764505953136417 -0.2889513666943066 -0.6586464251983342 0.20727794755434678 -0.16040127290997253
-0.8455549829241592 0.4919701337396912 0.9121331391465332 -0.9508668632467309 0.3909278935014587 0.8220248905431837 2.0718330674764736 -0.4533512934637346
-0.350543656902964 -0.6016242561889503 -0.8489063113720586 -0.1601349684367947 -2.532478460268606 0.3241453084336973 0.9146407083849564 1.6676347090728696
-1.8515084442045149 -1.9048539601888461 0.16156515861986265 -0.9557973793838994 2.8003923641295807 -1.0821106440735457 0.9137910083435433 -1.1416580372456966
-0.9098338373575527 0.5181295079269284 -0.11426144223455749 2.3506953383056164 1.8675081597614926 0.3984219663685632 0.3429530571822391 -0.308097958490811
-0.6190461780848042 -0.7312766109950803 2.1160907258848507 1.372323948818356 -0.4433445356347687 1.9734022981059485 0.8352894463096351 -0.4741090147626661
-0.9584844799961657 -0.7405333331579258 -0.10984910234466894 1.16052372300211 0.5972105398951251 -0.014223097329213523 -0.5646798402007629 -0.32946324526837645
0.23183074577147153 -0.5020863446380142 0.3356764720798809 0.35878724348735885 -1.4069727195313002 -0.496429710859422 0.5935352861260063 0.6197111357325656
0.9902408467428448 -0.9307268154734343 -0.5353004791969392 1.7057572032208437 0.7332351028779084 -0.44331744665407474 1.1122133301654558 0.23211504313959902
1.5043934305641298 -1.2772452622138508 -0.4257403253885558 -0.28476142719959485 0.9193187769394412 -0.40691675208783906 1.90966648936883 -1.4747988350194432
-1.3401254528305067 -0.34899979269271064 0.3069826044364828 -1.4955438879445166 0.17220969371842815 -0.1308875342904635 0.4491644276140098 -0.4959395097200797
-1.309899318154521 -0.008980175653100195 -0.5656496749874858 -1.6697385637211402 -0.6915580431413157 0.30708004797947935 -0.5555275547676034 -2.5549022967875046
-2.924070224514382 -1.1098639943338797 -0.5762591271327179 0.4865959008523024 -0.9935604169485831 -0.41533106922449947 0.5481197827731284 -1.7910341148744713
0.8173147686850095 0.4323278014590871 -0.4439556354046421 -0.6452914475700452 -0.4096401358142269 -1.8874925271113527 0.7318992929463146 -1.5287826447342527
0.40929742414656417 -0.9465233909235866 -1.1905807726207778 -1.971590927434247 0.4364173602651338 -0.0879844197390175 -1.5843219397654615 0.05621200542871496
-0.6561539380616 -1.6036820316410636 -0.08509910364008764 1.1183402854378455 0.2672685951931052 -1.876587803562076 -0.17120200789129314 -1.3150743268583631
-0.18591706786394632 -1.537434326035341 -0.8993878974016042 0.2010806542706631 0.4270879433686952 -0.7273994799549306 -1.7166628629937906 0.06020774699736066
-1.1266301240827574 -0.4006654584620268 0.06106989006106923 -3.0362027781536436 1.5013369470729612 -0.677594391668656 -1.7330287448140873 0.24543267112440467
0.9476070706626637 1.5063645286431129 -1.1721825845822025 -1.5281647878174316 0.11125035210673882 -0.9887155242016527 -0.301055097456185 -1.8220424089891325
-1.7806637109417023 -1.8027979704936308 -1.0349131549216366 -0.6076968499821149 -0.46214875934275473 0.4654126599847027 -1.240800665814705 1.1050198217807083
-0.33615883287401915 -2.0729497026088763 0.5660968289290834 -0.3634523957727019 -0.21004407012173282 0.6187952343318963 -0.020907564061547913 -0.09441777542843138
0.03423067619385971 -0.21294818212254568 0.7667048229126264 0.7499394661378115 -0.2858283881202824 -1.357637283296766 1.515836364812655 -0.49547858052479365
-0.46718261979767156 -2.7169253553149164 -0.8732879149939866 -0.8058788052233048 0.419546884133128 -0.952741303433586 -0.8855821970935764 0.7649137284527482
0.17385426361942466 1.782668187748043 -0.3253774925063681 -1.0326208679092792 0.3107924686905249 0.5666019388408214 0.0026602768009250342 -0.519805154740187
0.49645241486392105 -0.5614865477199699 -0.2984069650007548 -0.18773884224539164 -1.5905622131527615 0.40132346981893474 0.35678246056691887 0.3861220040101056
-0.9737198003029295 -0.1534923157628011 -0.11934155786055593 -0.9219331950116323 0.38600943774474683 1.2556706920751939 -0.6382525651466667 1.100345847645125
0.14999646682094525 -0.6393694606098232 -1.475286011007409 -0.2578849104545578 0.4264534111257041 0.47996958332726547 -0.8811966630384853 -0.007771652857096464
-1.1354377795199477 -1.527891273818615 -1.029633256620635 0.4780267462963276 0.24260210396921136 0.20755729031695933 -0.8053320284623834 -0.11857893903655918
0.04042010258036733 1.4915399263346223 1.6620991398506373 0.3472326162357714 -0.8714206606620581 1.3100854854509307 -1.4852723337996092 0.5208123612798929
-0.07186029309958641 -0.3449739585635874 -1.0569942298455113 1.5720478668994344 -0.8321192226849455 -1.9921548922828156 0.7845848340684791 -0.9266037166796036
1.230573016353575 0.15504032748360064 -1.4728997517049456 1.0812974210475232 -1.0696630715463145 0.978342996831353 1.4275782168832176 0.8793047810606398

input_gate_weights f8 [108, 81]
00000000: 41f1 8708 0a0f ff3f 1e7f 58dd 9678 d9bf
00000010: 2a0a 3852 275c 00c0 4b65 d1d4 e0d4 eb3f
00000020: 16c2 ff83 5a64 fdbf dd01 cb6d 897d f83f
00000030: 6a83 c71a 1e41 d53f 7149 2d2d c6ad f73f
00000040: 5fde d35a 363f fa3f 1e74 d97a 94ad e3bf
00000050: bb96 99a3 dd8d f33f 2650 e599 7525 efbf
00000060: 5110 8643 18ef a93f e0d5 3574 31a7 f03f
00000070: b560 b176 1e6a aebf 76c9 2c00 5fad f23f
00000080: a28f 2a73 78de de3f 52c9 172b 6da8 fe3f
00000090: 9174 0f45 b995 f73f c9ef 61c2 3c00 dd3f
000000a0: 33cf 9f2a 3a71 d9bf b570 05a6 458a 03c0
000000b0: fc7b 3cff 7bac ee3f 26e0 1e54 469d c9bf
000000c0: bbdc add1 d194 e93f cd17 7d81 87e2 ecbf
000000d0: d3ca 3a53 6e16 e53f c562 18c5 d21d d53f
000000e0: 0b37 96b3 d949 fb3f 4952 8c37 3215 b7bf
000000f0: 885f dcfc a11d 0840 4296 051d fe13 f8bf
00000100: 3989 5dbf 474c b9bf ac63 f4cc 5962 fe3f
00000110: 0d61 36ee 0685 f73f 253d 8473 c83e cd3f
00000120: c299 c843 fa84 fc3f 6700 91ba ab02 f1bf
00000130: 45e4 d046 4727 f03f ee06 d4aa 35f6 e03f
00000140: 545a 2131 d1f8 cc3f 8873 c630 3527 e53f
00000150: d2af 813c 22ad e6bf 10cc e57b 2a65 f73f
00000160: ae2b 4a0a 9240 d7bf db7c dcd6 a8ee 953f
00000170: 33b8 d800 2f9e a93f f163 4a48 3831 bd3f
00000180: eb74 36c7 884b ec3f d52b 5233 63ab f3bf
00000190: a943 cf4c 51e1 d3bf 470e 63cb 7f18 e53f
000001a0: 4c20 55fb 96be d53f 7537 edf0 956d e53f
000001b0: c412 2f91 9f1c f83f dc45 7d69 53db e6bf
000001c0: 5701 b50b 80ea efbf cb9a 15a1 81c7 d23f
000001d0: 6229 8769 7602 e13f 1e3a 2341 62a5 f03f
000001e0: 5e16 3b67 2e23 0440 5118 6ec8 7e9a e03f
000001f0: 0acd cf5e c409 e53f fcd4 5add 4acc e3bf
00000200: da4c 6fc3 406d e9bf a8eb 6d60 e1a5 0040
00000210: 5a59 c17c 207f e93f 1eea c6e6 ee25 f53f
00000220: 81f2 ffd2 09c2 febf 54b0 49b3 1183 f03f
00000230: b2f7 4811 660f 9e3f f6ea 654a 48b0 a6bf
00000240: 387c ef35 3dc2 f93f 24b3 6b04 9882 f63f
00000250: 959f 7c4e 42fe cd3f 6d8d 3d14 47b8 d33f
00000260: 8d59 33a2 1097 0140 a6a9 7491 1f8f aebf
00000270: 2824 aeae c8a7 f03f debb b027 3ff3 fe3f
00000280: ee5d 8557 6f9c f33f 84ea 7a71 cd07 e6bf
00000290: e803 be1f ae92 e5bf 805d 8356 c3c5 c3bf
000002a0: 2d01 8235 4a62 d4bf bfd2 eb7c 9f29 c4bf
000002b0: d669 5c9e d1f7 8dbf f269 71bf 84cc e9bf
000002c0: d81e c575 d7ff c4bf 2b54 1811 be2f d7bf
000002d0: 397c ef37 f02b d0bf 2581 69b2 b41d d6bf
000002e0: 408c 6501 42e3 f9bf a86f e74f 42f3 afbf
000002f0: 6ac1 9619 6622 b3bf d7b6 c425 021f bfbf
00000300: 224a 801a d4b5 b0bf 9773 9999 2554 b6bf
00000310: 22f2 8d5c fb7a c7bf f2f1 3c19 9471 e6bf
00000320: 018f a143 3383 f6bf 7272 333c 7d08 ea3f
00000330: aafc dfbb a2f9 ea3f 9e30 3cda 9f51 efbf
00000340: 14a8 8538 10ec f43f 71cc 4790 f076 fbbf
00000350: ba0c a290 d58f cfbf d662 8e21 45c6 933f
00000360: 99b9 9243 804a e53f 1283 b620 1a84 f2bf
00000370: ba07 0321 ec77 f2bf f5a4 30bd 6e01 d0bf
00000380: 7ddd c20d 0e9a c0bf 7340 b90a 628e e4bf
00000390: 2a90 5a6c bc02 c7bf 4202 fb19 6947 d0bf
000003a0: 7cf8 2f29 2757 b13f 6a9d 0a58 def7 e93f
000003b0: 4f27 0da5 d503 cabf 844d b4e5 13c6 efbf
000003c0: 3608 4e7b 1719 e2bf 8ba5 4279 7d55 9a3f
000003d0: fb9a 285e 257a f5bf 991e 95ca 2473 e53f
000003e0: d8a0 4163 e0ce fcbf fa25 a41a 16a2 ffbf
000003f0: 81f9 9c77 8b1e f2bf 6ce9 bbc5 912c c7bf
00000400: abc1 c23c c101 e4bf d349 8ce8 0b07 8f3f
00000410: 4abe 18f8 c9c6 da3f 49b6 b087 5a21 f7bf
00000420: b9bd 56b0 ef6a e0bf 4bff 9976 3821 e5bf
00000430: 09d5 d01b c665 f8bf dcdd 8728 0c07 e63f
00000440: d159 0b2e 3a57 d33f 1ece 1544 0281 e1bf
00000450: a3ad dcfa a9ec e7bf c698 39f6 bee9 f2bf
00000460: 848a ef4d b3fa f0bf e6b3 6944 f20d 893f
00000470: e34d 28f4 8b51 00c0 42c2 c91c 134d dfbf
00000480: 3f67 ec8a a878 e1bf 4c3f e23d e792 e73f
00000490: 4cae bce5 8dd9 cc3f 8d29 ff0d 8a29 00c0
000004a0: c2f6 9054 6cb8 d9bf 1560 706c a097 c03f
000004b0: d75b 0d37 a860 dabf 2959 2f88 42fd f7bf
000004c0: 8f4f 21aa cacf f6bf 794f db09 b83d dfbf
000004d0: fdf9 e55f eedb c0bf 4f26 5ae1 51b0 efbf
000004e0: 39c2 232e d399 01c0 045e cae4 a5a1 ba3f
000004f0: 81a1 59d9 0b5d b33f 76df a090 2481 e7bf
00000500: d37c 7beb 99b0 f9bf 76e2 57de 7ca4 d53f
00000510: 53ae f670 d1c8 a53f fb3b ff14 c135 e1bf
00000520: b1b9 985b 45d7 f5bf cae6 5a5a 3c97 f0bf
00000530: e47a 9308 6925 fbbf ff6e f821 25fb c7bf
00000540: 9e00 90cb 2a59 c43f 08b5 656a 86ba 93bf
00000550: 1e7a c4e1 0360 c1bf 0e77 7d33 f1a9 e0bf
00000560: 6553 9330 8170 e83f c086 5af3 5efb fdbf
00000570: e92c b862 735f b93f f032 5f3d 68d9 dfbf
00000580: ce0d 06b3 9eb8 f4bf ef46 2a7b c095 f03f
00000590: f3ab 591f fabb f03f e144 a714 ebd7 e53f
000005a0: a6ac 9583 434e d13f c350 8398 ea7e e5bf
000005b0: af7b 23b7 ff48 e03f df6d 1186 4efe b7bf
000005c0: 35d1 4235 1e39 efbf 6d15 e91e 4537 e9bf
000005d0: 5e27 3eed 0d7b f4bf 8fe7 d80d b5cd efbf
000005e0: 3d67 552f c640 f83f ccd3 91a7 1d49 d2bf
000005f0: 1d93 d7a4 4cbf f1bf 23fe a4ee 12af e4bf
00000600: 1257 77f3 34c5 ee3f b229 f9fb 909d edbf
00000610: 2a2a eee3 572f f5bf 5c52 d570 c0a0 ad3f
00000620: 44c3 a5b1 ce25 e9bf 43df fdce 3ba6 dc3f
00000630: 9f41 457a 8eb8 e73f af80 946e 4f85 f7bf
00000640: e6a1 5716 5802 cabf d815 4cf5 e201 dbbf
00000650: eae2 2c35 b4a0 c73f b426 9a48 67b4 f4bf
00000660: 29b8 3d36 6ded e6bf 51e7 af50 9a71 f0bf
00000670: 93a2 3114 0315 f9bf 23a0 26f3 e046 f9bf
00000680: 6a2d 7297 f41f d5bf a165 402e 34ac f3bf
00000690: 6585 73d5 abdf de3f 748c c249 89aa e0bf
000006a0: 65d7 5ab9 376d f4bf 48bc d3ed 4c41 f3bf
000006b0: ec09 9119 831a e1bf 8240 3581 99c0 04c0
000006c0: 417f b758 3a08 f23f 7a56 32c1 adb8 e0bf
000006d0: 2009 b5c1 4e67 f2bf 855e 185e b279 d3bf
000006e0: bdfd 1c9b 7a54 f6bf 9b56 01c2 2ca5 e4bf
000006f0: d4e7 ff5d 386a eb3f eda8 8eff d284 d2bf
00000700: ea3b fbe5 5b8e f2bf af1a 031d 6993 02c0
00000710: 0444 935f b538 e0bf 1a96 27e0 676b b33f
00000720: db0f da4b 8685 9cbf 2d8e b4be 847b b93f
00000730: ac47 fc13 10c9 d1bf e350 9549 a466 d03f
00000740: 641c 39a4 9248 01c0 9cee 1eea 04a9 f2bf
00000750: 5756 9377 0ed6 e4bf 8dad 5b7b 03a7 ec3f
00000760: b620 e044 67c0 de3f 74c3 e9a6 147e 01c0
00000770: 303e b251 9e3b d13f d964 95d3 b6fb d4bf
00000780: 67cb f845 39c3 e6bf 1e74 9ae0 1ffc c6bf
00000790: 7f31 da5c 639e e93f be3c c58e dc2f a43f
000007a0: 6d13 2cb9 f07b e3bf d503 2af7 6d41 b9bf
000007b0: 3d6c 9c98 0d5d ea3f 6345 5afb 8d2d 6cbf
000007c0: 42e4 5e7d d260 fa3f c570 d7e3 0c0d d23f
000007d0: 8630 9670 780f e0bf 4921 4649 2452 e83f
000007e0: 1f1d e51a 16db bf3f 1739 410d 4537 fd3f
000007f0: d2f7 0bdd 18ac ea3f 28aa 8090 6a29 d43f
1.9411716778987087 -0.3979851876811028 -2.0449968741752587 0.8697361141777632 -1.8370003849232766 1.530648640517135 0.3320994626538353 1.4799253239367227
1.6404326961473072 -0.6149389647868053 1.2221351996062555 -0.9733226781631898 0.050652273409497746 1.0408186473335874 -0.059403373707654174 1.1673269278367946
0.4823285221739245 1.916119736034109 1.4740536401434705 0.45313948614761707 -0.39753584063076913 -2.4425156565103756 0.9585552201350533 -0.20011214358760404
0.7994164557739148 -0.9026525048327528 0.6589881539897199 0.3299452709921236 1.7055298819645397 -0.09016717773585826 3.0144691233398966 -1.5048810132660866
-0.09882019445425251 1.899011421779714 1.4699773125813096 0.22847848549324926 1.7824652335926747 -1.0631520545721516 1.0095894590615597 0.5300548874367601
0.22634329699458766 0.6610361054077751 -0.7086344892281835 1.462198719000984 -0.36331606869560573 0.021418226350871854 0.05003497014364235 0.11403228535563394
0.884220494353625 -1.229342651817878 -0.310627293595696 0.6592406246567827 0.3397576765460186 0.6696271615598862 1.5069881125684086 -0.7142731724108518
-0.997375510087333 0.2934269021119859 0.5315506039708391 1.0403769058644978 2.5171783509165797 0.5188592829370099 0.6574422694961026 -0.6186880420051746
-0.7945865456662446 2.0809962781472287 0.7967684208513603 1.3217610373236606 -1.9223726503543335 1.0319993022376552 0.029355616383547285 -0.044313677865792586
1.6099216563086554 1.4068832562144928 0.23432186920512935 0.3081224153194942 2.198762194816658 -0.05968569422323648 1.0409628699728817 1.9343864012150713
1.225692121390121 -0.6884524551781657 -0.6741552944150699 -0.15447274898791008 -0.3184991381204039 -0.15752023315112315 -0.014632833142560846 -0.8062156428453007
-0.1640576672600591 -0.36228896779477066 -0.2526817842717182 -0.3455631010347296 -1.6179828695828888 -0.06240279412642674 -0.07474363445976953 -0.1215669004638714
-0.06527448317528031 -0.08722147941575852 -0.18344060916196364 -0.7013645642214767 -1.407031311210574 0.8135362792778109 0.8429731053764915 -0.9787139189152361
1.307632656850278 -1.7165380130725476 -0.2465769726005414 0.01931102769194378 0.6653443641460398 -1.1572514798974152 -1.1542779244923467 -0.25008743739688494
-0.12970138236935816 -0.6423807343908393 -0.17977099695883797 -0.2543585542407848 0.06773609881926917 0.8115073890266278 -0.2032420211710879 -0.9929294096386205
-0.5655629547402501 0.02571674397100802 -1.3423207929678813 0.6703056294145028 -1.800506961555632 -1.9770718613311815 -1.1324572250738074 -0.18104765086156804
-0.6252142130597823 0.015150158914853861 0.4183831141299136 -1.4456429767991656 -0.5130537456624814 -0.6603052441059644 -1.5248471342613945 0.6883602897277643
0.30219892975347046 -0.5469981508053399 -0.7476396464966694 -1.182066881004674 -1.0612061542857711 0.012233631813808498 -2.0398177218246345 -0.48907926379527933
-0.5459788049076691 0.7366825302760645 0.22538922994259492 -2.0202828496450764 -0.4018812967150148 0.12962727827903167 -0.4121494805926295 -1.4993310279583716
-1.4257303853710004 -0.4881420227295546 -0.13171176607643523 -0.990273418560898 -2.2001098255789455 0.10402905307488913 0.07563852363967351 -0.7345145058416012
-1.6056155394106113 0.3381645366021425 0.04254774574232258 -0.5378117952440101 -1.3650563791266956 -1.0369227914329024 -1.696633370876662 -0.1873518386718089
0.15897116603446632 -0.01926622414014381 -0.13574265025904791 -0.520744896475408 0.7637334774723114 -1.8738698488236167 0.09911271247999633 -0.49764448159548547
-1.2950732224570518 1.0365605174196693 1.0458928322429955 0.6826072123896233 0.2704018387800694 -0.671742723347528 0.5089109970975779 -0.09372416279932548
-0.9757224121335982 -0.7879968265266776 -1.2800425784393705 -0.9938607473807098 1.5158140038460737 -0.28571263660643065 -1.10920395270768 -0.6463713322663732
0.9615731005858115 -0.9254841729501122 -1.3240584281471777 0.05786706330642197 -0.785865160911364 0.44764609540969874 0.7412788761230792 -1.4700464553389272
-0.20319653597768123 -0.42199014620595454 0.18459179493381522 -1.2940438114186863 -0.7164827403446498 -1.0277350570526844 -1.5676298893760403 -1.579804372604493
-0.3300754050221345 -1.2295419508649064 0.482401808212748 -0.5208174172042974 -1.2766644707130237 -1.2034425058480043 -0.5344863414141492 -2.594042787015554
1.1270087686061319 -0.5225437901851386 -1.1502215925871226 -0.3043027800463068 -1.3956247386084748 -0.6451629437603573 0.8567163310938164 -0.2893569465328614
-1.1597556098602078 -2.3219778315136277 -0.5069224230484228 0.0758576318981671 -0.027853105907084213 0.0995409932698343 -0.2778968997164337 0.2562647551142289
-2.1604359464577545 -1.1662644524903163 -0.6511299453220073 0.8953874024713727 0.48049337125895464 -2.1865628280724483 0.26926382043982056 -0.3278634134527017
-0.7113310209882514 -0.17956922976455386 0.8005844892045814 0.03942765467456287 -0.6088794342655156 -0.09865462574272439 0.823859022205745 -0.0034396908839162007
1.6486382386485876 0.28204653024819165 -0.5018884848555139 0.7600270682460543 0.12443674236884704 1.8259935872807256 0.8335079495734539 0.31502784835416486

output_gate_weights f8 [108, 81]
00000000: 2f82 6571 40b5 f3bf 51a6 366f 2f3e f1bf
00000010: 00e1 7661 2fc7 efbf 0f0d e054 da6a e53f
00000020: 2c49 3deb 77bb febf c03d 5ce7 f381 0240
00000030: 5fd5 8d04 ebb9 aa3f b929 9813 eaa3 e33f
00000040: c6c3 4b89 0be8 0a40 0c06 f32a 7be2 ebbf
00000050: 9f7b 494b 429c f03f ec73 58c8 3796 c73f
00000060: 5026 0bf0 2564 d9bf 63d3 88bc e1fa e93f
00000070: 8b94 653e ee3f f3bf 9f81 5bfd 2d3e dc3f
00000080: 22ac 649a 0fa7 d63f 2a2f 5cfa e88a 0240
00000090: ffcc f7f3 4858 0040 6366 af73 e9c8 f1bf
000000a0: e13d b743 acc5 de3f 8b34 23f5 3996 f9bf
000000b0: 72cc d326 03d4 f53f d720 c091 f320 a5bf
000000c0: 6b4f 4c88 2dba c83f f767 47c5 ca91 e1bf
000000d0: de17 d0ac 06c0 a9bf 67d6 60e9 fb07 e93f
000000e0: adb3 70ed 6e8b e03f f1ea 475e 4094 d43f
000000f0: 2de2 c52d f249 0740 d1e3 f8f6 a224 d0bf
00000100: 67a7 6756 a89e debf 2dae a7dd 3483 f03f
00000110: 7084 1d41 2593 903f cda6 8f85 093c e93f
00000120: ede2 8d0a 9a79 f43f e5ad b81f 7344 fcbf
00000130: bc6e 9504 4672 f03f 7cb5 192f 3625 d13f
00000140: a9a0 eebf 3ee4 c1bf dfa8 6af7 1e45 e1bf
00000150: d0c4 a564 44ec f2bf 309d c052 0091 f73f
00000160: 214b f315 145b f13f 1878 ee7d cd88 e8bf
00000170: ab60 2cdf 439d edbf 9341 3b5e c420 ddbf
00000180: 4206 f453 0b81 b93f 124e 3636 5d41 c5bf
00000190: 6861 22b3 bf36 a9bf 092f b3f8 2bfe c33f
000001a0: f9eb c8e8 9bd8 da3f 933c 2233 a84f f33f
000001b0: b0c0 7465 b4a7 f43f d92d 8f14 6fb2 e5bf
000001c0: 9cff d71a f464 fbbf 0ad8 e9f8 bdf2 e03f
000001d0: 119b 4280 bb4a f3bf 6603 22b3 e331 e43f
000001e0: 90f0 cb68 9475 ec3f c565 445a a04d f23f
000001f0: 7733 aa3a e648 dfbf 1e0a 35dd 4f14 f4bf
00000200: 1cb6 47ba 9b0e f6bf 4d81 dee4 4893 ed3f
00000210: d841 4779 d847 ea3f 668a 33f7 358b fb3f
00000220: bc1a 63eb 95fd 01c0 31d9 e2f6 edc4 f43f
00000230: b765 4875 d5aa e3bf 51cb 8a74 2013 c1bf
00000240: 4598 b86d 1a97 0240 dae1 2be5 1fd3 e53f
00000250: cfbc 9c47 065e e8bf 542e b0ae eec7 cf3f
00000260: 6003 b767 ba46 fc3f c128 fc0f fd7a f1bf
00000270: 9edf 7e3b e4c5 f83f 068f 0826 ce25 0440
00000280: 8a6d f379 9a89 f63f 319a 08dc a443 d3bf
00000290: 01c3 75ad f381 cb3f 419f f596 b426 f1bf
000002a0: 97a4 eb4b 0471 bcbf 471a 2ff6 24ff dcbf
000002b0: 63eb 0a06 2a86 e33f 15af d326 defd e1bf
000002c0: 3449 13c1 9e1c f2bf 6fe2 e93a 5f11 debf
000002d0: aece 143b 2485 ec3f 5c23 c17a 6e6f ce3f
000002e0: 8a32 9fac 2752 f6bf c0f8 d997 7665 e5bf
000002f0: 1616 16f0 82b7 c03f 5418 f89b e978 eebf
00000300: 6dca 6c82 1367 f7bf 016c e303 a6cd ee3f
00000310: 5b99 5671 feb5 9b3f 406b 7ab9 9e8a e4bf
00000320: ede9 6557 4c0d f9bf 652b 8057 e36e e13f
00000330: af87 586f 6ce7 f7bf 5c82 c16e ab25 fcbf
00000340: 25d6 ea39 bf8d c6bf 2809 8dea 810d 01c0
00000350: 16d5 85b3 3283 cf3f 2553 0178 96ee fabf
00000360: 2045 8b1b ef60 f4bf 9c3b da19 72c3 efbf
00000370: 3845 5a61 e99a e4bf 8e32 1b5f 75d4 e2bf
00000380: 3e17 87cd 09f6 efbf 49df 6222 633a e4bf
00000390: 07c9 56c4 dcc2 f1bf 0b04 9d98 c6be fdbf
000003a0: 35b1 dc4e 321b a13f 121a 4936 747e e13f
000003b0: 062e 5acf cdda f63f 8af0 71bd 5427 f8bf
000003c0: 603a 37b0 3c9e cabf e9b6 64cd f55a febf
000003d0: 2f04 6a24 9066 fbbf c31e 7181 042e d6bf
000003e0: b203 c87c e501 f0bf 4d2b 9a38 3e0e e3bf
000003f0: 6589 fbfd cba8 edbf cfa1 f3c4 9fe3 d0bf
00000400: cf78 b87f 86d0 f1bf 90e4 d6d0 f6f7 e7bf
00000410: be19 a113 7438 e23f 3369 466c 4f99 dcbf
00000420: fb77 0ad2 1e4e d83f 16eb 1b4c 8203 dc3f
00000430: b84f 8476 355f d6bf c040 923f 85a7 e03f
00000440: 321d 81a5 f4b4 d23f 2a5a bfb8 d799 efbf
00000450: 9771 7d69 e21b ecbf 058d dddf 9980 f4bf
00000460: 2794 2e0f 87c3 d9bf c3e9 e376 f255 e9bf
00000470: f2d1 554e 453c f4bf a552 52e6 6d66 d43f
00000480: 2b39 31f8 ad1d d9bf f86b 6967 5aed f0bf
00000490: 4177 2abe 11b8 e7bf 2722 7320 5822 06c0
000004a0: 0bbe dda6 1c05 bfbf ee45 0e64 d71f e5bf
000004b0: 6c97 301a 0f41 a93f dabb e585 1f6e cabf
000004c0: 6471 c9cb e883 d2bf 3eb0 c255 5724 f0bf
000004d0: 6e85 14e1 6852 e1bf 9d20 ff63 696d 06c0
000004e0: b1cb e772 6f6d dd3f d18c 4909 8cd4 f2bf
000004f0: 23e2 3b0e 0591 eabf c67b e660 1784 f2bf
00000500: 3ef5 85c9 1dc9 00c0 95c9 5825 3631 eabf
00000510: 9499 11c9 49be f1bf 050b 67b0 4b0d d13f
00000520: 8b6e ee1a 7b18 fcbf 792f 5db2 92b5 e4bf
00000530: 93df 3103 685b f4bf 1974 7fb2 76ba fb3f
00000540: 3bfc d901 de0e d33f e1ae 6881 ad8c e4bf
00000550: 628d dff5 2e99 d53f 85bf cddf 9d62 c03f
00000560: e29c 5be4 7ba6 d83f 9628 304e 7d91 f0bf
00000570: b39b da59 15c7 9b3f f1ab 9f60 0e30 e23f
00000580: 354d 7516 f46d f5bf ad5f 323d 85ff a0bf
00000590: e4d5 e85a 5fca e73f 3350 da03 5c11 e43f
000005a0: 46a1 32c7 2899 cb3f bbe3 250b 107b f6bf
000005b0: 7615 edb7 5fa8 ee3f 172e 115e 6297 02c0
000005c0: d59e ba72 12ec d3bf 39c0 b46e 4140 ffbf
000005d0: f5b9 a56a a138 f1bf fed7 4003 3590 f2bf
000005e0: df33 a2dc 02e0 c0bf 8a6c cc1d 17a8 f8bf
000005f0: 9083 9e18 2822 f7bf 0417 d741 f258 c2bf
00000600: c63d 1c92 8ab0 e33f 08cb 78ed 498f eebf
00000610: 72ff 66d1 ea54 f6bf 6f52 cd9d 1b79 b9bf
00000620: 3a5e 082b 0cc9 febf 19a7 8957 d241 ea3f
00000630: 0ecc c0c5 e2ef c63f 86ea 0362 3a36 b4bf
00000640: 6975 cd5e 6b9c 9c3f d2fa 1cfa 5793 d9bf
00000650: 135b fa93 7cb8 d7bf 95fd b69c 07ea febf
00000660: c8c1 e561 58ba efbf 608c 8d30 e1ba e0bf
00000670: 7852 80d8 d648 e1bf 39b1 e089 06eb e3bf
00000680: 9f6a 5c8a 953d ecbf f770 fdf3 e31d ffbf
00000690: d0f0 0847 d9ea c63f 7463 1771 7688 c93f
000006a0: 971d 8d68 2d11 f3bf 3875 6aad 7561 cc3f
000006b0: 2a54 d4c3 1f8e bc3f cc37 e5b3 1d9e fabf
000006c0: 4e93 922a 74f8 ed3f 1009 186f 57f0 aabf
000006d0: 052c 1642 300d fdbf 6ce3 a4cd 1b85 d2bf
000006e0: e89a 1336 2f30 f6bf e33e de28 fdc9 f0bf
000006f0: e91b 6f65 f7ba d4bf 7586 16b0 96ec e53f
00000700: 393f 2228 24d8 eebf 791d 9206 6035 f9bf
00000710: c6a1 815e 73ec 02c0 3736 6678 f863 eabf
00000720: b3f7 ec10 0fa3 c93f da13 7916 971a e33f
00000730: 2020 7c71 cc83 f5bf 529b b07a 9886 df3f
00000740: 180c 4c87 d613 01c0 f34f 90b5 9566 debf
00000750: 8e8a 5878 c081 c73f a877 980d 80b0 d43f
00000760: db60 7c3a 6328 eabf e085 de5d 0411 d6bf
00000770: 97a0 c556 148a bebf 20d1 f542 cf99 f6bf
00000780: f2bf 7686 09e3 dabf c084 2655 4438 c73f
00000790: 5d30 f492 00e9 d43f a9fd 0666 474e d13f
000007a0: 0747 c7cf 86ac edbf cdcc 8dd3 26be d9bf
000007b0: 189b 002f 3b21 0440 a296 67a8 e9b7 05c0
000007c0: 8b27 d506 6cc5 e53f 6e24 0c82 99a9 e63f
000007d0: 95bf efb9 b851 f5bf a579 c16c 75b1 f23f
000007e0: af70 d19b e54c e0bf 0101 c17f 2d82 0840
000007f0: 25cf 42c1 c087 ea3f 5186 1dc5 af2f ea3f
-1.2317509107161972 -1.0776819557453516 -0.9930645850754729 0.6692935617178665 -1.9207686604536987 2.313453490736464 0.052199692064202045 0.6137590773299088
3.363303253769547 -0.8713966215947848 1.038149160470972 0.1842717865228275 -0.3967375606704069 0.811875217658422 -1.2031080663084903 0.44129514448106905
0.35394659116235705 2.317827182710876 2.043107896804599 -1.1115507620765122 0.48081499684209744 -1.599176366394462 1.364260818166056 -0.0412670245569317
0.19318169741802235 -0.5490468838790993 -0.050293167681999526 0.7822246130151144 0.5170206677918167 0.3215485497200197 2.9111064506544353 -0.252236119445624
-0.4784336894796212 1.0320328386686797 0.01618631563122047 0.7885787590614314 1.2796879207873488 -1.7667113532178231 1.0278988055278395 0.267896219250211
-0.13977798816381906 -0.5396876175266491 -1.182682412294799 1.4729006989017073 1.0847359521328104 -0.7666995486831665 -0.9254474028448575 -0.45512494280139854
0.09962530898703739 -0.1660572542865429 -0.049245825402240595 0.15619420665313324 0.4194707654275472 1.2069475171481698 1.2909435237052485 -0.6780314828442285
-1.7121468590339424 0.5296316014853357 -1.205745221153567 0.631090021008373 0.8893529936608662 1.143951752287067 -0.48882442215909044 -1.2549589768319787
-1.3785664822165762 0.9242290945149222 0.8212702149121993 1.721487012510488 -2.248821104967048 1.2980785030354804 -0.6146037378959396 -0.13339620295081514
2.323780877300154 0.6820220447544287 -0.7614776037861705 0.2482889512033234 1.7672676135409446 -1.0925264954008045 1.5483133625075207 2.5184596034395126
1.4085945857721947 -0.3010036610379841 0.2149033162090959 -1.0719495674947697 -0.11109949925925587 -0.45307277718930944 0.6101274602909651 -0.56223971923234
-1.1319873373036673 -0.46981030228884085 0.8912526277476525 0.23777562135571884 -1.3950573676148985 -0.6686356511925382 0.13060032580340025 -0.9522598310729884
-1.462665090057864 0.9626035762734092 0.02706143919717739 -0.6419213888760638 -1.5657466329563434 0.544786139392596 -1.4939998959966763 -1.759196694030968
-0.17620077445978768 -2.1315954517641735 0.24619134679566262 -1.6832489669515749 -1.2736655307711047 -0.9926081185275168 -0.6439101125162443 -0.5884348733466866
-0.9987839712345943 -0.6321273490529872 -1.1100738210193997 -1.8590761147936543 0.03341061794921744 0.5466862736000755 1.4284189319322436 -1.509602298755484
-0.2079540119579688 -1.8972070716076195 -1.712539808504754 -0.3465586914139573 -1.0004629968900471 -0.5954886537086651 -0.9268550835225083 -0.26389307244838006
-1.113409518154686 -0.7490190581221601 0.5693912871727702 -0.44685731481299057 0.37976809036069853 0.4377141707661151 -0.34956108640585226 0.5204492799403155
0.29229465639623975 -0.9875296219204917 -0.8784038601257177 -1.281396746134136 -0.4025590561162197 -0.791741592605199 -1.2647145328493221 0.31875178806630294
-0.39243649709250644 -1.0579475440524657 -0.7412193979432474 -2.7667696509490898 -0.12117175172692655 -0.6601368860448795 0.049324485728262285 -0.20648569143256063
-0.2893011083704293 -1.0088723516482925 -0.5413097759339232 -2.803423672889109 0.4598044035075715 -1.1768913615022039 -0.8302026060110318 -1.1572488579911222
-2.098201345825742 -0.8185072640829271 -1.1089570860145601 0.26643650271232416 -1.7559767772681052 -0.6471646770164475 -1.2723159909055297 1.7330233547757017
0.29778242283640893 -0.6421725776212633 0.3374745751481979 0.1280095427314302 0.385161374097562 -1.035519891187993 0.027126630410432017 0.5683662306959133
-1.3393441083215525 -0.03319946643858827 0.743453671987194 0.6271190715074283 0.2156115505833986 -1.4050445971936216 0.9580534546191035 -2.3239180897705967
-0.31128369525911853 -1.9531874012427706 -1.0763258138573495 -1.1602068068582407 -0.13183627865910716 -1.5410376705174564 -1.4458390199363045 -0.14333942618230122
0.6153004506795063 -0.9549913061258346 -1.3957317523745272 -0.09950420954312177 -1.9240838700260512 0.820534869167406 0.17919573455728294 -0.07895245449973673
0.027940442715921252 -0.39961814332120327 -0.370635170469016 -1.9321361657783644 -0.9914972221432032 -0.5228124569224626 -0.5401415089168742 -0.6224396412776861
-0.8825175955165213 -1.9447974711284226 0.1790420147752969 0.19947700998343587 -1.1916936954529314 0.2217242333180509 0.11154364138595044 -1.6636025454676995
0.9365788299079243 -0.05261491042257849 -1.8157198506839916 -0.2893743046038739 -1.386763774143839 -1.0493136974727626 -0.3239115229193304 0.6851304473131693
-0.9638844283926807 -1.5755310303373717 -2.365454424220135 -0.8247034408138408 0.20028866125534037 0.596995872395037 -1.3446773941996142 0.49259006482536905
-2.1346865243990685 -0.47501127940017723 0.18364721180212878 0.32327271773999167 -0.8174301283170523 -0.3447886387530996 -0.11929442518669685 -1.4125511756547624
-0.4201072514651961 0.18140463025796372 0.3267213282677 0.2704027649269514 -0.9273103769466794 -0.4022309366184345 2.516226165014256 -2.714801135693805
0.6803493627023597 0.7082030811299214 -1.3324515593667219 1.168324875666806 -0.5093868296931044 3.063563345029366 0.8290714048984894 0.8183211183461002

gate_gate_weights f8 [108, 81]
00000000: 2656 1eff db52 ed3f 2603 78c5 a869 f03f
00000010: f985 431f 5666 cf3f 6304 5f3a 33b5 fc3f
00000020: 5b44 9ee8 75ca c7bf 14e4 e787 5c8b d03f
00000030: 8482 0435 8ae8 b4bf a0c2 4834 e50c 02c0
00000040: 748d 3dc7 c82a dfbf 821e 82e8 fe59 f33f
00000050: 5d7e 74dd 55a0 c7bf 643a 6c83 bb5b cf3f
00000060: c582 60cc 70b4 c2bf 9f91 8d4a 0286 e7bf
00000070: 58fa 483a 86d9 f13f cd9b dbb6 1d96 c93f
00000080: a99b de22 bbc2 ebbf dd22 128e 0462 ee3f
00000090: 79ca 32cc cf56 f1bf a8c9 4b3c f78c ea3f
000000a0: 7fea 384c 8cb3 973f ddff 8ef6 3728 82bf
000000b0: 7c06 92c1 0953 f5bf ad9d 4e7b 1a47 efbf
000000c0: 96de c8e0 8546 dd3f 6660 61ef 7f9f eebf
000000d0: daa9 b852 34d7 d13f 654e 7ce0 302b f0bf
000000e0: 68de c182 0975 f8bf 43d1 2d07 c9de ec3f
000000f0: 179b 1258 7008 d7bf a7e1 1596 3382 e93f
00000100: 14ff 0bda abf6 0240 dad5 d0fe d53d fa3f
00000110: 2234 cc7f 638f e23f 9ba9 95f3 2d9c e73f
00000120: cde7 df4c bac8 0240 8949 c762 2222 ecbf
00000130: f2f7 a5f3 fb22 ba3f b995 60e9 9a55 de3f
00000140: 5a91 1ed7 d180 e5bf d0bb 7fc5 12c2 c43f
00000150: 170b 0a78 90ad ebbf 9140 3924 6a89 eb3f
00000160: 6eeb a8e3 d656 f33f f3bc 28e7 2f67 c8bf
00000170: 5041 3be9 b00c f4bf 60aa b22a 2d14 ec3f
00000180: 7dbb 58f8 dba4 d83f b320 2104 e170 f63f
00000190: f080 51b3 9793 f8bf d8b3 430e eec5 fbbf
000001a0: 0807 5d71 5e86 d2bf ba3b a44c 284f da3f
000001b0: c442 611c 59ec d83f a2df 6bd8 03ca eabf
000001c0: 4c41 19ff e773 d2bf 3546 2a50 162b d9bf
000001d0: 9e15 ae6d 90b1 f23f aa52 d76c ef88 e9bf
000001e0: 883a 68ef b83e 02c0 bc85 bceb f4b6 cd3f
000001f0: 9ce5 eb97 ddce e1bf 40fc 2001 2166 e5bf
00000200: b19f 1191 d873 bdbf e9c5 8e0c a7c9 0740
00000210: 6170 cdbe 8a7f e53f 93ce fa84 5500 ecbf
00000220: e5da 4612 97bf d9bf f72c 4a33 58bf ce3f
00000230: 6806 4d89 1efb fabf ff97 fed6 4fb8 e23f
00000240: a777 87c4 fdcb 07c0 30c0 cee3 e2e0 c43f
00000250: d3ee df61 f2dd cfbf 880b a092 9a5f 0340
00000260: dd1c a70f a028 0040 c4cd e9d0 8ecf e4bf
00000270: 0db2 4eb9 e685 f03f 334c 710d aff1 ccbf
00000280: 75e1 77ed 0bcb e0bf 146e 15c4 f83f fcbf
00000290: dfd2 e73e 5257 fcbf acd1 efd5 079a f73f
000002a0: bc2d bc4a ec0a d63f dd0f 4405 b8c4 ef3f
000002b0: 641a 39a6 13be b7bf c1c3 cf39 93b9 d13f
000002c0: a799 c797 05f4 ef3f 3463 e193 31ee f0bf
000002d0: 8670 688e 9e89 f0bf 9b5c 8861 aaa1 e7bf
000002e0: 11eb e3b2 4a79 fbbf 10fc 8681 0fa4 df3f
000002f0: 1598 44cf 3aba fdbf b723 a5c1 e709 d73f
00000300: 9ef1 7c68 1ad8 e5bf 8c8d 044d 7458 f23f
00000310: 7f5b 9324 538e f03f 0d22 067a dd7f bebf
00000320: 709c 1c92 0fc9 f8bf f6b8 08c3 cc59 e5bf
00000330: 075e aaa6 f534 b7bf b489 1fbd 162e e3bf
00000340: 1955 9b9b f3f6 923f f074 ada2 4720 06c0
00000350: 1f1c e403 30aa d23f 5a92 35bf 7f4b d4bf
00000360: 95e7 0a40 debc f3bf c7ad 3e44 a074 f63f
00000370: 8233 2f59 6f2f d4bf 6d80 a1ac 8638 d4bf
00000380: d72b c435 5a91 f4bf 29c5 a88b 0571 d7bf
00000390: 2ab2 68af c92a dd3f 3ce5 5099 da89 f4bf
000003a0: 86b6 647e f97f c1bf b2d0 1ba6 4ef8 d03f
000003b0: f482 3a5e 09d5 f83f cf31 e044 81dc ee3f
000003c0: 1980 b21c 277e f7bf faf7 a5f0 7a77 dabf
000003d0: d8e1 981e fde6 febf f1fa 83af 7b1e 7dbf
000003e0: 28a6 b212 a359 00c0 ddb8 3d79 decd d73f
000003f0: 2599 9a0b d57d ecbf 527b d328 3173 f23f
00000400: 032b 5d6b e58b cdbf 219b 7dcb 9b6c e83f
00000410: e6e5 a449 f5e4 f1bf 155c c594 442a f6bf
00000420: e03a 1335 b304 debf 81bc 7cdd 5d90 f53f
00000430: 3b04 c17b a40d e53f 6a65 1a0d c241 62bf
00000440: 719b 50af 5ac1 fe3f bdca 8d48 c087 e33f
00000450: 2c46 df75 d6b1 d4bf 96ce c3e1 3a2b 03c0
00000460: 0104 f027 c930 f53f d057 76c4 a854 ddbf
00000470: 7887 20be 88b0 e5bf 21af 3a7a 32f9 e8bf
00000480: 53bf 32f2 f0df efbf e352 8191 c155 d8bf
00000490: aeea 6587 fc7f e13f 58aa 4649 6268 e03f
000004a0: 962f 4a85 5c9c e13f da6d 9eff e2e2 953f
000004b0: f470 edde 5009 c7bf 5b0c 5ea5 d7a7 d73f
000004c0: 4686 4ee8 7c81 e53f b586 dc01 9992 fcbf
000004d0: a21d 4795 ff12 b3bf bbe4 cf44 a7fc e0bf
000004e0: e38e f24a 0e85 cf3f aae4 f93c 4b16 f63f
000004f0: eb66 7d97 b00c d63f 63b3 3c54 20cb e73f
00000500: 4c33 8b74 c091 99bf d1c7 11a7 499b d6bf
00000510: 481b f86a 5cb7 ffbf 86b3 114f 6dcd e8bf
00000520: b200 d82d a395 0240 7f5e 1556 96cd f13f
00000530: 1b61 68e2 7532 e93f e9e6 09d6 07a0 bdbf
00000540: ec83 d182 068d be3f 187c 2ff0 471b de3f
00000550: 3fbd c354 0c8a eebf 5cbe 6ab2 3382 983f
00000560: 33cb 7b41 2806 d9bf 011a 392a b7c4 f5bf
00000570: f40b 9667 a910 c2bf 2aa4 e0eb 678c f3bf
00000580: 731e 8f88 d7c9 f73f cf08 60a8 b405 c13f
00000590: 1a1b 21e2 9889 e33f 90b6 c484 c037 f23f
000005a0: 056c 9ac9 e717 dabf 417b 8ac6 b8f4 fabf
000005b0: 1ee9 0089 2efa b7bf 588f f8d9 61dd d5bf
000005c0: 3dd5 2b7c 6e55 e8bf 9f8d 5784 38e0 e7bf
000005d0: 9bce 6172 edf5 fdbf dac9 0f05 e1e4 ec3f
000005e0: d3e1 fb1a a3be e03f 75e7 2833 156f e9bf
000005f0: 9ca9 1689 cb2a eb3f 41c5 c43d b1e4 c4bf
00000600: 3aeb 2a8d bb70 dbbf 5eab 1a80 620c f0bf
00000610: 042f 3010 2d91 dfbf fd18 8256 cb33 f93f
00000620: d603 a349 c250 f2bf 5cb9 a4c6 16f6 be3f
00000630: 0cd7 1e36 455d f23f cd93 ce53 3c5a bbbf
00000640: daa9 7943 6cdf f03f 21f8 62a1 d02c ffbf
00000650: 1390 a2fa 3770 e7bf bda0 f877 bc56 05c0
00000660: 48c0 c3cd 4e7d f2bf dd9f 8687 f128 eebf
00000670: a7a2 6733 0545 ea3f 3746 136b 15f7 e2bf
00000680: 9d88 f175 655a f93f ce2d 6361 be93 e5bf
00000690: 18c7 5bd6 6fdd da3f dc33 8af8 cbfd df3f
000006a0: 7189 0d7b 6048 f1bf 1526 f953 8441 eabf
000006b0: 209e 648a 7b3f d7bf 8452 42ab 6da0 e13f
000006c0: 5550 68f1 293d b73f 8757 8413 5877 fb3f
000006d0: 043c 052d c845 fa3f d658 1d38 1e3d d9bf
000006e0: 5077 3a2f c015 00c0 ceb4 c8a9 1207 f63f
000006f0: f5fa 4327 c63d f1bf 3420 027f c0fc ca3f
00000700: 17fc 9295 0d2d f3bf 5b86 798a 0b47 febf
00000710: 0b28 3534 2bab eabf 2998 be12 ec8c fb3f
00000720: 0eba d66b 8c35 ef3f 6475 81cb d4e5 c0bf
00000730: b3d5 ff87 281b f3bf 2d51 4a30 99f7 b2bf
00000740: c104 c9ae fda8 76bf 6dff 72cb 1594 dc3f
00000750: 4463 13cc 0b5e 03c0 cf5c 9353 9f97 c83f
00000760: a266 3e03 8e07 edbf f6ba 10f7 9e6f f73f
00000770: c9f9 b49e 65b4 0140 8c69 b664 3d73 da3f
00000780: 5186 aa08 58ff e73f 0c3b 7e71 6b80 e13f
00000790: 450b a370 5166 d0bf cdcd f5ff d7cb d4bf
000007a0: 3c78 b045 e414 f9bf 8b50 f235 1481 f2bf
000007b0: 257b 165d 2b93 d4bf 4785 6098 3a42 eb3f
000007c0: c521 c3de e397 d2bf 1bc6 8770 23f3 d83f
000007d0: fca6 aedd fafe d6bf 834c 67c1 e61b edbf
000007e0: eb62 1acb 65c0 fbbf e7ad 84cb 9dd0 d5bf
000007f0: 79a8 63d4 f3a5 04c0 8f03 5fe5 511d d0bf
0.9163646681578868 1.0257957185387538 0.2453105595259755 1.7942383079646553 -0.18586610658943212 0.2585059478001892 -0.08167327684760478 -2.256296547384707
-0.48698634583543954 1.2094716150621996 -0.18458054841265695 0.24498695294501538 -0.14613161067338445 -0.7351085144151063 1.115606525112204 0.19989367893796697
-0.8675208741232058 0.9494650626012021 -1.083694265031822 0.8297077348382134 0.023145858909837443 -0.00886577340304478 -1.3327729760498235 -0.9774296196309727
0.4574293799555361 -0.9569701838872902 0.27876003340011624 -1.010544659516108 -1.5285735233027484 0.9021954670156805 -0.3598900661549335 0.7971437388760493
2.3704449686919222 1.6400966600170848 0.5800034996078731 0.7378148801338286 2.3480115896063354 -0.8791667870776091 0.10209631632275754 0.4739749220919652
-0.6719750596571814 0.16217264789108166 -0.8649370522037739 0.8605242450230596 1.208701028152713 -0.1906490210253434 -1.2530984030346026 0.8774629434531782
0.38506221058462825 1.4025583421044245 -1.5360333447097752 -1.7358227307515701 -0.2894512278618184 0.411081385464907 0.38942554255940487 -0.8371600367527103
-0.2883243552396564 -0.393254831587089 1.168350628316467 -0.797965729313167 -2.2806261733706528 0.23214589605872316 -0.5565021483627564 -0.6687169096038659
-0.11504891912193106 2.9734631520338906 0.6718190886126757 -0.8750407788524676 -0.4023187330707699 0.24021437172300583 -1.6863084185901247 0.5849990080939732
-2.9746051172105186 0.1631129848806281 -0.24896077899017274 2.421681542882144 2.01983654240358 -0.6503366546953022 1.032690738541649 -0.22612560421348035
-0.5247859609653874 -1.7656181010742147 -1.7713186700104229 1.4751051289468746 0.34441668794962843 0.9927635290955511 -0.09274409111194754 0.2769516052786081
0.9985378231474912 -1.0581527496889978 -1.03359847667801 -0.7384845642981362 -1.717112253942734 0.49438846253536983 -1.8579662414936184 0.3599795714440534
-0.6826297798902947 1.1465952881343098 1.034747259973045 -0.11913856724834933 -1.5490871150484757 -0.6672118958720421 -0.09065184897405497 -0.5993760770618821
0.018520170567019798 -2.7657616337952433 0.2916374242781234 -0.3171080939558003 -1.2336103917755044 1.4034731546224621 -0.3153951998654564 -0.31595007761462207
-1.2854864216085298 -0.36627329481696563 0.45573656205923163 -1.283655737772576 -0.1367179743914912 0.2651554700999085 1.5520108872225906 0.9644171090345085
-1.4682990189539906 -0.41354249478160876 -1.9313937373354886 -0.007109149119286271 -2.043768068386971 0.37194024887038585 -0.890360376991144 1.15312305400558
-0.2308317922819115 0.7632578825403905 -1.1183979870532936 -1.3853193103184414 -0.4690368669807139 1.3477457668157344 0.6579153458661787 -0.0022286214887798266
1.9222056244122678 0.6103211800639979 -0.32335435400918544 -2.3961084020500705 1.3244105873166065 -0.4582921904160431 -0.6777995789927749 -0.7804195773401014
-0.9960865717348305 -0.3802341385792671 0.546873344850004 0.5127421790287583 0.5503370860401329 0.0213733166234372 -0.1799717987549979 0.36961928509862724
0.6720566308251328 -1.785790450354779 -0.07450864214398803 -0.5308414787279142 0.24624804172082468 1.3804428464775733 0.34452452463084055 0.743545689130411
-0.02497006141020401 -0.3532280093705796 -1.9822658709033067 -0.7750765365905046 2.3230651456397817 1.1126921999583883 0.787409727289773 -0.11572312331727698
0.1193393773442179 0.4704151006280326 -0.9543515830572814 0.02393418098898646 -0.39100080866699044 -1.3605262421930322 -0.14113347585598002 -1.2217787946667706
1.4867778143251626 0.13298662396852598 0.6105465332592275 1.1386113344446223 -0.40770907104314374 -1.6847465281968683 -0.09366122097791105 -0.3416370991346773
-0.7604286599368276 -0.7461206993870525 -1.8725409000443622 0.9029393290386978 0.5232711340932447 -0.7948099135603416 0.8489740064153923 -0.1632291366200125
-0.4287556532469129 -1.003023624808257 -0.4932358415687619 1.5751450900293655 -1.1447165371357548 0.12094251966184316 1.1477710832672896 -0.10684563680713595
1.0545466075660586 -1.9484411529697427 -0.7324485678877884 -2.6673516628980836 -1.1555927312547443 -0.942497982691744 0.8209253314972401 -0.592661580211092
1.584569416729699 -0.6742851163957597 0.4197654336304466 0.49986552497358416 -1.0801701361420692 -0.820497669229726 -0.36324966921753976 0.5508335442451231
0.09077703613030626 1.7166367304211876 1.6420366057025158 -0.39435534934945105 -2.0106204690663745 1.3767267830074164 -1.0775815519152137 0.21083837701394403
-1.198499283098277 -1.8923449906509606 -0.8333946246796143 1.7219048244674104 0.9752866846300223 -0.13201389252473483 -1.1941304504847323 -0.07409055165255003
-0.005532256077061593 0.4465383993920032 -2.4209209388176607 0.1921271474918513 -0.9071722091059267 1.464751210307154 2.213084449670735 0.4132836802979447
0.7499199074993134 0.5469262329732785 -0.2562450027436863 -0.3249416350947428 -1.5676005098571428 -1.1565134150778558 -0.32148250666243633 0.8518345810045184
-0.2905206370747034 0.3898399924210893 -0.3593127407899457 -0.9096559312259987 -1.7344720777238603 -0.3408579337580861 -2.5810314743912923 -0.25178954505468537
