balderdash_lstm/lstm_model/models/lstm_model_2.npz (npz, 903256 bytes, 19 tensors)

forget_gate_weights f8 [108, 81]
000000 24 82 4c c8 05 22 be 3f ab 6b 38 f0 ad dc df bf
       0.11770664348706156 -0.49784420451185935
000010 31 82 62 a0 45 4a ca 3f fa 6e 50 98 2d 9b e6 3f
       0.205391600907221 0.7064426398169126
000020 ef c3 d8 90 60 84 f7 bf e1 55 bb 06 a7 94 e3 3f
       -1.4698186548305292 0.6118960505943357
000030 37 da 5d 31 5a 29 e0 3f a1 60 1d 04 1e 56 d2 bf
       0.5050478901092167 -0.2865061798270379
000040 57 e0 52 f7 0d ab e5 3f 9b 4f e8 1c 2a 5d e4 bf
       0.6771306829969131 -0.6363726200674934
000050 d8 e8 56 b4 7c f5 e2 3f 55 12 59 e4 ce 31 e6 3f
       0.5924666902785942 0.6935800990982651
000060 52 05 66 e6 1f 1a de 3f fc c3 37 66 e4 cd e6 3f
       0.47034451961379375 0.7126333233301234
000070 bf f8 3f b9 bf 35 c7 3f 47 04 7b e5 a8 9c df 3f
       0.18132778687863113 0.4939367524166908
000080 19 0b f2 1f 94 e1 e9 bf 77 77 86 58 fa ab e5 3f
       -0.8087864517150108 0.6772433976181976
000090 1d d8 c0 28 5e 9b e3 3f be c7 86 39 9f 9c 91 3f
       0.6127157970393032 0.017199027906549473
0000a0 86 56 84 b3 18 37 e2 3f 06 aa 79 7b 09 3b d6 3f
       0.5692256456556641 0.3473533349812502
0000b0 eb 4b 14 29 7f e7 e6 3f c0 1d 52 2f 77 6d bf 3f
       0.7157588770227198 0.12276406197826528
0000c0 63 66 62 44 b3 7e d3 bf d3 5d 29 7f 25 28 e1 bf
       -0.3046081703010712 -0.5361506923317684
0000d0 3b 1a af b3 ab f7 e0 3f d7 8c 22 35 7f 65 e6 3f
       0.5302332410290725 0.6998897588531702
0000e0 da b3 18 39 99 e4 aa bf d3 c1 72 a7 bc 70 db bf
       -0.05252531835535708 -0.42875591614122505
0000f0 d1 d7 1e 2f 20 4c e4 3f c9 07 cc 78 0c 34 db 3f
       0.6342926903077971 0.4250518016489165
000100 6a 7c 2b 80 d5 89 df bf 6a 4b bc 00 2e 5f c2 bf
       -0.4927877189310893 -0.1435296538917002
000110 58 1f 1e d4 14 8d d6 3f 61 a8 8c 44 ca 74 e1 3f
       0.35236092295280264 0.5455066050392469
000120 d5 67 d9 c2 50 4c e7 3f 9c 29 dd 13 4b ef e2 bf
       0.7280658536576491 -0.5917106044737923
000130 0a f6 7b f1 e6 51 e2 3f 79 ea 12 67 0d 03 d8 bf
       0.5724978176583033 -0.3751863009053192
000140 39 44 07 10 2c 5c e0 3f 72 24 65 09 2f d6 af bf
       0.511251479440154 -0.06218096723257184
000150 5d 4b bb 86 ad 8e c0 bf db d7 a8 8b 20 08 d4 3f
       -0.1293541820401413 0.31299604071261705
000160 38 ad 2b 69 ff 34 e7 3f 87 98 71 43 9e 9a e3 3f
       0.7252194456208718 0.6126242940197394
000170 ac 7c de 2a 31 d7 b0 3f 3b 05 2c 04 0c 85 d6 3f
       0.06578357025726927 0.3518705406896349
000180 e7 29 9a 8c ed 81 e2 3f 5e 27 d7 ae 56 af d3 bf
       0.5783603426110034 -0.3075768191744056
000190 0b 06 db 28 18 97 e6 3f af 1d 26 30 b3 c8 e6 3f
       0.7059441373787093 0.7119995060356156
0001a0 da bd 42 eb 5c 6a e0 3f ac 14 01 37 77 5c e5 3f
       0.5129837603507739 0.6675373148251729
0001b0 12 1b 03 49 b5 5e e4 3f 20 99 23 d7 ff 1c b3 bf
       0.6365610528963279 -0.07466124536913243
0001c0 b0 3e f6 ae eb 62 e5 3f c5 89 79 ff 72 d1 e2 3f
       0.668325273249101 0.5880675306073547
0001d0 1b 27 f6 61 91 f6 d1 bf c2 e4 a1 7e 01 f9 de 3f
       -0.280674310365258 0.48394811026043894
0001e0 3a da a9 5e 0a 55 e7 3f aa c1 5f 91 df 75 e0 3f
       0.7291309212585653 0.5143888320290462
0001f0 79 de 98 57 a7 4d d3 3f 15 35 a3 b0 b8 a1 ad bf
       0.30161460451515826 -0.05787446171016534
000200 dc 05 f3 e2 de 6c cd 3f e2 55 a4 c7 f1 12 e8 3f
       0.22988496858128726 0.7523125552422096
000210 af 57 ff c1 2e 02 e2 3f 1f f7 66 ea 01 aa e4 3f
       0.5627664364826525 0.6457528665702944
000220 d7 10 74 3e dd d3 cc 3f e6 cf ae 44 9d 4d e4 3f
       0.22521558331948796 0.6344744054281335
000230 82 f6 e2 4a 5d d6 e5 3f c3 cb 64 73 bb d6 e5 3f
       0.6824175322178265 0.6824624303611632
000240 26 c3 c6 7f 53 95 e6 3f bb ef e7 26 68 2e e0 3f
       0.7057282920487509 0.5056648979075286
000250 63 f6 5a b9 0e 26 e0 3f 55 78 00 67 b3 9c e6 3f
       0.5046456928464064 0.7066285144571888
000260 3c 93 dd cd df e4 e7 3f 9f bd 61 24 d9 1d e1 bf
       0.7466887493907062 -0.5348935804922127
000270 f0 6a c4 6d 9a 53 e6 3f 8a 25 e5 f6 20 b7 e2 3f
       0.6977054733173116 0.5848545858545304
000280 d0 15 fb ab 4b c6 e5 3f 47 7e a8 19 1b 5a e5 bf
       0.6804560050010711 -0.6672492505203501
000290 3e 50 ea e6 93 18 b1 bf e2 99 49 83 0f ec e2 bf
       -0.06678127658443686 -0.5913159908494061
0002a0 f4 08 d1 c2 bf b3 dd bf d7 b1 21 17 31 1e ca bf
       -0.4640960123544027 -0.20404637937043787
0002b0 65 25 07 95 d7 43 d6 bf db 80 75 9f 07 78 d5 bf
       -0.3478907542563177 -0.33545103618781774
0002c0 77 0b da 06 be 27 cd bf 1b e5 37 59 26 dd d9 bf
       -0.22777533850247852 -0.4041229125283096
0002d0 51 18 7a 3d a6 e1 bd bf 52 49 9a a6 a6 5e d6 bf
       -0.11672438622380922 -0.3495270373324689
0002e0 a7 79 ff b0 ed 84 df bf d9 d0 ed 98 2c 71 d7 bf
       -0.4924883106704336 -0.3662826054999307
0002f0 89 04 73 eb c9 bc dc bf 86 80 fc 41 2f 34 dd bf
       -0.44902275078863646 -0.4563100952527822
000300 58 60 6e 82 c4 33 d6 bf 17 99 67 8d 05 0d b5 bf
       -0.3469096444837354 -0.08222994520437897
000310 0f 4d 50 ab 3c 7b d5 bf a4 3d 73 e3 01 70 d7 bf
       -0.3356467888817897 -0.36621138774804707
000320 d6 09 44 e9 46 c1 e8 bf fb 55 df f6 8f 04 d5 bf
       -0.7735933834049387 -0.328403464399656
000330 da 38 61 34 47 d3 e4 bf 00 70 13 b1 a8 1f d9 bf
       -0.6507907889406639 -0.392557309079848
000340 21 70 74 1e 05 2b e3 bf 93 1c f8 7d 47 22 de bf
       -0.5990014643498435 -0.47084224034956285
000350 ce 31 4d 84 4d 38 ba bf 30 46 c2 fc 46 6e d7 bf
       -0.1024216125490007 -0.3661057918880912
000360 ef 8b 03 26 f0 e8 d6 bf ee 30 3e 7d f7 e7 db bf
       -0.3579674121121447 -0.43603312712435993
000370 5d 6f 69 e5 e0 58 d8 bf a6 19 a1 d4 2b af d5 bf
       -0.3804247131681587 -0.33881660236911626
000380 5c c2 18 2a 5a 8f c7 bf 82 63 41 9e 5d 83 bb bf
       -0.1840622621107454 -0.10747323144586399
000390 72 4f b3 da 1b ae df bf 39 ad ff 87 1d b4 e0 bf
       -0.4950017581697842 -0.5219867378449755
0003a0 8f 55 61 bd 92 39 d4 bf 91 e4 06 37 57 a0 d7 bf
       -0.31601398939286524 -0.36916141866419944
0003b0 2e 65 ae 2e 9a 9b a6 3f 3c ca 9b bc b5 e8 d6 bf
       0.04415590114440203 -0.35795348566822205
0003c0 cd 32 1f cd d9 96 d6 bf f1 9e bf f3 64 d1 d6 bf
       -0.3529572013037921 -0.35653041652265843
0003d0 49 e7 8d 7f 1c 41 e2 bf 75 b1 35 c3 c1 53 e2 bf
       -0.5704481593413472 -0.5727242291155067
0003e0 36 2e fb 75 45 ec df bf 9b b3 69 70 cc fb db bf
       -0.4987958576354886 -0.4372435663015552
0003f0 06 58 c8 33 94 df d9 bf 1a 73 b1 be 66 a5 e4 bf
       -0.404271174019755 -0.645190594146331
000400 d6 26 5d 10 5f c2 e0 bf ec 94 a8 17 41 b4 d6 bf
       -0.5237269706351195 -0.35475184736635756
000410 45 20 af f3 c2 51 d4 bf 26 59 8b 90 01 79 de bf
       -0.3174903278090862 -0.4761356269422258
000420 8c 1e 58 f2 fa 38 e0 bf 59 74 e0 59 c7 c7 d9 bf
       -0.5069555981908294 -0.402818525095261
000430 bf f4 41 5a 34 f3 d9 bf de 91 1c 42 6c 9e d7 bf
       -0.40546902479384167 -0.3690443654652692
000440 b8 d4 d2 85 46 bc d7 bf 6e e7 a7 66 06 a2 e1 bf
       -0.370866423308438 -0.551028442859417
000450 12 a2 8f 93 3b 6e d6 bf e8 f4 e3 d8 45 14 dc bf
       -0.3504780713106196 -0.43873735600193564
000460 d6 02 c6 c9 f2 83 dd bf b7 3f 23 40 ae 33 dc bf
       -0.4611784906810902 -0.44065433753439315
000470 f1 d8 6c 7d c7 0f d6 bf 8d 6b 2e 53 9b ab e1 bf
       -0.34471308945229767 -0.5521980881343197
000480 6f 8e a1 1e a6 d5 de bf 84 00 df 5e 76 96 df bf
       -0.4817900942927968 -0.4935584951854326
000490 a7 6b 6d 9d 2e 0d db bf 68 a8 8d 4b 0c a8 d6 bf
       -0.4226795709016024 -0.3540068376374905
0004a0 af 6e 45 ee 1c 97 e0 bf 7d 36 97 c2 9a 6d e0 bf
       -0.5184464124426621 -0.5133794594382405
0004b0 95 0c fb a4 55 f4 d9 bf 62 b9 bd b6 a6 cb dd bf
       -0.40553799735443735 -0.4655548843938019
0004c0 d2 a9 09 05 1f f0 d9 bf ed e7 f2 61 f8 d8 db bf
       -0.4052808331677201 -0.43511781277959366
0004d0 6e 3a 0e df fb 94 d6 bf fe 95 ef bc 95 ac d7 bf
       -0.35284325392505067 -0.3699087472035386
0004e0 ff fb fa 1d df e8 e0 bf 84 02 d3 e8 20 53 da bf
       -0.5284267030291402 -0.41132376419776784
0004f0 05 24 dd 3d 1a a1 cf 3f d1 68 29 71 a1 92 d9 bf
       0.24710395832724444 -0.39957462359383294
000500 95 7d fe 8a a7 b2 d5 bf 7c a0 c8 27 95 90 d5 bf
       -0.3390292031635565 -0.3369496239197429
000510 73 be 1c b3 f2 aa ec bf c4 7e 6f ec 63 42 da bf
       -0.8958676813399066 -0.41030214394957576
000520 80 b8 27 c3 69 49 e8 bf 73 26 61 02 96 90 d1 bf
       -0.7589615642189216 -0.2744498275029407
000530 1c 10 79 86 bc 88 ea bf ce 8d 22 13 9e 82 98 bf
       -0.8291914583610409 -0.023935766141802088
000540 7f 0d 70 00 5a 41 a8 3f b7 8a 74 85 e1 46 e2 bf
       0.04737359290450182 -0.5711524588153541
000550 a3 1b eb 28 6f ee b8 bf 3e d4 12 48 c3 49 df bf
       -0.09738821743950025 -0.48887712515289994
000560 7d b2 a0 ff d9 d9 8d bf 0b 06 21 09 76 3b d2 bf
       -0.01457567511905577 -0.28487921611312633
000570 ce 2f 6f c0 cc ef 92 bf e9 25 f3 c5 a2 eb cc bf
       -0.018492888684519752 -0.22594103494183962
000580 9b f5 79 19 be 1b e6 bf 03 ec 6c 7b 0c 61 75 bf
       -0.6908865449510587 -0.005219506033252055
000590 33 cc 33 85 34 32 e3 bf 7d 1c 41 77 c7 aa 91 3f
       -0.5998785592659089 0.017253033307750066
0005a0 6e 71 d2 94 52 20 8e bf 40 7f 39 8f 06 88 ef bf
       -0.014710087935150464 -0.9853546902995518
0005b0 94 66 bb 60 71 28 a1 3f 4a 0f 03 fc 58 5b ed bf
       0.033511679704770675 -0.9174008295162619
0005c0 77 fe 67 fa 10 9b b7 bf 7c 51 8b 08 00 e7 ee bf
       -0.09220987428124681 -0.9656982581023352
0005d0 98 47 9d fb 8c 7b e7 bf bb b5 d3 f8 47 6a d5 bf
       -0.7338318743079411 -0.3346118860198108
0005e0 a9 e1 8c e4 d6 da 9e bf 8a 08 1a f4 00 be a2 bf
       -0.030131681155781163 -0.036605863378114625
0005f0 8f 24 d7 7b 5a fb e5 bf f1 35 8f a8 cd bb ec bf
       -0.6869327944524616 -0.8979252140213118
000600 39 67 9e dd 75 62 7d 3f aa 41 3c 7a 03 18 b1 3f
       0.007173977291950178 0.06677266821157582
000610 49 40 88 7d 61 24 d8 bf b7 3c b9 b5 72 db eb bf
       -0.37722050913817334 -0.870538096360085
000620 4f 12 13 8e 37 d5 e4 bf ca fe 7f 76 d5 3a 84 3f
       -0.6510274672405759 0.009877841643173641
000630 d3 29 50 2d a5 9c a2 bf ee eb 32 c5 a7 dc d6 bf
       -0.036351358205212535 -0.35721773393350886
000640 ac 5f 31 e2 67 16 98 bf b8 a9 a8 50 88 33 e4 bf
       -0.023522971325604367 -0.6312905860298121
000650 a0 84 69 61 b7 a0 97 3f e9 22 f2 a4 13 f8 ea bf
       0.023074021645133613 -0.8427828046415843
000660 00 0d 91 92 f3 31 f1 bf 88 2d fd 72 8c 98 e2 bf
       -1.074695179487037 -0.5811216588858068
000670 3f 38 eb fa d0 d6 ce bf 45 f4 d0 dd 2a 68 bd bf
       -0.24093067409416055 -0.11487071910319553
000680 8b 0e 5d 27 aa 96 ed bf 0d 2a a7 9c b7 c5 e5 bf
       -0.9246416825121327 -0.6803854045513745
000690 f0 ab 96 24 5f 67 59 3f bd 2c 43 b2 8b ce e3 bf
       0.0015505246286504591 -0.6189630967795875
0006a0 57 3a bb 4a 03 a4 d1 bf a6 6d f4 80 07 7c d5 bf
       -0.2756355504797389 -0.3356951484035683
0006b0 2b d8 f8 f5 ff 11 b9 bf 53 f2 39 02 60 3f be bf
       -0.09793090586831059 -0.11815452627519933
0006c0 0d 6a 1c 42 ad 50 a1 bf 05 53 d0 11 0e 0c e3 bf
       -0.03381864006060562 -0.5952215526509411
0006d0 c0 36 ca 9e 7e c2 de bf 45 a0 17 16 c3 82 92 bf
       -0.48062100893808335 -0.018076942656904533
0006e0 8d c8 70 d1 bf 6b e7 bf ec ad de 11 50 7e df bf
       -0.7319029894481602 -0.49208451981641477
0006f0 ff 31 ab 62 39 4f c7 bf 30 13 9d ee 43 b7 96 3f
       -0.18210522954758798 0.02218347686654737
000700 9d d3 69 9d 6e 84 e8 bf 49 bd 8b 12 c6 d0 ea bf
       -0.7661660265426807 -0.8379850733016748
000710 00 09 e1 9f 81 fe e3 bf 24 86 9a 6e fc d8 c1 bf
       -0.6248176691663332 -0.1394343891197859
000720 10 b9 8b 32 01 6a 82 bf 9f 44 7e 94 9a 95 d6 bf
       -0.0089912503767349 -0.3528810930375332
000730 f5 dd 83 e7 a3 da e4 bf 3f 04 ac 05 ef 40 ae bf
       -0.6516894838122754 -0.059089154665351355
000740 2b 14 41 99 c1 0d d5 bf d0 44 70 0f d0 37 c2 bf
       -0.32896461454612574 -0.14232826951823663
000750 21 3c 91 9f 9c 17 cf bf 50 b8 b1 93 1d 59 6e 3f
       -0.2429080752503703 0.0037046029734062805
000760 cb 7f 34 62 47 91 7b 3f d8 45 df 45 f0 90 da bf
       0.006730345575562023 -0.41509634803250384
000770 2a 07 3e 01 18 5c c3 bf e2 b9 b7 2d ca ee d6 3f
       -0.15124797878893875 0.35832457031838605
000780 fc 36 30 42 bd 6a bc bf f0 15 92 a6 9e ae a3 3f
       -0.11100371232916112 0.03844161780675026
000790 f1 cb 9f cb 0f 5a 92 3f 73 26 27 55 31 93 cd 3f
       0.017921683123812874 0.2310544648919862
0007a0 98 96 2e 5b b8 a1 e0 bf 7f 2b fa 71 6f 75 c0 bf
       -0.5197412281892921 -0.128583841946547
0007b0 eb e4 56 ab 79 ed de 3f 53 24 5b 36 e3 b8 ec bf
       0.48324434025160085 -0.8975692807808947
0007c0 21 c1 2c 0b 48 c8 e1 3f 79 fe 34 b8 2a 29 e3 3f
       0.5556984155901185 0.5987752530854343
0007d0 de 3e ec bb 5b 21 be 3f a9 5f 39 be 49 7d e0 3f
       0.11769650781593152 0.5152939524950756
0007e0 56 16 8c 40 2a d6 e2 bf 84 48 bc d4 be 8d e1 3f
       -0.588643194264203 0.5485529093732713
0007f0 15 15 89 11 6e d4 de 3f 54 ad e7 77 8f b0 e1 3f
       0.48171569549988763 0.5528027860540683

input_gate_weights f8 [108, 81]
000000 28 29 56 51 f3 ec dc 3f 4e c8 bf 18 b1 a3 ef bf
       0.45196230834030127 -0.9887319072133864
000010 16 42 d9 e7 59 11 ee bf a4 22 ea 4d 1e 36 ee 3f
       -0.9396180656713706 0.9441062471169812
000020 62 c7 e8 77 b2 e1 fa bf b4 e4 04 80 9c 28 e8 3f
       -1.6801018413502438 0.7549574375508628
000030 31 b4 2a 73 93 f5 e3 3f 54 5a 5a 7a 2a dd df 3f
       0.6237275361396596 0.4978738970616281
000040 ce d5 9b 7e f9 13 ea 3f 9c 45 38 eb 02 ea f1 bf
       0.8149383042170315 -1.119631689860717
000050 38 ec c3 80 74 5b e7 3f b2 0a 86 e3 5f b1 eb 3f
       0.7299139513919561 0.8654021686382605
000060 83 8e bb df 52 42 e3 3f 6d e5 40 3e 1b 9a ee 3f
       0.6018461580064954 0.9563118186844527
000070 94 a8 de 59 ce 4a 99 3f 85 d0 39 58 a3 cc e3 3f
       0.024699424967970687 0.6187302325402163
000080 27 a6 bc 1a 15 8f f1 bf 0c c4 70 66 b7 6e e9 3f
       -1.097432236138397 0.7947651863852356
000090 73 89 6c a7 a5 ae e7 3f 17 04 b5 67 89 19 d7 3f
       0.7400692243575534 0.3609336388363444
0000a0 3a f1 c0 10 2e 07 e6 3f ea 8f 84 61 a8 86 ea bf
       0.6883764579029397 -0.8289377121586743
0000b0 1d 61 d7 4c d6 0e ed 3f aa b3 67 f3 f4 71 d2 bf
       0.9080611706549778 -0.2882053734782014
0000c0 9e ff 99 3b 80 bb de 3f 80 ed 1b cd 2d a4 ab 3f
       0.4801941473051502 0.053986960685473484
0000d0 69 6f e3 78 21 2f e4 3f 31 10 54 89 3b c8 eb 3f
       0.6307532654859475 0.8681924516863601
0000e0 7f c0 d0 a0 29 07 e7 3f ae 98 ae a2 96 68 e8 bf
       0.7196243420530805 -0.7627671410926007
0000f0 d5 f5 f5 36 80 f1 e8 3f f1 af 07 b7 55 e2 e0 bf
       0.7794800828411846 -0.5276287627034418
000100 ca 1f 2c 61 eb 14 ce 3f da 95 3f cd 2b 63 e7 3f
       0.2350134109949507 0.7308558472402027
000110 66 93 6a 61 ad 91 ea 3f 85 5c 7e 7e e5 ac e4 3f
       0.8302828695928894 0.6461055250719175
000120 49 57 49 1a fb 0e ed 3f 85 4c ca 0e a0 3a f1 bf
       0.9080787194641086 -1.0768127992385257
000130 f0 41 8e 4e e7 ff e4 3f 03 20 eb da 39 99 e1 3f
       0.6562382253924266 0.54995434529792
000140 67 6d 6b 0a 38 65 e4 3f b1 9f 86 97 ae 8e e2 3f
       0.6373558238514477 0.5799172362794619
000150 64 35 d4 d6 e1 ff e5 bf 8b c6 30 eb 2c d3 e8 3f
       -0.6874856181981781 0.7757782548489599
000160 02 a7 8e 3a e0 53 ed 3f 87 cf 31 aa ed 8a e7 3f
       0.9164887565322888 0.7357090305435897
000170 ed 21 f6 73 52 e7 d9 3f 4f cc 23 5b 23 21 ea 3f
       0.4047437794147573 0.816545179374211
000180 d3 80 b8 aa cb 6f e6 3f 3a f0 6a d8 f1 bd ee bf
       0.7011469206227282 -0.9606866099270583
000190 c6 ef 97 36 d0 5c ed 3f 06 50 d5 c7 14 5c eb 3f
       0.9175797525672287 0.8549903777116021
0001a0 5a 4d 0d dc d3 06 e5 3f f8 65 ed fc 79 16 ea 3f
       0.6570834443940996 0.8152437152850203
0001b0 0e c6 06 4d fb 96 e8 3f ac 4b d1 61 5a 88 d1 3f
       0.7684303764746703 0.2739473300218218
0001c0 66 8f 1c 13 b1 0c eb bf 38 22 fa 8d 62 ee e6 3f
       -0.8452992795250622 0.7165997288694319
0001d0 fb b6 90 1c c4 b8 de 3f 64 3f c0 c3 2a 3b ed 3f
       0.48002722539500525 0.9134725402127342
0001e0 24 15 f0 95 b3 c3 ee 3f 65 4d 61 fa 9c 58 e4 3f
       0.9613893440697763 0.6358170404659346
0001f0 fa 25 c1 42 40 36 e4 3f d7 3d 4f b4 aa 43 ee bf
       0.631622438793044 -0.9457601091070796
000200 02 1d fa 05 10 00 eb bf a7 a7 1e f2 b7 11 ee 3f
       -0.8437576405275709 0.939662907495621
000210 e1 00 d1 73 42 ed e4 3f 34 22 33 23 ce 17 e9 3f
       0.6539623510398337 0.784155911206716
000220 27 89 68 09 e7 19 ec bf 5f 06 1a 39 80 53 e9 3f
       -0.878161924720449 0.7914429774538795
000230 24 78 7f e7 07 e6 ed 3f 33 fc f3 4a eb 22 ec 3f
       0.9343299409335981 0.8792625869681444
000240 4a 2e c3 d5 2c 7f ee 3f 15 be 7e 45 c5 c4 e3 3f
       0.9530243086860051 0.6177698476148544
000250 07 53 49 a9 f6 cc e3 3f 30 93 95 83 8d f1 ec 3f
       0.6187699610114529 0.9044864244466222
000260 a0 d8 78 d9 44 23 ee 3f 3d c7 96 02 9b 06 e2 bf
       0.941805290937527 -0.5633063364568681
000270 03 15 d3 7a 2b 4a ec 3f fa ca 37 b7 48 6c e6 3f
       0.8840539359013352 0.7007182672953995
000280 84 23 97 12 d4 2e ea 3f ea 8d 77 19 1a c4 d7 bf
       0.8182163584798308 -0.3713441132260572
000290 56 f3 fd 9c 25 5e c3 bf dd 68 e0 ab 04 d5 b8 bf
       -0.15131063619255752 -0.09700040050703103
0002a0 c9 af ce 6c c2 5e e3 bf 14 2c 7f bf eb fc bd bf
       -0.6053173184532109 -0.11714051652158758
0002b0 df a9 f4 1b 76 5e db bf 90 b1 94 bb d8 b9 d7 bf
       -0.42764046411562434 -0.37071817701760157
0002c0 93 2a bd bf f2 ec dd bf 9c 9c 20 6f 0d 17 dd bf
       -0.46758717274193734 -0.454532011530725
0002d0 c3 f0 bf 51 88 e4 c4 bf e7 34 16 20 83 57 d9 bf
       -0.16322425834358087 -0.395966321310722
0002e0 6b b0 0e 0e 98 77 e1 bf 48 f5 a5 52 9b 7d d7 bf
       -0.5458488726194565 -0.367041426383214
0002f0 65 60 57 d8 b3 db e2 bf 59 3a 0d be 5f 0d d2 bf
       -0.5893191552559186 -0.2820662837956767
000300 30 cf 45 69 aa 80 d7 bf 89 95 78 e0 b7 30 c0 3f
       -0.36722812920128245 0.1264867635774574
000310 ec c0 5e b2 21 cf d9 bf 0f 75 77 ad c9 44 dc bf
       -0.4032673112769902 -0.4416984743127878
000320 7b c2 e0 f2 28 72 d9 bf ce 20 e7 86 cf d0 d7 bf
       -0.3975927707533981 -0.3721197907839383
000330 74 6f 49 ec 45 5e b7 3f 3d 73 d1 ff dd 3e e0 bf
       0.09128224390718548 -0.5076742168854264
000340 f7 18 46 ed 54 03 c5 bf 2b e9 92 63 0b 39 db bf
       -0.164164176803929 -0.4253567192460134
000350 22 dd 3a 92 19 6d d9 bf d0 3b 80 8c 66 13 d9 bf
       -0.3972839286829687 -0.3918091175154901
000360 b2 ff 57 db 6f 79 dd bf 4b ca e9 29 8c a8 e0 bf
       -0.4605369226483119 -0.5205746477716472
000370 d4 98 a8 1b 98 6a aa bf c0 ac 3c af fb d0 d9 bf
       -0.05159449899319815 -0.4033803187655387
000380 27 4e 1f 0b fe a8 c7 bf a6 d2 26 24 69 be dc bf
       -0.18484473746376404 -0.44912174730715504
000390 35 68 60 6f 76 78 da bf ed f5 f6 1e 5c e0 e1 bf
       -0.4136024558698666 -0.5586376766947844
0003a0 74 a6 ad 8e 4a 92 d8 bf ea 04 6f de 1a 33 dd bf
       -0.3839289086668949 -0.4562441990093037
0003b0 bf 01 7b bf 51 ed c6 bf 1e 6d 27 5c fc 7f d7 bf
       -0.1791174111331326 -0.3671866321507923
0003c0 f6 4f aa e4 dc 86 dc bf 32 d1 76 0e d3 7f d7 bf
       -0.44573137598604207 -0.3671767846347108
0003d0 35 ea 00 ab d6 9b db bf 80 86 c0 cd c9 3a a9 bf
       -0.4313866300541663 -0.04927664410230381
0003e0 95 26 11 46 cb d6 e0 bf e7 81 95 8a 38 65 e1 bf
       -0.5262199753280635 -0.5436060625761997
0003f0 e5 04 69 a7 50 87 dc bf 3c d1 b2 88 fe 20 da bf
       -0.4457589754930054 -0.40826381062949557
000400 be a5 c2 56 36 f4 e0 bf ef f6 2c cf eb 91 d9 bf
       -0.5298110670602723 -0.399531318969692
000410 18 93 0c 09 3a 85 c9 bf 7c 33 dd fa 91 62 e2 bf
       -0.19937825624324357 -0.5745324992836767
000420 4e 0f 1a 6e 47 63 e2 bf 1e 4a b2 02 94 db d9 bf
       -0.5746190214563087 -0.4040269876797157
000430 90 5f 02 55 58 83 dd bf 58 a9 3d 61 f6 50 dc bf
       -0.46114166547476376 -0.44244155403307195
000440 00 73 86 70 ad 50 d4 bf ee 58 66 18 5c 42 d0 bf
       -0.31742416371143634 -0.25405027754585674
000450 6b 18 93 ee 51 8b d8 bf 17 46 f0 a7 f3 ce da bf
       -0.38350342081355987 -0.4188813343072026
000460 b9 8e 68 52 95 89 e3 bf a5 66 18 41 5b 69 e1 bf
       -0.6105448350467305 -0.5441108962433715
000470 dd 78 4a 0c 0d 30 d8 bf 47 8d 24 e5 a5 f3 e0 bf
       -0.3779327983883272 -0.5297421908802925
000480 af b8 ae c8 a6 b8 dc bf 49 76 45 af 7a 65 b6 bf
       -0.4487702331342786 -0.0874859502705131
000490 00 bb 90 66 e7 6e e0 bf 70 29 f3 5b de 2d d7 bf
       -0.5135380748014029 -0.36217459659078255
0004a0 0f 45 bd 23 05 35 e0 bf 6d a1 3e df 1c c7 76 bf
       -0.50647217731799 -0.005560982495730432
0004b0 29 00 32 41 df fb da bf b8 1a 58 c7 42 ad e3 bf
       -0.4216230522797582 -0.6149000066223698
0004c0 c4 56 07 8f d5 75 e0 bf 87 70 2b e4 7e 3d e3 bf
       -0.5143840592888513 -0.601256795543592
0004d0 30 38 ed 1f 4c 21 d7 bf 06 19 42 05 64 84 d6 bf
       -0.361407309702261 -0.35183048737998524
0004e0 e0 f2 c9 18 1e 39 e3 bf 0a 69 e2 67 6a 27 e1 bf
       -0.6007223591001001 -0.5360614804260717
0004f0 be a0 ea c2 7c 98 bd 3f de 90 f5 b5 35 ab de bf
       0.11560802229598985 -0.4791998173661919
000500 53 5f 43 8e 5c 5d d8 bf a5 96 1d 6c 1c 60 db bf
       -0.38069833653343216 -0.4277411514106951
000510 9b b2 c1 53 3f 98 d6 bf a1 14 80 09 af bc e6 bf
       -0.35304244212492514 -0.7105326829484008
000520 69 e8 f6 7f 3f 17 e4 bf d2 72 15 39 86 db d8 bf
       -0.6278378962808918 -0.3883987004717656
000530 7f 83 3b d4 54 dc ef bf 62 2a 01 60 6f 71 cf bf
       -0.9956459183850795 -0.24564926326486886
000540 3c b4 9c b9 2a 8c cb bf b8 39 22 71 f6 df e0 bf
       -0.21521505416004227 -0.5273391923563429
000550 65 de a8 47 14 11 d0 bf 8f 70 bc 60 59 94 e8 bf
       -0.2510424327660757 -0.7681090249420935
000560 4b 47 68 99 2e d0 c8 bf b2 ca 8c 74 24 56 d5 bf
       -0.19385321131317776 -0.3333827150519638
000570 92 16 e7 47 8c e3 cc bf d3 45 5d cc d0 6e d6 bf
       -0.22569421301721043 -0.35051364858108264
000580 d3 56 ea df 38 98 d7 bf 36 95 61 22 b0 6a cf bf
       -0.3686659037278847 -0.24544336012619689
000590 08 ba 56 7d 13 4c e3 bf 2b 89 a2 30 b4 e4 c9 bf
       -0.6030366371176692 -0.20229198813201185
0005a0 a0 21 d8 3f 18 68 cd bf 88 d6 3b 7a 11 dd dc bf
       -0.22973921887775095 -0.45099293648613825
0005b0 d0 10 61 0b 4f 1b c9 bf ca f7 03 c2 51 19 d9 bf
       -0.1961458974420851 -0.39217037150217193
0005c0 55 ff 6e d1 5e 90 cf bf 76 25 da 9b 49 0d dd bf
       -0.2465933344483299 -0.4539360067361352
0005d0 bd 7b f0 13 b5 ed dd bf 15 42 12 c1 89 1d e4 bf
       -0.46763350436406964 -0.628605725376533
0005e0 76 db dc cb 0e c5 cd bf 21 d7 4f ac 58 72 cb bf
       -0.23257622675165707 -0.21442707456270063
0005f0 6c 38 de 5b fd 8d dc bf 22 2b 17 5d 36 3b e5 bf
       -0.4461663624905501 -0.6634780710386148
000600 b3 72 75 05 a4 13 c8 bf 57 80 95 e9 1a 09 df bf
       -0.1880993868498045 -0.4849307328313492
000610 f0 37 dc bf 3d 7a e4 bf fe be 19 6d 45 1f d3 bf
       -0.6399220225591744 -0.2987836423335323
000620 5b fd 76 32 29 99 d6 bf 2d 36 94 22 0a f9 cb bf
       -0.3530982010670038 -0.21853758514809965
000630 16 4b af b1 74 12 cd bf 17 83 fa 37 c4 49 e9 bf
       -0.2271257274247424 -0.7902546971637062
000640 ac 7d 8a 2e 89 3e cc bf 95 39 02 2b fa 67 dd bf
       -0.22065844318875116 -0.45947126579349035
000650 26 14 47 50 57 cb c9 bf a1 03 91 4e af 3b d9 bf
       -0.2015179769497603 -0.3942678706408121
000660 c5 46 ab 42 82 3b e2 bf c9 8b db 54 0c 20 d9 bf
       -0.5697642614488464 -0.3925810650527493
000670 e0 d1 06 a2 0a cd d5 bf 06 72 6a 28 4b e3 d2 bf
       -0.3406397421161085 -0.2951228995023317
000680 72 26 c3 77 37 9d dc bf 8c bb be a7 98 ee d5 bf
       -0.4470957440904392 -0.3426877630362746
000690 fa 91 d9 d3 23 cb ca bf bd 2b 14 19 e3 88 e8 bf
       -0.20932433933479883 -0.7667098512478031
0006a0 55 df 1c 78 e9 e8 d7 bf 6a 07 2e 3f 01 93 da bf
       -0.37359081964267676 -0.4152224652281037
0006b0 84 e8 16 4f 46 1c d1 bf cd f6 ce bf 33 37 d1 bf
       -0.2673507473333603 -0.2689942715768268
0006c0 40 c5 4e ae 74 7b ce bf c3 59 67 78 6a 71 d5 bf
       -0.2381425715553096 -0.3350473571603311
0006d0 7b a2 11 b2 8f 99 e5 bf 9a 75 7f 4f 84 b5 ce bf
       -0.6749952772052689 -0.23991445428593466
0006e0 db 50 e7 ca bf 1d df bf 7c 78 2f 41 a8 6b db bf
       -0.4861907464485406 -0.4284458767487036
0006f0 4a f0 8c 78 97 25 d2 bf 2e 50 d7 29 08 7f ca bf
       -0.28354441425813504 -0.20700170557995662
000700 20 e0 eb 0f 08 c2 da bf 2c ec 04 fe 53 f9 ef bf
       -0.41809274248908146 -0.999185558444315
000710 05 b2 22 3e cb 65 e2 bf 1d 74 31 20 ac de d1 bf
       -0.5749260152420567 -0.2792158426653389
000720 3a e6 dd 26 02 58 cd bf a6 7a e5 19 ac cd d8 bf
       -0.22924830339234054 -0.3875532391447599
000730 4e 14 0f 18 b0 06 df bf c8 ad 9b db 25 cd d0 bf
       -0.4847831950140219 -0.2625212330446769
000740 a5 e8 49 a8 8c 89 d8 bf a9 5d 76 cb d5 40 d3 bf
       -0.3833953517383953 -0.30083222264644377
000750 51 ea 80 38 a5 bb da bf ae 5b c9 6c a8 5a ce bf
       -0.41770296590735706 -0.23714165984958185
000760 1c 0f 92 e0 dd 55 cb bf d1 4d e8 c1 02 a6 d8 bf
       -0.2135579439674239 -0.385132493365032
000770 15 a8 d4 c8 1a 23 d2 bf eb 35 1e 69 44 0d ce bf
       -0.28339261638996166 -0.2347798836967024
000780 74 ed 89 ca ad 16 d0 bf 42 79 ee 1b 65 0c c9 bf
       -0.25138420848062215 -0.19569076408238045
000790 2e ca 66 23 11 00 ca bf 5a db b3 40 07 09 e7 3f
       -0.2031270430430409 0.7198520911905277
0007a0 3b d7 17 c5 1b 10 d8 bf dc 97 b9 89 5a 55 d9 bf
       -0.37598318335891506 -0.395834574219746
0007b0 80 0c 84 24 f7 d4 e4 3f f4 00 dc a7 31 99 e3 bf
       0.6509967530440832 -0.6124504354957296
0007c0 29 40 67 2c 02 42 e1 3f f6 2b b6 79 36 06 e0 3f
       0.5393076770069501 0.5007583977870798
0007d0 ff 35 00 b6 44 c9 e9 3f ac 76 c3 4a 6f 64 e1 3f
       0.8058188967422096 0.5435100994324862
0007e0 c5 a4 4b 07 43 96 d8 bf 38 a2 b8 98 cf 0b e1 3f
       -0.38417125427674775 0.5326917631946975
0007f0 25 7a ad 81 f5 d9 e2 3f a3 25 c5 91 e5 3e de 3f
       0.5891063244596962 0.47258891330110425

output_gate_weights f8 [108, 81]
000000 41 44 28 a7 bd 66 ce 3f 48 fd 72 1a 41 7f f0 bf
       0.23751040136315463 -1.0310679467364299
000010 2c e2 23 04 85 6e ee bf 4e a7 39 e8 7a 32 eb 3f
       -0.9509911614287083 0.8499121223114601
000020 ef fe 4e b0 b1 06 00 c0 e9 3f 39 29 50 b3 ed 3f
       -2.0032686018092742 0.9281388096951534
000030 00 5d 86 02 95 84 ee 3f 98 cd 34 d2 51 83 c6 3f
       0.9536843346894841 0.17588255657174723
000040 bb e4 08 04 39 e5 ec 3f 2e ff 4f 74 9a 39 f3 bf
       0.9029812887958067 -1.2015633147675078
000050 8a 22 8b fc d0 09 ee 3f 97 4b fe ae 90 39 eb 3f
       0.9386982853403236 0.8507769983137788
000060 74 c7 c1 fb ed 0c ea 3f 72 4d c8 ea de 9b ec 3f
       0.8140783230903552 0.8940271936029787
000070 be 5d 66 3e 5e 17 b4 3f 03 3e e4 42 98 a1 eb 3f
       0.07848156951364779 0.8634759241558075
000080 36 30 b0 13 ce a2 f4 bf 09 2b 8b 77 87 6e ee 3f
       -1.289747311503573 0.9509923300587114
000090 a3 51 90 fe e1 83 ed 3f 93 96 5e 87 2a af c0 3f
       0.9223489734600218 0.13034564599836482
0000a0 50 d3 70 ca ac d2 ed 3f 52 64 05 8c 3e 48 e7 bf
       0.9319671586914442 -0.7275688872133605
0000b0 18 b9 d1 2d f0 5b ee 3f 0e 63 89 16 32 0d b5 bf
       0.9487229247004363 -0.08223259973727812
0000c0 74 7b 4d f6 d9 2b c5 3f 4c 67 a6 94 34 72 d9 bf
       0.16540073896882357 -0.39759554401972674
0000d0 b2 6c 89 c3 b3 94 ec 3f 43 5e a1 3d 34 f4 ec 3f
       0.893152124317018 0.9048100665776889
0000e0 38 0e c1 cd 73 3b dd 3f b2 5b 54 c1 91 79 e8 bf
       0.45675368397880645 -0.7648400093047398
0000f0 95 e7 6e 02 da 72 ed 3f 37 50 98 23 47 11 e2 bf
       0.9202699706577159 -0.564609117051538
000100 fb b4 31 8b a1 7f c9 bf 91 ac 9c a7 2c aa df 3f
       -0.19920748993482804 0.49476162308082744
000110 70 ad 55 4e 06 e0 e3 3f 0c f3 9f b7 3f 80 ed 3f
       0.6210967569326566 0.9219053827688142
000120 a3 1e e0 00 2d c8 ee 3f 60 8f fa 5f 82 14 f3 bf
       0.9619355218028044 -1.19250714770984
000130 ee e1 bc ff 93 0a ec 3f 30 c0 ca d8 b9 33 cd 3f
       0.8762912745360703 0.2281410511545814
000140 04 24 6d 32 ad 40 ed 3f 56 04 c8 e8 8f df d3 3f
       0.9141450867547296 0.3105201504950562
000150 0a b3 c4 07 de 3e e1 bf c4 e4 37 d5 0a c3 e5 3f
       -0.5389242316938134 0.6800588764591784
000160 a5 c9 fa 20 58 8b ec 3f 5a 84 6c ee 36 4a eb 3f
       0.8920097965367871 0.8528093964306536
000170 45 42 3b d7 7f ff c9 3f f4 f4 02 2f c6 5b e3 3f
       0.20310972222661597 0.6049528997606601
000180 c8 74 16 40 15 9a ed 3f 3a 87 52 e6 82 0e f0 bf
       0.925058961078002 -1.0035428044288452
000190 e4 cf 6f 7b b8 c4 eb 3f d8 e8 5b 85 f5 0e ea 3f
       0.8677637492060026 0.8143260578792946
0001a0 ec cc d4 1d 2f 1e ea 3f 00 e5 4b d3 48 fb eb 3f
       0.8161845762864721 0.8744243742832225
0001b0 e5 86 45 34 4b 27 ed 3f 8d 14 4a 4a 22 31 cb 3f
       0.911046602337788 0.21243694903765623
0001c0 db 43 56 1f 01 6d eb bf d6 f7 f9 28 69 48 ed 3f
       -0.8570561992693188 0.9150892067261747
0001d0 2d a5 0f 12 60 c1 c8 3f aa 18 8b 59 30 a9 e7 3f
       0.19340134508028353 0.7394029377835711
0001e0 a9 11 59 d1 48 5d ed 3f c0 3e a0 69 80 f5 ee 3f
       0.917637261278789 0.9674684584624273
0001f0 a9 91 a9 7b d9 5c e0 3f d2 1a 11 6d ce 41 f2 bf
       0.5113341727524602 -1.1410660038397293
000200 c6 0f 1a 22 6b 07 eb bf bb 14 cc e3 44 6c ed 3f
       -0.844655577282986 0.9194664429820912
000210 cd 33 94 e8 6f 74 ec 3f 75 1e 36 39 3a 54 e9 3f
       0.8892135183865492 0.7915316693697166
000220 61 19 5d 96 96 ea ea bf d7 52 a5 21 39 31 ed 3f
       -0.8411362587728882 0.912258687700695
000230 fa eb 75 96 0d bc ea 3f 50 50 48 c0 91 6c ec 3f
       0.8354556978878229 0.8882530932919597
000240 6b b4 da ab 3c b4 eb 3f 9b 3e a6 8b ac ee eb 3f
       0.8657515865830993 0.872885010483475
000250 da 02 1a 7c bd 7a eb 3f 44 6d e1 38 e2 61 ea 3f
       0.8587329315051548 0.8244486914585782
000260 01 e4 82 a8 c2 bb ed 3f 2f e4 18 05 d9 b6 e9 bf
       0.9291699687229312 -0.8035702800326642
000270 8c 6e b2 bd df 33 ed 3f bd 75 99 53 9a fe ef 3f
       0.9125822739619749 0.9998294480134785
000280 1e 37 17 23 2a 23 ef 3f d5 21 30 8c f5 d8 de bf
       0.9730425534596383 -0.4819921368621441
000290 ac d4 4c 88 74 4f c1 bf b6 ec 70 7d 55 43 b8 bf
       -0.13523728041915228 -0.09477743446852824
0002a0 d7 cc 7e d6 ed e9 e0 bf cc 35 0e 10 85 44 a9 bf
       -0.5285557927476486 -0.04935088940610974
0002b0 a1 61 c4 26 52 81 d8 bf cc 23 ab cc cd 32 d2 bf
       -0.3828931215844254 -0.2843508242336241
0002c0 bc 0c e5 51 66 d8 db bf cc 10 89 55 98 87 d9 bf
       -0.435082988715475 -0.3989010653788341
0002d0 37 2f c3 58 34 d6 b6 bf 6e 62 0a 7b 30 83 d6 bf
       -0.08920600096751917 -0.3517571641510021
0002e0 0a 57 a1 a2 5c 41 e0 bf ec c9 1a 47 e3 ca d3 bf
       -0.5079787422534718 -0.3092582888013158
0002f0 24 e3 c2 e1 bd 1e e1 bf 80 e8 a6 2d 99 1e dd bf
       -0.5350026521110505 -0.4549925752468269
000300 1e 4e 7e 58 bd 0d d5 bf cd 25 1a b4 ce 42 99 3f
       -0.3289636005585822 0.024668912642061436
000310 db fb 9a 44 73 40 d6 bf d4 81 2c 53 ea 6c d7 bf
       -0.34768373203035957 -0.3660226642841995
000320 3b 21 f4 4b a0 d3 e2 bf c5 f1 fc 16 0b da d1 bf
       -0.5883332713574768 -0.27893330807617317
000330 76 95 cf c9 74 5f bb bf 3f 00 4e af 03 41 db bf
       -0.10692529608748721 -0.4258431636772037
000340 af d2 aa 8e 84 69 de bf 5f e6 5e 6a 9f d7 df bf
       -0.4751902955279474 -0.49753556621326384
000350 12 dc 03 dc b5 b0 d9 bf 89 fe 4a 54 1b 11 d6 bf
       -0.4014105461678251 -0.3447941134618096
000360 71 7f 5c 94 f6 f5 da bf 81 78 be 69 25 48 e0 bf
       -0.42126240242395513 -0.5088069024384511
000370 f7 7b 48 8b b4 53 d6 bf 5a ec 01 8f cb 62 d5 bf
       -0.3488589630305223 -0.3341549774701825
000380 65 ed 20 82 fe 0e a1 bf 38 c4 90 cb 38 2b d9 bf
       -0.033317521462289425 -0.3932630527443197
000390 55 12 3a 5f 0b 16 df bf b6 dd 21 aa e4 31 e2 bf
       -0.485720484728778 -0.5685904810806537
0003a0 da dd 67 22 fa fc d2 bf 73 cc f2 66 95 3c d9 bf
       -0.29669049606260745 -0.394322729621485
0003b0 dc 4d f7 70 08 f1 58 3f c3 02 7e 94 16 ca d7 bf
       0.001522310489112103 -0.37170948506540585
0003c0 ca 69 3b f0 dd 47 dc bf b0 fb 84 0b 04 9f d4 bf
       -0.44188641033329346 -0.3222055542464046
0003d0 6d fe 8b bb a2 a8 df bf 1d 2c 77 7a 79 54 d6 bf
       -0.49466770472643057 -0.34890591582797176
0003e0 eb 39 86 5a f2 07 e2 bf 81 98 50 62 a8 2d e0 bf
       -0.563470055394473 -0.5055734558307138
0003f0 06 5f 02 09 9b 6b d9 bf 51 ed 7a ee f4 94 e1 bf
       -0.39719272498904024 -0.5494331987205588
000400 b6 78 7b 93 7b fa e1 bf 98 a5 d0 0c 21 fa d5 bf
       -0.5618265038026695 -0.34339166881053407
000410 fb b0 5c c4 f2 63 b5 bf 75 73 83 35 71 de e0 bf
       -0.08355634016033157 -0.5271535916505018
000420 4a ba ce dd e6 27 e0 bf eb 6f 01 de e5 6b d8 bf
       -0.5048708278826066 -0.38158556633220425
000430 ce 41 0c b7 52 b0 d8 bf 0a ca ec d5 50 a2 d7 bf
       -0.38576190830010837 -0.36928196803197066
000440 53 c9 aa f6 0a 71 d4 bf ef 6f 95 f6 0c 26 c9 bf
       -0.31939958656871176 -0.19647371330472604
000450 69 ff 12 a2 4c 62 d6 bf cb 64 5d 74 91 8c dc bf
       -0.349749716067882 -0.44607960094215277
000460 7d 6f 50 3b 55 bf e2 bf 17 48 05 fc 4c f8 df bf
       -0.5858560713272564 -0.4995300732745149
000470 47 61 b1 44 22 1c d3 bf 54 55 3d f9 9f fe e2 bf
       -0.29859215458192917 -0.593582140728055
000480 4d 70 6e b0 01 39 bb bf 88 86 b5 3e 7e ec c1 bf
       -0.10633860165984395 -0.1400296980091762
000490 c0 27 15 33 fe 86 dc bf 84 7d 66 e0 d3 0d d5 bf
       -0.44573931683100554 -0.32896897234055467
0004a0 e9 7a 4b c1 31 48 e0 bf 9f 62 8c f6 65 0c ba bf
       -0.5088127875604559 -0.10175168294189028
0004b0 3d ae 64 5d a4 00 d9 bf 44 8a 57 eb 3a 9b e2 bf
       -0.39066418762624605 -0.5814489933512239
0004c0 f4 3f 46 b5 53 ac dc bf 8f db b3 06 05 37 e1 bf
       -0.4480180044420188 -0.5379662638577986
0004d0 26 00 a6 25 d9 9d d4 bf ad 58 18 3c 26 d0 d5 bf
       -0.3221342914257569 -0.340829428373932
0004e0 d1 d8 57 29 3b 32 e2 bf 23 8e 82 d3 6a df de bf
       -0.5686317260249557 -0.48238630919715514
0004f0 3f 7d af ad bb 44 c4 3f c3 6b 31 f7 35 2c db bf
       0.15834756832826177 -0.42457341327616066
000500 d6 8c 2c d0 35 86 d3 bf 29 cb f8 ed 09 85 d7 bf
       -0.30506654099936037 -0.3674950431770179
000510 7c a5 74 bd 88 f9 e1 bf 4d de f7 fe ce 79 e7 bf
       -0.5617107105546633 -0.7336192111824374
000520 df 40 b8 fc b3 f4 e6 bf 31 f3 99 e0 0b fd d7 bf
       -0.7173709808285159 -0.37481972631194355
000530 61 31 25 38 aa 38 eb bf fc db b2 2f d9 ec b9 bf
       -0.8506671043956368 -0.10127026953237811
000540 97 fe a2 7c 85 db 90 3f 6d 8b 48 de 4b 9b e2 bf
       0.016462407810421267 -0.58145707525942
000550 00 19 73 ba e5 b5 c3 bf 71 dd 0b e5 90 b6 e6 bf
       -0.15398856739029299 -0.7097858880578497
000560 ef 64 92 bf 08 ef a7 bf 8c 6e 3d aa 26 8d d3 bf
       -0.04674556101344673 -0.3054901754855812
000570 99 d1 b9 fc e6 20 b9 bf 53 ec cc 9b 43 0d d4 bf
       -0.0981582991606217 -0.3133095761765549
000580 7a e4 3b 54 28 e5 e5 bf 16 36 80 91 64 a6 b8 bf
       -0.6842233319467959 -0.09628895332590334
000590 64 5b b4 52 ab bd e6 bf a7 b2 8f 13 4a 2e b1 bf
       -0.7106529822657248 -0.06711256959506305
0005a0 4a 22 55 be 02 31 b8 bf 0d a8 94 f6 1f a3 e8 bf
       -0.09449784418860321 -0.769912702181729
0005b0 90 72 3e 99 ae 65 96 bf 14 3e ba a4 eb 46 e6 bf
       -0.021872261145846894 -0.6961572854360747
0005c0 24 33 83 cc b0 8d c6 bf 50 69 71 41 0c 14 e9 bf
       -0.17619905458413954 -0.7836972501930095
0005d0 01 2e cd 2a c2 83 e3 bf 4e 39 0c c7 c5 0d e6 bf
       -0.6098337970701665 -0.6891812217379909
0005e0 a6 c1 f4 15 62 e9 b8 bf b4 81 16 e5 a0 c6 be bf
       -0.09731114421879869 -0.12021833031622614
0005f0 b7 50 f3 08 7a 4d e1 bf a7 d1 ff e0 66 0e ed bf
       -0.5407076048673137 -0.908008040858978
000600 72 9a bf fb f6 ab b2 bf d5 5f ba 56 12 1b d5 bf
       -0.07293647428705599 -0.32977732152494116
000610 bb a7 51 9b 66 bd e4 bf 50 55 68 2e 90 15 dd bf
       -0.6481202157567546 -0.4544411137770412
000620 6d 6d c6 8f 40 36 e0 bf 33 10 01 57 8c 57 b0 bf
       -0.506622582255131 -0.0638358795559391
000630 55 21 74 94 3e d9 bf bf 38 bf fc 2d 0e db e4 bf
       -0.12440863727909364 -0.6517401598157226
000640 10 d1 04 26 a4 c5 bd bf 39 2a 6b 62 af b6 df bf
       -0.11629701545900084 -0.49552521334831884
000650 de 68 eb 89 bd e6 96 bf 5c 04 74 15 73 12 e2 bf
       -0.022364579718534887 -0.5647521418578765
000660 a3 f7 6c d7 95 ef ec bf 47 1c 73 1c 6a 00 e0 bf
       -0.904246254685621 -0.5000505977303725
000670 f9 f8 47 88 2e 79 d3 bf 30 95 cc c1 41 8d ca bf
       -0.30427134808259343 -0.20743581736420813
000680 93 4a c6 ed 80 03 e6 bf 1d ca cb 28 d3 98 e0 bf
       -0.6879276889834095 -0.5186553761289506
000690 b3 e3 8d 32 e1 7a a4 bf e9 20 4a a2 6f 65 e6 bf
       -0.039999997540639674 -0.699882332774931
0006a0 51 76 6e 0f 29 2c d6 bf d9 63 dc 38 62 e8 d6 bf
       -0.34644533640844083 -0.3579335742265904
0006b0 2c 7b f9 a1 79 69 c7 bf 94 3e 3e e5 cc 75 c9 bf
       -0.18290634545243145 -0.19890748208535014
0006c0 57 d1 d9 c9 61 9b be bf dd a3 42 74 67 41 de bf
       -0.11955844095229416 -0.47274195054575135
0006d0 e5 c9 8b 94 6e 00 e8 bf 77 38 b4 c0 13 ed b8 bf
       -0.7500527287759807 -0.09736751036345646
0006e0 ae d7 15 2b 76 7f e3 bf a5 a3 a1 6f fa d3 df bf
       -0.6093092767248345 -0.4973131265783713
0006f0 aa 81 70 88 f5 eb d0 bf 80 55 11 2d 0e ce 72 bf
       -0.2644018013397963 -0.004591040969065374
000700 ac 9f 21 9a 31 14 e3 bf 2f 9b 29 c3 00 47 eb bf
       -0.5962150583627497 -0.852417355706029
000710 4a 3b bd 56 b2 c1 e7 bf be 3f e5 f0 0c 7e ca bf
       -0.7423946088909841 -0.20697175753093505
000720 84 fa 89 1d ff a8 b3 bf bb 9b 51 eb d6 f1 d7 bf
       -0.07679743262449718 -0.3741357133898721
000730 98 25 2e 09 44 61 e6 bf d5 e1 7e 73 7d fc c1 bf
       -0.6993732623388267 -0.14051788463053919
000740 72 30 7f 4b 65 73 d9 bf f1 1f 3b f4 c0 43 cc bf
       -0.3976681935571441 -0.22081767964687019
000750 61 7c b4 a0 7e f6 d6 bf bf dc 23 93 0c 5f b2 bf
       -0.35879483884668245 -0.07176283447539598
000760 96 df 27 67 03 92 b5 bf 7e 54 7f ea f3 7d d8 bf
       -0.08425923603488025 -0.38268754863867815
000770 b9 80 5b 4a 61 2e cd bf 48 98 22 d1 c0 d9 bb bf
       -0.22797790652021435 -0.10879140001142773
000780 2e 08 6a 68 e3 7e c8 bf ee fa 91 de 42 4d 8b 3f
       -0.1913723239741229 0.013330957810692348
000790 3a 1f c0 ef 3d 0d b3 bf d9 a7 87 6d 9c c6 e2 3f
       -0.07442080596240155 0.5867445124870257
0007a0 28 b5 4c f7 6e 4f e0 bf 1f 7c ea 24 74 8c e0 bf
       -0.5096964674063758 -0.5171452256216788
0007b0 a3 8a f3 7a 06 36 e4 3f ce fb 16 7c c7 d3 f0 bf
       0.6315948869126554 -1.0517039153344174
0007c0 d7 5c ae 48 b2 ad e3 3f 29 97 66 d3 0b fd e3 3f
       0.6149531764557662 0.6246394280358106
0007d0 40 fd 08 1f 16 a0 e3 3f ad 68 c8 31 e6 55 e3 3f
       0.6132917982248856 0.6042357418366656
0007e0 ec 23 22 c5 c8 67 e4 bf 6f cc 46 2a 00 63 e3 3f
       -0.6376689768086385 0.6058350396837237
0007f0 fe 11 ee cc 86 9f e2 3f ae 95 44 a0 e6 82 e2 3f
       0.5819734575784989 0.5784791116936299
