balderdash_lstm/lstm_model/models/lstm_model_0.npz (npz, 903256 bytes, 19 tensors)

forget_gate_weights f8 [108, 81]
000000 78 e6 dd ba 84 44 39 bf 49 40 8f 6b 63 57 3e bf
       -0.0003855537460065515 -0.000462972424029044
000010 c6 07 9a 07 c6 8d 73 bf fc 21 14 e8 cb 69 8d 3f
       -0.004773877671711396 0.014361947078683983
000020 cd 40 6b ac 8f 74 8d bf 75 54 63 4f 0e 85 84 bf
       -0.014382479142483718 -0.010019408986787529
000030 c0 7d ef 1e 33 ba 89 3f ca 93 75 fe 05 bd 70 3f
       0.01256217897565548 0.004086516775122237
000040 7e 9a e3 ec 67 8b 63 3f c4 18 d4 8c c9 5d 74 3f
       0.0023858098785354822 0.004972255044100208
000050 bf 0f c5 3c 98 41 71 3f df 88 ad b8 2d b8 69 3f
       0.004212946584008336 0.003139581012349443
000060 7a d8 bb c2 a7 01 98 3f de 3a f0 12 c1 fb 58 3f
       0.023443814526182362 0.0015248666275088844
000070 2e e8 82 d9 35 97 83 bf 74 92 c3 d4 e6 f9 92 bf
       -0.009565754604739931 -0.018531424270707267
000080 2c e1 c6 2d f0 e2 71 3f 40 de c6 17 a1 39 74 3f
       0.004366815756320624 0.004937772053771605
000090 09 de ae b5 fc d3 77 bf 5f 3d 23 14 d3 ce 8a 3f
       -0.005817401072753644 0.013089798976948229
0000a0 30 19 12 b9 f6 fe 72 bf df 5f 2b 0e c5 d9 8f 3f
       -0.004637683640913701 0.015552081580082642
0000b0 7b b5 37 e7 df ff 77 3f b9 81 fc ba 6a 49 95 bf
       0.005859255430079253 -0.020787875807515486
0000c0 72 41 50 61 4c 20 5e bf be 22 ed a2 3c 63 5d bf
       -0.0018387552165713664 -0.0017936794426579995
0000d0 5b 48 5b 38 0c 4a 78 3f 6f db 95 7c 8f 70 54 bf
       0.005929992422993714 -0.0012475396382265155
0000e0 1e 1c ee 46 f1 36 9d bf a7 99 0e 3e 9a 68 98 3f
       -0.02852990146086764 0.02383652690664353
0000f0 da bc 56 47 34 cc 72 bf fe 48 de d1 1f 90 8a bf
       -0.004589275563758844 -0.012970207779094963
000100 01 30 7a 5b 34 0d 97 3f 50 30 00 dd ab 52 8a bf
       0.022511308749514573 -0.012852995569140685
000110 f3 27 50 9d 01 ad 87 3f 32 43 29 48 a6 aa 6d 3f
       0.01156045209247123 0.003621411103531002
000120 fb f5 d5 ef 38 eb 75 3f a8 7e 85 f7 59 0d 82 3f
       0.005351278695682189 0.008814528337722408
000130 75 6d 49 d9 e3 06 95 bf 7e 3e 4b e5 ee 31 82 bf
       -0.020534095894942667 -0.00888430249452132
000140 90 f5 af e1 ce 94 66 3f b0 2a a6 73 38 45 91 bf
       0.0027565041214063293 -0.01686561780801793
000150 b0 84 d6 15 35 83 8a bf 43 fe b8 3b 11 14 72 3f
       -0.012945570687238422 0.004413668935341844
000160 74 e0 8c 75 a7 54 7b bf 2b 4a b8 cc 00 a6 78 3f
       -0.006672529351639967 0.006017687915589802
000170 54 c0 aa 35 44 9e 92 3f fe 1b 7a 96 f3 a0 6c bf
       0.018181863570760307 -0.0034947164129479616
000180 47 fa ff 26 eb d0 5c 3f c3 a6 0c 4c d0 17 66 bf
       0.0017587944421390154 -0.0026969021131620654
000190 1c c3 cd 0c 03 b4 6e 3f e3 bc 30 b6 fe c4 55 bf
       0.0037479457445716135 -0.0013287055414926078
0001a0 f7 49 27 5f 2c e8 82 bf bf 70 05 5f 6c 8c 8b bf
       -0.009231897977689292 -0.013451429986780615
0001b0 22 c7 1d e6 60 92 74 3f d6 81 9d a7 01 ca 77 bf
       0.005022409926697143 -0.00580788275132745
0001c0 79 3a 2a 8f 18 0e 1a 3f c0 0f 04 7b 92 ba 6b bf
       9.939217469876774e-05 -0.003384862990175791
0001d0 84 d1 0b 8c db cc 81 3f 09 33 8b 45 f6 8a 87 3f
       0.008691516124124339 0.011495517728144404
0001e0 86 85 c6 a5 6e f8 65 bf 91 2b f2 bd 81 b2 8a 3f
       -0.0026819382748761193 0.013035787209693147
0001f0 e4 18 00 d1 0b ef 83 bf 1e 34 07 49 00 b1 56 3f
       -0.009733288112340373 0.0013849737916757985
000200 49 ec 5e 68 86 65 80 3f 26 19 ab 18 8d 91 52 3f
       0.008006143627303912 0.0011333349126956909
000210 64 1d 4d f9 df c1 8e 3f fa 03 09 51 34 0f 86 bf
       0.015018224521226649 -0.010771187518118442
000220 cf 02 9b f5 ab 9f 74 bf 28 b8 c6 97 bf 3f 62 3f
       -0.005035087314980215 0.0022276632355078436
000230 1b 24 38 60 ca 20 6c 3f fc 91 f4 6f 22 17 79 3f
       0.0034336044934702 0.006125578423312291
000240 62 01 45 ca 95 d9 75 bf 4a cd 1a 34 b9 49 79 bf
       -0.005334458463324006 -0.006173823787025976
000250 cd f1 fd 1c 29 81 6b bf 8b d3 94 81 a7 d6 7b bf
       -0.0033574870103036726 -0.006796507187847643
000260 de 02 fb 40 d9 3c 90 3f 2e ef 7c e8 e1 af 85 3f
       0.015857119170280203 0.010589375407668546
000270 9f 5f c8 13 2a b9 8b bf 4b 9a a0 86 f9 28 89 3f
       -0.013536766747207994 0.012285184308052829
000280 6d 58 3f 4b 8d c6 6d 3f 07 e1 07 11 18 e6 8b bf
       0.0036347160002874663 -0.013622463245142059
000290 f1 9a a0 0e c1 62 92 bf b0 7f 80 d5 38 81 73 3f
       -0.01795484210756632 0.004761907584935374
0002a0 1d e0 e9 a2 72 c6 74 3f a8 ee 5a 3c 2f 4c 71 bf
       0.005072067068447009 -0.0042230458399747164
0002b0 e1 4b 9f c1 58 68 82 bf 4c dd 9b 9d 92 d3 5a bf
       -0.008988088044054212 -0.0016373569291639632
0002c0 ea b2 3b f9 26 0f 98 3f c3 08 db c4 75 c1 7e bf
       0.023495301210391263 -0.007508716616657365
0002d0 39 ba f1 e8 be 3b 61 bf 94 73 62 b2 52 c0 7a bf
       -0.0021036843023048116 -0.006531069788391703
0002e0 79 14 94 fe 79 dc 63 3f 15 04 4c 24 d4 78 7e bf
       0.0024244673446696644 -0.007439449957701978
0002f0 68 6f 14 88 d1 bc 73 bf f9 17 ee e5 de 39 3c 3f
       -0.00481874321237883 0.0004306954560252537
000300 36 ff 03 0c 7d bd 75 3f 96 fa 5b f3 bd bf 76 bf
       0.00530766340693827 -0.005553953165643796
000310 fe c3 24 72 59 cd 87 bf db 80 ca 94 85 1e 77 3f
       -0.011622141643416125 0.005644342233296319
000320 63 f6 67 5a 52 13 8a bf 56 4c c4 f3 a6 0d 82 bf
       -0.012732165702796288 -0.008815101923152973
000330 eb 02 0a 25 fa f4 7e bf 38 62 2c 30 e4 a0 81 bf
       -0.007557847144767686 -0.0086076571656558
000340 c9 79 0f 36 fd 81 7d bf 5b 14 61 76 dd f3 7f bf
       -0.0072040453969450325 -0.007800927245687007
000350 df 95 a0 85 e3 84 7f 3f db 51 f9 af e4 49 72 bf
       0.007695091970196326 -0.004465001402043057
000360 08 ab d1 2e b5 18 83 3f 52 85 5b 1e af ce 7d 3f
       0.009324470034888246 0.007277187401741729
000370 79 f2 12 99 c7 66 71 3f ac dc 41 5b 70 0e 8a bf
       0.004248408965562883 -0.012722852501822444
000380 4e f6 51 f1 52 e4 60 bf 0d 79 42 2d 73 30 85 bf
       -0.0020619983648078382 -0.010346317118373105
000390 10 a1 c0 96 94 ad 8f 3f d9 fc c8 25 6c 78 80 3f
       0.015467797136878875 0.00804218759833335
0003a0 1c 34 e2 7a 5d af 7b bf 8d ef c8 ec b3 ae 93 bf
       -0.006759038120560692 -0.019221125914767923
0003b0 60 67 64 e8 63 75 87 3f f0 ba 35 49 ea 72 72 bf
       0.011454372911021415 -0.004504122905344174
0003c0 d2 73 fc df 91 66 66 bf 27 a8 86 17 a9 26 65 bf
       -0.0027344559783970346 -0.0025819113327161416
0003d0 0a 0b cc 1b 14 72 7f bf 9a df 86 54 ad ec 85 bf
       -0.0076771531573765015 -0.010705331937842111
0003e0 1e 6c 4f f7 52 47 7a bf 8d cd bc db 87 ef 7d bf
       -0.006415676199107016 -0.007308512398413025
0003f0 1b ee 9e c6 0a a3 5f bf 7d 59 b2 c7 5f cf 8d bf
       -0.0019309621079476372 -0.014555691034087154
000400 df 9f 98 ee e6 1b 73 bf 50 93 e7 b8 19 78 75 3f
       -0.0046652813703431375 0.005241489865942153
000410 ae a4 28 70 fe 8a 78 3f f0 e6 67 99 5a 73 74 3f
       0.00599192991152468 0.004992822554862761
000420 ab 83 7d 83 2a 40 67 bf 98 79 f2 0a 48 79 85 bf
       -0.002838213953439047 -0.010485232194977809
000430 0d 03 4b b2 6f 86 48 bf 1c b5 53 77 f1 20 81 3f
       -0.0007484479325158014 0.00836361546904612
000440 5c c0 03 34 d3 34 50 3f 20 f1 59 8e eb d9 84 bf
       0.0009891569644047337 -0.010181274682729724
000450 cc 62 ea d0 a3 b9 62 3f ea c9 97 b9 63 47 78 3f
       0.002285785630487735 0.005927457380936899
000460 f0 98 69 60 18 a6 6f 3f d4 ca 52 49 38 27 90 3f
       0.0038633800607384902 0.015774611926370266
000470 af 69 17 dc 7d b1 58 bf 98 db a0 e4 b4 a2 85 bf
       -0.0015071610545108573 -0.010564244486983829
000480 e6 2b 8f 29 01 17 92 3f ef 90 ab 16 5c b9 71 bf
       0.01766588035733809 -0.004327163430137156
000490 74 c6 9b a7 64 e9 88 3f a5 96 21 24 19 d6 6e bf
       0.012163912167554282 -0.003764199355873315
0004a0 3f 2c 51 97 e1 55 91 bf 1f fe ff 5b db 93 8d bf
       -0.016929173336660105 -0.014442170853725731
0004b0 3c 28 64 7e 35 cb 6e 3f ce f1 9f 7e 1f c9 79 bf
       0.003759006957925441 -0.006295321489230022
0004c0 de 9d 95 c4 8c 36 8d 3f ee 9b 38 90 05 dc 94 bf
       0.01426420187881566 -0.02037056629901806
0004d0 03 a0 0d 44 cb 78 5a 3f e4 57 ff 0a b4 15 70 bf
       0.0016157135980510169 -0.003926947872931994
0004e0 39 f6 88 0b 4d 04 94 3f 3f 22 f4 4f 6f f3 8c 3f
       0.019547656849900206 0.014136190059177099
0004f0 18 7e 39 13 26 34 98 3f 2b f5 28 19 3d a7 8d 3f
       0.023636431620955717 0.014479138689348211
000500 d5 12 f5 14 d9 60 8a bf 9f f1 f7 77 8f c3 45 3f
       -0.01288003535467778 0.0006641817598729733
000510 a5 57 52 ba e3 4f 7b bf 39 5a 4e 13 08 fd 83 3f
       -0.006667985498230698 0.009759963120626757
000520 f7 0c 81 b0 19 71 92 3f 80 65 37 c3 c6 92 88 3f
       0.01800956859393651 0.011998703796893606
000530 30 aa 06 49 c9 e2 81 bf 75 99 0d 09 53 ce 7b bf
       -0.00873334173305293 -0.006788563115014736
000540 81 43 a4 f0 c8 93 7b 3f 16 6c 0c f2 a9 ab 51 3f
       0.0067327355593683755 0.0010785255073588788
000550 f7 12 37 fb 69 0f 79 bf 72 ed 39 76 05 e7 74 3f
       -0.006118215550888754 0.005103131613960131
000560 42 83 60 27 3a 51 40 bf ab f5 b0 63 36 9d 88 bf
       -0.000497964282434628 -0.012018608968100994
000570 27 5c 5c 5f ef e1 79 3f e9 61 f8 f3 26 8f 67 3f
       0.006318984078254742 0.002875877456755872
000580 8f 05 f8 96 0a 1f 85 bf 65 83 dd 03 65 01 78 bf
       -0.01031311295719453 -0.005860704984883868
000590 8b 46 3e e3 ee 1e 8a 3f 19 29 35 42 52 f5 86 3f
       0.012754312810815868 0.011210100789544474
0005a0 ce b1 5b 0b ce 84 55 bf 41 64 6b ac 43 3f 8b 3f
       -0.0013134014274626018 0.013304260920835033
0005b0 40 35 ed 99 26 75 81 bf 83 8b 2d 50 99 ec 81 bf
       -0.008524228641955234 -0.00875205779965938
0005c0 31 bc f4 87 7f d7 83 3f 9a 72 36 f7 14 b8 6d 3f
       0.00968837388663077 0.003627816151221386
0005d0 b5 ca 73 33 d8 a3 97 3f cb c1 40 92 65 c4 81 3f
       0.023085954800033465 0.008675378347192805
0005e0 ba 4a 38 07 71 83 82 bf 41 c8 56 79 6e 04 76 bf
       -0.009039767296632351 -0.005375319994913198
0005f0 5f 4a a9 58 53 d1 7c bf 50 74 f6 43 9d 2c 51 3f
       -0.00703556592141527 0.0010482345386215904
000600 ad ce 8d 38 cc 0f 8e bf 45 f9 d9 08 1d a9 ed be
       -0.014678569293870092 -1.4143275872455087e-05
000610 ad b8 34 5a b4 40 6c 3f c4 d7 aa bb 04 97 90 3f
       0.003448822260586479 0.016201089815431904
000620 9e 3a 04 66 10 00 94 bf ff 13 24 d1 1e 53 76 bf
       -0.019531494356722072 -0.0054503635203717584
000630 dc 2e 22 67 bb 82 95 bf b2 de 46 3b 04 6d 6e 3f
       -0.021006515664835898 0.0037140925071204806
000640 49 f7 b7 6b 11 d7 52 bf 37 e8 ca a0 78 71 83 bf
       -0.0011499090313686503 -0.009493772894860182
000650 00 bc bc c5 2a 06 64 3f d3 05 e2 82 5e dc 5a 3f
       0.00244434694277329 0.001639454170373579
000660 9d 96 0a be dc 50 8e 3f a1 ed d1 d0 e8 d2 87 3f
       0.014802670049287864 0.011632746575051924
000670 ea c8 25 34 50 7e 8a 3f 70 ef 27 44 93 8a 66 bf
       0.01293623599187695 -0.0027516247075691155
000680 90 ab fd 5a 75 8d 8c 3f f9 02 c9 6f dd 20 28 bf
       0.013941685523340103 -0.0001840849216865543
000690 a7 31 24 4b 94 a5 95 bf 63 5a 2f 92 df 45 94 bf
       -0.021139447294488935 -0.01979779557935969
0006a0 58 0b 6c 51 27 93 60 bf 84 da 01 89 92 2f 85 bf
       -0.00202329329784005 -0.010344643407944838
0006b0 8f 19 78 09 47 36 92 bf a7 ce 05 82 22 d7 72 3f
       -0.017785177185965003 0.004599699779976574
0006c0 6f 24 fb 54 8c 3f 7f bf de ad 89 e6 1e 07 7b bf
       -0.007628963634212046 -0.006598587708690455
0006d0 f8 dc 54 a5 c8 e2 60 3f 85 54 4a 29 94 af 8f 3f
       0.002061263929728715 0.015471608648377941
0006e0 f4 b4 34 93 37 6b 96 3f 42 8e 15 c2 d4 d6 65 3f
       0.02189337573979784 0.0026659160072755326
0006f0 aa 4e cb 62 af ee 82 3f 29 13 0f c6 c2 81 68 bf
       0.009244318201502583 -0.0029915622876352144
000700 2b 81 59 66 98 bd 6c bf 66 d6 69 2f 82 39 71 3f
       -0.003508374839654623 0.004205235038730137
000710 2d 8f e8 82 33 56 87 3f 7f ac 52 38 91 97 81 bf
       0.011394884521969207 -0.008589872866954671
000720 df c2 44 c7 28 61 91 bf 30 31 a7 3b c1 da 8a 3f
       -0.01697219578017239 0.013112554200141874
000730 6a 98 89 41 e1 8c 34 3f 71 16 49 55 48 ea 7d bf
       0.00031357287801936937 -0.007303507377007899
000740 21 62 85 a0 c3 59 83 bf 05 84 22 a6 d3 c8 7b 3f
       -0.009448555313313513 0.006783320192114144
000750 af 86 ca 26 52 0f 81 3f fa 07 c2 e8 ce a2 72 bf
       0.008330003556071245 -0.004549797286133023
000760 03 83 59 66 be 2e 90 3f 36 42 4c 51 bd 45 85 bf
       0.015803313252379613 -0.010386923831476751
000770 a9 9b c6 68 4a d7 87 bf 12 ca 16 35 06 cf 65 bf
       -0.011641103098396348 -0.0026621934163924077
000780 39 d5 d7 58 c5 e4 7a bf 34 2a 46 85 5f 56 81 3f
       -0.006565829169166642 0.008465524916364854
000790 cd a4 1e 8c 38 de 87 3f 47 07 80 71 84 36 73 3f
       0.011654321457017858 0.004690663678049329
0007a0 25 b5 84 de df 23 70 3f 77 d3 ab 84 c7 86 81 bf
       0.00394046257887951 -0.008557852493575642
0007b0 4a ee a8 ee 94 ca 85 bf b3 e5 45 a7 54 33 57 bf
       -0.010640300305673329 -0.001416046780916208
0007c0 fc 51 42 87 c3 ad 89 3f 65 d4 82 88 7d 7e 85 3f
       0.012538459363249814 0.010495167473303544
0007d0 d7 f3 75 61 0e db 86 3f d7 70 49 79 a4 88 86 bf
       0.011160003995195495 -0.011002812339193131
0007e0 17 92 e6 33 32 2a 7e bf c4 1a 49 98 55 15 5f 3f
       -0.007364460091058087 0.001897176350341632
0007f0 91 30 93 78 40 19 51 bf 05 05 5a 1e 3c b7 54 3f
       -0.001043618164021463 0.0012643897147486826

input_gate_weights f8 [108, 81]
000000 22 6a 95 6d e6 89 6a 3f d2 ac b5 2c 04 ea 83 3f
       0.003239584021384149 0.009723694433623118
000010 1b da 1e 33 77 14 96 3f 16 13 11 de 9f 41 74 3f
       0.0215624451591002 0.0049453968832196184
000020 f3 29 7c c4 7b 2d 84 3f 85 db ce 0b f8 a0 5d 3f
       0.00985237782835655 0.0018083975148621434
000030 ee 78 3c f1 fd bb 72 3f 67 8a 7f 6d 56 85 85 bf
       0.004573814356062507 -0.010508227554912609
000040 b4 29 4e 98 fc 2c 97 3f 08 14 ee 3f af 2f 86 3f
       0.022632548137644995 0.010833138597954331
000050 cc 4c fd 23 f3 c2 7d bf fa 23 83 83 6b 2d 89 3f
       -0.007265996711640809 0.012293662978111176
000060 a5 63 f0 76 69 fc 56 bf c2 36 e8 45 0b db 86 bf
       -0.0014029531410015641 -0.011159980841536469
000070 e9 cd f8 4d ec bc 93 bf 5c 97 61 e0 7c 58 68 bf
       -0.019275371798540695 -0.0029718817705085953
000080 94 b9 3a cd b2 3d 8a bf ad 9f be a5 ff 16 8f 3f
       -0.012812992942909308 0.015180585141777525
000090 0a 1e ad 4b 8e 94 91 3f b4 66 1e e2 39 2d 48 3f
       0.01716825806513892 0.0007378132470307803
0000a0 a1 00 6d d9 fb b3 77 3f 7d 4c a7 8a d9 de 73 bf
       0.0057868802894633095 -0.00485119797891109
0000b0 32 4e 8c d5 56 8b 87 3f 4b cd 15 9f 05 a2 6d bf
       0.011496237174959043 -0.003617297152851561
0000c0 22 3e f0 a1 1d 37 74 bf 92 00 65 ab 2f f8 93 3f
       -0.004935374977335568 0.019501442752926375
0000d0 8e e6 01 4e fa 66 71 3f 11 1b ac 37 e6 27 90 3f
       0.004248597863005478 0.015777203700987622
0000e0 e2 18 f0 b2 f3 a8 82 3f 8e 2f 32 8b a2 6b 4f bf
       0.009111312769175265 -0.0009588760061815958
0000f0 3a f9 5a b9 fe 39 54 3f c0 04 bc a6 a7 81 80 bf
       0.0012345302142616325 -0.00805979707320359
000100 a6 4f 7b 57 72 06 85 3f c6 71 71 c2 82 f2 77 3f
       0.010266202254037026 0.005846510676829236
000110 d3 cf 81 d7 9c da 91 bf c1 b1 67 79 a9 5d 85 bf
       -0.017435503629215376 -0.01043255235432461
000120 ce a4 18 30 66 15 81 bf e4 8d e9 88 bc a0 89 bf
       -0.008341596930295483 -0.012513611725075209
000130 10 c0 b8 ef b9 60 70 3f 65 c1 f0 0e b6 a2 77 bf
       0.0039984954014897905 -0.0057704078345043085
000140 fa 48 db 5d 1e 70 62 bf bc 4e e1 76 ee be 86 bf
       -0.0022507279489697414 -0.01110636043828294
000150 c9 e1 28 b5 87 f2 65 bf 79 2d 79 87 62 70 92 bf
       -0.002679123929990566 -0.018006839293133823
000160 e6 80 89 09 e0 a4 7a 3f c9 ac 95 cc 69 45 80 bf
       0.006504893441700887 -0.007944895320824224
000170 69 b2 6a f6 93 6b 95 3f 29 6a 0f c7 d6 99 91 3f
       0.020918189921462025 0.017188411616965524
000180 d8 08 c6 ee bf f3 8a 3f cb b9 55 c6 14 ff 56 bf
       0.01316022822789302 -0.0014035895231604308
000190 45 72 1b d4 eb b5 86 bf ed a9 16 b3 9b c4 6f 3f
       -0.011089174662111687 0.0038779297835464994
0001a0 2e f8 71 3e 6a 7b 83 bf 51 20 00 4f 6f 97 61 bf
       -0.009512739210773526 -0.002147405051804476
0001b0 5f c4 74 69 93 d0 69 bf 38 de cd 7a 45 42 57 3f
       -0.0031512145175374563 0.001419608927987327
0001c0 df 21 69 8c 85 e9 78 3f 73 45 7e f0 9a a3 59 bf
       0.0060820786225765635 -0.001564885433229382
0001d0 3d 88 a1 ab 2e 4d 95 3f 34 4d fc 9f dd 91 7a 3f
       0.020802239633106224 0.006486764643131072
0001e0 d1 27 7d 2d e5 34 81 3f 2e b9 af f1 6b 37 7f 3f
       0.008401670885763853 0.007621213585464566
0001f0 33 43 76 95 9e fe 5c bf 32 56 8e c8 d4 07 62 3f
       -0.0017696903867980395 0.002200999825116034
000200 8d 08 b8 b0 da 60 6a bf cc 27 96 7f 39 e1 70 bf
       -0.0032200118346291163 -0.004121040919367002
000210 9b ae 5e 8c fb 40 4b bf 29 28 5d 95 c7 bf 36 3f
       -0.0008317211402206372 0.000347124315670857
000220 28 26 a6 2c ec b5 88 bf d6 c4 d3 40 da bd 87 3f
       -0.012065739739017436 0.011592583754892177
000230 5c 96 03 80 1f f6 7a bf aa b4 4f f1 4a 74 6f bf
       -0.006582377478684256 -0.0038396323893637634
000240 d6 b5 0c d1 ea 21 54 bf 88 d5 60 c1 65 89 7c bf
       -0.0012287896281110064 -0.006966969949691822
000250 8a 41 8a 3f 12 60 83 3f e2 e3 fe dc df 8e 89 3f
       0.009460585178459952 0.012479542667152847
000260 12 d0 cc 87 0c 91 64 bf 7d 12 85 0b 8c 6b 78 3f
       -0.002510570977756651 0.005961939860132601
000270 3a af a8 d7 33 82 98 3f 67 ab 74 8d c0 81 85 3f
       0.023934183156753643 0.010501388852011307
000280 11 76 0c b1 53 97 58 bf 18 45 9b b7 c7 d4 61 bf
       -0.0015009228993173621 -0.0021766567923370388
000290 49 6d 93 a9 06 9d 96 bf ec df d7 3f e7 f9 80 3f
       -0.022083381748285977 0.008289152751771632
0002a0 61 09 c3 56 67 b5 90 bf 36 63 f2 48 b2 95 82 3f
       -0.016317000074886127 0.009074585772667381
0002b0 65 6f 72 75 9a 7b 90 3f 66 bb 3c e2 1b 6e 72 3f
       0.01609650937881159 0.0044995392998278035
0002c0 fb 75 d4 3a 88 dc 8a 3f 11 59 85 1f c6 1c 90 3f
       0.013115944190356102 0.015734763788111176
0002d0 82 a4 61 4b 26 cf 85 3f 52 56 7e 84 43 6c 41 3f
       0.010649012732942834 0.000531704871707015
0002e0 f4 36 b7 a9 e9 c4 7e bf de 4a cf 8a 1f ce 78 3f
       -0.007512009378343388 0.006055949413126453
0002f0 9c 5b b4 84 f9 9b 92 3f e3 37 ca 86 72 3c 72 bf
       0.01817312118972901 -0.00445217835352982
000300 77 1a 50 c8 c0 92 76 bf 55 36 cc ab f5 13 2b bf
       -0.005511048370869013 -0.0002065884963475146
000310 ec 7f 37 15 30 ef 50 bf a1 19 86 39 e0 a6 6c bf
       -0.001033589321075108 -0.003497541369316085
000320 84 fc 33 3b 1b d3 95 bf 10 f1 88 e6 7d 61 94 3f
       -0.02131311940047144 0.019903151698813792
000330 81 8b 21 bb 48 34 81 bf 3d 65 73 82 68 6e 7f bf
       -0.008400505266939142 -0.00767365287830418
000340 d0 ad 48 14 4f c4 80 bf d5 4b b1 1a 6b c1 50 bf
       -0.008186929518237657 -0.0010226770343890652
000350 21 57 12 e0 00 28 65 bf 46 b1 62 99 ba a8 88 3f
       -0.0025825516791638946 0.012040574842409623
000360 74 66 e5 0a 34 48 74 3f 1e d3 41 68 c5 24 95 bf
       0.004951670924435814 -0.02064808319888122
000370 4e 75 b2 01 64 6d 7c 3f ae 24 5f 9e db ca 5b 3f
       0.006940260554214218 0.0016963143075250753
000380 a2 2f c3 b0 89 48 48 3f d2 e4 a2 b0 16 01 95 bf
       0.0007410690609730328 -0.02051196530439798
000390 21 82 f5 41 16 64 82 3f 88 dd ef 6c d0 f8 84 bf
       0.008979963195714426 -0.010240200352184883
0003a0 3b e3 7a eb bd 69 89 bf 19 61 c8 42 0a 91 6f bf
       -0.012408717869548993 -0.00385334018779927
0003b0 9a b8 7c 1c c0 31 7c bf 6c fb a8 3c 3b 49 83 bf
       -0.006883383211784411 -0.009417021549891401
0003c0 80 7c c8 d9 5d a5 84 3f 82 61 f8 29 46 e1 6c bf
       0.010081036766733442 -0.003525387801129821
0003d0 ab e8 8c 9d 1d 55 68 bf 2f c2 83 e2 23 f0 63 3f
       -0.0029702738214868094 0.0024338436961601965
0003e0 e8 ba ea 4c d4 9f 8d 3f c9 90 33 3a 1a 26 70 bf
       0.014465006444280573 -0.003942587328513444
0003f0 fa 13 db 10 36 61 92 3f 69 12 bc d1 6a e4 72 3f
       0.017948956278605245 0.004612366926953195
000400 cd e9 90 11 9b 4f 54 3f 0d e3 3b 31 26 66 8e 3f
       0.0012396826116530702 0.014843271615505605
000410 cf 23 2a db d6 eb 81 3f 9e 2f 98 be 9f 86 96 3f
       0.008750608981488299 0.021997924812282237
000420 4a 7d 79 74 60 04 67 bf b9 09 fe 81 e6 82 90 bf
       -0.0028097041975311586 -0.016124345478155642
000430 b9 a7 03 a7 c0 09 58 3f ec f8 b6 ca ba bd 5b bf
       0.001467168938740644 -0.0016931842936709863
000440 31 50 4d 20 ab d8 71 3f e7 db 2b 85 fb 51 83 3f
       0.004357021772040824 0.009433712960783281
000450 4d ee 38 66 8d a8 89 3f a8 7b 8e 60 0e 85 7f bf
       0.012528519327239663 -0.007695251618229294
000460 25 d2 6c b8 e9 50 95 3f 64 e5 ee 35 f1 f7 7e bf
       0.020816470986760777 -0.007560674885945449
000470 49 36 d9 90 b0 c9 67 3f bb 6b 89 67 d7 d2 7b 3f
       0.002903790335756527 0.00679287092551822
000480 0b 96 da ab d7 b5 81 bf 14 0c 12 75 01 a6 7a bf
       -0.008647618228972772 -0.006505971615413681
000490 67 aa c9 da 67 2f 63 bf 0f e7 ed fd 18 89 57 3f
       -0.0023419407282763596 0.001436495214618142
0004a0 10 d8 8d b1 33 99 7d bf a1 70 d1 7c 73 e1 7a 3f
       -0.007226182868967271 0.006562663195918501
0004b0 45 d7 ad 3d 2c 92 8b 3f 71 8d 8c a1 27 79 73 bf
       0.01346239627103397 -0.004754214104454633
0004c0 ee 6f 67 ef c7 56 69 bf 10 9a dd f7 9e 28 9c bf
       -0.0030931382163838983 -0.02749870670177229
0004d0 27 d4 24 d4 13 4f 6e 3f 02 14 fc e9 84 c9 78 bf
       0.0036998164443056317 -0.006051558680842286
0004e0 9b b2 aa ea 00 66 71 bf a8 47 c2 cb 57 7c 7b 3f
       -0.0042476688201246405 0.006710379555572667
0004f0 9d 3f 26 60 8c 00 7d bf a4 30 2a 6f 90 02 8a bf
       -0.0070806010647998215 -0.01270020331619321
000500 90 7f 47 cb a5 24 73 bf a3 c0 0d d6 fb 93 96 3f
       -0.00467362178139287 0.02204888814907292
000510 39 a2 ad 08 6c 67 76 bf df d2 80 c8 f5 e1 64 3f
       -0.005469724662227332 0.0025491524175101777
000520 1b f0 7e f8 d5 9b 76 3f e3 82 be 35 33 63 82 bf
       0.005519710371967103 -0.00897827155842052
000530 37 ed 33 e8 81 07 5b bf 1f 20 23 6b 07 f8 79 bf
       -0.0016497391341648412 -0.006340054491552421
000540 1c aa ca 06 dd 14 79 bf 3b e5 7e 80 0a 8a 94 3f
       -0.006123412499315719 0.020057834713701466
000550 64 2d 3b 17 73 f0 6a 3f 28 d6 1b cf d5 0b 57 3f
       0.003288483416189857 0.0014066303232857045
000560 79 12 e9 74 3f 9a 95 bf 6a 55 68 50 7c 5d 7a bf
       -0.021096221457144602 -0.00643681106750669
000570 d5 a6 10 86 ac fc 88 3f 19 c8 bb 0f b8 6d 98 bf
       0.01220068725713778 -0.023856044731424306
000580 83 54 ef 56 a8 43 96 3f ef f0 18 71 93 8e 49 bf
       0.02174246817215365 -0.0007799358301734653
000590 fd fd 51 bd cb 3b 75 3f e6 57 b1 4d c9 ac 81 3f
       0.005183978898571248 0.008630345042700282
0005a0 d3 85 2b e5 54 5a 82 bf e2 0a 02 8c b1 30 72 bf
       -0.008961356395448405 -0.004440969030954563
0005b0 34 f0 f1 4f ac b0 84 bf 3d c3 b8 77 22 3f 5b bf
       -0.010102602185945476 -0.0016630016897460486
0005c0 de 13 e7 15 ab 9a 76 3f 2d 72 14 14 2e d0 8e bf
       0.0055185969380930604 -0.015045509326733509
0005d0 d0 f9 3d 6a d9 0e 7c 3f d1 5e 7b 23 f0 83 76 3f
       0.006850098874450386 0.005496919671450677
0005e0 19 fc bf 3f 77 5a 53 3f 1b 3e ad 8c aa a0 88 bf
       0.0011812367001764522 -0.012025196474183144
0005f0 13 96 71 58 cd ed 67 bf cd 1d b1 44 8f 41 90 bf
       -0.0029210100797623178 -0.015875090186708896
000600 83 b7 fe e2 96 5a 9d 3f cc ea 94 c6 d8 72 91 bf
       0.0286658836409326 -0.017039668198075827
000610 94 c0 2a 41 82 10 8f 3f 12 9d dd e7 b8 ee 95 bf
       0.015168206800211949 -0.021418465759237178
000620 a6 71 8b f6 a0 c0 4b bf 72 79 a3 0d 8d d1 52 bf
       -0.0008469377472369213 -0.0011485936616320827
000630 7f b2 d1 ee 8a 9b 57 3f 65 51 d1 4b cb 8a 5b bf
       0.0014408928648449724 -0.00168104031697166
000640 bf 38 1a 29 94 0e 71 3f 52 c6 c1 a9 5a db 82 3f
       0.004164294006512913 0.00920744734341664
000650 42 be ef d4 6d 64 86 bf 9a 87 ab fc c2 4e 78 3f
       -0.010933740673834017 0.005934487979830561
000660 63 1e 4e 9e b1 6b ee 3e 52 4c bc 4c d0 e1 97 bf
       1.450571012086218e-05 -0.023322348292890212
000670 30 09 95 54 97 7f 6d bf a1 74 98 34 74 0c 84 3f
       -0.003600879256425625 0.00978937898167437
000680 c4 af 54 9f e0 e8 54 bf 19 f9 d8 5b 5a 33 93 3f
       -0.0012762254312503754 0.01875058351128542
000690 cf 42 2e 7c e8 52 6d bf 38 9c 10 a4 6b 97 84 3f
       -0.003579572746680838 0.010054436630595118
0006a0 a0 c0 1d 87 e7 15 73 3f 36 e1 54 59 dc be 69 3f
       0.004659561543903262 0.0031427673044640793
0006b0 22 47 71 b8 17 c7 7c 3f c0 6c 2b 44 fd 86 72 3f
       0.007025807054633211 0.004523267098842598
0006c0 8c fc 06 35 10 0d 68 bf 7f d0 9f 95 82 3c 76 bf
       -0.0029359165712033505 -0.005428800674042943
0006d0 88 80 fa 69 fd a6 63 bf f2 0e ab df d8 a2 7b bf
       -0.002398962926079721 -0.006747100031762919
0006e0 d5 e2 51 ab a9 49 76 3f fc 0e e8 80 fa e7 4a 3f
       0.005441344042190284 0.0008211110269375761
0006f0 66 e8 8c 05 79 70 88 3f 56 03 f5 c0 81 fa 8a 3f
       0.011933274728665743 0.013173116398890333
000700 40 51 a4 1f ef 53 6c bf 3a e9 0d a5 ad 32 63 bf
       -0.0034579916365463925 -0.002343501233949355
000710 88 d9 c4 96 fb 81 64 bf 60 92 59 d5 0b b0 80 3f
       -0.002503386864329108 0.008148281525060586
000720 9b 8d a2 7f fe 5e 97 3f c2 cc 3b 90 91 30 75 3f
       0.02282331136724523 0.005173271758155797
000730 6f 17 b2 c3 9d 81 68 bf f1 eb 0d 74 c4 ec 94 bf
       -0.002991493352570033 -0.020434445937535576
000740 aa 93 c3 1a 35 05 90 3f dd 3a 4a 4b 7e 5e 5b 3f
       0.0156448648057396 0.0016704781857332298
000750 c2 53 aa 2a 0e 5c 7e bf e7 94 64 29 c4 02 96 3f
       -0.007412009562035972 0.02149492743150896
000760 92 0c 46 d3 a3 b4 4b bf 0b 2c 69 bd 1f fb 84 bf
       -0.0008455085685884647 -0.010244605987415075
000770 d8 db 97 6a 6a 82 70 bf 94 14 1d b9 c9 1a 87 bf
       -0.004030624093039635 -0.011281562768667798
000780 fe 30 2d 61 df ca 45 bf f1 94 f7 ee 2c 0b 43 3f
       -0.0006650534363444036 0.0005811662103353527
000790 4b c5 6f 5d b1 84 93 bf 27 ab ca dc 61 9d 89 bf
       -0.019060870483319985 -0.012507214117552913
0007a0 19 ca 8e 16 96 a9 49 bf 81 4e f2 c9 6c a9 87 3f
       -0.0007831557132845251 0.01155362120906678
0007b0 fb 31 ac b7 53 8a 75 bf 15 3b 99 63 ed 2e 99 3f
       -0.005258872052547488 0.02459307594682077
0007c0 1f e9 95 62 a2 74 61 bf 92 41 1b 71 39 f1 84 bf
       -0.0021308108886703005 -0.010225723995433342
0007d0 2b c3 d4 2a 9e 52 a2 bf dc 42 56 b2 7e b5 93 3f
       -0.0357865741046964 0.01924703563196571
0007e0 55 cd e5 5e ca 44 4c bf 3f 11 ec 44 ab 7f 70 3f
       -0.0008626926553873352 0.0040280046657737425
0007f0 ea 0b 86 04 36 60 7d 3f b4 eb 25 28 6d df 84 bf
       0.0071718320908784414 -0.010191777026866557

output_gate_weights f8 [108, 81]
000000 df 17 fa f2 67 22 73 3f ff ba c1 5c da b2 75 3f
       0.0046714840424381945 0.0052975206163938795
000010 01 9f 9e e3 16 6a 7a bf 28 7e ca a1 43 a6 75 3f
       -0.006448830996226952 0.005285515010342169
000020 28 42 86 f5 e2 e9 87 3f 91 76 85 b4 25 5f 7c bf
       0.011676571958362095 -0.00692667702273088
000030 63 15 af bd 9a 69 70 bf 99 27 40 44 c7 e6 67 bf
       -0.004006962258192945 -0.002917660896859919
000040 03 d5 1a 3a f7 50 58 3f 37 46 61 0d 72 ef 23 bf
       0.0014841474843881326 -0.00015209452857560684
000050 e6 21 f6 4d 2b 79 79 bf 26 1e 64 ba 01 ae 85 bf
       -0.006219071539256471 -0.01058579778738451
000060 e3 a3 35 28 0a 86 8f bf 7d ab eb 52 29 c9 8f 3f
       -0.015392379142854245 0.015520403712306447
000070 c0 a7 60 62 e9 e0 71 bf 08 d4 bb 3e 51 9d 76 3f
       -0.00436488309609645 0.0055211232790855005
000080 a3 95 03 b0 f9 b3 92 3f 21 2b 36 81 f4 53 80 3f
       0.01826467644504749 0.007972631638741458
000090 ef cd ce fb b4 d4 50 bf ba 64 b1 aa fe 40 49 3f
       -0.0010272757929045103 0.0007706874361118811
0000a0 c4 d3 7e 2e 1b cf 95 3f cf 3d 8a 54 87 d5 88 bf
       0.02129785987172618 -0.012126023547607638
0000b0 2d b1 f3 2c 1f 4d 8f 3f bc ec 3a 4e d2 11 61 3f
       0.01528381687099819 0.0020836932688702275
0000c0 9b ae 95 2c 7b 4d 91 bf c5 73 04 5d ba 6f 82 bf
       -0.016897129627450807 -0.009002166713395607
0000d0 f0 11 b9 19 36 dc 6a 3f 14 fd 3c dc 16 4a 70 bf
       0.003278833069801694 -0.003976907060688779
0000e0 74 b5 50 09 2a c0 77 bf 1c 87 e3 db 4d a0 77 bf
       -0.005798496441497537 -0.005768112312780873
0000f0 14 b2 9e 23 a5 95 85 3f 06 0f 93 ce 68 05 7f 3f
       0.010539331578763224 0.007573518182826927
000100 bf 77 6a 2a bb 46 7a 3f da d3 5c b7 53 e3 90 3f
       0.006415110698666681 0.01649218374878445
000110 91 0b 3a dd ab d4 75 3f 1f 7d 93 3e 4d 01 76 bf
       0.005329772323991914 -0.005372335182271897
000120 f3 5e 2e f2 e1 04 8b bf 5e 57 1b d6 fc 58 75 bf
       -0.013192906573564289 -0.005211818353662993
000130 2f 6a 57 a1 96 7a 69 3f f0 af 07 48 aa 0b 61 3f
       0.0031102125164868192 0.002080757695003037
000140 bf e3 e1 58 a1 9d 7e 3f 85 9f 03 77 04 39 46 bf
       0.007474546682822713 -0.0006781837273850266
000150 dc 68 41 26 7a aa 74 bf 7c 7c 04 38 c0 d2 71 3f
       -0.005045392175896359 0.004351378302344885
000160 06 3c 00 d0 21 4e 8f 3f 12 64 94 4d f2 58 6f 3f
       0.015285743866142464 0.003826592682014248
000170 4e 30 f2 fc 15 9e 4f bf 4b 6b ff b1 b8 a3 8b 3f
       -0.0009648902286172407 0.013495867664394054
000180 d5 c5 a3 82 98 67 8c 3f 22 1c e2 b5 7a 3f 83 3f
       0.013869468199547189 0.009398420978199044
000190 c5 cd c0 08 f5 10 91 bf 3e 10 4c 19 e4 aa 60 bf
       -0.016666248950242286 -0.0020346121840493494
0001a0 e7 f8 ea b7 86 11 84 3f 3c b7 73 33 76 a9 6e bf
       0.009799053657272029 -0.0037429150212266154
0001b0 d0 f7 b2 37 19 aa 93 bf fe c9 da 72 12 64 78 3f
       -0.019203561806300062 0.00595481115822105
0001c0 d2 00 62 58 42 80 34 bf 98 6d f7 2a 5a 8d 7a 3f
       -0.00031282062298744224 0.006482460229985242
0001d0 47 29 ab fa f5 66 68 3f f9 f4 6e 0b 74 f3 63 3f
       0.002978783062052379 0.0024354235169697894
0001e0 02 9c 2e fa 50 9f 7d 3f 89 28 ac f9 9d 44 7c bf
       0.007232014005160716 -0.006901375857305444
0001f0 e9 3d 91 af e9 47 66 bf 0a 2d b7 3e e0 77 92 bf
       -0.0027198375869727964 -0.01803541548524116
000200 bd c0 97 da 45 32 71 bf 7f 45 34 b0 87 cc 7b 3f
       -0.004198334566794579 0.0067868519138455366
000210 d9 86 3b 0c ef 81 56 3f 04 da b1 63 b5 7b 83 3f
       0.0013737520648011063 0.009513299088422585
000220 cf 6a 37 2a cf 5f 78 bf 3e a1 6f cb af 5b 85 3f
       -0.005950745809480919 0.010428784747958827
000230 51 09 a2 c2 dc 50 94 3f 11 91 3f fe 0a 2e 79 3f
       0.019839715365841674 0.006147425596257487
000240 db 58 70 45 4d b1 75 3f 3e 98 40 f7 8f e1 83 3f
       0.005296041336825231 0.009707569821397862
000250 80 c3 4b 14 14 b3 74 bf 58 58 47 92 d9 3b 7b bf
       -0.005053595003787659 -0.006648874176297857
000260 a9 63 c2 94 45 69 78 bf 53 ef 9b 1c 21 76 51 bf
       -0.005959770012986456 -0.001065761886308321
000270 bd e4 1a dd 71 02 82 3f ce e5 07 b5 e8 64 8c 3f
       0.008793725547877046 0.01386434366667091
000280 03 4a 64 ee 3b 26 43 bf 24 12 0a 72 9e 7b 79 bf
       -0.0005843918450259559 -0.006221407821275924
000290 b2 87 ba 8e 41 68 86 3f 28 61 64 dc 57 c3 56 3f
       0.010941040199501238 0.0013893468872706125
0002a0 88 cf 86 57 11 68 88 3f 73 0c cd bc e7 f5 65 3f
       0.011917243465042096 0.002680733310997102
0002b0 c2 26 6e 32 63 11 82 bf 6e 70 fa b8 dd a6 69 3f
       -0.008822226501951195 0.0031313257712338094
0002c0 23 8c 42 12 41 c2 91 3f 2b a5 60 79 20 ec 86 bf
       0.017342583407877876 -0.011192563728473623
0002d0 81 55 e7 7d e7 51 77 3f a2 71 e2 c9 15 21 8d 3f
       0.00569334436882707 0.014223261092688958
0002e0 a4 df 3b 88 a2 32 83 bf 4c f8 db 2a bd 21 70 bf
       -0.009373922140625109 -0.003938425955992097
0002f0 eb 74 82 f8 e3 84 84 3f 03 53 a6 03 b2 1a 81 3f
       0.010019093533907916 0.008351698624019748
000300 33 6b 0d 1b fb c6 6f bf 51 58 75 ab ad 5c 7e 3f
       -0.003879061165588915 0.007412603757378803
000310 7a f8 7f c5 2b 89 59 bf 8a 7a c5 c7 96 2e 86 3f
       -0.0015585830169580193 0.0108310489383119
000320 ec af 91 20 2f 57 77 3f 4d 5c 10 da 31 da 7b 3f
       0.005698379603114017 0.0067998835884486965
000330 28 98 2b a2 ea c5 85 3f 64 11 17 ee 8b da 82 bf
       0.010631402086300382 -0.009205907061990266
000340 d2 b4 3f b1 19 63 91 3f a7 27 82 55 29 16 84 bf
       0.016979600375567845 -0.009807894632348836
000350 52 dc 2d b2 fa 2f 81 bf 47 8e d9 f0 40 a9 84 bf
       -0.00839229446658699 -0.010088450765756053
000360 f5 85 08 6b 74 35 6e 3f 9e 4b 4e 38 2c dd 92 bf
       0.003687598589991787 -0.018421832024226974
000370 09 45 f5 d9 41 45 95 3f 4f 23 34 82 a2 f5 6f 3f
       0.02077200787363601 0.00390130748713028
000380 a7 4b 8f f7 5b bc 43 3f 14 30 00 28 0a 8e 88 bf
       0.0006022881562962504 -0.011989669175839913
000390 19 ed 80 43 dc b1 8a 3f 4b 4a 50 3b bf 6e 55 bf
       0.013034554300352984 -0.0013081424233446655
0003a0 ee c8 b2 5e af 58 7d bf b8 d3 00 f4 b7 2d 88 3f
       -0.007164654768688756 0.011805951246154453
0003b0 98 a9 b2 06 9d 11 37 bf 1a 04 15 e2 d0 69 6f 3f
       -0.00035200198790144013 0.0038346366642661002
0003c0 40 c9 6b 1c 82 5a 70 bf 1e 8c 76 da c1 49 7b 3f
       -0.003992565389795921 0.006662137260181415
0003d0 42 50 85 8e 17 55 81 3f 66 81 e6 0e 52 2e 4c 3f
       0.008463081395042708 0.0008600140261485866
0003e0 78 8b c8 c8 9d 08 77 bf bc 54 70 ad 96 63 74 bf
       -0.005623451561890806 -0.0049777875747356
0003f0 78 13 d4 c9 d6 f2 71 bf 58 23 84 75 37 47 8e bf
       -0.004381979958684272 -0.01478427245503304
000400 65 e8 06 63 9a 4c 81 3f 23 0b 9f 96 60 79 85 3f
       0.008446890017570216 0.010485415073963339
000410 08 93 4f bf 80 ff 5e bf 13 a3 80 e4 8d bf 84 3f
       -0.0018919713304452208 0.010130985771029033
000420 db f1 97 f8 2d de 71 3f 42 19 34 7a 8b 9c 76 bf
       0.004362277578817654 -0.005520386537005985
000430 14 5b 62 87 0c 1e 2d 3f 17 39 fa 02 9e fd 71 bf
       0.0002221479696273501 -0.0043922588662453
000440 80 a5 31 fe b5 7c 85 3f ca 14 1b 63 d0 0c 55 3f
       0.010491773433573881 0.0012847933798394878
000450 85 09 2f 60 e4 77 86 3f e2 41 93 56 a4 8f 85 3f
       0.010970863518996019 0.010527881519380725
000460 92 1c d2 30 ab c1 71 3f 3c 53 22 d9 f5 15 80 3f
       0.004335087503142836 0.007854386032968834
000470 f9 a2 9d 13 c8 f7 5e 3f 2a e7 17 5c 22 a4 75 3f
       0.0018901304124147574 0.005283483712895701
000480 7c fe 0e b3 02 c9 87 3f 74 e2 f0 84 95 7f 6e bf
       0.011613865937646788 -0.003722946195491789
000490 47 08 8a 50 e2 80 56 3f 47 5f bc 87 64 27 87 3f
       0.001373501787526725 0.011305604355171929
0004a0 1c 10 6f 4b 04 4b 93 3f 31 26 b0 38 29 50 53 bf
       0.018840853790394005 -0.001178779845533728
0004b0 e8 5b aa 05 09 74 85 3f 74 63 53 04 ec 04 83 3f
       0.010475225911518352 0.00928673160744762
0004c0 21 69 6a d1 83 2f 7d 3f d9 e6 a1 d5 b0 65 5b 3f
       0.007125391878299221 0.0016721941852026383
0004d0 ae 25 7a 19 28 3c 92 bf e9 b7 5c 52 50 a2 89 3f
       -0.01780760436534983 0.012516620172018338
0004e0 dd 8e 46 e9 e0 17 7b 3f 65 c5 5c 5e b6 0f 88 3f
       0.006614569243911209 0.01174871898146774
0004f0 93 4a 88 83 62 ef 6c 3f c9 82 58 0f 3b 4f 8c 3f
       0.003532116327059251 0.013822995572867385
000500 17 e7 4a 40 eb 62 80 bf ea 88 33 54 6c e9 80 3f
       -0.008001172923616502 0.00825771934473037
000510 99 2c 9f b4 96 0f 90 bf 05 54 22 50 ff 0a 70 3f
       -0.01568446614673444 0.003916737858294721
000520 e6 7c a7 ed bc d9 7a 3f db 36 49 bd d3 fb 46 3f
       0.00655530738956076 0.000701406849268084
000530 db ba 33 0b 89 9a 62 bf 8b 55 87 b6 7a b4 8b bf
       -0.002270953811254512 -0.01352783078702193
000540 d0 55 2a a4 91 69 87 bf b4 66 88 4a 87 8f 91 3f
       -0.011431825468473017 0.01714908020412649
000550 10 8e 35 78 80 81 7c bf a5 cb 14 d0 97 45 84 bf
       -0.006959440073248682 -0.009898363149295106
000560 9c d0 64 1e 78 93 74 3f 18 25 46 0e a4 48 5d 3f
       0.0050234501016356535 0.0017873384577760717
000570 ce e8 1f d3 f8 6e 80 bf ca 2c 90 a6 05 e9 77 3f
       -0.008024162238133316 0.005837461540987474
000580 ef e4 5e 93 d4 51 44 3f d6 85 aa d5 de 35 87 bf
       0.0006201065032122292 -0.011333218474933664
000590 8f fc e1 2b d9 9b 77 bf 54 16 eb 44 00 6c 82 bf
       -0.005763862920615938 -0.008995058158130544
0005a0 5d 1d e0 89 d0 23 95 bf c9 09 d4 0a ba 2c 83 bf
       -0.020644434371232524 -0.009362653212979037
0005b0 64 e1 ef b2 31 2a 8e 3f 61 be 47 7b 5b 19 7f bf
       0.014728916428780443 -0.007592542028291045
0005c0 b0 d5 f6 4e 5e 10 7d bf 03 78 2e d3 7b 71 89 3f
       -0.007095688240430872 0.012423484213112351
0005d0 8a 6f a4 1a f8 16 87 bf 2b 74 b2 8c 49 5d 7c 3f
       -0.011274278939303679 0.006924903205029624
0005e0 87 1b f9 90 c1 d7 7f bf 47 45 12 3b 78 84 92 bf
       -0.007774120443690863 -0.018083456616812012
0005f0 5e ae eb 87 73 6e 30 3f 35 d5 52 a8 e0 53 67 3f
       0.00025072403506840545 0.002847613128859417
000600 1e 37 10 2d 73 52 84 bf c2 c8 0d 0c d2 91 72 3f
       -0.009922885716175108 0.004533596512248108
000610 89 61 77 88 d5 b8 7e 3f 61 2c 2b ce 29 23 86 bf
       0.0075004902968988174 -0.010809256176250228
000620 c5 d5 b4 c2 11 7c 88 bf 62 fb 7c 8b f0 73 85 3f
       -0.01195539355704057 0.010475043541757937
000630 48 75 4e 62 a1 7c 77 bf 6d bb 41 58 cf ca 6f 3f
       -0.005734091192519948 0.0038808870031554117
000640 88 51 e7 bb 66 1a 76 bf 3e 27 c5 c1 b9 10 9c 3f
       -0.005396271996194087 0.027407553149976886
000650 9a e6 96 f4 1f 16 74 3f be 95 67 03 2a ad 81 3f
       0.004903912378205222 0.008631065586949368
000660 a2 d3 69 10 45 e1 88 3f 70 c7 3a 7f 04 f2 58 3f
       0.01214841801013639 0.0015225452342914857
000670 15 8e 13 8f 28 65 94 bf 40 78 ae f8 a7 54 92 bf
       -0.019917138798417684 -0.017901062539401602
000680 05 3f 4b 00 0d 30 7f bf 26 f7 15 7d 81 8c 74 3f
       -0.00761418417523863 0.00501680928698337
000690 2b b1 13 28 dc 87 94 bf 4b fa b6 52 30 92 9c bf
       -0.020049514719105915 -0.027901415871151063
0006a0 7b 58 3e fc 32 bb 90 bf c6 95 ec 02 49 48 5d 3f
       -0.016339108129237872 0.0017872536661312929
0006b0 32 53 31 57 4f d9 38 3f bd 63 1d 2a 03 d4 98 bf
       0.000379163618338385 -0.024246262975200262
0006c0 7d e5 6b e4 48 2c 85 3f 72 06 aa bc ba 18 94 3f
       0.010338372679586478 0.019625585332056557
0006d0 b4 95 63 e7 21 19 71 bf 0f ec 85 a0 18 39 80 3f
       -0.0041743587846431625 0.007921402357842692
0006e0 4b fd dd 70 ef 75 7d 3f 0e b0 cb dd 8b 50 7f bf
       0.007192550006834007 -0.007645174363215558
0006f0 03 4a 17 b1 56 d7 87 3f 0f f7 8a 28 dc 00 75 bf
       0.011641194610011679 -0.005127773278841521
000700 84 7e e5 56 53 1a 69 3f b5 e0 7d c8 f0 2c 82 3f
       0.0030643108104156398 0.008874779814263748
000710 76 3d 68 6c 03 8b a1 3f 1d 02 ff 8c 98 ca 8f bf
       0.03426371286706857 -0.015523139765606203
000720 3b 89 09 e4 cf 96 6f bf 81 20 11 42 70 c8 79 3f
       -0.0038560924879657266 0.006294668682194638
000730 24 01 a0 7c c2 a1 79 bf 53 31 61 2f 32 0d 90 3f
       -0.0062577817097919965 0.015675338880371936
000740 72 a5 25 9a 08 a8 73 3f 91 ee 2b f5 38 fd 8b bf
       0.004798921205613526 -0.013666577322047931
000750 9e e2 d4 35 82 72 60 bf 75 88 bc 6d e9 12 72 bf
       -0.002007726971580872 -0.004412566977210476
000760 e7 66 fe a1 78 7d 6d bf cb 9f 07 ab b5 17 72 3f
       -0.003599868403353013 0.0044171425256322545
000770 6f 6b 8d b8 8f 9d 5a 3f 4c b5 28 58 f4 bf 84 3f
       0.00162447962994491 0.010131749096297903
000780 17 cb b9 53 2a 02 90 bf bd fa a6 91 e7 17 72 bf
       -0.015633260116781757 -0.004417328420855679
000790 8c 7f fa 2a 11 e8 80 bf ec 98 9a 20 65 8d 52 bf
       -0.008255132793521879 -0.0011323440143456388
0007a0 8e 3e 9f 1a 9f ad 76 3f b6 d3 7e a4 83 4c 66 bf
       0.005536672115297526 -0.0027220317023996755
0007b0 bc 3f 7f c0 65 96 76 bf ac aa 6e 7c eb d5 67 3f
       -0.005514523952982072 0.0029096221291714155
0007c0 58 30 b3 a2 84 92 90 3f 2e 7a 4c 1a ca 6a 8b bf
       0.01618392222444273 -0.013387278487752754
0007d0 7c 0a 4f db e6 5b 6c 3f 9e 88 a7 db b2 c0 48 3f
       0.003461790935462004 0.0007553933458519684
0007e0 b5 f4 a1 15 12 5d 71 bf 38 22 38 4e 8f bc 5a 3f
       -0.0042391497064475 0.001631870219059318
0007f0 7a c6 62 7b bd 6a 90 bf fd 0f 57 98 b8 5a 82 3f
       -0.016032181411623082 0.008962099217463044
