balderdash_lstm/lstm_model/models/lstm_model_5.npz (npz, 903256 bytes, 19 tensors)

forget_gate_weights f8 [108, 81]
00000000: 6542 f066 31f6 c5bf 9c28 083d 885d e2bf
00000010: b229 1031 0125 dcbf 76c3 f9b7 c79f f03f
00000020: ade6 3565 33d3 01c0 61b1 89fe 2b07 d03f
00000030: 8d0f f5f1 436e cfbf 63a2 1e5f ea9e f4bf
00000040: 7f8e 066e 9f88 dc3f 7f74 567d a725 d0bf
00000050: 0014 8734 0c0e dd3f 2e41 df61 a59e e03f
00000060: 0d99 ad2c 2248 e7bf db4b 5fd1 177c d73f
00000070: 6a4b e985 3b65 d33f aadf 2543 3598 e1bf
00000080: 53ae 558b 31f4 d4bf 16e2 0704 6cb4 e53f
00000090: bd58 ac18 ad94 d43f 2005 fca1 8ba8 e6bf
000000a0: 7c9b dccf 970e 9fbf bc8a ac49 f1f0 f33f
000000b0: a683 0626 27e7 ec3f 3bd7 62fe c13d e1bf
000000c0: dce9 5c34 a89c ddbf 77ac b501 2030 f3bf
000000d0: 85f7 f55d a162 d3bf 4e5b a42f 7b28 f03f
000000e0: d561 0bc1 9c60 f6bf 9143 622a 434b b6bf
000000f0: 1a0f ccb0 b3be de3f 37b1 7017 0bc6 ee3f
00000100: db93 869d 814d f6bf 0000 8898 38ae 00c0
00000110: 1155 5ab2 1e00 c7bf 16dc ffd9 6bc7 c4bf
00000120: 8033 6096 3fbe f13f edc1 5404 c16d dcbf
00000130: 989e 2376 10d4 af3f e49f 689e 6506 f2bf
00000140: f624 1c91 2a92 d3bf 6a7e f410 60e4 bebf
00000150: f07d 0022 4980 eebf 67a2 eb7d 8022 e73f
00000160: ce36 b7f8 ac70 f43f e0ad 07bd c7fb a93f
00000170: effb cad0 d3b0 c33f 244e 6fbf fc93 96bf
00000180: d83a 5ab7 2a87 c33f 3a61 ff52 070d debf
00000190: 5279 116d 86be f73f e875 a448 64ea f73f
000001a0: 185b 8c57 9562 debf 846d 2bad d460 ea3f
000001b0: 2b05 acbc 3337 c83f 9b0b ec0f c980 eabf
000001c0: c43b e8c0 5794 c2bf f265 dced 9688 c63f
000001d0: 9355 ab49 c908 d2bf 81b1 3d2f df70 e23f
000001e0: 94f7 8114 d6f5 e43f 02d9 e7e0 4a72 a1bf
000001f0: 55ab ad04 6535 d2bf cba1 658a e094 d9bf
00000200: 8f95 6065 76cc cd3f 2f30 a2f8 e717 e83f
00000210: 23a9 dbd8 b862 d0bf 56db 7b9f 4c82 d73f
00000220: 57d1 a62d c152 cd3f 64d5 647d 77eb da3f
00000230: ebf7 3dd4 8b31 eb3f 3dae d290 ece6 e43f
00000240: b12f 2146 fad4 f63f 0186 36de e732 debf
00000250: 5b00 3184 d377 dfbf 679f 8659 c1b6 f23f
00000260: 4e4e 0fe3 219c ef3f a1af 3add e9ea e6bf
00000270: 8ab2 4e03 4bf8 e93f 7e35 0a08 f204 d73f
00000280: 66d5 db9d 9afb f03f 6990 f894 cf5a e5bf
00000290: 2629 a933 6ccc ddbf 106f e8eb 9170 e6bf
000002a0: 74c2 d2a0 d293 e1bf fba0 7b01 b739 e2bf
000002b0: 4b4b 7974 3634 e1bf 30de 3817 d1d2 f0bf
000002c0: 0d33 9293 4657 f0bf ec4d d599 20a7 e9bf
000002d0: ab74 fdb0 41ec dcbf 1bd8 0ba6 d0ff f1bf
000002e0: f730 9df1 a4c7 d6bf 6189 8528 651c edbf
000002f0: 743f 5bbb acab eebf ab29 380f 399c d5bf
00000300: 66a3 c27d 898a eebf da14 da6b 2ba1 d1bf
00000310: 886e d59d cf78 f0bf 358d 8ce8 40d0 f1bf
00000320: db4e a28e b7cb ebbf 97e2 725e ba0f f0bf
00000330: ed09 4488 470f 533f af7d 957c 723d f1bf
00000340: 90a3 8d78 9b18 fbbf 6ce4 a459 06d5 f2bf
00000350: 5416 8cdc 4760 d53f b56d c3c7 b141 f1bf
00000360: e11e 9cbc 3bb3 e9bf 30b4 08ed 0da2 ebbf
00000370: ba43 b1cc 1b32 d9bf 18d4 ce8f 2168 f0bf
00000380: 49ac 4694 1686 c1bf f43f 7e91 3e14 d83f
00000390: a8a8 1e00 0539 e3bf 9611 311f 3973 c4bf
000003a0: 1141 3127 2e24 efbf 4157 7aec c71f efbf
000003b0: 32f4 2d98 89fe d93f 7839 f81e a946 f3bf
000003c0: 73b4 8a42 b664 cfbf 3f53 738e f71f f3bf
000003d0: 497d 1aba e4ee e9bf ea07 ebd8 7686 f5bf
000003e0: 66b8 2de3 36c5 d9bf c9f4 48c6 ad18 b0bf
000003f0: 474b c611 3720 dfbf 1066 298b 917f e4bf
00000400: ca37 d9ae 17a7 e2bf 84e3 5d88 a447 f3bf
00000410: 07d2 2b48 d153 dcbf f9be a2fd e139 e03f
00000420: c6e3 a9aa 2240 e63f a556 854b 8a3f e7bf
00000430: 3dc5 0f59 3b23 c23f f66e 986b 5036 ecbf
00000440: 691e 5eec 9de8 e8bf fca1 1951 b6b2 f4bf
00000450: 7bee 5638 d5c0 edbf faa2 d1e6 beff e7bf
00000460: 5a52 59f6 c36f d7bf 8a35 335a 3382 eebf
00000470: f0f1 ae63 2511 f1bf 513c 078f 6a36 d83f
00000480: 2995 0b8d a442 ebbf 1220 270c 440a e8bf
00000490: f9d4 22dc b6d1 f0bf 31eb 5133 2fa5 f2bf
000004a0: b999 5491 90a1 e13f 6727 d263 6361 edbf
000004b0: 7aaa 745c 7f40 f2bf 0bb5 8b52 c018 cbbf
000004c0: 3bea 3a32 9c9d d2bf bb64 70f3 acb2 bcbf
000004d0: 9e05 43de 7110 f0bf 8a23 7bf6 6337 f5bf
000004e0: 7dde 10fb 5a92 b13f 68b7 c3be ad03 f3bf
000004f0: 7c98 c61c 96b1 d23f 279d d3d7 3f27 f2bf
00000500: 0cf2 038a 0ec4 efbf 6e03 db44 3c32 f0bf
00000510: 4b81 6564 8af6 edbf 974f 5205 6c8e edbf
00000520: eb24 c8e0 cf4e f5bf e1b4 fb01 996a d9bf
00000530: f6ce 175d 5b2e f5bf 0f9f 9af5 9357 d83f
00000540: dfda c067 add9 b43f 89a1 a2fc 27f3 f2bf
00000550: 7640 88ef d80d 6e3f 2d1b 4207 970b e0bf
00000560: 71e4 6214 fd36 b1bf 2d51 bd26 85ab ce3f
00000570: 0e50 071e b306 b23f 2797 9011 b922 ddbf
00000580: 5797 3559 2d94 863f 08f1 b237 f68d ac3f
00000590: 486d f503 01f5 b3bf b715 5bbb 0364 a53f
000005a0: bc14 d123 f03e abbf 0b74 2b35 67cd f2bf
000005b0: f1df 8a6e 885a c53f c753 db7a ed0a 9e3f
000005c0: ac4e e371 9798 c7bf 910e ee57 963d fcbf
000005d0: ae58 4d12 53bf f2bf 2d35 7d8f fd35 c4bf
000005e0: 0cb0 1cde 78c6 acbf 8d37 f5ae 4474 b8bf
000005f0: 9af7 c08f 28b5 f1bf c1d9 60ef 0780 d2bf
00000600: a673 2176 7014 a5bf 4d9a df69 3d9c d43f
00000610: 76db 90be 4343 cfbf 3adb 364f 8ae2 f6bf
00000620: 5eef a62d e94f d7bf ebac fbea d83d c03f
00000630: 4a2b 4af0 4f89 c3bf 86d2 1c3c cd9a d0bf
00000640: 5c1e 3106 ea82 763f f11b e326 3648 e8bf
00000650: 57ff bb94 8f43 b3bf 7143 108e 9fdc ecbf
00000660: 3195 251c 0e31 febf 9198 e308 c9c8 d6bf
00000670: 8e48 2b85 20e1 db3f 343a 758c 445d ae3f
00000680: 33b8 118a 6eeb f1bf 703d dd5e 4cf7 d4bf
00000690: d466 d249 8f34 c5bf 81cb 2dd8 1e58 eebf
000006a0: a196 2e05 e36c bd3f 590c c634 36e3 f33f
000006b0: 141d 5925 1b71 a33f 0df3 98ab a40b dc3f
000006c0: e21e 7e9a 1ce7 abbf 6829 ca9d 43ab ecbf
000006d0: 327c 2c53 b4c3 ebbf 5b58 3cc1 b391 b83f
000006e0: 2c02 e690 ce37 ebbf 5bba 4f79 1f84 d3bf
000006f0: 8575 f6bf 309d edbf 01dd 863f 2794 b53f
00000700: a87f 88ba 1246 e9bf 1c92 1176 c693 fabf
00000710: c187 bfee 0a90 f1bf fe6e ca65 c5b3 d9bf
00000720: ef02 b569 e98a bb3f 93ca e4b7 6c18 d53f
00000730: 8c2d 49b8 84c7 edbf 81f6 cc8b 1be9 c6bf
00000740: 50a7 89e6 942c c4bf 6bd1 69b5 fd04 c73f
00000750: 23db 4d37 b84b c63f 422f 76c8 1512 a03f
00000760: a09c 83d0 85d3 b9bf 80d9 7cab 524c e43f
00000770: e96c 74d0 a409 e6bf 30ba e426 3076 df3f
00000780: bfc6 4747 3a08 c8bf dee0 8b3e e53a b63f
00000790: b335 a5c0 e0ac 82bf 0767 0b49 afe2 ec3f
000007a0: 935f 57a2 d302 f0bf e883 6f2a dc60 e3bf
000007b0: 1087 a416 6c2f e53f 1eb4 643c f621 f1bf
000007c0: a9c3 04f3 750d e63f ca19 d758 6997 e63f
000007d0: 9ce4 2e4c 270e e3bf 3986 9741 38ee e13f
000007e0: 7bc8 23a9 8cc7 e8bf c11e 04bc 162a e43f
000007f0: ce79 d4c9 0501 e73f e12e c428 425c e13f
-0.1715757134084185 -0.5739175025967316 -0.43975858489343544 1.039008825926627 -2.2281253726076415 0.2504377351495091 -0.24555253328628304 -1.2887977328884055
0.4458387922734132 -0.2522982334138035 0.45398240213063445 0.5193659698070741 -0.7275553581828561 0.3669490379954234 0.3030537421920402 -0.5498300849421771
-0.32740439040091934 0.678274162171024 0.32157447251791976 -0.7080743945845462 -0.030329105436205137 1.2463238599672612 0.903216909664583 -0.5387887924650622
-0.46268658746308033 -1.1992492739471154 -0.30289491821155706 1.0098831044212662 -1.3985869923400192 -0.08708591255914501 0.4803895212682946 0.9616752107445227
-1.3939224389407545 -2.085068885469809 -0.17969115933070914 -0.16233585495476238 1.1089473604253897 -0.44419885085065297 0.062164797230989055 -1.126561754974312
-0.30579628153698424 -0.12067222989980456 -0.9531598724460633 0.7229616603263594 1.2775087085205317 0.05074905569548682 0.15383384413686893 -0.02204890173363884
0.15256246521717887 -0.4695452032588211 1.4840149174193198 1.4947245442957584 -0.4747670512164617 0.8243201620311287 0.189184634327867 -0.8282208739259319
-0.14515206260008828 0.17604338278105974 -0.2817862719942578 0.5762782976794797 0.6550093079128936 -0.0340751075308834 -0.28450894791483466 -0.3997117377789691
0.23280219984114267 0.7529182296871165 -0.25602551629585174 0.3673278386553894 0.22908797005733092 0.42062175031181526 0.8497981210091415 0.6531889751981407
1.4269964923323466 -0.4718570394562392 -0.4916886130267863 1.1696179864029206 0.9878091273080345 -0.7161759682544365 0.8115592064473998 0.35967684540886313
1.0614267507893032 -0.667335310896772 -0.46560196919439745 -0.7012414558007283 -0.5492947712974243 -0.5695452717746144 -0.5376236224059111 -1.051468935691343
-1.0213075413223038 -0.801651287513264 -0.4519199589174813 -1.1249548422033573 -0.35593532176132164 -0.9097162047803914 -0.9584563884072694 -0.33766008840816636
-0.9544112640624973 -0.27546201260004255 -1.0294948735599139 -1.113343151468894 -0.8686178003140087 -1.003839844646938 0.001163310867071328 -1.077501761108447
-1.6935076436149963 -1.1770080091212334 0.33400150811971696 -1.078538685155633 -0.8031290706430491 -0.8635320310182859 -0.39368338574882566 -1.0254226319787048
-0.13690454711954406 0.3762356205779718 -0.6007103922213632 -0.15976633093863474 -0.9731665387608094 -0.9726295107563844 0.4061607347610475 -1.2047511300803233
-0.2452609848891459 -1.195304447600577 -0.8104117998918038 -1.3453281854021903 -0.40266201196107543 -0.06287656870786686 -0.4863412545757239 -0.6405723302843302
-0.5828970351228631 -1.204990894968632 -0.44261581466642536 0.5070657686064514 0.6953290303491648 -0.7265063738838832 0.14170019005499937 -0.8816301442597865
-0.7783956162028974 -1.2936309020971057 -0.929789171255336 -0.7499689586812501 -0.36619662339697856 -0.9533936273307273 -1.0666860479242324 0.37832130401233593
-0.8518851046361863 -0.7512531506881734 -1.0511997794213228 -1.1653282169997505 0.5509722555623774 -0.9181382131221029 -1.1407464610626037 -0.21169284849694522
-0.29086975961004996 -0.11210137313209405 -1.0040148431874978 -1.3260230663456434 0.0686394560769887 -1.188398118184944 0.29208901224263406 -1.134582369873735
-0.9926827140439527 -1.012264508215789 -0.9363452874058934 -0.9236354927002023 -1.3317412167110045 -0.39713120645212824 -1.3238175999112491 0.3803453348614178
0.08144649298706551 -1.1843643063130875 0.0036687123322352534 -0.5014147893678903 -0.06724530933105811 0.23960937873437996 0.07041472895735998 -0.4552443191081345
0.011024812970116633 0.05577058248442951 -0.07795721384666365 0.04177867567117793 -0.05321455418792584 -1.1751472546523043 0.16682534596998225 0.029338560699063067
-0.18434422551091723 -1.7650359568369007 -1.1717100825240254 -0.15789765840819694 -0.05620172225312112 -0.09552411338265028 -1.1067281356222112 -0.2890643918684895
-0.04117156450295249 0.32203612651065755 -0.24424025349591333 -1.4303076834018627 -0.3642523713895026 0.1268874308947042 -0.15262793763062127 -0.2594483458554254
0.005495943219166213 -0.7588148841394952 -0.0752496469613083 -0.9019315504720976 -1.8869763469204595 -0.3560049616629693 0.4356156635741478 0.0593053266007825
-1.119978465397719 -0.32759389175495013 -0.16566649536689815 -0.9482568952793003 0.11494273067963913 1.2429716168851626 0.03797230559262679 0.43821064717830965
-0.05449761758705819 -0.8959062654333083 -0.8676396965491959 0.0959732386366751 -0.8505623655365233 -0.3049391445810323 -0.9254382848045429 0.08429189015338424
-0.7898038523890039 -1.6610779392295916 -1.0976666761493876 -0.40159735622886206 0.10758837538470421 0.32961576422091204 -0.9306052779515297 -0.17898887945368716
-0.15761052376483997 0.17983981473993124 0.1741857786216424 0.03138797828714114 -0.10088383045841676 0.6343167638176936 -0.6886772223837428 0.49158862875165976
-0.18775108795630577 0.08683617379199712 -0.009118801001615084 0.9026714731837452 -1.0006901112992395 -0.6055737332172813 0.662038845275875 -1.0707914694896838
0.6891431566674459 0.7059828505669483 -0.5954777229263928 0.5603295594302785 -0.7743590644370352 0.6301377937497464 0.7188748304359309 0.5425120159356674

input_gate_weights f8 [108, 81]
00000000: c80c 494b b93d f23f bf20 c593 e68d eabf
00000010: cd2b e3d9 f1fa f1bf 9a62 7369 b63b f33f
00000020: 8f39 28df 3c0a ffbf 8402 ad93 a757 f53f
00000030: 853b b441 8212 803f 9c80 9487 4340 ec3f
00000040: dfa1 fa80 c348 f53f 50a0 5b1a 36ea e3bf
00000050: 69aa c3e7 0e8a e13f 8498 442c 6712 e33f
00000060: f81b 0eb9 58bb d33f ca3d da66 9382 f13f
00000070: 4353 f213 b2b9 d3bf 487e 1beb 78da e43f
00000080: c936 5853 78eb e1bf 223f d8f7 76be f43f
00000090: 69f6 e4a0 85fd ed3f bc78 0500 554d da3f
000000a0: 8c97 1c97 8380 e13f 2bdd adea f937 f7bf
000000b0: 7345 bba3 dbca f33f 7fff d506 9d57 a73f
000000c0: 2209 7da7 c859 e33f c60b 9dab 9ec7 ebbf
000000d0: cc38 adb3 e028 d63f 4c80 be46 8c9f ee3f
000000e0: 8642 ae86 6a57 f83f e684 2636 5ec2 aebf
000000f0: cf8d b03b e71d f23f 5b66 c919 7710 f5bf
00000100: b739 4549 5afe ba3f 881a dd97 4e0b 0140
00000110: e1fb 194a 2ea4 f33f 2659 8026 2ed5 d83f
00000120: 7a9e 85e7 921d f23f d795 f42a 5c94 ecbf
00000130: 6203 7ebf 317c ec3f e872 072d a839 f43f
00000140: 9e7d 558b 3041 c53f a398 a334 7602 e13f
00000150: e745 70da 5cd6 e3bf 17f8 5750 fca0 f23f
00000160: 9a8b 8a0d a3a1 e43f 5ca5 8410 9c47 ea3f
00000170: 9803 d9d0 fdc3 ec3f cb71 ddb0 03ed ea3f
00000180: 76f8 41c3 d12b df3f 4900 e559 45b8 eabf
00000190: 1eef 2da4 8792 e13f eba4 3f00 b357 e83f
000001a0: 6827 a2f1 13b8 e83f fd6e 2fdf a263 ef3f
000001b0: 306c affd dc19 f03f ab99 6ea5 b120 e2bf
000001c0: 7e24 8c1b 3a0a f3bf a2cc aaa8 b3e1 e73f
000001d0: 6c27 dc70 f3e1 e23f 7d5b 966e 22fc f93f
000001e0: 9c9c 8717 3027 fe3f 0455 d99f 4f6d a2bf
000001f0: f6a6 abf6 2479 da3f b414 91c6 ef9b e9bf
00000200: 1427 4803 fd55 f3bf 7597 3142 aa80 fa3f
00000210: b83b eb79 fd6a eb3f 3569 3bd1 b146 dc3f
00000220: a7ff 234c 9c5d f2bf dc6e bec0 af0e ec3f
00000230: 0f89 a332 14c6 e63f 4be1 4a8a 7209 eb3f
00000240: 4870 782e c60e f73f cc57 f151 bb29 e23f
00000250: 4790 21b6 55fd d23f de74 867d d6ed d33f
00000260: c215 38dc c940 fb3f 16a6 cdb3 30b1 d3bf
00000270: a6e4 0782 7dac f43f 41e4 0051 b6f1 d63f
00000280: 3314 b7b9 ff68 f03f 206b fd1c ca69 d5bf
00000290: 791d 62a3 4b12 dbbf ee13 8ee6 bd3a ce3f
000002a0: 0c42 cfcd 9ac2 d5bf b658 a574 d80f ddbf
000002b0: 50d7 5707 7372 e1bf c276 49d2 d9c1 f3bf
000002c0: 25cd f321 81ca e5bf 9c86 1b91 9e76 debf
000002d0: 0666 06b4 22e0 cdbf 558b 50d3 9bf2 e5bf
000002e0: b3d9 249d 5bc4 e7bf ca33 3b24 2f23 e8bf
000002f0: 18a2 c99e 03bc d4bf 90fe 603e 718b d3bf
00000300: 3c6f 4a5f b272 e6bf f6d6 1b2e 887d dd3f
00000310: 3a57 2148 69df d4bf 4f04 278b fb04 e4bf
00000320: 692a 65af 5186 e2bf feff e181 5ada debf
00000330: 866a c6af 53d6 c03f ad96 c7ed 8303 dfbf
00000340: 15a0 21e3 5b57 a53f cbb6 010c ad2f e4bf
00000350: 6db7 f2cf 5566 d7bf 122d aced ccc3 e9bf
00000360: 2046 5d6e de60 cebf 931b 8d58 213c e9bf
00000370: 315d 866a 30d2 a8bf 2d62 f065 077d dcbf
00000380: 808b c7dc bfae e7bf 3f06 6e7e c411 e6bf
00000390: 56f3 b462 573d afbf b2e3 c1be 6a45 f2bf
000003a0: 66ff 4d44 b531 e8bf e305 b164 1524 c6bf
000003b0: 7714 2ace 4843 91bf cffc fdeb 8adf e9bf
000003c0: 7ac5 41f6 dff3 d7bf f7f4 500d d465 f2bf
000003d0: 5b7c 27b6 b5ad eabf 13ff 4e8d 5a38 b7bf
000003e0: d56f e241 5d4f f4bf 7d56 23c8 4cc6 e9bf
000003f0: e738 f22b f5b7 dfbf 305a a223 f1cb e0bf
00000400: f54a 59b2 934a f0bf f722 f52f deba e4bf
00000410: ca26 3919 73be a2bf 3f2e 5767 9261 e9bf
00000420: b36a 2ca6 ae1e ebbf f620 0034 2eb2 d6bf
00000430: d02c b1aa eb5b ddbf 2960 2557 fcce d3bf
00000440: d916 7ee6 158b d83f 8250 9ddb ea3d f3bf
00000450: 4fd3 f595 c265 e0bf 3d3e c526 960a e4bf
00000460: d03f 9aaa 4296 f2bf 05b1 5db5 1a70 bd3f
00000470: 032e 2a65 90db f4bf 998d eac3 2d73 edbf
00000480: 58e9 9f27 265c e2bf 7c00 2aca 2d2f c7bf
00000490: 7ed4 e08c 918d bc3f 3eed 4e15 c149 e7bf
000004a0: fa8a a6ab 88b4 eebf db1a 71a4 6df1 a3bf
000004b0: 91ee 3f77 7cd7 e2bf a9b4 4709 f86e ebbf
000004c0: 1360 3e9c 46ce e7bf cb13 f49c a288 e3bf
000004d0: 6500 eaf6 8fb7 e6bf a592 40aa 5f29 ecbf
000004e0: 44aa 176e 4376 ebbf b543 c0d2 cd00 c83f
000004f0: 7da8 5b53 ba00 783f a63e 2517 f73c d1bf
00000500: 84d8 ee2d cbff f3bf be94 f6f2 c07e d9bf
00000510: b363 8686 0142 c8bf 2cd9 96a6 0dc7 e8bf
00000520: d45b de06 9711 e7bf 866d e642 6962 e0bf
00000530: 5ba3 767a bf53 f4bf 4517 4d04 c625 b2bf
00000540: da15 c55d 3a94 d1bf 3a1c fa36 533c e7bf
00000550: 0bdd 22f1 7144 b4bf a566 a041 4e11 e8bf
00000560: cd3f e0e2 708a a03f a032 702c 80f0 e5bf
00000570: 2ca1 7371 0d48 c2bf 13db 7c4b a3fd d3bf
00000580: aa3e ea41 2ea5 f1bf 3393 b834 74bb b2bf
00000590: d079 3633 3ccf bd3f ab6f 13f1 5f49 c63f
000005a0: 41a2 1cd0 1154 a2bf 9a32 4234 b953 ddbf
000005b0: 5d10 865d 4f24 ba3f 4788 42d0 7747 e7bf
000005c0: 6359 416a 6e75 c7bf 6a99 e001 9e97 ecbf
000005d0: 642b 703c 2227 e5bf 9736 9208 c82f eebf
000005e0: 4e1d 5fdb cb6a b2bf c8fe 9a58 3d1f c0bf
000005f0: aed1 e1bb 2c8c e7bf 91bb 1fee bf16 d8bf
00000600: c80c 821a 68c2 b53f d443 4eb6 7fb5 f1bf
00000610: 04bb 93cb a85d eebf 9ba1 1ccc a5c6 c83f
00000620: 4e46 c7af 846b f1bf 73da 8e71 17f9 a5bf
00000630: fd84 0250 c8f9 8c3f dbd0 c457 c184 e5bf
00000640: d20a 7c72 0b47 883f 7cab d8f4 a451 c2bf
00000650: fb0e e4bd e2a6 c3bf 82fc 4a9d 1d53 e3bf
00000660: 5d1f 8359 b0e3 f1bf a66f 71a7 cd95 e9bf
00000670: 3843 2a5a 6e66 eabf 17d4 7646 8c5b d1bf
00000680: ab31 808c fef9 d0bf f057 60e0 062d f3bf
00000690: 8a1f 46bb 97a6 a33f 4483 426b 7d71 e2bf
000006a0: 765f 559a d70f ebbf bb4a 473c 6a60 e6bf
000006b0: d581 c259 15c7 b8bf 80e4 0824 92c1 d9bf
000006c0: 595c 19f7 1523 aa3f 5f08 d6ac 57a4 c6bf
000006d0: 7a4b 0a4e 9b8b f7bf 29e4 d936 2283 a1bf
000006e0: 760a 6729 de02 e8bf c0e1 e7ac 8b28 e9bf
000006f0: e0cb 0ca3 38b0 c93f 48ff 8ff9 0ab6 cdbf
00000700: 991d a2d2 4bb4 f1bf ab80 a610 363e f5bf
00000710: 5ee6 c68f cc09 edbf 0ffe 3bd7 4075 c63f
00000720: 2099 cd09 4a4d 683f 221b 1201 8776 e8bf
00000730: c1b0 57f0 234e eabf 8fcf ab0f ad54 c4bf
00000740: 2d9c c062 d26a f1bf b1b2 82e7 614a e3bf
00000750: 4705 db66 9aa0 d4bf ec68 08f3 c85f a3bf
00000760: 9cfb 89df 107f a2bf 7b1e d864 044e efbf
00000770: c48f 5447 61f7 d63f be27 7081 96c9 e6bf
00000780: ff79 1421 da10 9abf 223a 6647 fbc1 c8bf
00000790: 310d 7374 5eaf a43f ec5b bbaa e3e8 7a3f
000007a0: 8296 4f75 562a debf 0fd6 30d0 dcf4 92bf
000007b0: 34af a6c2 02cd ed3f a0fd f622 081b debf
000007c0: 45be bfd4 f6fc e73f 0485 5580 2f1c da3f
000007d0: 7628 39af 0d81 e63f 9499 ddf9 69bf e23f
000007e0: 06d8 d7e5 04e0 c0bf 67c4 9001 d041 ea3f
000007f0: 169a 9420 ab1a ef3f 96a9 ff29 849c e03f
1.1400692883333239 -0.829821861852018 -1.1237658034540232 1.2020782584351424 -1.9399994580340694 1.333900048121138 0.007847802763107268 0.8828447006271918
1.3302645719760375 -0.6223402514269853 0.5481028105398994 0.5959964623077814 0.3083097273997164 1.094378854529952 -0.3082089609900331 0.6516689865056344
-0.5599938991378731 1.296500175612842 0.9371975080936866 0.41096997263037927 0.5469377471351762 -1.4511660735277683 1.2370258708727675 0.04559031208464059
0.6047099372156348 -0.8681176521134766 0.34624497934863707 0.9569760686608872 1.5213418255772537 -0.060076660261310796 1.1323005992534154 -1.316519833306663
0.10544361389950195 2.1305209984159923 1.2275832075681523 0.38801149139307467 1.1322201770616673 -0.8931103552792433 0.8901604404528423 1.2640764006566148
0.16605192950644904 0.531550505457535 -0.6199173227670912 1.1643031252310772 0.6447310699917239 0.8212414095516283 0.8989247397477014 0.8414324240107417
0.48704952304968374 -0.8349940067055367 0.5491369444493761 0.7607054715018909 0.772470447483312 0.9809126242721217 1.0063142690257898 -0.5664909583181744
-1.189996821982532 0.7463014883309322 0.5900819019600312 1.6240562743966784 1.8845673483972751 -0.03599022699624224 0.41364406670491805 -0.8002852323776524
-1.208493244952881 1.656412371224602 0.8568103200176358 0.4418148558885549 -1.1478541349642712 0.876792789891137 0.711679552940298 0.8449032498383898
1.4411069693806144 0.5675942039913422 0.2967123297332858 0.3113914705116495 1.7033175089176074 -0.3076898342029336 1.2921118811921501 0.3585029402780187
1.0256345037935375 -0.3345818789581916 -0.42299166636845303 0.23616765744750928 -0.34000272844880963 -0.45409213439178175 -0.5452208655758373 -1.2348268713316632
-0.6809697783595864 -0.4759899537149097 -0.2334025744465153 -0.6858653189886846 -0.7427194661348068 -0.7542949397699144 -0.3239754725132413 -0.3053858861130516
-0.7015010701320317 0.46078686240012645 -0.3261359409710739 -0.6256082265682695 -0.5788963723837927 -0.48207724269741437 0.1315407379414248 -0.4845895597521615
0.04168212077712511 -0.6308198198800822 -0.3656210451834941 -0.8051514284174195 -0.23733120335468616 -0.7885901193156876 -0.04847861576416291 -0.4451311583993938
-0.74008172150603 -0.6896688908893295 -0.06101487235944229 -1.1419475032291584 -0.7560678800655125 -0.17297618309571225 -0.01685823210074885 -0.8085379227849446
-0.37425993965651794 -1.1498604316869299 -0.8337048108768487 -0.09070363950649733 -1.269376046525385 -0.80545653428517 -0.4956028870737001 -0.5248952575664756
-1.0182072607755661 -0.6478110253020465 -0.03660926516438463 -0.7931606310243707 -0.8474953885627968 -0.35462527349638095 -0.4587353865542356 -0.3095084048304693
0.3834891081718133 -1.2026165560428415 -0.512421887293934 -0.6262923009143787 -1.1616846717988558 0.11499182632332257 -1.3036045028446785 -0.9203099085320218
-0.5737486623686818 -0.18112728472988582 0.11153516473207678 -0.7277532020738489 -0.9595378258275951 -0.038951326678718444 -0.5888044671150557 -0.8572960072757684
-0.7439301540025575 -0.6104291024681684 -0.709907514814415 -0.8800504994620338 -0.8581864500277523 0.1875245360429553 0.005860069117014641 -0.2693460203199528
-1.2499496263749572 -0.3983614323318071 -0.18951434200860504 -0.7742985013672175 -0.7208972105171321 -0.5120130831377743 -1.2704462798812617 -0.07088887791641436
-0.2746721187325797 -0.7261138986367606 -0.07916938912500286 -0.7521125108498451 0.032306220717259394 -0.6856079929289827 -0.1428238681758186 -0.31235582706305925
-1.1028273176961343 -0.0731728199685449 0.11644340753853233 0.1741142203453568 -0.03579765000751368 -0.45823507407548336 0.10211654694836754 -0.7274741237236036
-0.18327121914144148 -0.893507960955316 -0.6610270672257283 -0.9433326880841432 -0.07194208245993147 -0.12595335794866558 -0.7358611745426538 -0.376388533156324
0.0849976601330581 -1.1068112489049229 -0.9489330268969245 0.19356224504850847 -1.0887495867103953 -0.0429160429115897 0.014148297254282566 -0.6724554743036849
0.011854257041254899 -0.1431165881670856 -0.1535304476930078 -0.6038959571959739 -1.1180881020136078 -0.799536540067028 -0.8250037919079665 -0.2712126434446999
-0.26525844307686935 -1.1984928860379078 0.03838037644442156 -0.5763537497442504 -0.8456838621450362 -0.6992694070161954 -0.0967877716198083 -0.4024396278287625
0.05104893342348111 -0.17689033450375555 -1.4715836571164957 -0.03420359534806778 -0.7503500755922932 -0.7861994149271183 0.20069034539628117 -0.23211800752323541
-1.1065176227437858 -1.3276882791906626 -0.9074461753982168 0.1754532862614586 0.002966541868249753 -0.764468671885741 -0.8220386213484049 -0.15883410706703358
-1.0885795457377399 -0.6028298875513284 -0.3223024372528766 -0.03784015623769385 -0.036125685965991056 -0.9782735795606209 0.3588488766274589 -0.7121078994834915
-0.025454910534898897 -0.19341984735770362 0.0404004590177699 0.00656975681677972 -0.47133408981458313 -0.018512201506572675 0.9312757303027639 -0.47039988913089736
0.7496294169668053 0.4079703095686258 0.7032535955743373 0.5858659630001051 -0.13183652136621066 0.8205337553573714 0.9720054279649186 0.519105989483523

output_gate_weights f8 [108, 81]
00000000: 5069 258d 79eb 863f 578a 96c2 d7d5 f0bf
00000010: 0fc0 e46a 6317 f3bf 7b58 c85a 647d f13f
00000020: a19d c1c9 15f5 fdbf e196 2efa 6ab7 f63f
00000030: 5ac1 c7e8 5578 e63f 3085 a007 549f b73f
00000040: 79b7 6018 fddb f43f 6536 2bb0 c135 efbf
00000050: 9b08 16aa da8e ee3f a308 06e3 18a4 e63f
00000060: 4b36 3d8f 293c b73f 535a 7925 46de f13f
00000070: 951e 40fc 9528 e0bf 0e95 dbb7 d224 e03f
00000080: a998 cac1 c83b d0bf 18ed 1586 8360 f73f
00000090: c959 4260 e9df f13f 4a41 0ff9 e38f ebbf
000000a0: e44f a207 691b ea3f 4e91 96c6 e187 f1bf
000000b0: b9be 75ed e3c3 f43f 286f 3bf4 aac0 c23f
000000c0: 7800 02a3 71bb e4bf b99a 1132 10c8 f3bf
000000d0: 8737 8254 f56e e23f 54a4 19b6 b9a1 f23f
000000e0: 4a83 e801 a362 e23f 98f5 f784 eff7 aabf
000000f0: 0e2a 0dfe 40d2 f33f 9231 b8e9 30f6 f5bf
00000100: 8779 cc82 6b6e e6bf b48e 0aa6 85bd ee3f
00000110: 4ae8 5adc eb13 e53f 46fb 423b 5b96 e63f
00000120: da7e 7bf3 5878 f43f 9cb1 ee93 d2db f2bf
00000130: c85d 4a3e a6a3 f03f 8afb 162a d1cf e73f
00000140: 03cb b3e3 5b03 e43f 9d04 1ed4 e006 e2bf
00000150: 8acf 2e06 0bd8 ebbf d65e aa24 c6f4 f63f
00000160: 0b94 71e0 dbbd ec3f a736 def6 c354 e53f
00000170: 42d5 5c45 7422 d4bf 76b6 0ae1 cb2a b03f
00000180: 010c 70ae fe84 e83f fd74 a351 5a48 ecbf
00000190: 2188 d47e 8ef7 f33f 2cfd 49a9 571c f33f
000001a0: 26b8 c771 b2ca e03f 2869 39da ab70 f13f
000001b0: 77bf 38d5 a125 ec3f a606 fe6d d29e e1bf
000001c0: 9051 3483 e8fa fbbf 7ea8 423a bf77 ee3f
000001d0: 24b1 dbf7 e856 d6bf f5a3 b261 7868 f63f
000001e0: bb7a 6a75 5bd5 f53f ea43 b8e8 5de7 e93f
000001f0: 672d 0dd0 79ca e1bf d94c 7aa1 663c f4bf
00000200: f177 0391 7684 f4bf 6a44 00da fd92 fc3f
00000210: 9ef1 a098 45c2 eb3f d984 1da5 4f5b ea3f
00000220: 2a76 8d06 ae1e f2bf 48ff 5669 dce9 ee3f
00000230: 5992 736f 9ae8 e03f 8ab5 28de 3b64 f03f
00000240: b12b 45eb a024 ff3f 48cc 824d 544d e43f
00000250: 4933 d41a 4bdc d83f 7464 e06a aaa7 f03f
00000260: db85 ceb8 19a7 f93f 7e23 9319 6f23 e7bf
00000270: 0043 fe63 44f6 f53f 5b1d 7b84 f1ee f13f
00000280: ec6c 3dba 0d28 f63f dcbf 9461 184a eabf
00000290: 55d5 8310 e367 cebf 1afe 7863 91ec c5bf
000002a0: 85c7 64bd 56ae c9bf c7e3 481f 79c9 c2bf
000002b0: eefa 8ee7 ac44 d4bf abcf 360b a99b e8bf
000002c0: e12c ca4f 0be5 e2bf 2f9e 0688 ca37 e2bf
000002d0: c3fc 5dcd 3f87 bebf 26fe bfab 0c13 e5bf
000002e0: 8a76 7501 99be e4bf 8a60 cf29 aad6 ebbf
000002f0: bcad 96c8 9804 e0bf 2da5 25e6 8219 e6bf
00000300: 0a6b e41d 7a62 edbf 3b41 f75f 77cf cf3f
00000310: 1565 3259 4ae4 d8bf 154d ee17 2938 e2bf
00000320: 5920 49de 18d0 f0bf 2cf7 3318 1cc6 d4bf
00000330: f58a b61b 0645 f3bf ca64 d406 e0b2 e8bf
00000340: 0ba0 daf6 8dc6 c7bf ba83 dd4e 4a9b e9bf
00000350: 0d77 ff19 6a65 d9bf 5f98 c0de 4d03 edbf
00000360: 386b 0736 9632 d9bf adb1 46ad f886 ecbf
00000370: f673 6195 c43e e4bf f8d6 10bb 1c86 debf
00000380: fa6c 3794 159f e9bf f1c3 347c 8caa e4bf
00000390: 533f 9e81 1668 e0bf 6066 f987 20ec f5bf
000003a0: d4bc e6dd 16b6 ddbf 22de c5bd 9ee6 c9bf
000003b0: 2fbf e4b2 7db8 de3f 1502 2976 7f1c eebf
000003c0: 3be9 8f1e f6ba c53f 3f5f 91a4 3fdf f1bf
000003d0: 3671 7109 ad85 f8bf e84a e69c d811 e1bf
000003e0: b07d 2ad1 8d95 f4bf ec90 d55a 4d71 e5bf
000003f0: 7bde 43ef 3406 d4bf 6fee 4f0b ab20 f1bf
00000400: bb26 292e 0b1c f8bf e6f3 74fe d44f e9bf
00000410: 12e5 c059 022b d2bf 4f2f bd23 3629 c7bf
00000420: 155d 1515 1c30 d43f e3a9 87cb 5507 d7bf
00000430: 643f 7e9f e46d a0bf e69c f4e7 1755 d6bf
00000440: 22fb 186e 620e c83f 00dd 7548 a4a8 f0bf
00000450: d2c1 a883 b65b ddbf 4265 9866 9cab e0bf
00000460: 090c 58c6 ffb6 f1bf 02a5 1d0e 337c e3bf
00000470: cdf6 7d9f 3453 eabf 8342 4e88 c01a e2bf
00000480: 0953 bf69 baca ccbf 157f da5d 68f3 c7bf
00000490: a1bf d096 773a cbbf fbc6 8e1b 490b edbf
000004a0: c268 2201 8583 dabf c712 5b01 c8f9 dcbf
000004b0: 4471 82b9 8cd4 e2bf eac2 b738 ccbe edbf
000004c0: f2cb c8ad 0311 debf 83ae 2d58 105b e3bf
000004d0: 4af9 541d 9f7d ebbf a512 c727 aaa2 f4bf
000004e0: d41a e5cd 28d6 e2bf ec9b 054b c49b d6bf
000004f0: fdf8 5022 2582 d7bf 9f8f d2fa a61c dcbf
00000500: 0c03 3dc8 7a20 edbf 1420 9a73 2179 d1bf
00000510: 9156 61b1 90b5 ebbf 332a b4e0 6551 e5bf
00000520: f36e c757 c8de f0bf 3106 8b9e 5e39 d8bf
00000530: 1268 cc8b dadc ecbf 9e9c a05a a068 cb3f
00000540: f8b2 1208 fba1 d03f 239e cbf7 94e6 f0bf
00000550: 7466 e73a 620b a2bf 098f b3d8 331d e6bf
00000560: 0c09 b4f3 c030 b23f 10d7 7ef8 4eaf d8bf
00000570: 6924 e1e7 9615 b3bf 620f b0ff 2e08 a5bf
00000580: f6c3 2035 f6e1 f3bf 70ec 2604 54de b1bf
00000590: 03f8 8d32 a44a c8bf 771c 2a2a 864f c63f
000005a0: 8469 cacd 76bb 9a3f 28dc 42c7 4bc5 f5bf
000005b0: 9c5a b121 0885 cc3f d9ba 65c6 2125 fbbf
000005c0: bb46 f6f9 ef18 d3bf 62d7 ec86 b8d3 f1bf
000005d0: b27e e2a9 62c5 efbf ab9d bccc 193e f2bf
000005e0: e181 9dfd ff14 bcbf d997 9877 4d26 cebf
000005f0: c643 e341 275e f4bf 6858 2f3e 471d ebbf
00000600: 0b6d 7ab1 e53b ab3f 3198 fe83 8e9b f2bf
00000610: 0ef8 8143 2af0 f3bf 7410 878d 42ec c8bf
00000620: 58b7 80f9 45bb f8bf f319 2697 5940 c33f
00000630: cc7c 6ae2 66fd 9d3f ae26 8947 e0c9 d7bf
00000640: cdb4 1a34 68f2 943f 5259 c4d4 4c96 b2bf
00000650: 100e b2df 3465 a53f 0ba0 2591 9d01 f9bf
00000660: 88bd 7b1b deda f7bf 1813 dd5e 708a e8bf
00000670: a1d4 49a8 98fe e4bf c9fd 7652 3d85 c2bf
00000680: d1f2 f827 7a78 f1bf 3517 1a0c 6b8d fabf
00000690: 36d8 e2b0 15ce a1bf 1544 97c4 9546 e7bf
000006a0: d257 3c2b 4afb e1bf 3029 9ef5 fe8a e13f
000006b0: 3174 be63 c6bd 92bf 3672 fb42 fa06 c7bf
000006c0: fc6e db23 4607 a8bf a1f2 db19 675f c3bf
000006d0: a605 5c3d b191 f8bf 97c9 9ff9 11b8 733f
000006e0: 6a42 5f62 6173 f0bf 0d4a fc99 10a4 ebbf
000006f0: e641 8bfa 498f cebf d54f 6442 009f cf3f
00000700: a9ba 1d15 c7e6 fcbf c20c c738 1e2b f4bf
00000710: ce26 6500 1dd2 f2bf 1d7a 8cff 7686 c83f
00000720: d2d6 fd45 2a3d b13f 84b0 4e75 ec4d dcbf
00000730: d539 db4e 1224 f2bf d352 1c06 704a c5bf
00000740: 0b3e a2d8 aef3 f3bf 0002 71bb 736f d1bf
00000750: fb6c 9d3d 7873 c73f 7975 984b 1dc6 67bf
00000760: 3a8f e94f b6b6 acbf 3312 1ce6 1071 e2bf
00000770: c0e9 7c4d fea8 b53f efa4 fd50 50a6 e8bf
00000780: 03c5 495e 5ad9 863f 13d8 3421 df3b c43f
00000790: 2b1b b7c8 cc9a b23f 1359 ccf9 8ec3 c13f
000007a0: 3733 3a9c 40b5 e4bf 6c2f 1f54 efb2 e5bf
000007b0: 2d8e bf1b 1ccc f43f 624b 2a38 bcb4 fabf
000007c0: bb91 8e3f 5e32 e53f e5c7 e25f 13b4 e63f
000007d0: 4590 58cc dadd dd3f 98c4 85f4 6ae2 d93f
000007e0: 3bd7 abe7 f834 e0bf 0d77 a0ff 467b ee3f
000007f0: a5ea 23e6 32a6 ed3f af5f ca6f 9a8a da3f
0.01119132005685644 -1.0522077179999962 -1.1932100463418498 1.09311328374818 -1.8723352318864743 1.4197797558530783 0.7021894022455328 0.09227490602690547
1.303708167291431 -0.9753120842739916 0.9549382516854793 0.707531398206147 0.0907617544846399 1.1167661155538056 -0.5049543310896804 0.5044950095149561
-0.25364893841686836 1.4610629308434167 1.1171659240841214 -0.8613147606320493 0.8158459805586031 -1.0956743008947174 1.2978247905520404 0.14650475430868792
-0.6478813346621015 -1.236343570309755 0.576044716888405 1.1644837487495083 0.5745406186361859 -0.05267284868385075 1.2388315128215512 -1.3726052407901972
-0.7009789995825465 0.9606350176804512 0.6586818031130488 0.7058540494398151 1.2793817053824825 -1.178667619572571 1.0399534638616945 0.744118292051881
0.6254100272475117 -0.563339628497619 -0.8701224442252038 1.4347592766043156 0.8981761344590508 0.6665973493233722 -0.31460291646665806 0.0631530212801524
0.766234722803688 -0.8838321299078015 1.2479386286072514 1.1944195378162688 0.5247432920712114 1.0900076412568271 0.8795937695012829 -0.5506374500548261
-1.7487568974657712 0.9521175516031375 -0.34905456738376217 1.4005054298706885 1.3645891748962373 0.809493021517594 -0.5559662879472115 -1.2647463138317134
-1.2823396362869028 1.7858866229692247 0.8674648266819991 0.8236463761242262 -1.1324901824913334 0.9660474831980332 0.5283939530168694 1.0244711568915101
1.9464425268404109 0.6344396127591461 0.38844564075479987 1.0409340071548998 1.6032960146916284 -0.7230754374987638 1.3726238161072501 1.1208357977901275
1.3847787165639671 -0.821544828975671 -0.23754537874598705 -0.17128198010503654 -0.20063289878595128 -0.14677347209524624 -0.3166916142762791 -0.769001504805137
-0.590459495391226 -0.5693104416613489 -0.1192512394318213 -0.6585753778926502 -0.6482663181775064 -0.8699541870692127 -0.5005611341234082 -0.6906141753253557
-0.9182711204369707 0.2485188692649077 -0.38893374167089806 -0.5693555323981935 -1.0508049662621686 -0.3245916591985061 -1.2043515284100839 -0.771835339869676
-0.1857469039289302 -0.8002063312852592 -0.39681484736307554 -0.9066533423072193 -0.3937125709177738 -0.8914760002422121 -0.6326620977011987 -0.47693556087629885
-0.8006694693425793 -0.6458189416790657 -0.5127060443501058 -1.3701482116215615 -0.46423885030794776 -0.20235046640640159 0.480010437679982 -0.9409787471595928
0.1697681092480908 -1.1170040539199844 -1.5326357239601527 -0.5334284843869144 -1.2865122004076106 -0.670080830965643 -0.31287883153661483 -1.0704756204494534
-1.5068465998796643 -0.7909951181278501 -0.28387507214536456 -0.18094517464703094 0.31543638285570924 -0.35982270122499765 -0.032088417500857586 -0.34894368793398056
0.18793897987230773 -1.0411722975239286 -0.45872271401733855 -0.5209486011328084 -1.1071775195894153 -0.608911063737793 -0.8226569285468145 -0.5657656347485304
-0.2249367729515586 -0.18711571295443066 -0.21272177566561104 -0.9076276338803092 -0.41427731619627306 -0.4527454388847158 -0.5884460089905947 -0.9295407398004418
-0.4697884747612867 -0.6048661920771824 -0.8590846608056293 -1.2897130540670017 -0.5886425038705405 -0.3532572491298527 -0.36731842375947094 -0.43924879545579104
-0.9102147971062506 -0.273018229382161 -0.8659137215097009 -0.6661862744088637 -1.054390280615675 -0.3785015629074194 -0.9019596796454172 0.21413044381299512
0.259886510738212 -1.0562944106585597 -0.03524310082475504 -0.6910647613953823 0.07105642270838447 -0.38569998042236 -0.07454817925567316 -0.04107806082904976
-1.2426664424240221 -0.0697987089287595 -0.18977787464604043 0.17430188235104868 0.026105743704286435 -1.3606679710044407 0.22280980725436883 -1.696565413465285
-0.2983970585856743 -1.1141896505846138 -0.9928448980390014 -1.1401613233118535 -0.10969543401507266 -0.23554390277530393 -1.2729866574993465 -0.8473240103292143
0.05319135467035537 -1.1629777103457963 -1.2461340558070364 -0.19471008215453234 -1.5457210298731834 0.15040130501093038 0.029286964005788715 -0.3716965387908243
0.020455959491916077 -0.07260589785105268 0.041787769610007186 -1.5628944082072873 -1.4909344743317394 -0.7668992855838921 -0.6560786520846201 -0.14469114805795716
-1.0919133721756007 -1.659525916360008 -0.03477542671446125 -0.7273663367906261 -0.5619250149200019 0.5482172772620171 -0.018302059018982134 -0.17990043898216052
-0.04693049609860897 -0.15134896052031357 -1.5355694195608094 0.004814214911663581 -1.0281690447483478 -0.863777447464885 -0.2387478326186418 0.24703982583798614
-1.806342203602677 -1.2605268686173052 -1.176297189277125 0.19160354116407144 0.06733955582407283 -0.44225608306693 -1.1338065224004954 -0.16633415506716762
-1.2469929182296962 -0.27242749504878816 0.1832113552908153 -0.0029020855115635094 -0.05608148313038304 -0.5763020033196596 0.0846098841838403 -0.7703019697047732
0.011156755449720729 0.15807713624389005 0.07267455959582196 0.1387804717748585 -0.6471255351367294 -0.6780926363949056 1.299831493751195 -1.6691248125032065
0.6623984567018434 0.7094818947573428 0.4666659350934917 0.4044444454112379 -0.5064663433865698 0.9525485031806241 0.926537942402622 0.4147096721367189

gate_gate_weights f8 [108, 81]
00000000: 12ff 494d 9cd0 ed3f d9c7 61a9 4336 e73f
00000010: 962d 58b7 6257 c03f 1295 00f0 5a16 fc3f
00000020: 5c00 11c6 553c d6bf bda5 ffd8 fe2c cbbf
00000030: 0e2a 1ddb f019 d23f 1684 5566 6888 fdbf
00000040: 967d fbd9 ac09 e1bf f1b2 b9a1 d2b6 f03f
00000050: 9a0f 7329 5bfa dc3f a971 fff0 efbe c7bf
00000060: 604e baae 8eb2 c5bf 5525 8e5e 78c6 f4bf
00000070: 2f78 4155 a871 e33f bb5c 5cc3 9809 c93f
00000080: 6267 4215 d7e2 e4bf 01e2 6695 69b6 e23f
00000090: c73f 4ec7 aef2 d7bf 98d6 9554 2301 e83f
000000a0: e9c7 c9f2 75b9 d43f 506e e010 ca5c b2bf
000000b0: e7c1 b066 a756 ecbf 09c1 687c 14fa e0bf
000000c0: 01a7 a190 274d e63f 204c 1901 af86 f0bf
000000d0: fb47 4242 fef4 cd3f b716 5cfb 3d73 e7bf
000000e0: 733a 0dde e718 f6bf 4d70 4bf2 6d9e e53f
000000f0: eb25 c3e5 af13 e1bf 8d91 cb82 1bbd e13f
00000100: 1f21 28c7 4b8e fa3f e86e a8a0 4b06 f63f
00000110: 0262 121a 15c4 d13f 7a88 845d f497 ca3f
00000120: 7095 284e 711e ee3f b244 f03d 2a0f e9bf
00000130: b3e0 64c6 db80 cf3f bc1a 10af eb9f dd3f
00000140: f35e 8fda b4d1 d4bf f5cb 73dc 45dc d13f
00000150: 2178 2938 2dd2 e7bf b210 2eab 2a1b e53f
00000160: 0140 56f0 e458 eb3f 1572 0386 ce42 c3bf
00000170: 4fee 0799 509e eebf a03b bd8c 20f9 d53f
00000180: 5c96 5ca6 ca3c db3f 7a71 4c91 9306 f13f
00000190: bb64 d711 3829 efbf d2e9 a562 2593 f5bf
000001a0: 7753 307f c6de 66bf 5318 7b7f d625 d13f
000001b0: b9ac 5fc5 2795 d93f dded 2fe3 6d63 d4bf
000001c0: 8c68 fb75 d463 dcbf 2d3b c663 6df2 d4bf
000001d0: 97c6 6174 338c ed3f 8a95 5e92 006a e5bf
000001e0: 126f 1f60 ee56 fcbf 673b 48d9 67e6 d4bf
000001f0: f1f8 6301 aed9 e3bf 9ceb 29a6 c0ff e0bf
00000200: 08ee 1aa9 c9b6 b5bf 1376 546b f796 f73f
00000210: 61b9 a30a ad2f cd3f 8db9 e327 c355 dabf
00000220: 827c 8442 572e d3bf 98ce c2dc 9583 d4bf
00000230: 7713 1ff0 b3a6 f6bf 6003 6b00 00a5 d73f
00000240: 3d76 3efc 5408 00c0 f39a 42be adb2 d03f
00000250: 83ec 2b55 653f d0bf c78f ac2a 1006 0040
00000260: b8ef 6ae1 003a f63f 4c2e 90d2 b087 c7bf
00000270: 5a80 0d88 63b4 eb3f 6258 a3e4 cb49 dbbf
00000280: 5543 e6be 0a34 e1bf eb95 9bf9 6fce f2bf
00000290: acd8 7214 a0fb f3bf ca2a 265f 5a95 e73f
000002a0: 85a8 e2f1 987a ba3f 4e1f ae8d 858a e93f
000002b0: fd81 841d 4b99 c3bf 0ecd 0c3f 191e bdbf
000002c0: 6230 0ee2 2838 f43f fbb7 d2cb b964 c7bf
000002d0: be45 d350 5ede eebf e26c 3ff7 3b21 68bf
000002e0: 4ac3 344c 7f27 ebbf 70f3 6643 6724 63bf
000002f0: 277e ad78 2512 eabf 2d0b 353d b1b4 e53f
00000300: 80d1 fbce 4299 973f ce96 cc0c 1379 e53f
00000310: bf2d 39ac e83c da3f 2d24 8f92 ec84 9bbf
00000320: 3f4d 7829 93d7 fabf 603f e8f5 90d4 b0bf
00000330: 3553 bb07 57d7 c9bf 311e 0c3a f47d d7bf
00000340: 47bc e85d fa70 b8bf ce9c defc fa4d ffbf
00000350: f34c fabc 073b d83f 62ce 30af 73f1 a53f
00000360: 30a8 496b d3f2 d7bf 7381 67b8 17f2 f23f
00000370: 7da3 064b dc81 c4bf 27d9 23f1 566d d0bf
00000380: a676 9a4c 8430 efbf 0ef8 6a6f deea e0bf
00000390: a28f a5e2 e37b e53f 83a0 3134 e158 edbf
000003a0: 8c9d 8a77 1493 b1bf fbfa ae28 440d d73f
000003b0: ee6a 4272 bc5e f53f b731 be94 798a d03f
000003c0: 35db 975b 95af f9bf b794 741e 4bd2 643f
000003d0: 0b99 0553 6654 f3bf 3cb5 29fa dfc4 ad3f
000003e0: 3088 c461 62db f2bf 4c6a b6a9 f48d e13f
000003f0: fcf4 5860 1e14 c8bf dd73 db14 a3f3 f13f
00000400: 49d0 fd08 4222 dbbf d3db 0034 d4b4 be3f
00000410: 07a2 a6d6 1538 e0bf 91b5 67fa 4986 e4bf
00000420: 5b1d c48e f4fc eabf 5db9 a880 6185 abbf
00000430: 091e c688 564d d03f e994 f01a 67f3 ba3f
00000440: eac7 400b 20fe f93f 79d5 9d4c 5f43 db3f
00000450: 3dfd 7bb7 ed6f cbbf 5b59 d4f2 f3fa ffbf
00000460: 9d96 c6c4 433b f03f 6f51 06d2 56e1 d5bf
00000470: f446 118e 9e49 bb3f d0f8 fa36 1e0b f0bf
00000480: d722 61da 242f e1bf 761e f907 5178 c4bf
00000490: ad29 197d 1ff4 e13f b42b 029c 12ea cf3f
000004a0: fb69 9a5e 95cb da3f a045 d495 bec1 9d3f
000004b0: 1148 ac7b a312 b9bf 6b3a 7476 a1f8 c93f
000004c0: 6001 57fd 7902 d93f 7b5e 6c13 efd7 f4bf
000004d0: 8f07 a57c 1676 bc3f 6d15 2ff6 a7f9 babf
000004e0: 64cd 09ab e8bc d93f ce56 df31 cc03 e93f
000004f0: 72fc 1a46 f275 b6bf da98 4854 3703 e23f
00000500: f99f 8fba f0f7 b83f 5070 91db fad4 d1bf
00000510: 3b36 683f b3a5 f6bf bc25 3fd9 0f16 c4bf
00000520: a10e d10c a7fb f43f d2d0 7511 28fc ec3f
00000530: 88b3 61b7 d179 cc3f c976 e83a 152b d1bf
00000540: 25fa cd9f d7f9 ac3f 405d 1797 b5d4 df3f
00000550: 2cec aa27 7e25 d9bf 6583 3ed2 99fd abbf
00000560: 0363 fd44 9def ca3f 75a0 bedd 13cb e6bf
00000570: 34ab dae1 82aa c0bf 2959 82b5 5e3a f4bf
00000580: 97ff ebbd c201 f63f 4857 0f73 6f20 ca3f
00000590: 9533 e89a 173e d93f ee2d 7994 0cb2 e13f
000005a0: 0a1a a25d 145b cdbf 405b e102 46d3 fcbf
000005b0: 1284 87be a778 c53f fe46 421d 5f10 e5bf
000005c0: aa3d f365 71f5 e4bf 8a00 c008 898f dfbf
000005d0: d8f3 fd16 e524 f8bf a101 a7bc 8f69 e83f
000005e0: 06a0 854b d936 c93f cdc3 0dd9 4eb9 dfbf
000005f0: 57fe 0b47 3031 eb3f 69cb 7c61 2799 913f
00000600: d6f8 4af1 3c07 d8bf 066e 0f4c 5d9f f4bf
00000610: fe9f 0f3a 04fc e1bf 376b 9418 6161 f93f
00000620: d5e5 b43a bbde f0bf 58e6 b9c7 1bdb c03f
00000630: c640 1069 1b34 e53f ffa9 adf9 cd29 c33f
00000640: dbdd 51b4 24d0 d73f 837b 4662 6c09 00c0
00000650: b97d ff7f f515 c8bf fff5 84aa e786 f9bf
00000660: c4c8 7687 ceb3 e3bf d2a6 ce38 56c3 ebbf
00000670: aa7a ac06 3db0 e63f 59fb e1af c4da d2bf
00000680: 4cdc d8cd f27e f73f 3e8e ca36 e57b e7bf
00000690: 6b7e 67f2 5b38 d23f 5b65 c80c d000 e43f
000006a0: 8bf9 4a81 a939 d7bf 558a 53e1 918a efbf
000006b0: 70db c7a4 590c cbbf 4bf4 1e57 2028 d03f
000006c0: d313 fc26 244d d13f 1671 093b ed2f fc3f
000006d0: 6be2 5b94 1a25 f53f c190 7947 85f4 d4bf
000006e0: 5005 04fd 7065 f8bf 1f43 ecae 367b eb3f
000006f0: 506f cc1c c1ad edbf eb04 fddf c43d a7bf
00000700: de38 4e04 adfe f1bf a36d 7f9c 71d3 f9bf
00000710: aea0 2db4 6cd9 e9bf be9d bc41 b743 f13f
00000720: e09c 856e 835a d73f 47f2 21d5 f1fe c53f
00000730: 143c 4521 c803 e7bf 321a d476 2342 d1bf
00000740: d649 c7da b9c3 d6bf 8580 c00c 2bfa dc3f
00000750: 3d48 1bd7 fad2 f7bf 578e a14e aa21 d33f
00000760: d1f3 3a8e a7d6 cfbf 1083 9c9e 42bd f43f
00000770: 9329 d7b8 4dc9 f13f 4db5 463a 17e3 cd3f
00000780: be07 34d9 70f6 e93f 8983 27e0 9d24 c0bf
00000790: f068 4cd6 320b dbbf 9490 ca0e c2d5 bbbf
000007a0: a800 ca62 dd7e f4bf d073 befb 7824 f0bf
000007b0: 510f ab53 c8d9 823f 0cd0 d6c2 70e1 f03f
000007c0: 30ce d70f acb0 d0bf 23fc 8ea8 9596 b73f
000007d0: acd0 cc52 241f ba3f f6ea af3f 80f1 d2bf
000007e0: 343f f26f 18ef f4bf 6d27 c594 0045 993f
000007f0: ba2c 6f6e f688 f2bf 87a1 085c 1a6e b6bf
0.9317151555587506 0.7253740604630777 0.12766679718366153 1.7554578185166219 -0.34743255941794415 -0.2123106536449039 0.28283330343097723 -1.8458026883529377
-0.532431054827543 1.0446344678304593 0.4527805237560131 -0.1855144430873115 -0.16951163798931912 -1.2984546369137508 0.6076242127562689 0.19560536898709366
-0.6526904502127133 0.5847671430593097 -0.3741871782631247 0.7501389171654465 0.3238196249941426 -0.07172835266140365 -0.8855778699563047 -0.5305273465983485
0.6969182801087471 -1.0328817408487865 0.2340390990762556 -0.7328176411981165 -1.3810805009740335 0.6755895359342589 -0.5336532104058141 0.5543344072907971
1.6597402362404592 1.3765369678212043 0.27759292169642447 0.20776228491110144 0.9412161375554842 -0.7831011972176809 0.24611994921884203 0.462885781249877
-0.3252994665503898 0.2790693905691904 -0.744406327906976 0.6595662444456336 0.8546013540344576 -0.15047627967477753 -0.9568255413900689 0.343330514374367
0.4255854248643567 1.064105575154001 -0.9737816189255207 -1.3484243253175134 -0.002791774453280767 0.26793444108296177 0.3997287204244447 -0.31856867967846175
-0.44359313508687914 -0.3272965883597177 0.9233643792233178 -0.669189725759382 -1.7712234263225963 -0.3265628454109248 -0.6203222300680676 -0.5312197919259805
-0.08482036951584615 1.474357051141287 0.22801745433339263 -0.41148451705421324 -0.2997034215531543 -0.3205313354367063 -1.4156989459745242 0.3694458011705617
-2.0040683466493463 0.2609056814202823 -0.2538693744424522 2.0029605230247145 1.3891609959964466 -0.1838284519329697 0.8657701165466378 -0.42637917831360117
-0.5376027801995443 -1.1753997564604741 -1.2489319609426657 0.73698156913573 0.10343318848996048 0.7981593863669134 -0.15311564389504886 -0.11374051846796737
1.2637108640947408 -0.18276140644360325 -0.9646445826166923 -0.0029455348212486946 -0.8485714424515234 -0.002336694418060885 -0.8147151333795976 0.6783071704342994
0.023045581706314433 0.6710295915588291 0.4099675828808493 -0.026874252743969308 -1.6776305789870347 -0.06574350360483328 -0.20188415410543717 -0.3670626227253449
-0.09547390740111537 -1.9565381887166953 0.37860291914803595 0.04285775674398164 -0.37419591405216845 1.1841046527188979 -0.1602130285584983 -0.2566735606082084
-0.9746724601897838 -0.5286705185060343 0.6713733126348311 -0.9170995730792274 -0.06865051191799959 0.36018470738410685 1.335628935171083 0.2584518387382348
-1.6053670480593614 0.002541681973201006 -1.2081053965608273 0.05814266136881449 -1.1785606211710835 0.5485785784433772 -0.1881139727064819 1.1219816984878357
-0.42396593931266985 0.11994673032391683 -0.5068463508987983 -0.6413926974034202 -0.8433783329391348 -0.05375199027581588 0.2547203384096695 0.10527653129300386
1.6245422782490047 0.4259870765884766 -0.21435328921504918 -1.9987678037192242 1.0144689261009383 -0.3418786097547785 0.1065920922131019 -1.0027143619222905
-0.5370048775885959 -0.15992176904022742 0.5610501712156314 0.24933083169557124 0.41867574919311296 0.02905938901409899 -0.09794065255508168 0.20290010723006743
0.39077615490170636 -1.3027182348941142 0.11117687743265335 -0.1053719497714007 0.4021550817771724 0.7817135786123914 -0.08773721896703693 0.562892593971607
0.09753326945030939 -0.2786242622585222 -1.4154541470374074 -0.15692327602145706 1.3114386082315053 0.9057808247585177 0.2224676270883743 -0.2682545733713196
0.05659364534129833 0.4973577476025248 -0.3929133784656098 -0.05466919604737689 0.21043744915620985 -0.7122897463750762 -0.1302035906604374 -1.2642504778101034
1.375429860956478 0.2041148483100932 0.39441480758323993 0.5529845142240768 -0.22934202739652704 -1.801580439807097 0.16774460604850155 -0.6582484790289695
-0.6549612990583473 -0.4931356988381671 -1.509007539570339 0.7628859219185423 0.1969863528022417 -0.49568530270249483 0.8497544658311637 0.017185798001445294
-0.3754417759299832 -1.2889073344330213 -0.5620137342457381 1.5862742386004365 -1.0543777745464145 0.13168666126493878 0.6626107265492684 0.1497132748730365
0.3720790635047401 -2.004601257110552 -0.18817013502028404 -1.5954357777512767 -0.6156990667134541 -0.8675948247448224 0.7090134744974723 -0.29460255790757156
1.4684932747748176 -0.7338739462033528 0.2846898905972696 0.6250992059387203 -0.36289441705948694 -0.9856652642159341 -0.21131439729625923 0.2524491167822062
0.27033332640740787 1.7617008501175113 1.3215585513372854 -0.3274243543621758 -1.5247659572053927 0.8587907234633326 -0.9274602472755564 -0.04539313539727082
-1.1246767204461814 -1.6141220200723658 -0.8077910918336977 1.0790321891634984 0.364899499827926 0.17184279353013407 -0.7192116403401791 -0.2696617756304561
-0.3556961666592121 0.45276905293759057 -1.4890087511635237 0.29892976454559544 -0.24873823590124158 1.2962061115032988 1.1116463871318032 0.2334927591850068
0.811333107209286 -0.12611745305096303 -0.4225585072287137 -0.10873043881525951 -1.2809728487918992 -1.0089044412372807 0.009204449704504876 1.0550391779806914
-0.26078321025053963 0.09214148869703868 0.10203768750654046 -0.2959900495476825 -1.308372914590973 0.02467728527088957 -1.1584381402815738 -0.0876175379459082
