balderdash_lstm/lstm_model/models/lstm_model_13.npz (npz, 903256 bytes, 19 tensors)

forget_gate_weights f8 [108, 81]
0.5171557087361297 -0.6247761069127096 -0.7738043269021154 0.6801809905592034 -2.592435798725342 -0.3638824914455327 -0.644983735771196 -1.6813694954057625
0.4475318708977996 -0.20774374989208172 1.6020645384549494 0.41716265376100564 -0.5973238475060109 -0.7196742396982909 0.07542700917324455 -0.41152019792240035
-0.7744035035165442 0.46978741698563964 0.590645933956709 -0.9559925288465584 0.01856286671106715 0.9709683641312005 1.620095649110506 -0.376386564247019
-0.2743942287996809 -0.6701660150956908 -1.0132506788802425 -0.09771289900470105 -2.3403288080476985 0.36287734634556085 0.9898247554384523 1.8227980382779883
-1.8715628346037356 -1.7629704187911333 0.04062914285709897 -0.5275219718396982 2.3013944747046313 -0.8950739986455025 0.7296563780688557 -0.932996822278724
-0.53808050391576 0.483410271543722 -0.41829093188780053 1.8318669679443917 2.0122663592144034 0.020937616147955196 0.01114921951156343 -0.5354406058251188
-0.26388507484748436 -0.8089393473355847 2.0126717972177453 1.4983100909516605 -0.32344192014948514 1.7303371082643553 0.5568212125859653 -0.6943400410465473
-0.7356526820463316 -0.5356769873828258 -0.08349048788733496 0.9743681216268121 0.7212654889881636 -0.15202927901861482 -0.8305803058289759 -0.40212081897585134
0.33676099607505466 0.07367892815717765 0.0062194751027435675 0.49095084869940053 -0.9963383763893701 -0.0820671637241541 0.2357852831260407 0.7420041648734812
1.2267236854095196 -0.8381831463570183 -0.6079521466835632 1.3412593362039185 0.756048404388544 -0.5716168249375404 0.7182414804035328 0.16800826709895933
1.2663241891628647 -1.0891567330084033 -0.40307676868631837 -0.532662497607384 0.8272897473566373 -0.5426533356670693 1.3283296106876434 -1.0287815123136386
-1.33289751662738 -0.6960172517693165 0.06156495404943802 -1.489992740497543 0.14866292470032486 -0.11662439953752324 0.19424814341391577 -0.6796258661271829
-0.9636931489154132 0.0003954178750910757 -1.1181578001805819 -1.9764451020267746 -0.5092961637789332 0.058573270972905135 -0.13202522967001204 -2.291831778065371
-3.007113424493646 -1.1933957763710594 -0.054557531550868406 0.029918909951383885 -0.7806947956461022 -0.6278012343706679 -0.14170114597346883 -1.4491442890697757
0.7733526533696515 0.562634886766579 -0.18796990761947402 -0.6188654357543196 -0.6920957160519449 -1.8147172330686625 0.7024072248682592 -1.3755968213708796
0.22997533235027773 -1.101194657223765 -1.011567210352764 -1.9496815564231837 0.42878891736154445 0.1956379744330474 -0.9735029358032599 -0.13446995929450747
-0.5126812884292895 -1.6636878431441808 0.01613077817958391 1.041581979909214 0.2269808544171304 -1.8025886413482364 -0.059231894746869115 -1.156690133081429
-0.2524534319626282 -1.4501132778298773 -1.1233210257432447 -0.12954357969931893 0.11937773827309826 -0.9303633149721505 -1.4761860151737611 0.34912837316729195
-1.663242037475438 -0.5992872729390674 -0.14516106509919424 -2.566775228060374 1.4783392479528288 -0.966196922019918 -1.587952853083777 0.20189332436098872
0.4346380017949012 1.399610230079655 -0.6911125934208623 -1.2438403623793322 0.2044275996616992 -0.9478154762033338 -0.24054241960578648 -1.707147487901041
-1.5884675737962348 -1.8961607521300339 -1.0363507161736047 -0.40809138769501774 -0.7499691352039316 0.4535412587111643 -1.4264153916105415 1.4237954088927627
0.12488779776758237 -1.8903734945403228 0.32621844204783884 -0.16655191508539308 -0.022140178397697975 0.5903744461056408 0.13966548068856627 -0.1633270229035332
-0.27094881390224806 -0.08857729999636112 0.5866217145613578 0.27832011310840177 -0.6364828177181064 -1.0988246951869796 1.2293301724716013 -0.1750805295285493
-0.3462963876375831 -2.731078357849444 -1.1357667447777033 -0.3205921173646428 0.31157913341002585 -0.596400245989721 -0.9204077723636713 0.4504683012662184
-0.14375735573936488 1.6076146137090663 -0.3504627366408666 -0.7653802326491745 0.008432199490773064 0.46766387384511177 -0.3741556972681352 -0.398324238458348
0.42251294182435517 -0.3620551877282422 -0.09458062335774152 -0.33609777191939 -1.8503930951413663 0.396947303985916 0.551228213793531 0.37728430048989453
-1.224133683413197 -0.11042906859120227 -0.19348007951709345 -0.8295397202920457 0.29130304863037354 1.3883632734802085 -0.5827545909461177 1.1128677381176852
-0.04103106734740583 -0.5031297526106876 -1.2242680879366787 -0.33754612219253316 -0.058087327996634436 -0.019556693225932 -0.9540028814651502 0.012933587285707891
-1.1493990549884099 -2.35691396545283 -1.070431720489858 0.5902087504797981 0.3565681334643538 0.44868525624006284 -1.0622846159313306 0.024185065247186978
-0.21376265153986007 0.9205488990275233 1.3555099360421274 0.3917263489349661 -0.6719341105668573 1.160541741788323 -1.5547646860527702 0.30269387789147684
-0.2524355443484333 -0.32628462421189086 -0.7269392366658153 1.4356440005637436 -0.44356508435765785 -1.5999452028138912 0.8219547348728561 -1.2204642396460375
1.0529242655253557 0.24679873378648642 -1.3255830184832573 1.1628075246069742 -0.9084813399443572 0.7547629406375632 1.7992417871830662 0.8259998471074264
00000000: 9dc3 fe20 8a8c e03f a864 5076 2afe e3bf
00000010: 3988 b14a 01c3 e8bf 5701 baec 0ac4 e53f
00000020: 340a e4fa 4ebd 04c0 b31d 16ca d949 d7bf
00000030: aada 72ee b4a3 e4bf 0728 34b3 e3e6 fabf
00000040: 9d1e 5bb7 5ca4 dc3f 0611 dee1 5897 cabf
00000050: ecec eb6c 0ea2 f93f a107 c1fc cab2 da3f
00000060: 3b18 c5e6 461d e3bf f0e3 6845 9207 e7bf
00000070: 7259 a239 2f4f b33f 0c17 eecf 5856 dabf
00000080: 365d 30db e9c7 e8bf 0aa4 013e ff10 de3f
00000090: 8a80 3b4d 92e6 e23f c5b8 d3a4 7d97 eebf
000000a0: 8db2 c6e5 2402 933f ad9c 2c3f 2c12 ef3f
000000b0: ed24 556a e9eb f93f 6010 06ac b716 d8bf
000000c0: 26f8 b9cf ac8f d1bf 9740 b7ff ff71 e5bf
000000d0: 0a0c 0758 4636 f0bf e95e 9f69 b603 b9bf
000000e0: ba9c 634f feb8 02c0 59dc c0e7 6139 d73f
000000f0: a423 2cf7 a4ac ef3f e3de 9946 2e2a fd3f
00000100: 7d83 f0de ebf1 fdbf 9b5f 4878 2035 fcbf
00000110: b2e7 abcf 57cd a43f 4c22 1fc2 75e1 e0bf
00000120: 7469 a081 4169 0240 12d6 f539 72a4 ecbf
00000130: 19f4 2355 5859 e73f 7db0 de26 1cdb edbf
00000140: 53de dd9a f437 e1bf 432b b5a2 31f0 de3f
00000150: 50f9 2a54 47c5 dabf fb19 dfbc 534f fd3f
00000160: b655 dd1a 1f19 0040 6059 72a2 ab70 953f
00000170: 77ba 6ce9 66d5 863f 9b04 5f56 5422 e1bf
00000180: 58d6 9739 7ee3 d0bf 1f20 28c5 d4e2 e9bf
00000190: d80d d5ab f319 0040 7877 7e00 14f9 f73f
000001a0: 8ca3 4cbd 45b3 d4bf 54cf b0f6 75af fb3f
000001b0: 3ad3 38b8 7ad1 e13f 9b24 139b 0838 e6bf
000001c0: 5a51 537e 778a e7bf e8ed c010 4424 e1bf
000001d0: ead0 00f3 a15f b5bf 12de 140e 062e ef3f
000001e0: e800 de5c 9b14 e73f 37af b506 b275 c3bf
000001f0: 9196 4726 1d94 eabf 6bb0 a2f5 58bc d9bf
00000200: d57c 2dfe 7d8d d53f ade3 d64a 9fdc b23f
00000210: 0214 a2a2 9779 793f 24df c61b bd6b df3f
00000220: 58f2 ca04 01e2 efbf de4d 4588 5a02 b5bf
00000230: dec4 f34f 362e ce3f 9c13 b484 7fbe e73f
00000240: eaff e003 a9a0 f33f 432d 3576 65d2 eabf
00000250: a93e 710f 5874 e3bf 3e35 8759 cc75 f53f
00000260: 4256 616c 8c31 e83f 2a67 1e5e af4a e2bf
00000270: 6fd7 9e8e d5fb e63f a0e6 527e 4b81 c53f
00000280: 5b69 2927 dd42 f43f 28d4 479c 2f6d f1bf
00000290: fc3e d280 02cc d9bf c9f0 e038 920b e1bf
000002a0: bfcf 2659 2879 ea3f 042c 3887 6a5d e1bf
000002b0: b363 c38c d640 f53f 2edd 619a e375 f0bf
000002c0: f058 ad58 8c53 f5bf e5a1 b9f8 c545 e6bf
000002d0: 59b4 7110 7185 af3f 076e bba0 02d7 f7bf
000002e0: f998 dbff 6207 c33f 98e6 edbd 18db bdbf
000002f0: 0ec0 a287 1fdd c83f 8705 91be 7ebf e5bf
00000300: 1612 bf03 93d6 eebf d43c 7ed7 02ea 393f
00000310: baaf f86e f9e3 f1bf c8b5 38e6 849f ffbf
00000320: b514 ed77 274c e0bf d52a 7fd6 50fd ad3f
00000330: d3fc d6e5 33e6 c0bf 5dcb 35e6 ab55 02c0
00000340: 9080 ac7b 910e 08c0 f32b 6b2b 2618 f3bf
00000350: 21df 85fb f6ee abbf f9b7 170f 10a3 9e3f
00000360: 1fa3 eea6 73fb e8bf 9b55 409d f216 e4bf
00000370: b481 e15d 4323 c2bf 74d6 0bec b12f f7bf
00000380: 56eb 4f10 4ebf e83f 2d09 c8e0 1a01 e23f
00000390: cecb edde 650f c8bf 2311 e6e2 becd e3bf
000003a0: 3fa2 44ea a525 e6bf be47 f8ef 1409 fdbf
000003b0: b910 69b7 1e7a e63f cc4f 04d0 7102 f6bf
000003c0: e663 aae9 d46f cd3f 61e5 f449 7e9e f1bf
000003d0: b8bc 6219 612f f0bf 333b a749 e531 ffbf
000003e0: 0820 3d12 4771 db3f f7d6 0547 aa0a c93f
000003f0: 3ab8 faa0 ef26 efbf 2d70 bbc6 4f36 c1bf
00000400: ec65 e296 e267 e0bf 9de9 d024 779e fabf
00000410: 8e1c f632 9684 903f 1002 bddd 51aa f03f
00000420: 4a15 4569 b50d cd3f 3eb5 eb2f 67d7 fcbf
00000430: 06c6 a295 a453 aebf cd0c 5383 cd81 f2bf
00000440: 7db7 8270 3228 d0bf 1c65 fcfa a933 f7bf
00000450: 609f c777 1ff9 f1bf 6790 1b4f e294 c0bf
00000460: 1fdf c019 8a8f be3f 5983 6649 89c5 edbf
00000470: e8bd 1f3a 759e f7bf 2efd 3688 1e58 d63f
00000480: 6fa1 c4ae a39c fabf 91d5 c580 5c2d e3bf
00000490: dc74 a045 a394 c2bf 349e 6573 c188 04c0
000004a0: 339c 250e 47a7 f73f fe48 b2ce 15eb eebf
000004b0: fe5a 3940 4168 f9bf 1ca1 b4f4 a3d7 c93f
000004c0: 78b4 d3e8 1bd1 db3f 2c6d 55b2 cd64 f63f
000004d0: 4915 5328 981d e6bf 07d3 dd26 c5e6 f3bf
000004e0: 0c30 79ff ae2a ca3f 97f3 1d1f 8154 eebf
000004f0: ccf7 c010 18ca cebf 87bc 5fe2 7950 fbbf
00000500: 7761 83f9 5c6a f9bf 54b7 25a8 ac56 febf
00000510: d16d 127d e494 f0bf 9a7a fb56 2b1e dabf
00000520: afba 9645 bfff e7bf a545 63ea d106 dd3f
00000530: 27a7 17f2 98d2 f6bf d53a d6b1 ddc7 f63f
00000540: 5dcb 148f a5f8 bf3f 2c6a 0447 f83e febf
00000550: 7ba4 fc50 c3e0 d43f 1660 30ba 9251 c5bf
00000560: 3a37 9538 eaab 96bf f65e 4df3 58e4 e23f
00000570: 6200 f8f7 8ee0 c13f 653c f65e e6e7 c4bf
00000580: c968 a6b1 3957 d1bf 8900 a77e 00ad b6bf
00000590: 6943 e5e6 9ac5 e23f a2a7 e729 ffcf d13f
000005a0: 1716 d236 115e e4bf 0cd8 1d34 c994 f1bf
000005b0: 6b06 6c1d 56ab f33f dee8 3eee 0969 c6bf
000005c0: 4016 e852 b829 d6bf c736 2e9c 3fd9 05c0
000005d0: 1a46 0bc0 192c f2bf 2ff0 dbcc 9484 d4bf
000005e0: 5a2c 079b e9f0 d33f 4745 fbf7 b515 e3bf
000005f0: 6528 2900 fb73 edbf 66ad 74ff 78d4 dc3f
00000600: 9ce1 ba1a a466 c2bf db3b e719 cab8 f93f
00000610: 2cb5 1542 fb6d d6bf 5c75 87af fe7d e8bf
00000620: a1a7 5ea8 e644 813f 00de eb74 34ee dd3f
00000630: e73c d8bc 2af2 d7bf 537e 58f2 247e d9bf
00000640: 486e d1b8 730a db3f caf4 a885 e92b d7bf
00000650: 9f23 288c 6f36 b8bf 6bbe a93a a082 d5bf
00000660: ac05 46ca 359b fdbf 59b6 36aa 9567 d93f
00000670: d505 dc59 a9a3 e13f 4d7e f90c 6d25 d83f
00000680: 3311 8333 0d96 f3bf 1880 2056 1445 bcbf
00000690: e008 fa8a f4c3 c8bf f564 2ce2 968b eabf
000006a0: 5fec c58a b5a4 d23f 3d0a 6968 bc36 f63f
000006b0: 4ba3 b6f4 eca5 e2bf bed2 bf66 4ece f13f
000006c0: d410 c128 0602 a5bf 6d70 2391 a319 e0bf
000006d0: 8097 7322 9a96 f3bf e158 ed0c 5b9a d5bf
000006e0: d479 1d4c 9fbd adbf 9d0a 4b77 ab06 94bf
000006f0: bcd7 050d 3187 eebf ecee 4bb3 ec7c 8a3f
00000700: 0ba8 7343 f063 f2bf 3ad8 88b5 f5da 02c0
00000710: e3ad 0103 7d20 f1bf d2f5 2376 fde2 e23f
00000720: 449c 0126 03d2 d63f 9ae6 6f5d 42b7 dc3f
00000730: f780 4727 1eff f0bf 9a36 2741 f8c3 983f
00000740: 1827 bc16 935c cbbf 0525 f6f6 2275 ed3f
00000750: 8a43 cb2f 2bb0 f53f f90e 6a64 0b12 d93f
00000760: b072 bef6 7b80 e5bf c6fa a937 9491 f23f
00000770: 5e28 79ef 50e0 f8bf 6692 8f24 565f d33f
00000780: 42c4 d469 e727 d0bf c85f 8be7 d8e1 d4bf
00000790: 8d15 f512 1643 e7bf 0ceb f1d7 65f8 f63f
000007a0: faab bdce 5e63 dcbf dda4 1724 6099 f9bf
000007b0: d347 2204 744d ea3f ce79 b382 0587 f3bf
000007c0: 218a 591d c7d8 f03f 5451 27d5 1997 cf3f
000007d0: ff4b 088a 9635 f5bf baac 1b10 dc9a f23f
000007e0: f0ca 8275 4712 edbf 0bad 489c 0427 e83f
000007f0: 0ac4 98c1 b1c9 fc3f 087a 3a3b 976e ea3f

input_gate_weights f8 [108, 81]
1.8871896501574512 -0.5624982979387787 -2.009008438311372 0.9052972355049639 -1.6015466365462698 1.476477236360895 0.08489623321315322 1.6057840321000079
1.5918379876446278 -0.4123584874915787 0.928100990130427 -0.6030357175263008 0.17626677908655802 1.2874470985351358 0.0012170601853292488 0.9623594290797525
-0.0026378468998466487 1.8674461048191864 1.6113520204187197 0.29535905071948104 0.02662938096301957 -2.3664863404981364 1.245225920664307 -0.22707534709611665
0.5443501889671026 -0.7623349497610998 0.6787894405345785 0.37627988038519816 1.9265270556641136 0.15885502881014513 2.7743500870145668 -1.5749422627961902
0.06391120543037744 2.0356565100620787 1.4126456013624573 0.2186479654777771 1.4088788956535112 -1.035748451514557 1.0970827215243157 0.5460797819978845
0.3144544696700173 0.6548644617447094 -0.9263405555094814 1.3748492902379943 0.024966323104156685 -0.01662146610074915 0.3066148927058455 0.44693401040570735
0.6919285398159688 -1.0791895268238985 -0.29220273515051276 0.5823111287992186 0.37179889449384956 0.8771630780967381 1.434847394359251 -0.7674547892532253
-0.961556395882313 0.3364762468639423 0.42567507771148755 1.2645764226974263 2.361885178558696 0.27657246470757985 0.6554885347209277 -0.635994384486125
-0.8968671230046207 1.7445219757320212 0.9823151402114579 1.161667986067778 -1.928156064069932 1.0633107907069028 0.25845739646781146 -0.009468571872736675
1.5081638241195998 1.3930254607637447 0.22017978565965796 0.13953119814007292 2.2886364558032635 -0.1943267411845163 1.328425325579798 1.7398695372065254
1.435681927125721 -0.6291058555672969 -0.9829147969009733 -0.16779318395183224 -0.4491601069766122 -0.5397677591488864 -0.01291839813840595 -0.880915090480575
-0.4234142427146182 -0.3568625364714034 -0.23093653323743735 -0.2513630900023334 -1.7171390734361498 -0.29078389831433016 -0.42013222776969694 -0.1231740764199347
-0.3717022126407653 -0.3192769521788941 -0.2437814760835382 -0.4582085502867153 -1.192951135337658 0.6031785369289198 0.6803026561817116 -0.9460428800217143
1.1607935224821322 -1.1301336294651443 -0.0690673785381325 -0.1585075741739675 0.5356362057780604 -0.9797142506151206 -0.8700473779020457 -0.2783927577139131
-0.2890039433257097 -0.7678761543966454 0.03710885126758248 -0.23352065323886104 0.005196121007930133 0.672584778746269 -0.22599075712957317 -0.9141850318847534
-0.4735048701303821 -0.5781688066850432 -1.0794979702211012 0.8317046558005742 -1.7342209727840032 -1.4128113481412212 -1.2309214773981783 -0.3758878543338635
-0.7960737061561448 0.003522215085981527 0.41866452744134336 -1.2397726414243886 -0.2345568190599434 -0.6398612605452249 -1.3046650430713918 0.3717972405477202
0.3605771883328895 -0.9059323237324687 -0.7235469933164855 -1.1481499543994635 -1.17962899600343 0.023008719380625774 -1.938559820395747 -0.69876344534878
-0.4748602369048893 0.45572520167371244 0.2033483519740937 -1.7409519570317042 -0.5938886071209897 0.04208589175626014 -0.42250746190606847 -1.2376890307555515
-1.2638521863963978 -0.5144730903120827 -0.50418563423239 -0.753795085687034 -2.290459976059992 -0.15011238506585045 -0.034020912704323475 -0.6602034141233445
-1.4388056124652504 0.15525304929707462 0.01022386032934772 -0.9040661577437581 -1.4436153984560582 -1.1319605209829817 -1.7833110683072924 -0.030831584753414288
-0.051912473496603696 -0.1410022403044708 -0.17794063691238357 -0.40148990444633476 0.6322321421685362 -1.7332671390479786 0.12264442814581353 -0.7713788019239761
-1.1852084064650845 0.5997405372825926 0.4678802665191461 0.5580372235300941 0.5350358452705148 -0.6487212571057145 0.530528460709867 -0.25468451252318575
-0.7071802928874757 -0.9516206173373303 -1.1325880889302042 -0.7748694052576137 1.2774232471939497 -0.37212955132572906 -0.8356097681402033 -0.3996835012454811
0.854218277410952 -1.1363983747379875 -1.33409698665727 0.18058943535191407 -0.8936998514592337 0.25230009519026214 0.5948743553504728 -1.3378902492789944
-0.07058159833910937 -0.4136868224144847 -0.08401789153942127 -1.0822942513172382 -0.7010911257826683 -1.1073893195874362 -1.2311243903094784 -1.6036581207263487
-0.2697189812283393 -1.2331089877758266 0.4014693104723739 -0.3387887177809568 -1.1708450662651415 -0.9860104452462488 -0.4877734794954231 -2.13790440166192
1.064953816080586 -0.4961387406993408 -1.2065999805976906 -0.22819455702959165 -1.4067458984851913 -0.6690007948774864 0.667450270063331 -0.29258088468624716
-1.3068464863105436 -2.0257246981603974 -0.5112020599117181 -0.04965511682512677 0.2910234560112891 -0.021811514616073086 -0.5868020528940636 0.08970010063146205
-1.8628328787381454 -1.127448640437108 -0.520677902348408 0.7183462564136324 0.496809608590646 -2.1955184678613806 0.315531554175813 -0.6025359851609337
-0.4638522367187226 -0.2564931554653591 0.6344501929031813 -0.08481458472806952 -0.6517247404016769 -0.06739790901905644 0.5689678295736188 -0.45201802624510656
1.5978810909503356 0.5317117837746314 -0.3133703411945431 0.6150382836331164 0.24402471170118978 1.7702855134424458 0.9151347890150313 0.43200128669457155
00000000: 3a6a 4cc6 ed31 fe3f ac7c 366e fcff e1bf
00000010: a77b 1f04 7312 00c0 9fe5 74e8 31f8 ec3f
00000020: acc2 af5d ef9f f9bf 0a56 3798 a69f f73f
00000030: b93e 3471 c2bb b53f d0ef e498 4ab1 f93f
00000040: 126d 171c 2b78 f93f 5d47 80da 1464 dabf
00000050: 57da ffd8 00b3 ed3f 280d a38f 114c e3bf
00000060: a225 c6e9 e88f c63f b09d f820 6299 f43f
00000070: 1641 5e6c b8f0 533f f1a1 5c00 a6cb ee3f
00000080: 9293 5545 f79b 65bf 1cdb b32a 0fe1 fd3f
00000090: baab 600e 19c8 f93f d9bc daa5 29e7 d23f
000000a0: 7b44 6581 bb44 9b3f 34f6 f663 90ee 02c0
000000b0: b027 d603 72ec f33f c8b9 c012 ce10 cdbf
000000c0: 8dec 6516 516b e13f 964b ba43 0c65 e8bf
000000d0: b6ea fea1 a4b8 e53f 056c 1935 f814 d83f
000000e0: 11fc ae08 0ed3 fe3f 18b9 c590 5c55 c43f
000000f0: fd0e 5b75 de31 0640 18c4 7ca8 f632 f9bf
00000100: 71e1 2b19 7c5c b03f 57d9 c447 0649 0040
00000110: 450a 2b46 329a f63f d030 8812 a8fc cb3f
00000120: edb3 cd98 c48a f63f df33 e2f7 6c92 f0bf
00000130: fe41 9f9c a68d f13f d501 964e 7c79 e13f
00000140: 7314 d4a3 0520 d43f 8b32 d050 a6f4 e43f
00000150: ede4 dbf2 94a4 edbf 1604 28f8 61ff f53f
00000160: dd54 ef94 c590 993f 4dd5 41b5 3705 91bf
00000170: 8ad7 2812 949f d33f a468 8a1b 919a dc3f
00000180: 41b7 3552 4724 e63f 4b4f be3c 5c44 f1bf
00000190: 247c d119 73b3 d2bf 7c43 c9f2 4aa2 e23f
000001a0: fd8f 2297 8dcb d73f d6e4 b54d b811 ec3f
000001b0: 7a61 988a 22f5 f63f a009 a058 fd8e e8bf
000001c0: 8c5f 32eb 11c5 eebf 4655 0aab d388 d53f
000001d0: e98e 5fae 423e db3f 2c73 ac7c b43b f43f
000001e0: a488 760e 24e5 0240 b129 b9fe 5cb3 d13f
000001f0: 65f0 7017 c3f9 e43f 81d7 39e5 105a e4bf
00000200: d532 45ae 22b3 ecbf e4c1 0ee0 8fe9 fb3f
00000210: 1d5d 3229 206f ef3f 688a 8f2b 3196 f23f
00000220: 243b 4c2c bad9 febf eb1e f92c 5203 f13f
00000230: 8144 4fe4 908a d03f d30d 4434 4264 83bf
00000240: e4a9 d963 7021 f83f 1e9c c710 d549 f63f
00000250: ba02 53e9 d92e cc3f 7a43 6486 28dc c13f
00000260: efdd 50a1 204f 0240 b318 10db b2df c8bf
00000270: b4b1 08ea 3a41 f53f 29bd 9970 81d6 fb3f
00000280: 6169 c79c 8df8 f63f c746 6c9a a221 e4bf
00000290: 9436 6ebb 0974 efbf 664c c83e 3f7a c5bf
000002a0: 6b79 8808 0abf dcbf 7959 1f09 c745 e1bf
000002b0: 5f56 2b0c f674 8abf a957 05d8 7430 ecbf
000002c0: 4dac 470d 3819 dbbf 7afc d3f6 d5d6 d6bf
000002d0: a86b da0c 548f cdbf 55d1 be36 5516 d0bf
000002e0: db78 31d2 6679 fbbf f6a8 5d11 349c d2bf
000002f0: de0d 9148 72e3 dabf af49 f015 5688 bfbf
00000300: ae25 c913 f8c9 d7bf dd64 fe98 086f d4bf
00000310: a11f 933d 3b34 cfbf 29a8 8ef4 4953 ddbf
00000320: 5f05 00ee 5316 f3bf 6848 3813 3d4d e33f
00000330: 16d6 7513 0ac5 e53f 3fd2 c9b7 fb45 eebf
00000340: a882 873a 9c92 f23f ea99 2a00 0715 f2bf
00000350: e8ae 0a54 66ae b1bf 0a6c 9fe7 f949 c4bf
00000360: 76d9 4b8a ee23 e13f 9c25 3ab3 d159 efbf
00000370: 34ea 4199 6dd7 ebbf bfc4 74db 2fd1 d1bf
00000380: f9ee 3f65 0a7f d2bf fb60 5003 7192 e8bf
00000390: f43b 2c6d eeff a23f cbfc 4c38 01e4 cdbf
000003a0: 27ce b81c 8748 753f 7915 9083 d085 e53f
000003b0: 10ef 88df 43ed ccbf e901 cef7 0041 edbf
000003c0: e03a ed5e e74d debf 8af2 88de 5b80 e2bf
000003d0: 0e2b e3a9 9f45 f1bf 5905 1315 539d ea3f
000003e0: 4850 a27d 5ebf fbbf 8cf2 7a12 e09a f6bf
000003f0: 28e8 15b8 dab1 f3bf acf6 54ee 8b0e d8bf
00000400: 4fad a490 6f79 e9bf 4a12 52d3 9eda 6c3f
00000410: 7bc6 564d 66cb da3f e44a 56d6 1bd6 f3bf
00000420: 9047 7535 f505 cebf 459c 8052 be79 e4bf
00000430: f09d c373 e8df f4bf ed4f 39a7 86cb d73f
00000440: 79b2 e457 b213 d73f 633f dac8 65fd ecbf
00000450: de3a 2d06 4c27 e7bf 1ccb 907c d25e f2bf
00000460: 00f8 73a7 c2df f2bf a3ee 0c05 998f 973f
00000470: a607 5f4d 5704 ffbf b339 2d28 455c e6bf
00000480: 1459 eb30 1c64 debf ceb3 4909 9a2a dd3f
00000490: 274d b69c 5107 ca3f dfbb 7570 f0da fbbf
000004a0: 10a7 21ae 2201 e3bf 06a9 6e31 488c a53f
000004b0: 40f6 ccbc 5c0a dbbf 9468 5b03 93cd f3bf
000004c0: 5ccf f811 bd38 f4bf 96ff 3145 9076 e0bf
000004d0: 2a84 44e9 4922 e0bf 9b29 1ddf 161f e8bf
000004e0: 00cc 0fae dc52 02c0 a48b 4af4 e136 c3bf
000004f0: 6ce9 e366 306b a1bf ffc0 0be9 6220 e5bf
00000500: 986e ad08 5905 f7bf 34e8 aaf8 54df c33f
00000510: 3201 074e 3ff0 843f 12c1 9d26 1cee ecbf
00000520: b6ee c575 0c19 f7bf adc2 9fa2 821c f2bf
00000530: 2398 cf2f 7188 fcbf 9d8f cca0 5092 9fbf
00000540: 2542 d88f 4594 aabf 9f9d 6285 5c0c c2bf
00000550: 3b84 1540 c2c6 c6bf e55a 51b6 02b2 d9bf
00000560: 1c01 c3e6 3e3b e43f b214 d752 76bb fbbf
00000570: 9642 ec0f a065 bf3f 9dea e298 22af e8bf
00000580: 9663 0b17 9df6 f2bf c2da 3611 1331 e33f
00000590: 0b2f c912 c0f1 dd3f 8c65 20e1 70db e13f
000005a0: 8afc 337e 031f e13f 4fa6 ef14 53c2 e4bf
000005b0: 4013 8bd2 16fa e03f 1f6d 0545 c04c d0bf
000005c0: 247a ca90 38a1 e6bf a438 b514 ad73 eebf
000005d0: bab5 1cb0 141f f2bf d613 48ec bacb e8bf
000005e0: f991 dd5b 5370 f43f 1d6d 3477 f8d0 d7bf
000005f0: 8c2b 4cb2 50bd eabf 4f68 a61b 6a94 d9bf
00000600: 0d04 a491 c155 eb3f a6a2 eb0f b02e f2bf
00000610: 7729 f614 7658 f5bf 4477 6bfb 8d1d c73f
00000620: 91a3 4e6e 3099 ecbf d5ab 674c af25 d03f
00000630: 1bb3 aef1 3509 e33f 2ba6 249b ff67 f5bf
00000640: b0dd 90b8 a211 b2bf 979b 434b d879 dabf
00000650: 06d1 7050 3282 b5bf c8e6 e0c6 1351 f1bf
00000660: 8513 18a8 566f e6bf 6d15 f9dc ddb7 f1bf
00000670: 90fe 1a7d afb2 f3bf 76c0 e76a 95a8 f9bf
00000680: 2b1d df66 1343 d1bf d669 6e7d d0ba f3bf
00000690: a4e5 b455 acb1 d93f f5de c7df b6ae d5bf
000006a0: f3aa 4409 c8bb f2bf ee1a fbc6 658d efbf
000006b0: 777e 9241 ae37 dfbf 2fe6 789f 6d1a 01c0
000006c0: 7310 3d03 0d0a f13f 4944 65b4 bcc0 dfbf
000006d0: 4f57 00c8 3b4e f3bf 639d c8af 7a35 cdbf
000006e0: a16a bcfc 0782 f6bf dbe5 df5a 7468 e5bf
000006f0: a51b 34ab c05b e53f 2361 ca2c a5b9 d2bf
00000700: 6e8a 79dc d7e8 f4bf 1463 8a26 af34 00c0
00000710: 47ff 1e6c c45b e0bf ec9a af3d 656c a9bf
00000720: 0efe 7bd8 20a0 d23f 381d cff7 c155 96bf
00000730: 36fb 4c19 15c7 e2bf 48f8 a8f6 95f6 b63f
00000740: 7c80 41d9 29ce fdbf 7c8d e995 070a f2bf
00000750: ecc2 4ab4 64a9 e0bf c304 d049 b1fc e63f
00000760: 8d10 4f87 bacb df3f 4ad4 89fc 6b90 01c0
00000770: 84a2 8242 ab31 d43f 3fbd dd8b f947 e3bf
00000780: 0989 b84a c1af ddbf a8c7 9744 626a d0bf
00000790: c5b8 ae7d 6a4d e43f 5481 a19b 68b6 b5bf
000007a0: 0b9e c0d7 edda e4bf d33d 0e47 fd40 b1bf
000007b0: 5bd5 8f05 fc34 e23f 8436 fb03 dded dcbf
000007c0: b574 48c3 eb90 f93f 37b7 466e c803 e13f
000007d0: 16e2 bd79 420e d4bf 29c0 3fc4 64ae e33f
000007e0: 7812 16a6 333c cf3f 0216 0de7 1653 fc3f
000007f0: a10b c8c0 c848 ed3f fdb7 8bb9 e8a5 db3f

output_gate_weights f8 [108, 81]
-0.8421083662445097 -1.2111364963144915 -1.1386531489216412 0.6559577756304908 -1.8476617025265556 2.0789201714051813 0.33183118702164016 0.5085594420865697
2.7732233852257218 -0.8202784330368809 1.1340402710242228 0.41585463448034476 -0.34715616359018664 0.7940672588544169 -0.9613861210077788 0.25324824707252586
0.35908631751179343 2.445850126278935 1.9266042379090462 -1.1446834496301426 0.36969987120776443 -1.1641260130633853 1.4204238148598762 0.15540711082651198
-0.14133902369611612 -0.6330859102495853 0.1688400643167889 0.8531756353509656 0.30191846289630636 0.25869883545494493 2.898977448556713 -0.5130314071128588
-0.6288275274088153 0.9833795904015911 -0.03431562193174357 0.7142926561603045 1.2270479166217878 -1.6328163752296863 1.3156306565959979 0.23507609572106192
0.13536295375022586 -0.7416781747542734 -0.8601874521755627 1.7087381328789093 1.305182299045306 -0.42513616875215854 -0.72289783991216 -0.16688900444782753
0.33428865926202855 -0.3002449368179092 0.46569294895339647 0.34841431817051544 0.16644064928379018 1.2520566734050464 1.1489419647022796 -0.6401120562392498
-1.969265841377496 0.23773480683653106 -1.1536166225895037 0.674545656423086 0.7878504718538426 1.278154324179622 -0.24350025357579377 -1.4220051194756287
-1.3011508598120332 1.2074936113925343 0.8183967667576647 1.7172993793911349 -2.129710410163963 1.3319796923851497 -0.6902497313808031 0.07795933417891879
1.9645895134277498 0.6631975854350749 -0.6153238689006825 0.12477820589908221 1.8164331811290118 -1.0672867958836232 1.5649489688738334 2.2300520613023127
1.475956885306564 -0.5088563797832544 -0.07845715305389402 -1.1866823990500661 -0.23476527000268646 -0.2658246551387218 0.32464806443266514 -0.23372132997920814
-0.9175672840231623 -0.41940539157431356 0.7222027335202797 0.09568937712022235 -1.4755211457164743 -0.6722612661935693 0.0760582340881039 -0.980182779747173
-1.0507516055353556 0.6810699877763656 -0.1311100317235705 -0.5208088671666867 -1.6580367736040382 0.8602771654857436 -1.5907802727624738 -1.648772829111372
-0.2732545137950912 -1.8465923943562836 0.31218350056703215 -1.8296719595299837 -1.2315512423791939 -0.6033526079436153 -0.6060927513882524 -0.08905282829999951
-1.0594080407720463 -0.7095038549463795 -1.0130720787194947 -1.9750695183047955 0.0985431161114293 0.12447989453636653 1.3704587035648432 -1.455146798443484
-0.14245782915561925 -2.0394709530097974 -1.5414417391592006 -0.345270660685801 -1.1884950885556977 -0.5858350719530331 -0.9206090557384002 -0.5382820190481785
-1.262509190965918 -0.5530435289662514 0.34584238572717085 -0.6978228550787026 0.04338134603480888 -0.047948978162425465 -0.25260249738007956 0.24615528246518492
0.34442376519424306 -0.8849864785441297 -0.9294994370974398 -1.0190012483695232 -0.5666777555782299 -0.7777060681627659 -0.9561965607129078 0.07629518696094519
-0.2639460363082565 -0.9599705401445833 -0.8381614096165053 -2.266750315242534 -0.10416501997474387 -0.47486517749728874 -0.18324132765145595 -0.005219267712785551
-0.6111454554687655 -0.983336886165857 -0.7254500855722308 -2.6155367412952484 0.10611297215010164 -0.8256840709559956 -0.7909305145660348 -1.2710027660534404
-1.9758678903532643 -0.8653165605446026 -1.0712240497370409 -0.14189592235739654 -1.7322905287837653 -0.5100634774027346 -0.991668188837199 1.3224125463461707
0.6143875738083299 -0.6686319237871681 0.31146313659540426 -0.025209182335828216 0.3187180817342076 -0.8645977969690903 0.0005760212203564628 0.3315436628478774
-1.2499258302653546 0.12273608291728927 0.5490987709063644 0.6886263487354753 0.211438619000566 -1.485636254638077 1.0363794561995374 -2.015892808748309
-0.5160520954186032 -1.7218824286989756 -1.207374976809565 -0.9677690389972766 -0.19056115613342495 -1.4268675047060626 -1.3754985008462361 -0.10736555185410347
0.6633394605978086 -1.089308560844708 -1.6686110508761618 -0.1217143365724394 -2.0871645227593905 0.6970709886842027 0.023131561088007617 -0.1026825209916199
0.10827748587155309 -0.4097101349307369 -0.43215742874107094 -1.8449245047192175 -0.8317315437832647 -0.6156437885940961 -0.5524987738645151 -0.5176806180949692
-0.9904317762556415 -1.7291593897712472 0.25915195514390393 -0.2565574924114627 -1.3461800234595926 0.04540106396851943 0.07682334334059877 -1.4473474215021718
0.6767243743567709 -0.019458530482102 -1.6439001382341751 -0.3416175240944657 -1.4435179527106663 -1.0815937677483427 -0.36002371063561855 0.8682385110582647
-1.2315883534049907 -1.6470406715158492 -2.0323452766464136 -0.8104959459986281 0.37004083559264583 0.4894326226557994 -1.2057521314852022 0.1825492058751591
-1.8275325882949882 -0.8181434650278735 0.0646871916005728 0.22491807007120035 -0.5815698241661879 -0.6955475007397087 0.166419670211386 -1.329885426076071
-0.32891449020372504 -0.10928338632661513 0.006595558468676453 0.24587914655407225 -1.019964416163893 -0.43053883740160265 2.3780733359109827 -2.7523502934981146
0.813475257733175 0.916057489935203 -1.0954512110450405 1.053825454167505 -0.3645207463663887 2.7361206647300462 0.6648340880256025 0.4208544572271575
00000000: 3ea9 963e 8df2 eabf b09a aaa9 d060 f3bf
00000010: a1b1 415d ec37 f2bf c479 3c29 9bfd e43f
00000020: 94c5 a6b7 0590 fdbf 9370 19e6 a0a1 0040
00000030: 6040 03e0 b83c d53f adae 7a73 1e46 e03f
00000040: 0560 00be 8f2f 0640 ae3d 708e b83f eabf
00000050: 1256 4669 0725 f23f 5aeb bec1 5c9d da3f
00000060: 1e61 4e7c ce37 d6bf ae54 73bd ff68 e93f
00000070: 8ed0 91d3 acc3 eebf 6b88 bc22 3835 d03f
00000080: d2de 892d 45fb d63f b248 fade 1991 0340
00000090: 3f78 22f7 5ed3 fe3f 5cf1 c697 9f50 f2bf
000000a0: 810e 0ba6 29a9 d73f 537b 2899 42a0 f2bf
000000b0: 0d86 7452 0eba f63f 6669 4855 61e4 c33f
000000c0: 9231 36aa 6517 c2bf 4f92 0262 3d42 e4bf
000000d0: e960 3f1d 8d9c c53f 0672 72fd 364d eb3f
000000e0: b9af 0cd1 a152 d33f 9db4 728f 858e d03f
000000f0: 0e24 ab16 1b31 0740 e0db 6bd7 c06a e0bf
00000100: f673 21e8 5a1f e4bf c984 8a79 d877 ef3f
00000110: 65a2 e033 d191 a1bf 4a68 bf45 7cdb e63f
00000120: 8b3f 08ff fca1 f33f 9bc1 3f10 0420 fabf
00000130: f91d 3bbb d20c f53f ecbe 9837 f916 ce3f
00000140: 373d b9c1 9253 c13f 1f40 17de d3bb e7bf
00000150: 61c1 f0d5 a786 ebbf cd49 e2cb fd56 fb3f
00000160: 9f7b 9bd5 06e2 f43f d6c8 4855 6e35 dbbf
00000170: 58b2 98a6 fa21 e7bf 692c 1570 9e5c c5bf
00000180: fa0f bd42 fc64 d53f 580a 1b8a 3637 d3bf
00000190: 7fe3 6ecc e9cd dd3f 3b08 8091 6b4c d63f
000001a0: a70e b35c ed4d c53f 2e36 1094 6c08 f43f
000001b0: 585f 36f8 1062 f23f 1f55 6a47 cc7b e4bf
000001c0: 518a 1de6 1c82 ffbf 71ec 3d1a 186e ce3f
000001d0: 634d 22b4 3675 f2bf 49df bfc5 e095 e53f
000001e0: 7603 5831 1236 e93f b67a d9f2 5173 f43f
000001f0: b17e d62c 042b cfbf 4347 ae70 88c0 f6bf
00000200: 21e1 6090 83d1 f4bf 38f5 30d2 e451 f33f
00000210: bb0a 8c6a 4e30 ea3f fbd0 fee9 0e7a fb3f
00000220: f9d6 8c9c a509 01c0 8caf 1bf0 c94f f53f
00000230: 844e cb9a 8616 e6bf 6a65 b796 24f5 b33f
00000240: aec9 e369 f56e ff3f a05a 8724 ea38 e53f
00000250: 4b0d acae bbb0 e3bf 9b11 97e9 76f1 bf3f
00000260: f617 453d 1c10 fd3f 585d bc51 9b13 f1bf
00000270: 768d 13ee 070a f93f d75d fd88 25d7 0140
00000280: d829 8bf7 849d f73f 08f6 b02c 8d48 e0bf
00000290: 31f5 809a c415 b4bf ac8a eaae a6fc f2bf
000002a0: 85f6 72d2 c90c cebf 78a4 126a 4503 d1bf
000002b0: feab dcac 08c7 d43f 94b4 519e 94ea cdbf
000002c0: f049 9810 b65c edbf def9 24b6 89d7 dabf
000002d0: 1ba5 31e8 481c e73f c453 4e59 197f b83f
000002e0: 118a 960f bc9b f7bf e167 150f 2a83 e5bf
000002f0: abfa ff6b 8d78 b33f 33ba e346 a85d efbf
00000300: cae6 5fea e0cf f0bf e92b 7949 53cb e53f
00000310: b012 37a9 36c8 c0bf c953 7e5b 77aa e0bf
00000320: 7e1d 6391 5187 fabf 1b38 68fa 6387 eb3f
00000330: 4530 ea03 d673 f9bf 5d11 399e 5f61 fabf
00000340: bbfe 0e80 007d d1bf 57d7 6c77 a48b fdbf
00000350: 1c51 5281 d0fa d33f a86e c91a 5646 fdbf
00000360: 71de 5513 6fb4 f3bf 565f e220 aa4e e3bf
00000370: 38c4 31a0 1c65 e3bf 6930 2a89 2acc b6bf
00000380: 17c4 83d8 55f3 f0bf 1a2e ac6d 41b4 e6bf
00000390: 9a74 6911 8b35 f0bf 0e21 c77e e299 ffbf
000003a0: 08cc f124 1f3a b93f af10 0b14 eadd bf3f
000003b0: e145 051b 66ed f53f 151a 6302 4848 f7bf
000003c0: 452a a4e2 0e3c c2bf 618d a225 d650 00c0
000003d0: d10c 26d0 bea9 f8bf 297c fa1c ea18 d6bf
000003e0: 81da 0c6d 1304 f3bf 2f6b 5c31 29bf e2bf
000003f0: 2788 591f a175 edbf dec6 7a36 9b39 e1bf
00000400: 8f91 61d6 3c33 f4bf 5495 c557 88b2 e1bf
00000410: 4834 111a 4822 d63f 29dc 9e98 9054 e6bf
00000420: 7ab1 f36c 1436 a63f ec20 2bba c48c a8bf
00000430: dca9 48aa a32a d0bf 707a f62b 0482 cf3f
00000440: 815d def9 090b d63f ccf9 d729 cf51 ecbf
00000450: 377c 7f9a 75be edbf cf48 c540 d44d f0bf
00000460: a288 7263 3922 e2bf 4c1d 15d6 f7e2 e8bf
00000470: 63e8 9987 2999 eebf 31e7 d6d4 1488 b33f
00000480: 1e94 76ea 7de4 d0bf 0e6c 6123 14b8 eebf
00000490: 0e4f 62e0 37d2 eabf a350 41fd 4d22 02c0
000004a0: 0cc0 2d0a 8faa babf b80b d7e9 3064 debf
000004b0: a0f1 c4aa 7374 c7bf deef 2a82 cc60 75bf
000004c0: c1cb 0aea 808e e3bf f30c e1ea 7e77 efbf
000004d0: 6238 0d19 e336 e7bf c9cb ea86 9eec 04c0
000004e0: 59e8 1041 382a bb3f 50b1 3200 016c eabf
000004f0: ba06 af82 4d4f e9bf 7833 15ff 0656 f4bf
00000500: 618a 24a6 279d ffbf 9f3d 075b acb0 ebbf
00000510: c3f2 44d4 bb23 f1bf 9ffa fa44 a529 c2bf
00000520: c5bf 0446 76b7 fbbf 5e85 4aa4 7052 e0bf
00000530: 2042 f1ec bebb efbf bb07 e60e 9a28 f53f
00000540: 036b 1221 10a9 e33f 4847 b7c6 6e65 e5bf
00000550: d28e 6514 03ef d33f b6df c396 6fd0 99bf
00000560: 434e 6c86 e065 d43f e6a0 c5ff c8aa ebbf
00000570: ea56 d026 04e0 423f f82b 48e9 0238 d53f
00000580: 41a5 363a b2ff f3bf 243d 2bc6 a16b bf3f
00000590: d821 ea95 3792 e13f c072 df1f 3a09 e63f
000005a0: cb02 dcb0 6b10 cb3f 6fc2 7685 2ac5 f7bf
000005b0: f2f8 e99f 0295 f03f 4986 ae68 8c20 00c0
000005c0: 925d 1baf 7f83 e0bf 3f1b ed96 d48c fbbf
000005d0: 527e 766c 6851 f3bf 8c63 92c6 f6f7 eebf
000005e0: bc91 bdd6 4e64 c8bf ad00 4705 73d4 f6bf
000005f0: 494e 4db7 0a02 f6bf 812c ee0d 4f7c bbbf
00000600: 693e 2dad 133a e53f 264b 41d0 ce6d f1bf
00000610: ee1d 5480 a1b2 fabf 5370 08b7 ab28 bfbf
00000620: f7fb 3450 83b2 00c0 fd72 6cd1 674e e63f
00000630: 3e80 83c9 ccaf 973f a8a3 87d5 6649 babf
00000640: ca1f b6c4 12b8 bb3f 3981 97db b038 dabf
00000650: 7ba5 caa1 77a8 dbbf 85ba b58e cf84 fdbf
00000660: 0d39 7378 8b9d eabf e7e8 3f9a 5ab3 e3bf
00000670: 8c80 9ae8 11ae e1bf efb5 8ff1 d690 e0bf
00000680: 4bfd fdfa 9db1 efbf 9f38 4a09 a3aa fbbf
00000690: d566 0215 f295 d03f 31dd dc1d 706b d0bf
000006a0: 7399 7410 f489 f5bf 0594 e5e9 ce3e a73f
000006b0: c59d 37d3 b1aa b33f fdd3 14c5 5528 f7bf
000006c0: ab96 08e0 b9a7 e53f 0005 32e0 efec 93bf
000006d0: cab0 393b 6a4d fabf 6d7a 6ebf 0fdd d5bf
000006e0: 8a4c e147 a618 f7bf b795 4044 354e f1bf
000006f0: 2cbb bde3 a00a d7bf 76ef 4321 9cc8 eb3f
00000700: 8f24 40fd 95b4 f3bf ae7a b551 475a fabf
00000710: e802 8b3d 3e42 00c0 9e59 b331 95ef e9bf
00000720: eb83 c3c1 bfae d73f 1bbd f934 dd52 df3f
00000730: d2fa 3cbf c24a f3bf 9481 92ba c55d c73f
00000740: 8b9e b1cf 923d fdbf 0363 3734 3b2e eabf
00000750: f900 65fc 568f b03f 681c 9e85 1dca cc3f
00000760: c14b e451 389c e2bf 10bb 0fd5 ec41 e6bf
00000770: 7708 7c60 3d4d c53f afc7 c6f0 3547 f5bf
00000780: b3c0 a65c ef0c d5bf 9ed9 44fa fef9 bbbf
00000790: 98c7 bfbe f103 7b3f bbeb 9bc6 f778 cf3f
000007a0: 5a1f 2835 c651 f0bf 410e 93c4 f28d dbbf
000007b0: 7fd1 2950 4b06 0340 e8ae 0d3b d004 06c0
000007c0: 8a36 8243 fd07 ea3f a8e1 10cc 5750 ed3f
000007d0: 2bd5 5cd9 f786 f1bf ef77 5514 78dc f03f
000007e0: 8ddb 16d3 4e54 d7bf 1367 273b 93e3 0540
000007f0: 16c0 2a23 5246 e53f 7ba7 8a88 47ef da3f

gate_gate_weights f8 [108, 81]
0.9944952593043654 1.0724329747164458 0.15734455598658 1.8061459718978088 -0.01842890662288115 0.3118104262825754 0.02647470134092195 -1.954249058665222
-0.44878151267232647 1.1884960283159904 -0.03950704824525788 0.16020935568037115 -0.16829144167298066 -0.7953648156073879 1.1214242882483723 0.3061934960408324
-0.6786927062847706 0.7024173985340493 -0.9604503992081889 0.7756666751798174 0.10407130530995853 0.07991816082186276 -1.2505453054192495 -0.7803912325316321
0.4962323412071912 -0.8897307659538047 0.31986602544665 -0.8044433788699992 -1.4511818026742649 0.8380519385725738 -0.3990074133263329 0.9305740180762475
2.252402761562655 1.5313974643666157 0.49877737229738767 0.7090673749301015 2.286847543940671 -0.6986536363453225 0.24251551271609925 0.4086063372539527
-0.4039147707094756 -0.03982266416743155 -0.8497171845161439 0.6861176505061134 1.0627037070106562 -0.2666160173268342 -1.1805502807543635 0.591341932425665
0.44516342988311797 1.2644158008460968 -1.4225759969258076 -1.659398211509088 -0.1026725392790945 0.23847192259498678 0.48026852763747807 -0.8054290842964598
-0.12185125549001434 -0.5600310200366452 1.2085692584411085 -0.546969169500104 -2.0426581458692366 -0.029214869609123274 -0.814594777160974 -0.518712468680638
-0.11449059902904504 2.6355809033050677 0.44011050371972754 -0.8683198969557325 -0.3519932256663722 0.11058570478159949 -1.7726590627342813 0.5711408327805285
-2.7701940655206974 0.23870663413800722 -0.27225900610988313 2.2871737389978444 1.9064647379082729 -0.5742308059729812 0.9481314260696257 -0.21462520995495185
-0.43733187765788833 -1.5395315973586112 -1.5844090815085885 1.3629523869208877 0.0639853428385768 0.9437500870874507 -0.10349709900392672 0.23159562823014276
1.016720449031179 -0.8871830205508664 -1.2235918294341677 -0.9507523786559865 -1.6168705406183503 0.3996727961950715 -1.6302724576495673 0.4084620455980654
-0.722171780860413 1.1365788965009969 1.2208811671038506 -0.05714657338665584 -1.496388504782152 -0.7458257846567473 -0.04204425833758373 -0.4877696583293634
0.013960575487439595 -2.2655685601600166 0.2607254516164229 -0.3241538055167482 -1.1577534178543047 1.3436149943863482 -0.1805675828041705 -0.2517372452492856
-1.2936631768347786 -0.37181687675082575 0.679779556392292 -1.231299112088143 -0.34115954698796375 0.18006683770745982 1.4514478364607748 0.7437761309691335
-1.352281974845763 -0.4229156470367894 -1.7206526661885166 -0.04797466374353904 -1.7957321841590541 0.24766247161880153 -0.5680713647423663 1.0164847111534812
-0.3708977149937592 0.7779091941005204 -1.2360077061845498 -1.2189092726086197 -0.5679864367599845 1.2556687351770528 0.7079151670604026 -0.16522262733705634
1.851101422602007 0.474133026991119 -0.43816232838363073 -2.250695202129656 1.393126177603801 -0.33897246664865854 -0.5825882679410976 -0.740263219251482
-0.986430158068657 -0.39224097690289383 0.4768020575730252 0.4281414633064136 0.6315955596433703 -0.14111719768547842 -0.05566386304316804 0.3920426702838933
0.6388097002701963 -1.7683448700334448 -0.011609764445330361 -0.49702330169419773 0.47985152693631994 1.383026201968427 0.32751073156098937 0.6934827872671496
-0.14418144307166483 -0.2598834823296291 -1.753184683711798 -0.4970762966351944 2.13504768840342 0.9170355510886024 0.7151632844735814 -0.059521784592649195
0.11850442453980586 0.6030346688544413 -0.7715687797413653 -0.07923003446876996 -0.43103090931315935 -1.2907390580667264 -0.12973099211084382 -1.2696737773882067
1.4928014653633543 0.11576946611705101 0.7154753304564071 1.1436262305220029 -0.32081121347293107 -1.7311665387120947 -0.10524382156210164 -0.2717370935863901
-0.7899941447121585 -0.5616716203143118 -1.5639794315987436 0.8250586647129626 0.49147144140017984 -0.7446474394264635 0.8696527114256836 -0.16104967997779807
-0.4495093140233306 -1.0079490470841543 -0.3770634512534528 1.6879451232673546 -1.1648672112840326 0.0216648678950323 1.0849460317430084 -0.24132885487570951
0.7279297146058181 -1.9416349005249207 -0.5433438285315878 -2.509256001507328 -1.1317466168893269 -0.9301209339782778 0.6949706470895792 -0.4921122876269951
1.4383213465300642 -0.6659655702333153 0.5402200748903419 0.37644998731943996 -0.9566839624920317 -0.7950282195067009 -0.11743945572581706 0.3992280947933809
-0.11093677099717637 1.6745777260078782 1.511925577759723 -0.4460728566944674 -1.7743090759709632 1.2948229931185016 -1.1989434714584712 -0.045571441964316825
-1.2056990339309395 -1.8236558264577591 -0.8157230924538258 1.499370422382094 0.6729686089750303 -0.0013180672465770411 -0.9881548171356989 -0.15712927234672616
-0.07251310056976172 0.48342643152028636 -2.2552316049863497 0.2651018874540678 -0.7428248243098049 1.4881819346673257 2.2254085863554396 0.3857660165696941
0.7852163573801245 0.32155551287641 -0.2782585445103571 -0.35327969182147495 -1.3419619308382151 -1.1086542457726891 -0.20910965372894594 0.9115470514806946
-0.35176875307653793 0.4303623056405142 -0.3712286035852116 -0.7742162815880141 -1.8577249449514408 -0.2847398897825503 -2.2977550430166813 -0.252920402646015
00000000: 42a8 d7b8 e7d2 ef3f 32f2 987a af28 f13f
00000010: 8f3f 15cd dd23 c43f cea6 9151 f9e5 fc3f
00000020: 4e39 fcfc 06df 92bf e8de dbb7 b3f4 d33f
00000030: 51f6 b821 2f1c 9b3f 6c4b 33a9 9a44 ffbf
00000040: 0488 fe17 d6b8 dcbf 69b0 5069 1404 f33f
00000050: 7389 5990 443a a4bf d688 947b bd81 c43f
00000060: 7a50 17ef 928a c5bf 9787 ede9 a073 e9bf
00000070: 2978 2f98 5af1 f13f e991 ef9a ac98 d33f
00000080: bddb 30c4 d9b7 e5bf 630b 5b0d 347a e63f
00000090: 27f0 c079 02bc eebf e2d1 4feb 42d2 e83f
000000a0: 2620 c2c4 6aa4 ba3f 481c 163f 8475 b43f
000000b0: 7712 4fcb 3b02 f4bf 29df b908 f7f8 e8bf
000000c0: 1cf4 2c4b 45c2 df3f 2a88 c0a7 ac78 ecbf
000000d0: 7a45 9959 af78 d43f 4e5f 770a 00be e9bf
000000e0: a894 f068 0a38 f7bf 6a98 904c 52d1 ea3f
000000f0: 2948 c663 5689 d9bf 2ba2 c429 43c7 ed3f
00000100: 4da7 32bd eb04 0240 6d1c aaa0 9a80 f83f
00000110: 5922 80ed f7eb df3f 0a88 3f10 aeb0 e63f
00000120: 0a4e a1b9 764b 0240 59b5 eade 5e5b e6bf
00000130: 6bb4 f191 bf0a cf3f b26b dc31 9b26 da3f
00000140: e762 a456 bdd9 d9bf 2438 7ae0 a263 a4bf
00000150: b912 cb17 e230 ebbf 493a c400 adf4 e53f
00000160: 042e 2f9a d500 f13f a18b c0a0 3c10 d1bf
00000170: 4efa f1b0 88e3 f2bf 8cb1 90ea 45ec e23f
00000180: 9848 2ec1 8e7d dc3f c9df 1210 0c3b f43f
00000190: 5fef 6d0c dfc2 f6bf 0c8f 9723 e58c fabf
000001a0: 0aa7 665e bf48 babf a2a4 477a 3f86 ce3f
000001b0: 0c11 e034 b8bc de3f e09d 0937 13c6 e9bf
000001c0: fb5f 4ed5 a431 bfbf 74b1 792c c6eb e1bf
000001d0: dd49 ffb7 4c56 f33f 148b dd7c c580 e1bf
000001e0: b954 6b27 5d57 00c0 4dc3 1cb6 80ea 9dbf
000001f0: e5c2 ec10 2911 eabf 2f58 20e4 4a99 e0bf
00000200: 8279 8782 414f bdbf 5d42 cd70 ab15 0540
00000210: 598c 063f c52a dc3f c182 fcce 46c9 ebbf
00000220: b3a3 2998 0e87 d6bf 322c 7141 584f bc3f
00000230: 926d d6bf cf5c fcbf 7e7b c623 c946 e23f
00000240: 9ee0 9781 5b29 06c0 5501 7b61 f08d ce3f
00000250: 6d23 d209 b16c d1bf 5220 cabe 214c 0240
00000260: 20b1 442b e180 fe3f 434f 8048 1960 e2bf
00000270: 9fec 68b7 1757 ee3f ddaa d3c0 d678 cbbf
00000280: 657d 02d8 3efd dbbf a205 5de2 eba1 f8bf
00000290: 5d09 4956 bd59 f9bf 1e49 7d29 a7ce f53f
000002a0: bf3f eaea 5761 b03f 7868 f461 3333 ee3f
000002b0: bbe6 732f c97e babf 9790 92f0 eca4 cd3f
000002c0: ad36 5ca9 7c44 f03f 92a3 5aa5 cd63 ecbf
000002d0: 3529 b106 d593 f3bf 537e 9d40 906c eebf
000002e0: 7f25 dda4 b3de f9bf a18e 3035 3d94 d93f
000002f0: 7eca 9292 9815 fabf 980f e0fd 3d24 da3f
00000300: 3777 9cfe 071c e7bf 93ba 5c5a 6d2f f23f
00000310: ae36 d0b0 ba88 f33f 7e5d 8ccf 5042 adbf
00000320: 1965 a212 35f1 f7bf 16a8 3309 cedd e7bf
00000330: 5fc8 1635 d386 a5bf 8d5d a03a 9e37 dfbf
00000340: 5213 37b9 5c97 8c3f 59dd c568 e21f 02c0
00000350: fa59 fbcd b9af d03f 4e60 649a efbe d4bf
00000360: 6d43 a872 2886 f2bf 99df b46f 727f f53f
00000370: ac4b 6eab d61c c7bf d7f8 e188 761c d0bf
00000380: a9b7 c828 d8b2 f4bf e2b8 6f03 d9cb d7bf
00000390: 8f37 660e c1c0 e53f d732 a0b2 66b3 f3bf
000003a0: c303 42da 8ed5 d5bf 5d1a 861d 6e0c c73f
000003b0: 0a2f d75d 2139 f73f d6d9 c199 03cd e73f
000003c0: f1ec 8e6c f2a2 f5bf 1457 3fca 0c11 dbbf
000003d0: cee0 1017 cb87 fbbf 6854 a197 2290 a8bf
000003e0: 9367 b5ab 51bb fcbf d54e 0664 67b3 cf3f
000003f0: 049a abff a32d e2bf 809c f478 8543 f03f
00000400: f9cb 03c5 c9bc d7bf 256c 7dd2 a1e4 e83f
00000410: 78aa 3a04 b0c6 f3bf 9e52 6a02 a780 f3bf
00000420: 2495 4ee4 f12c e2bf 3d1f 8319 3817 f43f
00000430: dfbc 5bb5 3da7 e63f aa65 7cda 0326 c5bf
00000440: a279 7a86 1c9e fd3f 8357 380d 3258 de3f
00000450: 51cd af01 da0a dcbf b149 737c 6c01 02c0
00000460: 3228 c0ac 3e4a f63f 3207 a092 b9b1 d5bf
00000470: bce3 ba26 90a4 e2bf c4bc a37d 3cb0 e7bf
00000480: fe2c 96fa d590 efbf c0bc fce5 791a d9bf
00000490: 0844 fcc6 ec83 de3f bd9b bd73 ab66 db3f
000004a0: 6df2 1ee4 0736 e43f 8a2c 7bda 2010 c2bf
000004b0: bdc9 ad4e f97f acbf 905f e023 3a17 d93f
000004c0: d5e5 600a 2171 e43f fe7c 8dfd 234b fcbf
000004d0: 860c db34 dcc6 87bf ea18 88d2 3acf dfbf
000004e0: 5823 c82d e3b5 de3f a072 2f15 e020 f63f
000004f0: d92e 4992 eff5 d43f b8d7 74d0 0231 e63f
00000500: d168 579b 8974 c2bf 2216 5854 eea1 d0bf
00000510: 923e 0662 0b0d fcbf 9f8e 6a19 19d0 dfbf
00000520: a5be e8e1 9314 0140 7e3c a6f0 5a58 ed3f
00000530: b2a5 c31c 9ee2 e63f 3b31 73ac a379 aebf
00000540: 8c6b d453 4e56 be3f 41b0 a25c 0f4c e33f
00000550: 4252 7302 b1b0 e8bf 7f81 e766 6b48 b4bf
00000560: 9a2b c4aa 0296 dbbf 1e10 a1ff dda6 f4bf
00000570: 0865 3270 069b c0bf c289 6773 9550 f4bf
00000580: f580 12ca 83e2 f73f 031e d956 11a3 bd3f
00000590: 43f6 2c85 2ce5 e63f 4109 af04 4b4c f23f
000005a0: a49a 83c1 2b88 d4bf dd2a 3baf dbb2 fbbf
000005b0: ff1c b753 42f1 babf a012 84fa 2364 d1bf
000005c0: 2d3f f2cc a147 e9bf ebeb 0ac3 36f9 e1bf
000005d0: 1655 e54b 0f06 f9bf c327 c76d e166 ea3f
000005e0: 0ad5 eea1 4474 df3f ae60 ecdd 26d4 e7bf
000005f0: e46e 4eec 31d4 eb3f a898 44a2 469d c4bf
00000600: fc90 beb6 c2c4 dcbf 442c 142e 8f20 f0bf
00000610: 4da1 e9bd ce21 d8bf 0004 debe d201 fb3f
00000620: be5c 0acd 4ba3 f2bf 9f46 53ac 502f 963f
00000630: df2d c45e f05b f13f cfda a229 dde3 cebf
00000640: 6498 c041 334b e73f 8f6d e8c1 ef10 ffbf
00000650: ebd9 c098 1263 e1bf 2820 7ecf f412 04c0
00000660: 705f 2e57 a21b f2bf ab5f 18fa 8cc3 edbf
00000670: 1bc0 1d15 333d e63f 0655 5489 c47e dfbf
00000680: d3c3 873e 5d03 f73f 2540 0d07 974f e5bf
00000690: 7a7e 499c 7b49 e13f 8776 07b0 c117 d83f
000006a0: d759 70af 279d eebf 5eb5 4505 df70 e9bf
000006b0: 7938 9a1d 8310 bebf 9d0b b2fe f38c d93f
000006c0: 9951 5b2b 5a66 bcbf ad05 7d03 12cb fa3f
000006d0: 326c e7df d830 f83f c0b4 c82a 758c dcbf
000006e0: 07a9 e4e9 9163 fcbf 42d8 9850 98b7 f43f
000006f0: 64ab 7a59 df2e f3bf 2e92 bcd9 2355 a7bf
00000700: bad5 f811 8b4a f3bf 1ebc 5cbb b12d fdbf
00000710: 1dcc 9550 671a eabf 6688 0bd7 6bfd f73f
00000720: 2709 d976 f588 e53f 7956 f3ed 5f98 55bf
00000730: 2c72 dfd9 f69e efbf 899a fcde cf1c c4bf
00000740: 238b 7af3 3790 b2bf 09b4 596a 75f0 de3f
00000750: 6193 22de b60a 02c0 2c47 2ee8 6df7 d03f
00000760: 6f29 e290 38c5 e7bf 884e 3edc 97cf f73f
00000770: da12 5504 a3cd 0140 4ccd 44f2 63b0 d83f
00000780: 966b e70d 7e20 e93f a3c5 e992 5d94 d43f
00000790: 734a 20ed fcce d1bf 59b5 ad6c 229c d6bf
000007a0: 99d5 d612 ad78 f5bf d9a4 023c 0cbd f1bf
000007b0: 3398 05ea 1ac4 cabf 75fe dbb8 642b ed3f
000007c0: c1fa 8d16 6183 d6bf fd0e 0a57 0e8b db3f
000007d0: 323f ef9d 35c2 d7bf 9f70 2e39 61c6 e8bf
000007e0: 387a b8ca 3db9 fdbf 87e4 9ea8 2d39 d2bf
000007f0: 46ce 5f65 cd61 02c0 34c5 760e d92f d0bf
