balderdash_lstm/lstm_model/models/lstm_model_14.npz (npz, 903256 bytes, 19 tensors)

forget_gate_weights f8 [108, 81]
00000000: ada3 9c18 c49b e23f e3d3 5345 91e0 e3bf
00000010: c05e 04ce a4f3 e9bf 7159 2577 ee70 e73f
00000020: 98c4 ffd4 8459 04c0 1393 725b ca1d e4bf
00000030: a120 35e2 d689 e3bf 28ea 5316 7d9c fbbf
00000040: 0bb2 7dc1 f29e d23f d29d dc39 a21d c7bf
00000050: 1064 e696 2463 f73f 8a8f 62f8 fc69 dc3f
00000060: ed15 5462 e103 e2bf 7442 9266 ce32 e6bf
00000070: 6a80 5f28 7863 c43f ea66 1b10 696c dabf
00000080: 0cd8 77c4 95c6 eabf b132 39d0 fde0 df3f
00000090: b50c f7e9 290d e63f 6dc9 3972 b8ee eebf
000000a0: a5d3 b891 e72d 7abf df47 c17a 5f42 f03f
000000b0: be96 7511 5619 fa3f 5680 fbad 1d9d d4bf
000000c0: 7ce3 0dec b856 cdbf 5350 fb85 3c55 e5bf
000000d0: 5f09 cfb0 80a9 f0bf 78df f93a a7c2 b3bf
000000e0: bcab a313 2733 03c0 c9c2 853e 8d46 d33f
000000f0: 7681 bb83 a1f7 ed3f be90 4f4c f85d fd3f
00000100: 5e64 ea73 fa88 fcbf 1ae5 b5bf 0b4e fcbf
00000110: 139b 439d c6be c33f ed87 f4ba 3053 e4bf
00000120: 98d6 03fe f29c 0240 6ec3 e47d e184 eebf
00000130: b94d 0d3d 5584 e83f f96b a99b cc24 edbf
00000140: 5054 40b0 6343 e4bf 274c e91e f88c d43f
00000150: b85e 5227 c58f d8bf 7d95 d849 7109 0040
00000160: 01a7 d2c9 cd44 fe3f dea7 5450 8a9b bfbf
00000170: f5b7 af34 88c1 b33f bd73 22f8 cc41 dbbf
00000180: ac07 4f74 fc50 d1bf 79a9 08cd ac2e ecbf
00000190: 7b98 27d6 703e 0140 299a bea5 a2c0 f63f
000001a0: 4c34 33e1 b2c2 cebf ed4b c25b df6d fc3f
000001b0: 742e 29bf de07 e43f 7cbd f4df d2f4 e2bf
000001c0: 2c15 53df dd89 e8bf 7847 c0f4 4c83 e1bf
000001d0: 9944 e820 5f45 c7bf d882 9316 ce45 f03f
000001e0: 41c9 8287 2816 e53f ca8a 5abe c6e4 98bf
000001f0: cdef f29e 4b16 e8bf 4ac7 5020 5a63 dfbf
00000200: deb5 d467 3322 d13f 4f52 ef23 44b2 9fbf
00000210: fd61 7647 8af6 ca3f 44d4 8f44 3b46 e23f
00000220: 082c 093e ee7f f2bf 43e4 3ef9 708f d2bf
00000230: 1914 e50c ef76 ce3f f08c 95a6 4eb1 eb3f
00000240: dc4f fca4 5704 f43f 2cf8 ecd9 df18 eebf
00000250: a442 b13e ccdc debf 8e04 d033 8dc3 f83f
00000260: d8a2 d436 1cbc e43f 168b e1c8 5ae4 e0bf
00000270: 25e5 a052 02e4 e73f 9ed0 0af9 83b1 c53f
00000280: aaf7 6ee3 3975 f43f 12ef b55f d262 f3bf
00000290: e8b8 72d6 fd3c dbbf 4476 ac1d 2d6e ddbf
000002a0: baa3 e288 2ad7 e83f ad9f a015 795e e2bf
000002b0: ec60 2ec8 242d f63f ed75 56bc f4cd efbf
000002c0: 8893 fba1 c508 f4bf ba87 6369 c0e4 e1bf
000002d0: e73c 58bf 5554 a13f 2575 5b49 ff9b f8bf
000002e0: 8a31 e413 7831 c33f 7b8c 1ac8 6a57 c9bf
000002f0: abe5 c993 9ebe b73f 1b6d f43d 8cec e4bf
00000300: ddb7 9acc cdda eebf 7a1a 4019 6e9f 993f
00000310: fb34 a45f 5eae eebf e602 795a 9488 febf
00000320: b81c 94b0 f50d e0bf 6adc 7641 645b c43f
00000330: c815 2f5e 15e2 cabf 3639 5960 c23d 02c0
00000340: 0c00 2c18 690c 08c0 7d5b 79eb b049 f2bf
00000350: 1e96 0c3d 3575 c9bf bdc3 4024 b739 c03f
00000360: b5ea 020c 841f e9bf 0b77 6435 4ad1 e1bf
00000370: 471e 2839 84c8 c23f b439 bf99 4d00 f9bf
00000380: ee3d 5118 4303 e63f 4085 6dd5 10da d63f
00000390: cdb0 1bd5 61ee d6bf 7c96 e878 9580 e1bf
000003a0: df64 b7d4 e530 e0bf 8562 ad84 472e fcbf
000003b0: 9287 3e51 ad15 e63f ba07 5285 25e6 f4bf
000003c0: 7fe4 94bb f1b2 cd3f e312 f9a8 6dc0 f3bf
000003d0: 51b1 be2c 2086 f2bf ee4d 296e b46d fdbf
000003e0: e757 6377 5eae d53f 1276 4d51 b0ea ae3f
000003f0: 6ab9 f090 af9f f0bf c586 a028 baca c4bf
00000400: 17d8 3d07 7fd2 e3bf 87a7 b108 dcd6 f9bf
00000410: ebf1 477b 8ab3 a9bf 7f13 38cc eb97 f13f
00000420: d4a1 699c 4f7e c33f 1e1a cfc9 3e01 fdbf
00000430: 670f 9c96 132a aebf 3700 230e a0fc f3bf
00000440: 27e4 2d73 f41e c7bf ecc8 8e01 a04e f4bf
00000450: 7bca 13c8 e2fc f2bf 047d bf3e 335f bdbf
00000460: cc64 51b3 6c02 d33f 1c9f 1601 7de3 eabf
00000470: 59fa aef4 10ba f6bf cdef b596 246b d83f
00000480: d9a2 c246 a74f f8bf 307a ac32 4bce e4bf
00000490: ccae 53c9 e5e8 643f c2c4 d753 1f2a 05c0
000004a0: 703a a58d 2440 f73f 5f59 f02d 62f4 ebbf
000004b0: f181 2766 7815 fabf 2ee2 7cc5 89bb d63f
000004c0: 74fb 8de0 d9b8 e03f 0a31 6254 0312 f53f
000004d0: edd0 8120 40f7 e9bf 1350 0027 f71c f4bf
000004e0: f745 1bc8 7daa ce3f 0971 9218 e1b0 ebbf
000004f0: b169 7f84 c19a cdbf 464b bbbf ee1a fbbf
00000500: afcb eef5 f4a8 f9bf 2cc0 cff6 370a fdbf
00000510: 14a6 c565 a42d f1bf 5b74 36fc 8a54 d9bf
00000520: 1919 daf6 84e7 e5bf 2e99 a926 3ce0 dd3f
00000530: 20c0 b4a6 0cfd f5bf b165 4648 9ca5 f43f
00000540: 591d 4c2e 3850 b23f ba3b fa90 5102 febf
00000550: f6ae 364a 6366 dc3f 7ace 88c4 8cf6 bfbf
00000560: 9eb1 7f36 f97e c2bf e36e 77d6 09a4 e53f
00000570: 2822 eef2 4047 ac3f 77f6 d86e 3f25 cebf
00000580: 1d5a 9f0a d137 cbbf 4f7f d62e 0ba5 b6bf
00000590: 6f1f ffb2 dcad e13f 54f7 75dc eecf d93f
000005a0: 9dd5 3179 d5c0 e1bf c983 ba30 b0c6 f1bf
000005b0: d045 50e9 e065 f43f efed bd4f 0e5e cabf
000005c0: cc15 0bbd 3733 dfbf 8eec 59da a06f 05c0
000005d0: c529 1525 0f36 f0bf 09a7 84cf c07f ddbf
000005e0: e7d8 9606 9797 d63f 6af8 866e cec5 e5bf
000005f0: 2349 a745 a5d3 ebbf ff96 6488 010f e13f
00000600: e591 e408 605f c2bf 063d 59ba 803d f83f
00000610: 6200 90b9 eebf debf 9c34 ef1d eab6 eabf
00000620: ae4e bd09 5200 c43f 7dd6 bef0 dbff e23f
00000630: 653a e837 aa05 d0bf cd6a 4dfd d4e4 d7bf
00000640: 4f2b 1685 a35e e03f 8f02 3fba 7e82 dabf
00000650: 7eac 0cff a8da cdbf 7f74 21ae 005a debf
00000660: e2b9 b981 72a4 fcbf 4fab da67 905a d73f
00000670: 812f 38a2 4623 e03f 489d b672 da98 d83f
00000680: 39fe 7d40 9ce2 f2bf 798a a1dd b82e c9bf
00000690: 8544 cf4a 2028 bcbf 836d b049 b385 ecbf
000006a0: e97e f79e 8f00 d93f e7fb 6e9e e5c4 f33f
000006b0: 2e0a a241 0b23 ddbf 504a ff11 0c38 f23f
000006c0: a36f 2dff 76f0 b7bf ede6 983f 074e d9bf
000006d0: 7347 cd8f abd7 f2bf 6b52 94ea f85a d5bf
000006e0: 0cca 2da9 694f 94bf 046e ff7e 5c83 b93f
000006f0: ef51 5650 a5c4 efbf a242 1a4f 8e07 c33f
00000700: 753f e70e a9e2 efbf b40f 6e54 979b 01c0
00000710: cfd5 49b7 bbd4 f2bf 3d71 a0d5 03a8 e63f
00000720: 2a23 f776 a041 d33f 2f2f d4b9 fb47 da3f
00000730: 71c7 a1a3 7150 f0bf b6ad 9982 38ff b4bf
00000740: 6c2b 789f 4c35 c0bf fc3b f48c 95b0 f03f
00000750: ed6c 054f 9f04 f53f 8d67 6b58 2e64 d73f
00000760: 5158 24c6 5fd2 e8bf 9913 9c47 1a9c f33f
00000770: e9a6 c524 a459 f8bf 5c24 59e3 e487 d43f
00000780: 5bf7 c06e 94ac cabf 331b 9b83 9eb3 d6bf
00000790: 6906 9a63 eb46 e4bf fdc4 a745 494d f83f
000007a0: 7787 ff7d 0c15 e0bf 20a0 d7f1 65b7 fbbf
000007b0: f34d 9aee d5d8 e63f 3fd2 1f71 684d f1bf
000007c0: 98c9 fbd8 cdb7 ef3f 379b 6123 a2c7 cf3f
000007d0: b65e 1516 95a3 f3bf 4868 1830 d206 f43f
000007e0: fb15 77fa 551e edbf 3dd9 94c8 4469 e93f
000007f0: 678e 24f4 6716 fd3f d11b 43f5 37be e83f
0.5815144043636927 -0.6211630205203814 -0.8109916709681428 0.7325355841701776 -2.5437103882364447 -0.6286365305028049 -0.6105760973087123 -1.7257052299670566
0.290951432186177 -0.18059184861452465 1.4617048162965638 0.44396900421474383 -0.5629736824491239 -0.6937019351335736 0.15928556414928902 -0.4128668458266548
-0.8367413365620009 0.4981073888236934 0.6891069001798288 -0.9666406851741108 -0.006391434256831118 1.01620433760808 1.6311855966572888 -0.3220895957038058
-0.22920905614935438 -0.6666548363523453 -1.0413824946013717 -0.07718892278523792 -2.3999768766711593 0.3011811361857722 0.9364783833407688 1.8354418736353604
-1.7834419753983393 -1.769054173344847 0.15425951651487732 -0.6351550723522884 2.32663534592832 -0.9537208041057121 0.7661539261265978 -0.9107420959729772
-0.633226246109766 0.3211040784710257 -0.3837750324250737 2.0046106118413136 1.8917978175836085 -0.12346710644911194 0.07717181478776054 -0.42589115363972124
-0.2705680023028616 -0.8806976322714909 2.155488656123507 1.422030112685784 -0.24031673427671973 1.7768243393263632 0.6259607061014791 -0.5923857092038101
-0.7668294297988374 -0.547277906445955 -0.18180455309678648 1.0170422441371354 0.6589548727700177 -0.024310212486521356 -0.7527216057273961 -0.4904389682370619
0.26771245136009536 -0.030953468983925977 0.2106488083779964 0.571073182973699 -1.1562330649637733 -0.29000496235272893 0.23800457124357946 0.865393948898058
1.2510601467847584 -0.9405364281044561 -0.4822264301520056 1.5477420829704758 0.6479626723203991 -0.5278753207643117 0.7465831388318845 0.1694798437143889
1.2786196598167217 -1.21162640940651 -0.4255976289959009 -0.45984962365932724 0.7762653993169046 -0.5740323469553822 1.3860214061333478 -0.9938911131354736
-1.252141602272987 -0.559173780286293 0.033846549613480374 -1.5380852571027586 0.14994717570551713 -0.19798025866211674 0.09275237186547851 -0.6538754663519372
-0.9642094608477653 0.025022239962732652 -0.9587852352139231 -1.9083446058359015 -0.501704068069464 0.15903905102252064 -0.21002451990913884 -2.280155899737248
-3.0060598267009535 -1.1429909895138899 -0.19888940316120424 0.12676133413472526 -0.7850971445653473 -0.5567980807133791 0.1467442778668888 -1.5625740056744748
0.6878982043216959 0.3570596775299073 -0.35829969226211916 -0.5469462739462894 -0.5059689669243673 -1.7612986738878658 0.6901461207200887 -1.306188126357013
0.23202344569452646 -1.234479579973759 -1.1577455280158413 -1.8392833998849443 0.338767639722731 0.06038428299391908 -1.0389857923251733 -0.16243674262755384
-0.6194453374325829 -1.6149559344871436 -0.05019791369338463 1.0995901086145918 0.15229220521292908 -1.8128040202296982 -0.05891476834770409 -1.2491760780540184
-0.18063216804492407 -1.2691955624437083 -1.1867397132415636 -0.11473388940747858 0.2970229865218925 -0.8402695676095138 -1.4204263265561592 0.3815394851478658
-1.519446636588489 -0.6501823415490602 0.0025524604812881876 -2.645567564985499 1.4531598599457105 -0.8735819718593055 -1.6302417745974902 0.3551964214889577
0.5225648294289003 1.3168977066262095 -0.8114319453148063 -1.2570716403470257 0.23957798262431115 -0.8653417091295817 -0.23128527612318586 -1.6940753449932386
-1.6037492377042601 -1.814994777781986 -1.0736431098433785 -0.3957850897803092 -0.6845116444899616 0.46681121612199916 -1.3742796432452522 1.2904322455636754
0.07153655176454289 -1.8755660689528058 0.4437492584936388 -0.12485580251887454 -0.14449992333483136 0.6762742222594763 0.05523112264114999 -0.23551171219326125
-0.2126408864848636 -0.0884558667516988 0.5524734016444038 0.40331622628570085 -0.5547892920573535 -1.1110078719577692 1.2748726953326361 -0.20599535840652503
-0.4875010820508947 -2.679506021374954 -1.0131980370084517 -0.46092243447729736 0.353002315935909 -0.6803962858900949 -0.8695856438082824 0.5330817855762858
-0.1435356181547284 1.5150153426400848 -0.48046463128412686 -0.834828432527178 0.1562597796970428 0.5937328054485104 -0.2503457590072798 -0.373341796270023
0.5115525817248939 -0.4142147845086947 -0.2332354779585763 -0.4742433262343368 -1.7901482646371893 0.36490259305962963 0.5043061416958922 0.3843294258353649
-1.1803247946953788 -0.19673834630801304 -0.10998727632910928 -0.8913208426705953 0.3906592419061626 1.2355705441293539 -0.4552639141985847 1.1386833861366945
-0.0935129521362215 -0.39538747034713034 -1.1776538483868222 -0.33367751033919174 -0.019834185553415692 0.09966066456347994 -0.9927546090207765 0.1486680876010001
-0.9964185038643182 -2.2009722324455314 -1.176936832399736 0.708009640922263 0.30088054292405053 0.4106435122237028 -1.0196396247742678 -0.08201935947879843
-0.1266265658053628 1.0431113725678633 1.3136284910931935 0.3654895652267605 -0.7756804342232134 1.2256109997990505 -1.5218850551995564 0.3207943172643064
-0.20839171798609865 -0.35471308567177856 -0.6336571641297272 1.5188687058364956 -0.5025694332982614 -1.7322749564136828 0.7139691982469557 -1.0813984316747705
0.9911870229682789 0.24827982642747212 -1.227437101615505 1.2516652945255533 -0.9099531070611983 0.7941001813513037 1.8179702317073863 0.7732200422550425

input_gate_weights f8 [108, 81]
00000000: 9071 f1f7 7f58 ff3f 1fb2 2ba9 821a e0bf
00000010: b531 867e 8b96 ffbf 76f6 1730 9798 e93f
00000020: eeb4 7e8c dd68 f9bf f2f3 27ac c723 f83f
00000030: a885 d211 a4be a5bf 3934 2d70 0bb6 f83f
00000040: b9c3 aa0b 8f14 f93f 19a3 379a b88d d8bf
00000050: 3c30 448a 69b9 ef3f b0c5 a54a 4953 e4bf
00000060: 1d15 9965 2a24 b23f 1adb 3d9f d4fc f43f
00000070: fc6b 55c4 46c3 843f 9106 2952 4fb9 ed3f
00000080: b237 1476 713c b03f 2a41 dc85 cd97 fc3f
00000090: 8cbf 9265 143a fa3f c618 3122 7f2a db3f
000000a0: a26a c270 f7bb b7bf 1cd4 91ab 17f3 02c0
000000b0: 03f9 4ec0 70fc f23f ec8c d34c 6442 ccbf
000000c0: d792 51d7 6f90 e13f 2adc 1044 576a e8bf
000000d0: 625b 935b cac2 e93f 1463 3abc 7d7b d63f
000000e0: 0d70 d9c6 59bc fe3f 3cbe 27b2 4ad4 a23f
000000f0: 9140 0fef f72c 0640 216d 1eab 4431 f9bf
00000100: 4552 83c7 6913 873f 3773 166c 4760 ff3f
00000110: c03a f3aa 5831 f63f 28de 1249 d97f d13f
00000120: 4d03 3c68 28b0 f63f 16a7 8b9f c148 f1bf
00000130: 64b9 ddf9 ff4c f13f a146 7297 6b6f e03f
00000140: a0de 0d5e ad29 d53f a4da e2ed 363f e83f
00000150: 57bc 61bd 8283 e9bf a008 64bf d1cf f53f
00000160: a051 6aad 2622 a8bf 9b16 b340 106d a43f
00000170: b474 e58c f3bc d63f e96f cebd f266 d53f
00000180: 4740 7b91 39b4 eb3f a6c9 2065 fe5a f1bf
00000190: 61a3 66ea 7343 d4bf 1d0b d44e f9e4 e33f
000001a0: a2e6 e831 450a d73f ab9a 5bbf 5b0d ec3f
000001b0: 50eb 0869 2a53 f63f c8b0 0fbb 7627 e8bf
000001c0: 3578 f028 f6b4 f0bf dd4d 5a85 3b55 d73f
000001d0: d049 04b8 6481 dd3f 365b 8d98 9b98 f33f
000001e0: 807b 4eb4 d921 0340 e155 4394 eff7 d33f
000001f0: 0a87 93ec 8198 e23f dfc6 0b1b dd5c e2bf
00000200: 5aad 2fa2 365b ecbf e3e7 ab1b b418 fd3f
00000210: 0dfc a37e d3a9 ef3f 4afc 1c3a 3035 f33f
00000220: 33b4 a324 af14 febf 882c 6c39 2933 f13f
00000230: 1f06 51c1 1963 d13f 0131 3011 0d78 953f
00000240: 913e 32ce eefc f73f 0d63 a4a7 111b f63f
00000250: 3d0e afb7 666b d33f 1d08 c4f4 1b8f c03f
00000260: 4613 05b7 87c8 0140 82be f2fa 2944 d1bf
00000270: a643 524e baa9 f53f 2d04 06a2 57cf fc3f
00000280: e57c 443e 94ff f63f 8bc0 1435 7689 e0bf
00000290: 28cf deec 92a6 eabf 7b62 7892 189f c9bf
000002a0: 646c 7618 74ce d7bf 7fdb 857a 10a8 e0bf
000002b0: 9657 b6a9 97f1 ab3f 2e8c 5936 c4a1 e7bf
000002c0: cd7d acb8 bd4b d7bf 3bd0 a50a 2868 d1bf
000002d0: 8ec0 30be 10c7 d2bf ce31 a1a4 ccd9 d1bf
000002e0: 1474 ee24 b374 fabf d0ed 6143 3792 d6bf
000002f0: 2f00 cba1 3a88 d9bf 886e 2abd c95b b8bf
00000300: 5a5f b1a9 11db d3bf 1cae 339c 1cd0 ccbf
00000310: 6493 60d0 e74f c6bf 83e7 6532 a0af e0bf
00000320: cac4 265e b0bd f3bf d931 15fc c2a1 e43f
00000330: ae31 0a14 3f67 e63f 096e 7304 165e f0bf
00000340: 23a5 3083 5353 f23f 7a34 ef9c ea57 f2bf
00000350: 676b ff44 a5be a2bf f227 0161 43f6 bbbf
00000360: 4b99 1fa4 ab06 e13f 5b6a 7d2e cc63 f0bf
00000370: ae1c 3afe 98fc ecbf b259 5c7e 2e27 c1bf
00000380: d114 3c41 d60e cabf 717f e9e9 18e3 e8bf
00000390: fc32 8ad3 8180 6cbf f228 d0d1 d63a d3bf
000003a0: 5476 8909 6688 893f 5f88 004b 559a e33f
000003b0: 1a77 a508 ec79 c3bf aee9 ceae 348e edbf
000003c0: bf3a bc13 c950 e0bf b0b0 7121 1ba1 ddbf
000003d0: afbb 74eb f28a f1bf 5b2a 80ad 1aa9 e83f
000003e0: 360c 2d60 d8d7 fabf 3930 aa81 c012 f8bf
000003f0: 30af b2a9 d5d3 f4bf 3fbc 9b07 c65e d9bf
00000400: 91f0 2b1d 8ee7 e8bf 00c3 fb06 8486 ac3f
00000410: ed04 c5a6 a97c dc3f ed82 662a 49ce f2bf
00000420: 3aa1 dc05 406d cbbf 65f8 8c95 4b6b e2bf
00000430: 92ff 72fb f0e7 f3bf b6d2 11ae 5d02 d53f
00000440: 6acc 6f26 19aa d53f ebfd 0bb0 37e0 e9bf
00000450: 0a16 a9bd b3d9 e5bf 7a25 405e 7287 f0bf
00000460: 0176 c2f1 c7b4 f2bf b047 e029 29f9 69bf
00000470: 5426 b3e1 b8e2 febf e9cf 0f80 d8c6 e6bf
00000480: b7be ced0 f6e0 d9bf 757d 49cf 564e de3f
00000490: e382 28bc 867e c43f 0cd0 f92c cc30 fdbf
000004a0: c6b1 c8fc ec61 e1bf ce01 f601 dd26 bf3f
000004b0: c824 43a8 3cb6 dbbf 797d 336e ab95 f5bf
000004c0: 7fcd 77a7 f085 f3bf a247 92bb ec68 e0bf
000004d0: e388 d022 c470 d8bf e932 1bd8 ca4f e8bf
000004e0: 0566 537a 60ab 02c0 1ac2 709f e741 b2bf
000004f0: 98ed 0498 4b28 97bf 6807 3e0a 773e e5bf
00000500: 2e63 1355 798a f8bf 1c75 dece 29a5 ca3f
00000510: 30d2 eaa2 5b4c bb3f 1bf0 ffaf 6732 e7bf
00000520: 5240 0b81 6fa6 f7bf dfea df3a ebb8 f1bf
00000530: bea7 34ea 4821 fdbf 3f0e 310a 869e 98bf
00000540: 6fb5 fd15 1fde a13f 5f1f 05f8 a42a c0bf
00000550: 732d 5137 cebc c4bf d041 a878 2916 dbbf
00000560: 3f42 969a 3296 e43f 7974 011c 9983 fbbf
00000570: d7ef 0bc5 c071 a5bf 52c5 0013 52c2 e5bf
00000580: 4f74 17d7 7e6e f2bf 3c8f d783 bae7 e53f
00000590: 9725 b3fc e09b e33f 093d 1c98 668b e23f
000005a0: f877 c70e f224 e03f d5a3 fa43 1012 e5bf
000005b0: ca65 d9a8 99b7 de3f c3fe 3fd1 f7b7 cebf
000005c0: 6296 1f94 29df e7bf 5f98 afbf b19f eebf
000005d0: 7607 9ae7 7017 f2bf f2c2 4a6a fbcc e7bf
000005e0: f26a 2152 58f8 f63f 82b9 756f 14d6 d8bf
000005f0: 0a8d a47f b0dd ebbf 88ac f0c3 da74 e0bf
00000600: cca4 1258 f766 ed3f 6d8e 373b bfe7 f0bf
00000610: e37b bda6 67c6 f5bf 7d53 187e 448b be3f
00000620: 41fa 10f4 6da5 ecbf 267f ae6d 82e8 d23f
00000630: 578d 2462 6b7f e03f f904 ec0f 01c9 f4bf
00000640: 6d48 7b0d ab01 b3bf 474c 58f1 fd46 dcbf
00000650: 0bbb f1ca 4517 b0bf 92c9 853e 51dd f0bf
00000660: 16c1 c81c 8949 e6bf ca46 7b88 1a43 f1bf
00000670: 1410 7436 5275 f4bf 9bc9 23a1 6203 fbbf
00000680: b8cb 2ec4 4d33 d0bf b5f9 7a2d 8432 f3bf
00000690: 1f81 c91a a65a e13f 8035 117e edaa d8bf
000006a0: dccc 7871 f4e5 f1bf 675d 5a96 cefe edbf
000006b0: e87b c874 c553 ddbf 5757 630b b7f4 00c0
000006c0: 5bcf af62 02a7 ee3f 675b d060 0058 e0bf
000006d0: 9d80 3284 9d25 f2bf c698 38be 20e2 c8bf
000006e0: 899e fb90 aeca f5bf 6a0b 1b37 7c35 e3bf
000006f0: b70e bc1f ff7a e53f 157f f328 a570 d0bf
00000700: 8848 1399 5db4 f5bf a2b9 8f41 6964 febf
00000710: 60c4 4786 898b e2bf 4e73 b729 58af a2bf
00000720: 7aa9 9226 b69e ce3f 8390 2e46 9631 8b3f
00000730: 9432 f0cb 2389 debf 9495 2569 f04d b43f
00000740: 3fbb 039b fe94 febf 4d9d f0dc 88c5 f0bf
00000750: 0d32 07ce da6c e1bf 36c7 540b 9c9a e53f
00000760: 3906 a409 e3b6 df3f 48d1 2177 f7c1 01c0
00000770: d02a 2f13 bd85 d33f 3065 d7a4 fefd e0bf
00000780: 411b 44bc f1ae ddbf 6cd4 3c30 dc27 d7bf
00000790: 61c5 2d08 10a8 e43f 3ed6 c28b 9812 b2bf
000007a0: 7ddf bada f2b2 e4bf 09e6 33ea e3df b5bf
000007b0: 3754 ae11 89d7 e33f 4701 6f3b 2593 d7bf
000007c0: b375 b688 a11e f93f e10b bf39 f899 e13f
000007d0: eaea 6322 ac3e d2bf cd77 223c ae14 e63f
000007e0: a048 cff7 b887 c93f adf4 1431 7ed7 fd3f
000007f0: 216b 9cde 2736 f03f 0e9c fb9b f4f3 d43f
1.9591064152983542 -0.5032361320605253 -1.9742541258193402 0.7998767794922077 -1.5881019104083935 1.5087353443952876 -0.04247009961660392 1.5444445020577986
1.5675192313903905 -0.38364996967588777 0.9913833332552779 -0.6351667840919415 0.07086434345645327 1.311726209676357 0.010138085238102328 0.9288708309834012
0.06342229016101333 1.7870612362785985 1.639179608126116 0.42446878756562645 -0.09271189215579992 -2.368697491062006 1.1866309654283789 -0.220776116860271
0.5488814549867936 -0.7629810647403066 0.8050281323038286 0.3512873018421925 1.9209840552857742 0.036775907752482045 2.771957271244965 -1.5745283779459174
0.011267496491577886 1.9610056135345084 1.3870474508036494 0.27342826973060363 1.4180072852761498 -1.0802627784964378 1.0812988052744794 0.5136011083543118
0.330668775415214 0.7577166219915239 -0.7973035525191204 1.3632371402932577 -0.04713555209051212 0.03989458837308498 0.3552826763096377 0.33440846000462315
0.8657501069483339 -1.084715266257811 -0.31661699190822473 0.6217009105315331 0.36000184892655274 0.8766306626756281 1.3953041174815617 -0.7548173574009747
-1.0441800688927405 0.364577179171844 0.46102254839311474 1.2247577628201731 2.391528519291967 0.3120078037148613 0.5811166401510672 -0.5738359001390697
-0.8861344497394541 1.81853113946135 0.9894807313393145 1.2004854459808194 -1.8800498419980272 1.0749904864376578 0.2716736209732477 0.020965770887458216
1.4992511801282584 1.3816086338540032 0.30343025148269814 0.12936734630062655 2.222915105669389 -0.26978539950048497 1.3539374408175973 1.8006206826251046
1.4373972351384563 -0.5167799984683524 -0.8328337313055032 -0.20016772415035064 -0.3719759215252394 -0.5205156701111803 0.05457757898982078 -0.7384968816298902
-0.363997869821074 -0.27198220290961544 -0.29339998791966415 -0.2789184196197113 -1.6534911577830416 -0.35267430858922655 -0.3989397602090347 -0.09515057438187047
-0.3102459103733871 -0.22510106684727382 -0.17431352305097925 -0.5214386925065216 -1.2338107755461345 0.6447462962619809 0.7001033202555413 -1.0229702161658472
1.1453433155641697 -1.1464639787912163 -0.03661076037652471 -0.1092264282061988 0.5320642667327687 -1.0243646446239356 -0.9058346715327354 -0.13400822801550089
-0.20357778725898482 -0.7777218407245369 -0.0034792457266291637 -0.3004662560421273 0.012467190900845505 0.6125894989857094 -0.1521582643717288 -0.9236091055129714
-0.5098615060286064 -0.4629581286051332 -1.0964230725764812 0.7706426037487505 -1.6776965863107427 -1.5045781197577652 -1.3017174366786541 -0.396409518651982
-0.7782660074003777 0.05571377358672258 0.4451088074311674 -1.1753627449290278 -0.21427154813978594 -0.5755975647841863 -1.2441263029322482 0.32826940535532445
0.3385069728239559 -0.8086203039564998 -0.6828249649340148 -1.0330680543578112 -1.169135994313706 -0.0031705669380323806 -1.9303520981215074 -0.7117731572347995
-0.40435572043768836 0.473531439236431 0.1601112765065614 -1.824413467108573 -0.5432038247286577 0.12168675706744311 -0.4329978602587059 -1.3490404419643183
-1.2202002088277764 -0.5128081954483046 -0.3818826999651163 -0.7597402783227071 -2.333680110616799 -0.07131812708463095 -0.022614651826399518 -0.6638751220745975
-1.5338071177740846 0.20816538430236953 0.10663387992355733 -0.7249029576773894 -1.4781336823252968 -1.1076462077896208 -1.8206261776599457 -0.024042219516799298
0.03489777701802665 -0.12630140409805343 -0.16201188756017934 -0.4232276609700678 0.6433346766735396 -1.7196284383747111 -0.04188349156717635 -0.6799707766678387
-1.1519764329925868 0.6845371794738422 0.6127781806509799 0.5795166941551609 0.5045099533706425 -0.658455021640402 0.479956068889433 -0.2399892589310096
-0.7459915059122972 -0.9569939369073487 -1.1307229086819155 -0.7437722278610563 1.4356311042999406 -0.38806639561416756 -0.8708117001555433 -0.5142644717174258
0.9188191147015004 -1.0565788567700125 -1.3609386933601335 0.11931255415431781 -0.8951940314216885 0.29544125281425904 0.515554134068604 -1.2990732786132055
-0.07424420432224262 -0.4418330056079793 -0.06285511212056975 -1.05403255865949 -0.6964765131179174 -1.0788827258406166 -1.2786428572735575 -1.6883264822505228
-0.2531313339088075 -1.199833085687357 0.5423155329881729 -0.3854325991749974 -1.1186413223738816 -0.9373543678838531 -0.45823799519160824 -2.1194897546474
0.957886879680227 -0.5107423678299313 -1.1341834224659018 -0.19440087593210914 -1.3619828856844 -0.6002789570123757 0.6712642307106397 -0.25687531470428954
-1.3565345744614508 -1.899514442538568 -0.5795333502447981 -0.03649402150379065 0.23921849139635382 0.013278173462659254 -0.4771203509888349 0.07931425635395889
-1.911375623250663 -1.048226225897298 -0.5445379280077433 0.6751232358276187 0.4955375284335762 -2.2197102839656147 0.3050377547594225 -0.5310052127416949
-0.46380275140147736 -0.36180786810593335 0.6455154571287204 -0.07059625064979344 -0.6468443176336077 -0.08544754474487361 0.6200604768115515 -0.36835604480804246
1.569978269609561 0.5500451209885534 -0.28507521971157124 0.6900244879250238 0.19945442295153715 1.8651105801830383 1.0132216163389745 0.3273898623724002

output_gate_weights f8 [108, 81]
00000000: 0634 5f26 9cb4 eebf e3d2 858f 9111 f4bf
00000010: e343 6b5e 4c9d f1bf f938 cb16 c4d1 e53f
00000020: 92a3 d2f2 bc5d febf 229c 25e7 a7b1 ff3f
00000030: 0b4f 166a f602 c93f a6b2 5d84 240a de3f
00000040: aa7d d000 5873 0740 8dbf 08f2 d5fa e9bf
00000050: cf8a e15e 795b f23f a6b6 abe1 a94a e13f
00000060: a7a8 d3c2 a385 debf 9f85 dc1f 1b2d e93f
00000070: dd05 fc41 b193 efbf 0de3 edda bceb ca3f
00000080: a5b2 4d06 846a d83f d15f 0d20 8d75 0340
00000090: db6c 1bc6 f453 0040 1090 7f83 64c4 f1bf
000000a0: d8a8 e3d1 614b d83f c643 74de a451 f3bf
000000b0: 7231 e3d4 e71e f73f 0ad9 49fa 5b10 aa3f
000000c0: 28fa 821d 72c0 b1bf 9c97 e19d 25f0 e4bf
000000d0: b3fc 1a6c 28d3 ab3f 3c4a cbe2 36dd ea3f
000000e0: 1cb0 b7da 9754 d73f 995e fcb2 82e1 cb3f
000000f0: bf48 9e3c 1df2 0640 63b5 eeb2 aaa2 d5bf
00000100: 36bd 9834 c283 e4bf 3e4a 57ce 5a8b f13f
00000110: 07a0 238b 7d8f b0bf f7b7 e904 ad22 e83f
00000120: dee5 5fe0 45c1 f23f 41fc 85d7 2c7d fbbf
00000130: 4f18 f728 3b07 f33f cdbe a6a6 ae92 d03f
00000140: ff9e 89c7 5f26 b93f aee0 499d bc0a e6bf
00000150: f27b c2ec 4d57 edbf 3b16 c6e5 7a3c fb3f
00000160: 216f 8134 677f f43f 86da e438 b279 dbbf
00000170: 6367 22d2 c846 e8bf b58d 94aa 5838 c7bf
00000180: 2b56 000f 29db d83f d74d be02 c213 d1bf
00000190: 9cab 9682 0bd2 d43f 264a 0ca2 692b cc3f
000001a0: 10db bd1e dc94 b23f d7a0 8f4a bd79 f33f
000001b0: dc70 b1c2 a00e f33f 58f0 cbb5 0c26 e2bf
000001c0: 3b9e 61ca 4b2e ffbf c1d1 580e f3ca d83f
000001d0: 0b3c de4b 1af6 f2bf 83c6 7679 8c49 e23f
000001e0: 6623 384a b4fa e93f 8a9c 3475 b038 f33f
000001f0: f1ef 311f b6d9 dabf 8275 7042 5641 f5bf
00000200: 5253 de46 7a01 f4bf 3c4f 3953 07cb f23f
00000210: 1626 9e5a 590f e93f 6ffa 56e0 f1c8 fa3f
00000220: a7a8 9b49 3495 00c0 ad97 6bd6 d8ff f33f
00000230: 3aed 8fb6 5a85 e3bf 86e7 3a18 1230 b23f
00000240: e3ec 9f1b 2ac5 ff3f 8cf2 c216 4c12 e23f
00000250: 3604 ad35 9dd5 e5bf 7269 bf8e 5a5a c13f
00000260: ae8b 0857 dab6 fc3f 9e9c ef74 fe79 f0bf
00000270: d961 7585 a3cf fa3f fc19 349f 20c2 0240
00000280: 690d 7018 2432 f83f 747a bfe8 14fa dbbf
00000290: 0491 1654 7328 c5bf 7bb0 35c5 5e0e f4bf
000002a0: 4afc f436 bace c6bf 36c5 7efd 65aa d0bf
000002b0: 0b4d 7b30 9f0f db3f f0d9 bcbf 26dc dbbf
000002c0: 98ba 276d 702c eabf 51fd 5ece 11bb d9bf
000002d0: 9ded ca3c 4473 e73f 3183 f007 71ce b03f
000002e0: 558f c0d2 5951 f8bf ea0d 146d 7059 e6bf
000002f0: 63ad cbd2 1785 bf3f 6192 f3d4 24df ecbf
00000300: 0057 7b28 732a f4bf 5abd 2a71 2bbb e53f
00000310: a765 10a4 25d9 bcbf f0c5 47ac 8a55 e0bf
00000320: 9005 c0db 0ec1 fabf d673 3b19 4cf1 ea3f
00000330: b308 0386 901d f9bf 5f34 35aa 572c f9bf
00000340: c733 eef6 ad73 d4bf b218 17bd 2cae fcbf
00000350: 97c0 c1ca 58e7 ce3f c9f1 3645 1ce8 fcbf
00000360: 212c da72 f8f5 f3bf fab1 b5a3 ee53 e8bf
00000370: a306 4fe0 9554 e3bf 226b 8d0b d865 94bf
00000380: 1d2e 0a6e c2a8 f2bf e57b 7324 a72a e6bf
00000390: b9c4 9fa6 20d7 f1bf 4563 e6b9 0330 ffbf
000003a0: 94f3 a145 b668 b03f a50b 37a5 76d7 ba3f
000003b0: af8c bb9b 6315 f73f 432e 354b 16c4 f7bf
000003c0: acd4 4201 6417 c7bf fc45 7bcb cdd2 ffbf
000003d0: eb6d 75e1 792f f6bf 40e2 5302 be2e d9bf
000003e0: eb69 a0b8 e2dd f3bf 8f11 6df8 60d4 e3bf
000003f0: f701 e21a fcac ecbf 4bca 3fd5 5df8 e3bf
00000400: c711 f143 04ff f3bf 3c7d 0290 4ac7 e4bf
00000410: 2cea bd44 f3cd d53f a38e daef 3836 e3bf
00000420: b598 6b26 51f3 be3f 3860 2a7a 5a79 af3f
00000430: 41fb 1c69 ee7f c9bf edaa fac6 591f cb3f
00000440: 5c29 fdc0 998c d73f 8e88 0c60 0bd0 eebf
00000450: 5df1 1433 c565 ecbf 1f3d 39c2 2e65 f1bf
00000460: 380d 2436 b306 debf c961 8f56 3390 e6bf
00000470: 9747 f4de 0826 f4bf 962c 8774 8d97 c33f
00000480: 01a2 ffad fb6b c7bf 2234 58a8 da6e edbf
00000490: 811f 8bc4 7cc8 ecbf 8bfd 5592 134d 04c0
000004a0: e4c3 31d5 46b3 b9bf dcf4 efe4 d8cd debf
000004b0: 6d15 cfd3 374e c6bf c08a e0b5 ce68 3c3f
000004c0: d6fa 0ff0 54ea e0bf 876c bd6a 3a72 efbf
000004d0: 5cc6 9bc2 5008 eabf 39ec f14c 7da8 05c0
000004e0: f036 4b8e c08c b93f cc1a 31eb 3321 ebbf
000004f0: 8073 f8f7 2158 e7bf 153d 2601 d96b f3bf
00000500: 9b7f ccdf e020 00c0 3ade efc1 a7c7 ecbf
00000510: 1179 7e1f 0ab3 f1bf 4068 edc5 b2c5 c1bf
00000520: a3cb 6b57 ffa4 fcbf 999f 9592 55c5 e0bf
00000530: 64c6 06c0 c10d f0bf dd67 118d e491 f63f
00000540: 9a17 249a cee9 dc3f 2538 7fce 4ffd e2bf
00000550: 2645 adf9 ca52 d93f c6b8 5e71 0d89 903f
00000560: 0cb0 da34 1826 d33f 9238 6ee6 63dc eabf
00000570: fa7b e6b8 258c c1bf 3a90 7b81 4d5d da3f
00000580: 247c 0a28 ea41 f3bf 68c4 878b a97a 35bf
00000590: 862f 452f c1ba e23f 14c5 9a99 1bc0 e53f
000005a0: 67bc e80a 1156 d13f a751 d4c8 7bda f7bf
000005b0: e138 1e90 d2dc f03f 1334 817b 5192 ffbf
000005c0: e06f d960 bea0 e0bf d7c3 ff4d 1280 fdbf
000005d0: dcda d9cf c84a f2bf f261 06cf bd61 f0bf
000005e0: 25df 4540 4bde c8bf 47ef 0252 a339 f7bf
000005f0: f6e5 f56c e717 f7bf da4b d1e1 8370 bebf
00000600: 2945 5b06 337c e63f fb6e 83dd a3c7 f0bf
00000610: 53cb c559 3425 fabf 85b8 1b22 ac6b bfbf
00000620: 69db 258e fd91 00c0 6842 c8ba 97eb e73f
00000630: 0624 9e35 3f4f a8bf 836d 553d 04ae abbf
00000640: 8e51 bdd3 9f02 b03f 4a3b 6842 fa8c dbbf
00000650: 166c 8573 f6d9 ddbf 6389 1b5b e92e fcbf
00000660: d33d 3f8e 617a ecbf e90a 0144 95e5 e2bf
00000670: 83ec f61b 0bea e0bf 6ae7 1c53 c4b7 dfbf
00000680: 00a8 ccf5 756f f0bf dba2 0fc1 1736 fcbf
00000690: 134d 91c7 2b2e d13f 7c93 e896 e381 ccbf
000006a0: 5bf7 576b 76c6 f3bf 0f91 5415 7faf a03f
000006b0: bbe1 3acc 155a 91bf 71be 9f70 ae73 f7bf
000006c0: e671 564c fde1 e33f e062 b13e b291 983f
000006d0: 2d89 174f 5ed8 fbbf 8aaa d441 e7a4 d4bf
000006e0: be93 1fa8 84c2 f7bf 6fd1 0931 77d0 f0bf
000006f0: 03c4 d034 cdf9 d3bf 06e3 442d 83e5 e63f
00000700: f55d c670 83fc f3bf 70ea 40da 3b0c f8bf
00000710: 50f8 a62a e64b 00c0 6b45 7bc9 2e74 ecbf
00000720: 3ecb 4521 740a ca3f 065e 106d 0fb7 dd3f
00000730: 3f18 bf62 fd7d f3bf aa70 dc52 1915 c83f
00000740: 86de 13e3 2a20 febf 02c3 1025 aac6 e7bf
00000750: 3c7c aa05 a83f c03f aaf5 f1b7 8301 a83f
00000760: 4582 2870 2b8a e5bf 6b2e 1754 d221 e5bf
00000770: 074d 97b4 e667 bf3f aa7b 4f08 70be f4bf
00000780: e734 3cae 16ba cabf e2fc 5865 acf6 82bf
00000790: edf8 e739 7687 9f3f ac9f 7622 0ed5 cb3f
000007a0: 411f 0f4f ee65 f1bf de5b 0e4a 4a5b dabf
000007b0: 105a 1a30 4323 0340 5178 2cfd fd0a 06c0
000007c0: 08e0 d978 771c ea3f 2b14 9710 4fb8 eb3f
000007d0: f3a9 1b69 2db9 f2bf 6721 c0c1 21d0 f13f
000007e0: a036 976e 70c8 d8bf 8e86 b328 0830 0740
000007f0: 6f4b 7f4e 5642 e73f 5bff 19e0 cc92 de3f
-0.9595471143198899 -1.2542892080647838 -1.1009029091112488 0.6818561978523398 -1.8978852734819367 1.9808730153251948 0.19540291004215535 0.4693690579067983
2.9313201964975706 -0.8118695952634752 1.1473325449266445 0.5403642089492748 -0.47690671945623325 0.7867560980122795 -0.9867788590201446 0.21031914415268496
0.3815012036855399 2.4323980812150485 2.0409942128295433 -1.110447419800952 0.37960095879556155 -1.2074326219192115 1.4450453105847285 0.05090606146124983
-0.0693427393007161 -0.6543148120515414 0.05434538192411633 0.839503710705976 0.3645381580270184 0.21781953563253323 2.868219827251863 -0.33805339311478216
-0.6410838153150624 1.0965221462435149 -0.06468948981239474 0.7542328926044765 1.1721857800133573 -1.7180603426820797 1.1892654037669848 0.258952772851427
0.09824179288409239 -0.6888106414835613 -0.9169072746479954 1.7022656417406228 1.2811042834281994 -0.42930274539995883 -0.758640680712443 -0.18140705422511663
0.3883764883515563 -0.266830923728063 0.32532012703694035 0.2200748482942611 0.07258392096069266 1.2172215378323494 1.1910712819290472 -0.5671447325435208
-1.948802748252901 0.38738705063886064 -1.1850836719129372 0.5714781162589165 0.8118535470576773 1.2013401583042502 -0.41953805014031703 -1.3284514041218647
-1.2503607528971838 1.1745675326282727 0.7831236619833273 1.674058796240981 -2.072853636801557 1.2499626518051443 -0.6100286069553598 0.07104600040011463
1.985635860356347 0.5647335476456461 -0.6823259399753911 0.13556987733938858 1.7946418189755877 -1.0297836845218522 1.67569305546032 2.344788783814918
1.5122414545629346 -0.43713877419751346 -0.16529695134989464 -1.2535083487992142 -0.178183819612942 -0.2604002929247885 0.42282848104987697 -0.4353119728506547
-0.8179247028291057 -0.40204281953261495 0.7328206240994636 0.06565004772029394 -1.519861052752238 -0.6984178667484546 0.12312458893182092 -0.902239242478185
-1.2603637296028296 0.6790978632251765 -0.1126884007975578 -0.5104421009875164 -1.672133310698289 0.8419552319352259 -1.5697179064596127 -1.5733257912391065
-0.3195605193548627 -1.792523134835886 0.2414351453803689 -1.8066675857254373 -1.2475513922133887 -0.7602456281143184 -0.604075372794075 -0.019919753747085107
-1.166201047747456 -0.6927066528259017 -1.1150213726762515 -1.9492223035542378 0.06409777832045754 0.10485021146364078 1.4427219470315256 -1.4853728235056145
-0.1804013258130558 -1.9889657925126576 -1.3865908438664245 -0.3934779188853419 -1.24167129630825 -0.6196751453467629 -0.8961163067870633 -0.6240681805632645
-1.2497599271747377 -0.6493275463762198 0.34069520676681253 -0.6003689465182628 0.12090022266383722 0.06147272816923571 -0.19921665317994022 0.21189424720554176
0.36795657965253326 -0.9628960491138672 -0.8874231336299477 -1.087202795682806 -0.4691589382857333 -0.7051026049257924 -1.2592858037137142 0.15306251706929136
-0.18298288341544836 -0.9197819984416393 -0.8994735563983199 -2.5376349861614407 -0.10039179520551006 -0.48131391865883955 -0.17426202623588996 0.00043349310533550775
-0.5286049545973934 -0.9826938709988021 -0.8135150719592263 -2.7072702418641055 0.09980395769090555 -0.847803077086462 -0.7295083850072928 -1.2138299984833953
-2.0160539135249116 -0.8993719852287037 -1.1062108259425865 -0.13884577431127987 -1.79028257511957 -0.5240886557557928 -1.0033586026223924 1.4106183538883592
0.45177044918852405 -0.5934218438285411 0.3956782758951526 0.016147813839489066 0.2992001072077535 -0.8394031048390096 -0.1370894577821387 0.4119447483519739
-1.2035924495792267 -0.00032774581225598074 0.585297195744247 0.6797006607140781 0.2708780867132589 -1.490840706338625 1.053911745988039 -1.9732222389604928
-0.5196220294560554 -1.8437674567069189 -1.1432579154185794 -1.0238626562987716 -0.1942838729698845 -1.4515717700550839 -1.443335939051733 -0.11890434516071427
0.702661049285017 -1.0487402584903396 -1.6340831286185746 -0.12273670037004265 -2.071284399538332 0.7475088737574653 -0.047479605956205304 -0.05406201599790974
0.06254004401609434 -0.43047958836625766 -0.46642838746419224 -1.761453014267851 -0.8899390962850994 -0.5905252769665285 -0.5285697504217669 -0.4955912410401796
-1.027212104944283 -1.763206247467841 0.26844305504819593 -0.2227138983590996 -1.235952777205475 0.0325889314210902 -0.01694521006604231 -1.465742530763148
0.6213366023035263 0.023993287159416066 -1.7403243150261674 -0.3225649016264148 -1.4849897925680433 -1.0508949199257491 -0.3121216789032248 0.7155166515504738
-1.2491487889545827 -1.5029867673426018 -2.0370601017193977 -0.8891824660478681 0.20344401955261476 0.46429811144614097 -1.218259225586294 0.18814388795806752
-1.8828534002513222 -0.7430010532317228 0.1269426372209369 0.04688655491279843 -0.6731164160338002 -0.6603786127465815 0.12267915638885905 -1.2964935612323907
-0.20880397327019937 -0.009259554713138166 0.03079018333846133 0.21743942911893777 -1.0873854721302936 -0.41182191116371125 2.3922179945032056 -2.7553672579952395
0.8159749374744942 0.8662486385370632 -1.1702093225272818 1.1133134430293354 -0.38723383712645365 2.898453062037169 0.7268477948331177 0.4777099789134717

gate_gate_weights f8 [108, 81]
00000000: e552 5a3a 3f14 ef3f 6097 dc49 4494 f13f
00000010: d05c bb47 b7a4 cb3f 4b6e 10d4 198f fd3f
00000020: 7052 4b9c 695d c8bf 91b3 2307 cfab cf3f
00000030: afbf 8768 1c55 ab3f e4ca d040 438c ffbf
00000040: 1495 f3a8 8440 d9bf 8609 ac43 5086 f33f
00000050: 734e 31e2 72e2 95bf 84b5 e2ea 2839 c63f
00000060: 9e3a b528 69db c1bf 3611 f531 5c58 e8bf
00000070: 8366 ca94 8166 f13f c453 7b5e b3ba cc3f
00000080: fd6d 7dd0 47c6 e8bf 8774 006e 4f93 e83f
00000090: cb4b f867 6550 edbf aa63 159e 48e0 e73f
000000a0: 8933 e843 614c c33f d22e 69f9 ab6f a33f
000000b0: 3223 b245 1abb f3bf 81ac 9d89 ee21 ebbf
000000c0: d2c7 73fc ed14 dd3f fff6 749a da0f ebbf
000000d0: dc61 da40 f457 cf3f 93d4 5599 c660 eabf
000000e0: f890 3aaf f3a5 f6bf 5f8c d534 782e ed3f
000000f0: 7573 85a4 50f9 dabf 899a 4041 677c ef3f
00000100: 48bd 9168 076a 0240 7085 d700 0b17 f93f
00000110: d988 d34e cbc5 dc3f 2aba 72d2 c06d e53f
00000120: 3bf5 d5c3 a014 0240 c6cd 55e6 9685 e8bf
00000130: bba7 a208 6ba7 c23f aef1 1187 2ad6 db3f
00000140: 76e6 2657 508b dbbf 4561 62f4 1c4a 85bf
00000150: 5545 d35f 10e7 ebbf 0fa1 4d8b 9f8c e73f
00000160: b286 4267 7547 f33f 8a41 f796 6a03 d0bf
00000170: b6e8 a0e9 cd9f f2bf 7a4c 872c 7b52 e63f
00000180: 95eb d17b 2b33 d93f 0051 f849 82c0 f33f
00000190: 785f 20d7 dfac f7bf 5364 e2f8 cfc7 fabf
000001a0: a436 6036 ffcb c5bf ca9e 6b58 5d36 ce3f
000001b0: 7b75 e8a5 e40d e03f 6640 cec7 63a1 eabf
000001c0: 8ee3 fac1 3c31 ccbf 05c0 5aaf 4620 e0bf
000001d0: 5080 b726 a58e f23f cae7 c308 d29e e5bf
000001e0: 03bc 31d3 ecf7 00c0 245b 9034 6eb4 b53f
000001f0: 87cb 6d66 dad4 e9bf 3038 455c 2015 e3bf
00000200: 1244 3a0d fe82 bcbf 0a8f 8847 cc7a 0540
00000210: b7db 0368 9742 e03f fcbd c13c dda3 e9bf
00000220: d124 f48d ebb7 d5bf 7d31 bd6c 27bb b33f
00000230: d8e7 2c37 cc1e fcbf fb06 ca79 a647 e33f
00000240: 5484 5256 2f1a 06c0 f007 3e13 c286 d03f
00000250: c217 3f5a 2e47 cfbf 2dc7 d762 21bc 0240
00000260: 3b63 e62f 5185 fe3f 12a2 b28d 7b0a e3bf
00000270: 8f54 98d5 36bd ef3f 33e3 d4ea 7d39 cebf
00000280: b685 98a1 7d31 debf a1f6 6dae 0205 fbbf
00000290: 23f0 2c13 06bc f9bf 2fa0 4517 3a6f f43f
000002a0: 825e 0421 12f9 ba3f 6908 d7ca ef8d ef3f
000002b0: 76b2 cc0f a8e5 b8bf 8d0c 9d24 942c d33f
000002c0: 8f34 10af 73ea ee3f 2018 08d7 ae6d eabf
000002d0: 1532 ff7b 2335 f3bf 728d 6d43 0fc3 edbf
000002e0: 6b11 4cd1 a167 fabf 72d1 d52f 1055 d43f
000002f0: fb87 fe59 d899 fabf ec78 ae06 e5bf db3f
00000300: 290c 8bd7 ec8c e7bf 5fb1 8c7b 76cb f23f
00000310: fbd6 686a 6716 f23f 7c63 569b 8593 9dbf
00000320: 3f9c dd9f d36d f8bf 8f8a 492c 61f7 e6bf
00000330: 064e 1502 f70a a7bf 0a7e fc19 54bc dbbf
00000340: 364b 4b23 67ee 813f f3f2 604c 6e26 03c0
00000350: 5d0c 9f1b 7d7c cb3f 2079 35a4 52ce d6bf
00000360: 7676 7a7b 0044 f3bf 2bc3 1037 ffe0 f43f
00000370: cf09 d6ca ca86 c6bf 93ff 88a6 63b7 c7bf
00000380: 774c 6806 1d57 f5bf 73a7 00c7 eb98 d7bf
00000390: 81b1 3721 8bb7 e63f aa0f 8501 a669 f4bf
000003a0: 55b2 4a39 8223 d2bf 1c43 d98a e4fb cd3f
000003b0: 3cbd aeb4 da71 f63f d3b9 c244 3414 e83f
000003c0: 69b9 773d bc0d f6bf 753f 3325 26fe debf
000003d0: b2bc 41b7 b9fd fcbf 880e 8cd2 a64b 70bf
000003e0: f117 9ad0 99e1 fdbf 6d81 f358 0820 d23f
000003f0: 6a24 180a 4bc2 e3bf c8df b1eb b2a3 f03f
00000400: cdb9 5f4a 8db7 d6bf daba b9bf 479b e73f
00000410: 9c00 07bd 3bd8 f3bf efaa 96c1 a94f f4bf
00000420: 7594 8c15 a519 e2bf c419 ad09 8c79 f43f
00000430: 94c1 a1df 7e53 e73f f5df cf64 6ff4 c2bf
00000440: 6160 2a6a 2e66 fe3f 336b 83d5 f8ed db3f
00000450: 6ab0 7641 3397 dcbf ef46 6ad5 155e 02c0
00000460: 0dee ebb1 ebc1 f53f 30c9 5378 1c30 d7bf
00000470: bee1 61c3 15ff e2bf 5fc9 542a 951a eabf
00000480: 5496 08dd 7b82 f0bf 93ec 6250 5567 d8bf
00000490: dd51 ca29 51f6 e23f 1b71 a1fb cef3 d73f
000004a0: 4b5c e068 d3b9 e43f d81a a7d3 9dee 81bf
000004b0: 489b 220a 7863 adbf db20 9d1a b3fc d83f
000004c0: 1da5 83cc 5f5b e43f ac59 be5b bfd1 fcbf
000004d0: c563 1080 c531 89bf b8af 5390 014a e0bf
000004e0: a086 fda2 ea3f de3f ef53 af67 fd09 f63f
000004f0: aea5 84b0 0d27 d03f 840c d725 edad e43f
00000500: a54d ea6f 3248 bbbf 122f 21a5 72d7 d3bf
00000510: 6092 f25f d923 febf fb23 a860 e54d e1bf
00000520: 4c5e f5e5 a09b 0040 e397 4a1d 4cbf ee3f
00000530: 9e92 a48c 0156 e73f 5289 5e1c a91c b6bf
00000540: 464c a084 4b7c c93f 14a5 afd7 971c e33f
00000550: 068f 0c01 8f1d e7bf 8b2d 9bce 0040 b0bf
00000560: 1f3b 104c b66d dabf f210 8e1a a449 f4bf
00000570: b7b7 d5ce 5105 cdbf ad7b f309 5d75 f3bf
00000580: 1310 3e7d f961 f73f e1f5 8649 4847 b53f
00000590: 4348 b1b8 2a32 e73f 8385 f411 1390 f23f
000005a0: 0e90 5228 8f57 d1bf e7ec f569 2c0c fcbf
000005b0: 701e c02d b3df b3bf 246b 6448 00f6 d2bf
000005c0: fdd7 0783 10ad e6bf b0e0 af2a f1ae e3bf
000005d0: 758a af20 e8e0 fabf 837b 21ef 0bec ea3f
000005e0: 27c5 aa64 a634 e13f 782d 3dda 1e18 e7bf
000005f0: 7bde 42f4 8ca1 ec3f f7c7 5ba0 ddad bbbf
00000600: 3ffa 74dc b20c dbbf 3f12 0a46 fb77 f0bf
00000610: 3e5a b566 6086 d7bf 4e00 2b21 815f fc3f
00000620: 31f8 d4bb d7ac f3bf 6034 89bc 73b6 a43f
00000630: 40c7 995d 6fb9 f13f b3db 65fa 76c5 cdbf
00000640: aaab 3e24 471c e93f cecf d7bf e9e0 febf
00000650: 9c69 e391 5a5c e2bf b98b 4b71 acae 04c0
00000660: 0de6 20ef 90a8 f2bf 2fb5 98ca 6020 edbf
00000670: ffbf 03c2 b590 e93f 9ac0 94bf 6f61 e0bf
00000680: 3b7e 5870 a5e3 f63f 4f7c 0f58 b95e e4bf
00000690: 6556 aae3 721f df3f dcdd e85e 55c9 d73f
000006a0: b602 3b35 b295 efbf fe21 d6eb 1672 eabf
000006b0: 5f9a 2904 b304 c5bf 9be8 1464 a7d8 db3f
000006c0: fecc effc be3b bdbf a28a 1500 8a37 fb3f
000006d0: 2850 fbfe f3f6 f73f e320 740f 944e dbbf
000006e0: f61c 837c 5577 febf baf1 8809 23e6 f33f
000006f0: 9a27 298e 8a4a f3bf 836f da7a 31b2 903f
00000700: 9b08 739d 4e05 f4bf e34b 65dc b913 fdbf
00000710: ea28 0c82 1e30 e9bf 0db8 45f1 b556 fa3f
00000720: 565d 648d 627d e43f 9b85 4582 d183 a43f
00000730: 83ec f677 11fc ecbf c841 1c56 888e babf
00000740: ada2 0594 713f b4bf 068c e032 079a df3f
00000750: ccd2 4752 f67b 02c0 9f34 586a 0c01 d33f
00000760: b6ee 4cfa 1988 e7bf fea3 b83d 3ceb f73f
00000770: e5b8 b5cd 5eca 0140 6f0f 8a21 6702 d83f
00000780: 4a01 2e9a f94b e73f 9d1a 71e4 c6e2 d33f
00000790: bbb9 04ab ce51 d3bf 9c07 c133 737b d7bf
000007a0: f2ec 007d 2592 f5bf 53c7 43d2 2531 f5bf
000007b0: c313 6e72 a01e cdbf ad96 785d f106 ed3f
000007c0: f6cd be6d c254 d1bf f080 c588 c6e0 db3f
000007d0: 9239 0875 3b6b d4bf b87c 0e60 2c6d e9bf
000007e0: d4c8 be57 6c7a fcbf 3863 1924 7f28 d6bf
000007f0: f725 38a0 afd2 03c0 1416 ead4 489a cdbf
0.9712215556815776 1.0986979375097334 0.21596423151524968 1.8474367412335535 -0.1903507245211986 0.24743068550688155 0.053383720169107966 -1.9717438251361097
-0.3945628786007813 1.2202913897932333 -0.021371645980549702 0.1736193797018296 -0.1395083855408829 -0.7607861495712658 1.0875259220250946 0.22444765199057148
-0.7742041656560442 0.7679822109672764 -0.9160639792120205 0.7461283767289519 0.1507684308602644 0.03796136302534382 -1.2331793520444987 -0.847892063885766
0.45440244344274305 -0.8456852928863724 0.2448716465630828 -0.8243134493665302 -1.4155155987619406 0.9119225532453007 -0.4214669806149723 0.9839359545192831
2.301771943042386 1.5681257279287273 0.4495723981655267 0.6696476087871066 2.2600722598714618 -0.7663073061689196 0.1457341949620153 0.43494666281164995
-0.43037804137166036 -0.010395265777603977 -0.871956050070518 0.7359159203306563 1.2049459489430032 -0.2502085184360331 -1.1640147329440373 0.6975684995362734
0.39374816028401344 1.234499253220804 -1.4797056582810608 -1.6737823221249257 -0.1702879920489312 0.23603407685663164 0.5016959419623811 -0.8322008993582244
-0.22025260421449072 -0.503939955224269 1.1598254692435326 -0.6756372615047834 -2.121057176547312 0.0847844007806598 -0.8072330475391575 -0.5963289072185542
-0.11137378523768884 2.6849599445866987 0.5081288367790567 -0.8012529551178313 -0.3393505941645119 0.07707449345361357 -1.7575189738549764 0.6024963740057666
-2.7627856010372316 0.2582249820626421 -0.24435977369847534 2.3418605539417485 1.907548129185854 -0.5950296180281518 0.9918474361208086 -0.23612951246630018
-0.47177067547644513 -1.6887232602743227 -1.6084042309803486 1.277155009180216 0.10536301904755344 0.9860762559622006 -0.09725427995426536 0.29959586692366075
0.9661196154790036 -0.8258890342556278 -1.2004732936503661 -0.9300609890891975 -1.6503008056325494 0.3176918475285425 -1.6625598445320964 0.4335873189210264
-0.7359527787997467 1.1746735407023932 1.130469718610981 -0.028883063894315594 -1.526813148951774 -0.7176977028833152 -0.045005530361461196 -0.4333696607372707
0.008755498661604837 -2.3937650649153226 0.21473659371085577 -0.35634294544242273 -1.204102022492774 1.3049308920855747 -0.17598853019815272 -0.18528409606551274
-1.3337679147996633 -0.3687085574516608 0.7099052094250028 -1.2757930812231089 -0.28341727824116464 0.23424965648384777 1.4027964647210203 0.7524663298589139
-1.3783533478814098 -0.4842620242388798 -1.8119446905582604 -0.003978397035783517 -1.867578329898148 0.2832051151908875 -0.6174674222139747 1.03996555393495
-0.3549531198795222 0.7377051109923187 -1.2402913459664324 -1.269449001508004 -0.5656304760820051 1.2796745660758555 0.7289423339662329 -0.14808456823789098
1.8999466082659853 0.4363996586886742 -0.44672852890904 -2.2959400818880265 1.35984391689897 -0.3623114752837351 -0.5936383071958102 -0.8157449557095723
-1.0318564066050344 -0.38130696153866345 0.5925679985253357 0.37425589154533306 0.647683815800414 -0.008755906125668941 -0.05739951251717074 0.3904235610866757
0.636154078904983 -1.801207884190812 -0.012301962824539001 -0.5090339487919584 0.47265115658783863 1.3774389314833078 0.2523836349306191 0.6462312449515513
-0.10657038910203782 -0.3100248921007146 -1.8837522266341225 -0.5407587898090463 2.0759904828553655 0.9608517238709705 0.7292487856799033 -0.08637482588395543
0.1991056821430865 0.5972403729075801 -0.7223582287301447 -0.06347661060424607 -0.41294629505221 -1.2679787671377736 -0.22672484015805391 -1.216153181907184
1.461419572094205 0.08311893267724414 0.7248738868022503 1.1601744367002034 -0.2709691900038259 -1.7529720439040888 -0.07763213984446238 -0.2962647158580458
-0.7086260375206163 -0.6151052316409018 -1.6799088742051513 0.8413142843745479 0.5376769987252928 -0.7216943991165143 0.8947205324866013 -0.10812173047068528
-0.42265006569860825 -1.0292923675452952 -0.36757669477575294 1.773316506922146 -1.2296979272064272 0.04045449902023601 1.107772222163888 -0.2325886461873928
0.7847018916994462 -1.9299104207866438 -0.5737736558324289 -2.585289845579123 -1.166153844924682 -0.9102024037326027 0.7989147939060784 -0.5118941060845998
1.4305776966574644 -0.6365629882747131 0.48629448159167615 0.37166342037695954 -0.9870234527262116 -0.8264269453221116 -0.16420591071365018 0.4350985028610325
-0.11419290232861454 1.7010593417441346 1.4977912864897096 -0.42667104252951854 -1.9041342605358387 1.243685757871488 -1.205698542895766 0.016304753421180884
-1.251295676266216 -1.817315922661458 -0.7871239223470898 1.6461696076107757 0.6403057824672185 0.040068194534579514 -0.9057700484330699 -0.10373737432769936
-0.0790930734998578 0.49377613037557955 -2.3105284145516176 0.29693899522028205 -0.7353639496499997 1.4949304972635669 2.22381363592932 0.3751466586620528
0.7280242930719762 0.3107163649441789 -0.3018681211568965 -0.36690979055503603 -1.3481802828744631 -1.3244989598719783 -0.22749715411569413 0.9070975137335232
-0.2707983085376492 0.4355942092570464 -0.3190449374095802 -0.7945768238168034 -1.7798884799527075 -0.34622171902951804 -2.4778740422377683 -0.23127088924609096
