balderdash_lstm/lstm_model/models/lstm_model_12.npz (npz, 903256 bytes, 19 tensors)

forget_gate_weights f8 [108, 81]
00000000: 5372 c446 1ef5 dc3f ceb0 50c4 ef12 e4bf
00000010: f22f 0cbd be25 e7bf 49fd 7e26 2820 e73f
00000020: e41d 55c7 78b7 04c0 b61f b359 9a69 d3bf
00000030: fde8 a064 080d e6bf 5a4a 1a9f 6330 fabf
00000040: c97d ba09 6002 df3f b12a 05bf aadd cabf
00000050: fa79 0f40 b763 f93f 06f3 f193 154e de3f
00000060: 21dc 63e4 7f62 e3bf f4ae 9980 2696 e6bf
00000070: 01d2 0bdf 8370 b23f e1c0 ffa4 8392 ddbf
00000080: 2407 a488 7a74 e8bf 3dab f4c2 c20f da3f
00000090: 7663 24f6 9488 e33f 35ab ab67 3bd8 eebf
000000a0: ccec ee0f 32d9 aabf 9434 040c 0252 f13f
000000b0: a345 e543 f962 f73f e35c 9791 b962 d9bf
000000c0: ad83 7a75 dd7f d5bf ae62 64bc 3e58 e6bf
000000d0: 5cd4 f5ef bf05 f0bf da5f 1528 4141 943f
000000e0: c591 22bd 456f 02c0 d30d 462a 4e19 d83f
000000f0: 96cd 96d8 4819 f13f 7652 a0b1 5cb6 fb3f
00000100: 9850 76bf 802b febf 6ae2 b3c2 ad8e fcbf
00000110: 36e6 866c 1198 91bf 1418 6b3d d89d d7bf
00000120: 61a1 f9e6 78db 0140 cc1b 3434 8bbe ebbf
00000130: fb25 9612 01ab e63f 8d62 e09e 7e0a eebf
00000140: b0b1 337f e9c1 debf 1259 747d 72b3 e03f
00000150: 0885 8935 3fb7 ddbf 81b2 1e0e 3444 fc3f
00000160: f6ea 5149 0946 0040 c1d8 1131 9ed0 afbf
00000170: 9890 f93a f3b3 bb3f c6af fba8 a7b6 debf
00000180: 55b1 af13 6af7 c2bf 80e1 6efd 04ec eabf
00000190: 4972 aa16 f212 ff3f 2f9c 4f71 a3db f63f
000001a0: a2da 7c3d 83c3 d0bf f279 eb98 fbe9 fa3f
000001b0: 96e7 d42e 5314 e33f 227d 0ea3 a458 e4bf
000001c0: 0ff8 42fc 9c19 e8bf 983a ba6f 4b11 debf
000001d0: 8c80 df18 6073 bfbf 242e c259 68e3 ee3f
000001e0: 31c2 543d 502c e83f a6d9 d231 ceb4 c1bf
000001f0: ca85 df68 3a82 ebbf 81a7 3f71 1146 dabf
00000200: 3ad4 f457 ee70 d63f 8f88 8896 baaa c03f
00000210: 3c93 cea4 7cf2 44bf 1e80 05b4 bd4b df3f
00000220: 4cfe 1934 a0e5 eebf 3454 a237 e4b3 aabf
00000230: 1b34 b840 b256 d03f 927c e46c 3684 e73f
00000240: c0e7 92c5 660e f43f c9d1 53ba 6231 e8bf
00000250: 7e24 bdfa e464 e3bf 2e75 9865 a9db f43f
00000260: 104a 2c45 b746 e73f 0374 ad24 a57d e4bf
00000270: bde9 09cb 237e e53f 6ea3 6345 59f9 c33f
00000280: 2284 f717 9c84 f33f c116 abd9 413f f1bf
00000290: d3b3 7b30 3938 d7bf eb2e 0e16 560c e1bf
000002a0: 2499 9dee b0b4 e63f 3411 45fb f0cc e2bf
000002b0: ec23 ac5e 1f07 f53f 5622 8ec4 daa1 f0bf
000002c0: 299a 573c 0365 f6bf 2e87 2c0c bbc3 e7bf
000002d0: b662 0038 764e 983f 3314 f362 feee f5bf
000002e0: cb1d 682e e108 b33f 79f3 0d01 4501 c2bf
000002f0: a8aa fc96 a355 b23f 788e 0d3b 4d7e e6bf
00000300: 4ef7 ba4c d1c9 ecbf 9388 57b8 fd3e 97bf
00000310: ee6f 5a48 a907 f3bf b2d8 0643 edd3 ffbf
00000320: 337f 63e8 cc31 e3bf 1d21 b5df f24b bebf
00000330: 49df cdc8 2921 c5bf 0781 f8ac 67c7 01c0
00000340: dc74 6674 6ae8 07c0 e398 c97d 8cf1 f3bf
00000350: fef6 e163 90c9 6f3f a190 887b 9bb7 ab3f
00000360: 0e65 46cb eea3 e9bf 95fa 0f6f 9dff e4bf
00000370: ce06 06b7 6b69 c0bf d0a9 7ad1 c931 f5bf
00000380: e723 1f72 0db3 e53f d6ba 3371 6bd6 e23f
00000390: 3116 e8ac 8775 cdbf de9d f97f 216d e4bf
000003a0: b20d d5a1 10f1 e6bf c173 a498 68ae fcbf
000003b0: b5c3 bc18 b58a e63f 0ca0 6238 07f3 f5bf
000003c0: 59a2 463e 4570 ca3f bf23 d0e0 b360 f2bf
000003d0: 021b 5546 3396 f0bf cb70 5b70 864d febf
000003e0: b62c c2cf a6a9 db3f 792b 7676 66d3 cf3f
000003f0: 51af 659b 9c51 edbf 8c53 aaa0 af80 c7bf
00000400: b9c5 c5d8 ef0d e1bf d6f3 bf33 d037 fbbf
00000410: 8ee3 e208 4c3e a83f 8533 8014 c795 f03f
00000420: fb55 7ff4 9380 d23f 036e 1648 1815 fdbf
00000430: 9fe4 3b2c f5f8 85bf e21d c59d 52fb f2bf
00000440: c56d 5f16 8ca1 d0bf f73f 700c 0c38 f7bf
00000450: f16a 4f9e 61a0 f1bf e296 64a3 bfa9 c5bf
00000460: c02d 6380 cb69 ba3f 83d4 7800 2f5c eebf
00000470: 65b1 64bf 7dbb f5bf f775 98e0 b164 d63f
00000480: a824 35c3 e532 fbbf a2c3 6ad0 2574 e5bf
00000490: 7f4a ba05 52dd c9bf 2c44 cb14 f55f 04c0
000004a0: f223 c9b3 0eb1 f73f ce8f 35cc 4b75 f0bf
000004b0: b8cc 3007 e7fb f9bf de31 4791 9df7 c83f
000004c0: a4c6 bc11 9331 d73f 85f8 e13b 2338 f63f
000004d0: 4464 5abd 5d80 e4bf 7cd5 78e8 6467 f4bf
000004e0: f4f4 2b30 f963 c93f 5e04 ae0d 191a edbf
000004f0: e6ad 2122 790d c8bf b9c1 a7b5 14e2 fabf
00000500: 6bf2 c8d6 9f73 f9bf 2f97 83bd 21ba fdbf
00000510: 36e4 ab89 1daa f0bf ce0c fa6c 783b ddbf
00000520: fc3e 6df0 a20a e9bf 9bc2 aa4f 4810 d93f
00000530: 934e 6b1b c8ad f6bf c350 54c9 9d3b f73f
00000540: a3e2 f111 10bb b63f ebac d23f 486a febf
00000550: 0b1d b306 5688 ce3f cb99 4494 f46c c9bf
00000560: 130a f7c7 c236 b93f 91f9 7fdb 6a69 e13f
00000570: 1dd1 68a5 9ee7 c43f d038 486b 94a4 cfbf
00000580: 807f ec8f c64b d0bf 8a7b f6a7 d38d b1bf
00000590: a148 0090 e245 e13f 46ff 6ce0 eb8e cd3f
000005a0: 1575 a4cb b8af e4bf 9bfd 7227 77dd f1bf
000005b0: 9418 65fe 3c37 f03f 974c 5dcc 712b c0bf
000005c0: 4fad 9f99 614f d5bf 1162 d137 f0c3 05c0
000005d0: f208 7f74 9b2e f3bf 95be e5fd dbc8 d2bf
000005e0: 5152 453e a5dd da3f 75e2 48d4 d919 e1bf
000005f0: 25f8 a575 dc33 eebf 5f03 d54c 1b10 dc3f
00000600: 59b9 c090 234a bcbf 7516 59bc fee6 f73f
00000610: 0918 a723 a5ee d5bf 1b85 0e82 5b22 e9bf
00000620: 2e54 f91a 708b a5bf 28ec 3e79 2aa5 e03f
00000630: 3842 c936 d726 d9bf 2172 ae07 4963 d9bf
00000640: ccc5 faa7 ee88 db3f a64c d807 d5eb d6bf
00000650: 6f0f 9093 5f98 c5bf 7e68 5a3a 2162 dabf
00000660: 5809 c98e 06d1 fcbf 076f dce9 6ef9 d83f
00000670: 217d 6d90 0458 e13f 61cc 797b c010 d83f
00000680: 73ae 2146 e161 f3bf 369f 122d 7798 bcbf
00000690: a68e 99bf b4fd cabf 2794 ddf1 0017 eabf
000006a0: 36ae 2cb4 10db d13f 3046 7738 ceb6 f63f
000006b0: 3545 2aa3 f4a1 e1bf 4eaa 5f15 a932 f23f
000006c0: 4275 8248 389f b4bf f780 1ad8 64ea ddbf
000006d0: 966b 299d aa76 f3bf 78d3 b177 6ccf d0bf
000006e0: 82e2 1691 f804 bfbf 2cb5 eb81 d0da a5bf
000006f0: 7e72 ee61 67f3 ecbf 4046 3e20 598d a73f
00000700: 108a e5cd 5878 f2bf 3a50 dc2b ee44 03c0
00000710: 640d 5359 53c6 f1bf b971 b420 6a12 e23f
00000720: 9ae7 b8c5 4a4b d93f 8462 d8cd 9c53 dd3f
00000730: a0e3 f4db 8afc f1bf f3ef 3e9a a93f 9ebf
00000740: a316 d8be 931a cdbf 65b4 0f74 45df e93f
00000750: 72cd 668f 3886 f53f 140f 8959 b794 d83f
00000760: 35a6 833a d0f0 e4bf 0850 ecc7 4389 f23f
00000770: d7b5 2396 03b4 f7bf 362e 491c 8e8e d63f
00000780: 7b77 284c 0795 ccbf d02a b943 f641 d4bf
00000790: 1369 0744 44f4 e7bf badd e061 b86a f63f
000007a0: 77bd 6e5e a8a3 e1bf d08f 03c6 a8ca f8bf
000007b0: dfc6 546b 6216 ea3f 5ddf 567e 7d22 f4bf
000007c0: 0844 2ef5 c42b f23f 9f5e f96c 013b ce3f
000007d0: b378 79ba 4233 f5bf 7ce7 5daf 2ed2 f13f
000007e0: 4625 7050 3982 edbf 97aa 0c40 42af e93f
000007f0: 75e5 9c13 c090 fc3f e25b 87db 388c ea3f
0.45246083174587176 -0.6273115953713615 -0.723357552751166 0.7226753951908133 -2.5895858357287 -0.3033204914067896 -0.6890909161950557 -1.6368137564610579
0.4845199675564485 -0.2098897392955528 1.5868446829186937 0.47351588676228606 -0.6057738743537621 -0.7058289062237848 0.07202934451544964 -0.4620675193136901
-0.7642185848965011 0.40721196211477545 0.6104225928748821 -0.9638955139938391 -0.05243832058428097 1.0825214833633128 1.4616634990855821 -0.3966506883420619
-0.3359292647601773 -0.6982721023114971 -1.0014037488411054 0.019780176230909642 -2.304332234971499 0.376544514925823 1.0686729870329592 1.732021993496486
-1.8856208304396542 -1.7848336797307192 -0.017181656121215215 -0.3690090751446189 2.2321641964846752 -0.8670097369766778 0.708374534894744 -0.9387810805374827
-0.48058545515120965 0.5219051790507214 -0.46430950382462344 1.7666512061652215 2.034197399914201 -0.06213850354190376 0.10821457090202313 -0.47989837171803307
-0.148175487148715 -0.84131097315462 1.9421254048712788 1.4286226679048573 -0.2619331455675057 1.6821247075491752 0.5962310709648928 -0.6358206925105245
-0.7531266142830207 -0.4698055831039851 -0.1228542385792954 0.9652597191902186 0.75540935496071 -0.1383302443770848 -0.8596469925216124 -0.4105266195243687
0.3506427630375729 0.1302102313066524 -0.000639258252352982 0.4889978654882742 -0.9655304925544868 -0.05215371302725949 0.2552915222193534 0.7348892332846779
1.2535159795502153 -0.7560285224158686 -0.6060662171595508 1.3036283463073448 0.7273823119197136 -0.6403375355108668 0.6716479268646293 0.15604701889176503
1.2198754249768702 -1.077943659083232 -0.3628066037625192 -0.5327558928269956 0.7095570240460671 -0.5875172526944312 1.314238900961068 -1.0395152738511988
-1.3996612889401467 -0.74264290216181 0.023736807983456308 -1.37084807064208 0.07435424216247737 -0.14066374351014213 0.0716192477818064 -0.7029176858308821
-0.8996359346999527 -0.022701229454363214 -1.189370424871409 -1.9892399423820675 -0.5998291529503831 -0.11834638558969286 -0.1650745611657334 -2.222365714391461
-2.9884842962043034 -1.2464718736242097 0.0038802929039424275 0.05413518794037598 -0.8012613268103068 -0.6562029999912108 -0.1282171863240848 -1.3246553595332564
0.6781069973886787 0.5886742793062136 -0.230149230410619 -0.638321638060855 -0.7169268761430685 -1.7925802195161256 0.7044320567275607 -1.3718330576466569
0.20655122319046162 -1.1486090451964939 -1.0366699931489056 -1.8939270390465477 0.4322297123805571 0.24863892349489072 -0.9162123713590323 -0.1836146864412992
-0.532951281913646 -1.701126291415894 0.04735028847193866 1.0365668106853445 0.2890977752370813 -1.8176501098558908 -0.010728755390561338 -1.1863580859079481
-0.25986005959358877 -1.451183365428731 -1.1016555961602388 -0.16924281576319006 0.1031768024869768 -0.9487528809755904 -1.358274219160273 0.34989592488440685
-1.6999261498734004 -0.6704281874318563 -0.20206666259453596 -2.546854174092479 1.4807269118193713 -1.0286367394373772 -1.6239996224292508 0.1950566253057237
0.36240078670662457 1.3887054766815095 -0.640669698553332 -1.2752427178323549 0.19836344577917198 -0.9094357745344828 -0.18791116873340669 -1.6801955314550538
-1.5907286062275954 -1.8579423334972025 -1.0415320756712965 -0.4567547859407569 -0.7825483985743342 0.3916188028334006 -1.4174271651326407 1.4520547737529774
0.08879185140711825 -1.9009478085598015 0.23853564574367456 -0.19863755454680496 0.0984918344684405 0.5441183364016969 0.16331847263939717 -0.24721007574448217
-0.25462497763691516 -0.0685703549447522 0.5397808849832196 0.23092411478318747 -0.6464504220381594 -1.1165687123283081 1.0134859025288607 -0.12632582167370707
-0.33297004701917826 -2.7206730232976573 -1.1988787222513193 -0.2935094813792401 0.4197781665909917 -0.534405626886907 -0.9438307092493728 0.4384830713570888
-0.1105062702560863 1.4938952786773403 -0.3426907394572259 -0.7854440250559124 -0.04207945184013116 0.5201618545610289 -0.39299564695560063 -0.3966848921789126
0.4302326813150017 -0.3581440521822493 -0.1687125654717607 -0.4122393674712227 -1.801031644587587 0.3902241977500442 0.5419943638661701 0.376022453862964
-1.2113964786066418 -0.11170143938454377 -0.21086749415836897 -0.8153080676971783 0.2789956817166258 1.419630261011104 -0.5510199724978181 1.1373682818326816
-0.08055450220350216 -0.4674312696825064 -1.21647130385711 -0.26266013802460675 -0.12116960088941123 -0.04268504701563311 -0.9047123825763064 0.04600027578920818
-1.1543815653645915 -2.4086574007615384 -1.1109193314776684 0.5647478712813189 0.39522046383683007 0.45822830297542105 -1.1241558639578457 -0.0295397282022662
-0.2273735696655211 0.8085047976325198 1.345268783724205 0.3840769171113021 -0.6543961661201992 1.1585119065757699 -1.4814487328361474 0.35245087396899366
-0.22329798906951823 -0.31652599919895597 -0.748567707890546 1.4010547469496104 -0.5512277454744624 -1.5494773611944659 0.8152324768363676 -1.2584204611902898
1.135685880410394 0.23617570706368426 -1.325014809051521 1.1138140535608434 -0.9221464701705961 0.8026438952413909 1.7853394285324076 0.8296169555350128

input_gate_weights f8 [108, 81]
00000000: 433f c4b8 969e fd3f b236 dc0c 4b11 e5bf
00000010: 25f5 c671 01f3 febf ef88 c077 6c54 ee3f
00000020: 52dc 08ef 18a9 f8bf 9fa5 27b8 c7b0 f73f
00000030: 1324 7d83 9879 a0bf 4be8 bd80 6d30 f93f
00000040: d0a0 d51d 926e fa3f 0503 dfcd 5d98 d9bf
00000050: 34f6 09c1 77db ee3f 7588 9c2f 9a04 e4bf
00000060: df6e f86c 1761 c93f abd0 4ba0 efb7 f63f
00000070: cc57 9778 8e45 9abf 4b40 b6fe 366e ee3f
00000080: 4ab2 d529 3147 98bf b83d 82bb 583d fc3f
00000090: 5c3d c856 09bd f93f 0786 f993 3e34 cc3f
000000a0: 0a90 9772 5d33 993f 9a00 af35 de46 02c0
000000b0: 4692 8e85 22e0 f43f e67c c752 938d d1bf
000000c0: 9b2c 9da5 5546 e13f 7f4f f3c9 f326 e8bf
000000d0: c6a6 e979 29fd e23f 542f 673d a0af d73f
000000e0: 2302 312d f77e fe3f 0b11 14d8 e67f c43f
000000f0: fa03 3756 9170 0540 c276 99a2 90f1 f9bf
00000100: f8b2 6096 d853 b43f 78e5 b0cf d546 0040
00000110: a6fc 64a5 8ccc f63f 5267 a573 61dd c63f
00000120: dc74 f3fd 90d0 f53f 46f3 2814 8101 f0bf
00000130: b179 8b19 649e f13f 3b25 5b02 9260 e33f
00000140: 2d11 1e69 0612 d23f aec1 e41e d3b1 e53f
00000150: 3f03 6366 42b7 edbf 6b3a 0ba9 7b51 f63f
00000160: dfd5 9e2e 03c5 af3f 99de ef94 7435 733f
00000170: 09f9 06a4 dcf3 d43f 48e0 68c3 7ecd de3f
00000180: 3b72 f233 946d e53f bf4e 3ce7 95c9 f0bf
00000190: caa2 c43b 0d57 d3bf f69e 1de1 5544 e23f
000001a0: b3cd e507 f689 d53f 7935 226c debb eb3f
000001b0: ac0b 48de 3b1d f63f 1b51 d9b3 f7b1 e9bf
000001c0: c133 1318 209f eebf 5cdf d07b b321 da3f
000001d0: 7027 8fcd 41ba da3f 0e5c f6fd ab72 f53f
000001e0: 3f4c ccf3 1a4c 0240 a5d8 03a5 2d0e cc3f
000001f0: e90c e3fd fc86 e53f e7f3 07b0 abd7 e4bf
00000200: 5d7d b551 d02b efbf 01a3 7846 e16b fa3f
00000210: 1e72 e1f9 5cca ec3f 5acb 3417 db13 f23f
00000220: 09e0 1b9e 8422 febf d485 54fb 81cb f03f
00000230: f8a8 0ccc dd0d d43f 8d97 4107 e050 963f
00000240: be59 33ae 8858 f73f a755 c916 6140 f53f
00000250: 0aa5 3edf 1953 cf3f 2862 d556 cbab b33f
00000260: 14a9 39ec d952 0240 0780 1160 1fb9 d0bf
00000270: bf30 99e7 e202 f53f 1680 3983 0489 fa3f
00000280: 41ca ead9 7144 f73f 1f7c 4f24 7cdf e3bf
00000290: 2cc3 c71e b562 f0bf 77f3 469f 7afb bdbf
000002a0: a4d4 6abf c2ea dbbf e13f 26c6 2381 e2bf
000002b0: c9cb 8880 639b a9bf 5d85 ea65 b1e3 edbf
000002c0: d1b1 3c2c 5cc1 e0bf 5192 1458 33b8 d6bf
000002d0: 9324 7a24 3e2e c8bf 46a3 8830 f603 d4bf
000002e0: e3c8 65bd 4813 fabf e093 f600 42ce d1bf
000002f0: af0d 5275 9f5d debf 1c8b 29fd 486a b6bf
00000300: d112 af12 b520 d6bf ca84 d65b adfe d2bf
00000310: 0f6f 09e6 02f2 c8bf 89d6 5178 e1fa d9bf
00000320: 19cb 9962 e981 f1bf 1b4d 9839 328e e13f
00000330: e3d3 e09d 826e e43f 2509 d84e af87 eebf
00000340: 0204 858b fdca f13f b0c4 0034 45d2 efbf
00000350: e253 f033 75ee 893f acbe 6cae e354 d2bf
00000360: 7c50 c93b 2f28 e03f ad1e e7ad 58dd edbf
00000370: 5db7 d8c5 cddf eabf 022a 99aa 2ba1 c3bf
00000380: f0c4 283a 5776 d5bf 5b4a ac84 5130 eabf
00000390: 1662 b7bb b99b 853f 11d9 c102 81ce d1bf
000003a0: 0d56 93cb d635 a5bf 1f79 9c7f 91a5 e43f
000003b0: 49cf 62c7 ca8a c2bf 3476 4206 b80d edbf
000003c0: 6dfe c92a eaf0 dfbf 346c e5bc 6083 e4bf
000003d0: 52e4 8e7a ec69 f0bf 9cfe 3d7e 4a4c e93f
000003e0: 50e3 733b bd30 fbbf e1e8 3b26 c365 f6bf
000003f0: ca50 8f58 2e98 f3bf 0440 6234 3ef3 d8bf
00000400: bae7 d160 d185 e9bf 245c 1585 bf21 8c3f
00000410: d745 cada 8176 d63f 8a13 c212 8dcc f2bf
00000420: e896 bf82 6a16 c9bf 71ea 41de 59fc e1bf
00000430: b0d9 3436 fa78 f3bf 7ce5 c1c0 b0f0 d23f
00000440: a15c f8c2 b1e5 d83f fd21 82ff 49f7 eebf
00000450: ab0e f5d4 260d e7bf 1cd4 2157 221f f3bf
00000460: faa0 dad7 c183 f3bf b356 64b5 f2fd 983f
00000470: 6547 c55c bf8c febf 183d e89a d769 e7bf
00000480: eaa1 4601 ad4e dcbf 99cc 35da a665 da3f
00000490: b636 19a2 35e5 d23f 34bb 7613 340e fabf
000004a0: 3b5c c86b 774d e3bf 1c07 5917 95af 9e3f
000004b0: 9c84 a311 6e2c ddbf fab2 2479 fddd f2bf
000004c0: d23a a2a3 0370 f5bf 806c 0ecf b110 e0bf
000004d0: a338 72e7 976e e0bf a49d a49d 1434 e6bf
000004e0: b27e c231 7fca 01c0 ee77 89b5 73ba c4bf
000004f0: c378 a91d 25d9 c0bf 9eee 0c80 6637 e6bf
00000500: dedf a6a8 e747 f7bf ba3d 55fd c909 c63f
00000510: c0b7 1e2f 7011 a13f ed09 a620 1303 f0bf
00000520: f2d3 27da 4a01 f6bf 8376 1258 0bda f1bf
00000530: 4a29 827f 709d fcbf d707 c0b5 b047 acbf
00000540: 52c8 939e 4bc3 c4bf ab94 e3d7 f0bf cbbf
00000550: 793b 9d9c 91cd c2bf b104 c5ff 353f d4bf
00000560: abde 2e04 5abf e23f e767 c061 4b11 fabf
00000570: b0bd 11a4 1d9f bd3f 6612 06b0 9039 e7bf
00000580: c666 46b7 805f f2bf 4e3d 4f6b a7bd e23f
00000590: 8b94 40e2 702f dc3f fbfc 55a8 b111 e13f
000005a0: 7cc0 cf3c 2670 e23f 1e8a a11f 8741 e5bf
000005b0: 79fa 665b 5b4a df3f 5fa1 9cd7 59df cfbf
000005c0: 1b9f 297b 4db3 e3bf d766 6e19 7a44 f0bf
000005d0: 959f 2e64 76a6 f1bf 34d6 7d9e 9e3b e6bf
000005e0: 6b71 5125 e1ef f03f 9203 fc7b 431f d6bf
000005f0: 3e4f 2f3e 3be9 e9bf 2da3 9c72 c7b1 d6bf
00000600: b104 dc58 7a22 ec3f 8441 d161 394b f3bf
00000610: 0967 e29c 3b76 f5bf e096 234c e161 c53f
00000620: 55d3 73f4 f4e2 edbf 7af8 a416 f52a c93f
00000630: e46a 0c67 4cc5 e23f 7341 6780 fdaa f3bf
00000640: 6da6 c6de 144f a1bf 0a5e e54a 8b0d dbbf
00000650: 1e8e d181 ef76 b8bf e192 2a8d e92b f0bf
00000660: b91f e4f8 d058 e7bf 9d6d 5241 de19 f1bf
00000670: 5df9 414b 1627 f4bf 8bc8 df97 2403 f9bf
00000680: e40b bcf2 57f9 cbbf 3baf 68f4 736f f3bf
00000690: a87d 24c2 d469 d73f 8053 10cb 67af d7bf
000006a0: 7097 0217 e88d f2bf 280c 9fe2 7fd3 eebf
000006b0: ae80 9a8d 72c4 dcbf 00a1 f124 8b68 00c0
000006c0: 1f8b f543 b078 ef3f 1cd7 7a2e 66e2 dcbf
000006d0: 5c54 28d4 aa64 f3bf c097 98fd c63a cbbf
000006e0: 20c5 6c6a d6f2 f6bf 63fb 3ab4 af0a e5bf
000006f0: 13f8 700d 1cb6 e33f cf69 2748 800d d5bf
00000700: b427 9051 8e10 f5bf 4d01 161a a734 ffbf
00000710: 08d5 a47f b323 e0bf 5cd0 68d5 5767 a0bf
00000720: 9c33 0051 e3e7 d23f 4755 e2af 4c28 9ebf
00000730: 37f4 1116 d74a e3bf c191 bd46 8ff0 a03f
00000740: 306c 2352 8c52 fcbf 7039 a4a0 43c5 f2bf
00000750: 86a4 386f d071 e0bf 9e64 be28 84d6 e53f
00000760: 3b1f 8da5 ec0e e03f 46bf 5009 4973 01c0
00000770: f7d6 e4ad 8190 d63f 16a3 1385 73e5 e5bf
00000780: 2f7f 1be0 24b6 dfbf 6424 ce21 a280 d4bf
00000790: af9f b69d 4c2b e53f 61aa b7ad 68d1 bebf
000007a0: 1217 64a3 d9de e5bf be64 a889 e8b6 91bf
000007b0: c89a 85a5 3fd4 e13f f53c c67b 8c77 debf
000007c0: fb48 13d5 6401 f93f 594a 233f 8e4a dd3f
000007d0: c01e d750 39e2 d1bf 7eae fba8 306b dd3f
000007e0: 4b75 0815 389c cb3f 71b3 dc32 cc9b fc3f
000007f0: 3ae0 8c4d 7117 ee3f 50dc c19a cd40 dd3f
1.8512179582066473 -0.6583609820533722 -1.9343275494023342 0.9478056277187344 -1.5412835442819142 1.480659217219319 -0.03217770199859884 1.5743231801011628
1.651994816342313 -0.3999247084102964 0.9642905016223211 -0.625561802855613 0.19827549763510086 1.419906259686324 -0.025655962095548365 0.9509539580194625
-0.023709076097860916 1.7649771999893868 1.6086514844826842 0.22034437394454207 0.024610004538672604 -2.2846035188704947 1.3047204224650542 -0.27426608165656174
0.53983576151349 -0.7547549194664355 0.5934035664660875 0.3700943565024677 1.905997444657381 0.16015325117781062 2.679964707902852 -1.6214758254567845
0.07940438910800285 2.0345875001773344 1.424938818046749 0.17863100191862685 1.363419525142766 -1.0003672397135275 1.1011696813435317 0.6055383726135583
0.2823501612222284 0.6779571154966584 -0.9286205291501587 1.3948933223033702 0.06204996055695821 0.00468965091476261 0.32738414781842146 0.48129242976165587
0.669626332720845 -1.0492152245177946 -0.30218821369866744 0.5708417317191266 0.3365454747319873 0.8666832077011996 1.3821371729725156 -0.8029745590852458
-0.9569244833197602 0.4083069523944596 0.4176182277120608 1.3404960556415548 2.2871607825013878 0.2191826873528885 0.6727280577400993 -0.6513269842249628
-0.9740983577611747 1.6513378861220078 0.8997025375825307 1.1298476130002286 -1.8834272552612694 1.0496845071396494 0.3133463375730936 0.02179288906372494
1.4591147236547921 1.3282175912948817 0.24472354317303086 0.07684012289008335 2.2904547171684815 -0.26129898435283433 1.3132046744167807 1.6584515691720347
1.4542101395023936 -0.621030875128671 -1.0240985109669039 -0.11711851490595203 -0.436203658038105 -0.5782641286950786 -0.05001364654562896 -0.9340445509480265
-0.5236035217290526 -0.3549927101287596 -0.18891121655568507 -0.31274180163977794 -1.6297080419868102 -0.2782139787107649 -0.4744642873485771 -0.08755928211898517
-0.3457462961635374 -0.29679426163245337 -0.1948855994440852 -0.4059375452992318 -1.0942167140571597 0.5486079335118207 0.6384900172766915 -0.9540630855483739
1.1120582056030348 -0.994417764252054 0.012661853454156661 -0.28643123658819536 0.5049053352072543 -0.9332698246516508 -0.8398197998228444 -0.1533560355185984
-0.33534794501890897 -0.8183982459325522 0.010550929108760914 -0.27822900075206386 -0.041426384306458265 0.6452109806448653 -0.14486059890406924 -0.907924663759053
-0.49907926729790725 -0.6410373391512452 -1.0258602893284388 0.7905628648440657 -1.6993992159243199 -1.3998443120495312 -1.2246535739296172 -0.3898463737068598
-0.79758519086976 0.013736244439014618 0.35098310819838957 -1.1749392254580209 -0.19599658378790896 -0.5620545712439037 -1.2170354955138514 0.2959405786892473
0.38901943244986553 -0.9676866522214024 -0.7203554305383099 -1.195101108894284 -1.2196672851369486 0.024406235047613033 -1.9093621848919267 -0.7316701913386252
-0.4423019897899666 0.4124543314894225 0.29523983793192643 -1.628467632322736 -0.60320635844517 0.02996666865352103 -0.45583678934606 -1.1791968090212195
-1.3398472206060217 -0.502037910849495 -0.513500167887987 -0.69385748662619 -2.223875416515363 -0.16194006313429504 -0.13162673900928298 -0.6942627430903092
-1.4550549114192033 0.1721737372376831 0.033336168052627624 -1.0007506633124834 -1.3753155252172715 -1.1157334747616978 -1.7884373646544014 -0.05523445337895765
-0.1622099422743895 -0.2167950681825109 -0.1468984617917746 -0.3163580892324474 0.5858583528233415 -1.6292222803517633 0.11570916419599686 -0.7257770002330062
-1.1483161124401007 0.5856511207474939 0.4403955659384528 0.5334099090395336 0.5761901080823146 -0.6642490022462118 0.4889133827781858 -0.24900362995073075
-0.6156375318068713 -1.0167180055054155 -1.103140250526825 -0.6947777839220124 1.0585643251170846 -0.3456581793580479 -0.8097206320330554 -0.3546007746941083
0.8792087302719179 -1.2058652707092685 -1.3413654449745442 0.16704956262326842 -0.9339546942197595 0.19662345510181806 0.5865842831293233 -1.2292456641917766
-0.03380646914895356 -0.42270166696604916 -0.09556481284521864 -1.0107207788761843 -0.7295918332247232 -1.0688154746665994 -1.2595427455667825 -1.5632673199257023
-0.21854686119340194 -1.2147101924155794 0.3658344169543519 -0.3700808985752744 -1.1596451662857952 -0.9633178163716183 -0.449490202221578 -2.051046646713189
0.9834824874236324 -0.4513183072952971 -1.2120769774822042 -0.21273124106045138 -1.4342865140172947 -0.6575544853329628 0.6159801733517746 -0.3289490418079852
-1.3165419755991765 -1.9503546732886037 -0.5043580525440641 -0.032038445282893874 0.295403317549068 -0.029450605616678584 -0.6028857642228392 0.03308532465488013
-1.7701533516435681 -1.173160197740426 -0.5138933346071475 0.6824360652709804 0.5018218263075832 -2.1812916496054724 0.3525699804480235 -0.6842591857103766
-0.4954921902226372 -0.3203511552934002 0.6615355568255746 -0.12038282624386333 -0.6834533873777409 -0.017299302484478522 0.5571592552995179 -0.47604667746868695
1.562840301824109 0.4576755158024404 -0.2794326104599172 0.4596673631883518 0.2157049277019872 1.7880365359116832 0.9403616442350604 0.45708026993765305

output_gate_weights f8 [108, 81]
00000000: 9156 f7b1 e1ec e6bf 0500 65f2 079e f3bf
00000010: e402 714c b0f2 f2bf f127 ff87 cc81 e53f
00000020: fd7f 420b 0f97 fcbf 28f2 521c 7436 0040
00000030: feff 4895 f988 d23f d2f6 411f 6507 df3f
00000040: 6897 4e95 22db 0540 824d 31b6 9a03 e9bf
00000050: fe63 dbcf 5d29 f23f 33fb 0f6a d097 da3f
00000060: 26a4 c069 4bed d4bf a9f7 5fa4 fd2c ea3f
00000070: e26f 6f9a e790 edbf 417d b38c b094 cc3f
00000080: ef3f 7a03 5393 d93f 7147 ba81 3abd 0240
00000090: 6998 c393 2d07 fe3f 123c 7994 5320 f2bf
000000a0: 5dc0 4928 c83d d93f a680 002c 78ca f1bf
000000b0: fd24 5ce2 4a29 f73f 14bd 8006 599a b83f
000000c0: a01f 5d85 72ac c9bf d9a5 4ec5 ecf1 e4bf
000000d0: eb72 d625 00ea c43f 46b9 128d 4671 eb3f
000000e0: b093 3f5f 89bf d03f 7555 d525 4178 d23f
000000f0: e3b5 e54e f04d 0640 cf88 07c6 69e0 e2bf
00000100: f0b3 6b85 429f e5bf c16b a75f 5e08 ef3f
00000110: 37b3 fd45 f76d 90bf f6b6 18b0 99be e53f
00000120: 8493 0064 37db f33f 2236 e96a 1ea8 f9bf
00000130: 8c52 8827 8f5c f63f 5254 f45d d910 cf3f
00000140: 3838 e720 1a55 cc3f facb 4a0d 4785 e5bf
00000150: 8414 c016 e8c0 eabf 434d 0fe6 d938 fc3f
00000160: e680 8950 c2b7 f53f 359f 2c6e 15a0 d4bf
00000170: 4cdb b4df 9940 e6bf 1dfa 6b14 43ca c0bf
00000180: 9a4a 3fe9 653a d63f 4c89 8a3e 7a26 d1bf
00000190: 1a52 f5d4 438e e03f e704 169e 94fb d83f
000001a0: 484a 57d1 4f39 c33f 41c7 9dfd 7627 f33f
000001b0: 83ab ed22 47f9 f13f 0338 a2e9 05ad e2bf
000001c0: 4f21 0c24 ca85 ffbf c782 c40c a088 cb3f
000001d0: bccd ac06 e6eb f0bf be54 7e55 8222 e83f
000001e0: 0c33 4c35 dbac e83f 042a b978 9537 f23f
000001f0: b7da bc64 d1bd cbbf 3fd6 bb0a f54b f6bf
00000200: 3661 86ec 2343 f5bf 5b1f 8e82 1d17 f43f
00000210: 9966 9cb1 9ab7 ea3f 38f3 93c1 d6cd fa3f
00000220: 19b1 71f0 40c2 00c0 ae53 37c7 5508 f53f
00000230: f029 d8a3 5801 e7bf 7fab f26b 5007 ca3f
00000240: 6cff 08bb 0101 fe3f 5156 6f3d 7c86 e53f
00000250: 95b1 fd2c eab2 e1bf 7d95 d6c9 ca92 b63f
00000260: af25 8bff c970 fe3f 6e80 9f31 f22a f2bf
00000270: 6f9c ddfd 19e9 f73f 5559 4bdb f0fd 0040
00000280: 0dd0 6674 0b19 f83f 4031 c8d8 eb76 e0bf
00000290: 686d 099d 4749 b9bf 629d c6ea 6004 f2bf
000002a0: b352 f225 97bb cabf fb4c 75d8 28f2 cfbf
000002b0: 0c0f 5855 f166 d63f e7ab 2fd4 69b8 cdbf
000002c0: 3a9e 45ab 5e35 ebbf 4bc4 4f2d 11fa dbbf
000002d0: 12ae b952 2fd0 e53f 286c f0d2 7ef5 723f
000002e0: 058b 5525 77d2 f7bf 2529 4852 d198 e7bf
000002f0: 1dca 5e4e 0f33 ae3f e8d4 e3d7 d740 eebf
00000300: 9280 3c8e 59ee f0bf d186 6086 63f4 e33f
00000310: 2a84 83b4 e68b c5bf 35b6 ad37 3096 e1bf
00000320: e3ae 66de 68e8 fabf 7989 9d47 462e eb3f
00000330: 46fc 6eab 13b9 f9bf 04c3 dc93 b35b fabf
00000340: c24f 11d9 583b cfbf 7a1b 9b54 5379 fcbf
00000350: 78c4 1bef ad20 d43f eff8 0cfb 312f fdbf
00000360: ed8d 3968 7c14 f4bf 132f ae85 52de e2bf
00000370: 078c ed95 ea1d e3bf 62a6 a19a ed23 a23f
00000380: a1b3 5196 596e efbf 4bd0 af67 8309 e7bf
00000390: 29b0 cc33 0877 eebf 8a86 6466 db16 00c0
000003a0: a5e3 feb3 7e98 b73f 91f0 a4b7 f1b9 ae3f
000003b0: 28c1 601b dfa7 f73f 8d02 697e ee41 f7bf
000003c0: 9402 b76b 82ec c3bf 3448 79e3 1d4a 00c0
000003d0: f863 2947 e733 f8bf 369f 1a76 7f25 d6bf
000003e0: 07d5 7d32 c36a f4bf e4f4 c567 1b0c e4bf
000003f0: b5ab 2769 bee0 eabf 6857 e517 6bc2 e3bf
00000400: 5ab9 7f63 aa59 f5bf d73f 5c67 0ae8 e1bf
00000410: 0cba a744 bb82 d03f c3f8 5efd df7b e5bf
00000420: dd9b e127 52ae 9ebf 39da c7f5 1c1a b5bf
00000430: dce9 25c5 85b3 c9bf 3981 268a 5e20 bc3f
00000440: ac90 f068 1d84 d43f 8254 c5c0 8f98 edbf
00000450: 34bb b882 9467 ecbf 69d3 6ae1 70bd eebf
00000460: 66df 2321 bbef e3bf 50ff 688b d589 e8bf
00000470: acb6 c638 d076 edbf f34e cc8f 3f50 a53f
00000480: d944 d260 e1a2 ccbf 73a0 d523 9cdd ecbf
00000490: 5228 1112 193f e8bf bc3e 81ed 6281 01c0
000004a0: 4af4 fe88 ad09 bcbf 89b7 9f2a 7e3c dbbf
000004b0: 5c01 9cde 892e d1bf 266b c83c 86f1 b1bf
000004c0: 7908 ea8d faa1 e8bf e9cf 7529 19a5 efbf
000004d0: 5315 ae74 d8ec e8bf e6c6 4b5b 2c70 04c0
000004e0: 6efc efb1 9bc2 a73f 2d1c b282 3c20 e6bf
000004f0: c5b6 d11a 7970 eabf b104 6d71 1672 f4bf
00000500: 3363 a9f4 77c5 febf 74c6 7d6f 8b0f eabf
00000510: 727d 1293 4567 efbf c74f 3467 9580 c7bf
00000520: cd8e 6f20 b186 fabf 6f6f 8fa9 8708 dfbf
00000530: 2845 cb50 1e79 eebf bb90 1872 3df1 f43f
00000540: b34a 9a8d 667c e33f 825d 0511 53fb e4bf
00000550: 08f0 339e c9d1 d13f 052e 9269 f4e1 a6bf
00000560: a39b 1ba4 f341 d43f 0be6 faef 11fd eabf
00000570: c04b daa7 3fc4 9ebf 21fa 0be3 8a15 d23f
00000580: 8552 6462 60cd f2bf 8bf9 8f86 6f79 bc3f
00000590: c45e 5c09 0f8e e13f cb7b 321d 82c9 e43f
000005a0: 5c4b d7b1 3974 cb3f e36e 2a0e ccfd f8bf
000005b0: 37b2 8504 94ac f03f 2d2c 9151 fae0 ffbf
000005c0: 1b3a 3e51 3e48 e0bf 6ac0 7116 0da6 fbbf
000005d0: 9a5c 5961 ee23 f4bf 7c15 386c 9834 eebf
000005e0: cab6 6310 0740 d0bf 601c b7f3 68a3 f6bf
000005f0: 7d0f 531a 6779 f5bf 27ab efc2 1fb8 b8bf
00000600: 7b6a 34d6 f566 e53f b148 2370 d437 f1bf
00000610: 0a78 59d7 bdbc fabf 8a42 5972 0617 c1bf
00000620: d358 6976 c7b6 00c0 ee34 7faa 491a e63f
00000630: c12a 1bd4 c369 9f3f 6535 8eb9 1584 b3bf
00000640: 9200 3c5a a982 bb3f ce2e a460 82c2 dcbf
00000650: 2d03 cf20 9490 d9bf a20a 1a27 45d9 fcbf
00000660: 1708 8ec2 0acd eabf 531d d2c1 1e8c e5bf
00000670: 4602 e1c3 8178 e1bf adcd 4422 0c35 dbbf
00000680: a392 d93f 843f efbf 719e 451e ce9d fabf
00000690: c6f2 88cf a2c1 cc3f a1d4 e7fe cf45 d3bf
000006a0: 157f e8b5 0634 f5bf 668e ecc5 0fb7 a83f
000006b0: 13e9 88c4 34b0 b73f d641 7a4c e72f f6bf
000006c0: e5a4 7250 c431 e23f 50db cfce 8e4a 603f
000006d0: 952e 1a2d d01d fabf 0713 cc2b c1c3 d6bf
000006e0: 2364 96ba da1b f7bf 45fd 967b c961 f0bf
000006f0: 830f 6c70 0f3d d6bf b019 9e92 7a57 e83f
00000700: bbca 00b5 f1cc f4bf 5ac5 7ea3 d295 f9bf
00000710: 0c8f 427f 6215 ffbf 9c92 4e70 ff68 e7bf
00000720: 8775 010e 597a d83f 099a 3391 b3dc dd3f
00000730: ebd1 ef61 e235 f2bf 1c1e 27fd f0d1 b03f
00000740: 6933 6cbc a1b9 fdbf c6b3 8590 a8f8 ebbf
00000750: 4410 2c9d 6ba8 a03f fded f996 cf74 cb3f
00000760: 2df2 4cfd 3395 e1bf f9c9 bb8c 7b8c e7bf
00000770: d787 a0ce 9d13 d23f 7148 b829 dd41 f5bf
00000780: fafc 3415 262d d4bf 65f3 49c5 bdc5 c2bf
00000790: 886b 7ab1 7bcb 6cbf a1d7 bf78 1f2c cd3f
000007a0: 898f e77d 6062 f0bf 9d23 3081 2ea5 dbbf
000007b0: f865 a079 1dfb 0240 87a4 50da 3ae1 05c0
000007c0: b877 6a35 4b02 ea3f 94d8 1b72 1bb7 eb3f
000007d0: 72fd c71c 1572 f0bf f6bb 5202 3161 ee3f
000007e0: 1b4c 86b0 7c4b d6bf feec 8c97 12a6 0440
000007f0: 1146 fad7 a00b e53f 06ca 3f5a 46a8 d63f
-0.716416213598409 -1.2260817974602116 -1.184250162696281 0.672094598406373 -1.786879581435641 2.026588650971707 0.28961028650883225 0.4848263554812152
2.7319995560273362 -0.7816899832200053 1.135099231664071 0.41551599843653547 -0.3269833119143776 0.8179920397230848 -0.9239385620417091 0.22328764791653025
0.3996169599495251 2.3423967490170345 1.8767524501831991 -1.1328922080754222 0.3943958657682794 -1.1119310110880547 1.4475811807809003 0.09610515984308093
-0.20057517539885072 -0.6545318463951687 0.1633911309007979 0.8575775866827733 0.26169046689602293 0.28858975119268077 2.788056007752617 -0.5898941867601709
-0.6756908994553879 0.9697715633623077 -0.016044486662781323 0.6795166434655744 1.2410196214998175 -1.6035446335039372 1.3975974601973205 0.24270169341676479
0.22134710890390052 -0.6725192317593376 -0.8360481685964634 1.7638796793660994 1.357363047216546 -0.3222707343979779 -0.6953858727709785 -0.13117254731328468
0.34731433656740196 -0.2679734812501422 0.5173663291303143 0.390355257397529 0.15018651696898844 1.1971349627387584 1.1233588566198882 -0.5836209834249079
-1.9701634796238812 0.21510697005671472 -1.0575924168341393 0.7542125386995833 0.771100620362263 1.138570281577473 -0.21673028391679391 -1.3935442370688091
-1.328891681600067 1.255643377286069 0.8349126309360201 1.6752536355626955 -2.0948504242607098 1.314534929454776 -0.71891433716638 0.2033482100572108
1.8752457910595366 0.6726666641140558 -0.5530901793222706 0.08817737033549196 1.902536390511482 -1.1354848802948498 1.4944095532062212 2.123994553791969
1.5061144396722768 -0.5145167573951213 -0.09877441009432675 -1.1260689898425302 -0.20884980538234785 -0.24957762307403883 0.3500331242978383 -0.23219035015730968
-0.8502648682742298 -0.4371378843780504 0.6816631904343373 0.0046286539136657714 -1.4888831575742085 -0.737404499728005 0.058983305279429944 -0.9454154221154143
-1.0581908756358058 0.6235826134254358 -0.1683319455542301 -0.5495835387679963 -1.681740635637589 0.8493987463701124 -1.6076847740767035 -1.6473880554078173
-0.24399862860684435 -1.7796204857747555 0.3144945941012973 -1.824022274653142 -1.2550014563829521 -0.5896389590211321 -0.5974018982200285 0.035430359960469074
-0.9822204528733104 -0.7199112916118876 -0.9520302783689704 -2.011160659735485 0.09217063803124732 0.060012391726986476 1.4784842557383602 -1.4535965860269784
-0.15565519580379272 -2.036189820421919 -1.5126717357400121 -0.3460386899337097 -1.2760650608373127 -0.6264779116460457 -0.8399345449264418 -0.6174827067104447
-1.3343910109211579 -0.5595752733952349 0.2579792185269134 -0.6713714550640123 -0.029961856540832933 -0.08242970467095113 -0.20079109312412313 0.1098689162522576
0.32056365249651253 -0.9248732342772572 -0.8876440575748803 -0.9606251146966375 -0.6230140349643818 -0.766825458798829 -0.9207535847578661 0.04162787084911015
-0.22372071483235947 -0.9020519924060991 -0.757702384268905 -2.1881769709651433 -0.10952267260195572 -0.42556718981256175 -0.2684654878539925 -0.07009161933858063
-0.7697727939378317 -0.9889035997171024 -0.7789118079096319 -2.5547721035480775 0.04640661761367758 -0.6914351036692828 -0.8262296222507862 -1.27785343462919
-1.9232101018043977 -0.8143975427212369 -0.9813564178947856 -0.18361156024240996 -1.6578837649366733 -0.48489562567350836 -0.952284963417843 1.3088964897988677
0.6089356198957233 -0.6556792576256358 0.27842941712856417 -0.0446926478262775 0.3165253737083111 -0.8433923422919077 -0.030045504207531826 0.28256485149896277
-1.1751407473977065 0.11122796092238312 0.5485911543682609 0.649598176027092 0.21448441680567043 -1.5619621804570947 1.0421333481455244 -1.9924262224401545
-0.5088187777308265 -1.7280398251278037 -1.2587722590158479 -0.9439203370717872 -0.2539079341939724 -1.4148950119140622 -1.342139342145827 -0.0965595103186102
0.6688183959661979 -1.0761303310760406 -1.6710794841851588 -0.1335151728003619 -2.0892476321124405 0.6907089548127752 0.0306768987855246 -0.0762342050567973
0.10746248677242168 -0.449371904732044 -0.39944937900513616 -1.8030444648181079 -0.8375295448206569 -0.6733545098840444 -0.5459603143463674 -0.42511275621947214
-0.9765034911220777 -1.6635266478059771 0.22465930112402627 -0.3011360158264527 -1.3252017122067106 0.04827164927544629 0.0925324420758538 -1.3866951930432285
0.5685750552412655 0.001988676950073133 -1.6322786104018736 -0.3556979110438054 -1.4443003929684515 -1.0238737895704884 -0.347476825511187 0.760678564417324
-1.3000351972993218 -1.5990778337985234 -1.9427208872884334 -0.7315671151632901 0.3824675213598642 0.4665955465301584 -1.138155348363507 0.0657034509705387
-1.8578202591190467 -0.8741038153362914 0.03253494542698879 0.21450228568924948 -0.5494632670666469 -0.7358987568571244 0.2824472921221263 -1.3285800580674982
-0.31525566168779984 -0.14665958531613935 -0.0035149970897924744 0.22790902515378966 -1.0240178030153138 -0.4319568883516299 2.372614813048809 -2.7349755340442843
0.8127800029067123 0.8661019543349249 -1.0278521656290107 0.949364189660513 -0.3483573650239024 2.58109014891454 0.6576694696725004 0.3540206796016324

gate_gate_weights f8 [108, 81]
00000000: 0c18 f52d c843 ef3f bbc5 be27 a979 f13f
00000010: b10a 8e1f dc25 c43f 9d42 8fd5 6dca fc3f
00000020: 0cda b9d4 cc8b a0bf 6155 2f21 8f81 d23f
00000030: 3934 0357 cf3e 933f a90c fdb8 6b42 ffbf
00000040: bc6d 552f 9530 debf 0968 4fab a505 f33f
00000050: f379 cb4f 1766 76bf ae75 b28e c3d3 c83f
00000060: 6de3 6876 3a57 c4bf 0b6f 1f0e 10ef eabf
00000070: 333d 7afa afcf f03f ad42 e20e ce84 d33f
00000080: 56ca ed91 b190 e5bf 3e52 c1b8 7994 e53f
00000090: 1124 7f78 47ce edbf c0da 1ae8 43b2 e93f
000000a0: 42c3 72bf 5262 b93f 3350 aeda 99b0 b23f
000000b0: 47d5 7d47 e69e f3bf 8b51 31b7 5cb3 e8bf
000000c0: f931 08a2 2505 e03f 4a52 9f5a 351c ecbf
000000d0: 9f78 5fb7 f0e4 d33f b962 5594 68e1 e9bf
000000e0: 0f56 d25f cf37 f7bf 2355 47d8 9795 e93f
000000f0: e0fa c842 ff3e d5bf b9e2 2b78 a364 ed3f
00000100: 51e9 a2fd 17d3 0140 fff4 201e 6f78 f83f
00000110: 244f b65e 2a33 df3f baa6 b51b 7fe6 e53f
00000120: a64c 6b91 4b54 0240 038d efb0 0c13 e7bf
00000130: 5946 420d 0cc3 cf3f f47f 5707 b042 da3f
00000140: da13 aeee d207 d6bf 482e 3838 2208 7e3f
00000150: 1453 6bdd b3ce ebbf bee0 3add 6bb8 e33f
00000160: a64d 06ac 545e f03f cc8f d613 32dd d4bf
00000170: 7016 df25 8327 f3bf 96e3 e355 2ae2 e13f
00000180: 2ec9 7b7e 8f73 dc3f bb8f f5ec 7352 f43f
00000190: a981 c94d fff0 f6bf 03a7 bf29 36a9 fabf
000001a0: 6a71 19fe fdfb b8bf 8d07 6bf5 554e cf3f
000001b0: b927 10e6 342e e13f 844a e1ec 33f7 e7bf
000001c0: d5fc fdc2 7532 c8bf 1db0 acc0 4704 e2bf
000001d0: 4d38 a98e fa02 f33f 6b5e 8ebf 8d48 e1bf
000001e0: bc74 669a e461 00c0 90d6 9a05 d94b afbf
000001f0: bbd6 698e e436 ebbf c39a 31be 57c4 e0bf
00000200: 49e4 6185 7fe0 c1bf 6dfa 7e4a 7694 0440
00000210: 5672 051f 5e3c da3f af45 b38d 4327 ecbf
00000220: 393f 7024 f674 d5bf 4a94 d263 b8a7 be3f
00000230: 11eb b5ce e96d fcbf 17ac 7d32 74ec e13f
00000240: e97e faae a6f7 05c0 fc49 8454 5858 ce3f
00000250: 0e4a bac9 7fa8 d0bf 8b18 829d 997b 0240
00000260: cb4b 6588 9c3b fe3f 0e90 9870 a41e e1bf
00000270: ede5 77f8 9aa5 ec3f 7afc 548f 6d68 cabf
00000280: 08ee 3cb1 88ff ddbf f6be 4a76 5fb2 f8bf
00000290: 3d3d 8d5f 7286 f8bf c068 32d0 7119 f63f
000002a0: 9396 82af ffdd 9a3f 60b6 740e d4e2 ed3f
000002b0: fa3a d7fc 6fc0 bdbf d0e7 c69e 14d3 ce3f
000002c0: 580c 1f73 d9ee f03f 83c0 baa4 7fc8 e9bf
000002d0: 18e9 647d 7ba7 f3bf 5d77 9dad d242 eebf
000002e0: 00ee f70d 51fb f9bf d6f0 0c99 d816 d73f
000002f0: 4c7c c223 9348 f9bf 3a69 b19f a0af da3f
00000300: f811 6aa0 c27c e6bf 399c cdf8 c7b2 f13f
00000310: a5ed 3f85 72ba f33f 6b99 664e 36e3 9cbf
00000320: 3f9a 00e8 4c2a f7bf 3740 a052 8e01 e7bf
00000330: b5af 848a 509b 91bf d238 855b 8267 debf
00000340: 8218 7b46 4133 a23f d589 1fb5 6514 02c0
00000350: 2bff c137 3af0 cc3f 00fb a689 21c8 d3bf
00000360: 1436 c2ff 0b36 f1bf 4626 21fc be6c f43f
00000370: fde7 bbff 1a41 c1bf 3d12 3569 f221 c7bf
00000380: 8717 d9c1 6e03 f6bf c2fd 83b1 5cb5 d6bf
00000390: 7593 6d87 fa98 e53f 7c0a e4ed 8c0b f4bf
000003a0: b26e 0b70 9172 d6bf 3457 91a4 f39b c63f
000003b0: 4281 9fce c6f3 f73f 93b8 9a87 081d e73f
000003c0: 1335 697c 23a8 f4bf d349 4389 e442 dabf
000003d0: 3673 71df 58e1 fbbf bdaa 10ff 547b babf
000003e0: 1d03 652b 90ae fabf b82b 2cae d6f5 d03f
000003f0: f1b3 16f6 5857 e1bf 4e3b def3 f0b9 f03f
00000400: 3cde 46e9 884f d6bf 22d2 f7ed ab3d e83f
00000410: 1e4b e197 6bbe f3bf de1d e4d9 7a70 f2bf
00000420: ee07 17dc ab6e e1bf 92bf 428e e5df f13f
00000430: 9e87 1c33 5c82 e43f 5f70 e3d5 12bf c8bf
00000440: 0a69 2f68 1755 fd3f f4f4 453f d054 dc3f
00000450: b64f a4e7 0075 d9bf 6104 6bbf e206 02c0
00000460: 4587 2dd6 e3d4 f53f 7239 f18e cfd4 d4bf
00000470: 8f5f 1a81 4999 e1bf adb8 fe95 3973 e7bf
00000480: 9a3b dbb8 b218 ecbf 19e0 f1f0 d6e4 d6bf
00000490: 55a9 d231 783a df3f 385d 0b39 6cb4 d93f
000004a0: 7daf 0d2b 9d93 e43f 0a9a 05df a8ae c2bf
000004b0: 46e0 e88d 05fc 9bbf 5c8d 3e1f 0848 d93f
000004c0: d2a8 ae90 2232 e53f 31d6 3a83 68a9 fcbf
000004d0: bfc6 3c78 c11d 7a3f cf4d 209c 5c79 dfbf
000004e0: c9b0 8fb5 968a dc3f 0612 b4a9 fc40 f63f
000004f0: 18f6 6155 a73e d33f 5dcd 0ae2 c051 e63f
00000500: 5339 3373 c3dd c0bf 2350 4356 31d4 d3bf
00000510: 6768 23e1 7124 fcbf 92a1 1b9a 8c1c dbbf
00000520: 869a b7d2 eb1b 0140 374b b74f 9a67 ec3f
00000530: 4517 368b 9c31 e63f b611 32b0 ccd3 b0bf
00000540: 67e6 8a69 8a04 bf3f 59cf 5c26 2058 e43f
00000550: 1fac dc05 daac e8bf 5b55 4392 20a2 b4bf
00000560: 3da8 cf19 46e3 d9bf 6a50 06fd 4df2 f3bf
00000570: 030b cf1a 3967 c4bf bfdf 3376 79a0 f4bf
00000580: e875 c3a6 753e f73f 302f 2e4c d3b1 bc3f
00000590: 3928 73b9 b9ff e53f 400e 9e2b 0352 f23f
000005a0: cb30 f91d 3c0c d2bf 865b 9543 cb6c fbbf
000005b0: 595a 1d5d 45bb adbf 1fd0 1add 537e d0bf
000005c0: 713b 221f 31db e8bf a74b 14f6 8256 e1bf
000005d0: 5b05 057d 36f2 f8bf c49e 84b1 d9b1 e93f
000005e0: 2c11 582a 55aa de3f fe98 68d2 8894 e7bf
000005f0: 8be0 eceb 392d ea3f aa79 a16a f460 c5bf
00000600: 0b45 d98e 02ae d7bf 03fe bce8 6531 f1bf
00000610: 46c3 011f e15e d7bf a986 3e25 b99d fa3f
00000620: 2b4f d073 c0a2 f2bf 4084 6c1a 8817 8c3f
00000630: a3dd eac2 829e f13f 12a6 9d77 3e72 c6bf
00000640: 32d1 8918 ecd5 e53f 9634 de31 faf1 febf
00000650: 87d6 11b4 4388 e0bf ac3a 64cf a891 03c0
00000660: fd5c 0651 f68a f2bf 9f47 7c69 aa6b edbf
00000670: 2779 b2fa 37d2 e53f e862 48e0 54e9 dfbf
00000680: dad5 9cfa 4b30 f73f 990b 0238 4309 e6bf
00000690: ad78 1bbf f71a e13f 55cb 76fa 7db2 d73f
000006a0: 1df0 cc6d 18f4 edbf 3745 af7c f293 e9bf
000006b0: b1a6 a95e e724 c2bf 49cc f172 68f0 d73f
000006c0: adf3 c043 0020 c2bf fe05 30d9 894c fb3f
000006d0: 37cf 707c 17ae f73f 7692 3ac1 b6e3 dabf
000006e0: 36d2 c52d 055d fcbf 0719 437b ad2e f43f
000006f0: d377 d0da 6a5c f3bf aac9 afc6 5cba b3bf
00000700: 9154 d0b9 3c07 f3bf 725d 1ce2 00d2 fbbf
00000710: d8f1 6c53 e9d0 eabf 8fb0 9621 a8f6 f73f
00000720: 013f 49dd 8234 e43f 9e3d 203a 1248 703f
00000730: 4104 056b 18b2 eebf 6d0b 2304 7a3c c1bf
00000740: b13e 5272 9ab4 b8bf 20d8 ca40 041b e03f
00000750: f2a9 06ff 0d02 02c0 c40d 1ee9 1c85 d23f
00000760: 37f9 9abc a314 e7bf 225b 0fb8 4368 f73f
00000770: 9bad 732c 94c1 0140 42cd ba66 6387 d73f
00000780: e2cc 015b 6866 e93f b2ab 1149 b5c8 d23f
00000790: b187 7b17 c69e d4bf 9487 ef80 7a01 d9bf
000007a0: 2ab6 37fc f709 f5bf 70e2 ec87 3c7f f1bf
000007b0: b9a7 4a21 08da c7bf e268 1e92 d39c ed3f
000007c0: 1d14 ebbc 4648 d6bf aa2e 4b49 1169 dc3f
000007d0: f835 91ba dab3 d5bf 7162 bb63 8213 e7bf
000007e0: 801a ab52 65ec fcbf 0b74 75a0 1809 d0bf
000007f0: 093c db2e 80dd 01c0 0a63 5d47 fc50 cebf
0.9770241639714654 1.0922023346468979 0.15740539112819854 1.7994211523220323 -0.032316590278174656 0.2891576599189048 0.01879428833563088 -1.9537160135376246
-0.47171525595123476 1.188878697567363 -0.005468455373117897 0.19396252124435648 -0.1589119985744917 -0.8416824603877741 1.0507049354817581 0.3049807687139417
-0.6739127969907013 0.6743744476794473 -0.931430564255722 0.8030108960436664 0.09915654348402561 0.07300721730126795 -1.2262938301694974 -0.7718947961789565
0.5006282963454957 -0.8784434099166643 0.31084840686333765 -0.8087656876696975 -1.4511255019218685 0.7995108818237536 -0.33197003862362173 0.918534979543515
2.2280731025067912 1.5294028450874178 0.4874978947566311 0.6843867818071978 2.2911597596044713 -0.7210753875519064 0.2481398644199995 0.4103202888200024
-0.3442275362834245 0.0073319756225021585 -0.868982250651785 0.6162623711488988 1.0230299682342348 -0.32600070893590494 -1.1971465567925428 0.558858077768593
0.44455325462253625 1.2701300865382865 -1.4338372267303419 -1.6663114195638975 -0.09759509519193946 0.24457811816506272 0.5368904584331552 -0.7489261271060319
-0.18903991719341798 -0.5630224955725712 1.188227231282798 -0.5401066533403996 -2.047799307109555 -0.06112554734629072 -0.8504507810127601 -0.5239676203462625
-0.1396636391907882 2.572491247177189 0.40993454961225007 -0.8797929542144426 -0.33526376303142374 0.11974670826983061 -1.7768343042977828 0.5601140009069948
-2.7459233923144564 0.2370710766486609 -0.26028437328309983 2.310351591618262 1.8895535781818917 -0.5349905203952419 0.8952154972932341 -0.20631188868171418
-0.4687215548362649 -1.5435480709820104 -1.5328239185799497 1.381212056416686 0.02623748310784053 0.9339390070287656 -0.11621761248464316 0.24081666710645644
1.0583128449368555 -0.8057249276516959 -1.2283892534456466 -0.9456570998115513 -1.6238565965312546 0.3607694143900181 -1.5802184483398092 0.4169694480421132
-0.7027295239536775 1.1061477393029817 1.2330193715159592 -0.02821049550552727 -1.447827249774164 -0.7189399350918454 -0.017194040731893973 -0.47506770074404614
0.03554729447709894 -2.2599596166848905 0.22608115885304278 -0.3090900272617745 -1.0756950369426521 1.2765493248756612 -0.13479936110508098 -0.18072347771716749
-1.3758380481899353 -0.3548194631148044 0.6749241490439163 -1.2528199474915303 -0.3507426828561889 0.17663426909956004 1.497015769120552 0.7222941063426042
-1.2910494670680392 -0.41033280758452156 -1.7425163963554957 -0.10344439723182126 -1.6676179595089657 0.26500479706799807 -0.5419125372333139 1.0453958059403763
-0.34860441952648435 0.757528271466587 -1.2339893276991414 -1.1524609099741308 -0.544759683478558 1.1171622807559953 0.6409131048460386 -0.19333110278865015
1.8332742757543792 0.44267660311727686 -0.397766329014526 -2.2533621744665173 1.3644750944444735 -0.32548893889624886 -0.5499618073981639 -0.7328155450429868
-0.8780149088359963 -0.35771726159828315 0.48794369569318025 0.4016371304582722 0.6430192795646544 -0.14595518960705106 -0.027328573976973546 0.39502146769719615
0.6623699975800952 -1.7913594366231218 0.006376033535887947 -0.49178233381937003 0.4459587834414945 1.390865958122164 0.30069907510900995 0.6974796690832751
-0.13176768422131122 -0.3098262159740008 -1.7588976664033227 -0.4236175065002722 2.1386333906442045 0.887646823592468 0.6935560912104185 -0.06573180486345262
0.12116303517077541 0.6357575177448594 -0.7711000551693167 -0.08059886523127117 -0.4044966938078039 -1.2466564067626913 -0.15940011796018191 -1.2891783349314065
1.4527489198875347 0.11208839998124343 0.6874664899889985 1.1450225547604447 -0.28199675490465087 -1.7140610351541183 -0.058069388977561594 -0.25771042434939945
-0.7767568214493236 -0.5418104940639424 -1.5591339953974372 0.8029602496289603 0.47914628157765793 -0.7368816480200449 0.8180207832256355 -0.16702132422046861
-0.36999572706288636 -1.0745600787485052 -0.36516597774521065 1.6635066466191495 -1.1647343181584329 0.01371675806655237 1.1011989225351975 -0.17536145058265667
0.6823635558380714 -1.9340764949768405 -0.516633845995515 -2.4461227610075493 -1.1589263119729474 -0.9193927822363895 0.6819114586285523 -0.49861642744649126
1.44929120917856 -0.6886306852251095 0.5345419628681803 0.37026929339770237 -0.9360468048612379 -0.7993099627730434 -0.14175121423914086 0.37404834008265603
-0.14160159405028364 1.706186149968175 1.4800028668368677 -0.4201485526084875 -1.7727100170133219 1.261395913593846 -1.2100628421244337 -0.0770624146532898
-1.189266897044295 -1.7387703735783728 -0.8380018834500857 1.4977189361625596 0.63141005725808 0.003974982451850377 -0.9592401590563285 -0.13465810014721616
-0.09650578776404008 0.5032979264713084 -2.2510032581242223 0.2893745686089597 -0.7212694820116557 1.4629552068560732 2.2195209000398797 0.3676384452075646
0.7937509324532608 0.2935002530636509 -0.322190783435981 -0.39071524230359356 -1.3149337627650177 -1.0935635861952981 -0.18634130120818584 0.9253938535578323
-0.348161396494392 0.4439128127821542 -0.3391024419732669 -0.7211315105333381 -1.8077138165696454 -0.25055518789105297 -2.2331546459822715 -0.23684648022278793
