balderdash_lstm/lstm_model/models/lstm_model_11.npz (npz, 903256 bytes, 19 tensors)

forget_gate_weights f8 [108, 81]
0	0x3fe020d57b0f9b66	0.5040080455336067
1	0xbfe498fb525d8b24	-0.6436745270442299
2	0xbfe756ce0c81bf75	-0.7293462986253717
3	0x3fe9a984eddfa4d3	0.8019432683915063
4	0xc004ba7e5fe667b4	-2.5910613529385618
5	0xbfcfac0cc964b394	-0.24743804773006828
6	0xbfe33ecfb5825e51	-0.6014174027540752
7	0xbffadaaf7d222dc1	-1.6783900154140243
8	0x3fe0ddcfc4bc1fee	0.5270766108014848
9	0xbfc205d4dfa3ef0d	-0.14080296440067067
10	0x3ff90dbb90eddbb9	1.5658527051252646
11	0x3fdb574a92327429	0.4272028377252491
12	0xbfe3ed72ce0b7aad	-0.6227354072869581
13	0xbfe5839e8cff5499	-0.6723168138365906
14	0x3fa31845a6354539	0.03729455617816275
15	0xbfda2b098b65d3c0	-0.4088767873102448
16	0xbfe9893cbf3f1598	-0.7980025992662148
17	0x3fd98d497f1d2c07	0.39924847997161844
18	0x3fe0c3057c94c68f	0.5238063271737746
19	0xbfec8b976b6fd50f	-0.8920399759651064
20	0xbfc1a27d54e497ac	-0.13777128834879926
21	0x3ff146d6896b06e5	1.0797944419759287
22	0x3ff60f868d8fb393	1.378790429090462
23	0xbfda5133a577eea5	-0.4112061611083198
24	0xbfd2aa659a255bec	-0.29165020039857725
25	0xbfe6ee648cd6294d	-0.71660068041937
26	0xbfed7ca48c417258	-0.9214651812904533
27	0x3fb4afb9ec416d5f	0.08080636995275857
28	0xc002671da7a64683	-2.3003495309465634
29	0x3fd6fa1dbd101394	0.35901587927974643
30	0x3ff2e105aadd9cb4	1.1799370455208136
31	0x3ffa3c05851bcf8e	1.6396537017398916
32	0xbffe083a1a2813c9	-1.8770085355511006
33	0xbffb7004a25b374f	-1.7148481695216622
34	0x3f83e57037524fb7	0.009714962662009314
35	0xbfd18d3ef8d7ac3a	-0.27424597073576573
36	0x4001b6effcc74b29	2.2143249271697596
37	0xbfeb88a137cbefe2	-0.8604284372117912
38	0x3fe4bfe870bb6db2	0.6484262658881816
39	0xbfeeaad5d055dda3	-0.958353907494644
40	0xbfdad32e8a640b1d	-0.4191395141098598
41	0x3fe0f4d6433d6ea5	0.5298873246460586
42	0xbfe12f652f345cfd	-0.5370355531657932
43	0x3ffabc02a1cfc400	1.6709009476437586
44	0x3fffd12a46dc1e7d	1.9885657089197644
45	0xbfc35719f9832364	-0.1510956257173134
46	0x3fc51ec1b98ac282	0.16500112113637405
47	0xbfdbba1026c1218c	-0.4332313898526301
48	0xbfbd03af959a91fb	-0.11333749201236991
49	0xbfebcade794bb389	-0.8685142869049837
50	0x3ffd35e53408c425	1.8256580383861174
51	0x3ff648f17aff9ffb	1.3928084187155025
52	0xbfc6d2fb16cb3d25	-0.17831362355216487
53	0x3ff87d8f73dd3661	1.5306543851796948
54	0x3fe142865479b227	0.539370694151846
55	0xbfe3d664e43c7dcf	-0.6199211557140475
56	0xbfe78c2080e4f4e5	-0.7358553426235203
57	0xbfd6288e4da59ad1	-0.34622533400253724
58	0xbfc0f4e17bb252f2	-0.13247316875335674
59	0x3feb599391454f74	0.8546846234626018
60	0x3fe6a4c7d280f5a7	0.7076148139382682
61	0xbfa96ec13e43a9a8	-0.04967311749517772
62	0xbfebaaad7f0f3842	-0.8645846826200414
63	0xbfdb46c30404ec50	-0.4261939563036252
64	0x3fd731a0e32aa4d0	0.3624040811942679
65	0x3fcfcd44e18846b9	0.24845181476898917
66	0xbfa484dbea0db71c	-0.040076134034150196
67	0x3fe2857318b157d8	0.5787902338295181
68	0xbfeb0fc3de249c9d	-0.8456744517069584
69	0x3fb29b78c8c3ca38	0.07268481160625917
70	0x3fcb6557314d7238	0.21403016955709275
71	0x3fe7c7a15e037cf9	0.7431189380839945
72	0x3ff3fdd7feecc0e6	1.2494735677719802
73	0xbfe718a4bf724c5d	-0.7217582453907984
74	0xbfe2019de5b0ad54	-0.5626973615775719
75	0x3ff51efc4138093b	1.3200647876370357
76	0x3fe772fe08c7b0aa	0.7327871486172814
77	0xbfe65818281f0f99	-0.6982537063236008
78	0x3fe4c0c79913a5dc	0.6485326757221475
79	0x3fcc26cf7896d717	0.2199344004454182
80	0x3ff28b5a06ede87a	1.159021403377237
81	0xbff208c377679550	-1.1271395363085794
82	0xbfd6399ff0600a94	-0.34726713632714135
83	0xbfe0adfda835c066	-0.5212391171790045
84	0x3fe1e2473cad7ac4	0.5588718590841713
85	0xbfe3e871ba519c85	-0.6221245421446758
86	0x3ff3fb991647da68	1.2489252920473977
87	0xbff156027b9f43a3	-1.0834984616269387
88	0xbff6429ad8d9fb67	-1.3912609549294872
89	0xbfe89b693093d3eb	-0.7689710568216673
90	0x3fa8d9aa96e83316	0.048535662575977565
91	0xbff4ddd0c7ead8b6	-1.3041541871330486
92	0x3fc075a1b09f1d28	0.12858983158205572
93	0xbfc580c3672bed51	-0.16799204385447777
94	0xbf8d1e1e1311c6a4	-0.014217600781395952
95	0xbfe6fe06f1143fd0	-0.718509169442763
96	0xbfeb28d17a86a89a	-0.8487326996885429
97	0xbfb8e65b527b19d8	-0.097264964711122
98	0xbff408fbbeba7d7b	-1.2521932077723636
99	0xbffeebb87b25a183	-1.9325489817075272
100	0xbfe5b338e771f84e	-0.6781277199186293
101	0xbfce7082a603ada5	-0.23780854326410608
102	0xbfa51cb139b0ff1c	-0.041234529774099665
103	0xc0013998a59ec4c1	-2.1531231822087595
104	0xc0073bf3f057437b	-2.9042738701468216
105	0xbff41f1884425866	-1.2575917402623644
106	0x3fabc9be55bbd78e	0.054273555722757924
107	0xbf950f13c1de4e4c	-0.020565327365672112
108	0xbfec091761b41306	-0.8761097820539312
109	0xbfe4b41677023305	-0.6469833683382552
110	0xbfbc1d2d4eb07ea0	-0.10982020541313853
111	0xbff36729f99b8565	-1.2126865148823864
112	0x3fe43771926ff8c3	0.6317680225472703
113	0x3fe33663ae2f40e2	0.6003893281977322
114	0xbfcd820d7e500bb9	-0.2305313936959388
115	0xbfe3fb5563b8bd9a	-0.624430365341982
116	0xbfe87dcb028d0afb	-0.7653555917571276
117	0xbffb01c9267c5ca1	-1.6879359725333318
118	0x3fe7a1ee318c7d38	0.7385168998479577
119	0xbff53210b71ae832	-1.3247229721587357
120	0x3fc06ac5655a84cf	0.12825839470773423
121	0xbff2b338dd0a13f6	-1.1687554010725285
122	0xbff097e27aca55c3	-1.037081222200286
123	0xbfff0f1108787d83	-1.9411783533940656
124	0x3fdbba233c1622ca	0.43323593967265295
125	0x3fcb583b87670797	0.21363014327476712
126	0xbfea03627c7a3642	-0.8129131728362113
127	0xbfce38bc3a02731d	-0.23610642273424612
128	0xbfe502d93c5689d7	-0.656597726676689
129	0xbffa2e92fc2f8f42	-1.6363706446654338
130	0xbf82c3d681ed6b68	-0.009162593689031787
131	0x3ff0544cbc7952e3	1.0205809938681163
132	0x3fd356ccc033e1bd	0.3021728398303159
133	0xbffe36bf3b934107	-1.8883659674793891
134	0x3fb73ea2ac17b683	0.09079949094276611
135	0xbff3aa6f5235db79	-1.2291100703566527
136	0xbfd3c7b0f419226e	-0.3090631850978188
137	0xbff83a7cf91906ba	-1.514279339826699
138	0xbff1a70585488b46	-1.1032767492658464
139	0xbfcb0f75b2353293	-0.21140929414322737
140	0x3fc84604abf72a4e	0.1896367873835793
141	0xbfedc8fcc58e36ea	-0.9307845934397083
142	0xbff514462a6b9b74	-1.3174497277302324
143	0x3fd69692efe2e100	0.3529403059615248
144	0xbff9963792ad7331	-1.5991740922538151
145	0xbfe7083b61c8027d	-0.7197548780241757
146	0xbfd12badda8caa16	-0.26829096167298994
147	0xc0041840cc7c3fb7	-2.5118423438470603
148	0x3ff81c171cde557a	1.5068579795527897
149	0xbff2db3ca6309b40	-1.1785246364394908
150	0xbff9768e2d83f1b5	-1.5914441850610335
151	0x3fd2ffec02070736	0.29687023351663144
152	0x3fd7da99bf3e6075	0.3727173202146397
153	0x3ff4ab71d98c0292	1.291856622498163
154	0xbfe70265e33bda97	-0.7190427244339216
155	0xbff569d01c93c39b	-1.3383332363411913
156	0x3fc516ebbbe0c36f	0.16476198838929743
157	0xbff084affe0535bd	-1.0323944018049211
158	0xbfb35d8e1d74da73	-0.07564628810073674
159	0xbffaf8b65f3c86bc	-1.685720798508938
160	0xbff8eb2f77236fca	-1.5574183133930881
161	0xbffd667710d726a4	-1.8375158937291554
162	0xbff056745b2f6291	-1.0211070596616632
163	0xbfdf07828c492716	-0.48483337116032155
164	0xbfea0ebb09b9cb3b	-0.8142981710392186
165	0x3fd05eba26544445	0.2557816862400311
166	0xbff738e4c454cbd7	-1.451390044134987
167	0x3ff70245a574ec62	1.4380547011521903
168	0x3f8c9aacc1505ea6	0.013966893815492053
169	0xbffc4c03de5389ee	-1.7685583767530448
170	0x3fcbb09cd317fd0d	0.21632728869733633
171	0xbfb880b414639d76	-0.09571385858327183
172	0x3fc6fa261e84a7d4	0.17950893869539064
173	0x3fe03608e1fef47b	0.506596032522466
174	0x3fc96fa771ca9b7a	0.19871991211149603
175	0xbfd307be60ffb17e	-0.29734763596095337
176	0xbfd2351bcc0187e7	-0.28449149057826023
177	0xbfb4c6b8695bd3de	-0.08115723201974798
178	0x3fdacbe40fe2fd9c	0.418694510950411
179	0x3fc3d9fa576fa45b	0.15508965749112033
180	0xbfe63d403c036ded	-0.6949769184242861
181	0xbff25075df476e9a	-1.144643661674229
182	0x3fecedb8c496a931	0.904018768274261
183	0xbfa73fda239dca2e	-0.04540902790804001
184	0xbfd4f2796238e67b	-0.32729944793718574
185	0xc004eb1812382f0c	-2.6147920058628014
186	0xbff3269cc450fdd7	-1.1969268482788402
187	0xbfd09ebb31214827	-0.2596881847176768
188	0x3fdd04dd29162d28	0.45342186939588425
189	0xbfe0c5c0280b62a8	-0.5241394788855205
190	0xbfef63337e20534e	-0.9808595145610555
191	0x3fdd85e86f777308	0.4612980927029615
192	0xbfc2cb83d0345afa	-0.1468357817290878
193	0x3ff636df89cbe54b	1.388396776454402
194	0xbfd6b499e8c4378a	-0.35477302294827295
195	0xbfe84c868bf21dae	-0.7593415005985003
196	0xbfae4a20c0d98c14	-0.0591593013202997
197	0x3fe01bd0e35060cb	0.5033955039716828
198	0xbfd7998a4473b081	-0.3687463444209769
199	0xbfd323800873dee6	-0.29904175591899074
200	0x3fdc6f526fa3a59d	0.44429455663938616
201	0xbfda648d7e478587	-0.41238725025149175
202	0xbfc2258ab4be5f4c	-0.14177068543789983
203	0xbfdd4938c9afce2d	-0.4575941056820934
204	0xbffde110ca133160	-1.8674476522019958
205	0x3fd852c11a3c4f40	0.3800509220320585
206	0x3fdd07d01f6d7e8b	0.4536018664275409
207	0x3fde36559fe8ebc1	0.47206631294437434
208	0xbff2b46440b34808	-1.169040920959107
209	0xbfc7c15844d27d6d	-0.18558791504345198
210	0xbfd161899477c136	-0.27157821177299313
211	0xbfeaa36cf34b5ee4	-0.832449412521751
212	0x3fce5c525f9320a2	0.23719243685468877
213	0x3ff68f9a4ec95ac0	1.4100592687224633
214	0xbfe0c11d78bec3b1	-0.5235736234954996
215	0x3ff22643ac74772a	1.1343418823739264
216	0xbfbc4865deb7ac85	-0.11047970473707565
217	0xbfe0d5b46e8dc129	-0.5260870131733429
218	0xbff2eef5a4d9ad78	-1.1833397330727546
219	0xbfd190895bfabb7d	-0.2744468115078503
220	0xbfc486251cbd153d	-0.16034377959491933
221	0xbf9d7cd858bb22b7	-0.028796558776579242
222	0xbfedfb43b046c3b8	-0.9369219248675256
223	0x3f9a9d9e5b4be21d	0.02599189216832275
224	0xbff1fac85283e5bd	-1.1237261985064457
225	0xc00262fe71e29042	-2.2983368775622077
226	0xbff2021a43c05ead	-1.125513329176026
227	0x3fdeeeda1a1081c1	0.48332836671218266
228	0x3fd64fc83903bfcf	0.34861951415859677
229	0x3fdff6aa569e8430	0.49943026026636783
230	0xbff2f74e1bf746e7	-1.1853772251528711
231	0xbfc09b8b7835e13d	-0.1297468506779839
232	0xbfd2226d8570cfa3	-0.2833513072139288
233	0x3fe882d5e4c8f26f	0.7659711330848732
234	0x3ff3f9237daddae1	1.2483248624172847
235	0x3fd2598a34d68bef	0.28671507987945594
236	0xbfe33a80bd088bbe	-0.6008914653833626
237	0x3ff25417b516a85b	1.1455304216165334
238	0xbff8e9b7a523c75d	-1.5570599032184511
239	0x3fdaa0894582ca0f	0.41604835308240323
240	0xbfca0e2ccdec6c9f	-0.20355758719310743
241	0xbfcca1bcaad7a84a	-0.22368582097925788
242	0xbfe829ef7899d5bd	-0.7551190715300248
243	0x3ff5bce094b80bac	1.358612614568055
244	0xbfe53f70c84fb628	-0.6639942085582264
245	0xbff73774048590d3	-1.4510383774405013
246	0x3fe89123367fdf7b	0.7677169861262735
247	0xbff5d26c3f455152	-1.3638727637781654
248	0x3ff2e7bac93f1235	1.1815746174990072
249	0x3fcfc99626502a7c	0.24833943243750756
250	0xbff43af65278025d	-1.2643950673520046
251	0x3ff01536569471d5	1.0051787740732057
252	0xbfeff3758c15bccd	-0.9984691368134918
253	0x3fe8d919bc575dbd	0.7765015295544156
254	0x3ffbf5b84dd1bcad	1.747490219098647
255	0x3fea830278d86a04	0.8284923897038543

input_gate_weights f8 [108, 81]
0	0x3ffcdda3ba5896c4	1.8041112212317083
1	0xbfe63f1c71fa0b9c	-0.6952039934261509
2	0xbffe0021d8c926a9	-1.8750322788422784
3	0x3ff048f56ba611d7	1.0178121762302135
4	0xbff81b981b9df689	-1.5067368582525964
5	0x3ff83a0ec245ea78	1.5141742314141577
6	0xbfbeb5f95bd1ee61	-0.11996420375538143
7	0x3ff8e4a4e7ab6503	1.555821328124069
8	0x3ffb9693e2eaf01d	1.7242621292089162
9	0xbfdb76d1d99ee32c	-0.4291271805955599
10	0x3fef1779045bae3a	0.9716153226012871
11	0xbfe3112af183bb89	-0.595845672329106
12	0x3fca9f995dab2326	0.20799557756097292
13	0x3ff7e7305ce8a9a4	1.4939426068545822
14	0xbf5a296693d47d71	-0.001596784756948324
15	0x3fec3fcaa098b5e3	0.882787049927796
16	0xbfb2bb55d3eed54e	-0.07317100929397677
17	0x3ffbd1feeecb030e	1.7387685134746707
18	0x3ffa1b80213527f5	1.6317139908956027
19	0x3fc6b0175a6cd799	0.1772488776711583
20	0x3fcad4f2dec3aeac	0.20962367894332112
21	0xc001b42b9f2d1f22	-2.2129738269467376
22	0x3ff5e4f30ff1ad25	1.368395864755095
23	0xbfd4d65527b2459e	-0.3255818259868536
24	0x3fe089c31b6e85fb	0.5168166671539319
25	0xbfe8d95552bba485	-0.7765299430731295
26	0x3fe2e03d66f3cb67	0.5898730288302944
27	0x3fd74af67096cf43	0.36395035738972953
28	0x3ffee4efc7f30f68	1.9308927355313816
29	0x3fc26e41a072ad8d	0.14398975691197471
30	0x400477ca19028239	2.5584909395113553
31	0xbffa614f4cc322a7	-1.648757266857652
32	0x3fb37288f4ffd895	0.07596641522818211
33	0x4000bb14b3fe62f3	2.0913480817802053
34	0x3ff6bbfaf1b37b18	1.4208936158608534
35	0x3fcc60f325266c7d	0.22170867265672092
36	0x3ff56b680a91f501	1.3387222683807638
37	0xbfee9073861140cf	-0.9551332109931766
38	0x3ff232600090b6b9	1.1372985860902374
39	0x3fe5cbbf72cb3e99	0.6811215631550623
40	0x3fd017fc79bd6f02	0.25146400345487063
41	0x3fe75a76d0c71b63	0.729792983788553
42	0xbff016305267b2a2	-1.0054171770999933
43	0x3ff5f52d455b2987	1.3723576268408537
44	0x3fb16ec84337d5e5	0.06809665337626532
45	0x3f6050e38e12e4ec	0.001991695826828113
46	0x3fd2fc4821f47c4b	0.2966480571357734
47	0x3fdda968a78f7a44	0.463464892991315
48	0x3fe49ec5b15aa058	0.6443813766427509
49	0xbfee2c9c71cdc3af	-0.9429456923227145
50	0xbfd1edae331fa1d2	-0.2801318644765419
51	0x3fe3c7fbd1395c89	0.6181620680244048
52	0x3fd43c75c55bf96f	0.3161901881539028
53	0x3feb318472a24cf0	0.8497946013398217
54	0x3ff5253650178b40	1.3215849999039193
55	0xbfec28384153004e	-0.8799096370567072
56	0xbfeeba9be45e9b74	-0.9602794132559738
57	0x3fdfebd5c3dec8b2	0.49876922729448403
58	0x3fdc0b34a167879d	0.4381839348044368
59	0x3ff6daeb143fcc32	1.4284468451485393
60	0x4001ed2dad69d3b9	2.240809778968892
61	0x3fbf10c84cc93f26	0.12134982943211678
62	0x3fe5702f8f39cfa3	0.6699445531253229
63	0xbfe55a46f6cdec9d	-0.6672701664350772
64	0xbff26cf22fc9bc9e	-1.151598154708871
65	0x3ffa47d78c48f2b5	1.6425395469552033
66	0x3fead8e0b187b1c2	0.8389743296989354
67	0x3ff06a2b42c451b6	1.0259201629715853
68	0xbffc8b05c957ccfd	-1.7839410653076009
69	0x3ff050130411515c	1.0195493849651802
70	0x3fd68fe4e9bfec78	0.3525326044761594
71	0x3f62c4b47982c3df	0.0022910618682421137
72	0x3ff6171bf129fa36	1.3806418819873563
73	0x3ff27603271bee7c	1.1538116004657288
74	0x3fd24bf285579d31	0.285885458199533
75	0x3fb1bd53cdd41bca	0.06929515624152241
76	0x4002ad766932b0f7	2.3346985071749446
77	0xbfd02d6cf2b27dc3	-0.25277255726720343
78	0x3ff63f4ce7c2b02c	1.3904542019981916
79	0x3ff953f35cc7ac1a	1.5829957603662081
80	0x3ff8037d9153a519	1.5008521725488377
81	0xbfe368914e223182	-0.6065145994230507
82	0xbff0b56c1a0ceced	-1.0442925469968103
83	0xbfb2fc4578719ba1	-0.07416185560724255
84	0xbfd9d6c100921711	-0.4037325387547393
85	0xbfe3b2bd1501fd2b	-0.61556867697792
86	0xbfa26a56d41532d6	-0.035967553509726066
87	0xbfef96ada58dd9a9	-0.9871433480719151
88	0xbfe42a58ee997b6d	-0.6301693592211969
89	0xbfd89a5870bc0c44	-0.3844204998897036
90	0xbfc5126a288e0c6e	-0.1646244714757787
91	0xbfd791240fc50652	-0.3682336954117079
92	0xbff92a7818ea9e2e	-1.5728684399890756
93	0xbfd4557b2cfce86b	-0.3177173556647463
94	0xbfe227cf33eecc1d	-0.5673595442116298
95	0xbfae140e97d93cf3	-0.058746772800640466
96	0xbfd87b2f616853d0	-0.38251862060979835
97	0xbfcc30498c363a38	-0.22022361131935653
98	0xbfc7ddda51819af0	-0.18645791034506187
99	0xbfd55415f4c0e5bd	-0.33325718785962605
100	0xbff07ff053661273	-1.0312350518953763
101	0x3fdd8cfe7006beae	0.46173058452675775
102	0x3fe0119df5a2094a	0.5021505162733686
103	0xbfec1e6ce59979cc	-0.8787140354505083
104	0x3ff1fc259bd6794c	1.124059303990708
105	0xbfed366a455901a7	-0.912892470783892
106	0x3fb0654f5f85b78e	0.06404586870277582
107	0xbfd5524ff6debc9a	-0.33314894779591386
108	0x3fdb1569e62ca8f7	0.42318198659872003
109	0xbfed6931323abaf4	-0.9190908413928285
110	0xbfebfdb3ef3d3ef0	-0.8747195885316312
111	0xbf5361a60bd771ec	-0.0011829492135496623
112	0xbfd830656220047b	-0.37795385916258056
113	0xbfeb2e8517ef0367	-0.84942869829693
114	0x3faa2cfbda9d832e	0.051124449192462826
115	0xbfd34fe054528294	-0.3017502616367349
116	0xbfaa1d8ca9c9b036	-0.05100669453244715
117	0x3fe3be0dce7bac24	0.6169499428627927
118	0xbfbbd78b1add7a0c	-0.10875768094908994
119	0xbfed8ea47582af19	-0.9236624045492788
120	0xbfe0c2d48ec7352e	-0.5237829960475773
121	0xbfe62d8eb55f1c32	-0.6930612127697542
122	0xbff04d049d5c81f2	-1.0188032290390052
123	0x3fe7cc84e5f1448b	0.7437157145560759
124	0xbffa559867771c82	-1.6458972970592929
125	0xbff597455f8b949a	-1.3494313938365736
126	0xbff3464239399a02	-1.2046529994346433
127	0xbfded557db6e5951	-0.4817714350587226
128	0xbfeac1aa67fb6898	-0.836140826311083
129	0x3fa2176b21567cf4	0.03533491880375009
130	0x3fd09ad226d98431	0.2594495181456891
131	0xbff27a2763be99ad	-1.1548227211256787
132	0xbfc493aa68161c65	-0.16075639803259203
133	0xbfe04c79f04b4cfe	-0.5093354886288635
134	0xbff18708274e913e	-1.0954667601991583
135	0x3fd19f2e587ae196	0.2753406395018144
136	0x3fd7961a5bb5b980	0.3685365577320212
137	0xbff10f96745992a7	-1.0663055939595922
138	0xbfe4c73b94e39b72	-0.6493204029073765
139	0xbff38695b2ce3237	-1.2203576073253666
140	0xbff3ccc7daba85ee	-1.2374952835165192
141	0x3f94cfa7999274b5	0.02032338976697608
142	0xbffdc9ae9e3876ce	-1.8617387943735824
143	0xbfe8df61914e420e	-0.7772682035447944
144	0xbfdbd8aa06a42828	-0.4350991310935819
145	0x3fda0b577df8b038	0.4069422464551766
146	0x3fd55c7a4ae78878	0.33376939120183335
147	0xbff813b12bee07b4	-1.5048076358802804
148	0xbfe4ef0f90d1a90f	-0.6541822269912546
149	0xbfb106397c40a5e6	-0.06650122912892406
150	0xbfe079d11762f70c	-0.5148702103394682
151	0xbff2e944d5df1e10	-1.1819504122121351
152	0xbff661e67d5bc3bf	-1.398901452714412
153	0xbfe05255d22e7b36	-0.5100506882771245
154	0xbfe0eff97cbb584c	-0.5292937694710047
155	0xbfe6a14cef938a28	-0.7071900061822065
156	0xc001403fce027920	-2.156371697855448
157	0xbfc9380aad6580ac	-0.1970227572119304
158	0xbfc6147126eae9be	-0.17249884033465251
159	0xbfe708839e269355	-0.719789322746332
160	0xbff69036bce36a53	-1.4102084520769906
161	0x3fc7be6706d53317	0.1854981215823492
162	0x3fa32107fe18b0dc	0.03736138321650781
163	0xbff0ce5f6dce9187	-1.050383976872668
164	0xbff4b5b5ce6131e3	-1.2943628370004425
165	0xbff0c44a5e04a7c4	-1.0479224846444462
166	0xbffcfba740739cd0	-1.811438800586803
167	0xbf8a765de0da9735	-0.012921079086776291
168	0xbfcc7730518fda6b	-0.22238735182300515
169	0xbfd27c900bfd093d	-0.28885270281547887
170	0xbfbb9f286d2fb140	-0.10789730706864464
171	0xbfd36b9a468f08b2	-0.3034425438928664
172	0x3fe2631530ffbab2	0.5745950657854648
173	0xbff8dd1c5240de8c	-1.5539820874236367
174	0x3fb4d3d545da6e1d	0.08135731654550012
175	0xbfe6d9c229be6fa2	-0.7140818419752473
176	0xbff1a6e00ac7eafa	-1.103241006958966
177	0x3fe12fd6a5d48635	0.5370896567221225
178	0x3fdb786aaa547cdb	0.429224649751587
179	0x3fe0ad3bbbcf9fd8	0.5211466472801431
180	0x3fe4188f15c6422f	0.6279979157716918
181	0xbfe4b02a1574c1c1	-0.6465044421257106
182	0x3fe09ef46aac14c4	0.5194036563340423
183	0xbfd3da2f38f7e02e	-0.3101919227915485
184	0xbfdff764361359b2	-0.49947457581347543
185	0xbff094fcf4b841d7	-1.0363740500798622
186	0xbff14810efa72081	-1.0800942765654613
187	0xbfe56d2c736deb4d	-0.6695768599014201
188	0x3feea1aae564d899	0.9572348099088855
189	0xbfd65dd74b62304d	-0.34947759973215825
190	0xbfe7a421f2447d41	-0.7387857181346719
191	0xbfd84fd76120615e	-0.37987312779434557
192	0x3fec70720054d60c	0.8887262350532992
193	0xbff4208199b41d98	-1.257936096577259
194	0xbff5abd02825b4b3	-1.3544465606931169
195	0x3fc936c49e5ec78a	0.19698388798638816
196	0xbfee301a917b6013	-0.9433720437473333
197	0x3fcac2321e28e77d	0.20905138466497056
198	0x3fe312db3d7bfd9b	0.5960518074861513
199	0xbff23b0be81f66c6	-1.139415652016781
200	0x3f7ef6c79e2dbc02	0.0075595662664076375
201	0xbfdc5ce26cdd45bd	-0.44316921836169937
202	0xbfb95d34b8b38068	-0.099078459828435
203	0xbfeeeb34a806ae48	-0.9662116319427208
204	0xbfe98d353cc1b501	-0.798487299599998
205	0xbff00f677ccc3f53	-1.0037608027377771
206	0xbff3af11824649cb	-1.2302413071489464
207	0xbff83794d1d0c9e1	-1.5135696597977744
208	0xbfd12f5b9d649729	-0.26851549501803845
209	0xbff3e5dc91c3c936	-1.2436185544907636
210	0x3fd87a78919a7f50	0.38247503489582346
211	0xbfd96f4426406d61	-0.39741615043177175
212	0xbff31be8f2316122	-1.1943139515552237
213	0xbfebe0945c0eb217	-0.8711644933696928
214	0xbfdaa5e3fb2f42d2	-0.41637515573260686
215	0xbffe75858568259e	-1.9036917887882292
216	0x3fed6b6235cddb93	0.9193583536970088
217	0xbfde24b3ec49ac7f	-0.47099016261081056
218	0xbff4628bb8ee6a0e	-1.2740590309027797
219	0xbfc1013636d6edf8	-0.13284948041642486
220	0xbff705fe534c0de1	-1.4389632467071964
221	0xbfe47ac0a23429e4	-0.6399844329874296
222	0x3fe232291b534d01	0.5686231168459984
223	0xbfd8b47085d71145	-0.38601315565417266
224	0xbff572a666bbc9a7	-1.3404907238988046
225	0xbffe8d666b9a23b2	-1.9095215037543594
226	0xbfe17d7d1c4267fc	-0.5465684463445082
227	0x3f6f26619044f50d	0.003802481225788973
228	0x3fd5d1e2be0e0c16	0.3409354072575196
229	0xbfbbb84069afc17d	-0.10828020649183219
230	0xbfe5abc79119108a	-0.6772191842978981
231	0xbf9ba0adc3cbe608	-0.02698012836024158
232	0xbffb39a34c3dee7a	-1.7015717485618596
233	0xbff37369523c3b29	-1.215676614028505
234	0xbfe0c1389c006963	-0.5235865637689979
235	0x3fe4609cb46a6813	0.636793472647016
236	0x3fe0462e826659e0	0.5085670992728488
237	0xc001466156840c4f	-2.159365344910419
238	0x3fd833c4d51b4266	0.3781597214811313
239	0xbfe5c11c869dcca0	-0.6798231724955208
240	0xbfdee2c7c65361c8	-0.4825915753149528
241	0xbfd557ad13579055	-0.3334763230216187
242	0x3fe5b95c02438201	0.6788768810475291
243	0xbfc1e87e16e5596c	-0.13990760915721567
244	0xbfe52cafadeefaa8	-0.6617048642290984
245	0x3fa86bd05d1b5a48	0.04769755493696387
246	0x3fe1936fa116ce91	0.5492475649138716
247	0xbfdffa2802ed6720	-0.4996433285319757
248	0x3ff7d40928ec7a33	1.4892665480216578
249	0x3fd690e0bde468df	0.35259264511263483
250	0xbfc70aa16ff4f20f	-0.1800119206108239
251	0x3fda0a885086dfe6	0.40689285148573473
252	0x3fc45fc6ada4ef8b	0.15917285422062508
253	0x3ffd20882e6c867c	1.8204423726496364
254	0x3fec160a3bfebb4e	0.8776904269960626
255	0x3fd98756939c93b3	0.39888538756559483

output_gate_weights f8 [108, 81]
0	0xbfe48e9da037fb2d	-0.6424091462393783
1	0xbff388dcd5928418	-1.2209137289685312
2	0xbff256f51071e81b	-1.1462298052197244
3	0x3fe6b06d5606f2e5	0.7090365104882862
4	0xbffb8a506cca31a8	-1.7212681054689742
5	0x40003e875ed404e6	2.0305316360905747
6	0x3fd3122310064867	0.2979819923867865
7	0x3fdd0abba7640fc8	0.4537800917316841
8	0x4004fbade4299f3a	2.6228902650072117
9	0xbfe98487e796f49c	-0.7974280856357328
10	0x3ff1f2b701b8b7fe	1.1217565600632038
11	0x3fd703eb37ea8ac9	0.35961418591083977
12	0xbfd45ab86f40941b	-0.3180371366927958
13	0x3febb3e7c92dd0c3	0.8657111100460714
14	0xbfed1a9fdbb9765d	-0.9095000545018582
15	0x3fd0121c654abc00	0.25110540286817695
16	0x3fd350f29cfb8701	0.3018156559975154
17	0x400284881359c69c	2.314712668587914
18	0x3ffd299c35362c27	1.8226587370470584
19	0xbff17809934f1500	-1.0918060068373165
20	0x3fe04c0964a9325f	0.5092818227800072
21	0xbff0d07bf0806a7e	-1.0508994478792881
22	0x3ff7934a9a803971	1.4734598193350303
23	0x3fb0c85e144e2fc7	0.06555736537683209
24	0xbfcd68d93ec5e628	-0.2297622257718086
25	0xbfe73daba61209ea	-0.7262781375468965
26	0x3fc7fb3f29fcb66e	0.18735494184641105
27	0x3fea126d605de918	0.8147494203724674
28	0x3fcf335d4ac968a3	0.24375501777359884
29	0x3fd1c88503de400e	0.2778637445235298
30	0x4005c0d48118a1d8	2.7191553197519447
31	0xbfe57925cd3bb2e5	-0.6710385330639751
32	0xbfe740e09b69ab06	-0.726669601002272
33	0x3feff6e1d465c982	0.9988869808569663
34	0x3f8dbec63cce9bf2	0.014524029474911136
35	0x3fe599978265d96a	0.6749990031083091
36	0x3ff41f2f80a3628b	1.257613661282593
37	0xbff95c54d356d236	-1.585041833442245
38	0x3ff783933f4ae47f	1.4696228477826307
39	0x3fd267d44e1c90ae	0.2875872385795998
40	0x3fd11c2c132a1c6c	0.2673444926408084
41	0xbfe398f72439421b	-0.61242253374991
42	0xbfeb789497a5acad	-0.8584692918642723
43	0x3ffca27af2fc2f86	1.7896680347066378
44	0x3ff5f04abc7473e0	1.371165023948599
45	0xbfd0552eb7c07b19	-0.2551991266681611
46	0xbfe55ec07da7425b	-0.6678163961569895
47	0xbf993a061ce6aae9	-0.024635406030635663
48	0x3fd9212b7218b9e6	0.39264951841587814
49	0xbfd468c3f850efbb	-0.3188943791353684
50	0x3fe15dc47d360aaa	0.5426962323693563
51	0x3fdfdf1b17a6b184	0.4979922991722321
52	0x3fc55661cacb5a4f	0.166698669453313
53	0x3ff1adca83d05759	1.1049294613817067
54	0x3ff03c0ceb0869aa	1.0146607571574386
55	0xbfe1c7f81ca1568f	-0.5556603011306879
56	0xc000605e5287f98e	-2.0470549056764815
57	0x3fc9375151305d93	0.19700066055586926
58	0xbfef21e3a73993e2	-0.9728868738280847
59	0x3fed800396821f10	0.9218767108550043
60	0x3fea0fbd1e467750	0.814421233302463
61	0x3ff0d7b691ad05aa	1.0526643457854825
62	0xbfd2cbb2a02b19b1	-0.2936827243942402
63	0xbff63421f9368324	-1.3877277121429836
64	0xbff64d42b0f873a9	-1.3938624298964248
65	0x3ff6090b27a20926	1.3772079036867324
66	0x3fecdf404153ff31	0.9022523189487172
67	0x3ffa74a8b8ed1b3f	1.6534812186889238
68	0xbfffd5865be12f73	-1.9896300877616937
69	0x3ff39a9cfe892034	1.225247377662538
70	0xbfe4964438001d33	-0.6433430761107161
71	0x3fd5089272e5949d	0.3286481973685314
72	0x3ffcb958c4325bc5	1.7952506698545545
73	0x3fe2e1e77e48c8ee	0.5900762049189134
74	0xbfdfe6c1eefaf460	-0.49845932329100684
75	0x3fc13988923e1c05	0.1345682825160283
76	0x40000ff2de8386aa	2.0077874549759445
77	0xbff2d1db2ad132ab	-1.176234404806716
78	0x3ff7ab528d9836b1	1.4793267756498774
79	0x400047500ace51b0	2.034820637151107
80	0x3ff8b7008d6fcc81	1.5446782612678194
81	0xbfe1080c993ec360	-0.5322325699872685
82	0xbfc752883aa20ef5	-0.18220618117276613
83	0xbff116c31026e9fb	-1.068057120412617
84	0xbfcd886eb62b2477	-0.23072608847568052
85	0xbfcaec090a7e931c	-0.21032822620795677
86	0x3fd925c856464eb7	0.39293106484658885
87	0xbfd106f5cb05482d	-0.2660498125670781
88	0xbfeacba5e1689b58	-0.8373593714248768
89	0xbfda9d3eeb463db0	-0.4158475205994945
90	0x3fe2f750d05e3933	0.592689902275913
91	0xbf77050a6cb4a816	-0.0056200415813609985
92	0xbff766e66fe4b6ee	-1.4626221056782316
93	0xbfeb83b20a5f6496	-0.8598261072721864
94	0xbf9df1c4e77769ba	-0.02924258864173066
95	0xbfebaaa41b5cf0de	-0.8645802053865983
96	0xbff1180e08fe4605	-1.0683727599429187
97	0x3fe2dc4cef99fd9a	0.5893921546666434
98	0xbfcb1a638c569a23	-0.21174282410102405
99	0xbfe1b0ee67c4fa76	-0.5528480555293089
100	0xbffa14f51e75c505	-1.6301165761800018
101	0x3fea9e432ea60e8c	0.8318191443544989
102	0xbffbc0867d7ae811	-1.7345032598082109
103	0xbff9b7ed09584ccb	-1.6074037900005347
104	0xbfc9c9d443028b3f	-0.2014718367764434
105	0xbffae9b17f46e9eb	-1.6820540401228026
106	0x3fd114de53eeaf58	0.266898710217665
107	0xbffd5bd4ad298ab3	-1.8349196209098124
108	0xbff33d15eb4e664c	-1.202413481869729
109	0xbfe22ccc14aef190	-0.5679684070560587
110	0xbfe2f5578958de82	-0.5924489672242574
111	0x3fc2ffd110c524c7	0.14843190497257394
112	0xbfef88282b42c209	-0.9853707165657976
113	0xbfe623d16141f0f1	-0.6918723010599291
114	0xbfeb104f3d2f7392	-0.8457409091021069
115	0xbfffb4c01de8b36b	-1.9816285293884117
116	0x3fb36cb3aa74d411	0.07587740813762901
117	0xbfa09ca91b65ff33	-0.03244522532895502
118	0x3ff7da3e00cc0797	1.4907817870266393
119	0xbff6c8273d64049e	-1.423865546996502
120	0xbfc65cb9bbc14a57	-0.1747047583363208
121	0xc0007f2c8df7dbe0	-2.062096699835351
122	0xbff87e23b767d619	-1.5307957805902161
123	0xbfd8eda05d78a893	-0.38950356605585873
124	0xbff4de25e7acb311	-1.3042353677548741
125	0xbfe6c47086406fc4	-0.7114794370750066
126	0xbfea1ab77ad65f43	-0.8157613181274218
127	0xbfe6724c471b4deb	-0.7014523876954945
128	0xbff6d592ee518c01	-1.4271420773809498
129	0xbfe018f1611ea8ea	-0.503044786154786
130	0x3fbefd1c31755a72	0.12104965407829996
131	0xbfe46d92b990a406	-0.63837562792935
132	0xbfaa0f940bc49290	-0.0509001030316415
133	0xbfb69826c8804460	-0.08825914759678843
134	0xbfc16953364d7bb4	-0.13602676536080838
135	0x3fa297e164db759e	0.036315005838086764
136	0x3fd69ba8595b2299	0.35325058675929594
137	0xbfee2ef4040d9841	-0.9432315901910969
138	0xbfeac386c1116e87	-0.8363679667340457
139	0xbfed7e405f76a8f9	-0.9216615547677797
140	0xbfe58469d712f681	-0.6724137497582917
141	0xbfe875ae587ab8e1	-0.7643653610337219
142	0xbfed4362b1c66750	-0.9144757721107712
143	0x3f947ee9d9333263	0.020015386468730145
144	0xbfc2d44c71087ff0	-0.1471038391036923
145	0xbfe99071d78a4927	-0.7988824090737453
146	0xbfe58ab83546ff0f	-0.6731835403988685
147	0xc0004fe96bca4a72	-2.0390194340810064
148	0xbfc6c1b279892171	-0.17778616842611997
149	0xbfdf22432cc32f12	-0.48646621104556786
150	0xbfd5e53fcc5a55de	-0.34211726147017696
151	0xbfbf90c2a47343ca	-0.12330261721514471
152	0xbfec149da6afdc67	-0.8775165801624895
153	0xbfee98c714277e60	-0.9561496156347395
154	0xbfebe0606fd02ee9	-0.8711397346355315
155	0xc00477e7a33dec6e	-2.5585472825310296
156	0x3fa5a8cc74e05bde	0.04230345656122102
157	0xbfe52c069956c10a	-0.6616242403888759
158	0xbfeabccd62f3ffdd	-0.835547154681986
159	0xbff4fcfbeee0bab2	-1.3117636996427504
160	0xbffe120751c7b68d	-1.879401511624937
161	0xbfea486a7b0e2a9d	-0.8213398364471974
162	0xbfed4298029afdaf	-0.9143791247260448
163	0xbfd23b9451263646	-0.28488643574460004
164	0xbff9157c3a67c6c0	-1.5677454263172166
165	0xbfdfe81089007eb2	-0.4985390985402588
166	0xbfedc5afc4fa5d42	-0.9303816649652747
167	0x3ff47cdeb5b29828	1.2804858300746762
168	0x3fe3180dba5c8774	0.5966862335082923
169	0xbfe58b8b4c5672e8	-0.6732841959925198
170	0x3fcfcbb8214cc71e	0.24840451837513283
171	0xbfb605426f7066ee	-0.08601775379829821
172	0x3fd72059b95fb453	0.3613495168963869
173	0xbfeabfbcbf7302c9	-0.83590543167528
174	0xbfc3b1d419726719	-0.1538643955471393
175	0x3fc76d0573411e89	0.18301456573157207
176	0xbff2050aaac3eb4e	-1.1262308760185138
177	0x3fac78983b3ada44	0.05560756419201998
178	0x3fdfce426df42185	0.4969640802160245
179	0x3fe492d376ea62e7	0.6429230997628935
180	0x3fcad7ce93c7296c	0.2097109052250049
181	0xbff8f94095e5520c	-1.5608526091865569
182	0x3ff241850d3ceb3c	1.1409960286243424
183	0xc0006a429f34d741	-2.0518848836899513
184	0xbfe03faba5e8f35f	-0.5077722778729415
185	0xbffb176b482d64a2	-1.6932175464083135
186	0xbff3fe7132178a5b	-1.2496196705548275
187	0xbfef7772ab58cb3d	-0.9833310457819163
188	0xbfd49735f65d0ce9	-0.32172917422231123
189	0xbff5c30aa04b5760	-1.3601175557609722
190	0xbff4ec5f9bd0a20c	-1.3077083670160645
191	0xbfbb3f59a25da0c7	-0.10643539632804098
192	0x3fe3cba827f86523	0.6186104565305509
193	0xbff23b38da752a72	-1.1394585164549906
194	0xbffa91f26e1f1d4b	-1.6606315900442776
195	0xbfb026507430a9e6	-0.06308462940857104
196	0xc000735f44bb2242	-2.0563340539559087
197	0x3fe3d8195aeac821	0.6201292777752806
198	0x3f7bbbe680675924	0.0067709926574564296
199	0xbfbdacb00c38455d	-0.11591625498137632
200	0x3fc2365e845b8f92	0.14228421652580586
201	0xbfdb95006b2a586b	-0.4309693380868171
202	0xbfdacc53039a56d0	-0.41872096397251557
203	0xbffca03c7133c619	-1.7891201421701963
204	0xbfebea17e2aa721c	-0.8723258425775984
205	0xbfe5d15b9a44fabb	-0.6818063748431408
206	0xbfe1ac438cdb7ece	-0.5522783042069592
207	0xbfd91e28273b73a5	-0.39246562796852863
208	0xbfee60114ae5374b	-0.9492269957351963
209	0xbff9a418c071dc47	-1.6025626675962188
210	0x3fcd15a5c79b3586	0.22722313162232072
211	0xbfd87b08961a266d	-0.3825093713609025
212	0xbff549c39249a4be	-1.3305087770807371
213	0x3fb8b9a6f66eda35	0.0965828277247532
214	0x3fbf24bd6dfb9946	0.12165435729148041
215	0xbff48cbe216705af	-1.2843610100538674
216	0x3fdcc0d626e80a56	0.44926980781034354
217	0x3fb1c34376de3646	0.06938573505450404
218	0xbffa129ea2b1731e	-1.6295458178712532
219	0xbfd6ff6f345480de	-0.3593404780422257
220	0xbff6ef4af8547c3f	-1.4334211063758315
221	0xbfeebc070fc71268	-0.9604525859982234
222	0xbfd6cea716979cf1	-0.3563630791308717
223	0x3fe48e659e4c8ae4	0.6423824397828324
224	0xbff671666ef325fa	-1.4026855787254804
225	0xbff8a8add070829e	-1.5411813871543596
226	0xbffe59ef5fe7b3eb	-1.896956801060919
227	0xbfe389de6316872a	-0.6105796752274035
228	0x3fddf53c19252a3e	0.468092941814266
229	0x3fd8fd1ef4a103ab	0.39044927491709797
230	0xbff2172f5d079610	-1.1306604036302623
231	0xbfb40862b6a04ccd	-0.07825295408865714
232	0xbffe2fda3a48f106	-1.8866827275042524
233	0xbfebb317e4abb2f3	-0.8656119791245075
234	0x3fac389e8b3a2873	0.05511947106886419
235	0x3fc3354b7a434c23	0.15006392927043163
236	0xbfe21dbdeeecc06d	-0.566130606317541
237	0xbfe610037bbdca27	-0.6894547859977295
238	0x3fd289965df2dacd	0.2896476666896149
239	0xbff538b5e3db38a8	-1.3263453388822573
240	0xbfd38bd479226132	-0.30540954427262357
241	0xbfca7192e62116cc	-0.20659099804668413
242	0xbf788f0aaefc44c0	-0.005995790226522135
243	0x3fbd3a14156ad18d	0.11416745684511494
244	0xbff0404090787c4a	-1.0156865733513478
245	0xbfd7ff1dc15aa1f5	-0.3749460590575205
246	0x40026f44f993c984	2.3043307779527726
247	0xc0052edce29c91d5	-2.6478822425872104
248	0x3fed22c2429072a0	0.910493021019267
249	0x3fe555461d111499	0.6666594093045602
250	0xbfec927c33a71ac4	-0.8928814896433654
251	0x3feb18b5fc165274	0.8467664645746269
252	0xbfd6095884f4efe7	-0.34432042106686683
253	0x4003db5690e79cf0	2.4820987053568544
254	0x3fe42b791ebfbee0	0.63030677800813
255	0x3fcde967836af8f0	0.23368543545615905

gate_gate_weights f8 [108, 81]
0	0x3ff02f81e068d713	1.011598469352468
1	0x3ff16cdd04c8e7b6	1.0890779673486413
2	0x3fc3876decf7b9d5	0.15257047720611064
3	0x3ffbe190873db91f	1.7425694735389425
4	0xbfa3b3533b939ee1	-0.038477517149486
5	0x3fd03bd23516f64b	0.25365119156399335
6	0x3fa732cc52b6b7aa	0.04530943402947625
7	0xbffe865f0f201094	-1.9078054991560167
8	0xbfdfcba1e1746b86	-0.4968037320810982
9	0x3ff35ea8704749b4	1.2106098543050452
10	0x3fac07ad7ee7ca48	0.05474607633722833
11	0x3fc8ed41877db2e3	0.19474047771236433
12	0xbfc1a2cd5b435331	-0.13778082805824846
13	0xbfee8f37b5c6ec52	-0.9549826193173294
14	0x3fefa59159a9345f	0.988960909956983
15	0x3fcf7a0881e0d687	0.2459116586848504
16	0xbfe5e0babad15f36	-0.6836827896868047
17	0x3fe3e91a57197287	0.6222049428138953
18	0xbfed3548f32a6ab3	-0.9127545117692847
19	0x3fe9cb55aafc0b60	0.8060711230794873
20	0x3fb679de6ca39dcc	0.0877970710022204
21	0x3fb337e14df6cc8a	0.07507141259593389
22	0xbff2bf9db824da51	-1.1717812722323695
23	0xbfe8c0ea2a2da376	-0.7735491584581797
24	0x3fdf7885191f4bd1	0.49173095181793963
25	0xbfeb69a1328f1753	-0.856644247768353
26	0x3fd1824c1a65cc09	0.27357771470923403
27	0xbfe8e4655b9568ec	-0.7778803623907868
28	0xbff7785602be2165	-1.4668789012085537
29	0x3fe8ee05263ec6ca	0.779055189798066
30	0xbfd39420330b52a7	-0.3059158800581749
31	0x3fed489186bafc30	0.9151084548428852
32	0x40016f3eeec21faa	2.1793192532531593
33	0x3ff9276946055413	1.5721218810260822
34	0x3fe00406b0f62743	0.5004914718894969
35	0x3fe41013b1c600cb	0.6269625160348594
36	0x4001d93bff06f943	2.231071464920349
37	0xbfe8aadbce31b9ee	-0.7708567645293536
38	0x3fcf409425f107b7	0.2441582856427524
39	0x3fdb62eb7364a2fc	0.427912581146799
40	0xbfd3890f9823ad25	-0.30524053437575766
41	0x3f82fc9430c43b38	0.009270818460689875
42	0xbfeb02bd52d48d4a	-0.8440844171313213
43	0x3fe25e20909e2df5	0.5739901375358715
44	0x3ff00321fe10aa82	1.0007648395937
45	0xbfd5e4e434e776e4	-0.3420954243318717
46	0xbff31f21f8af2775	-1.1951007570482635
47	0x3fdeeaafbdf70077	0.48307412673239675
48	0x3fdc0a3fc915e29e	0.4381255592084389
49	0x3ff45d11680344f8	1.2727216780661461
50	0xbff6c8713dca25e5	-1.423936120382103
51	0xbffa4e184a7ca041	-1.6440661344186227
52	0xbfa90e2a7e33da48	-0.048936202912888194
53	0x3fd0b3e46d759cc0	0.26097975434681686
54	0x3fe1d984ccb39430	0.5578025816036014
55	0xbfe5707f977fa491	-0.6699827155072332
56	0xbfc87172cd5819e8	-0.19096217180795283
57	0xbfe18294ddf0f7d3	-0.5471901259222655
58	0x3ff2a6237febfb2e	1.1655611988969201
59	0xbfe10e8936b4cfda	-0.5330244129640918
60	0xc00091a8acf09b1c	-2.0711225043227284
61	0xbfbb928c01b5f810	-0.10770487825172403
62	0xbfec827ef1c128ac	-0.8909296724098303
63	0xbfe2200ba3d8a361	-0.5664118003961499
64	0xbfc2bcfc83551977	-0.14639240658489047
65	0x4003f4c1d812c5ec	2.494510353157912
66	0x3fd6b0d5457295f7	0.354543035335467
67	0xbfead3bbc632a08b	-0.8383463736581843
68	0xbfd4e1470f6bf29d	-0.3262498522379163
69	0x3fb9634ec5b39723	0.09917156531045328
70	0xbffcb40df2339652	-1.793958612537058
71	0x3fde8e3d329c5c71	0.4774315828557923
72	0xc005950fcc0d507d	-2.697784036785434
73	0x3fc6fe018910a919	0.17962664787894125
74	0xbfd0b327f11faee2	-0.260934815857338
75	0x40027942a22f93c0	2.3092091246384996
76	0x3ffe1f6d39d8879b	1.8826725253679573
77	0xbfe0668ee70cf210	-0.5125193131166856
78	0x3fea77fb4999c1ac	0.8271461904060309
79	0xbfd00ef41a5f1399	-0.2509126908810742
80	0xbfdfe3e666d67399	-0.4982849125170162
81	0xbff87cdfa796a2f3	-1.5304867311880883
82	0xbff7fbb852e38b06	-1.4989550817342105
83	0x3ff5f48bbbaf77df	1.3722035724126653
84	0x3fae07a880f6f173	0.058652177565337825
85	0x3feceb33cd573091	0.9037112246092126
86	0xbfc562b2ffe32a5f	-0.16707456106662996
87	0x3fcc49989cc271f1	0.22099597601199109
88	0x3ff11736491cc5ea	1.0681670051529815
89	0xbfe44274057877e4	-0.6331119639250997
90	0xbff35dba4574568d	-1.2103827202858242
91	0xbfecb336df13f067	-0.8968767506589871
92	0xbff98c299ca313f4	-1.5967193716653556
93	0x3fd98d2c2170c6cc	0.39924147859265413
94	0xbff785c032d87036	-1.470153998007857
95	0x3fd86a59c34e837e	0.38149112770957305
96	0xbfe6af5344713007	-0.7089020096550492
97	0x3ff04a76b1d6419e	1.0181796023135585
98	0x3ff3de3d2f83953f	1.2417575698867294
99	0x3f7644421d2f2985	0.005436189897361725
100	0xbff679a9e5df32b1	-1.4047030429239096
101	0xbfe558387481d958	-0.6670191073924725
102	0xbfa0f27a1f40149b	-0.03309995299790921
103	0xbfddb6451c80218c	-0.4642498758626281
104	0x3f73641c825a1dcd	0.004734145511640486
105	0xc001b8af5910c942	-2.215178199600957
106	0x3fc9343083aa007d	0.19690519741925874
107	0xbfd5400c6d8522b0	-0.33203421302145397
108	0xbff02a70b22ae085	-1.0103613814990535
109	0x3ff3d40a911dc35e	1.2392678898433682
110	0xbfb6c85303910319	-0.08899420582839603
111	0xbfc13bcef9f03cef	-0.13463771060967342
112	0xbff667a92f77aa71	-1.400307832164483
113	0xbfd79ebc6712b4f5	-0.36906347337465145
114	0x3fe62075bca6b0d5	0.6914623913376327
115	0xbff4a379ee76f180	-1.2899112048172299
116	0xbfd803d42e50e3c0	-0.3752336933426328
117	0x3fca4a904d4dd24d	0.2054005029164209
118	0x3ff813a7ae5a1e3d	1.504798584997743
119	0x3fe5e93923e61c86	0.6847196293973787
120	0xbff4a03777b95420	-1.2891153980938341
121	0xbfd7c29041f95402	-0.3712502140309085
122	0xbffbcf54645d8095	-1.7381175919072451
123	0xbfbe7beb6fae71d4	-0.11907836414906764
124	0xbff9632751762653	-1.5867074186411585
125	0x3fd2450b27cc7b24	0.28546408545109814
126	0xbfde586ffe6fbbe5	-0.4741477951747
127	0x3ff09ec4dc533170	1.0387619596905004
128	0xbfd3afef41701beb	-0.307613195327973
129	0x3fe78726cd2c6030	0.7352479941646433
130	0xbff2c4508cb36a0b	-1.172928380596775
131	0xbff2975e00757451	-1.161954881469928
132	0xbfe115b5614fca1a	-0.533899965345259
133	0x3ff10033b21c7e88	1.062549300906456
134	0x3fe1180b0204b517	0.5341849364682812
135	0xbfcd07a89a013985	-0.22679622192158547
136	0x3ffd11a1cf56a23e	1.8168047045857203
137	0x3fdc5244dd7d473a	0.44252130155392744
138	0xbfda8b8a9484208a	-0.41476692679908267
139	0xc001e747bb5596ce	-2.2379297862524714
140	0x3ff5032f64111002	1.3132776173451934
141	0xbfd3710db6e1cb62	-0.3037752424199224
142	0xbfdf0271e7b20448	-0.4845242273950743
143	0xbfe78a430ecc0d68	-0.7356276787763081
144	0xbfea2aeab16a062c	-0.8177388634796379
145	0xbfd3860aba2867c0	-0.3050562684962834
146	0x3fdf5aae32d70bf6	0.4899096962437278
147	0x3fd73b47898790eb	0.3629931300222455
148	0x3fe2ae8a40946fda	0.5838061581921423
149	0xbfc75d314be7ea16	-0.18253151136725937
150	0xbf980b3598ef4418	-0.023480260333432396
151	0x3fd6e8abb942572d	0.3579510983630481
152	0x3fe5bf7be44b3c21	0.6796245058884588
153	0xbffba833b9920f4d	-1.7285649536942913
154	0x3f83a9b074db6c41	0.009601000372120196
155	0xbfdaba71b893f56a	-0.41762965226356263
156	0x3fdf5ed55daf13a8	0.4901631750947737
157	0x3ff600607568f7d9	1.3750919901208276
158	0x3fd0bc6ebe64a8a9	0.26150101273618503
159	0x3fe4f29887e37188	0.6546137479850112
160	0xbfc18e307c8b24ea	-0.13715177613474988
161	0xbfdbaac29d87ebe6	-0.4322973764789694
162	0xbffb4419f8e8c273	-1.7041263316170017
163	0xbfd73d7766a1e9a6	-0.36312661192610063
164	0x4000abc8b1c2aa08	2.0838788878948016
165	0x3fec8697abba0344	0.8914297441516301
166	0x3fe4e65e6c7bf9cf	0.65312119663559
167	0xbfb659bcddc4c362	-0.08730678953430762
168	0x3fbd1fd029a36aaa	0.11376667992173375
169	0x3fe47d1b53be4340	0.6402718196496622
170	0xbfe61c94b1d52811	-0.6909888718885232
171	0xbfb3f7b5ba08508e	-0.07799850265320371
172	0xbfd8308edfa2d0fc	-0.377963751215489
173	0xbff3425900d68d1c	-1.2036981613862912
174	0xbfbacd817645cf88	-0.10469826829449691
175	0xbff4b355ad08b122	-1.2937828787936003
176	0x3ff66568222a923c	1.3997575125332693
177	0x3facf1f2c5c79337	0.0565334192686237
178	0x3fe476f081bf2743	0.6395189794650168
179	0x3ff187b19b8a92c4	1.0956283641655071
180	0xbfceaab3319946d7	-0.2395843498402914
181	0xbffa99b51b8e825c	-1.6625262333328896
182	0xbfac84e673b85cbe	-0.055701448083874436
183	0xbfd0942fc35c6802	-0.2590445907422919
184	0xbfe855d6a2f51c36	-0.7604783232462811
185	0xbfe18486dd211443	-0.5474275893144597
186	0xbff89e0d891e3b26	-1.5385871273208038
187	0x3fe91b47206e7f22	0.7845798142843459
188	0x3fda9bae3e4dc4e5	0.4157519920764357
189	0xbfe6007a786e1349	-0.6875583984516221
190	0x3fe8fe6e74fbf554	0.7810585293624777
191	0xbfc3cc18e8d5c3ae	-0.154666055382703
192	0xbfd3046e967f22fa	-0.2971455068296077
193	0xbff1ce4489891713	-1.1128583309632105
194	0xbfd80a838a15a44a	-0.37564171299760984
195	0x3ffad7f1d39fff62	1.6777208582497782
196	0xbff3063fb0a0edcf	-1.1890255832248504
197	0xbf9d41b0808eaacf	-0.02857089790965511
198	0x3ff1ad90aa414952	1.1048742914759555
199	0xbfbd8063b19805ac	-0.11524031720912004
200	0x3fe589eb282487b7	0.6730857643162754
201	0xbfff3c1bff173300	-1.9521751369931621
202	0xbfdd47eaca21e3b0	-0.4575144742917088
203	0xc003a10b0804e802	-2.4536343218323973
204	0xbff1f914d4b5be3d	-1.1233108815175818
205	0xbfed85fcd4a91186	-0.9226059106372737
206	0x3fe646c82d157fc2	0.6961403732820985
207	0xbfdc1e7ddfbc3a37	-0.43936106537958913
208	0x3ff69511650afa0c	1.4113935420024317
209	0xbfe68384d87b72a1	-0.7035545566719358
210	0x3fe03624c590b583	0.5066093310066865
211	0x3fdaf7f91d563dd2	0.42138507714204565
212	0xbfed86f7e6334d21	-0.9227256294347265
213	0xbfe9451e5ae2ff50	-0.7896873259669324
214	0xbfbb6e2ae8a62cce	-0.10714977435980019
215	0x3fd40e16de96f92c	0.31335994469908957
216	0xbfc734437c197aec	-0.18128245887324768
217	0x3ffbc6fa7ff0b836	1.7360787389439003
218	0x3ff77877cb23ea7a	1.4669111190002284
219	0xbfdbb448163684ca	-0.43287851495012986
220	0xbffc260698949cc9	-1.7592836342026195
221	0x3ff37aad5817cbe5	1.2174504700785687
222	0xbff34e074b1b18f4	-1.2065499242613074
223	0xbfb3c485491bd2f0	-0.07721741709594787
224	0xbff30c1de01487d5	-1.190458178818962
225	0xbffb3d56d2360b10	-1.7024753772136059
226	0xbfea3df604ea7130	-0.8200636001597896
227	0x3ff7bd07b4162378	1.4836499247196269
228	0x3fe2532b0dcde2e5	0.5726523656477097
229	0xbf8b7155bed34f56	-0.013399762998609493
230	0xbfef41d1885f73ff	-0.9767844832928175
231	0xbfc0221a2ecc2b45	-0.12604071888957882
232	0xbfc3b5193a81a088	-0.1539641891170087
233	0x3fdf80130ce3858c	0.49219204195659283
234	0xc001377493e37efd	-2.1520778230477604
235	0x3fd14d76a4a9b760	0.27035299377791056
236	0xbfe58b1552ff0c56	-0.6732279416104443
237	0x3ff76adfdff38757	1.4635924099061037
238	0x4001a51c4355e9d8	2.2056203137010293
239	0x3fd7aa9347ad8489	0.3697860908487845
240	0x3fe82674a51819ef	0.7546942924971612
241	0x3fd0a3138e1da914	0.25995339277746266
242	0xbfdb073fee40f70c	-0.42231748835534755
243	0xbfd65b5cf0f84d3c	-0.34932635814876156
244	0xbff37a9ec9fa3ebf	-1.2174365892168877
245	0xbff0e2c73f1978c3	-1.055365797502916
246	0xbfc482b9bc2eabb0	-0.16023942650403233
247	0x3fed81948c2250a5	0.9220679032319096
248	0xbfd47b3351e72ef4	-0.32001955984445307
249	0x3fdc089a1e35eb22	0.4380250258470132
250	0xbfd41e212ccffe94	-0.314338964235483
251	0xbfe55cf599670eec	-0.6675975795883153
252	0xbffbbac1f9d9e730	-1.7330951461612578
253	0xbfceea0511c24f80	-0.24151671759738846
254	0xc00109f4d349c715	-2.129861498536125
255	0xbfcfbaf8f43bf432	-0.24789344716546818
