balderdash_lstm/lstm_model/models/lstm_model_22.npz (npz, 903256 bytes, 19 tensors)

forget_gate_weights f8 [108, 81]
0	0x3fe06e741e3befad	0.5134831038007995
1	0xbfe1cd5cf402e1cb	-0.5563187375874404
2	0xbfe7aba534619140	-0.7397027991360474
3	0x3fe8efefd944d5c1	0.7792891734631483
4	0xc0035b1aa74f4f73	-2.4194844313696477
5	0xbfe944bc2fb45bc0	-0.7896405154923443
6	0xbfe39bbd29d49c57	-0.612761098575798
7	0xc000d92cf77a1c31	-2.1060427984371235
8	0x3fd8c4dcc4008986	0.3870155252535813
9	0xbfd3c39b8b7a1936	-0.3088139402465403
10	0x3ff6bdd42eb51322	1.421344931078416
11	0x3fcb04400b7daf66	0.21106720505792537
12	0xbfd20cfa0a3332cf	-0.2820420360192601
13	0xbfe52948b1e523d8	-0.6612895464432951
14	0x3fc50569159bfa10	0.16422761492863502
15	0xbfc878b0bbd52617	-0.19118317767633705
16	0xbfe940d95dd2c8b7	-0.7891661484229847
17	0x3fe39dc4d7647e86	0.6130089003454067
18	0x3febece809ac6074	0.8726692379887155
19	0xbfec01bd6cc27fbb	-0.8752123951162426
20	0x3fd3589e742b24f2	0.3022838720758748
21	0x3fec6b71cf74d0cd	0.8881157924538684
22	0x40004c2061633698	2.0371711357500537
23	0xbfdd9b7e91199075	-0.46261562509449244
24	0xbfd2267a4a437336	-0.28359849216740274
25	0xbfe359d827980ff2	-0.6047173283882314
26	0xbfebe47970e2e0eb	-0.8716399388131583
27	0xbfad462712a483e2	-0.05717584707804925
28	0xc003d3d66b944017	-2.478436317884199
29	0x3fc23ca7841ccceb	0.14247602415853264
30	0x3febdfd8764a4f4b	0.871074896846474
31	0x3ffc6b6f30bb7d80	1.7762290862663974
32	0xbffcc6dfdbbc19ad	-1.7985533316983535
33	0xbffeebf6ade4ed50	-1.932608298563384
34	0x3fc3441dd3352440	0.1505162507330926
35	0xbfee49f630a7d58d	-0.9465285253815395
36	0x4006833d0a5ef2dd	2.814081269285778
37	0xbff13e73c6a54a03	-1.077747131309139
38	0x3febb33db586736f	0.8656300111211815
39	0xbff19c661e1c419f	-1.1006833244501661
40	0xbfef1502e41ab427	-0.9713148551142056
41	0x3fe12bf4affd0ca1	0.5366156995081789
42	0xbfafea7e384c5986	-0.062335914966911196
43	0x40026fc3635c49fd	2.3045718920268414
44	0x3ffd3bdfb5636472	1.8271176419714519
45	0x3fdf14044f9dbf39	0.4855967309476799
46	0x3fd2234719e4aab6	0.2834031823028157
47	0xbfd63e3a374d65c1	-0.3475480594693999
48	0xbfe4b9d4d90c8170	-0.6476845015750268
49	0xbfe848b39fd6ee30	-0.7588747140757217
50	0x4001a97eaadf9ffb	2.2077611302847777
51	0x3ff7b9f3f7c03bcd	1.4828986814279574
52	0xbfddd475770d3abd	-0.4660924589742697
53	0x4000ab381f402f6f	2.0836031381094737
54	0x3fe680cc4ddae918	0.7032224197967336
55	0xbfd4a99d6d8a3df0	-0.32285247514025084
56	0xbfee24040b5cbb99	-0.9418964597624494
57	0xbfe5929756e33a94	-0.6741444298766788
58	0xbf8182053727c035	-0.008548775430398428
59	0x3ff0a3c7017dde99	1.0399847086208978
60	0x3fe462626ce4aeb1	0.6370098234960634
61	0xbfc1d7b19aaee428	-0.13939495137108904
62	0xbfdfc24ec159eb3d	-0.4962345970340499
63	0xbfd63eb7ffe15d2d	-0.34757804859460145
64	0x3fd326c9ba259d12	0.2992424314347356
65	0xbfdd7592c70eff32	-0.4603011077815494
66	0x3fd418fcfe0413cc	0.3140251618027008
67	0x3fd143c75506c966	0.26976187995309997
68	0xbff4b3f7210c1449	-1.2939368525415083
69	0xbfe2a3bb21151b7e	-0.5824866911069504
70	0x3fe3efc2f64755e9	0.6230177698259328
71	0x3fe35f0330a8e1b2	0.6053482008347173
72	0x3ff1300d6b3dc6e5	1.074231547271148
73	0xbff1c566136774f9	-1.1106930501912855
74	0xbfd7b0f2e34a7889	-0.37017509647729036
75	0x3ff9059ffb5ef2f4	1.5638732737708638
76	0x3fe9686c8b86d96a	0.7939970708019193
77	0xbfdc4b1fdd2c332c	-0.4420852336777894
78	0x3ff03f238e636b1c	1.0154147684140247
79	0x3fd1d514ab79915a	0.2786304163512533
80	0x3ff7fb86d5cebdb8	1.4989078857287108
81	0xbff2fb34f5f92977	-1.1863298042613601
82	0xbfdbbfd2caf9c9c6	-0.4335829717812455
83	0xbfd655cf89e05bd8	-0.3489874693345292
84	0x3fed5a0621be7a01	0.9172392520011386
85	0xbfd65b6b60bd919e	-0.34932980010332837
86	0x3ffd63f75c0dfd43	1.836905822361431
87	0xbff6ae5a3ed77ea4	-1.4175665335423355
88	0xbff4b64a3b5936a9	-1.2945043867397692
89	0xbfd24ed9cb8b9981	-0.28606266858550816
90	0x3fc5ec5a876536eb	0.1712754403219415
91	0xbff6e13cc53d2232	-1.4299895958557838
92	0x3fd56f1083477ab3	0.33490383930431306
93	0xbfc40020d851ca4f	-0.15625391542887931
94	0x3fda1cc4c7f5212e	0.4080059006414726
95	0xbfdab7b484b4d7ab	-0.41746247253046914
96	0xbff3050781821b4c	-1.188727861300964
97	0xbfb714232fa8b211	-0.09015102304028512
98	0xbfe29a75967174a1	-0.5813548982947802
99	0xbffa26dd4b3b9cb5	-1.634488386038169
100	0xbfe41955f57e868c	-0.6280927462396035
101	0x3fd4933de313c84d	0.3214869229842677
102	0xbfda316a0f520944	-0.4092660092939193
103	0xc0037ebfe0d6e8af	-2.4368894162735937
104	0xc007ff03c47584f6	-2.9995189045299595
105	0xbff2bc28d3383d75	-1.17093737132731
106	0xbfd9f68dd73ffca1	-0.4056734659242896
107	0x3fdd5c59543ff7bc	0.4587615320923495
108	0xbfeef72ce6c32785	-0.9676727778507802
109	0xbfdcaca90fd5e864	-0.44803835436289874
110	0x3fd3cf932ff2199b	0.3095443695277937
111	0xbffed060e2eca2fe	-1.9258736480934995
112	0x3fe9dceb2202f1fe	0.8082175888335426
113	0x3fd582c39acf1bc9	0.33610620611255776
114	0xbfd7685f4ea8ebe3	-0.36574537927270806
115	0xbfe6d6eedb8f975b	-0.7137369430827037
116	0xbfd963a5ada9ee89	-0.3967069812713154
117	0xbffcd27e5299d280	-1.8013900019260802
118	0x3fe86c137141ac26	0.7631928646127377
119	0xbff7ca921777c96c	-1.4869557301249996
120	0x3fdc9fff1c8a6df9	0.44726541316205687
121	0xbff056d0ae7471f1	-1.0211951079028234
122	0xbff28606ffb64587	-1.1577215183973253
123	0xbffdfb08b0b6b7b8	-1.8737875845795156
124	0x3fdd65878349d903	0.45932185956134236
125	0xbfbd13ff80902829	-0.11358639611003753
126	0xbff80595f7c75924	-1.5013637236457464
127	0x3fa0e7c2bba9f4c3	0.03301819363421423
128	0xbfe2f562c54cb03a	-0.5924543241030797
129	0xbff9c4007b7ca884	-1.6103520225247232
130	0xbfbcbe91837ea0d5	-0.11228284321134947
131	0x3ff191af665beac0	1.0980676649475498
132	0x3fd6ced488e38096	0.3563739144137882
133	0xbffbd2e85f6989c4	-1.7389911391297668
134	0xbf5ad1cfd85a2c57	-0.0016369371163900326
135	0xbff4310e18dae747	-1.261976334657861
136	0xbfca90edc4783ed5	-0.20754787533996102
137	0xbff6941b07954af6	-1.4111585899560715
138	0xbfee35002a26ccb7	-0.943969805075901
139	0x3fcb0fbad4c506dd	0.21141753567831403
140	0x3fdbd54304b4d531	0.4348914667092059
141	0xbfeb892f81bb8a75	-0.8604962858046991
142	0xbffbcc71ebcce374	-1.737413331122494
143	0x3fc7d1d6084b22b4	0.18609118847804995
144	0xbff2323abdaccd40	-1.1372630509548145
145	0xbfcd52d0fbaf418f	-0.22908985413824864
146	0x3fb678aab716aa55	0.08777873010573363
147	0xc007c0eb2e2bb40b	-2.9691985709273516
148	0x3ff7746f427b4f5b	1.4659264180126772
149	0xbfe7501704d2288c	-0.7285266012343228
150	0xbffc5e99bb2760dc	-1.7730958281227265
151	0x3fd5131c1628f899	0.3292913643271134
152	0x3feeca01fe780659	0.9621591539473214
153	0x3ff7c0732563ba87	1.4844848118333702
154	0xbff3752232ae2ea7	-1.2160970668509579
155	0xbff55d189cb39420	-1.335228550067093
156	0x3fb17df373b465ea	0.06832810950108806
157	0xbfef65dcfdd07c21	-0.9811844785034546
158	0xbfd5c809290b94e4	-0.3403342152435711
159	0xbffcacc7917963f9	-1.7921825106225227
160	0xbffa7b726d91bf30	-1.6551384239246083
161	0xbfff29c36880e936	-1.947696121422792
162	0xbff070ab59d62b11	-1.0275071629755
163	0xbfe3171466b9b894	-0.5965673452717675
164	0xbfde577f80caa54a	-0.47409045769980607
165	0x3fdefd5be8c23007	0.48421380739523595
166	0xbff2eda75ec14b0f	-1.1830209447259141
167	0x3ff31f8c7f0df104	1.1952023470940398
168	0xbfcd05efd9c5d8e2	-0.22674368031920894
169	0xbfffc3ebbf33e20b	-1.9853322476247992
170	0x3fe437ab405d671a	0.6317955262304367
171	0xbfd6cd70038cbd11	-0.3562889132180809
172	0xbfbf5127ab1a93b3	-0.1223320763334204
173	0x3fe8d1db37bd5ce0	0.7756172264734253
174	0xbf9fd3c1d344e4e6	-0.031081226844638453
175	0xbfbf0fd0d8f7423c	-0.12133508011835031
176	0x3faca6d1a3bcf971	0.055960227239199585
177	0xbfbedf7c55762763	-0.12059762083495466
178	0x3fe701cc5e293f7c	0.7189695204815361
179	0x3feb02c296ac1508	0.8440869276825262
180	0xbfd1ae18d5525cde	-0.2762510379047408
181	0xbff2febfceff76d3	-1.1871946416717278
182	0x3ff7f28f8035acc0	1.4967188842954755
183	0xbfd6b0e830f5c157	-0.3545475462078875
184	0xbfd978cce7f67805	-0.3979980721722998
185	0xc0066e36d404a49f	-2.803815513984389
186	0xbfeb06b4703523a2	-0.8445684615663718
187	0xbfe3a9f268def29a	-0.6144954727420384
188	0x3fdabd5e94963ff7	0.4178081942600324
189	0xbfebb15a0e8058af	-0.8653993876676135
190	0xbfeb7c3dde47c95b	-0.8589162198461894
191	0x3fe2df59083c0ca0	0.5897641335326576
192	0x3fab3dcce111446f	0.05320587394147302
193	0x3ffd8073becdb09d	1.8438603833447254
194	0xbfdb56b9f98b2708	-0.4271683632801886
195	0xbff0ab5308eb22fc	-1.0418272350672728
196	0x3fd3480dab99a06a	0.30127279050657896
197	0x3fe13065e8ba027a	0.5371579690400516
198	0x3facff8f8ddcaf91	0.056637273852486854
199	0xbfdef41bba9244f8	-0.48364918918475963
200	0x3fd9cb44ffae0fa9	0.4030315873026163
201	0xbfe0db372e70631c	-0.5267597109806021
202	0xbfd1381f5030643e	-0.2690504344078056
203	0xbfd03d91368e3384	-0.2537577660339638
204	0xbff82c37633b2470	-1.5107950092517761
205	0x3fd9c4baec58556f	0.4026324565941967
206	0x3fd7227edea52b69	0.36148044340796176
207	0x3fda96899bea850f	0.4154380819910139
208	0xbff0975fd6e7815f	-1.0369566340160288
209	0xbfb7c094eee91f35	-0.09278231461314308
210	0xbfc52fed65f58298	-0.16552512625186888
211	0xbfec7f32fe502769	-0.8905272452404748
212	0x3fd7a2c91471e01b	0.36931063648762724
213	0x3ff621cc8cc2a72a	1.3832517145587624
214	0xbfe3d054df981d27	-0.6191810957979315
215	0x3ff4f1616349287e	1.3089307669020225
216	0x3fbade1eef73fe39	0.10495179506323717
217	0xbfe11f2d9668eae7	-0.5350559175197674
218	0xbff6d40b3d5cbb82	-1.4267685315096235
219	0xbfcae0382917088b	-0.20996763235422508
220	0x3fdb538ef610f64d	0.4269750025740436
221	0x3fdc678455438083	0.4438181717541811
222	0xbfeddba217eddbb6	-0.9330606906286139
223	0xbfadd5618651ddee	-0.05826859249730974
224	0xbff055d8ef331e1e	-1.0209588378655847
225	0xbffaa0eef2dca8db	-1.6642903792185766
226	0xbfec8a5d00594815	-0.8918900496303218
227	0x3fe0aa8d7dafc3ee	0.5208194212738115
228	0x3fd0404a06f97f4a	0.2539238994704546
229	0x3fcf2561aea0d68a	0.2433282950093381
230	0xbfedaef2c7184266	-0.92760599981018
231	0xbfc78e3e9a35d8a3	-0.18402845887948613
232	0x3fbde385d817b78f	0.11675297284793217
233	0x3ff864359aefc99f	1.524465184422844
234	0x3ff8543011764293	1.5205536539180329
235	0x3fd426563ce09f69	0.3148398966318298
236	0xbfe6fb5624daf232	-0.7181807250813732
237	0x3ff352668c35acf9	1.207617328351999
238	0xbff83326c89a9265	-1.5124881588063996
239	0x3fe01f82f91dcef9	0.5038466325335939
240	0xbfc00f371eb51941	-0.12546433448205543
241	0xbfc8a079e2a5a07b	-0.1923973423647601
242	0xbff12f87b5bbd0bb	-1.074104032418332
243	0x3ff8a99e392595e3	1.5414106590554801
244	0xbfe85b0a8b7aa2a5	-0.7611134266090472
245	0xbffff5c5200e343c	-1.9975024463813176
246	0x3feb92818d944f95	0.8616340413304778
247	0xbfeb7ff5298fe4f8	-0.8593698322066805
248	0x3ff39587b2d65301	1.224006365378216
249	0x3fc26c3249506634	0.14392689304149686
250	0xbff736458f76fcaa	-1.450749931725833
251	0x3ff198fd537ce1b4	1.0998509656184128
252	0xbff0f788bcea5fe3	-1.060433137847206
253	0x3ff0c946b968b58e	1.049139713529573
254	0x3ff71a730a94eb7e	1.4439573682163593
255	0x3ff0a68d63236352	1.0406621811473156

input_gate_weights f8 [108, 81]
0	0x3fffb112027ef711	1.9807300660608613
1	0xbfd7b96840afcbb9	-0.3706913596826627
2	0xc0006c42b95dc680	-2.052861641096399
3	0x3febc6f9adf7b967	0.8680389783674344
4	0xbffcdbb46c5635af	-1.8036388618378216
5	0x3ff78d2cf131229c	1.471966688304895
6	0x3fcd7e03e9c30b2f	0.230408181325481
7	0x3ff855eca70027cd	1.5209776423894141
8	0x3ff9e752e4e3531e	1.6189755383431428
9	0xbfe0b78f82717ce3	-0.5224072978707252
10	0x3ff3636f581a95aa	1.2117761079365246
11	0xbfebeaef2cbcd546	-0.8724285005361387
12	0xbf94b8d47f33db43	-0.020236320747211833
13	0x3ff13827bfdb1bd5	1.0762097830172384
14	0x3f7969937f249a7f	0.006204200896070432
15	0x3ff0be5407b3fde9	1.0464668560888362
16	0x3fcb8ac343817d62	0.21517220302755918
17	0x3fff24518991c4f7	1.9463668226056237
18	0x3ff7d119d3db3d4b	1.4885500217095167
19	0x3fe1528f3f923ab8	0.5413280717492261
20	0xbfd292695180fd49	-0.2901862426696949
21	0xc0045fe55de6c17d	-2.5468242012067877
22	0x3ff0837ba1e4f988	1.032100326919677
23	0xbfc7cd762d2fe228	-0.18595769125364936
24	0x3fe92f060feb24a3	0.7869901953610178
25	0xbfedb0c3908c96fa	-0.9278276274896762
26	0x3fe5851214f524f6	0.6724939736679107
27	0x3fd47a4a740d17f5	0.31996404011840635
28	0x3ffc508f0b65eb8b	1.7696676678885719
29	0xbfa4bdf63ccd8fa3	-0.04051179401611129
30	0x400847827c39034f	3.034916849603554
31	0xbff673e2dacba132	-1.4032925173469946
32	0xbfb089ab09e92aca	-0.06460064880335917
33	0x3ffe584577ee031d	1.8965506253009103
34	0x3ff684f58ac82b19	1.4074607297104136
35	0x3fd29dae3865b566	0.29087405688809154
36	0x3ffc4d358070e609	1.7688498513438182
37	0xbff1d5a0721b09a4	-1.1146549660921687
38	0x3feca6046291ebcc	0.895265762824573
39	0x3fe2995280aeebd0	0.5812160981507706
40	0x3fd0dbe54ebc4d81	0.2634213704015665
41	0x3fe5a7e73c4562b1	0.6767460038345999
42	0xbfe68f8f2017dbf2	-0.7050243021793661
43	0x3ff7fab722a0c8b5	1.4987098076494878
44	0xbfd28ba4e0a3d8fe	-0.28977319657805356
45	0xbfa59a15e19ce33f	-0.04219120387137431
46	0x3fa95b9aaa4fb276	0.04952700928683822
47	0x3fce8c7c3aa837d2	0.2386622702037458
48	0x3fecd700e55492a8	0.9012455443485878
49	0xbff377201970a9b3	-1.2165833467248433
50	0xbfd4d2b5b43b236f	-0.3253607044285251
51	0x3fe4210e64a4eb35	0.6290351834971718
52	0x3fd1afd8cdaef891	0.2763578423145044
53	0x3fe8a455b4d1d562	0.770060399211314
54	0x3ff5b6a77a44d623	1.3570933128479588
55	0xbfe58af3948cd0d8	-0.6732118512504952
56	0xbfee6284723f3326	-0.9495260459312689
57	0x3fd10a36e4ce7cdb	0.26624843925851643
58	0x3fe06cf5a0003a94	0.5133007168786485
59	0x3ff20479a46565af	1.1260925695154176
60	0x4003b792486ab101	2.4646344811973226
61	0x3fdc679fe16034e0	0.4438247395454038
62	0x3fe7cb9124195325	0.7435994820649269
63	0xbfe3ba803dee200b	-0.6165162286351927
64	0xbfec8b312a38febb	-0.8919912171040417
65	0x4000cbdef1480131	2.0995463228320195
66	0x3fef805bf38360b1	0.9844188457600663
67	0x3ff5f11f67ebf5f2	1.3713678416673898
68	0xbfff2d680ce83b80	-1.9485855583368163
69	0x3ff0d718d72ed428	1.0525139241774557
70	0x3fa56c3418493ac0	0.0418411521574078
71	0xbfbcf530fd0f16ff	-0.11311632326313868
72	0x3ff922001d17680c	1.570800889624027
73	0x3ff8cb361a045ec0	1.5496121422092273
74	0x3fccd14793c918ce	0.22513670650568546
75	0x3fd90b8449a8f1ea	0.3913279265723576
76	0x400219dd038a03c0	2.2626285816663483
77	0xbfc62a861a067507	-0.17317272444498874
78	0x3fefa327242d9b0d	0.9886661249737202
79	0x3fffed3e5e629c46	1.995420807544876
80	0x3ff3963e4d058234	1.224180508485131
81	0xbfe669d096da23b9	-0.7004168459253527
82	0xbfe60f099f886359	-0.6893356433748564
83	0xbfc5c1673a1344f7	-0.16996469817835422
84	0xbfd1ba351d195d32	-0.2769902023478209
85	0xbfc837881fbeecc8	-0.18919469404304423
86	0x3fac0f44c6736e5d	0.054803990578616825
87	0xbfeadbb9bad5facb	-0.8393219613206723
88	0xbfb571f5e8244529	-0.08377015035172931
89	0xbfcdaf4353644fa6	-0.23191110202662663
90	0xbfd232ef5a2958d8	-0.28435882382235667
91	0xbfd5311dce2ba860	-0.33112282880632016
92	0xbffc815bbb92c1a7	-1.7815816237526663
93	0xbfb896537e6c4e1e	-0.09604379498005541
94	0xbfc41f1672021a37	-0.15719872061545612
95	0xbfc1b454fe29abf5	-0.13831579599658964
96	0xbfc35dea807847f2	-0.1513035895628146
97	0xbfbef8f3c1b21f2f	-0.12098620871449549
98	0xbfcc2b88ffe23545	-0.22007858747785228
99	0xbfe9f8e8e41b1968	-0.8116344886009701
100	0xbff66d063dd65487	-1.4016172805325213
101	0x3feaa5c4570b8b0a	0.8327352237796231
102	0x3fe7f381ce18d5ef	0.7484749818165123
103	0xbfef2fba758b6f65	-0.9745762153429324
104	0x3ff48843a7a040e2	1.2832676456346737
105	0xbffb18c3b1b3f409	-1.6935460034867467
106	0xbfc4192c7442cd97	-0.15701823880008867
107	0xbfaaf990dbd3468f	-0.052685286363737587
108	0x3fe2283230640e26	0.5674067444928752
109	0xbff31b5816aa5652	-1.1941758046499626
110	0xbff106943aa660cd	-1.0641062060367859
111	0xbfd737f12150245f	-0.3627894234965136
112	0xbfc9bd4e1987449f	-0.2010896324777933
113	0xbfe7c7cce87d120b	-0.7431397000114556
114	0xbfc54e6fa99d0af5	-0.16645618230730688
115	0xbfcc01d6aa9f4370	-0.2188061078182062
116	0x3fa2fcb0f323118a	0.03708413093548575
117	0x3feb5eb5c2ae3a3a	0.8553112795214652
118	0xbfc7624d292b8ad2	-0.1826874209428611
119	0xbfeebfa434b999b8	-0.9608937291894142
120	0xbfe208324c35472d	-0.5635005463065902
121	0xbfba968d30febec5	-0.10385973402184863
122	0xbff477ee547f4dcf	-1.279280023639206
123	0x3fe89e78b3c857d7	0.7693446647051542
124	0xbffc3ad2c44e22ea	-1.7643611591503778
125	0xbffdea37bd20b08a	-1.8696820628929651
126	0xbff4ae8698cd3acc	-1.2926088303390086
127	0xbfd108707617fd0e	-0.2661400941141928
128	0xbfdfbce26519d5f2	-0.4959035861314468
129	0x3fb512d1a2ff1b95	0.08231840352446647
130	0x3fe11bce95cc88c9	0.5346444059144001
131	0xbff6301f5f8570d9	-1.3867486697482063
132	0xbfdd873f16ca2fd4	-0.46137978768888144
133	0xbfe755ba431c5a17	-0.7292147932774381
134	0xbffa09716d8d4deb	-1.6273054389356456
135	0x3fe3f21968e1906d	0.6233031319102459
136	0x3fd2e28140ae7066	0.29507476154845447
137	0xbfe4846d6e835868	-0.6411654623468737
138	0xbfe60c93f56fba78	-0.6890353959732485
139	0xbff289cf179f4e80	-1.1586447642083897
140	0xbff11bff2c3e0444	-1.069335148640918
141	0x3f9da78e29187182	0.028959485300320782
142	0xc00011070134fba1	-2.0083141416830164
143	0xbfe25b280f40dd5e	-0.5736275003354583
144	0xbfde610e8c753728	-0.4746738788279452
145	0x3fe440988a1264d3	0.6328852364269103
146	0x3fc9df987b82e4bf	0.20213609724831902
147	0xc0005adcfa6edba3	-2.044366795070759
148	0xbfd7fb723e5436d5	-0.37472206198513663
149	0x3fc46a35824f8069	0.1594912420541761
150	0xbfdab87ff3940131	-0.4175109747593693
151	0xbff8e6ac8765c2d8	-1.5563168801274312
152	0xbff69afa111eddc2	-1.4128361386081996
153	0xbfe0e59b4274367b	-0.5280281351021608
154	0xbfcbf972abd4dea7	-0.2185500468274217
155	0xbfedce97144023b7	-0.931468524505468
156	0xc0021259b558bca7	-2.2589601676659927
157	0x3fa41d1e133baad5	0.03928464875010255
158	0x3fc39b69c8322bea	0.1531803348082968
159	0xbfe4e1cf5aef8138	-0.652564694984938
160	0xbff9536dd7fb7065	-1.582868426971822
161	0x3fd47ebda52647f0	0.3202356446064405
162	0x3fb00f6d03bbfbae	0.0627353796116796
163	0xbfe0f01ca68ebebe	-0.5293105366781317
164	0xbff6689194bb8327	-1.4005294618475064
165	0xbff0b4a4b5f3f805	-1.0441023929156483
166	0xbffaf9210201be2c	-1.685822494353384
167	0xbfbd4ff2edef61e7	-0.11450117405855274
168	0x3fbe213dd8def620	0.11769472641659506
169	0x3fb2a321b92ed885	0.07280169268674015
170	0xbf9a066ea2be3a9f	-0.025415161784219206
171	0xbfdb5ed1c26e2a9c	-0.4276623152478949
172	0x3fe972227fbc9407	0.7951824660164001
173	0xbffdbd36e6a696a6	-1.8586949357790359
174	0x3fa836b50c127d09	0.047292382930431094
175	0xbfe1640ef2264ebc	-0.5434641580090651
176	0xbff4fce214b2ddec	-1.3117390450041695
177	0x3fef0ae845ae588f	0.970081459136752
178	0x3fec9b191ea59a0d	0.893932876450721
179	0x3fe52204797e26d3	0.66040252427157
180	0x3fc1f891f917abd9	0.1403982607147032
181	0xbfe44f4a53b356dd	-0.6346789965416196
182	0x3fe3e3a305201ca6	0.6215376949411577
183	0xbfcb94babea13d2e	-0.21547636325929304
184	0xbfed298ed20377e3	-0.9113229848696814
185	0xbfeb5974e2c0d877	-0.8546699932837915
186	0xbff47dac2ae0645d	-1.2806817698349484
187	0xbfee9c1d6e175f7c	-0.9565570020886152
188	0x3ff8fb065298c40c	1.561285326617738
189	0xbfd933e78a495b6f	-0.39379299644990956
190	0xbff1ad072487dad0	-1.1047431399326122
191	0xbfe0d7807c408eb8	-0.5263063837814661
192	0x3febdfac3b9e999c	0.8710538067287419
193	0xbff0532cbecbb6c4	-1.0203063443145064
194	0xbff59d7eda9645ab	-1.3509510553888997
195	0x3fbf280bfc3e0ba9	0.12170481594334483
196	0xbfea932e4440152e	-0.8304663975729107
197	0x3fd80ccd77bd09fd	0.37578140919882214
198	0x3fe90f56cdcdea65	0.7831224460235943
199	0xbff6dd919b379919	-1.429093939129933
200	0xbfb95750fc10e5f0	-0.09898859170871055
201	0xbfda37de775b7bc3	-0.40965997367851176
202	0x3fc215ad37a0eb22	0.1412865182517971
203	0xbff44ce343947ed1	-1.2687714233251663
204	0xbfe563718cc3c7ec	-0.6683891057311917
205	0xbff05338a16f871c	-1.0203176790313995
206	0xbff7ca7cd6489010	-1.4869354601332851
207	0xbffa497c986367f4	-1.6429410889309084
208	0xbfd81a5c88da5660	-0.37660897602595433
209	0xbff1db8af58bd077	-1.1160993186613533
210	0x3fe0f84000b13756	0.5303039563675422
211	0xbfd916b88b9d968c	-0.39201177248319463
212	0xbff40f95e939f0d5	-1.253805075683933
213	0xbff3ff0a75b5f29c	-1.2497658346248164
214	0xbfe2732ad72366b9	-0.5765585138244297
215	0xc004b1af7eab844b	-2.5867605110256924
216	0x3ff0c7aceaef13d9	1.0487488915543877
217	0xbfdc4c4e70f53c65	-0.44215737372446134
218	0xbff294af8356bf65	-1.1613001947807444
219	0xbfd02c06bcbff5ca	-0.25268715317346546
220	0xbff6158ebbd14346	-1.3802630745523898
221	0xbfe1f657181b39a6	-0.5613208266093366
222	0x3feb703d39a82f7d	0.8574510694611345
223	0xbfcf758f7b288812	-0.24577516091909551
224	0xbff1fedd0608a46a	-1.1247225032514288
225	0xc001792b7f2a1244	-2.184164994689384
226	0xbfe2ea28b7228c9c	-0.5910838677267694
227	0x3fba3cd46bf2fcfe	0.10249068866231778
228	0x3fbace08a20d3cd6	0.10470632511463704
229	0x3fb1e6d455cee233	0.06992842764783162
230	0xbfd1ab9752bc4ca6	-0.2760980899776747
231	0x3fd3887a5e536869	0.3052049561644084
232	0xc001e5c6e42717c2	-2.2371957611494233
233	0xbff35c89f5878c7d	-1.2100925055499652
234	0xbfe2cd52658e066c	-0.5875637038700012
235	0x3fee25f3bbf85f6a	0.9421328231137356
236	0x3fddc43f2ade404d	0.4651029509195766
237	0xc0016b07e381299b	-2.1772611402313493
238	0x3fccd2017625cb53	0.22515886563231877
239	0xbfd51ef96d762568	-0.33001552285767
240	0xbfe5705bf95ae9f6	-0.6699657316415244
241	0xbfd042ea59dadfee	-0.2540841939439805
242	0x3fe4f15ecb9155b7	0.6544641471797864
243	0x3fb7208772a6695a	0.09034010457108846
244	0xbfe203210dc889f2	-0.5628819722372198
245	0xbfb4b09b81e76fe6	-0.08081981584058404
246	0x3fe7d4c5ec8215c9	0.7447232837009149
247	0xbfb42109787e07ab	-0.07862910453516629
248	0x3ff9c4b0ff2f8083	1.6105203598199587
249	0x3fd4cda9f8bed956	0.32505273143342117
250	0xbfe131510343a334	-0.5372700752023776
251	0x3fe8dcd5ae77fb03	0.7769573600379264
252	0x3fd240be43ef157a	0.28520161279842393
253	0x3ffc56b25a1efaab	1.7711661835052535
254	0x3fe9378b195f7edc	0.7880301948134405
255	0x3fcfb34557f90dfb	0.2476584128909137

output_gate_weights f8 [108, 81]
0	0xbff2565ed0fd0782	-1.1460865176781856
1	0xbff1879a6c79aa75	-1.09560625432155
2	0xbff08214d1d8776c	-1.0317581364720025
3	0x3fe622ff25d6fb44	0.6917720545824086
4	0xbffe0836a012216a	-1.8770052197233675
5	0x4003304a79e66477	2.398579552024383
6	0xbf836619e9a4870f	-0.009472086374958914
7	0x3fe1cdba48fc5263	0.5563632417202594
8	0x400a5fdef3583a82	3.296811963205358
9	0xbfe836bcbee522a6	-0.7566817978304996
10	0x3ff16d6fcb042c85	1.08921794226879
11	0x3fd1ee67ff6bec1f	0.2801761621810232
12	0xbfde574199acbeba	-0.47407569892218826
13	0x3fe9e70fa6afdfe9	0.8094557052236243
14	0xbff302e45f385ad5	-1.1882060737167894
15	0x3fd4ab87d085f90b	0.3229693924294145
16	0x3fd62f6bfcae9eca	0.3466443984602675
17	0x40022f3fd48c5672	2.2730709653213177
18	0x40003dc01890f952	2.0301515502207303
19	0xbff1d1dc77f2e68d	-1.1137356458188237
20	0x3fdf0991ad4a18fd	0.48495904848859067
21	0xbff94e8775d45dc6	-1.5816721537320162
22	0x3ff536e5cb04a0a4	1.3259027414697266
23	0x3f985fe5c4115615	0.023803320018791114
24	0x3fc9beaf6c71ff5f	0.20113175196820074
25	0xbfdea55b18adca98	-0.4788425198559394
26	0x3f7bd8672a7fd4a0	0.006798174850691258
27	0x3fea7d1299b2d62d	0.8277676584172632
28	0x3fdf199a472ea94b	0.48593766166108726
29	0x3fd58df4ddf817b0	0.33678933788939514
30	0x40086689f4e72299	3.050067818931279
31	0xbfd225f736cef5ed	-0.28356724121462556
32	0xbfde3d9746784437	-0.4725092113668014
33	0x3fef49f65d909b95	0.9777786090315767
34	0xbf78fcab5b1ea160	-0.006100339278340833
35	0x3fec63d135efb218	0.887184720367773
36	0x3ff403d76a12c5db	1.2509378570069802
37	0xbffbce0a22daf4ae	-1.7378026353392602
38	0x3fef633ebae87bd6	0.9808648729848481
39	0x3fceaba55a26a4df	0.2396132173719598
40	0x3f71136a92f10049	0.004168907456062306
41	0xbfe69466ac57200f	-0.7056153646490219
42	0xbff2b4d870af6df2	-1.169151725937692
43	0x3ff7de6e7f13a790	1.4918045963226838
44	0x3ff1d9cf4cd6293f	1.1156762124470132
45	0xbfe874f3a7c8e1a2	-0.7642763402027877
46	0xbfea7f3e364217e3	-0.8280325946550388
47	0xbfe06dcaf7a67af6	-0.5134024464531126
48	0x3fb54c83b77da868	0.0831987688995085
49	0xbfced2a46341f6b0	-0.2408032879501909
50	0x3fa79b9b7dad5e66	0.04610906514306805
51	0x3fbb5eb9994ba8b0	0.10691413872305833
52	0x3fd310743e8faf6f	0.29787927731989944
53	0x3ff51d4deb096f23	1.319654386627868
54	0x3ff26102a6b199fc	1.1486841689562644
55	0xbfe576532d650bec	-0.6706939589133731
56	0xbffd1b5df98c6fc5	-1.8191814182273316
57	0x3fdfdc3f8428ecd8	0.49781787782894815
58	0xbff2b5652aa22e2b	-1.1692859330531842
59	0x3fe40f693998c99f	0.6268812298715608
60	0x3fe9e205cdda9638	0.8088406582434748
61	0x3ff33432ac3a5bf9	1.2002436378149908
62	0xbfe0a37ad09479b0	-0.5199560235812921
63	0xbff3b9a99c6ad4a7	-1.2328277692843501
64	0xbff466b89678d90c	-1.275078380376331
65	0x3ff12bf7ea0eb061	1.073234476362835
66	0x3febc672e4033f2d	0.8679747060177526
67	0x3ffd6b831c9445ef	1.8387480846762363
68	0xc0025ba54c1ad2dd	-2.2947488732992114
69	0x3ff34c300ec0c203	1.2061005188262477
70	0xbfdf8711c5ec912c	-0.49261898354076794
71	0xbfb60e6415fc7f78	-0.08615708863044158
72	0x40024ad5442df20c	2.2865395857354596
73	0x3fe310d143b0e8d0	0.5958029100504749
74	0xbfe66c8c48055c3f	-0.7007504851016008
75	0x3fcebf2492704500	0.24020821714706386
76	0x3ffb9f406f2619c6	1.726379808592911
77	0xbff2f7336d392d44	-1.1853517786538115
78	0x3ff9f04d83558b64	1.6211676721802286
79	0x4004a58e644bc9a4	2.5808379970196302
80	0x3ff780bbaa1b3f1b	1.4689289707930075
81	0xbfd1fffb1c7adf46	-0.2812488344311429
82	0x3fbb5acfddada6b9	0.10685443079060065
83	0xbff3cf21de41cd6a	-1.2380694085994386
84	0xbfbd5e7c12e7b960	-0.1147229715495306
85	0xbfe0ac291e589300	-0.5210157005973031
86	0x3fe11140bb765310	0.5333560620661917
87	0xbfe242298df924d8	-0.570576455394213
88	0xbff3593f97fce6ca	-1.2092891633059701
89	0xbfdea49e84be69f9	-0.47879755938779983
90	0x3fed43a9723b6b2e	0.9145095091911111
91	0x3fcf8fd768832530	0.24657719233645414
92	0xbff7e27a271980d3	-1.492792275174044
93	0xbfe52d7ed5831c7f	-0.6618036432418107
94	0xbf811a985f9bfcfc	-0.008351507585301558
95	0xbfef3a68e8f62b29	-0.97588010311424
96	0xbff60b56d3a13bb6	-1.3777683512487164
97	0x3fec6c2e1f1cfb70	0.8882055862121501
98	0xbfad6427a7f3c260	-0.05740474629590575
99	0xbfe5b2e0b6c9cfbd	-0.6780856676182264
100	0xbff8d9171b10be7f	-1.5530005509607745
101	0x3fdf04609dcc66a4	0.48464217576984425
102	0xbff5516584219e57	-1.3323722039584902
103	0xbffb0fcbdd849ba5	-1.6913565304800866
104	0xbfbc2ed2369054c9	-0.11008943397640104
105	0xc000a877f9b6573f	-2.082260084988689
106	0x3fd65349c65fca6b	0.3488335072753787
107	0xbffa44c7be85528f	-1.6417920534342192
108	0xbff51e681ab8d3e5	-1.3199235004260512
109	0xbff107ccc92be891	-1.064404283357849
110	0xbfe502cf77f48149	-0.656593069350529
111	0xbfe1e9616cc34936	-0.5597388386034143
112	0xbff0ce4f33b60412	-1.0503685016594813
113	0xbfe588dab51a2237	-0.6729558503294076
114	0xbff1db5dd1e311da	-1.1160562704763977
115	0xbffdeddde5d0be4c	-1.8705729462780196
116	0x3fa3aaea7ab0578f	0.03841336009661155
117	0x3fe1fab110c1ec56	0.5618520095153012
118	0x3ff6c6810610820b	1.423462890328781
119	0xbff6fc12b16e2444	-1.4365412646168503
120	0xbfc2ffa9691f27cd	-0.14842717774291572
121	0xbffd65ea0fc144b8	-1.8373814216068194
122	0xbff8ec96dc09a22e	-1.5577610583515127
123	0xbfdcf8325a2234ce	-0.4526487236224285
124	0xbff102a828f36ae8	-1.0631486510889605
125	0xbfe144f6252780c9	-0.5396681523962111
126	0xbfe951537f6d9f71	-0.7911775101501758
127	0xbfcd8909e43d9adb	-0.23074458736956313
128	0xbff283a051a096c6	-1.157135313851016
129	0xbfe8c3b51a752138	-0.7738900677441398
130	0x3fe555cfbe6184f7	0.6667250364663734
131	0xbfdb614c5b8544f2	-0.42781361520344696
132	0x3fd4d3bffe510be9	0.3254241927681379
133	0x3fd84a49fd6a5eb5	0.3795342421303574
134	0xbfdfca9b9982f976	-0.49674119941109696
135	0x3fe0218d09d3daf9	0.5040955726570636
136	0x3fd45b62aba25f88	0.31807772408637236
137	0xbfef71c93789f30f	-0.9826398930304964
138	0xbfef9c3572c9679a	-0.9878184549263438
139	0xbff27fc8c5f49c1d	-1.1561973316800114
140	0xbfd8bec69a577380	-0.3866440303079841
141	0xbfe824ca7abcb183	-0.7544910809715905
142	0xbff4325035e35210	-1.2622835259436478
143	0x3fcdf81e23451bdf	0.23413445207753988
144	0xbfd36aadd7412890	-0.30338617344808316
145	0xbfeeb1e10f52bd11	-0.9592137622147751
146	0xbfe5d5437dbcb87a	-0.6822831588558664
147	0xc005e31934d15fec	-2.735887920989617
148	0xbfb5339641d883f8	-0.08281840426981535
149	0xbfe41bcd00544c50	-0.628393650668281
150	0xbf9e1ce5ed58e034	-0.029407112704774543
151	0xbfc80fbcdec2cc27	-0.18798027874945086
152	0xbfca66554e21f902	-0.20624796214173818
153	0xbff05d5ec1da19e1	-1.0227954456655584
154	0xbfe4c57ae1f9a76d	-0.6491064466074313
155	0xc0067a961c5735a7	-2.8098566259493114
156	0x3fd721c611e64c68	0.3614363837052168
157	0xbff1367fdb9c644c	-1.075805528502559
158	0xbfeb2321ca509522	-0.8480385734043561
159	0xbff14bc14a84945a	-1.0809948836188341
160	0xc0010cf4ac88292c	-2.1313260535290706
161	0xbfeb9342002be6f0	-0.8617258075093712
162	0xbff203c3254f0dfa	-1.125918527352836
163	0x3fc84f438b462ec7	0.18991894054885547
164	0xbffdc977a0aafc12	-1.8616863514032542
165	0xbfe29bcab8d24da7	-0.5815175638003226
166	0xbff427bd5ac08446	-1.2597020668984142
167	0x3ffc452ebfe22fd8	1.7668902869654541
168	0x3fd0db715ee477a4	0.26339372889366985
169	0xbfe61731a8247283	-0.6903312953978261
170	0x3fd5ecd6554a30d7	0.34258039788325106
171	0x3fc5d1ef9a2060ac	0.17046923661906044
172	0x3fd912dec91cf5c3	0.39177674903825394
173	0xbff04c9a5e3b4988	-1.0187019043847574
174	0x3f8beece2b7f28b4	0.013639078810133355
175	0x3fe02996d09fe5dd	0.5050767969798319
176	0xbff5c82e56be032a	-1.361372317158564
177	0x3f8be8b1e57c96bc	0.013627424064519437
178	0x3fe4fd205227ba6b	0.6558992008775254
179	0x3fe1e1fdcf883d70	0.5588368466723477
180	0x3fc07da9b6854f8a	0.12883492862840412
181	0xbff66e786d118694	-1.4019703159796437
182	0x3fed4a7c142b27d5	0.9153423684995184
183	0xc0011c479f712bae	-2.1388084846889432
184	0xbfd7790f820bf2dc	-0.36676395130034023
185	0xbffdc6b6d1d4e525	-1.8610141941592897
186	0xbff15f6a2a8e5203	-1.0857946073857654
187	0xbff0865ab8df466b	-1.0328013631409714
188	0xbfaf466c00eb68c7	-0.06108415137505712
189	0xbff9235f35e3a7ea	-1.571135721688274
190	0xbff8708e0420dec5	-1.5274791871324152
191	0xbfc082015313716f	-0.1289674430507932
192	0x3fe4f652194cfd5c	0.6550684446482751
193	0xbff0443bd262ca41	-1.0166586130332151
194	0xbff5e6f6a53bbf4e	-1.3688875631741726
195	0xbfae59b91c0670ed	-0.059278282805481065
196	0xbffed433afbdf3e7	-1.9268071045801152
197	0x3fea649f82b7519c	0.8247830918358434
198	0x3fc81210653afa31	0.18805127089395193
199	0xbfa8c665285f7f4a	-0.04838863485178864
200	0x3fa349c149382c43	0.037672081172865045
201	0xbfd952003fa117cb	-0.3956299420718749
202	0xbfd221159102d616	-0.28326930199850275
203	0xbffec189a8d91139	-1.9222504230138624
204	0xbff0a8b3b4898605	-1.041187005256121
205	0xbfe1821bb9ccc7bc	-0.5471323613075962
206	0xbfe08df0a0b2b3a8	-0.5173266543039192
207	0xbfe2bc3f57b753f7	-0.5854794228749814
208	0xbfeb4e318ffc547b	-0.8532951175899507
209	0xc0009f75ffad9037	-2.0778617834894493
210	0x3fca0aa316232e06	0.20344961720398674
211	0x3fc9ded6c3cfe1d1	0.20211300431380022
212	0xbff2d9937c83522c	-1.1781191695964806
213	0x3fc8e2a08fef31f2	0.19441611316723556
214	0x3fb5060fb81e097e	0.08212373967220363
215	0xbffba3c8d8711926	-1.7274864630467817
216	0x3feb8aacf243b20e	0.8606781703688868
217	0xbfad4ba817dd3c90	-0.05721783915816403
218	0xbffc3d9268e137e3	-1.765032205282744
219	0xbfd5e5c750645154	-0.3421495709492508
220	0xbff580fe205d8bd7	-1.3439923538469338
221	0xbff0622604e6ed8e	-1.0239620391356286
222	0xbfd23a397195b04d	-0.28480373470552395
223	0x3fe8ad6ed256f1da	0.7711710079379899
224	0xbff16241693f909b	-1.0864881621610383
225	0xbff82c322871b690	-1.5107900218821761
226	0xc00147197d7b38b0	-2.1597165873746107
227	0xbfe8952fbe8e25eb	-0.7682112428457776
228	0x3fcb75de4147eaac	0.21453455150170464
229	0x3fe3c294b93c794a	0.6175025575537714
230	0xbff6635d5de5fee0	-1.3992589633853
231	0x3fdb5fe9ad42ad2a	0.4277290527340535
232	0xc0006215da6d941d	-2.0478932442370152
233	0xbfde44d158207b71	-0.4729503021825883
234	0x3fc124e864edca73	0.1339388363663435
235	0x3fd0f0fe428122f8	0.2647090577561779
236	0xbfe7d35979444123	-0.7445495003212595
237	0xbfdccc118cbf92f0	-0.44995535607294723
238	0xbfbf8a897fd2149d	-0.12320765848751809
239	0xbff802d187c781ac	-1.5006881049995213
240	0xbfd90b64e1e80bd6	-0.3913204389684187
241	0x3fc635731def7905	0.17350615464869903
242	0x3fc8c9092864e283	0.19363512489669085
243	0x3fda875c6802c40f	0.4145117774706372
244	0xbfefb8e4b09f9c0b	-0.9913199853589288
245	0xbfe0284537f107f2	-0.5049158184631308
246	0x4003112c0e3db95a	2.383384810694378
247	0xc005bddd53f45f6c	-2.717707305808224
248	0x3fe4ce05b8c75271	0.6501492127377572
249	0x3fe53defc0ffadfc	0.6638106126314933
250	0xbff52193b80e25ea	-1.3206975164088086
251	0x3ff0c9b9af05f5fe	1.04924934738608
252	0xbfdca01a60dd07a7	-0.44727191409412587
253	0x40089386d89e8c07	3.0720345424065303
254	0x3fe68ee9d84cd598	0.704945490323257
255	0x3fe4bbb92f89101e	0.6479154518533539

gate_gate_weights f8 [108, 81]
0	0x3fee5f6905261078	0.9491467571792915
1	0x3fefbb2bc11b2681	0.9915980121233617
2	0x3fc66de52428e0f2	0.17522873178109638
3	0x3ffd043fc9583735	1.8135373940489903
4	0xbfc66d7888ac151b	-0.1752157847733223
5	0x3fcd482f62183379	0.22876541414043652
6	0xbfb961f2b637b7a6	-0.09915081928894995
7	0xc001b3c44d2a3515	-2.212776759005133
8	0xbfddf247128c1b6d	-0.46791245280512933
9	0x3ff39824f1ce3c6f	1.2246446080714823
10	0xbfc882c211245d5f	-0.1914904197408118
11	0x3fd1a687f213a583	0.27578924789721543
12	0xbfcc53ad0beacfe7	-0.2213035877408622
13	0xbfe72151ddead7aa	-0.7228173574755961
14	0x3ff0bac7409edb50	1.045600178169213
15	0x3fc7caa70a6a8869	0.18587196358299998
16	0xbfebc8d8621feb4b	-0.8682672420976386
17	0x3fed3f00209571e4	0.9139404903794994
18	0xbff1954705be30c3	-1.098944685395552
19	0x3fe814af4a8101cf	0.7525249915270765
20	0x3f99eb0d6c7cffed	0.025310716387366417
21	0xbfa0fed8da92fbbf	-0.033194328957953705
22	0xbff69b689e996c80	-1.412941569832384
23	0xbff03f1371ea22ce	-1.015399403551942
24	0x3fe11f0832407320	0.5350380879859564
25	0xbfed66feaa0d5cd4	-0.9188226052600847
26	0x3fcc0ae848765f39	0.21908286607935581
27	0xbff01859bbb58234	-1.0059449512847438
28	0xbff85ee6caf85b94	-1.5231693199654943
29	0x3fecf2c9d8ca54a6	0.9046372636973004
30	0xbfda405506e9b8bb	-0.4101765220174333
31	0x3fe9ddbed39346dc	0.8083185322122648
32	0x4002326627c08156	2.2746089082358294
33	0x3ff95f886e8c4bfe	1.5858234709055519
34	0x3fe03255f2faf0b3	0.5061444993694039
35	0x3fe84bdd7ecffa1d	0.7592608906559836
36	0x400318662d42fa2a	2.386913636785967
37	0xbfeb50be4cc12498	-0.8536063670263898
38	0x3fbb70c3b8779533	0.10718940023032957
39	0x3fde61a42ebba601	0.4747095543267222
40	0xbfe74b59eb7304e6	-0.7279481505030645
41	0x3fbb4ece5bfb99b7	0.10667123552011658
42	0xbfec74f50a8358ce	-0.8892770009358857
43	0x3fea0fec311d1d20	0.8144436797382788
44	0x3ff3195154dc2b85	1.1936810793729091
45	0xbfbc3c7ec0dc36f6	-0.11029808243275938
46	0xbff3ed79a5ac6f04	-1.2454773398994243
47	0x3fe93fc8c9751153	0.789036172362595
48	0x3fdd19c33128d544	0.4546974163125308
49	0x3ff48bf42ba0c8b9	1.2841684059354022
50	0xbff87098668d23a9	-1.5274890905295513
51	0xbffb204a26148fb7	-1.695383213759653
52	0xbfd47f4be52082c4	-0.3202695596283258
53	0x3fdab72b9c737a5c	0.4174298312990794
54	0x3fd68c1e6a952b3e	0.3523021736952393
55	0xbfec6bc253826a2a	-0.8881541853946306
56	0xbfcf7e3c70be2fd6	-0.2460399199011351
57	0xbfdd7c3f4c1ad2dc	-0.460708450623583
58	0x3ff079a76e52e38e	1.0297006902239647
59	0xbfe93be0d0239044	-0.7885593476498873
60	0xc001e1f06a8fe27c	-2.2353218388710143
61	0x3fc4d55c7110ed4b	0.16276126404577904
62	0xbfe5101c73281548	-0.658216690936265
63	0xbfe8a3fe222f9d8c	-0.7700186412520664
64	0xbfc7b6bf18ca5ff7	-0.18526447973704283
65	0x4007d27fe65b9a48	2.977783012075893
66	0x3fe373c5af496d33	0.6078823493548157
67	0xbfeb1040342ef012	-0.84573373977719
68	0xbfdb064799114007	-0.42225828121172565
69	0x3fcc2d2e7adfd450	0.2201288318607646
70	0xbffafd24c87716cb	-1.6868026571914239
71	0x3fe2ab5d8fcc9819	0.5834186371400875
72	0xc007c5d380ef4a16	-2.971594817450078
73	0x3fca249a01775b4d	0.20424199172586058
74	0xbfd55fb399aa5e29	-0.3339661598815576
75	0x4002bffc4e16c967	2.3437429524139364
76	0x400034c012ac509c	2.025756975062974
77	0xbfe593c489d027f9	-0.6742880527174285
78	0x3ff0f1cc41e5fe51	1.059032685676261
79	0xbfce0d551473081e	-0.23478187082770402
80	0xbfe09efbec30025b	-0.5194072354352771
81	0xbffdb17c25d09782	-1.855831287111386
82	0xbffca27bc1f72fd1	-1.7896688057689867
83	0x3ff79671c669a2f6	1.4742295980924474
84	0x3fd0ec990d47692d	0.26444078728458714
85	0x3ff086e7dd139150	1.0329359660909923
86	0xbf9f6e7f04a97f58	-0.030694946918060267
87	0x3fd3673dd9b55a09	0.3031763673838275
88	0x3fef49498dcb2526	0.9776962060360901
89	0xbfefab1868024a82	-0.989635661261062
90	0xbff0473b723d31fd	-1.0173906767332703
91	0xbfe8d0badfe52be2	-0.7754797337487356
92	0xbff9bca982cb5326	-1.6085600957059767
93	0x3fde0a00da15f91e	0.469360554670759
94	0xbffd57ad7ce5d975	-1.8339056853124849
95	0x3fda45822c9fef66	0.4104924617565672
96	0xbfe6917f0b351b5a	-0.7052607745070916
97	0x3ff395182dd6fbdb	1.2239000120750834
98	0x3ff0acbf1c4392f1	1.042174444585893
99	0xbfb95b7823b800bb	-0.0990519606784827
100	0xbff8c1221360b503	-1.5471516377395467
101	0xbfe60140b7e0e272	-0.6876529303909378
102	0xbfb730d9b9d6b641	-0.0905891493518647
103	0xbfe4125b92b35729	-0.6272409310574619
104	0x3fa87e04afbe35d6	0.047836443379406
105	0xc005ebb334b62975	-2.7400879018870747
106	0x3fd05b2374a51d1f	0.25556265250311755
107	0xbfd2058a0f32d53e	-0.28158809169993393
108	0xbff3d81023eab103	-1.240249767589433
109	0x3ff6379eeef8cc6b	1.388579305156578
110	0xbfceb69323aeb6f5	-0.23994673960026316
111	0xbfd47183442ba005	-0.3194282689787545
112	0xbff3b08e07281254	-1.2306041984130802
113	0xbfd1f31a5f4142f3	-0.28046283056487126
114	0x3fe1e7a94687b132	0.5595289590396872
115	0xbff4b8133dc923ce	-1.2949402249816901
116	0xbfc592c45640687a	-0.16854147159103033
117	0x3fcd44efc560e8e3	0.22866627824425398
118	0x3ff7ffd91b1b35b1	1.499962907680452
119	0x3fef2a4b2e4d1b79	0.9739128021545717
120	0xbff8846c8ac11111	-1.5323300762257228
121	0xbfd8f59b142c0022	-0.3899905869475352
122	0xbffe86f7815e870f	-1.907950883244158
123	0x3f9fe7c378afd4be	0.03115754531969083
124	0xbfff8900223a0252	-1.9709473931290131
125	0x3fd5bfbf1bc453e5	0.33982827865230397
126	0xbfebb4fa9b3129a3	-0.8658421546072542
127	0x3ff1657e8409e203	1.087278857971001
128	0xbfcb20391b21413b	-0.2119208700628493
129	0x3fe987e668d88d22	0.7978393600246003
130	0xbff305be7fcfde6b	-1.1889023773818745
131	0xbff5fa73234b163b	-1.3736449602742045
132	0xbfe103fa183bd196	-0.5317354653657727
133	0x3ff73974b3c86372	1.4515273115887024
134	0x3fe660ef49407c69	0.6993328505231037
135	0xbf75702f38e86fc4	-0.005233940565201271
136	0x3fff0d64a4d616fd	1.9407698096196662
137	0x3fe1e32f42d5eed2	0.558982496775082
138	0xbfcc3a0a78815bfd	-0.22052126773880323
139	0xc003af487e1354b0	-2.4605874871873183
140	0x3ff4d08f86c4c653	1.300918127479595
141	0xbfd94d1c7385e4a8	-0.3953314903406615
142	0xbfe419a5ba1fce54	-0.6281307826270202
143	0xbfe7995fc5ae9ea9	-0.7374724255541497
144	0xbfef86c2a0a53e73	-0.9852002275092232
145	0xbfdb4849d8f648b1	-0.4262871378679263
146	0x3fe20670f9a22911	0.5632862926152332
147	0x3fe0ce5b46dd277e	0.525190008550666
148	0x3fe1d43f45a3ba38	0.5571590767047558
149	0x3facd302ed47cdf7	0.05629738947382273
150	0xbfc48e44734b8af7	-0.1605916560138991
151	0x3fd70b60df74f4b0	0.36006948301276065
152	0x3fe2e9dcc99b37c8	0.5910476625083385
153	0xbffba9e4fec7a1e5	-1.7289781524979102
154	0xbfb1e5c6f53689c6	-0.0699123715080879
155	0xbfdde06b36ae8c4a	-0.46682243671438484
156	0x3fcef38a9609e88c	0.24180729223354935
157	0x3ff487bdaa4e2d87	1.2831398632577888
158	0x3fd52ed8daaa9966	0.3309843192495435
159	0x3fe6787d24e2d102	0.7022081108503075
160	0xbfabc9e7af577511	-0.0542747880497051
161	0xbfd029c291925d8a	-0.2525488301848432
162	0xbfffb6333cc35fca	-1.981982457500623
163	0xbfe881334641acb7	-0.7657715198705749
164	0x4001eea449029436	2.241524286643222
165	0x3ff179fc103c61e0	1.0922814020360576
166	0x3fe90fefa5e2a0b4	0.783195327753694
167	0xbfb03d562023bfbf	-0.06343591961535731
168	0x3fc0bc55e11f1438	0.1307475423074338
169	0x3fdbc07bdcc1cf43	0.4336232810812712
170	0xbfec4eb8690f580c	-0.8846094181014919
171	0x3fb99955361db9be	0.0999959237212584
172	0xbfd91148d7647433	-0.391679964393748
173	0xbff43ae2e353c9a2	-1.264376533505676
174	0xbfc8d36362bb4887	-0.19395105667951304
175	0xbff2bffb69833910	-1.1718706246934438
176	0x3ff7c5c2a1f7d1af	1.485781319320363
177	0x3fb83318565a4817	0.0945296488592081
178	0x3fe5610f41b93f5a	0.6680980952896605
179	0x3ff378d699193f2d	1.2170015316405156
180	0xbfd801c72ca5a0fb	-0.37510852203423867
181	0xbffcd0ff54277241	-1.801024750449088
182	0xbfba405dbb5dc983	-0.1025446493565934
183	0xbfd4ee55fc6c1797	-0.3270468678532494
184	0xbfe8e15474647658	-0.7775060914315857
185	0xbfe8946c20198f16	-0.7681179644536964
186	0xbffdeaba83ad2298	-1.8698067802053284
187	0x3feb30047d00e592	0.8496115151858012
188	0x3fe11fff7b122765	0.535156002400282
189	0xbfe993d1f9bed237	-0.7992944600906132
190	0x3fec7b29830f5c30	0.8900344428792604
191	0xbfc3451d44b2aeb8	-0.15054670195001107
192	0xbfdba30b527d3de3	-0.43182642989719805
193	0xbff05bc91209a828	-1.0224085526083488
194	0xbfdbdcdabbb1b6f0	-0.43535488442908754
195	0x3ff9a0736538b32e	1.6016725496257993
196	0xbff3fdaadb5cf3e1	-1.2494305199500035
197	0x3fb97fbad38e522f	0.09960525193157176
198	0x3ff1cc8283f35abe	1.1124291567154354
199	0xbfcf8bc0c2abf91b	-0.24645242219407568
200	0x3ff1476e43fa2e7a	1.0799391417848754
201	0xc00012f79e0628fd	-2.009261354983322
202	0xbfe853dcdb641ab6	-0.7602371487599473
203	0xc00589eeb3fb8fc6	-2.692349821199943
204	0xbff20e3fce4902ba	-1.1284788187041799
205	0xbfed1e61ceda3e46	-0.9099587478721751
206	0x3fea5621511f063a	0.8230139336012094
207	0xbfe250e1761be63c	-0.5723731333557178
208	0x3ff9107d4515c12e	1.5665257166511526
209	0xbfe56315e5115b7f	-0.6683454011898532
210	0x3fdf700859601710	0.49121292808591566
211	0x3fd8bae70b7b811d	0.386407624448127
212	0xbff1d9bb0c8439b1	-1.1156568993497837
213	0xbfea3c81b360585b	-0.8198860648578931
214	0xbfcfb71e2a345842	-0.24777581272855015
215	0x3fe1cf7494e2a065	0.5565741451182588
216	0x3faa584268762eba	0.05145461583296425
217	0x3ffad8e729977af0	1.6779548287083195
218	0x3ff988e1b6b3e12d	1.5959183823416183
219	0xbfd7b6e22b5d5b23	-0.3705373214228748
220	0xc00105570a376e9e	-2.127607421700147
221	0x3ff56d663ac6cf2e	1.3392088218651668
222	0xbff14fb1149af1ef	-1.0819559864895572
223	0x3fc3f5b4d882b8a7	0.15593586513336286
224	0xbff3235884cc784a	-1.1961293399285915
225	0xbffd0529b3f330f4	-1.8137604741378341
226	0xbfed1845cf00db75	-0.9092129748376993
227	0x3ffb76e72ae8d194	1.7165290523672398
228	0x3fefaeddbda24e0d	0.9900959686078196
229	0xbfc709ac40b05469	-0.17998269232399203
230	0xbff198dbd77382c1	-1.0998190322936099
231	0xbfb78f5f47efd9f5	-0.09203143602631043
232	0xbf7cb7a804f5d69f	-0.007011085820854439
233	0x3fda956009ec492f	0.4153671357063499
234	0xc002d088e363a4f8	-2.351823593595892
235	0x3fcefca626352d9c	0.24208523622142486
236	0xbfecd8e14ac51f27	-0.9014746151305858
237	0x3ff67f639e49fa9c	1.4061008628047267
238	0x400170bee9c88ef1	2.18005163806253
239	0x3fd98bebb6a9c51a	0.39916508520316685
240	0x3fe70348608093a5	0.7191507229623438
241	0x3fe0d876bb8a9d5d	0.5264238036078656
242	0xbfcd272f7b2ce6dd	-0.22775834574149814
243	0xbfd421f3f56d5704	-0.3145723244427787
244	0xbff8ccc783e15372	-1.5499949599809182
245	0xbff2a24868645cfc	-1.1646198346914494
246	0xbfd463f085716c32	-0.31859982520626595
247	0x3fe9f6fa78c90a2b	0.8113987311447252
248	0xbfd37e9b619b9bcf	-0.30460247547165137
249	0x3fd698ede3f5c6f8	0.35308406125760383
250	0xbfd8a9c113e1e2ad	-0.385360974708912
251	0xbfed6cb8ac5a2ac6	-0.9195216528181269
252	0xbffcf04daaad6e09	-1.8086678187454501
253	0xbfd5e272c2b52874	-0.3419463063661461
254	0xc004bae8d3359bf3	-2.591264391015551
255	0xbfd09c1c03dc6bbe	-0.259528163691069
