balderdash_lstm/lstm_model/models/lstm_model_15.npz (npz, 903256 bytes, 19 tensors)

forget_gate_weights f8 [108, 81]
00000000: 58e2 2e46 2f34 e43f 8134 d997 779e e6bf
00000010: cab0 f846 4d26 e9bf 4e48 c67d 0d24 e73f
00000020: 5354 d69b 3cc7 04c0 3240 7217 e02b e4bf
00000030: 7c5c 10c4 0f34 e3bf e973 5427 2ec4 fcbf
00000040: 9a9c 3885 c690 d43f faa9 fa21 6cd1 cabf
00000050: 0144 6498 32ac f83f 701b 801c 8cf2 db3f
00000060: a652 5d2c 0207 e1bf 3df5 e607 3578 e7bf
00000070: 70eb 29fa 3a88 b23f 46bd 2429 1db3 d9bf
00000080: ebd0 7807 3fc3 e9bf c5ec 1b43 5d92 e03f
00000090: d0f1 cace 83a1 e53f 4883 f4d8 2670 eebf
000000a0: c9e7 fd77 9681 a53f 7ac1 d836 e9b2 ee3f
000000b0: dde8 dfc8 7aec fb3f 18e3 9a6a 4e27 d6bf
000000c0: 89d5 4233 0569 cebf c933 f649 379e e5bf
000000d0: 7da8 699a 1354 f0bf 336f bfcf a751 b0bf
000000e0: acb9 2ed5 8149 03c0 e2d5 2aed bbe7 d03f
000000f0: 6b0b 72e6 11d6 eb3f b091 208b c40c fe3f
00000100: d554 8413 7303 fdbf 7331 8016 26d6 fdbf
00000110: 0d9c eee5 ec9f c13f 5b0f 8d63 98a0 e5bf
00000120: cc61 af1f 4724 0340 ae8e 8e93 1c9c f0bf
00000130: 5ba0 abf1 3a81 ea3f a605 9e92 1dca edbf
00000140: 40fb 988b b372 e6bf 3699 1195 b1b2 d33f
00000150: f596 59a7 7055 d6bf eaf0 c85c 6a84 0040
00000160: 3039 d2a6 7a0c fe3f 00b4 e314 1080 a13f
00000170: 4558 0a46 e8d5 ba3f 096b dce8 ebce dfbf
00000180: 52c5 3ee3 49f1 d4bf 41cf 2921 89e0 ebbf
00000190: 64f7 9716 9362 0140 8dac e76f 7a3d f73f
000001a0: 0153 dd54 157d d2bf 9137 9a1f 41e8 fc3f
000001b0: c0bb 2d0c 8663 e33f a330 2da7 7ed6 e1bf
000001c0: aa50 d032 19c4 e8bf b7d1 679e f4e2 e3bf
000001d0: bbef 9bab 99c0 c6bf fcd4 d51f 4d28 f03f
000001e0: ef34 5967 03e0 e33f 37c2 7cc9 e816 acbf
000001f0: 4f86 e913 864a e8bf 482b 2c59 704c ddbf
00000200: d33a 63af f571 d33f 8738 ba59 edec b1bf
00000210: 0c17 12c3 5dae d13f 161d 7b01 6d46 e13f
00000220: 4028 598c 66a2 f2bf 43b5 be02 1d9c cebf
00000230: 2c4c 727d 2d12 ce3f 818f cf90 0aa5 e93f
00000240: a7ec 6e19 a193 f33f 9f3a d524 6596 edbf
00000250: 2673 4d69 1fb5 e0bf 9e19 37ab 3444 f83f
00000260: c264 b75f aae0 e53f 465d bfb8 f2bf e1bf
00000270: 89cc 6fa4 4a73 e83f 187a 1c50 dedb ca3f
00000280: e402 7b48 5a4b f43f 414f 270f 51a3 f2bf
00000290: 862c bf17 2c12 dabf dc33 e8b7 b9d0 ddbf
000002a0: 9482 6f35 40cc ea3f e208 a6e9 8b7b e1bf
000002b0: 8170 7633 0553 f63f 20fb b949 59a4 f0bf
000002c0: 65bb 5c0b d369 f3bf 4e20 1a94 091b e1bf
000002d0: 360d 3ad4 c81a b53f b1ea f71d b855 f8bf
000002e0: bb52 3f9b e2ef ca3f 71b9 fed3 d3c5 cabf
000002f0: 154a e9b1 0195 c43f 7289 059b 51ea e3bf
00000300: 796e f836 defa efbf 6612 2fef 8654 843f
00000310: 27a1 37cb 13f2 ecbf f9eb 2e7c ef5d febf
00000320: d4e0 6326 835d e0bf 3489 0ce0 eadd bb3f
00000330: 036d 9dc6 6e51 c3bf 08ca fbe1 d135 02c0
00000340: 958a 8730 95b2 08c0 c855 45ae 0ca6 f1bf
00000350: ca73 2796 4891 cebf 2da8 63bf 55c5 c13f
00000360: 980d 4d9a e351 eabf a87a c36e 4a05 e3bf
00000370: b02e 1545 3f53 c33f 2d23 43d6 9675 fabf
00000380: 9c86 f6cf 5f39 e83f 3258 ad0d bb14 d63f
00000390: 364d c043 b6d1 d4bf 28bf 54bf 9dc1 e2bf
000003a0: 2918 3f01 3a89 e1bf c544 3d4d 0b5f fcbf
000003b0: 4712 61a3 5157 e73f 5713 c354 0e48 f5bf
000003c0: a3e0 fd21 0fb7 cf3f 3ddc bd9a 5f58 f3bf
000003d0: 9215 59ac 5508 f1bf d528 0f4c 89fc fcbf
000003e0: d72b 1734 a611 da3f 18be 79a8 072d b93f
000003f0: c8d0 6c00 e3fd f1bf 9860 3f3f 57f4 bcbf
00000400: 8d23 ebae 5652 e1bf 7ee3 f760 6255 f9bf
00000410: 2c7c fe57 e6c3 903f fb2e e9bd 3709 f23f
00000420: 50d2 7601 30a0 c73f f495 0ac6 e9bb fcbf
00000430: e451 ccaa fa71 babf 4ae8 9ebe d12b f3bf
00000440: cde7 eef4 633e c4bf 0266 e64c 58df f3bf
00000450: fc7c c10c 3b0f f2bf 6c19 7cd0 cc43 b5bf
00000460: 7d1e 826c a9e9 d73f 3074 a5a8 f871 ebbf
00000470: f1c8 2777 9c2d f8bf 0a7e 3ea4 70d8 d53f
00000480: 0dc0 6270 6d20 f8bf cbfd 29ff 16d4 e2bf
00000490: 7b80 2fd4 0a30 a0bf f425 ad32 129b 05c0
000004a0: fe09 70aa d714 f83f a246 2e4a c699 edbf
000004b0: f18c 3aa3 6f12 fabf 42ff 8bfe b591 d43f
000004c0: 3593 7108 7fae e23f 7e05 29d5 f0f6 f63f
000004d0: 63fd 2cf6 91b5 eabf a50c 4120 6db0 f4bf
000004e0: 6fd1 97c9 3af2 cf3f a6cf 2270 ed36 ecbf
000004f0: 005c e6a0 8bd1 cebf 9f0d e937 b903 fbbf
00000500: b4b2 18c3 eccb f9bf 8e61 f627 9dd2 fdbf
00000510: cb4f 1796 4f66 f0bf 1fe0 1791 321b dbbf
00000520: 2128 7a8b 675f e4bf 0f1b f7cf b0a4 de3f
00000530: 0937 1def ddb4 f6bf bd01 adcc 15cb f33f
00000540: f63c 5e58 bedc ac3f ab16 ed7e 69f4 fdbf
00000550: 20b2 5127 30c6 df3f 226f 9393 c2e5 c1bf
00000560: 816c 8b17 c573 bebf 817d 862d 9ed8 e63f
00000570: 9150 21aa 5fd3 b43f 6e67 7679 0bfc cebf
00000580: bb0f 49b5 ace5 ccbf 73fc 13bc e26a bdbf
00000590: 03bf 31b7 918a e13f e515 9ad8 acd9 db3f
000005a0: e589 45a8 82c7 e0bf 09b7 59c9 0a53 f2bf
000005b0: a2b3 67c4 3f52 f43f 1048 8b54 bc44 cabf
000005c0: b550 bfc2 27cf dbbf c94c 2e3b 368f 06c0
000005d0: c4e8 b21f f075 efbf f1f0 4755 36a0 dfbf
000005e0: e70f 6f11 6534 d03f 4e4c 1b57 f58f e6bf
000005f0: 7926 7f9a 3ac2 ecbf 7ff2 0398 727b e03f
00000600: b33b b7fb e99b bcbf 1c1e e774 ac3f fa3f
00000610: 73a3 a922 d372 dfbf 5ad2 e348 3493 eabf
00000620: 439e 433b 44d2 c53f 82ff 0c5d 878e e03f
00000630: 51a4 dba2 8be9 cabf 96fa db58 78a2 dbbf
00000640: 91bb e2db c66c e13f 6feb 1945 4f15 dcbf
00000650: 2f59 df0f 61a6 cdbf 00ad 3ef7 3ae4 d5bf
00000660: 0d4e 5d17 0076 fcbf 23c7 8bd1 1cbe db3f
00000670: 0d7c ad51 db23 e13f 3580 b0c4 8227 dc3f
00000680: a84f 3eea c9b6 f2bf af0f 4688 a877 c9bf
00000690: 2b11 c36f 8121 b7bf c6f9 563f 4541 ebbf
000006a0: c4f3 5d73 adb2 d93f 6f63 0710 6a74 f43f
000006b0: 7e7b 57dd 4d87 debf a165 8810 65ef f13f
000006c0: 4f26 d271 45fe b5bf de0a f731 3416 d8bf
000006d0: 0936 1a89 cf24 f3bf 1b82 151f edff d6bf
000006e0: 646a 2069 1055 6e3f 40d7 28b9 86d8 c73f
000006f0: 63b3 0356 7d0d f0bf c1dc d2aa c28c bc3f
00000700: d201 1baa de51 f0bf 6b1a 09a6 a070 01c0
00000710: e5f2 cae2 392b f2bf ea7c 5b38 2868 e53f
00000720: ed31 d60c 5256 d03f e06b 1f4d 334a da3f
00000730: 6f1a 207a c9c4 f0bf da10 3d76 f5cb 9abf
00000740: d6ba 191e 764c bdbf 478c 8333 9297 f13f
00000750: 1256 dea9 354f f73f 39d4 b7c8 5774 d73f
00000760: 2f68 d4e4 3f26 eabf 9474 af53 efc6 f33f
00000770: 4a05 c1b7 5093 f8bf 5cca 2e85 9419 d53f
00000780: c196 77c1 e75f c8bf f102 36e6 426b d6bf
00000790: 2848 3ec3 ab2e e6bf d51e 7167 260a f93f
000007a0: d2b4 b156 f007 e2bf a9fb 71d2 1c3e fcbf
000007b0: ce3e 373e 00bc e83f ef01 fc7b 8fab f0bf
000007c0: 7074 3f7f bba5 ef3f d110 1931 44d5 d63f
000007d0: 5ae9 cce1 e8e4 f3bf 7061 5e1b 2f37 f43f
000007e0: 952e 05cf f2ad edbf 4ab6 175b a4d1 ea3f
000007f0: 0943 67c9 32fd fc3f 3bf3 b0bf 5698 e83f
0.6313701983227231 -0.7068441358366188 -0.7859255205308042 0.7231509644063949 -2.5972835707457675 -0.6303558786330596 -0.6001051740048662 -1.797895578033826
0.3213363934505168 -0.20951606425417407 1.5420404389190028 0.4366789129566575 -0.532105528497216 -0.7334237245883412 0.07239121062768361 -0.4015572454254265
-0.8050837655960356 0.5178667364811181 0.6759661711617415 -0.9511903989224288 0.042004301211775515 0.9593397208428052 1.745234284082975 -0.34614906702658876
-0.23757996561986897 -0.6755634731831545 -1.0205265075442462 -0.06374596425979177 -2.4108921675571846 0.26414392624732674 0.8698815823448575 1.8781171259553098
-1.8133421671275773 -1.864782417195866 0.13769303538467206 -0.6758539146762631 2.3927137828252167 -1.0381131900730156 0.8282751770139031 -0.9309223044985415
-0.7015016294970806 0.3077815967320875 -0.3489648470189047 2.064655995256648 1.878046657223944 0.03418016676901203 0.10482646665545399 -0.4970044874223026
-0.32722708885110763 -0.8711591384621685 2.1731321110846 1.4525093432701255 -0.2888844803576803 1.8067027315587192 0.6058988798011953 -0.557433439747474
-0.7739377968269043 -0.6214545339449192 -0.17775269393302814 1.0098391765180272 0.6210953730129897 -0.0548622842746948 -0.7590971363935725 -0.45779045780425465
0.3038305485505763 -0.07002147141085589 0.27626747178906963 0.5398468998836587 -1.1646485788683236 -0.23913920053511548 0.23492973923984672 0.8013966396651854
1.2235423081863617 -0.924608776034649 -0.5221097046556664 1.5166517913909057 0.6836749906025477 -0.5546811683988515 0.764073678174456 0.2098348513763575
1.268396647574428 -1.1648722259460131 -0.40735914534588635 -0.465864591213913 0.8374329608596605 -0.5463313640068714 1.3952686319599084 -1.040124214166731
-1.2133360332333833 -0.534550465833499 0.08243994885747416 -1.5209275408403011 0.21044571476399718 -0.20916221476859279 0.16079732119631332 -0.6223533656850988
-0.9993735383645365 0.009926847624123169 -0.904550454052729 -1.8979334689054197 -0.5114150762374501 0.1088549420351555 -0.15092262933726638 -2.276279225822922
-3.08719861901893 -1.103039437051267 -0.23880870181792907 0.1388346848028176 -0.8224962247554002 -0.5943958438254713 0.15097800133877604 -1.6537083024615626
0.7570036947037866 0.3450153001371091 -0.32529980293584815 -0.5861347901281748 -0.5480012916893929 -1.7732041375314094 0.7294090453147611 -1.3300917922035376
0.2477740207648412 -1.2090755505175956 -1.0645348293631725 -1.81165437422401 0.40732722365345125 0.09834335196659827 -1.124484063778299 -0.11310334486131735
-0.5413010994317219 -1.583345774443131 0.01637229835580116 1.1272504251855355 0.18457603522769483 -1.7958772407522448 -0.10330168409229362 -1.1981980749246923
-0.15815400561933615 -1.2420275691896454 -1.1287184236787757 -0.08306579675636322 0.37363658520232673 -0.8576625150559547 -1.5111355452068518 0.3413354495951074
-1.5079168691700062 -0.588389871947521 -0.03161653366237346 -2.700718303593698 1.5050884874077606 -0.9250213097422668 -1.6295009971734624 0.3213934884843078
0.5838008084216201 1.4352882696697118 -0.83466432648849 -1.293072820656371 0.2495797619191182 -0.8817050161510351 -0.2407698188441998 -1.688409059905872
-1.6122863408046841 -1.863919406989314 -1.0249782431537706 -0.42353500527633686 -0.636646053711278 0.4788019209776601 -1.419156965293441 1.2370813365124456
0.05637163952553152 -1.8721709211398927 0.4964714416480849 -0.13982422071318817 -0.1189540083391183 0.7139426125685732 0.08135030654495014 -0.24206679755007648
-0.22575911380601874 -0.11491219608068252 0.5481651857389526 0.43516083862809146 -0.5243542944484118 -1.1452739587070389 1.2700803443978903 -0.20522264602783524
-0.4345187570409153 -2.8199276565079328 -0.9831467265242044 -0.4941535790274108 0.25319792463801466 -0.7050730420400073 -0.8987095849526688 0.5150692910243179
-0.11175405879406135 1.6405453268543004 -0.49138334641479914 -0.8304692672377982 0.1704793252349522 0.5173985307119298 -0.21025224163102732 -0.43179138829865715
0.5445284170763093 -0.43880063770455185 -0.23163998866102406 -0.342055074167277 -1.7788086807894417 0.4334785505626419 0.53562704041167 0.43991154869036403
-1.1696261549122742 -0.1989641824148953 -0.09035500505985243 -0.8517175900558918 0.4015306116705768 1.2784214616896994 -0.4770083104648889 1.1209459920704392
-0.08591112164335722 -0.37635521773715463 -1.1964869838296883 -0.35937049899624335 0.0037026711006665092 0.18629535714142698 -1.0032933578433691 0.11152283354282401
-1.019987740015598 -2.179993912842567 -1.1355532511799364 0.6689644909601189 0.2552685857160942 0.41077883273618276 -1.048043705990178 -0.026168666211803117
-0.11444795832515395 1.0995046627292753 1.4568382869232477 0.36647600747466275 -0.8171691388445249 1.2360680836639277 -1.5359656503572574 0.3296862888920822
-0.1904267973579206 -0.3502967117456555 -0.693197137198017 1.5649780312250432 -0.5634690945859353 -1.7651642056004937 0.7729493346359619 -1.0418848841801454
0.9889810071287126 0.3567667464706235 -1.2433861561135786 1.2634726590241279 -0.9274839442600348 0.8380910662796819 1.811816012126828 0.7685960525483105

input_gate_weights f8 [108, 81]
00000000: 35ee 18af e792 ff3f e152 9c4d d0a9 ddbf
00000010: 8907 ba2b b49c 00c0 90f9 5681 12a8 ea3f
00000020: c5f3 58fb 2b8e f8bf 7f82 02c6 fc49 f73f
00000030: daaf 2987 7eea 893f d69c 54c0 6fcc f83f
00000040: b6b8 f235 69eb f83f 294b 7a73 88ea d9bf
00000050: 4963 add8 a2cc ef3f 670b ccd6 3755 e6bf
00000060: ba39 17b6 79ea 953f 3eb6 4e08 34f0 f33f
00000070: 2d17 768b 13e7 b03f 6adc a1ff 2677 ee3f
00000080: 90c5 c41c 98ac b13f b376 6ea8 dfa0 fd3f
00000090: 56ef 7a74 2172 f93f 849a a00c 816c db3f
000000a0: 8139 f3ad eead bfbf 95fc d1e5 2e39 03c0
000000b0: 4eac 08b3 452c f23f 72c9 0401 32e8 c1bf
000000c0: 701b 55f3 e706 e43f 41ca af7c ce03 e8bf
000000d0: 26ae 2ec1 e783 e83f 5b89 43eb fed3 d63f
000000e0: 9845 689a a055 fe3f e3b0 158e 1d0f b53f
000000f0: 76e1 acd9 f680 0640 f713 51db ef9e f8bf
00000100: f55e bc26 e77e 993f 7a99 c98a b78f ff3f
00000110: f2ed 8eb2 44b1 f63f ea45 5abe e78a ce3f
00000120: 1b66 3c8d 0215 f73f 688e 28a8 0391 f1bf
00000130: 6e45 8119 ada9 f03f 63f6 7737 9f4c e03f
00000140: 4b9a 2a91 1534 d83f 4f8c 15d7 a122 e53f
00000150: ae99 a780 dfc4 e9bf ae78 e7da b327 f63f
00000160: b735 c765 7237 b7bf 5891 9f65 bd23 a3bf
00000170: 28f8 5e91 0345 d33f 6cfa 985a f452 d43f
00000180: 0ffc 030b 1fa6 ec3f 1293 ac3c 6dd2 f1bf
00000190: 0e44 f4ea 49ba d3bf 2da4 b671 56d8 e23f
000001a0: 2ab0 8479 981c d53f 7cd5 a5a2 8ab1 ea3f
000001b0: 66ea ece2 f305 f53f 44d0 9a00 4541 e6bf
000001c0: 144c e082 f5eb f0bf 64db c537 d513 d33f
000001d0: 6156 e7f5 3698 da3f bfe1 1585 10eb f33f
000001e0: 269e e854 0c6d 0340 23be 38a0 38dd d63f
000001f0: 00f8 db24 0d06 e33f 4043 2df3 e23c e1bf
00000200: d311 3907 40c7 ecbf 0d05 f943 9763 fd3f
00000210: 16d7 a298 663e f03f df81 d079 9153 f33f
00000220: 5163 5e19 c5d8 febf 7dca 092a 7be7 f03f
00000230: 63eb 6c2c 501b d13f d4dc 00c6 502e a6bf
00000240: 4b4f da42 ca92 f83f 0f6b 61d8 6a34 f63f
00000250: 972a 6739 3c8f d03f 6fa3 f9ab 34b2 c93f
00000260: 7fa3 8bf1 6e04 0240 e3fb c01b 2f04 c6bf
00000270: 3763 d132 efcc f43f 9bc3 fe6a 548b fd3f
00000280: 2dc4 953f 821c f63f ce62 cd28 1cef e1bf
00000290: dd1d f52c 6562 e9bf 7983 b835 9e14 ccbf
000002a0: 48a0 9f3e 25f5 d9bf 1891 ee74 4d15 dfbf
000002b0: 2e8a c9b7 bb80 933f 0927 c6d2 d6cd e7bf
000002c0: ad88 6031 8aed d3bf edde a2e1 9995 d2bf
000002d0: 4afd 4eae 2db0 d1bf 9c87 7609 e43c d3bf
000002e0: a04b 287c 0b19 fbbf e290 a77c 6e32 d5bf
000002f0: dcab 7c81 e164 d7bf a60a 0bac e477 bfbf
00000300: 00ce 3e8c 4f5a d4bf 8615 2953 e802 d3bf
00000310: 53bf ca9d 459f c3bf 78da 707d c9e8 e0bf
00000320: 24d4 fe67 9c02 f4bf 69fc 2d6f d55a e63f
00000330: e156 c47f 3969 e83f 6ee9 4768 6b48 efbf
00000340: 3c06 185d 4f36 f33f 57f1 14fb 892d f3bf
00000350: d728 8718 84b8 96bf 9419 f672 04a5 b2bf
00000360: f396 5f17 dff9 e03f 4335 a6b4 969e f0bf
00000370: 7549 e41d 391d efbf 162d 4de4 a8f5 d2bf
00000380: 8b0e 0d92 707f c9bf 71eb 0f8c 8d5c e8bf
00000390: e891 eaf6 ee86 9c3f dae1 209d 9ef6 d2bf
000003a0: 761a 70ba 112e ab3f f57f aef4 2dd9 e43f
000003b0: 9aa5 b8a7 21c1 c3bf 2a15 b6f4 46a4 edbf
000003c0: fd67 1191 a7a8 e0bf 9214 8523 8965 ddbf
000003d0: d203 1b83 23b7 f2bf 6b79 a507 058f ea3f
000003e0: 0802 e98c 2209 fbbf 29dc aedc afa2 f9bf
000003f0: 6fc2 d72b 7240 f4bf 883b c447 8d9c d6bf
00000400: 4945 9258 7d27 e7bf 18e3 2443 9707 a23f
00000410: 342f cdf5 1e87 de3f 97bc 6647 d182 f4bf
00000420: a996 37a0 237b d3bf 5895 6ed4 09f4 e3bf
00000430: 2b80 a8db 4269 f5bf 5320 c182 146b dd3f
00000440: 16c9 9b14 f745 d73f 8a82 e91b f70c e6bf
00000450: c696 6a8a b294 e7bf 5896 de99 c01b f1bf
00000460: 37c8 cba6 014d f3bf 3373 1298 e838 993f
00000470: e4c7 77bf 0b95 febf 4de2 2d58 dd2e e5bf
00000480: d434 3eb8 2810 ddbf a2d8 e0b1 a8e7 dd3f
00000490: fc4d 2522 aff9 c43f 4b8f d801 bfab fdbf
000004a0: d219 4d98 76d2 dfbf 15c1 cc86 dedf c13f
000004b0: d610 357d f73f d9bf f4a6 41a6 faf7 f4bf
000004c0: dc7f c55d 41d7 f3bf 8f78 116c 28f8 e1bf
000004d0: 5805 cc73 bb7c d8bf 6eb2 6a3f a7dd e9bf
000004e0: 1379 f53c 479f 02c0 29ee c7ac 3c0b 9cbf
000004f0: 9048 bc29 f025 84bf 8820 3c33 a45d e5bf
00000500: 955b 7fc8 7f93 f9bf d5d2 0be5 5486 ce3f
00000510: e9ad dff2 96bb b33f ab48 1cf7 ff6c e5bf
00000520: 8777 043e 8497 f7bf d5ff 2cb9 37db f1bf
00000530: 7bd1 c43a e587 fcbf 333f 8945 88fe b4bf
00000540: dc49 4640 fac1 b23f d4db 94a2 2a6c b2bf
00000550: 1d96 7427 2f6f c5bf e945 c20e 186a dabf
00000560: 8710 904b 4721 e43f 4d7f bcc2 82ab fcbf
00000570: 2d1d 809f 3ca1 a3bf 8a94 f6d1 f43f e6bf
00000580: 6ac7 d250 9eb9 f2bf 68f3 0bec 562f e63f
00000590: 5284 fe96 d722 e33f 5d21 5342 7520 e43f
000005a0: 2908 4873 6890 db3f eeca 14a1 b78e e4bf
000005b0: fb75 de95 8d31 e03f 53d6 8285 83d5 c9bf
000005c0: efda 77ff 2680 e9bf 5f68 8678 b76b ecbf
000005d0: 99a4 609e f3c0 f1bf efcc 845c 461a e8bf
000005e0: 96b4 c72f 5ee8 f63f ddc4 fcb9 73d7 d8bf
000005f0: 0405 97f0 0a00 edbf 2f62 6979 2c1c debf
00000600: 9e6d fc9e 50c0 e93f b940 1341 dcaf f0bf
00000610: c9d4 bb11 2c98 f5bf 8cf2 5e3a 252f c43f
00000620: 51f8 07b8 00b8 ecbf 0a9c a51f 7b1a d63f
00000630: 513f 9aec 6148 e23f 4e5d 3d69 0c1b f5bf
00000640: 6533 a203 20aa a6bf 40ba e0fb 61b2 dcbf
00000650: 087d a7dd 0232 a2bf 6739 c0a2 1243 f2bf
00000660: 169c 4597 060a e5bf 58c9 ed88 d656 f1bf
00000670: c79b ef77 ef98 f5bf 2e40 7e95 0a3f fbbf
00000680: 7a5e b382 4269 d2bf a3a2 fe5d c811 f3bf
00000690: cfad 3d7c f639 e13f 041f 8d7a b6e3 d7bf
000006a0: 0f98 83ce f0b5 f2bf d3c5 456c 240d f1bf
000006b0: c81e 2944 9c17 e0bf 502d dd12 58a3 01c0
000006c0: bdfe c12f fc6e f03f ac93 07d4 4507 debf
000006d0: 286b 8403 5be4 f1bf d870 ac1b 59ac d0bf
000006e0: 598c c0d7 2a00 f6bf 699f 274f 6523 e4bf
000006f0: b60e cfe4 8575 e73f 9ae4 e19a bd53 cbbf
00000700: a851 359d 62dd f4bf 5ba2 d974 33ef febf
00000710: efdf 9d9b 270b e3bf e421 c50d 7652 b1bf
00000720: 0b5c fe94 a802 d13f a691 174c a4d4 a33f
00000730: a146 f238 aafd dcbf 5cf7 84e7 93f1 b43f
00000740: 1a64 baec 72ba febf 0616 9d0c 51c0 f1bf
00000750: 0b79 4718 ad3e e2bf 7812 9bf1 0698 e53f
00000760: 6ef8 d896 6028 df3f e925 dcbf c9aa 01c0
00000770: 28a1 ce1b f8d9 d53f 9ff2 a4f1 b85c e0bf
00000780: 5529 af08 5a87 e0bf 75f3 ff2a b36b d5bf
00000790: 5104 ed22 cb88 e53f 642d a019 835a b5bf
000007a0: eb79 d7ad 7063 e4bf 7b6e f752 e433 bcbf
000007b0: e61a 9053 623b e43f a79a 0227 4554 d5bf
000007c0: 70d9 1723 b623 f93f 093b eb93 0dc4 e13f
000007d0: 4f0f b3e1 1151 d6bf 5225 aa7d 1994 e43f
000007e0: 0c28 5eee b855 c83f abe7 7ee0 ab9e fc3f
000007f0: 31c0 0c67 16b7 ef3f 8fa9 91bd 12e0 d23f
1.9733654823056785 -0.46348960475124384 -2.076515523543041 0.8330166364828973 -1.5347099130878956 1.4555633291967351 0.012654293536989703 1.5499112618361344
1.5574733836506716 -0.4049397590362554 0.9937299949625437 -0.6979026026968825 0.021402265299735858 1.2461433720121842 0.06602594523255041 0.9520449631517185
0.06903982832297673 1.8517757968287867 1.5903639364250544 0.4284975646318474 -0.1237477469141819 -2.402921481581482 1.1358086579810052 -0.13989853906384614
0.6258430245005524 -0.7504646716391293 0.7661017201512024 0.35668919539434335 1.895905116227686 0.0822618934523152 2.812970829571152 -1.5388029639300365
0.024898158778426233 1.9725871487986226 1.4182784056600863 0.23861405176698663 1.4426293866184838 -1.0979038780868908 1.0414248462951394 0.5093532641764792
0.3781789701119222 0.6604775620329607 -0.8052823555743112 1.384693007559274 -0.09068980202501718 -0.03738204827803554 0.30108727642425714 0.317563141321364
0.8952784743449927 -1.1138737077791956 -0.3082451624368908 0.5889084073033978 0.3298703371717716 0.8341725517954468 1.3139532913470702 -0.6954674732028328
-1.0576071846342119 0.2980855030686398 0.4155404473689029 1.2448888014460946 2.428246177052432 0.35725227018972044 0.5944886894137653 -0.5386824368998546
-0.8993225232193772 1.8368141799149413 1.0152345621440353 1.2079024084451857 -1.927922343346115 1.0565139429205879 0.26729206407951817 -0.04332210938485451
1.5358374225078986 1.3877972080578649 0.2587423859191999 0.2007509078714764 2.252164733003553 -0.17200268607299937 1.300032804973126 1.8465160541056551
1.3819601520338083 -0.5604382321281152 -0.7932611349178235 -0.21937921164592547 -0.40558749309139275 -0.48567520541316034 0.019045765964970034 -0.7438768498115859
-0.3113732797811604 -0.29038092646395236 -0.27637807867354935 -0.30059147762414695 -1.6936144685648529 -0.3312030999498018 -0.3655322803994616 -0.12292317581435927
-0.3180121297438916 -0.29705246087208825 -0.1532980938404714 -0.528416390420559 -1.2506374418565054 0.6985881015279009 0.7628448005150085 -0.9775902783142507
1.2007592808225942 -1.1986179168589695 -0.02218824767786817 -0.07283046538041155 0.5305018860351239 -1.0387179428683602 -0.972317274458233 -0.29624388022485115
-0.19920165187260283 -0.7612979636754585 0.0278584802823775 -0.2963024649102671 0.05308585549214666 0.6515111712396889 -0.15433140458598588 -0.9263033656613164
-0.5205877145156134 -0.45932224720702053 -1.1697116013822222 0.829958453115791 -1.6897302154831113 -1.6022184963637847 -1.2657338821992672 -0.35330516823244595
-0.7235705118093075 0.03521416372900016 0.4769971275716103 -1.2819378651727555 -0.30439081808286034 -0.6235398434697954 -1.3381985264204654 0.459660651864856
0.3636453343634839 -0.6890826745185035 -0.7369015410847275 -1.069275475552237 -1.2063004031629256 0.024631151468031475 -1.9113881568159679 -0.661970779633586
-0.4541112708328232 0.46726434107712056 0.16386975447913688 -1.8544302055460828 -0.4972206580463566 0.13964444715521354 -0.39452922084116204 -1.3105417723076558
-1.2400525725315594 -0.561542712279122 -0.3826130514936117 -0.8083072889908871 -2.3277725946819685 -0.027386615796770073 -0.009837986253419723 -0.66768083578883
-1.5985105354245424 0.238474475707014 0.07708114079985474 -0.6695556475044858 -1.4744913504177661 -1.1160199387959342 -1.7831775947243773 -0.08200885484370417
0.07327236241534457 -0.07196299046778104 -0.16745557238134348 -0.41272546235367585 0.6290623164973262 -1.791872749985447 -0.03833951422717017 -0.6953071690410451
-1.1703169972574536 0.6932787523543142 0.5980031918626401 0.6289621634869423 0.4306889653963731 -0.642421545612107 0.5060489585045497 -0.20182842272849885
-0.7968935956585862 -0.8881490091328138 -1.109607332861094 -0.7532073790556789 1.4317304483804825 -0.38815014994459124 -0.90625521650523 -0.47046958786589504
0.8047259431072467 -1.0429346601486442 -1.3496514027331605 0.15768876409665145 -0.8974612802846967 0.34536626902121326 0.571335756410898 -1.3191036330152488
-0.04426670116763524 -0.4483876189941931 -0.03553780513515831 -1.1413751943069543 -0.6574738459138441 -1.0837006901534405 -1.3498377499579293 -1.702890953023608
-0.2876745487569462 -1.1918414756457103 0.5383255411701898 -0.37327348678489636 -1.1694191042856834 -1.06570856374707 -0.502882130743239 -2.204757830977236
1.0270959725893782 -0.4691938944436582 -1.1182508599656078 -0.2605192919015855 -1.3750408580606488 -0.6293207689277384 0.7330960720941764 -0.21349306166283527
-1.3040491238544778 -1.9333986820658058 -0.595111659945358 -0.06766450725729772 0.26578726339488473 0.038731703079778954 -0.452982478725156 0.08181118395165526
-1.920519757002927 -1.109452294609015 -0.570150897426886 0.6748079985487285 0.48683943492131376 -2.208392619043242 0.3414287826112905 -0.5113186568847431
-0.5165224237073668 -0.33469847869110164 0.6729484254975749 -0.08341235519053708 -0.6371386905046256 -0.11016680741834677 0.6322490341270537 -0.3332684403380121
1.5712186213328003 0.5551822556534215 -0.34869811097108977 0.6430785612475722 0.19011603964855828 1.7887381333698424 0.9910995495502047 0.29492634308430693

output_gate_weights f8 [108, 81]
00000000: 966b 845b 3188 efbf 8efb 91a7 223b f3bf
00000010: 3bee 2ca0 5d50 f3bf 96c5 5893 f047 e63f
00000020: 4f19 dd44 7900 febf 1b86 4879 505d 0040
00000030: 1e28 6f60 13d7 c63f b33c 16ed 79c4 df3f
00000040: 1344 5d89 eebb 0740 2a0d ca8e a4d6 e9bf
00000050: 1796 d267 dacc f23f f1e2 4344 9d1b df3f
00000060: 617d b574 7e6c e0bf ae08 84cb 208c e93f
00000070: 4562 a78d 758d f0bf ad53 ff8a 57e8 c53f
00000080: 0d17 b1a3 0ece d83f b43b 078e 70c9 0340
00000090: a0c3 7956 2d82 0040 889a f06a ea77 f2bf
000000a0: 6d49 abb0 6745 d53f 0247 6b3a 14b3 f4bf
000000b0: a47c 5883 9f74 f63f a00d 1e5f 1335 a33f
000000c0: afe6 6704 61b3 81bf 518c 6e39 18b4 e3bf
000000d0: 9bf0 3412 c47a b13f 0192 b016 dd94 ea3f
000000e0: a53c 8cfe 59a3 d93f 381e c84a b849 cc3f
000000f0: cd28 e5ec e042 0740 9478 d414 fe0e d7bf
00000100: 67f2 d6cc 1828 e3bf c51f a54f c06c f03f
00000110: f507 4204 5a4c aebf 1d67 cf55 605e e83f
00000120: 18cb 8bbc 974d f33f feed 4dcc 52d7 fbbf
00000130: f198 aa3e 6f17 f23f ddb1 cf40 9cf0 cf3f
00000140: 1261 a35d 4cdf bf3f dfe2 349c 0c19 e8bf
00000150: 448e 09ae db4c edbf edd4 ceb3 34d9 fa3f
00000160: 3b8d efad 8bd0 f43f bc59 ce4c 2d4b e0bf
00000170: 0157 7cc0 3aa3 e7bf 2e72 5a7a 2f53 cdbf
00000180: 7e09 722e cc12 d83f 6aaf ca72 7e41 d2bf
00000190: ac54 ba46 7651 d23f 7d3f d988 1ed2 ca3f
000001a0: 50e0 c3aa f76c c13f 5f5b a606 7553 f33f
000001b0: 3b89 e656 d993 f23f ec39 149b baa1 e2bf
000001c0: bf1b c0d9 ff24 febf 4197 e1ee 7a0d dc3f
000001d0: c108 9d40 85b4 f3bf b4e5 9bfa e09e e33f
000001e0: ebbc ca17 fca2 e83f 9230 2521 9285 f33f
000001f0: dde3 0ef8 d1e9 d8bf b0bb 6069 537e f5bf
00000200: c726 0ca4 7692 f4bf 448e 211a 21c7 f13f
00000210: 33b0 d418 e41a e93f b06f 0ad4 0b21 fb3f
00000220: 655c 8fe8 f46f 01c0 5648 52e2 b173 f43f
00000230: cc76 9ddc 115b e3bf c2c0 2e70 54e7 93bf
00000240: 7729 01a9 7932 0040 17dd 78f4 aed3 e23f
00000250: 9729 a239 0777 e7bf 7232 48a1 8596 c13f
00000260: 248b c7bc 9de0 fb3f 6607 7cee ee04 f1bf
00000270: b2a8 55a9 783e fa3f 8f1a 8dc6 7044 0340
00000280: fbfc cbd0 d677 f83f 43cc 4d31 f02c dbbf
00000290: b0ab 3856 4316 babf 3f1e 8555 b6d5 f3bf
000002a0: 118b 41ee d9bb ccbf b0d5 4f0b 3e63 d2bf
000002b0: 0f3e 6bd7 5649 d83f a096 691e db2f dabf
000002c0: aed6 f575 6e48 edbf 88b2 233b 0902 dcbf
000002d0: f987 bac5 e870 e83f cb5a 1712 0e7b c23f
000002e0: aafb d5a6 ec32 f8bf 2932 2610 1f5c e5bf
000002f0: 2316 4ea8 5d69 bb3f be03 0e76 cee5 eebf
00000300: 1d80 fa30 ea87 f3bf 6451 db7a aeb0 e53f
00000310: 5e86 1066 d37d b2bf e9f4 9e6b 43ca debf
00000320: b4a9 c33c 463f fabf 90c3 23b5 3cd6 e93f
00000330: ecc1 b979 477d f7bf 2b7a 7bcb ff2d f9bf
00000340: d03d ac33 18cb d2bf de65 8b4d 351c febf
00000350: 55af 9c5a 3918 d13f 8a39 a30c 0b3d fcbf
00000360: eae1 0ead 64d7 f3bf 8250 6d20 84ce e7bf
00000370: f202 f154 15de e2bf ac29 a2da 8800 c2bf
00000380: 687b 00dd 4efb f1bf 6666 e0be f17a e6bf
00000390: 9c1b c948 ea84 f1bf 3d53 2ed1 ec52 ffbf
000003a0: 43d8 0668 3c13 bd3f a133 38fb 18cc c23f
000003b0: 94da c729 82dc f63f c6ce ce0f 8d78 f7bf
000003c0: b17b a5c4 482f c3bf 67f6 7a28 29d5 ffbf
000003d0: 8117 d74a 18b4 f7bf 8b51 922b 2ca4 d6bf
000003e0: 8789 f937 652d f2bf 3bfa f837 bd93 e1bf
000003f0: f62d 9824 b319 edbf 36e2 30fa 8440 e1bf
00000400: ff39 41d6 7c85 f3bf f264 26d7 223e e4bf
00000410: 1d1c a6f2 a0b2 d73f e099 7921 9978 e2bf
00000420: d57d e999 6269 c13f cc9b eff5 94df c03f
00000430: bceb e284 81d0 d2bf e836 1f69 31da d13f
00000440: 6385 3d7d cd24 da3f c58b ee74 86f6 edbf
00000450: 0e01 9386 e27b efbf 183d 37e9 70e8 f1bf
00000460: aa53 2629 864c dbbf 5c3c 8644 21ca e6bf
00000470: 4d7a 6d8c 49e9 f3bf 8e73 560c d7ba c33f
00000480: 0406 3abd 0de5 cdbf 077a 0063 a33f edbf
00000490: 3152 c6e6 4f9e ebbf 2ff4 38a5 31a8 04c0
000004a0: 4a31 bf8a 87fc b3bf 8d7e fdf2 cd25 dfbf
000004b0: f1e9 8f57 c3ea abbf 34d7 fcf4 426b 6d3f
000004c0: b57e bb79 e3ef ddbf edcd b708 dadc eebf
000004d0: 36ee 81ef c7d8 e8bf cdf5 ccf7 9dea 05c0
000004e0: 1965 13c2 b135 c83f 3fe3 2dd1 fdb3 ecbf
000004f0: e791 f1af cafc e7bf 512a 7d7f 1bd2 f2bf
00000500: ec42 a026 277c 00c0 b488 9cb1 b4a1 ecbf
00000510: 8a49 3d9c 24bf f1bf a69e fab9 f1ff b0bf
00000520: 1fbe 4690 a963 fdbf 3a7d 1a8a b730 e2bf
00000530: a9c3 50b6 0ed9 f0bf 7d7f 1854 2090 f63f
00000540: bbdf a14c 8641 de3f 18cb 60f7 c0c9 e4bf
00000550: fd22 a6bb b45c d73f 1644 0a29 8453 a73f
00000560: b345 2c25 4ae3 d83f f95b 3a46 16af ebbf
00000570: 8770 2d69 5a95 bbbf 9dcf 1e04 f5ef db3f
00000580: 4111 f94f 916a f4bf 1367 73db 3a3a 873f
00000590: 93aa 8496 7555 e13f 2c0c 05f7 9cb3 e63f
000005a0: 692f df56 63c9 ca3f 8007 e49e 177c f7bf
000005b0: 9c86 dee4 d23c f13f dc03 c2a3 87cb ffbf
000005c0: e39a cd10 ee0b dfbf 0c9a 394f 0fd6 fdbf
000005d0: 0878 3bd1 6ce2 f1bf a7cf db31 8a6d f0bf
000005e0: 06cc 30ae b1f7 bfbf 18c3 6b7e ca96 f7bf
000005f0: 6343 b4ad bed3 f6bf 9065 f20d 093c b6bf
00000600: 93e1 166a 7186 e53f 388b dd08 f5e7 f0bf
00000610: 5ccd 4263 89da f9bf fae1 30ae 563b c0bf
00000620: f0f4 0e52 27a1 00c0 695b 139a 8ad5 e83f
00000630: fabd 1ea8 37aa a2bf bb66 7edb 5fb1 b8bf
00000640: 8c33 e294 099c a63f 26c2 2a64 73f6 d9bf
00000650: 7f35 c1c9 9181 dcbf 1d7d 87cc b9ab fdbf
00000660: 4144 7169 cc97 eabf 7ae4 5eff a93d e1bf
00000670: 2851 bcba 0ed9 debf 5a2c 7678 c9ff e0bf
00000680: f43c d8f9 cdc6 f0bf cd9e 1030 5963 fcbf
00000690: 621a 99e0 f0c1 d13f 615d 25ba 3ba7 c8bf
000006a0: bd40 5667 3be4 f3bf 0372 01bd 231d a53f
000006b0: 7572 ddb7 4717 ab3f b1ab fa96 05d7 f8bf
000006c0: d888 61fb 4cd4 e53f 6063 e571 a349 8f3f
000006d0: f66c a251 da09 fbbf f5aa cdc3 b5bf d7bf
000006e0: b48b 318f 8d44 f7bf 7538 da63 a741 f0bf
000006f0: 6b5f b39e 9020 d4bf eaa9 53fc 98de e83f
00000700: 55ea e1eb 215d f3bf bf69 f704 2f9a f8bf
00000710: 4ce8 1e83 6f92 00c0 1678 4a87 695c ecbf
00000720: 1aed 01ce 4457 c83f 284c 6591 0845 e03f
00000730: ac9b bd53 e91c f4bf 0405 7097 6eb6 d23f
00000740: df18 7b8d 280d febf 04eb c2d8 39d1 e7bf
00000750: 7e4a 66d5 3e39 c03f 519b 8129 5323 b73f
00000760: c5ba 61aa f283 e5bf a7af 72b9 2a6d e3bf
00000770: 7706 4847 ba00 b13f 8a68 7ddf 50fb f5bf
00000780: f50e 1d06 7bf1 d0bf 29a1 f225 8ea4 9f3f
00000790: cd46 4696 09f0 b73f c86e 56a5 33f2 d03f
000007a0: bbf6 caab 2342 f2bf 121a aa28 f3ac dabf
000007b0: a4b7 3551 633e 0340 3b8e 06ab b44a 06c0
000007c0: 2f8b 9adb 1539 e83f e2d7 d570 8419 ee3f
000007d0: 5c7c fde1 f42b f4bf 6102 7739 ba89 f13f
000007e0: ed83 d3f2 93ba d9bf 5a07 dd42 b758 0740
000007f0: 7e13 ad98 f369 e63f 9380 d5a6 920e e13f
-0.9853750979849447 -1.2019373460495646 -1.2071205384116996 0.6962817075602057 -1.8751156511294373 2.045563647771599 0.17843858917905292 0.4963669600774196
2.9667635661685465 -0.8074515141346741 1.1750129752703111 0.48606044451257363 -0.5132438926192827 0.7983554816167009 -1.0345359357217074 0.17115301405888542
0.3875767324974369 2.473359212489834 2.0635630374822114 -1.1542762925470544 0.3323611474308084 -1.2937204629892567 1.4034724360169912 0.03751431022740381
-0.00864291948981885 -0.6157342073169138 0.06827950901510109 0.8306718295248744 0.40059518678840284 0.2209997525353502 2.9076555736001866 -0.3602900699060083
-0.5986446381353517 1.0265505896695555 -0.05917626668907864 0.7615205455760791 1.2064435353356142 -1.740069196762192 1.130721325674639 0.2495303455792869
0.12450101171578279 -0.7530577708158396 -0.9156320952574295 1.6780287765262145 1.3009144586911379 -0.5091768741720482 -0.738675476025236 -0.22910111879618128
0.3761473134583396 -0.2852474328053548 0.2862220469190315 0.2095373314100434 0.13613792265073466 1.207875276542573 1.161095942931367 -0.5822423008810893
-1.8840330606342233 0.43832276657336783 -1.2315723918878094 0.6131443876940268 0.7698955979048184 1.220110063050957 -0.38927125191145057 -1.3433412662813957
-1.285757675943772 1.1111155529732892 0.7845325932480648 1.6955679209558916 -2.1796663445234565 1.2782458153419802 -0.604866915596824 -0.019437140795788073
2.024646110866509 0.5883402609678424 -0.7332798123982681 0.13740606665705318 1.7423379301259923 -1.0637044254112538 1.6402517904885312 2.4084182273684926
1.529257598507512 -0.42461781325181763 -0.10190220694555197 -1.2396758404373853 -0.22448276647181634 -0.2873072729556396 0.3794762710285519 -0.40917089433637877
-0.915091734305596 -0.43762427115761016 0.7637828695189902 0.14438033946381376 -1.5124327199007248 -0.6674952807821387 0.10707650527009398 -0.9655525499111872
-1.2206823266242346 0.6778175735039835 -0.07223244897661504 -0.4810951758370963 -1.6404478429418363 0.8074019945034809 -1.4680857424647185 -1.5737302731064442
-0.2936459068887105 -1.8818867711146292 0.2671035179980568 -1.764903115621197 -1.2400862464984308 -0.7439594872798951 -0.5896097811711043 -0.14064131427251192
-1.1238545067678505 -0.7025078514154302 -1.094949993437445 -1.957745377648464 0.11357476749148625 0.14685356394366259 1.428835070806291 -1.466931401967416
-0.1498805008113471 -1.9895412045729246 -1.4814684794850737 -0.3537702966216549 -1.1360828577531679 -0.5492845624174331 -0.9093871798262956 -0.5391259085218454
-1.2200897569015294 -0.6325849725864414 0.3702776307695233 -0.5772214559372593 0.13602859988439656 0.13182317741958938 -0.29397619225681715 0.2789424444753039
0.4084962580728499 -0.9363434108566869 -0.9838726642992996 -1.1192483053199052 -0.4265456582882573 -0.7121740663877847 -1.2444549069838502 0.15413940527369302
-0.2335526632269166 -0.9140183385496251 -0.863075209361858 -2.5821259410863813 -0.0780720437753121 -0.4866824028922359 -0.054525474966755534 0.0035911853555274046
-0.46776663673334024 -0.9644594354890025 -0.776462524212042 -2.7395591124938847 0.18913862205844437 -0.8969716153652384 -0.7496083675765107 -1.1762957553898057
-2.0606215493829634 -0.8947394818281027 -1.1091657736875242 -0.06640539923193475 -1.8368316303057168 -0.5684468934377158 -1.0529925462435392 1.410187080859003
0.47274930461525927 -0.6496281463244911 0.36503332448096143 0.04555905343034554 0.38887265806360033 -0.8651229259147605 -0.10774769847688691 0.4365208187330099
-1.2760174869482201 0.011341533491236377 0.5416820468720566 0.7094254326442573 0.20927087537563274 -1.4677959639234075 1.0773495617108102 -1.9871899029533244
-0.4851031459897241 -1.8647606940008954 -1.1177795575272302 -1.0267431209185618 -0.12487326147747532 -1.4743142069166364 -1.426695517093514 -0.08685356703280989
0.672661502080745 -1.0566301676087289 -1.615853679407187 -0.1268108702222575 -2.0786882792295884 0.7760670670785262 -0.03645490576979778 -0.09645651921018843
0.04415922110010859 -0.40566715986190827 -0.44540829374894736 -1.8544252385543765 -0.8310300883696372 -0.5387773502071831 -0.4819981406774496 -0.5312239983335403
-1.048536277728826 -1.774254977944952 0.27746221478847677 -0.19260355557592404 -1.2432207142447134 0.04123794252584292 0.05291198844381465 -1.5524955651878651
0.6821656141076131 0.01527717295964387 -1.6899054707380947 -0.37107605096268453 -1.454236564016111 -1.0160287762151061 -0.3144876050769116 0.7771725586183582
-1.2102374281081627 -1.5376424974443663 -2.0715017551238244 -0.8862807886505404 0.19016323145829334 0.5084269370803485 -1.2570584555739783 0.29238476551843484
-1.8782125021548877 -0.7442902787800851 0.12674699230099756 0.09038276446663686 -0.6723569228905367 -0.6070760366469486 0.06641735306041051 -1.3738564233849808
-0.2647388038351289 0.03090116602530305 0.09350643080531569 0.26478282114269946 -1.1411472998292271 -0.41680602046145154 2.4054628700750573 -2.786477409493981
0.7569684304365633 0.9406149104895543 -1.2607315852872238 1.0961248631212117 -0.4020128127431793 2.9183182929709064 0.7004335386233007 0.5330289133526257

gate_gate_weights f8 [108, 81]
00000000: 93f1 3cb3 bac3 f03f 030c 351c 8c4a f13f
00000010: c17f 1fb8 051e c73f bed8 b361 0222 fd3f
00000020: f242 d0c0 890f c4bf 46b2 e724 7601 d23f
00000030: 17e4 a604 454e a93f 6377 7e0d b24b 00c0
00000040: 00d8 fee2 a00b dabf 6dda 130d 7160 f33f
00000050: fd75 b227 9671 b4bf ebe2 bb7b 8a96 c03f
00000060: 8482 7eaa f1fd c5bf 6b46 1e37 e765 e8bf
00000070: 3782 32b9 8624 f23f 6f3b a8f5 ad2c d03f
00000080: a5c0 b01d 3599 e7bf 26ac 937c 85c9 e93f
00000090: 82f7 0b62 68db eebf 08ae 289e b53e e73f
000000a0: 34e9 adc8 ae62 b63f cece 5a34 4688 a23f
000000b0: 2972 a0c8 9cc4 f3bf 2b33 d72a 6168 ebbf
000000c0: f218 51db 6d46 df3f 33e1 e52e 704f ebbf
000000d0: 0741 1202 0f26 d13f c4e3 e1f6 fbad ebbf
000000e0: f5cd 1b13 4de7 f6bf eb8f abc8 b4d4 ec3f
000000f0: 170a ad36 f397 ddbf 6a55 7ccf baf4 ee3f
00000100: ad02 93ee e227 0240 76b1 6bea cbe4 f83f
00000110: 5d8a 1b82 e958 df3f dbd0 2ae7 360d e53f
00000120: 0489 11ca 6dd8 0140 02da a955 b157 e8bf
00000130: c8c9 b0c0 4214 c83f 642a 146e 16e8 db3f
00000140: 4ff0 ba39 298d dfbf 8161 28ad 4cc7 983f
00000150: 38e2 9ae6 7817 ecbf 7b64 fb9d dd05 e83f
00000160: 2d52 4503 9419 f33f e6fc 2d34 3aca ccbf
00000170: 64e8 0268 187a f3bf 0f9d f2df 3b55 e63f
00000180: 8763 8d2b 90bf d73f a52a edc8 be34 f43f
00000190: 1bf3 7fee c023 f8bf 8bc0 371d 8814 fbbf
000001a0: 3e3a ede4 c6c3 c4bf 7332 4a11 b998 cf3f
000001b0: 4d64 8028 34da dd3f cb60 e4dc 67aa ebbf
000001c0: 0065 4737 9abb c4bf 1526 64af a0d6 dcbf
000001d0: 661c 34f2 1470 f23f 6ec9 d24e cc63 e4bf
000001e0: 3f89 6eab 8f21 01c0 3da4 d057 b30e bd3f
000001f0: e61e eaa5 7c64 e8bf 0557 020e 4ed1 e2bf
00000200: ac97 6ca6 96e3 c2bf c9d2 d06c c419 0640
00000210: 7661 62b0 92e5 e03f 7c73 b77c ce32 eabf
00000220: 7450 c63c f9e6 d5bf 8eee 7519 9bb3 c23f
00000230: 2c1e cf8d a0fc fbbf f163 a512 8c93 e33f
00000240: 2116 2a0c a63a 06c0 deea 4a34 e933 d13f
00000250: 733f d1a2 9f2b d0bf 8b47 ccbe 83ab 0240
00000260: 35c5 fa36 1abf fe3f e9f6 3769 2cfb e3bf
00000270: 0364 e1dc 3725 f03f 70fe 9736 5e3a cfbf
00000280: c407 8ab8 4830 ddbf ca50 16ef fa5f fabf
00000290: 3f7d b7cc 0dbf f9bf 60d7 73a2 ed36 f53f
000002a0: f5cd 616d 5b11 c23f 967e 8b23 76d8 ef3f
000002b0: 6e02 23b3 4121 b7bf fd2e d485 b96d d23f
000002c0: 13f1 8bfd 6ef7 ef3f fadf e1dc b64e edbf
000002d0: e677 d592 1cbf f2bf 6672 8741 cfd8 edbf
000002e0: afa6 bca4 6fc5 fabf 1ebd 1f42 b14e d63f
000002f0: 44de 179d d3ee fabf 7352 f0eb 9133 dc3f
00000300: 330e 67db 2d52 e7bf c89b 232d e5e3 f23f
00000310: 519b 4167 f7f2 f13f 94e5 4908 2971 b3bf
00000320: 5d79 0a3f 8e85 f8bf 36ad 4533 093f e7bf
00000330: 6646 2546 2709 9dbf 3f93 51ce a317 ddbf
00000340: 6ad1 25b3 7513 97bf f347 6cd5 b038 03c0
00000350: da0b e85c fd1c cf3f 3243 b5ed 8198 d7bf
00000360: 9319 04d3 27b3 f3bf 2061 0658 f7ae f53f
00000370: 11bf e341 f16e c4bf 1f92 6c35 9a3a d0bf
00000380: 93b1 3b8e da27 f5bf eca7 717c e9d2 d5bf
00000390: 175c 36a3 d17f e43f be3c e797 7761 f4bf
000003a0: d44a 2acc 04aa d2bf e5b1 534a b073 c73f
000003b0: 5476 aff7 cc42 f63f 7097 80e2 add2 e83f
000003c0: fa71 4dd9 0850 f6bf 3c41 0f39 a120 ddbf
000003d0: b4a2 2aff f377 fdbf f7b1 634f 4eca a8bf
000003e0: 3374 1740 456e febf acd3 2d76 f54e d33f
000003f0: 5ddd 104c 2bc3 e3bf b5ac ddc2 970a f03f
00000400: 2668 8156 5250 d4bf bbcf c633 88e8 e63f
00000410: 0302 e9d0 b70a f4bf 3ba4 a20f 52b7 f4bf
00000420: eb77 ea38 2687 e3bf 1c2d de5f 7919 f53f
00000430: 32f9 647d eb00 e83f 8fdf 3cf4 6f97 c3bf
00000440: 488c b12e bc45 fe3f 0802 2fd5 31be de3f
00000450: 4075 9296 2088 dbbf a9aa 98cb db9e 02c0
00000460: 2b6b 50ac b717 f63f 402b bd8d a2fe d5bf
00000470: ba98 47d0 3693 e3bf 6c7b ddf8 10fb e7bf
00000480: 4181 4f93 0226 f1bf 9fd9 84f5 e740 dbbf
00000490: 30fe f0dd ba14 e03f d8ae 2d00 0892 d93f
000004a0: 7e33 b9ef 3e0b e53f b141 89f0 45d5 b1bf
000004b0: 8c45 8f42 1033 b6bf 85be 1528 a561 db3f
000004c0: 87ba b10b 1031 e43f bb6a 6321 7ba5 fcbf
000004d0: 9436 a065 ef04 77bf 929e dd88 953e e0bf
000004e0: 5887 5f30 b80e db3f 6ff3 fa5f cdf3 f53f
000004f0: 5692 dc8f 4010 d23f fdff d92e b004 e53f
00000500: f8fc 350d 9f2c b1bf 3620 1ef5 04d5 cfbf
00000510: 7b36 d579 96e0 fdbf abc7 f64f f1e1 e2bf
00000520: d266 e374 d9b6 0040 b6e1 1fe6 553d ef3f
00000530: 6930 6717 35e7 e73f 5d97 3e9b a8f3 b3bf
00000540: 02fa 4eaf 06e6 c63f eb73 686e 2a52 e23f
00000550: aabe 46f4 e6d5 e9bf e340 7ee3 d113 a1bf
00000560: f8e1 26ed b471 dcbf 20ac b35c 3c2b f5bf
00000570: ef04 d18f 00c0 cabf bb68 dadf 6786 f3bf
00000580: 8697 eb74 70e2 f73f 3af7 1ef4 9cc8 bd3f
00000590: ea28 c4f1 718a e73f e101 22ad 8263 f23f
000005a0: f467 f2c7 90e8 d5bf e07c e419 3855 fcbf
000005b0: 69d6 c76d ef6f bcbf 952c f981 0b67 d2bf
000005c0: 54a2 47a2 7b96 e7bf 87b4 6462 addd e4bf
000005d0: df75 32f3 803c fabf 61c6 8a14 5b6d eb3f
000005e0: ffc3 d80d 1e6d e13f 9ac3 6ec7 41e3 e7bf
000005f0: 27ed 2101 49ad ed3f 3a53 d33c 908e bdbf
00000600: c634 9b35 04bf ddbf ddff 4c3b 4a21 f0bf
00000610: ac12 c6bb 6c20 d7bf ff6c 2fe3 2fcf fa3f
00000620: 9e5b 646b 937f f3bf de34 b6ec 07ae b23f
00000630: d0ff dd43 ebc2 f03f ec22 bb41 8479 d1bf
00000640: 60d9 0076 485f ea3f 9305 134d 7839 ffbf
00000650: e9d8 c083 fe6b e3bf 04b8 3afd 4af2 04c0
00000660: c05f 1221 8636 f3bf 904c b4ab 041a edbf
00000670: bcc9 ed31 c1d3 e93f 243a 4338 da72 e0bf
00000680: 1b61 2c91 54f6 f63f 2797 e2d3 589b e3bf
00000690: 39b0 f453 18fd de3f f8bc 67bf c740 d73f
000006a0: 835d e3c6 545f f0bf 9c5b 5962 a85b ebbf
000006b0: 29f3 f72d 8156 c3bf 6d24 db4d b92a dd3f
000006c0: 47b6 3dba ce3a b9bf e228 e1aa 4141 fa3f
000006d0: a0fa 6563 7a79 f83f bff7 2bf8 bdd3 dbbf
000006e0: 76ba 1b66 62d4 febf f390 da57 3498 f43f
000006f0: ad82 9edb ac9f f2bf 93d2 baff dcd1 9c3f
00000700: 6788 9b7d d547 f3bf 41ab 8bba 28a4 fdbf
00000710: 4f41 141b 2bdd eabf ed3c bd5c d76b f93f
00000720: c507 b54e a42f e63f 5393 5b88 db1b 983f
00000730: 2bab 921b ee1e efbf ebfa 874b 44dc b6bf
00000740: 14c8 31e6 2b87 aabf d4fb 3029 a9c9 df3f
00000750: ae22 0b39 5d6c 02c0 b742 6361 3567 d33f
00000760: b0ca 1176 8dc4 e7bf 84a5 0ebb 0bc6 f73f
00000770: 381c a4ee a5c3 0140 07bb 2726 23d5 d73f
00000780: 5931 e9de f9b7 e73f 95ac a648 def0 d73f
00000790: 53d0 3030 a8f5 cfbf 77f4 6b6e 58a6 d4bf
000007a0: a860 cf36 617c f6bf 86ee 153b 4354 f4bf
000007b0: 8e22 ae17 71ff cbbf 56fd f4f3 dd3a ed3f
000007c0: e662 42b8 cbba d2bf 220e 7ed9 5c16 dd3f
000007d0: 95e9 ccd7 dd51 d5bf 19ee 9250 6556 e8bf
000007e0: 0a99 25a1 3882 fcbf a636 41af 41b8 d4bf
000007f0: 2810 b99e 0118 04c0 84cc 2067 dc3d cfbf
1.0477854730116618 1.0807000257343595 0.18060370912917104 1.820803052568905 -0.1567241851303361 0.2813392029191032 0.04942527467523677 -2.0369607023448437
-0.4069597450974243 1.2110453139154302 -0.07985819310348315 0.12959414521880971 -0.17181225609694561 -0.7624393536118083 1.1339175447721013 0.2527270220752404
-0.7374520854846379 0.805849784196998 -0.9642831721282479 0.7264049614945529 0.08744327926061574 0.036195939913708494 -1.2355010830862148 -0.8564916455012271
0.4886736528172967 -0.8534470478034905 0.2679479141452394 -0.8649883100434796 -1.431469988482488 0.9009651107157856 -0.46239929522940443 0.967374234433618
2.269475807057765 1.5558585316713027 0.48980176645105705 0.6578630938515987 2.230678156528599 -0.7607046769251726 0.1881183091041534 0.4360405039775854
-0.49299078595845897 0.024197767323216993 -0.8778652671817957 0.7507160268388725 1.1937446716084523 -0.22492148921808236 -1.2173084319060985 0.6979045270899479
0.3710670876803807 1.2628772591294048 -1.5087289158247532 -1.69251262105175 -0.16222463777599389 0.24684823364477246 0.4664430995486029 -0.8645514787958971
-0.16197517108120252 -0.45059983375594587 1.1523637257648942 -0.6371823825377712 -2.1413873093707987 0.11350556272431418 -0.7622664680975191 -0.5880499147048971
-0.14757044912510986 2.762581682322296 0.5280240483289578 -0.8187019763823709 -0.3422225087645139 0.14610613578030435 -1.7491765536705186 0.6117611278706346
-2.7786370230048907 0.26879339319900264 -0.2526625719083235 2.3337473779765268 1.9216558597220914 -0.6244108252573969 1.009086478056134 -0.24396875062665258
-0.4560720255032005 -1.6484326686232174 -1.609144019770454 1.3259102197457295 0.14115469780845982 0.9951735204922041 -0.09035120604949906 0.28794706410620546
0.998954291542335 -0.9158586801631821 -1.1716581092546163 -0.9327160148491884 -1.673202174666965 0.34855300385875576 -1.683307279248667 0.44064758339781135
-0.728781631966234 1.1806384814496926 1.1218179734657563 -0.07594543888435218 -1.5326063597236363 -0.7264448167237905 -0.0283552300036888 -0.4545678629713627
-0.02253517061167668 -2.4026810334844355 0.24307219540068453 -0.36868332112958335 -1.2312391512692542 1.355216354224531 -0.15963569371478362 -0.2535768052787563
-1.3222299152358559 -0.34099805023890783 0.6406028926602428 -1.2737956937524326 -0.2916271203804801 0.18321803693051134 1.391308753510562 0.7757176803467996
-1.3945396889095023 -0.4551165635321188 -1.8417854278033419 -0.04841847151860528 -1.9019215110377103 0.30169426480216077 -0.6175743566190409 1.0025861370038858
-0.31740244338800705 0.7158852587949619 -1.252616706900995 -1.2947559939150455 -0.6102477180136224 1.3187192673529529 0.7501122902974997 -0.15305900026009708
1.8920251678435012 0.48035856074059824 -0.43018355087572857 -2.327567663761631 1.3807903986950787 -0.3436666855019901 -0.6117204730951677 -0.7493977413795228
-1.0717797998732552 -0.425836553349109 0.502530511359458 0.39953804032732654 0.6576227838610149 -0.06966054079499064 -0.08671666741363121 0.42783478655380974
0.6309890964892738 -1.7904006294472044 -0.005619940895497461 -0.507639663043806 0.4227734062570696 1.372022032664258 0.28224195527062557 0.656822291857679
-0.0670871169331696 -0.24868833511959715 -1.8673310050102419 -0.5900808870121542 2.0892819530389284 0.9762372488613014 0.7469735581485227 -0.07793668546818595
0.17889483985887017 0.5725299984366051 -0.8073611041090392 -0.03335433866516426 -0.44444010886539287 -1.3230556126752688 -0.20898444196976793 -1.2203139061225972
1.4927830283354253 0.11634236297592518 0.7356500360486085 1.1492945445062264 -0.3423196747404511 -1.7708054553439112 -0.11108299665633016 -0.2875393647452225
-0.7371195001151798 -0.6520602151628204 -1.6397714137923385 0.8570990945065199 0.5445699949688104 -0.7464913268250826 0.9274029752845409 -0.11545659527776034
-0.46478371844279953 -1.0081274334370314 -0.36135404908444957 1.6755827783989046 -1.218646449565973 0.07296800164313619 1.04758764753932 -0.27304178637545706
0.8241312317611964 -1.951530743667125 -0.606932885485347 -2.6183070930046615 -1.2008115093103555 -0.9094260552978017 0.8070989585087811 -0.5140200709227583
1.4351392432054755 -0.6127132547742108 0.48419769476709323 0.3633288735572502 -1.0232742089336575 -0.8549386902694667 -0.15107741112287812 0.45573265650870703
-0.0985535816850752 1.640931766031422 1.529657734179331 -0.4347987102081525 -1.926851652966119 1.287159293345266 -1.163983209502628 0.028144314869410336
-1.2050375849289823 -1.8525779044091026 -0.8394980934990971 1.58882843233351 0.6933156525849361 0.023543768117537067 -0.9725256479772261 -0.08929850429556623
-0.05181252655974347 0.4966833975085454 -2.3029121834300303 0.3031743479778401 -0.7427432352108863 1.4858510310099016 2.2205313342888324 0.3723838684663154
0.7412080148438164 0.37407643408614294 -0.24968435624180305 -0.32265291961068193 -1.4053661480921082 -1.2705719287904755 -0.21873296409855353 0.913435913542268
-0.2926511096389234 0.4544899105023622 -0.33312173914205206 -0.7605463575086474 -1.781792287330577 -0.3237461291763374 -2.5117218399264125 -0.2440753463320996
