balderdash_lstm/lstm_model/models/lstm_model_21.npz (npz, 903256 bytes, 19 tensors)

forget_gate_weights f8 [108, 81]
0	0x3fe53cdd8e831bf7	0.6636798652115193
1	0xbfe1df233b72481b	-0.5584884797156094
2	0xbfe47f77df6ec067	-0.6405600894850182
3	0x3fe87918fc9f0d68	0.7647824224481328
4	0xc004692121762532	-2.551332723062523
5	0xbfe6b33dbad29daf	-0.7093800209885809
6	0xbfe4f85223294d7c	-0.6553126036400694
7	0xc000dede85a57ef9	-2.108822864640271
8	0x3fd6dcc45e5a9388	0.35722455229034056
9	0xbfd22ffbfaf39183	-0.28417872912384484
10	0x3ff7c88f82a469d2	1.4864649871075142
11	0x3fcfc5163e00341f	0.24820211436636527
12	0xbfdb85135ac6a8e8	-0.42999729027600475
13	0xbfe514d4e0dacc19	-0.658792914552012
14	0x3fa597c2e949dd81	0.042173472383121975
15	0xbfd0066e77c3eb08	-0.2503925485213334
16	0xbfe8be3fbd2a4b9e	-0.7732237524636394
17	0x3fdfab82f83a479c	0.4948432373140521
18	0x3fe911e230404444	0.7834330503848226
19	0xbfedeb2946075efe	-0.9349562041997783
20	0x3fd3e4b8a6afe5bf	0.31083503988301325
21	0x3fed41b20291a220	0.9142694521115722
22	0x4000830b288a784f	2.063986126638191
23	0xbfdbb16a368d130d	-0.43270354583027953
24	0xbfd97ca8aedc5ed1	-0.3982335765481198
25	0xbfe1ca73a1b94ddd	-0.5559633406323276
26	0xbfe984b0569f8b89	-0.7974473659381697
27	0xbf8c413a8e5b3e8a	-0.013796288937924634
28	0xc003acbbacc1193a	-2.459342336314106
29	0x3fcf2c0d3521ee67	0.243531847900033
30	0x3fec945c8106d6aa	0.8931105155995358
31	0x3ffea6f54c515831	1.9157612782633004
32	0xbffe3f60b5dcb040	-1.890473089598359
33	0xbffe8527a06c9601	-1.9075084940499212
34	0x3fc78442baeeb080	0.18372377517278338
35	0xbfec1405e62b2cd8	-0.877444219158316
36	0x4005b38253c5aff5	2.7126509232239138
37	0xbff0670c56f236da	-1.025158252366444
38	0x3fed0837ec62ad28	0.9072532288459216
39	0xbff1bdc126267ed1	-1.1088267793892792
40	0xbfebf1b38c986694	-0.8732545610430003
41	0x3fda7adbd176d1ab	0.4137486978100024
42	0xbfc256d5e37ae9e0	-0.14327500922611502
43	0x4001640538af7faf	2.1738380840833638
44	0x3ffd9e202cd90cd1	1.8511049033993923
45	0x3fdb6bd435909322	0.4284563563435758
46	0x3fc95b3aba684ef1	0.1980966005509042
47	0xbfd4d1a86be01999	-0.32529650244432556
48	0xbfe12b8082dd7c29	-0.5365603023491349
49	0xbfe91bc93e45765e	-0.7846418586957034
50	0x40022c82bf73009c	2.2717337567301694
51	0x3ff7f12edfdef89c	1.4963825936279482
52	0xbfd8f5a91cf04a1e	-0.38999393297231844
53	0x3fffc2c57385a89b	1.9850515854437052
54	0x3fe625b03ce7e42f	0.6921006383482843
55	0xbfde6d24c4d43872	-0.4754115984113759
56	0xbfed6cc2cc247d42	-0.9195264804037964
57	0xbfe3c8b1445dbe22	-0.6182485900189401
58	0xbfad592eb92656a9	-0.05732103357437996
59	0x3ff19142fdfe36a7	1.0979642793276214
60	0x3fe61b42422633a2	0.6908274929024751
61	0xbfbf99423ad5dd42	-0.12343229233180344
62	0xbfe233233365e960	-0.5687423709744444
63	0xbfe13e232b2cde38	-0.5388351290957365
64	0x3fd4c1a5e77a4e86	0.3243193398022658
65	0xbfd6f3c75b409854	-0.35862907325134086
66	0x3fd3db92ea8f6ab2	0.3102767267825285
67	0x3fe004acd9a9d5f7	0.5005707026709264
68	0xbff446c1b413740f	-1.2672745737284037
69	0xbfe1e8a0042a5e44	-0.5596466142041625
70	0x3fdd1e1572bd94b1	0.45496116833812567
71	0x3fe683dc1179ea07	0.7035961476643146
72	0x3ff0abc63049b675	1.041937054276244
73	0xbff1a8ecaee99e69	-1.1037413437387846
74	0xbfe0d2319374ce46	-0.5256584053044626
75	0x3ffa0a3b8ed40220	1.6274982051110172
76	0x3feaaf40592f9f27	0.8338929883875367
77	0xbfe1bc7b7902ee39	-0.5542580951218447
78	0x3fef60292de6d218	0.9804883858219595
79	0x3fce5d14c68a33cc	0.23721561140373948
80	0x3ff68e5ff41ef904	1.4097594772316038
81	0xbff378aafdcd8cce	-1.216959945123381
82	0xbfdccecb71585e7d	-0.45012174671999344
83	0xbfd7ba9cd9e3f687	-0.3707649352871631
84	0x3fee35e2305db429	0.9440775818490056
85	0xbfd39b52fdaa370b	-0.3063552357860863
86	0x3ffe9fd520f16c83	1.9140216147268638
87	0xbff6502c827ffbd4	-1.3945736978200687
88	0xbff2bafa62b42373	-1.1706489425289106
89	0xbfd92f98950e3458	-0.3935300307865126
90	0x3fbd38d0a3854218	0.1141481780262058
91	0xbff7f9eb633cd178	-1.4985154987781169
92	0x3fc53c1058947b90	0.1658955032844145
93	0xbfcef3fbd578d664	-0.2418207924217085
94	0x3fd588696a89786f	0.33645091442111313
95	0xbfdf48d746b2a455	-0.4888208570869826
96	0xbff3876a799e28c8	-1.220560526914186
97	0xbfc07685c3a81b18	-0.128617020163994
98	0xbfe2761ccd943dd8	-0.5769180312362847
99	0xbffbf43b09c9d8ba	-1.747126615749535
100	0xbfe1ae73c6aa7b64	-0.5525454406923527
101	0x3fd8b5a21c85d98a	0.38608601365503914
102	0xbfd0ecad0229716e	-0.2644455453025988
103	0xc003bb52bd64a3be	-2.466466407426622
104	0xc008086de6d00988	-3.004115870689194
105	0xbff37e9964a57302	-1.2184080058570435
106	0xbfd75d818d4b53b5	-0.3650821571184751
107	0x3fd58f02b293b880	0.33685367049373127
108	0xbfead4d60d20851a	-0.838480973852856
109	0xbfdfb85fe47bd641	-0.4956283313070778
110	0x3fcf76d673bd6c4b	0.24581413890232037
111	0xbffe61d9af54fead	-1.8988892411143
112	0x3fe80ee1392c687a	0.7518163792294807
113	0x3fd46dd5151c80b7	0.31920363485006525
114	0xbfd876af9e554f94	-0.38224401914816863
115	0xbfe52fca3654cd2c	-0.6620837269933069
116	0xbfe01c3368ecc31e	-0.5034424828828354
117	0xbffe15d31491ba01	-1.8803282550321685
118	0x3fe757699ad73c69	0.7294204735025122
119	0xbff8870899ef8dd3	-1.5329671872249164
120	0x3fd57c32735fe825	0.3357053877549581
121	0xbff0a5be2f0674d6	-1.040464576427714
122	0xbff2a65ee8cf82e0	-1.1656178564227773
123	0xbffd6a287e88dd9f	-1.838417524600892
124	0x3fe0cc45816600fe	0.5249354865373161
125	0xbfa40152d25fc8aa	-0.039072597675742074
126	0xbff5eeb4133dfde0	-1.3707772018095667
127	0x3fb06780390e79c4	0.06407929795248096
128	0xbfe08a0dd8a68829	-0.5168523055510877
129	0xbff8778b5e99b6b5	-1.5291856475190972
130	0x3f95df561517ac76	0.021359772717840696
131	0x3ff10c44719b167c	1.0654949605681443
132	0x3fd3cf331b03bd8b	0.3095214618506012
133	0xbff9a12522c6418b	-1.601842056119582
134	0xbfb736bc6230b8ae	-0.09067895314430771
135	0xbff21f2c92cd1f96	-1.1326108679222435
136	0xbfc3e314094369f7	-0.15536737873374282
137	0xbff43103b027b0e5	-1.2619664078766217
138	0xbff0791ef22b3358	-1.0295705280033953
139	0x3fc420611b0b7236	0.15723813839476158
140	0x3fd6fa6da62a31d4	0.35903493144067267
141	0xbfebe5b01c589064	-0.871788077700796
142	0xbffc1868ed34bc76	-1.7559594407901193
143	0x3fcc7c1ebab9396c	0.222537842916107
144	0xbff3cd30b591968d	-1.237595280888317
145	0xbfd9006279c6ed9b	-0.39064847843447986
146	0x3fc09dd4e18e925d	0.12981663716813588
147	0xc00690889f50cba7	-2.8205730864078364
148	0x3ff75a4cb6bed62f	1.45954581627792
149	0xbfeba78fd3978f5a	-0.8642043240219934
150	0xbffada5dec9902cc	-1.6783122293565382
151	0x3fd67634f0a5665b	0.35096477032275225
152	0x3fe9e87a8ca53418	0.8096287486056353
153	0x3ff8958bb1345bdd	1.5365101739932847
154	0xbff15aa3b1120969	-1.0846287648024264
155	0xbff466e270711485	-1.275118293023554
156	0x3fc347cd3ba12ded	0.15062871371843248
157	0xbfee69cd34857e24	-0.9504152322587669
158	0xbfd95d03f1ecde39	-0.39630221009744876
159	0xbffcd7b6c9550e6c	-1.8026645531216685
160	0xbff9eb3bcf099bcf	-1.6199300849345837
161	0xbffe21611946f826	-1.8831492411986885
162	0xbff0a0de4e5b636a	-1.0392745076007608
163	0xbfddc74f11c93f3c	-0.46528984772611515
164	0xbfdbf670fdb481be	-0.4369165875996507
165	0x3fdf83797f8f62be	0.49239957291642245
166	0xbff33dc4cf6c1b8f	-1.2025802709992808
167	0x3ff4e6d8602458ef	1.3063586955591366
168	0xbfc9d6455934f288	-0.2018515286998943
169	0xbffece48e20d8140	-1.9253624754129106
170	0x3fe5e0e1e6832a55	0.6837014677233336
171	0xbfd0a1755f7a7a5d	-0.2598546440512218
172	0xbfca32e672297dc2	-0.20467835020370556
173	0x3fe8c6e5d043e210	0.7742795055083338
174	0xbfb7a8fc26ebca05	-0.09242225599499683
175	0xbfcc6fe2a0b168f5	-0.22216446729982633
176	0xbfb6ff94dfc73d59	-0.08983736480080519
177	0xbfc22dfe33664b52	-0.14202859410996865
178	0x3fe3a9f3df4dc490	0.614496170177647
179	0x3fe8730885b6b629	0.7640421496959721
180	0xbfd1ac3d09fb3c18	-0.27613759970421503
181	0xbff304551d641240	-1.188557734306542
182	0x3ffa14c325c6f49d	1.6300689197226241
183	0xbfcba42b3f15ed58	-0.215947538188497
184	0xbfda728a24bce677	-0.4132409437912438
185	0xc006611962479995	-2.797411697206551
186	0xbff02ff7a41d9a17	-1.0117107783095258
187	0xbfe2cc8872b25781	-0.5874674072426701
188	0x3fd754ef7080911a	0.36455903994125693
189	0xbfe924fbf0a090af	-0.7857646655798102
190	0xbfeb13ff97aa94e9	-0.8461912119134044
191	0x3fe0def6303c6be7	0.5272170011625094
192	0xbf9acbdd2debcd6b	-0.026168304374505718
193	0x3ffc0aca2086c7da	1.7526341696325205
194	0xbfddf84a302fd29d	-0.4682794066023151
195	0xbff00495029c1de3	-1.0011186696955228
196	0x3fc8ee05dcaf4513	0.1947638824044949
197	0x3fdd7f2d5f27f5b3	0.46088728230082693
198	0xbfb1ff00ff4a1791	-0.07029730065013796
199	0xbfe0c59a56afc23f	-0.5241214459511595
200	0x3fd6c5a0a6cd73fd	0.3558122281008876
201	0xbfe2615d5cc31c08	-0.574385338951175
202	0xbfc747ba5141aebb	-0.18187645881277156
203	0xbfd2df349da4a750	-0.2948733844265137
204	0xbffa300de138c746	-1.636731986782665
205	0x3fdbeb23ccef5e8d	0.43622679722964436
206	0x3fda2df6c64a903a	0.4090554176748388
207	0x3fdf2ef117c6af87	0.4872400982082969
208	0xbff19e4fc6e973ed	-1.101150300025661
209	0xbfc31fa14b3401d6	-0.14940277263668972
210	0xbfab2981ada0c09a	-0.053051044888321644
211	0xbfeaac37ee460c2f	-0.83352276361291
212	0x3fd7f8c205d05a0f	0.374557977368938
213	0x3ff45d23a2f7a02a	1.27273906382653
214	0xbfdc7dc55e3490f7	-0.44517645072689
215	0x3ff2e2c9258a907f	1.1803676096397167
216	0x3fae0b3d223f2b50	0.05867949526835636
217	0xbfdd2e1d4d54fd86	-0.4559396033473252
218	0xbff48fed4e2dd21c	-1.285138421427411
219	0xbfccda0a5d112514	-0.2254040674618315
220	0x3fd593391cd583a1	0.3371107846815509
221	0x3fd45abb42b38a5d	0.3180378104572464
222	0xbfefe7142da50487	-0.9969578639503575
223	0xbfa11f89e765af09	-0.033443746086815614
224	0xbff09bfcfd14e300	-1.0380830656051216
225	0xbffdd04a05ca870b	-1.8633518434730287
226	0xbfef7ace03ec5cbb	-0.9837408138872868
227	0x3fe433de5563179f	0.6313316028324499
228	0x3fd3cf64bfcca27b	0.30953329782872857
229	0x3fd1a2e2ac3f6717	0.27556673832951745
230	0xbfee2cc077ff0c2b	-0.9429628699948628
231	0xbfb56141b450a7a3	-0.0835152688238439
232	0x3fb65a31919bed80	0.08731374554547777
233	0x3ff6e951b4235774	1.4319626843111708
234	0x3ff9adb3c1a750a4	1.604907757243418
235	0x3fd63cefe92e3999	0.3474693085817307
236	0xbfe6a8c9a3fbdbbe	-0.708103962212469
237	0x3ff357c50d814f6c	1.2089281585258176
238	0xbff81cb0bc0bd3a9	-1.5070044847063662
239	0x3fdddbd15d0394af	0.4665416153278085
240	0xbfc51977d54ed9fa	-0.16483972468786573
241	0xbfcd40f63a9b1d3e	-0.2285449777757353
242	0xbfef1ebacaa1efbf	-0.9725011785189891
243	0x3ff8a73a7a7c98f6	1.5408272537839003
244	0xbfe78500efc9c163	-0.7349857982026545
245	0xbffbff7866ff8661	-1.7498706839909561
246	0x3fed77d0b0743a11	0.9208758779876139
247	0xbfe9ddc7120e6ac9	-0.8083224632894935
248	0x3ff1324bb9260142	1.07477924655548
249	0x3fbe7527542f2baa	0.11897512250213418
250	0xbff524e316f9880e	-1.3215056321573715
251	0x3ff1a5ec1f970bf7	1.1030083879456904
252	0xbff1f1e0323dbc0f	-1.1215517008347466
253	0x3fef379401fb13f7	0.975534442776392
254	0x3ff752060e1a41df	1.4575253058320568
255	0x3feda4598ae2536a	0.9263122284488479

input_gate_weights f8 [108, 81]
0	0x3fffbc63a3e40467	1.9834934617977298
1	0xbfd8e34f6e43c5f4	-0.3888739182285399
2	0xc000993a21d84d66	-2.0748179096350894
3	0x3fec07381b0266fc	0.8758812453772573
4	0xbffb10cdab8e52b9	-1.6916023923305785
5	0x3ff77f9afc844064	1.4686536659173948
6	0x3fc7fa618385af7a	0.1873285190771375
7	0x3ff7b4edc0348765	1.4816720493331215
8	0x3ff970fc771ae150	1.5900845196284372
9	0xbfe0cdc2440656ba	-0.5251170471771822
10	0x3ff23162ed1eba36	1.1370572340489509
11	0xbfea90461a0460b4	-0.8301115520617004
12	0x3fb0d250e63fb0e6	0.06570916768368171
13	0x3ff0a72702237edc	1.0408086856404486
14	0x3fa8e4f8dba13698	0.04862191849734393
15	0x3ff0b1804d371429	1.0433352485863543
16	0x3fcbdb5397d6fbaf	0.21763081468631415
17	0x3ffdd0ca180a7fb2	1.863473981771659
18	0x3ff7f51b887a6d27	1.4973407107525618
19	0x3fe1a96e6f379efa	0.55193254205821
20	0xbfd1a2730987066b	-0.2755401223222182
21	0xc003c5bd4cf6aa60	-2.4715524685646386
22	0x3fef9dd9b2534bd3	0.9880188448827262
23	0xbfc7eee617fd492b	-0.1869781129012805
24	0x3fe67447e38cfc43	0.7016944355344851
25	0xbfecc798a6840d77	-0.8993647815954507
26	0x3fe788645e72b80f	0.7353994221391548
27	0x3fd33f849648c71b	0.30075182605934153
28	0x3ffccf718f4d4bcf	1.8006454084140733
29	0xbf96f0ccc764fa3e	-0.022402953786917694
30	0x4007bd5e806fc50f	2.967465403948729
31	0xbff6cca2c8245d2f	-1.4249599283264833
32	0xbfb4d63a420549e9	-0.08139385330040451
33	0x3ffe8537b80feed1	1.9075238408976711
34	0x3ff5d317c4537ce3	1.3640363377560838
35	0x3fcfd5b8c58a94c3	0.2487097706372535
36	0x3ffa4c96a7310c52	1.643698361484685
37	0xbff24cc140a250b1	-1.1437389874236426
38	0x3febfccd9ae1cef2	0.8746097588577568
39	0x3fe242146c39303f	0.570566378949941
40	0x3fd0701688c326b3	0.2568413100785662
41	0x3fe62fb69b5f0aa7	0.6933243784518098
42	0xbfe8ec180c1d033e	-0.7788200604046336
43	0x3ff6852e0f5bd446	1.4075146293591998
44	0xbfcad1ec8b8ecf43	-0.2095313722071471
45	0xbfb6f05a01a848b4	-0.08960497417891383
46	0x3fb09926f778dbeb	0.06483691732215362
47	0x3fd1118950c1598a	0.2666953362107952
48	0x3fec5c60777e25a4	0.8862764676898007
49	0xbff2f339844dd3c6	-1.18438102418189
50	0xbfd128ff588b4dbb	-0.26812728545084114
51	0x3fe69111397a768c	0.7052084086059991
52	0x3fd059a4dd85f3db	0.2554714358628282
53	0x3fe6f71376e26b2b	0.7176606485330458
54	0x3ff6f3d9fc7ad74c	1.4345340597623872
55	0xbfe42cc74be79efb	-0.6304661257281333
56	0xbfef922eede92885	-0.9865946432776275
57	0x3fd0dfabb2fe1a89	0.26365177612061835
58	0x3fdc38ea9a465ae0	0.4409739023771362
59	0x3ff154918acc1c89	1.0831466123361528
60	0x4003d7e138dae924	2.4804100457960363
61	0x3fdb545dfb49bffb	0.42702436008312333
62	0x3fe68b7f83d2b4b9	0.7045285772961939
63	0xbfe10efaf7718dc3	-0.533078654564115
64	0xbfed71c74c93c418	-0.9201389785431529
65	0x400018f1760b1d8f	2.012179300512521
66	0x3feeea1029b286e1	0.9660721601869363
67	0x3ff5725772f4ca40	1.3404154291607853
68	0xbffedd78c75baf5a	-1.92907026170993
69	0x3ff19a2acb9d16ad	1.1001384690911593
70	0x3facf1eef5ab4949	0.05653330563440535
71	0xbfc1f3c69b6ef7d3	-0.14025194730305532
72	0x3ff901c8a649bec9	1.5629354949596055
73	0x3ff90b0147f764a0	1.5651867686449705
74	0x3fcd75a47ec394a6	0.23015266599319267
75	0x3fd83682ab7a15c0	0.37832705255308596
76	0x4001dd9f62291ce1	2.233214156036056
77	0xbfbd823c39165872	-0.11526848214848132
78	0x3ff05cda53885599	1.0226691496839975
79	0x3ffd8f00e49133de	1.847412960854164
80	0x3ff38e7cdf6ba13c	1.222287056671191
81	0xbfe5f62e6b7b918d	-0.6863014315863879
82	0xbfe675dd8f75121f	-0.7018878747845213
83	0xbfc9f4f655ae2f1d	-0.20278815444577783
84	0xbfd32a1a84ba4644	-0.2994447990577991
85	0xbfd0a0a75efb12e7	-0.2598055293604333
86	0x3fabfdbeb7ac2afd	0.05467029563995671
87	0xbfe9810707fb7a94	-0.7970004230408727
88	0xbfc86994a8bb1c54	-0.19072206724942709
89	0xbfcdfd1d00564fdb	-0.23428690449202247
90	0xbfd1950d10fb2951	-0.27472235353765934
91	0xbfd52b1134c3d297	-0.33075361397576714
92	0xbffca009d636e585	-1.7890718810798216
93	0xbfb6411f3f75dafa	-0.08693118380856993
94	0xbfcb4403b50c6d86	-0.21301313724766774
95	0xbfc4cb5814ac3f59	-0.1624555684033975
96	0xbfd04ac7b281bb61	-0.2545642131071216
97	0xbfcce7d9c54644b2	-0.2258255208257985
98	0xbfcbdafab615a437	-0.21762021914335758
99	0xbfe72424471566aa	-0.7231618297912139
100	0xbff6bbdfde0a0174	-1.4208677934076066
101	0x3fe9d98c94608877	0.807806291388501
102	0x3fe8c67ae1da5b53	0.7742285166922137
103	0xbfee74d85eb73ce6	-0.951763329498047
104	0x3ff44665bcbe641b	1.2671868679810874
105	0xbffc020d88e095f6	-1.7505011889237472
106	0xbfc0825b49a66fc3	-0.12897816749761945
107	0x3fb6be8e023d1a66	0.08884513430266736
108	0x3fe3af0ff7b70929	0.6151199186499855
109	0xbff35c6faed584a8	-1.2100674466567316
110	0xbff0e269e00d50e6	-1.055276751712023
111	0xbfd8941b4b393bd2	-0.38403971048404373
112	0xbfc222fcaa5639ef	-0.14169271771648037
113	0xbfe85cd198f76fff	-0.7613304126384718
114	0xbfc2c917dc529786	-0.14676187761250165
115	0xbfc757dc514bf73c	-0.18236879319732135
116	0x3fb9cc5240d6b9fc	0.10077394564607539
117	0x3feb100575220b18	0.8457057273629713
118	0xbfc7143495facc50	-0.18030412028528753
119	0xbfefe7563f9b0583	-0.99698936865768
120	0xbfe27b81373dcb08	-0.5775762633259953
121	0xbfc569b1e76c0798	-0.16728805351163767
122	0xbff474dcd39930b0	-1.278530909115073
123	0x3fe7cb4fe1f72540	0.7435683644663769
124	0xbffc6f179c0f354e	-1.7771221252508727
125	0xbffce9e870f05d54	-1.8071064387966844
126	0xbff3f88ffc29f42f	-1.24818418981091
127	0xbfd40bff109e0c59	-0.3132321989325582
128	0xbfe183ce1c94b08d	-0.5473394926280136
129	0x3fb22104c9d0fe02	0.07081632544667829
130	0x3fdfe5b9b96b0c37	0.4983963309024974
131	0xbff5987f57271d72	-1.349730816307638
132	0xbfe132bc9cd684a5	-0.5374434531442104
133	0xbfe7cd41576a75d5	-0.7438055713025117
134	0xbff9ab57af65be50	-1.604331669946891
135	0x3fe43b3edcd5a555	0.6322321236777194
136	0x3fd367dee4fda3d4	0.30321476328259434
137	0xbfe0a89cd4316762	-0.5205825943369116
138	0xbfe64958eabdfc00	-0.696453531723705
139	0xbff290bd86b40206	-1.1603369962541605
140	0xbff16fd31fcb76da	-1.0898009531005557
141	0xbf835c7ded601076	-0.00945375805532243
142	0xbfff09133b014c6a	-1.9397156052480349
143	0xbfe00025eb4237e7	-0.5000180811782656
144	0xbfdf4aa92127d47a	-0.4889319251809138
145	0x3fe3d009a6e0225c	0.6191452273643097
146	0x3fc2d09a2a5c8248	0.14699103420663762
147	0xc0008ad2b96eea71	-2.0677847372983753
148	0xbfd9d61815576f14	-0.4036922653592552
149	0x3fc606d45bb5c3c8	0.1720834205439401
150	0xbfd887851e7c44ea	-0.38327148415653645
151	0xbff7f803adbcf33f	-1.4980503832477579
152	0xbff59d707f2157e3	-1.3509373632455144
153	0xbfe3beb3609f7573	-0.617028893200468
154	0xbfd1bce885619aa0	-0.2771550467063353
155	0xbfea285e59329874	-0.8174278013364202
156	0xc002c6931bdb44cc	-2.3469602752962597
157	0xbf95e6da7a4f2451	-0.021388448443563416
158	0x3fc1d8798839b1c2	0.13941878463391616
159	0xbfe35bdb4c8e29f2	-0.604962968370556
160	0xbffa735a02e81e40	-1.653162013391821
161	0x3fd3ed57eea0af5f	0.3113612966869734
162	0x3fb3f80d9f42642c	0.07800374162833695
163	0xbfe1c9e6ae02f4bb	-0.5558961294806503
164	0xbff6a254e5d2d366	-1.4146317460519753
165	0xbff0cf7d65a59152	-1.0506566973281974
166	0xbffb536962629ca0	-1.7078641741916627
167	0xbfbc9dbfe18c0281	-0.11178206688419758
168	0x3fa81163ba961a50	0.047007671858456335
169	0xbf7822ac66886330	-0.00589244216873723
170	0xbfa4b965d84620c1	-0.04047697320044242
171	0xbfdb9b62eea4c362	-0.4313590364936798
172	0x3fe758e0d36ddc68	0.7295993928409077
173	0xbffdf63b5692effd	-1.872615183047855
174	0x3fb8bc22409de298	0.09662069394642925
175	0xbfe3cb05002146eb	-0.6185326578654132
176	0xbff4f78da069ee7e	-1.3104378000415688
177	0x3fed2011cfabc233	0.9101647430489436
178	0x3fea2354fc2d0261	0.8168129849728524
179	0x3fe3b714c35825c1	0.6160987677878255
180	0x3fc99d38fd89fe58	0.2001105535491543
181	0xbfe3b798d071e3cc	-0.6161617346943955
182	0x3fe12ff50f663ba7	0.5371041584747801
183	0xbfca9db8182a81f1	-0.20793820552809408
184	0xbfedec596ab10486	-0.935101230985439
185	0xbfec534d0bd3481c	-0.8851685744250548
186	0xbff5a76b7ad2480e	-1.35337398507227
187	0xbfec4d9d2d760a2e	-0.8844743621742219
188	0x3ffa01fa2557d0a6	1.6254826983177195
189	0xbfd9cf6479f2a25c	-0.4032832327743898
190	0xbff1f11ed95397b2	-1.1213673104589188
191	0xbfe0481727e98907	-0.5088001040969922
192	0x3feb8406b69ebf82	0.8598664824294107
193	0xbfed6e5938410d3e	-0.919720277663522
194	0xbff694d242cf8b3d	-1.4113333329957662
195	0x3fbdd897cba55835	0.11658619615386175
196	0xbfe82e4b2d884755	-0.7556510819724546
197	0x3fd9f7a06ae2f196	0.4057389301122155
198	0x3fe8ab4124430b6b	0.7709050853958223
199	0xbff7d7b72627137c	-1.490164898904566
200	0xbfbace6d2c930842	-0.1047123178314289
201	0xbfd94c43d66eed4b	-0.3952798456263806
202	0x3fb94d25a9fdef0b	0.09883342170899938
203	0xbff3b5c3639361fe	-1.2318757905651405
204	0xbfe55c95618d3796	-0.6675516991906416
205	0xbff0b2204a3439d6	-1.0434878252595943
206	0xbff6d1d46ea2da27	-1.4262279817318217
207	0xbffa5892ea6672aa	-1.6466244846589384
208	0xbfdb68dbb6229ab9	-0.42827503954542184
209	0xbff217b655836166	-1.1307891216620987
210	0x3fdf9ee548dc22b5	0.4940732203981882
211	0xbfdbbd35cb676205	-0.4334234701505298
212	0xbff3688d674667e8	-1.2130254778080545
213	0xbff2e5bf1e2b3e38	-1.1810904673074116
214	0xbfe2f2351f3e6b83	-0.5920663461905494
215	0xc004aac17dbebfce	-2.583376867660241
216	0x3ff1d1b6de5e3b71	1.113699787736291
217	0xbfdecdef38ffd997	-0.4813192421564962
218	0xbff17411233e6086	-1.0908366562562448
219	0xbfd305b667766103	-0.2972236643195318
220	0xbff70e474449828a	-1.4409859340159152
221	0xbfe47c075fbef1e1	-0.6401402349507032
222	0x3feab35215b6073f	0.834389727024451
223	0xbfc52d384a36ecef	-0.16544250129468405
224	0xbff1fdb345a2891a	-1.124438545237871
225	0xc000aad87eafe1ab	-2.0834207436966685
226	0xbfe50d64fc36b647	-0.6578850675629803
227	0x3fa4688f24fe5cbe	0.0398602230699736
228	0x3fb7999db18c2f8d	0.09218774399431436
229	0x3faf07a927a60d7d	0.06060532196991184
230	0xbfd00fd7b73f4721	-0.25096695800049146
231	0x3fd107d55b5eb1b2	0.26610311434594813
232	0xc00157057df303ff	-2.167490943888424
233	0xbff3809d1d85957e	-1.2188998368449968
234	0xbfe40b442355c7c8	-0.6263752641809726
235	0x3febe3435dbc713a	0.8714920836241966
236	0x3fdf6de85850f084	0.49108322739244437
237	0xc0015cc349e95a9b	-2.170294358667275
238	0x3fcd69d7f6430563	0.22979259037496566
239	0xbfd70ca7d8788c9b	-0.36014743938194166
240	0xbfe4ddb5d3c6e5fb	-0.6520642410534373
241	0xbfd17ed55b037b06	-0.2733662976078651
242	0x3fe3c274e60ac75e	0.6174873822221618
243	0x3fb67444b90404cb	0.08771161572441881
244	0xbfe2fddc23c38971	-0.593488759852603
245	0xbfb731c9830882d8	-0.09060344170621748
246	0x3fe7db0180867f12	0.7454841146718272
247	0xbfc34cfabebc2eeb	-0.15078672707783566
248	0x3ff9bef6542300c3	1.6091216360655813
249	0x3fd9d8855dc62825	0.40384039075491024
250	0xbfe07c00e94671c6	-0.5151371532588704
251	0x3fe65d1d5d8f76a3	0.6988665416099206
252	0x3fc75bdf30741ab1	0.18249120584387904
253	0x3ffbe27e78e0e8a2	1.7427963945215557
254	0x3feb30c8221dca6f	0.849704805978332
255	0x3fd7aee36433605c	0.3700493315241198

output_gate_weights f8 [108, 81]
0	0xbff224ff2d8a611e	-1.1340324191024318
1	0xbff2e7223988a082	-1.181429123631489
2	0xbff231893e8820c0	-1.1370937769552683
3	0x3fe60c4423d62ddf	0.6889973354276967
4	0xbffe5703e93645f7	-1.8962439641803692
5	0x4003bf995f9bf9e3	2.4685542554354796
6	0x3fb668c60aab0b01	0.08753621826603465
7	0x3fe199274655e261	0.5499454854717208
8	0x4009cf97f8a9335f	3.2263640810619303
9	0xbfe976645431a29f	-0.7957021374141567
10	0x3ff0d3f1411acd7f	1.0517437499191542
11	0x3fd4d5e0db8d4935	0.32555409851660794
12	0xbfe1276e5c9bdea7	-0.5360633667723577
13	0x3fe93a832bf2f6a7	0.788392625654258
14	0xbff2cd7ac9f13533	-1.1751659286849871
15	0x3fd3b704b56c69ca	0.3080455562318575
16	0x3fd4106bb1a536fa	0.31350223873310734
17	0x40024a8230a22403	2.286381130169049
18	0x3fffd93cc858788f	1.9905364824294656
19	0xbff1a8ab75a0d704	-1.103679141507599
20	0x3fd9b21acceaae73	0.401495647539128
21	0xbff6ec8af41aefe7	-1.4327497039184836
22	0x3ff4bbca380d465a	1.2958471478963447
23	0x3fb96089cc4cbf10	0.09912930715358592
24	0x3fc91728b109a94b	0.1960192551080787
25	0xbfe54102e869ed26	-0.6641859568912067
26	0x3fa340a39a258e7b	0.037602531973587504
27	0x3feac39d31e7eb69	0.8363786673283872
28	0x3fe04e88ff992cd7	0.5095868103175246
29	0x3fd21685fb640179	0.28262471723430554
30	0x4007ed7254530010	2.990940722258536
31	0xbfd2d6a71942a66c	-0.2943513628657459
32	0xbfe1c9e1db149279	-0.5558938292420655
33	0x3ff11c17b8f26a7b	1.0693585609903085
34	0x3fb01650d0f1d919	0.06284051037969042
35	0x3fe9db3cc4acaade	0.8080123750017625
36	0x3ff396a5766868a5	1.2242788911158098
37	0xbffc5c81a3692769	-1.7725845702393264
38	0x3ff0501f7c850c78	1.019561277775919
39	0x3fd167d525b39147	0.2719624393632966
40	0xbfa1e9a5b662504c	-0.03498571254127167
41	0xbfea1138792e2ddd	-0.81460212390942
42	0xbff17118ac530ac7	-1.0901114207669467
43	0x3ff8efbd7f935f66	1.558530329077223
44	0x3ff22edc74050c6e	1.1364407093067501
45	0xbfe74c4620275940	-0.728060782242018
46	0xbfe8a84431271f03	-0.7705403289810139
47	0xbfdd8ae4aea876ce	-0.4616023736615319
48	0x3fc0d427d74a0b05	0.13147447597665277
49	0xbfce9cdf879495c2	-0.23916238899361814
50	0x3fbdc8b398464403	0.11634371249807889
51	0x3fc4e7d0bffbe115	0.16332444547857308
52	0x3fd2564ad7fb9629	0.28651686756197364
53	0x3ff41bb29e760912	1.256762141216829
54	0x3ff288a354949dd7	1.158358889000615
55	0xbfe6ea09e772eb99	-0.7160691757666086
56	0xbffca1121602414a	-1.789323888751897
57	0x3fde095e2f82c4b5	0.4693217720005792
58	0xbff38301e7805bb0	-1.2194842379592323
59	0x3fe442b301426cb9	0.6331419968222668
60	0x3feaeb13e79cb779	0.8411960147547993
61	0x3ff29d957fed4702	1.1634726521628527
62	0xbfe13af9ccba611d	-0.5384491919130913
63	0xbff2a49cfc7f0069	-1.1651887763146311
64	0xbff4d2b5be8f1c13	-1.301442856188946
65	0x3ff104f89a6e458b	1.0637136490298384
66	0x3fe93c9caa47ad98	0.7886489225178819
67	0x3ffc9b8ca3d8aa80	1.787975921654521
68	0xc001df43020fbe85	-2.2340145264677767
69	0x3ff45c5580acd746	1.272542479169219
70	0xbfe42ae3c46fdb3e	-0.6302355610522239
71	0xbfc0a72b539478f7	-0.13010160046628247
72	0x400200075c541637	2.250014039341092
73	0x3fe2741d58d9b9ab	0.5766741500245208
74	0xbfeac5fcc844997a	-0.8366683875545242
75	0x3fd141a1769bdfaa	0.26963078101061433
76	0x3ffb6846bd502052	1.7129580874480053
77	0xbff442d75238ba69	-1.2663186275273353
78	0x3ff945f50e5727e6	1.5795794067548683
79	0x40044b7b8e0ae8da	2.536856755931791
80	0x3ff6a52eae13e2be	1.4153277206334418
81	0xbfd142da1c974528	-0.2697053221900938
82	0x3faaec5fb01c4607	0.05258463883195579
83	0xbff28e1f7a3049f9	-1.1596979878419218
84	0xbfc85a86be3b4042	-0.19026264465947135
85	0xbfe0841f407b3baf	-0.5161281833078329
86	0x3fe23a0b4552aac9	0.5695854524577381
87	0xbfe19d9945798d72	-0.5504881245546314
88	0xbff222da5dca0612	-1.1335090316428063
89	0xbfdb563f214af616	-0.4271390748143359
90	0x3fe95b52a659c773	0.7923978089367963
91	0x3fd2af9deff98cc9	0.2919688075546217
92	0xbff69d7deef46cf3	-1.4134501775905022
93	0xbfe5ab4c457e8e6b	-0.6771603925048572
94	0x3fb6ffa33533e434	0.08983821915525497
95	0xbfedee1ebae07692	-0.9353173875749283
96	0xbff50ea344c3f35c	-1.3160736738347714
97	0x3fedec2e01e80316	0.9350805318100324
98	0x3f938f1c815c1fbf	0.019100613971232635
99	0xbfe48b13d43aa9f0	-0.641977228651113
100	0xbffa28bb60a9753a	-1.6349443221909739
101	0x3fdfb0bf23498021	0.4951627583122918
102	0xbff5cac8dff9ebd1	-1.3620079754898493
103	0xbff99387f012e0c1	-1.5985183122520967
104	0xbfc4ead95036d28d	-0.16341701904970699
105	0xc001531b027a98e4	-2.165578860632296
106	0x3fd63f53ba156697	0.34761517688966975
107	0xbffac341b4f70d48	-1.6726700848528981
108	0xbff479e8ca2f8c1c	-1.2797630212669509
109	0xbff069939c68f25f	-1.0257755384219747
110	0xbfe35ebe52ef63da	-0.6053153629137527
111	0xbfdef7184c853909	-0.4838314769048258
112	0xbff194b01569c944	-1.0988007389501755
113	0xbfe9006ef4b019bf	-0.781302907854119
114	0xbff22743e067091e	-1.1345862165185916
115	0xbffe04c43341e86c	-1.876163673614907
116	0x3fba0269a28c7eae	0.10159931391217
117	0x3fdfa529334cafba	0.4944556237194281
118	0x3ff541df6607af3e	1.3285821900889938
119	0xbff791cca4b4099d	-1.473095553753047
120	0xbfc6f5c44b11d62a	-0.17937520661841805
121	0xbffe27e868848753	-1.8847431261751424
122	0xbffa62c9825b0f37	-1.6491179554004256
123	0xbfd99bf925db1350	-0.40014485070087336
124	0xbfef056548a3675c	-0.969408647414848
125	0xbfe0767b1fac32b4	-0.5144630068403644
126	0xbfeab5e2a0b06716	-0.8347027910669762
127	0xbfcd15f955026097	-0.22723309183925686
128	0xbff27f98096dd91b	-1.1561508529972062
129	0xbfe838af89b61819	-0.7569196405099802
130	0x3fe5029037f30dae	0.656562909389711
131	0xbfdb1e94cd8d4e70	-0.4237415320724045
132	0x3fd382891036b18a	0.30484224875797195
133	0x3fd59a34f34b8307	0.33753703841470933
134	0xbfddce4d21a20aaf	-0.4657166317412402
135	0x3fd7e68abfc19ddf	0.37344616628840116
136	0x3fd675fe1d241407	0.3509516987399483
137	0xbfecaf3c79d1107c	-0.8963911418181989
138	0xbfef4e031ee2c460	-0.9782729724157768
139	0xbff2c954011d97d0	-1.1741523784235035
140	0xbfde0f5ae3de3a4f	-0.4696871972345535
141	0xbfe6dae13fc54623	-0.7142187352675972
142	0xbff40e007f6bf082	-1.2534184434325941
143	0x3fcdd49fa6b8ed19	0.233051258475691
144	0xbfd762a0c5a6e03b	-0.36539477636279444
145	0xbff08fe720cf508e	-1.0351325303682049
146	0xbfe675b66136c151	-0.7018691920002685
147	0xc00582349e7666b0	-2.6885769252665668
148	0xbfc199e01887d575	-0.13750840375693554
149	0xbfe4592975a11c12	-0.6358840272376958
150	0x3fba9af6507972e3	0.10392703499514826
151	0xbfc2399a710d2f86	-0.14238291282742582
152	0xbfd2af5adc6e8f4c	-0.2919528153090496
153	0xbff0964e8136e667	-1.0366959617080285
154	0xbfe3464eb1d4b572	-0.6023324464091913
155	0xc005b209106d86ce	-2.711931351034628
156	0x3fd311088fa334c8	0.2979146387777516
157	0xbff219cb5a8a046f	-1.1312974487957737
158	0xbfe7e9039ded905c	-0.7471941074877679
159	0xbff0ce0a08096637	-1.050302535432264
160	0xc00199b367ef2e54	-2.2000492210261573
161	0xbfebfb92d8c8fcda	-0.8744596704563279
162	0xbff1d72d9e668154	-1.1150337398067522
163	0x3fbd056bad5a8099	0.11336396200431621
164	0xbffd445da6f479b7	-1.8291908761672013
165	0xbfe3fa47e4515086	-0.6243018588379676
166	0xbff32701b176bc69	-1.197023099153535
167	0x3ffd1461b1e35e0f	1.8174759815937056
168	0x3fd4237ae18c85fa	0.31466552759420063
169	0xbfe5fb76435c9690	-0.6869460406930603
170	0x3fd8fdd8b4472dae	0.390493560841345
171	0x3fbb7eb69578f35e	0.107402240268994
172	0x3fd493617ad16ff0	0.32149540895420525
173	0xbfee21000fc36f0d	-0.9415283496741452
174	0xbfac4b8715f173c5	-0.05526373045788761
175	0x3fe1339899621125	0.5375483508837858
176	0xbff556dc9a99c346	-1.3337064780318584
177	0x3fb3f80ab01f5858	0.07800356674064923
178	0x3fe3bcb6e4d70b49	0.6167864293605386
179	0x3fe3737379a1e7c1	0.6078431487687724
180	0x3fc297f3ff180dcc	0.14526224094161788
181	0xbff74c0314d02479	-1.4560576260576268
182	0x3fec9f43a44ab242	0.8944414337943913
183	0xc000f09a40ef7982	-2.1174817154962406
184	0xbfd7728d9095cfb8	-0.36636675948761477
185	0xbffd2aecbe254b71	-1.8229796817365378
186	0xbff27c57f26da0f8	-1.1553573102810883
187	0xbff0de491166a4ef	-1.0542689017987035
188	0xbf94b016f502ed49	-0.020202978805838687
189	0xbff8ef67fbb2c75d	-1.5584487754790282
190	0xbff819be1c79e70a	-1.5062848198271603
191	0xbfb30ca35f485292	-0.0744115932105365
192	0x3fe5bdf478609f04	0.6794378615495309
193	0xbff07ef3db7bccb6	-1.0309942792489841
194	0xbff8cb77a95796e5	-1.5496746649673068
195	0xbfbd745eba24c386	-0.11505691570779505
196	0xbffe334a746b3296	-1.887522177468019
197	0x3feb17768d687364	0.8466141473651132
198	0x3fca86b820d148b8	0.20723630525987402
199	0xbfc06983ad2661a3	-0.1282200427492742
200	0x3f6ada8ffa44ea0c	0.0032780468046926855
201	0xbfd9a4c713ebddd8	-0.40068222947544774
202	0xbfd7e04c963d6e24	-0.3730651347338798
203	0xc0002eb26f07dda8	-2.022801272800013
204	0xbfed1fb471f89ad7	-0.9101202226637167
205	0xbfdf224044464330	-0.4864655176871109
206	0xbfe034c4f27a06ed	-0.5064415679809976
207	0xbfe3f1ca756549dd	-0.6232654850849105
208	0xbfee81fda4979419	-0.9533680166902087
209	0xc000563a3b6e93f5	-2.0421032565232005
210	0x3fca4e30ace08256	0.20551117364176957
211	0x3fc5ec87fcbdbec3	0.1712808593833782
212	0xbff265d1703efd96	-1.1498579392062758
213	0x3fc7e186071be20b	0.18656993243327266
214	0x3fb1f67f2c4fca53	0.07016749221637868
215	0xbffb281bbad2f93f	-1.6972920701806087
216	0x3fe7e463cb875a39	0.746629617230446
217	0xbfac982b3b9620fa	-0.05584845640538734
218	0xbffa83c36f79caed	-1.657168803646239
219	0xbfd8b6035ba424d8	-0.3861091990407437
220	0xbff67296d532346d	-1.4029758766148703
221	0xbff18a7b88b89e5f	-1.0963092175169533
222	0xbfd0309ecf5b64f5	-0.25296755075176175
223	0x3fe946cd353f6d9a	0.7898927726741249
224	0xbff1000ef00a8c07	-1.06251424566358
225	0xbff7f23f143fead9	-1.4966421881678598
226	0xc001d4a9eafe95c4	-2.2288397177642043
227	0xbfe93c4fc26ace9a	-0.7886122510157805
228	0x3fd0bb35fa71ed99	0.2614264436485541
229	0x3fe2247ac1d5eb0e	0.5669530664302742
230	0xbff51fe1cb340e8c	-1.3202836930876485
231	0x3fde7c4351f30ad1	0.4763344097411109
232	0xbfffab1e0868f4ba	-1.9792766884341249
233	0xbfe437cdd2614850	-0.6318120106682361
234	0x3fc52ca98c807c9d	0.16542548523373038
235	0x3fd4ac3563a68325	0.3230107758663954
236	0xbfe853c7714bff54	-0.760226937563838
237	0xbfdd86f2f12f6795	-0.46136163285484005
238	0xbfb7c0e18eb8b9b6	-0.09278688177503266
239	0xbff7d819b7a9ffdf	-1.490258901059853
240	0xbfd6bfb37e40258e	-0.3554505093494179
241	0x3fc19b1a5a557ae9	0.1375458661159066
242	0x3fa562d8deb40147	0.04176976889175648
243	0x3fd4a98cb08aa70e	0.3228484844245124
244	0xbff0a31979cfe01b	-1.0398192175180216
245	0xbfdf1f89fc22bf2f	-0.4862999880087839
246	0x4002c0e81168fea3	2.34419263459843
247	0xc006164fb7bc2f57	-2.7608942369751435
248	0x3fe43cf620eb1d94	0.6324415820062534
249	0x3fe5ebb65ec06ad1	0.6850234842889568
250	0xbff52c8aff3a3825	-1.3233747453518927
251	0x3ff0b883cecfe146	1.0450475767703025
252	0xbfdff601b16eff3b	-0.4993900521039795
253	0x4008f500a854f1f0	3.119630160419767
254	0x3fe586cdf1841d72	0.6727056233511759
255	0x3fe29322fd20df47	0.5804610198892782

gate_gate_weights f8 [108, 81]
0	0x3ff0155eedf65c24	1.0052174849895517
1	0x3ff030f1d7be9c31	1.0119493892214104
2	0x3fc41ed7d94df032	0.15719125853127164
3	0x3ffcdf77f7db5083	1.804557769956802
4	0xbfc4862abe8577a2	-0.16034445097733135
5	0x3fd28236ec57c160	0.2891976650271513
6	0xbfa9e1b53b9758c1	-0.05055013992721192
7	0xc0012eb1fce34ca1	-2.1478004223695994
8	0xbfdcbe4079a34b3b	-0.44911205176065366
9	0x3ff3359380a2aa6d	1.2005801224537678
10	0xbfcae43e113dcb05	-0.21009040681709493
11	0x3fd174a2dc73c9ac	0.27274390724701436
12	0xbfca7733d4246d66	-0.20676277025709594
13	0xbfe84d2f388118e0	-0.7594219306563694
14	0x3ff2765b85d6a710	1.153895876700009
15	0x3fccc0cd0c679190	0.22463381868068355
16	0xbfea1a7a5f5a00a1	-0.815732179864444
17	0x3fed2bcd12bfc6d3	0.9115968099779032
18	0xbff1461de12a6391	-1.079618339112333
19	0x3fe8dc5375fdeb51	0.7768952660111187
20	0x3fb13e54d453f968	0.06735735114850672
21	0xbfa28a424eaf984e	-0.036211082558836524
22	0xbff5d9d6890525a8	-1.365683112368382
23	0xbfefce9455fe8973	-0.9939672164512515
24	0x3fdf8a32a145af0f	0.49280992268789786
25	0xbfed8deba6e84ad8	-0.9235742816839219
26	0x3fcfd0e1ff140294	0.2485620971201753
27	0xbfedffff3f6d7d49	-0.9374996413061264
28	0xbff83b1b0ddf08ad	-1.514430097755887
29	0x3fecea5af388433c	0.9036078220834507
30	0xbfdca5611670b7b9	-0.447593948282584
31	0x3fed1b81137a811c	0.9096074467125024
32	0x4002e58e94cbbde7	2.3620883583714547
33	0x3ffa96e4ba7d0617	1.6618392262174717
34	0x3fe1b2aca0b46513	0.5530608309519799
35	0x3fe8645ca4778941	0.7622512066120991
36	0x4002977dba7cb046	2.3239702767660075
37	0xbfe805a840883852	-0.7506905804054986
38	0x3fafc109701f56ea	0.06201962941820034
39	0x3fdad8209956a58a	0.4194413659521038
40	0xbfe6c8f5c0a895f9	-0.7120312464582518
41	0x3fbcdbbd902f3ab5	0.11272797365311756
42	0xbfea9c4fa4dc8e20	-0.8315809459640526
43	0x3fea2c54b3b114e9	0.8179114827732096
44	0x3ff2deb531896ae3	1.1793720183401823
45	0xbf71f1b881f72c7c	-0.00438091347991609
46	0xbff4435515a5f334	-1.2664385648378813
47	0x3fe9f8c0696f7ebb	0.8116151866233489
48	0x3fdbd193c3e9c90b	0.43466657764578603
49	0x3ff4eb35b2eb6f22	1.30742425814146
50	0xbff9e4f0015ad559	-1.6183929493830276
51	0xbffc8d89c381437c	-1.784555209818989
52	0xbfd25458b51399ec	-0.2863981026006559
53	0x3fd762697ab8a436	0.36538159355638145
54	0x3fda698edc9399da	0.4126927522724181
55	0xbfeb9686c80ea4c1	-0.8621248156897751
56	0xbfc9e09b873a0c65	-0.2021669779097436
57	0xbfdb812e01a29c90	-0.4297595039337887
58	0x3ff1bb0b6e27f73f	1.1081651976559923
59	0xbfe472f8312a0c3a	-0.6390343628157844
60	0xc001d7c763707bf6	-2.2303607720091305
61	0x3fceb8840850d8da	0.24000597387357098
62	0xbfe44e53615c2f9c	-0.6345612432064516
63	0xbfe617be87595305	-0.6903984683545735
64	0xbfc6a3d740ffeaba	-0.17687502549946094
65	0x400774764405b1c8	2.931866198943883
66	0x3fe1e92bbdc33a54	0.5597132402707055
67	0xbfec52b6c76a8be3	-0.885096921429405
68	0xbfd9f288486eea6d	-0.40542800019799224
69	0x3fc899b4aad7e8ce	0.19219072668039988
70	0xbffb3672ed01b298	-1.7007931955405748
71	0x3fe42a8e8ac6df80	0.6301949224934873
72	0xc00679d8ef9595a2	-2.809495803596932
73	0x3fcd469b8040e6f9	0.22871726763133163
74	0xbfd43e2f0791eb33	-0.3162953924108251
75	0x4002f1c5f17de83f	2.36805332818497
76	0x3fffc3cbd7a337f2	1.985301821073787
77	0xbfe5d4ad4b8adb39	-0.6822115397870682
78	0x3ff0b54b63c6cb2e	1.0442613503952987
79	0xbfcbc5a37fcc3448	-0.21696895351525058
80	0xbfdfe45d52057c32	-0.4983132649412624
81	0xbffbd68ac7e3ec20	-1.7398784454551404
82	0xbffbc94ac74d85e5	-1.736643579985292
83	0x3ff6934df5c51657	1.4109630203614836
84	0x3fd2230f08214cbe	0.283389814319161
85	0x3fef5c337008e532	0.9800049961260469
86	0xbfa86d066d8aab3b	-0.047706795570169956
87	0x3fd36f06cf55c5d2	0.30365152595103695
88	0x3ff090112c9ce37e	1.0351726286591822
89	0xbfee8ea2bb12ed3d	-0.9549115804469818
90	0xbff0bf64017e3e2a	-1.0467262323690059
91	0xbfeaefdfc4588a55	-0.8417815050964444
92	0xbffa076c2acdbed3	-1.6268121406573541
93	0x3fdff18f30b6a42c	0.49911861188099027
94	0xbffcb4dc589407f3	-1.794155450829291
95	0x3fdd20cba738d283	0.45512667970914594
96	0xbfe63b1696048b57	-0.694712918284817
97	0x3ff3a39779d9d4cf	1.2274393806267658
98	0x3ff07039e4eb7072	1.027398962228315
99	0xbfb2d361623adaad	-0.07353790901366138
100	0xbff9a6078ab15e60	-1.6030345361413296
101	0xbfe73f06254388bb	-0.726443360119695
102	0xbfb653af83fd5654	-0.08721444103624637
103	0xbfe40ef42b95a8a1	-0.6268254138242534
104	0x3f9858e610b6dbce	0.023776621599349394
105	0xc0052c4cd4d49be5	-2.6466309192069155
106	0x3fd0e5c54ff14a1c	0.26402409369362245
107	0xbfd22116a0c1448b	-0.28326955507970614
108	0xbff485fa9e8474e4	-1.282709712227466
109	0x3ff7145d2ed3e326	1.4424716786581455
110	0xbfc79be41c56d797	-0.18444491752387357
111	0xbfda1105c081652a	-0.40728896903381673
112	0xbff39957ebc0dd74	-1.2249373635403034
113	0xbfd5b2ff81fbdaf4	-0.3390501756070272
114	0x3fe1603bb3b40dcc	0.5429972181158802
115	0xbff5423ecde6ffd9	-1.3286731761036121
116	0xbfd2d092a4621af4	-0.293980274706356
117	0x3fc3eb6e4d770552	0.15562227995364225
118	0x3ff8578635fe41c3	1.5213682278737088
119	0x3fee9f34b002d3db	0.956934303065846
120	0xbff6ff7a256b97c1	-1.4373723470430237
121	0xbfd9396c4c2011d0	-0.3941298240099771
122	0xbffe0739d104126f	-1.876764122455963
123	0x3f8a23380b0c9c9d	0.012762487256237793
124	0xc00026208675145e	-2.0186167244415136
125	0x3fd5c221431b40ff	0.33997375062337193
126	0xbfeae3f122839206	-0.8403249429798627
127	0x3ff0de1c5ee50970	1.0542262751410725
128	0xbfd1a77e3d6bd913	-0.2758479690377424
129	0x3fe89e9a7096c829	0.7693607520107025
130	0xbff2d45536fa9b64	-1.1768390796293824
131	0xbff617a60051b2e5	-1.3807735455003975
132	0xbfe028146e7d99ea	-0.5048925550479997
133	0x3ff862aa68871d1b	1.5240882952801431
134	0x3fe93affebc047f9	0.7884521107209813
135	0xbfb7bfdf1c6efd15	-0.09277147716692398
136	0x3ffe53724b87f812	1.8953726721224524
137	0x3fe35c5838c1401b	0.605022536134132
138	0xbfc8e18d9ea0b416	-0.19438333745475295
139	0xc0034232d5ae917f	-2.4073235219859153
140	0x3ff6975ad84cd712	1.411951870844352
141	0xbfd95c2a8ed26f42	-0.3962503809686845
142	0xbfe4140dad19b07f	-0.6274479275575827
143	0xbfe8939fa077deba	-0.7680204519410474
144	0xbff0a90979dbdced	-1.0412688026534014
145	0xbfd9ad7aa9d86fa8	-0.40121332727880565
146	0x3fe07b5b99cad3b9	0.5150583270793653
147	0x3fe07067d725e943	0.5137213899718421
148	0x3fe2d45b0fbdb013	0.588422327751234
149	0xbfa0e931b416cdc4	-0.03302913020470613
150	0xbfc79717c792ff2f	-0.18429848904451648
151	0x3fd9e6745ef5e309	0.40469083093152897
152	0x3fe2553d55e9b45a	0.5729052236544121
153	0xbffcf1a411376a81	-1.808994357349235
154	0xbfa0281a0f4828b6	-0.031555952420676034
155	0xbfddc30f9337a6b1	-0.46503056885431265
156	0x3fd43a4ad7c3702b	0.31605788298270693
157	0x3ff5118e2c1dd87a	1.3167859767250136
158	0x3fd4313143e082cd	0.3155024683820045
159	0x3fe7ae1d9a9fec97	0.7400043506635424
160	0xbfb114822ab39958	-0.06671918432730217
161	0xbfcc0abb37e5da8a	-0.21907749394786818
162	0xbffea566f71a73fc	-1.91538139843692
163	0xbfe7c80e73270ea0	-0.743170952708585
164	0x40012109e24f5205	2.1411321335274374
165	0x3ff1c4c42e3108e5	1.1105386547429188
166	0x3fe91dd13ca4c302	0.7848898109860729
167	0xbfae2932247c9e26	-0.05890804953952182
168	0x3fbc5cfde4b590e2	0.1107939418193982
169	0x3fe0a7696bb29909	0.5204360106916123
170	0xbfeb131f165139d1	-0.8460841594585934
171	0x3f9c15362dc7548d	0.02742466596994979
172	0xbfdc2d0806199a66	-0.44024849506096186
173	0xbff3f007f3889b5a	-1.2461013329536486
174	0xbfc3f1511b7baae4	-0.15580190507838332
175	0xbff33fb1518ac737	-1.2030499634970064
176	0x3ff8e78820f140dd	1.5565263068020194
177	0x3fbd1ba05b2e0fd8	0.11370279527733318
178	0x3fe7addabafc0692	0.7399724628487141
179	0x3ff2c736e0a8b25d	1.1736363197079733
180	0xbfd8d9b1ff4d5c0f	-0.3882870667634401
181	0xbffc4ed0d3f07e55	-1.7692421225437063
182	0xbfb69daa2fe18ad2	-0.08834327382059406
183	0xbfd473c35904c6e1	-0.3195656174967621
184	0xbfe9b21626fcc85f	-0.8029890786622323
185	0xbfe739493bc35804	-0.7257429282424259
186	0xbffcd795fcacdfc8	-1.8026332731369497
187	0x3feb0d76b83091d1	0.8453935239272657
188	0x3fe348ede7dd88c5	0.6026525047893975
189	0xbfea7c56ccc16ea3	-0.8276781081326202
190	0x3fee7467d15203bb	0.9517096603668657
191	0xbfc04fef74ddeb24	-0.1274394341124544
192	0xbfe067ee907c445f	-0.5126869985562158
193	0xbfeedfa76250b46e	-0.9648014946193493
194	0xbfdb2d018f34bcba	-0.42462195382081414
195	0x3ffa519c94ce837c	1.644924718166492
196	0xbff40b2585c2eb03	-1.2527213311247472
197	0x3fb0c70355db9bf1	0.06553669782770989
198	0x3ff08ccde8b44b37	1.0343760576258327
199	0xbfce162bca9a6dbd	-0.23505160706268483
200	0x3ff0ca374b8cc407	1.0493691397825857
201	0xbfff702dba311398	-1.9648873589623914
202	0xbfe7f7aafba986a5	-0.7489828982617907
203	0xc005212e9d16c6b2	-2.6412021896911364
204	0xbff23d8f90d72ab6	-1.1400294931251387
205	0xbfed657d062816c7	-0.918638717674832
206	0x3fe9d149b8a70f7e	0.8067978483672815
207	0xbfe0eb7d55e0cde4	-0.5287462880427793
208	0x3ff7b1713359b575	1.4808208471179942
209	0xbfe412525551b664	-0.6272365251913468
210	0x3fde0d607d2bd1a2	0.4695664617895777
211	0x3fdb52cecc24db60	0.4269291871636849
212	0xbff215d73a6e8e8c	-1.1303322107786782
213	0xbfea09dcbfda0642	-0.8137038943388648
214	0xbfc92c2f4284cb78	-0.19666090724930618
215	0x3fe29a7da37d560c	0.581358737292875
216	0x3f952bd34f29341d	0.020674993235207596
217	0x3ffa7a58ba1cead1	1.6548697729146407
218	0x3ff963aa6eb2228f	1.5868324588829272
219	0xbfd219857894c35c	-0.28280770087717655
220	0xc0008feea772fd9e	-2.0702794153182387
221	0x3ff633bf8659451b	1.3876338241573822
222	0xbff22cf96c97571f	-1.1359800569384289
223	0x3fc316d1da575810	0.14913390313330455
224	0xbff3680a05874cd5	-1.2129001823384915
225	0xbffe2f5bda4cc1d8	-1.8865622069680423
226	0xbfeba1f484c92f21	-0.8635199159120682
227	0x3ffa6e815dc0910d	1.651978841991027
228	0x3fee7aa539fe9097	0.9524713642790797
229	0xbfc4624033bf7079	-0.15924837614773305
230	0xbff1be5023fe460d	-1.1089631467806413
231	0xbfbb7dc426b2c215	-0.10738779015333251
232	0x3f5e8eabc43267f5	0.0018650700956528408
233	0x3fde0cdc68934de2	0.46953497135583977
234	0xc002bf6fae3d61ae	-2.3434747326357046
235	0x3fd23dd308757162	0.2850234587292758
236	0xbfebbcc1cab21242	-0.8667916258714927
237	0x3ff72fb3a5388825	1.4491459325731821
238	0x4001917c6c65b6a9	2.196038100103426
239	0x3fd9073d86f3c3df	0.39106691531111254
240	0x3fe7d45d5a45e9f7	0.7446734202524671
241	0x3fe1223b5f60c422	0.5354287016726895
242	0xbfc7d86afcfd9641	-0.18629205086760872
243	0xbfd56d98c1115268	-0.33481425146354704
244	0xbff8ada82a292d70	-1.5423967024715601
245	0xbff367009248db4a	-1.2126470293275866
246	0xbfd4b168a8e9e8c0	-0.32332817550162574
247	0x3fe9620bcac28926	0.7932185135034941
248	0xbfd37fbc0ea1d946	-0.30467130116393937
249	0x3fdc521c28967750	0.4425115963330102
250	0xbfd7a5404e4e8954	-0.3694611324991872
251	0xbfeb93e2cddca4f2	-0.8618024845829082
252	0xbffc776ece973a0f	-1.7791584081602456
253	0xbfd611f18cd58103	-0.3448451876956968
254	0xc004c6b08e069c3f	-2.597016439034206
255	0xbfd17838742d4bb0	-0.272962678388633
