balderdash_lstm/lstm_model/models/lstm_model_4.npz (npz, 903256 bytes, 19 tensors)

forget_gate_weights f8 [108, 81]
0	0xbfd29ef7f0356be0	-0.29095266778830187
1	0xbfe063a732938cb2	-0.512164686948742
2	0xbfc3a8cef647f015	-0.15358912492217827
3	0x3ff2434765b70cf2	1.1414255116695213
4	0xc000229d6de04a84	-2.016901834876366
5	0x3fd5f3ee21e9e781	0.34301331817516006
6	0xbfa811e97c647c08	-0.04701165812934255
7	0xbff398d5ece40e02	-1.224813390116538
8	0x3fe0e0ce9110608f	0.5274422486572962
9	0xbfd9d2b6bb995dc3	-0.40348594970916113
10	0x3fd8a438bb0565d8	0.3850232912423883
11	0x3fe3d5de76a8140e	0.6198570554266796
12	0xbfd9a8df15426a7d	-0.4009320933925336
13	0x3fe9943a982b5647	0.7993443462425568
14	0x3fdb9af7652447a3	0.4313333976471034
15	0xbfd2059eebbb72a6	-0.28159306545948437
16	0xbfdbc7d295bcca53	-0.43407120344924016
17	0x3fe545960fbe4b31	0.6647444064604767
18	0x3fd808a1e02b7074	0.3755268754155232
19	0xbfe3683963f51b88	-0.6064726784032795
20	0x3fbd72f771cb4729	0.11503550079512749
21	0x3ff1158865245229	1.0677570296148906
22	0x3fedb5ef5c3cd45f	0.9284588624492577
23	0xbfd45d214500e6bf	-0.3181842016088971
24	0xbfe4c98f2234f954	-0.6496043842414942
25	0xbff42abb4ad06601	-1.2604325220512467
26	0xbfad6469c17f5839	-0.05740671622304245
27	0x3fefcde3c48f876d	0.9938830222201723
28	0xbff10876c595b6b0	-1.0645663946301447
29	0xbfc5b0a2f909595c	-0.1694530216215736
30	0x3fe010691116018a	0.5020032247266937
31	0x3fed03e24242e60f	0.9067240995565856
32	0xbff5d02ab1aded41	-1.3633219662286395
33	0xbffeb3f83d084a63	-1.9189379104688207
34	0xbfd0446e86d57510	-0.2541767422424792
35	0xbf903b100b3e2626	-0.015850306211666297
36	0x3fef1e2367a6e62b	0.9724289917423382
37	0xbfdb5da31d150ab3	-0.4275901588445478
38	0x3fc1f96dabf72d45	0.1404244508433782
39	0xbff1b43193b3322e	-1.106492592766823
40	0xbfaba6c17a5c049a	-0.05400662058492252
41	0xbfd1e07a057d2f85	-0.2793259671786859
42	0xbfe438370830cb72	-0.6318621787998906
43	0x3fd4b9e41853dd7a	0.32384588599912656
44	0x3ff23de2563776b9	1.1401084297025774
45	0x3fc6255b0d57cdb6	0.1730150046492846
46	0xbfa7d9575bbc02ec	-0.04658005709462096
47	0xbfb216a54ad8cf58	-0.07065804555241806
48	0x3fccd39c680b26dc	0.2252078540826038
49	0xbfe035e1014888fc	-0.5065770173135031
50	0x3ff6d59c265a3a85	1.4271508691923895
51	0x3ff8561608558b01	1.5210171056320976
52	0xbfd0e3143f25d8e6	-0.26385980765134176
53	0x3fe97072896bfb32	0.7949764904040875
54	0x3fd3f3a1451c6c17	0.31174499272464246
55	0xbfe89e987367a637	-0.7693598035813868
56	0x3fda7711b3084887	0.4135174034464701
57	0x3fd26c518c97bce8	0.287861239717087
58	0xbfdb33b1af2ceff2	-0.42503015620218243
59	0x3fdc563a1967f0d6	0.44276287537628656
60	0x3fef5cb6c28f9170	0.9800676155105474
61	0x3fb2bb18a63d4bc5	0.07316736277179732
62	0xbfca55e1835e87a8	-0.20574587740435146
63	0xbfd595c157468505	-0.33726533434862943
64	0x3fbfd2ab58640164	0.12430830867743264
65	0x3fecc08aaffe84b7	0.8985036313425984
66	0xbfa1df6a1a066f91	-0.03490764205636688
67	0x3fe35b2013ed9d40	0.6048736943456916
68	0x3fd88a5c54b093ad	0.3834448649452565
69	0x3fdcc789fced01ad	0.4496788949946005
70	0x3fed1dd84785fd91	0.9098931691113866
71	0x3fe8ca7ac085f0cc	0.7747167358607157
72	0x3ff7bc0a7251e50d	1.4834084001179833
73	0xbfc76b5e867da63a	-0.18296414915976006
74	0xbfc9e02e5702513a	-0.20215396164406646
75	0x3ff2ae3a90ac1f79	1.167536320806873
76	0x3ff18c8dcdc7c7a6	1.0968149221703043
77	0xbfe2ead47716b57e	-0.5911657644225412
78	0x3feb0bfcb35ce3d1	0.8452132704907119
79	0x3fd6b52325145be5	0.3548057424645193
80	0x3febc818dbd47dad	0.8681759160571595
81	0xbfe5dbd6abe2e12f	-0.6830857617524425
82	0xbfd1c05789ea2d87	-0.2773646208595086
83	0xbfe7604bc180b9ce	-0.7305048732139825
84	0xbfe98d8ff080fe99	-0.7985305497495175
85	0xbfd73bf1273ac006	-0.3630335696316255
86	0xbfdb3e224f38cb80	-0.42566735970029157
87	0xbfebc22007065b1b	-0.8674469124988237
88	0xbfe65b133f47462c	-0.6986175762087377
89	0xbfe0b496c11a7009	-0.5220445415066034
90	0xbfd4bc83c127fb62	-0.32400602209957274
91	0xbfe7f587e4a2c9fe	-0.7487220254463975
92	0xbfd107e87f4ea53e	-0.2661076777681791
93	0xbfe7fd2ccfad3320	-0.7496551567252006
94	0xbfe7e9f5f8165848	-0.747309670014837
95	0x3fb73e45109eb598	0.09079391151200011
96	0xbfe7abd7d2f3f2d6	-0.7397269363569545
97	0x3fb4d9877466e0e0	0.08144423095552922
98	0xbfe2f6da4c2de52f	-0.5926333892704515
99	0xbfe6db662b6e049b	-0.7142821167218644
100	0xbfeccabf8377317b	-0.8997495238959766
101	0xbfe6148ad0c316ef	-0.6900075986274866
102	0xbfd6df2efbe51fc6	-0.3573720416939036
103	0xbfe3cebe191452d4	-0.6189871301490606
104	0xbff4d3a22b6b16e9	-1.3016683288600979
105	0xbfefec0f3f43cf01	-0.99756586414739
106	0x3fa52a7c9993ae68	0.04133977293699048
107	0xbfe871620fceef07	-0.763840704799322
108	0xbfdd4847e1e0a4ba	-0.45753666933394366
109	0xbfe92fe34aa1a302	-0.7870956857342153
110	0xbfd846ed11b4aa05	-0.37932898263048315
111	0xbfe3aa673d00206f	-0.6145511809745708
112	0xbfdc00aba873ff4d	-0.4375409264612145
113	0x3fbf8faed2a8a83e	0.12328617709195641
114	0xbfe040294135d9e4	-0.5078321717872396
115	0xbfc441bd7ead9ae1	-0.15825623212295795
116	0xbfe64e1e87316667	-0.6970360413062736
117	0xbfe47badf30f03b0	-0.6400975939978846
118	0x3fcd488411abf451	0.22877550948024575
119	0xbfe8edc7d1bc5fdc	-0.7790259453204231
120	0xbfda4158e07d2eff	-0.41023847506288286
121	0xbfeb91a127f2a591	-0.861527040503619
122	0xbfe6f76d4dbd8cba	-0.7177034872405763
123	0xbff1a3bf690a5600	-1.1024774649753226
124	0xbfe66ec2a874b4c2	-0.701020554557225
125	0xbfce072fc11036bf	-0.23459431578560516
126	0xbfcfb7070f536b13	-0.2477730583985581
127	0xbfe66425aee0b12f	-0.6997249999599598
128	0xbfd637dd5f016c55	-0.3471597125805535
129	0xbfe97514ee9a1949	-0.7955422077364257
130	0xbfda593c44a608c3	-0.41169649795496016
131	0x3facfb78843e58bd	0.05660606970120472
132	0x3fe2d0b47123da46	0.5879766664282406
133	0xbfde2051f730b5b4	-0.4707226671187883
134	0x3fa86bc32dee75dd	0.04769716201483807
135	0xbfe0d295bce821f5	-0.5257061662278476
136	0xbfd6e4e58fa755ea	-0.3577207472675058
137	0xbff2207f55ab7fc4	-1.132933935783499
138	0xbfe2d5da8f8070db	-0.5886051943557747
139	0xbfe83740fa387c79	-0.7567448508379037
140	0xbfe4aeefe91a0865	-0.6463546326415438
141	0xbfea722104b001c9	-0.8264317599824206
142	0xbfeade2c0ba339c6	-0.8396206118866807
143	0x3fcf02c1f8760a96	0.24227165824784852
144	0xbfe327936a1def65	-0.5985810349079485
145	0xbfe4444328b65774	-0.6333328051721154
146	0xbfe4590d189660bd	-0.6358705024931833
147	0xbfe75fa26c72759d	-0.730424129305607
148	0x3fcc630c303800df	0.221772693199461
149	0xbfe50b72edbf69b2	-0.6576475757131475
150	0xbfe668ae03b8b1a7	-0.7002782890972882
151	0xbfe2fb224c82dcdd	-0.593156003414062
152	0xbfcda956bb35509a	-0.23173030987766624
153	0xbfd1a47e7ec690e2	-0.2756649244349899
154	0xbfe726a77442aa8b	-0.7234685202323176
155	0xbfec831857d11f83	-0.8910028186009956
156	0xbfcae87480f1fa81	-0.21021896644738905
157	0xbfe5aa08efd45093	-0.6770062145392494
158	0x3fd27a02ead6ea64	0.288696984610999
159	0xbfe76a9007157bfb	-0.7317581308706161
160	0xbfe9d8f473f39ce0	-0.8077337517433101
161	0xbfe47c6a58aff974	-0.6401874286819251
162	0xbff099a8caf42fd5	-1.0375144889721828
163	0xbfe6e3e6b9bb19a1	-0.7153199794345718
164	0xbff2af594826b744	-1.1678097551734519
165	0xbfdc58505c00e2bf	-0.44289025292122725
166	0xbff2e55d55992b41	-1.1809972137150029
167	0x3fd26c2a466b6259	0.2878518760385638
168	0x3fc596d36f661d01	0.1686653417529911
169	0xbff172fbba898473	-1.0905720984085547
170	0x3fb5569f953efea6	0.08335301774695356
171	0xbfe0d9607c8a34fb	-0.526535266153274
172	0x3fc41228835a06d1	0.15680414594321815
173	0x3fc0a329ce7f084e	0.12997934897254243
174	0x3fc7a4a327b1a961	0.18471183241065162
175	0xbfcd6e7d1a6b6a06	-0.22993434705752253
176	0x3fc46ce165e975f9	0.15957276798410172
177	0x3fc86818a47d0dd2	0.1906767657438722
178	0xbfb5f7bdadb13911	-0.0858114766171847
179	0x3fd083e977168525	0.2580512679069947
180	0x3fc565ea76ce7797	0.16717272568797334
181	0xbff38ade7f80c3b6	-1.2214035969338801
182	0x3fd32a8f738d73f6	0.2994726780360105
183	0xbfdae37cd3836c2e	-0.4201347413597344
184	0x3f8b3b0974c90657	0.013296197773459513
185	0xbff9623c958fb2bb	-1.5864835588683224
186	0xbff1022cb6e26fe7	-1.06303092421785
187	0xbfd4bb2982c98dc1	-0.32392347118567605
188	0x3fc6024b81c59700	0.1719450362826862
189	0x3fc03d349236bd0f	0.12686783923479836
190	0xbfef000fac45a6fd	-0.9687574734391259
191	0xbfe40c584b96e87c	-0.6265069462163093
192	0x3fcb3e63dc5300ff	0.21284149415988193
193	0x3fc501b2ea6ad06e	0.16411434599070013
194	0xbfd8fcf851e43da0	-0.39044006345008064
195	0xbff59ff87bb51614	-1.3515553314513271
196	0xbfe12d3f26b74f4e	-0.5367732769177367
197	0x3fcee5a11fba932e	0.24138273286112039
198	0x3f721e680040e098	0.004423528913371076
199	0xbfd5a5e451f5d309	-0.3382502365487175
200	0x3fc60d2b39d4c9e4	0.17227688144482933
201	0xbfebab04efd7f390	-0.8646263775295768
202	0x3fc49b791b88f3cb	0.16099466175538021
203	0xbfee63e9383e52fb	-0.9496961687569575
204	0xbffae718ddd9435c	-1.6814201990093443
205	0xbfe3362e6b18ec17	-0.6003639308686414
206	0x3fca2cf72ff31cf6	0.20449724046031975
207	0x3fc50ebd2f76622f	0.164512298750894
208	0xbff29c70a2c6180d	-1.1631933554031122
209	0xbfde34ae94ea4bcd	-0.47196545164586895
210	0x3fc408036c84dc68	0.15649454878596036
211	0xbfef440c8b3fc16c	-0.9770567626674569
212	0x3fc877fee2c34a11	0.19116197655110104
213	0x3ff0a450d6c2a7e8	1.0401161564900523
214	0x3fbfd8c1033b5c8d	0.12440115288642258
215	0x3fd8d2d5471d374c	0.38786823220003863
216	0x3fc60b4c30783500	0.17221977583577797
217	0xbfe50cf7f1f80a42	-0.6578330732302862
218	0xbfe912dbf628d74d	-0.7835521514705107
219	0x3fd0945fa5417a2b	0.2590560067964442
220	0xbfedf9266c353d29	-0.9366638291775519
221	0xbfe30d6e999e46d0	-0.5953896522862241
222	0xbfe1d3562879fee0	-0.5570479193265463
223	0x3fc6c248a5eeab84	0.17780407049334823
224	0xbfe1916f68a2b49c	-0.5490033191359944
225	0xbff500e008fd3ce2	-1.3127136565342927
226	0xbff0172ee0b45210	-1.005659940482591
227	0xbfc4f4f3bffef752	-0.16372534632494734
228	0x3fd002310fb1de27	0.2501337674397938
229	0x3fcfd942be14f38f	0.24881777077999032
230	0xbfebaa59bee4d466	-0.8645447471996135
231	0x3fb01bc33f71cd74	0.06292362498225207
232	0xbfd2c8f3ca836765	-0.2935151555699263
233	0x3fc41fa01637714c	0.15721512875360089
234	0x3fbf24abc15478c0	0.12165330381364736
235	0x3fcb83d72a249199	0.21496095235592064
236	0x3fc7763ed800f1c3	0.18329606577925803
237	0x3fc7fcbcfaf65aaf	0.1874004578973731
238	0xbfc0e0bbaf0ae220	-0.13185831114766788
239	0x3fe167619fb1ea13	0.5438697928469217
240	0xbfb70f883eaf93e3	-0.09008075266281383
241	0x3fc922955081748c	0.1963678973287738
242	0x3fc85355a6676ee9	0.19004316926190448
243	0x3fe2b2ba96cd3534	0.5843174882262816
244	0xbfe597e74923759d	-0.6747929028021421
245	0xbfd59a4a925c3f7b	-0.33754219334604557
246	0x3fd8d7e1975fc5f2	0.3881763437521776
247	0xbfece4cb03e50cf6	-0.9029288364476133
248	0x3fe4a1f2ff8d23e3	0.6447691909062282
249	0x3fe687d9ee85055d	0.7040834101282304
250	0xbfd34babb1def5ea	-0.301493571950998
251	0x3fe2bd12c832c781	0.5855802450298456
252	0xbfe152fa520746b2	-0.541379127704394
253	0x3fe4065288ae51db	0.625771777110056
254	0x3fe69a3fa34b6823	0.7063291730257827
255	0x3fe25b6e09b068d3	0.5736608685722565

input_gate_weights f8 [108, 81]
0	0x3ff079a0ccafa097	1.0296943660305595
1	0xbfecaa9c5d1b5159	-0.8958265131464415
2	0xbff159b4511f57bf	-1.0844004792065645
3	0x3ff1743c8b3c148a	1.0908780516486183
4	0xbfffbe8a2e0d91ca	-1.9840184973664798
5	0x3ff064b72d7bd16a	1.0245887543397552
6	0x3fc7104fe7baf9d9	0.18018530669173918
7	0x3fe67e55f257eadb	0.7029218419332567
8	0x3ff0fafd3d1ef1a7	1.0612766635450528
9	0xbfebde8d22c56b30	-0.8709169081806518
10	0x3fe05e5b47bbbeb0	0.5115181351702258
11	0x3fe91756d0f8e45b	0.7840990144242242
12	0x3fd887acf2f79e8e	0.3832809803702525
13	0x3fef42cd94dc96a0	0.9769046695189054
14	0xbfe23068e7292644	-0.5684093966348844
15	0x3fe373eb7acc24d5	0.6079003713977281
16	0xbfe6c695bd250de2	-0.7117413229211105
17	0x3ff052e11b83e67f	1.0202342104734325
18	0x3fe8efa28e7fdabc	0.7792523177330035
19	0x3fdf5368ffdddb29	0.48946595179534086
20	0x3fe0d9a639d1aafc	0.52656852047707
21	0xbff5728745354613	-1.3404610351029802
22	0x3ff06d6ee2a3211b	1.0267170765892562
23	0x3fc9a35b823191b7	0.20029777390585732
24	0x3fe2bdf1e312e52c	0.5856866297755565
25	0xbfe80e65fe64dc9a	-0.751757618773712
26	0x3fd9a9794b3980b9	0.40096886011270844
27	0x3fed0eae87823783	0.9080422064450747
28	0x3ff3ea71d1cba78f	1.2447374529969897
29	0xbfd569628419b0f2	-0.3345571794550458
30	0x3fed21217a061b5c	0.9102942832258623
31	0xbff2c87f8c2d9f20	-1.1739497638427068
32	0xbfa44446958473e8	-0.03958340239680763
33	0x3fffee7fe59b56f1	1.9957274407401508
34	0x3ff0db5f40938e7a	1.053557636500868
35	0x3fdb44da9ebd528d	0.42607751371296204
36	0x3fee5e3305875b9e	0.9489989383681523
37	0xbfedb87503d6d83a	-0.9287667345986457
38	0x3fe818bc52c5815f	0.753019487059685
39	0x3ff103d89e73f0d2	1.0634390058103702
40	0x3fd2961cf9e29bd8	0.2904121818814338
41	0x3fe27101fd6a0860	0.5762948941703705
42	0xbfdaac44cd41b208	-0.4167644504985053
43	0x3ff3798db11d6d26	1.217176143508206
44	0x3fe9484750cddd98	0.7900730684477137
45	0x3fe9fe6b27b31352	0.8123069548970341
46	0x3fe969d29138733e	0.7941677891099983
47	0x3fee2af0ec03eb9c	0.9427418336557483
48	0x3fdeef53f7712d1f	0.4833574215342242
49	0xbff1027363a9f0ce	-1.063098325073088
50	0x3fee9d6112118838	0.9567113259220212
51	0x3fe9714c5fa6346c	0.7950803630971115
52	0x3fe6f6c46c573678	0.7176229587582403
53	0x3fed72e2661c5dd6	0.9202739710189529
54	0x3febabd49d0bfd70	0.8647254054375662
55	0xbfc34d3137ca4e55	-0.15079322075017623
56	0xbff29c83ab2821a4	-1.1632115064440791
57	0x3fe6c82b68947dfa	0.7119347612933205
58	0x3fe48294bbcd36fa	0.6409400623321908
59	0x3ff86fa3c449c0f0	1.5272557895187298
60	0x3ff76ad6bd9e78cd	1.4635836989396467
61	0x3fc14620aced7cc7	0.13495262569174413
62	0x3fd8122d65e615a4	0.37610945654918226
63	0xbfeb0d1c2e8ef4a2	-0.8453503522247454
64	0xbff200dcad966b53	-1.125210455013719
65	0x3ff44fa88e6067bb	1.2694478570542589
66	0x3fe7b0aece8fe655	0.7403177294174365
67	0x3fe48183aa6cfd97	0.6408098534229109
68	0xbff11eb81ad094e0	-1.0699997947170274
69	0x3fe950aafd372692	0.7910971589673912
70	0x3fea361b738eb5a2	0.8191048867208119
71	0x3fecb122903cf5d4	0.8966229264403247
72	0x3ff5d62a29417619	1.3647863017607789
73	0x3fe21a2de3b64354	0.5656957099437059
74	0x3fd894dbadec8680	0.384085578773103
75	0x3fe334a82c521787	0.6001778474462619
76	0x3ff51a63f32b7eef	1.3189429758858144
77	0xbfbe335a8a91ba63	-0.11797109492338502
78	0x3ff00768ebf971d3	1.0018090455770234
79	0x3fd76998e6486fd5	0.3658201454979893
80	0x3fe9e4603feea23c	0.8091279267001208
81	0xbfd7818c999ff860	-0.3672820568316464
82	0xbfce04873ae29383	-0.23451319098708376
83	0x3fba1253b9e47f3d	0.10184214867012727
84	0xbfda8199d212d933	-0.4141602088451634
85	0xbfcdfd87aec4365b	-0.2342996219016865
86	0xbfe1b365fe7de3b3	-0.5531492205183127
87	0xbff0b745c4753365	-1.044744269765226
88	0xbfe3501fdd3dda3c	-0.6035308190465183
89	0xbfdcec0a8ca574e4	-0.4519068120478791
90	0xbfc55ac1549ade0b	-0.1668321288213835
91	0xbfe7a3efa09a77fb	-0.738761724165442
92	0xbfe723b3af5fff82	-0.7231081414501974
93	0xbfe91180ad33928b	-0.7833865530815997
94	0xbfdc3f47076caee1	-0.4413621494775111
95	0xbfdfa19b1849e632	-0.49423863765659626
96	0xbfe74e828341b769	-0.728333717690231
97	0x3fde986afa21db33	0.47805284907319673
98	0xbfdad140b9f06489	-0.4190217796145324
99	0xbfe512a317205735	-0.6585250331579348
100	0xbfe19f612e878b3c	-0.5507055195597341
101	0xbfe3cb593e3303d8	-0.6185728277997624
102	0x3fd092073a09a928	0.2589128557944087
103	0xbfdfe9f30111477f	-0.4986541281151559
104	0xbfdaa8a32d9fd989	-0.4165428109694394
105	0xbfe12fab3415430f	-0.5370689408538015
106	0xbfe277e71028ed96	-0.5771365466711582
107	0xbfe9538e1085b094	-0.7914495775890082
108	0xbfda3362b0dbb3a6	-0.4093863227015454
109	0xbfe708a6c7393d71	-0.7198060885511223
110	0xbfab4b613c2a72be	-0.05330947741933788
111	0xbfe10d99f13c1a91	-0.5329103194824986
112	0xbfea609ea2718749	-0.8242943928455385
113	0xbfe61598553198d8	-0.6901361144962506
114	0xbfd3b61063bfaf4f	-0.30798730603304575
115	0xbff2082527c6a1ee	-1.1269885591265125
116	0xbfe863926a358017	-0.7621547769922498
117	0xbfda8ed1fd2be81b	-0.4149670574548751
118	0xbfa0db0a7850d974	-0.03292114943217231
119	0xbfe621a9e98c52d8	-0.6916093408095447
120	0xbfdb41f26689e232	-0.4259000779489127
121	0xbfedc833c6364284	-0.9306887503936001
122	0xbfe656f9c43e5634	-0.6981171448594012
123	0xbfc73b688a7f838b	-0.18150049936869225
124	0xbff276c099a356e1	-1.1539922715650663
125	0xbfe2ecd7c1ab2f00	-0.591411474475052
126	0xbfde71206ede786e	-0.47565470530560716
127	0xbfdacb5ac4447b15	-0.4186617771792254
128	0xbfec85ea7f417a9f	-0.8913471684898758
129	0xbfe6771c725a9ed8	-0.7020399316288275
130	0x3fab12951512a7ea	0.05287614710080375
131	0xbfe36946d15bb2cf	-0.6066011513736046
132	0xbfe9ad7a465c2b48	-0.8024264692515795
133	0xbfdf848b9df25112	-0.4924649279066823
134	0xbfe0714a1a625933	-0.51382928040656
135	0xbfdc92a1afa2e01e	-0.4464496817777234
136	0xbf09cee0f470f7c0	-4.922508247105729e-05
137	0xbfed890295eb72b2	-0.9229748657340535
138	0xbfe255a0ae3035d4	-0.5729525949588443
139	0xbfe0aed592dcc5d8	-0.5213420742422228
140	0xbff1f7ba98ff3b40	-1.1229806877560833
141	0xbfd3769f1821a46a	-0.3041150794657087
142	0xbff0a96f4792677a	-1.0413658901001939
143	0xbfed9c28a24bd4b1	-0.9253123445365842
144	0xbfe33580bdcf74e6	-0.6002811152681289
145	0xbfd1e06e4ef96667	-0.27932317459417394
146	0xbfcb8e55fa4cd1ab	-0.21528124543841662
147	0xbfe58600160fe20e	-0.6726074629687575
148	0xbfec643b9baf8653	-0.8872354546294424
149	0x3fb8bbba5ae46f17	0.09661450118113311
150	0xbfe1e0bafa7d5972	-0.55868290828475
151	0xbfedd1345896918a	-0.9317876558530298
152	0xbfe1cb5ef4d9d308	-0.5560755522006682
153	0xbfd9117ce0357bd1	-0.3916923703708877
154	0xbfe72e75359dce42	-0.7244211241908902
155	0xbfe9be38a524fd12	-0.8044703698614362
156	0xbfe562f8023ce7e3	-0.6683311504086727
157	0xbfd1937a35e6d7fa	-0.2746263052353012
158	0xbfb24419707281fc	-0.07135161395354567
159	0xbfd95bde8a19212e	-0.3962322567572468
160	0xbff031f2e5e47497	-1.0121945362255127
161	0xbfe12ccc2462ae3f	-0.536718436303495
162	0xbfc6c6dab6d507d7	-0.1779435532317268
163	0xbfe6e2cb1e5b000e	-0.7151847451095834
164	0xbfe5d8ef9057b273	-0.6827314204397922
165	0xbfdc876ca3c27b7b	-0.4457656478133953
166	0xbff26d3a24caec8e	-1.1516667782987358
167	0xbfb49101fcc1cd5f	-0.08033764286829158
168	0xbfccf7d937c43bd8	-0.22631373618102546
169	0xbfe8954bb2e3e62c	-0.768224572558386
170	0xbfae0eaddf502b40	-0.058705743322283954
171	0xbfe7bec5f4752b9f	-0.7420377516331093
172	0xbfb028b48aa1fe5a	-0.06312111267652068
173	0xbfe13c8be7f286a7	-0.5386409311506285
174	0xbfc22ffed2e4cdb3	-0.1420897035364824
175	0xbfd43077da7b5747	-0.31545826278794603
176	0xbff3d2bc2ba3ef93	-1.2389489845945476
177	0xbfbf9c611691ff61	-0.1234799079993514
178	0xbfb6b2a17dd24d46	-0.08866319009603271
179	0x3f9e28d38074a517	0.029452614512739474
180	0xbfb4092b586ca73a	-0.07826491268920402
181	0xbfd9b83b72ae1d06	-0.40186964225036126
182	0xbf945c46cb67f3e6	-0.01988325706951235
183	0xbfe35116d51beb3a	-0.6036485826765337
184	0xbfca1c793f013377	-0.20399394585038141
185	0xbfe9cb9c8dce739e	-0.806104924169279
186	0xbfe253ab3853d730	-0.5727134800097016
187	0xbff00096162b1e24	-1.0001431337312932
188	0xbfc01442969f011d	-0.12561828951403067
189	0xbfc8535f23a43bd8	-0.19004430046376686
190	0xbfe826f122d8f099	-0.7547536545385071
191	0xbfde3977fb33e89b	-0.47225760966797176
192	0x3f6f1c29e81b0b92	0.003797609185171643
193	0xbff165d0a73800a9	-1.0873571903212371
194	0xbfee9bc4bcbde4e2	-0.9565147100794571
195	0x3fab5352ec81601e	0.05337008606937864
196	0xbfef91449d94b379	-0.9864829137564889
197	0xbfba2bdf24380def	-0.10223192819835679
198	0xbfc34d9697debef0	-0.15080530562908434
199	0xbfe43c199abbce9f	-0.6323364278927847
200	0xbfab39b740f23f41	-0.053174711874020016
201	0xbfd1e8429254f1fb	-0.27980102815834557
202	0xbfc1912ba056f7bd	-0.13724274949157503
203	0xbfe0bce67fc53fa3	-0.523059129287493
204	0xbfee5329ca798d5f	-0.9476517633997154
205	0xbfe83842acad9e6a	-0.7568677303906501
206	0xbfe1875f18098909	-0.5477748364903913
207	0xbfcb4366891a4065	-0.21299440092525682
208	0xbfcfcedb63788f55	-0.24850027424792623
209	0xbfeebf1b3ded238e	-0.9608284196375381
210	0xbfaba01455c75c8d	-0.053955684157409235
211	0xbfe4c607f83f4290	-0.6491737221313816
212	0xbfe281a666d13941	-0.5783264167928693
213	0xbfe21117995f8234	-0.5645864482467631
214	0xbfc3fb33280f9b69	-0.15610351043798268
215	0xbfd5fe3c09389a0d	-0.34364224339006527
216	0xbfa9b27bb4ccb924	-0.05018984396007145
217	0xbfd34542f9771766	-0.30110239374004377
218	0xbff43d63135da3ee	-1.2649870640254863
219	0xbfbf4e86d18e707c	-0.1222919713604273
220	0xbfe2d44bd71802cd	-0.5884150696802749
221	0xbfe90c127184e41c	-0.7827236382646592
222	0xbfb91d06ab234775	-0.0980991523568074
223	0xbfc87bce1dca1c31	-0.19127823309483596
224	0xbff06a138aa933e5	-1.0258975426142964
225	0xbff3b6b76f690b1f	-1.2321085311857087
226	0xbfec53ff3fc18e54	-0.8852535481677912
227	0xbf868f41b2458134	-0.011015427830614578
228	0xbfb1cd8353e0fc98	-0.0695421294958457
229	0xbfe7a855f8212a80	-0.7392988058357588
230	0xbfe42eaa5110b9e7	-0.6306964476878506
231	0xbfc3830f7fa27fcc	-0.15243715030828608
232	0xbfed5ff9e3447579	-0.9179658354584453
233	0xbfd768bb14abb683	-0.3657672597754315
234	0xbfcf5a543220ba31	-0.24494411895416726
235	0xbfbb1f69daf3dfca	-0.1059480819275215
236	0xbfb9a46900e842c9	-0.10016495010519146
237	0xbfe55e9cf8b09f4d	-0.6677994591927728
238	0xbfb53e953183a219	-0.08298618754236776
239	0xbfe10aedd2db9bc4	-0.5325841062848373
240	0xbfc0c967940f15d6	-0.13114638070525925
241	0xbfc5442fcf64a527	-0.16614339472406778
242	0xbfbc7f34f165266f	-0.11131602185664645
243	0x3fc68daa1d203eb8	0.17619825765767927
244	0xbfdbfe47c8cde553	-0.4373950444201757
245	0xbfd1bf7fe3fed060	-0.27731320634052814
246	0x3fede72e0b901cf3	0.9344701982344347
247	0xbfdac1c1db143d2c	-0.4180760039752893
248	0x3fe5bd4f53c684f2	0.6793591152419636
249	0x3fdbba3797b04b41	0.43324079335541305
250	0x3fe3f02cf2fc4564	0.6230683084306006
251	0x3fe5a8336006b6d4	0.6767823100578547
252	0xbfc89c3aa658f1ba	-0.19226773378785628
253	0x3fe315f25ebb572a	0.5964290476065106
254	0x3fec13c27d0b245d	0.8774120752579041
255	0x3fded4cc8cda5544	0.48173822169458824

output_gate_weights f8 [108, 81]
0	0x3fabe7334157609a	0.05449829266189106
1	0xbff04a05d65ba14a	-1.0180719731670984
2	0xbff1cacaf7d67293	-1.1120099717292404
3	0x3ff3c4dbb6c81b92	1.2355610980900775
4	0xc001ed625c7b1400	-2.2409102654514754
5	0x3ff3704eb0cf7c73	1.2149187952670928
6	0x3fed1def80135090	0.9099042417024226
7	0xbfb74d0937f21b3c	-0.09101922622549535
8	0x3ff1c24f80ae7ffc	1.1099391008974626
9	0xbff298f7e83523ca	-1.1623457975967875
10	0x3ff026ccbfed5e8f	1.0094726082951728
11	0x3fe900af83a7fa25	0.7813336917313946
12	0x3fdd2b85ac0dc1df	0.45578138162730214
13	0x3ff11c2bf779cbbf	1.0693778674146726
14	0xbfe2d22204b4e1e5	-0.5881509868550522
15	0x3fe7ff2cdcde5f5b	0.7498993219223665
16	0xbfe6e564814dca10	-0.7155020261255363
17	0x3ff43c93bc259acb	1.2647893285263077
18	0x3ff172613aa230a5	1.090424756085704
19	0xbfe245930256ab71	-0.5709929509806512
20	0x3feee955966b0bc7	0.9659831941465818
21	0xbff1d3a522025c6d	-1.1141711548314348
22	0x3ff2723ce217abd8	1.152890093969054
23	0x3fc91f7527595973	0.19627251073206828
24	0xbfdd1eb71c7df43a	-0.4549997118227257
25	0xbff467de1e2ba5f3	-1.2753583124671166
26	0x3fea6bbc0f89154b	0.8256511977603308
27	0x3ff1d51705b0243f	1.1145239088239263
28	0x3fe2437ac6d8c6dd	0.5707372554517992
29	0xbfd7636b2b601967	-0.36544303165319153
30	0x3ff1f0448b623cd7	1.1211591190984131
31	0xbff38e19a78f22c4	-1.22219243481429
32	0xbfec98a12a2c7145	-0.8936315368369284
33	0x3fed7a1616e19ad1	0.9211531111621644
34	0x3fe133b22ed4476e	0.5375605501778702
35	0x3febef1c90129019	0.8729384244838939
36	0x3ff1fb5a95c2f121	1.1238656854685092
37	0xbff1c288ba780df6	-1.1099936756080502
38	0x3ff01affe3381aa5	1.0065916896580032
39	0x3fdf4747921f0617	0.488725559898826
40	0x3feb7b0a01934b5c	0.8587694197434348
41	0xbfd488e8cc726f01	-0.32085628476646383
42	0xbfe561cadfd436db	-0.6681875583323874
43	0x3ff3d36451a7e34e	1.2391093434982454
44	0x3ff0f4a3765a1e29	1.0597262023092162
45	0x3fe99c70a8a8c641	0.8003466886640994
46	0xbfb0927d6516011d	-0.06473525731962977
47	0x3fcbdcd0c1925d1d	0.21767625285858908
48	0x3fed4b42c7c369c3	0.9154371167781438
49	0xbff180b86dda1824	-1.093925885304551
50	0x3ff8c42bc72a7822	1.547893312446384
51	0x3ff526c836857451	1.321968281720974
52	0x3fe50b9b7108ee7a	0.6576668937409089
53	0x3ff288b0888fc5f5	1.1583714804113445
54	0x3fee82aba823b17f	0.9534509929631411
55	0xbfc9c6eb3c5fb40e	-0.20138302276555503
56	0xbff7d30be98956cd	-1.4890250322836664
57	0x3ff0840498126b01	1.032230943709408
58	0xbfd0e6a61bc08eb7	-0.2640776892678604
59	0x3ff3c40bdd73a02e	1.2353628778892118
60	0x3ff6459447ba5500	1.3919871141309272
61	0x3feeec30ea801f42	0.9663319187247696
62	0xbfdd7f382665e78b	-0.4608898520451638
63	0xbff3ac685b78af9f	-1.2295917103865361
64	0xbff2c1292aa647c3	-1.1721584001538623
65	0x3ff5577c0c714e68	1.3338585363425413
66	0x3fedd78548c3a052	0.9325586720633601
67	0x3fef73a4941811c7	0.9828665630780556
68	0xbff05f223729c516	-1.0232259898005558
69	0x3fef17f2dcf1cc3b	0.9716734233210284
70	0x3feb64e99a2d1cd4	0.8560684214834517
71	0x3ff0824e29e0ca9b	1.0318128238547277
72	0x3ffd171ec75c46b9	1.818144587280058
73	0x3fead6494d14d63e	0.8386579995628336
74	0x3fe587ec431a21c8	0.672842150744196
75	0x3fefeceea08d8ad5	0.9976723800467321
76	0x3ff72499a22965d4	1.4464355787698553
77	0xbfd85a7c846e914a	-0.3805228513031308
78	0x3ff1a2667404d313	1.102148488234154
79	0x3ff31a40b55d93ee	1.193909367045531
80	0x3ff394948468c61e	1.2237744495618084
81	0xbfeb71ac1351446a	-0.8576259972852658
82	0xbfc649ce7884c7eb	-0.17412739643765404
83	0xbfcb60c9c2ab9280	-0.21389123921757758
84	0xbfdf8513a1833d1d	-0.49249735615463114
85	0xbfbdef1ce40e957c	-0.11692982261464197
86	0xbfd3737ad38b0cb8	-0.30392332705032343
87	0xbfe1e32d382097ac	-0.5589815231548889
88	0xbfe2e5a98ad84e00	-0.5905349456610907
89	0xbfd6d9edc100f102	-0.3570513138581789
90	0xbfbf3b8b64fa305f	-0.12200232711092117
91	0xbfe10240f5225483	-0.5315251148009711
92	0xbfe19902f9c84ceb	-0.5499281767428362
93	0xbfe1f2b7d74aa7ee	-0.560878677836852
94	0xbfe246a2c238da70	-0.5711225312614499
95	0xbfe98c66f75064d6	-0.7983889417984311
96	0xbfe30c9867c55055	-0.5952875162861441
97	0x3fc1d5e298ed9cfc	0.13933975665279508
98	0xbfd2f2c8d2241fd0	-0.2960683872374803
99	0xbfdcda96441bee11	-0.45084149028090886
100	0xbff0c53bdb3beb87	-1.0481527866201945
101	0xbfd395f9a46571b0	-0.3060287576134
102	0xbfe5c3479ccec31f	-0.6800878584527686
103	0xbfdea52b9f456ee0	-0.4788312011130369
104	0xbfe17cbd74dd19ed	-0.5464770586484612
105	0xbfe4d446363211a3	-0.6509123857982114
106	0xbfe4fb99307b6230	-0.6557126948274057
107	0xbfe2ba813dd8727d	-0.5852667053146231
108	0xbfd8902723c902d5	-0.38379839415214906
109	0xbfecab90391655fe	-0.8959427943215699
110	0xbfe0f21e0060460b	-0.5295553214402288
111	0xbfd72fc5107eb6e2	-0.36229063616597845
112	0xbfe67ec12ccc6b52	-0.7029729723902653
113	0xbfe9954dc7d9db2c	-0.7994755652751784
114	0xbfe3c7fd44fe434d	-0.6181627604984016
115	0xbff5524a1e31aab8	-1.332590215630871
116	0xbfd989789dbdaeeb	-0.39901557354345013
117	0xbfd8a6c205924ca0	-0.3851780943306924
118	0x3fcf144e6fe18501	0.24280720198570552
119	0xbfe31784ecc23acc	-0.5966210006898449
120	0xbfc0755680cf5adc	-0.12858086862134754
121	0xbfe4cf748fa437e3	-0.6503241353509533
122	0xbff33136f9c6df7d	-1.1995153195293533
123	0xbfdfd4f363a75de3	-0.49737248164953324
124	0xbff2e21b764a8b51	-1.1802019711255591
125	0xbfe0ec2275047f27	-0.5288250241755791
126	0xbfcc7d42e50656ee	-0.22257267172670175
127	0xbfeecbcbae1be204	-0.9623773956837458
128	0xbff42ab5a3083c83	-1.2604271286434432
129	0xbfe15daac2dc61b7	-0.5426839643360414
130	0xbfc2bc4e4446155a	-0.14637163480453347
131	0xbfd6078cfb3398a1	-0.34421085864449635
132	0x3fc58ff80f3809e8	0.1684560846625367
133	0xbfd4c2e877463d23	-0.32439624450576526
134	0xbfbae9b0b42e1f69	-0.10512833022050717
135	0xbfd32bd1485fef72	-0.2995494086060183
136	0x3fb32512743bd882	0.0747844251417025
137	0xbfea017f464e7ec2	-0.8126827595878796
138	0xbfd85285e5c3fc72	-0.3800368064693834
139	0xbfe057d103a0898d	-0.5107197829095625
140	0xbff1d6fe01e05c93	-1.1149883340165487
141	0xbfe2a488edd8137e	-0.5825848241225768
142	0xbfe20ed8d199394f	-0.5643123716088584
143	0xbfe48a5c10e7b63d	-0.6418896036318028
144	0xbfcbeed1766786ba	-0.21822565347161121
145	0xbfd30ea38cc5d1d9	-0.29776848552071794
146	0xbfd208adce76d157	-0.28177971994889134
147	0xbfe0aef25db05e32	-0.5213558034765298
148	0xbfd44e63da3df5a7	-0.31728454888055996
149	0xbfd102aeb795ab89	-0.26578872612179133
150	0xbfdc646d1f6e99c3	-0.44362953252348464
151	0xbff043f1420428c4	-1.0165875033149385
152	0xbfd7939fdfa39c85	-0.3683852848029761
153	0xbfdb40b523f9f12e	-0.4258244372683916
154	0xbfe1413016d35227	-0.539207501011849
155	0xbfe6e80499390e3d	-0.7158225052484749
156	0xbfe0e04668202c98	-0.5273773225502678
157	0xbfdef56214a3ebdd	-0.4837269975247958
158	0xbfcf4aa0380d144d	-0.24446490036840132
159	0xbfdab8d86a93cf9e	-0.41753206642101215
160	0xbfe2e789e49e9538	-0.5907639947151102
161	0xbfd8febba26fb4d9	-0.3905476652424347
162	0xbfe92ab9d4b992d9	-0.786465564230265
163	0xbfe614379e844f22	-0.6899679275543102
164	0xbff0c681ad77e56a	-1.0484635139567566
165	0xbfdab5000f5d40c6	-0.41729737759034113
166	0xbff024f73da25795	-1.0090248496612493
167	0x3fc3f3f973c5ea71	0.1558830085085279
168	0x3fd3e72de0cc78a7	0.31098505928992853
169	0xbff1fb2e69d02287	-1.123823560077797
170	0x3f99e6e03721e3be	0.02529478394032813
171	0xbfe7bea476ea1dee	-0.7420217821644977
172	0x3fbbd88656b336ff	0.1087726556463302
173	0xbfd71c80e6d1ecfc	-0.3611147169210225
174	0x3fb4ea384d38dc2c	0.0816989124804059
175	0xbfcf092c2c463b3c	-0.24246742402871202
176	0xbff67a5037dc373a	-1.4048616582908395
177	0x3fb337c01079e796	0.07506943132639629
178	0xbfde976af94bcf56	-0.4779918131382507
179	0x3fc3de2018334951	0.15521622831017592
180	0x3fb3aa86fa93fd90	0.07682078950528237
181	0xbff4cea1fcc41662	-1.3004474519415443
182	0x3fcd8c9a538aaa9c	0.23085335807021046
183	0xbff53677537e327a	-1.3257973920291577
184	0xbfc4d29af0aa57f0	-0.1626771617054028
185	0xbff26b9a3e031a25	-1.151270143732867
186	0xbfee84081c6c6f42	-0.9536171488902954
187	0xbff35b9d571d68b8	-1.2098668482708899
188	0x3faa0148859f4a5b	0.05079104071741788
189	0xbfc0fb066a80acdc	-0.13266067695926764
190	0xbff2fa1316af9697	-1.1860533605735435
191	0xbfee94e47cd80b29	-0.9556753576619929
192	0x3fbb8224fca9ee30	0.10745459717320993
193	0xbff06e95bb98a7b2	-1.0269982650738538
194	0xbff55be207af560a	-1.3349323558990158
195	0xbfd30ad428907191	-0.29753593407965534
196	0xbff6a62dfbe2238c	-1.4155711974328566
197	0x3fc4272653697cf0	0.1574447543416464
198	0xbfb8eee9e52f3477	-0.0973955330402577
199	0xbfdc7b858d588c36	-0.4450391655283882
200	0x3fb11336236b6c1a	0.06669939388977789
201	0xbfd2248c33e313cc	-0.28348069254962804
202	0x3fc9f694a97f53c6	0.20283754612196797
203	0xbff3d2c8d1e5b55f	-1.238961048041652
204	0xbff6706201a41e4a	-1.402437216196534
205	0xbfe966c5e1507510	-0.7937955284757283
206	0xbfdad720b5dd5cf3	-0.41938035736298146
207	0xbfa71dcc77ec918b	-0.04514922107617555
208	0xbfefc39337599b5d	-0.992623909097215
209	0xbff6e0747a33a386	-1.4297985814575624
210	0x3fb9274450b75285	0.09825541468246442
211	0xbfe862384b818c18	-0.7619897341468258
212	0xbfd12f397811a2c0	-0.2685073540256262
213	0x3fdc7cfbf2a1ac94	0.4451284284065846
214	0xbf755934c5fb2962	-0.005212026735259863
215	0xbfacdc1545a3b4f0	-0.056366600752747575
216	0x3f9c8d95fca8b2b0	0.027883857294159042
217	0xbfd114e1f028414c	-0.26689957096916284
218	0xbff565aefba1a467	-1.3373250798561231
219	0x3fab18e6b3afc7fc	0.05292435592117781
220	0xbfee7175e537b656	-0.9513501622111089
221	0xbfec393b71bad89a	-0.8819863530432202
222	0xbfcda8ea54e830ba	-0.23171738763665478
223	0x3fd23933523c5f2f	0.28474123984186667
224	0xbff6c99ff2e4974f	-1.4242248046879984
225	0xbff238ad88ca51ac	-1.1388373702403483
226	0xbff1e6905135333d	-1.1187899753742407
227	0x3fa0f247a70e8353	0.03309844888941051
228	0x3fc123d28f7317c4	0.1339057159840974
229	0xbfd48d659dd73e13	-0.32113018430843104
230	0xbff10419531c2d37	-1.0635007139670287
231	0xbfabc414ac129d99	-0.05423035240647351
232	0xbfee59076830c186	-0.9483677897424492
233	0xbfc6e414488cf9ae	-0.1788354257823363
234	0x3fc27ad39796cbbe	0.14437336828049568
235	0x3fbd54b1d633dde1	0.11457358817630549
236	0x3fbcdbad23461987	0.11272699462106149
237	0xbfde197226950b09	-0.4703030945567411
238	0xbfbe72b404fd5f73	-0.11893773195094841
239	0xbfdc5a7f1904bf51	-0.44302346652238095
240	0xbfbc494a6d95ab51	-0.11049332785993939
241	0x3fd283a17f7cc6e9	0.2892841095918884
242	0x3f862b9b1fc0b7b0	0.010825359255331651
243	0x3fc2f0bb90929729	0.14797157820901788
244	0xbfe1fc849a786cd8	-0.5620749489784442
245	0xbfe49621071c2827	-0.6433262957446048
246	0x3fef784345c5f597	0.9834305155524586
247	0xbff4c12932bb0043	-1.2971584302577106
248	0x3fe774596b18e9f9	0.7329527942413839
249	0x3fe937aab33c10ea	0.7880452633549144
250	0x3fd5f9fc6656d3ac	0.3433829306989604
251	0x3fe495313eb9ea8f	0.6432119584199699
252	0xbfe2d51bfc422f24	-0.5885143210339021
253	0x3fe9ce6d2f576b99	0.8064485478056326
254	0x3feac3377679820e	0.836330157657416
255	0x3fe3dde043480eb3	0.6208344759074492

gate_gate_weights f8 [108, 81]
0	0x3feb056c451c0e05	0.8444119787022265
1	0x3fe5bfcb7d0d3f6f	0.6796624605576492
2	0x3fb00163959f5040	0.06252119448555593
3	0x3ff92ac153591e31	1.5729382758889978
4	0xbfd5ff758041867e	-0.3437169792651743
5	0xbfce56cb22fb7323	-0.237023727494397
6	0x3fced4f3fe591c94	0.24087381285992093
7	0xbffc53632763ffbd	-1.7703582323738225
8	0xbfdd9c67b6fe9425	-0.4626712119155079
9	0x3fee4f22735e7063	0.9471599820422053
10	0x3fd8d334c3d68dd4	0.3878909981233083
11	0xbfdc0964026ab89b	-0.43807316051505446
12	0xbfb8d5fac643f957	-0.09701506939379577
13	0xbff3dea333f84ea5	-1.2418548612667248
14	0x3fd806934256851f	0.3754013202506758
15	0x3fbf2f801793162c	0.12181854796934805
16	0xbfe4d4cced73e9e3	-0.6509766233205564
17	0x3fe0653d659362f0	0.5123583778286882
18	0xbfd59ec9aefab996	-0.33781663978415943
19	0x3fe58fd8c1e0d642	0.6738094126400898
20	0x3fd1a2643eed50ab	0.2755365957757571
21	0xbfb265258ee829a2	-0.07185587634027127
22	0xbfe915a28969bcce	-0.783890980133856
23	0xbfe101dd770cc4ae	-0.5314776730721371
24	0x3fe64f1496cf72b7	0.6971533723368201
25	0xbff32c149601548d	-1.198261819799231
26	0x3fc7ea47ae167416	0.1868371582067147
27	0xbfe703c8f51bebe8	-0.7192120349203579
28	0xbff3a5cd8d3b8a84	-1.227979232492232
29	0x3fe445f3ebdb1658	0.6335391623076232
30	0xbfde262964422a08	-0.4710792044722045
31	0x3fe13b283c737604	0.5384713345226264
32	0x3ff9fbc3df7367a3	1.623966095785797
33	0x3ff122da1fef9ec2	1.071008801221908
34	0x3fd3bc3bc9ac48c3	0.30836386389377085
35	0x3fc4c1ac82becce5	0.16216045745895893
36	0x3fe8aa6d894b50c1	0.7708041841056216
37	0xbfe6178a56df99dd	-0.6903735825297265
38	0x3fc7c543194cc2a4	0.18570746169418328
39	0x3fddaba592dc7e58	0.46360148755954844
40	0xbfd126c51d363f45	-0.26799133160328764
41	0x3fdd544facdf0799	0.4582709491916091
42	0xbfe7ca76ca1aef3c	-0.7434648463599625
43	0x3fe6438e5b91123b	0.6957465923702054
44	0x3feddf31df08888a	0.9334954601402086
45	0xbfc186760e0c0f3c	-0.13691592870611113
46	0xbfed36094740679b	-0.9128462211258354
47	0x3fdbd85c79d34fa2	0.43508064171805405
48	0x3fd577d130d3a2ce	0.33543805855019293
49	0x3fee8a6d8f227d2b	0.9543979449844405
50	0xbff064e40f59577d	-1.0246315574235887
51	0xbff4d3b8443475cf	-1.3016894020323553
52	0x3fb017b79e818693	0.06286189670347601
53	0x3fd8934840a8d397	0.3839893943252774
54	0x3fd314ce1a27e78f	0.2981448417118537
55	0xbfc985d01e0e73ed	-0.19939614741897974
56	0xbfd72e6440797b29	-0.3622065190920006
57	0xbfd272d28ab0a59b	-0.2882582048792643
58	0x3fe9f1c76ca9978d	0.8107640383066027
59	0xbfe7dad78d7baee2	-0.745464111646893
60	0xbff5d7c373fde90d	-1.3651766329699655
61	0xbfd16af673129058	-0.27215348470258993
62	0xbfe187f81d5c006d	-0.5478478024888439
63	0xbfd6ffd2920dc2f8	-0.3593641687685216
64	0xbfa9dbd43b5a320a	-0.05050528740421008
65	0x3ff23e9a7c6c8033	1.1402840481096177
66	0x3fc6754a4cec4f58	0.17545441394815486
67	0xbfb43ffd678884ce	-0.07910140779178507
68	0xbfce1b269cce1497	-0.23520357758039687
69	0xbfd3b6fdf5f1f5ac	-0.3080439473922876
70	0xbff37eaae3e6ed68	-1.2184246923851223
71	0x3fe153c86b68a581	0.5414774034335751
72	0xbffe47e84be959be	-1.8925555196088761
73	0x3fc8c438f4a106c5	0.19348823494697434
74	0xbfc5a69c95e4fdba	-0.16914708441798415
75	0x3ff95ed28f491014	1.5856500241361617
76	0x3ff308deecde0589	1.1896657230975924
77	0xbfba8cd0f723232d	-0.10371118577598955
78	0x3fe82707ee79bf76	0.7547645242429855
79	0xbfd82c0950e5c792	-0.3776877679839511
80	0xbfe0fee39f0e8735	-0.5311143976761971
81	0xbff03724940bcb68	-1.0134626181649882
82	0xbfeac96f7fa433eb	-0.8370892994877271
83	0x3fdd2b836e64f736	0.45578084736540647
84	0x3fd0a41b410550f8	0.2600162634819436
85	0x3fe90ba8a67ec988	0.7826731922016714
86	0xbfcf1ab504ec8b2f	-0.2430025362055743
87	0xbf93e2223e6d016a	-0.019417319355171804
88	0x3ff190c36022cfbf	1.097842574626142
89	0xbfcd5f1c73fb816f	-0.22946506179051648
90	0xbfe79fe07cefebb9	-0.7382662239245895
91	0x3fb375f80136bd17	0.07601881055483194
92	0xbfe17d77d8efd58c	-0.5465659367607016
93	0xbfbcb381f7d02810	-0.11211406993984974
94	0xbfe4fe06432d199e	-0.6560088455233204
95	0x3fe99eac75d9fcea	0.8006193448817644
96	0x3fbd440a886c333b	0.11431947546607273
97	0x3fe79f6f3f3a4a10	0.7382122263828155
98	0x3fd437682148a32a	0.3158817601238747
99	0xbfbfdb4276ad9433	-0.12443938634312772
100	0xbff8041ad5757ae6	-1.5010021532286202
101	0x3faea7b1fa0aa14f	0.059873163006445844
102	0xbfb2319e910cd19e	-0.07106963197003899
103	0xbfd5ea5789c7c116	-0.34242809729677626
104	0x3fb828ecd9fdecc1	0.09437446901385994
105	0xbffb01b9c391063c	-1.6879212989155254
106	0x3fdf2ec736fd8452	0.48723011369844926
107	0x3fbb80ebeb1c27e3	0.10743593683233103
108	0xbfd4c2ca2b421c3e	-0.32438902115285717
109	0x3ff0d720977086d0	1.0525213161094378
110	0xbfd7435a50305628	-0.36348588782252245
111	0xbfd18dc12af6e62a	-0.27427701183077835
112	0xbfee2083570d2814	-0.9414688778135791
113	0xbfe2a99ad5bbf0e0	-0.5832037138457302
114	0x3fe775728e9bd2a0	0.7330868516279061
115	0xbfedd68ec669932f	-0.9324411273233632
116	0x3fb326e82cd5c19b	0.07481242270092141
117	0x3fd2736c52df6209	0.2882948693564065
118	0x3fee740520541b82	0.951662600652398
119	0x3fce5eea450652c7	0.2372715794596358
120	0xbffdcdbe5c13a1e2	-1.862730369257513
121	0xbfb016a665096757	-0.06284561125485531
122	0xbff3f830635f0e1d	-1.2480930215541612
123	0x3fb71dcda92d8417	0.09029851322476677
124	0xbff03ec2fb2f5ed3	-1.0153226673045779
125	0x3fe0dd0b69352a23	0.5269829802358043
126	0xbfcca6d226d7ee6f	-0.22384097000746148
127	0x3ff26abb7edbe900	1.1510577159338595
128	0xbfe717e28005e9d1	-0.7216656208468583
129	0x3fc02c58621568ce	0.12635330952873008
130	0xbfd2cb0a51357898	-0.2936425965361962
131	0xbfdce2ef7575cf66	-0.45135103674623733
132	0xbfe8e5805c9c7656	-0.7780153092205164
133	0xbfc24d349dcd681d	-0.14298112588113635
134	0x3fd21dccb7070e7a	0.28306882737908945
135	0x3fc654f9cdfbeb5b	0.17446825559440068
136	0x3ff6b854559e335b	1.4200023025943753
137	0x3fe549998b652ff6	0.6652343485416157
138	0xbfcd03f73f5c3636	-0.22668352693328736
139	0xbffbfdccb050ef2c	-1.749462784514388
140	0x3fea3043576a217c	0.8183914859119308
141	0xbfdbc6c44ae94580	-0.43400676074551114
142	0x3f8d9a55394eb664	0.01445452290667077
143	0xbfea0472f209ccc9	-0.8130430915174652
144	0xbfdf0896f835cd51	-0.48489927520059434
145	0xbfc75358274fdb92	-0.18223096770790598
146	0x3fe1351c791505e9	0.5377333035359558
147	0x3fd12187caa5c2f8	0.26767153539462596
148	0x3fd43a41f758b460	0.31605576662952295
149	0x3fa4a97c21adf350	0.040355567084566446
150	0xbfc2b96253636b7a	-0.14628247329423144
151	0xbf620a8f2ea5c017	-0.00220230069424333
152	0x3fd64cdcf6fba981	0.3484413539832972
153	0xbfef6c8fec06b9d9	-0.9820022210968161
154	0x3fc56023b87507a1	0.1669964457196871
155	0xbfc1837573dabead	-0.136824304170195
156	0x3fda5b655a629d60	0.41182836367302933
157	0x3fe209a164da593e	0.5636755914481808
158	0xbfba927baa4cf487	-0.10379765422563213
159	0x3fd8c18be329c8e6	0.3868131369009816
160	0x3f9530f2c847f83e	0.020694535707655108
161	0xbfc9d6cf2cc01a7e	-0.20186795888021786
162	0xbff5c8adef5a3ac3	-1.3614940023141322
163	0xbfb201cd7eb08627	-0.07034000723845023
164	0x3ff23669fd049ab9	1.1382846721186708
165	0x3feba6de8e19a453	0.8641197944063016
166	0x3fcd462a0c0cf9d5	0.22870374287044962
167	0xbfd3f1fe68125ae8	-0.31164512789966503
168	0x3fc4f1aa9f3a7f13	0.16362507605389762
169	0x3fe04872bee198ed	0.5088437774800504
170	0xbfd7ad6bcdf67074	-0.3699597846368825
171	0x3f9a581f6d212e7b	0.025726786647551663
172	0x3fd06328140ecb59	0.256052035892187
173	0xbfe345f737481cf2	-0.602290733310751
174	0xbfc9001bfe88e2bb	-0.19531583717777842
175	0xbff12e6d66ca6623	-1.0738348021753914
176	0x3ff4f2d0f0e38dae	1.3092812928888224
177	0x3fcffd4cbb91812e	0.24991759451496293
178	0x3fda7b0258a8d317	0.413757883626475
179	0x3fde9547b5ff0536	0.47786133549751086
180	0xbfd1b68b7fb3353d	-0.27676665754991686
181	0xbffc7f3a85f196aa	-1.781061671464537
182	0x3fce0ce812b541b4	0.23476887620428288
183	0xbfe7473a4547e902	-0.7274447777884065
184	0xbfe215682668da1b	-0.5651131391703673
185	0xbfd4afab76da6f67	-0.3232220326115027
186	0xbff74d8630f033f2	-1.4564268027927452
187	0x3fe77f36ec58b35e	0.7342791191236804
188	0x3fcf090ad22f8128	0.24246344817130105
189	0xbfddc59732aa4982	-0.4651849741723241
190	0x3fead24e5f52348d	0.8381721364727511
191	0xbfacc5205e903a26	-0.05619145540559982
192	0xbfd7ff5b2ccea44f	-0.3749607026644001
193	0xbff577b58a89328e	-1.3417258655128168
194	0xbfe2ea9ea705d75f	-0.591140104500237
195	0x3ff8af00bfb4520c	1.5427253235294556
196	0xbfef0f8cb4128919	-0.9706481473006391
197	0x3fcb644603bbb3b9	0.21399760420118044
198	0x3fe0082a37f938b2	0.5009966939194526
199	0x3faa471cbf5d3f0a	0.05132379375447556
200	0x3fd64ca369ae958f	0.34842763252739756
201	0xbfffffb974fab242	-1.9999327249053214
202	0xbfcff1c7fe84bfa9	-0.249566077496181
203	0xbff75c7fcf3f54c0	-1.4600828261948635
204	0xbfdec27ba02a9064	-0.48062029496418845
205	0xbfea73081abbd00c	-0.8265419504300566
206	0x3fe654df1b3eddfd	0.697860291685117
207	0xbfd3614a49349fba	-0.3028131213090962
208	0x3ff7544faaee22f3	1.4580837895356893
209	0xbfe9178f9bf98f3c	-0.7841260954269056
210	0x3fd2523177c05221	0.2862666768499214
211	0x3fe64574ce30289a	0.6959785487281522
212	0xbfdfe3b8ab5a2cd2	-0.49827400907152
213	0xbff002d1c50b714e	-1.0006883332308294
214	0xbfcc6bb6d815ddef	-0.222037177572687
215	0x3fd5ca9a692fde91	0.34049091598669984
216	0x3fd1d7cc4325b898	0.27879625851972767
217	0x3ffa0c4d17eaca0a	1.628003209520673
218	0x3ff6dae56645e3fe	1.4284414286651095
219	0xbfd4d0836ebbf458	-0.3252266484631199
220	0xbff7e0aa3d4fcb66	-1.4923498530376604
221	0x3fe2ee6828b8e1c9	0.5916024012904525
222	0xbfe970def2d239b6	-0.7950281851388386
223	0xbfc2683fbd43d7c3	-0.14380642644363037
224	0xbff04c32e032a7a9	-1.0186032064179733
225	0xbff7ef546105b94a	-1.4959300794540291
226	0xbfe8c0afe3052b08	-0.7735213693607372
227	0x3feabf5fb85e1e24	0.8358610726290334
228	0x3fd735ab99077608	0.36265077537777346
229	0x3fd32b9a5736cdb7	0.29953630940436987
230	0xbfe6d42821ec7a21	-0.7133980429242152
231	0xbfd250f75f942332	-0.2861917909036037
232	0xbfdaa9bdfd33c5bf	-0.41661023833065863
233	0x3fdd0b8ea2bd600b	0.45383039372018236
234	0xbff3928e0949c069	-1.2232799876037694
235	0x3fd49cb5076c6881	0.3220646450514622
236	0xbfd11bc0bba8bfcb	-0.26731890035716493
237	0x3ff0fa9d53d84673	1.0611851954639888
238	0x3fe9865ddbd0da39	0.797652177169602
239	0x3fc123c531c7fa0b	0.13390412264557514
240	0x3fe35d6ad7a0c950	0.6051534854398515
241	0xbfce3b93903d4717	-0.23619312804162781
242	0xbfd706e37272343b	-0.3597954385412014
243	0xbf9f974b63e51727	-0.03085058018884648
244	0xbff20b7501d50fe6	-1.1277971335957715
245	0xbff0ce50c7acf7f0	-1.050370006545105
246	0x3fcd8fcc6ef0d369	0.23095088402774458
247	0x3ff1eb896ffe4171	1.1200041174634772
248	0xbfce74d12522392c	-0.23793997109573561
249	0x3fa1220df20bd8b4	0.033462940022148585
250	0xbf96240b753cecfd	-0.021621874838484868
251	0xbfd0c01a349c7f41	-0.2617249978811636
252	0xbff393af99838009	-1.2235561367633656
253	0x3fad649c6010c493	0.05740822479891352
254	0xbfe249a49265a59f	-0.571489606792216
255	0xbfb89493cafcf743	-0.09601710992589312
