balderdash_lstm/lstm_model/models/lstm_model_1.npz (npz, 903256 bytes, 19 tensors)

forget_gate_weights f8 [108, 81]
0.4499546224378426 0.04421940431957868 0.16039023569217517 0.4965219464243605 -0.6407807902303927 0.44872673350596676 0.45442715957558405 0.3895658269747442
0.4973261513129434 -0.02706581212260155 0.46190054292617133 0.4967203118533459 0.46276233729625016 0.47520031383537786 0.3986293953275002 0.45936225425329674
-0.01742055028599081 0.4903179013095828 0.4607516465195602 0.4035422522748733 0.46115234676243844 0.22783796287059133 0.4820469030268903 0.36353884361962163
0.38094239706613914 0.2953848454508931 0.46952201619774026 0.47417443114766206 0.4497649459781452 0.2475197956606298 0.459980239557084 0.23319227964131178
0.32149372444213137 0.4710445329307747 0.4638412068297729 0.474397086504965 0.48628536798928756 -0.05748276033617284 0.48212639220025966 0.39076292038642263
0.4567256929253519 0.4437324100415538 0.30396515627433396 0.45349727625552483 0.48878718422406203 0.4680391854793468 0.4246502577737583 0.4812273928594648
0.4633571771819992 0.10042384140469898 0.4803040161958666 0.49071304659813486 0.43919116029209243 0.4708108556773499 0.47601471064082046 0.3898278599920173
0.22808931183250902 0.46210990204736097 0.38271794417812743 0.46987066125861005 0.48016240189081105 0.45148613959223005 0.48493279222819474 0.1329367617103399
0.19586307547613563 0.5084591760521947 0.47550271944758055 0.49779656950570456 0.17070273819835266 0.47556137159352435 0.4815961740737384 0.47696718911361585
0.4917031338095516 0.45594163573152974 0.47612961954402694 0.5010258535632862 0.4985230558031726 -0.25542067591843287 0.47385551127128706 0.4751542197230671
0.4709174257968849 -0.43053085237051536 -0.3144680552661608 -0.32392135325718197 -0.4516826727055165 -0.17351569536102257 -0.4506302259182728 -0.46248021693879215
-0.3885696747428637 -0.46723157001535914 -0.34652812679140216 -0.4483970615290485 -0.47002712717095435 -0.48062257843900336 -0.446443329319898 -0.43789999587167594
-0.45479277867973616 -0.34676663118131335 -0.4474202888104642 -0.466061693227503 -0.3984549302911325 -0.4543708221263689 -0.3373421406145197 -0.4400968844558661
-0.4481361528976665 -0.4025759768980124 -0.3425953472214566 -0.4704211180305251 -0.4401568865690285 -0.4241124294564138 -0.4342131695327587 -0.45212227718974524
-0.18822135322977218 -0.372067409867239 -0.44327180661909044 -0.4466401475337675 -0.445152571762216 -0.44598131818871245 -0.2605568523470725 -0.46391904106572307
-0.3923758092334984 -0.4664704018656228 -0.4157561707400354 -0.41055370660939455 -0.44939199320041234 -0.4303769695080849 -0.4562415777746813 -0.41702670796776314
-0.44986134316666015 -0.4649952328537585 -0.3083185729202812 -0.46710124858720514 -0.489449759132883 -0.4721373683356549 -0.467070461207236 -0.46194497920320243
-0.40283524210781724 -0.33091910834523836 -0.4624897993307715 -0.40192336300221604 -0.4356714019446179 -0.4431147561463045 -0.4613412222156799 -0.4750221804081158
-0.33142948637518926 -0.3422395341091296 -0.4576609254034147 -0.4676336897876252 -0.4829010673112207 -0.31735232897434756 -0.4846728748996246 -0.4294760793214397
-0.4442626221329672 -0.4451253444874615 -0.46473977392577553 -0.4700023006100616 -0.4618711261821781 -0.4436466883188561 0.21921047308260477 -0.4396525931822601
-0.44911437401730375 -0.4362062894045328 -0.43456492202896146 -0.4830004727001334 -0.40334210967246936 -0.4105869087387704 -0.3545710780082628 -0.4230044480852994
-0.4216649157546712 -0.40991061634144743 -0.44768376784151914 -0.5225231919282194 -0.43138857973644834 -0.459165705177756 -0.44046821980839623 -0.42046980108857707
-0.4471831226339783 -0.4239425855810776 -0.5065180220484243 -0.4178694971768811 -0.4317814478849832 -0.401595119914396 -0.41517125449375497 -0.4217893744030825
-0.41985806019032124 -0.4815491052338064 -0.41192090787348223 -0.34747380679802287 -0.44524655982475364 -0.40875737817541496 -0.4307034622358279 -0.5530489602517732
-0.42838672156588814 -0.18201808314349874 -0.36068181374328656 -0.4844481170936156 -0.44249596789807866 -0.43265675031055145 -0.41474964820386534 -0.5032129197916307
-0.4420680129439434 -0.3995146564392512 -0.41435648458933183 -0.4506871620831095 -0.5152113312344316 -0.4253783152452794 -0.44032815584528373 -0.42252585088638156
-0.44565712217689235 -0.45149461400716917 -0.4289869629889109 -0.4222215659666706 -0.43660920130700437 -0.47177218621379396 -0.43913376131028503 -0.43394828725325485
-0.42190932052680175 -0.4011571699715604 -0.45773790719695434 -0.43292450699641166 -0.4052546679855483 -0.42830887528747486 -0.41139912278741125 -0.42951067697125095
-0.4939932662176516 -0.5434846655207534 -0.4639070682718808 -0.4303965298873942 -0.44332114382981525 -0.4600888006780362 -0.4262510236246407 -0.43430605188028937
-0.4189037211814388 -0.4253879034845514 -0.41820378786633267 -0.4188673292483848 -0.4269675224980853 -0.45393228414432724 -0.4342116219947963 0.13479836938020673
-0.42646593430762453 -0.4164875522928526 -0.4060558269833746 0.37233901774882355 -0.13684684803287583 -0.026044681676173888 0.40505051702845185 -0.42199469877737616
0.425668689573118 0.43352849859692016 0.3842324624717196 0.40475818531400076 -0.2002291017820456 0.4110057727854766 0.3893636205359525 0.4109508698643069
00000000: f17d 0379 0ecc dc3f fb68 cdfe eca3 a63f
00000010: d1a3 72d0 aa87 c43f 9de3 68fc 03c7 df3f
00000020: f139 3eb7 4681 e4bf 2ff0 4f55 f0b7 dc3f
00000030: c5a4 32a7 5515 dd3f e4b9 9f81 a5ee d83f
00000040: bb6a d510 31d4 df3f 0c01 a0e7 23b7 9bbf
00000050: dcd7 774b c78f dd3f 95d1 aafd 43ca df3f
00000060: b081 20ec e59d dd3f 5a33 be93 ae69 de3f
00000070: c0f9 09de 2483 d93f 4939 c2f0 3066 dd3f
00000080: 4dd0 0657 b1d6 91bf 2327 b155 5e61 df3f
00000090: 674c 5879 f47c dd3f e8c8 04e2 a2d3 d93f
000000a0: 6e5f f421 8583 dd3f 8081 a85b cb29 cd3f
000000b0: 73de e840 dbd9 de3f f400 0b6d 3844 d73f
000000c0: 3fc5 4338 5c61 d83f b784 bcd6 95e7 d23f
000000d0: cc8f 1412 a60c de3f 2f3b 98b6 df58 de3f
000000e0: f840 77e9 f2c8 dc3f 0dcd bc89 baae cf3f
000000f0: 0c0d 6df5 5070 dd3f 829b 5e9f 3ed9 cd3f
00000100: bf48 166a 5a93 d43f e96c f9f7 9725 de3f
00000110: 3abf 7707 93af dd3f 05d1 f698 855c de3f
00000120: 6063 02aa 4c1f df3f f190 745f 616e adbf
00000130: 2c78 c2a7 28db de3f 0f25 e37a 4202 d93f
00000140: 6ade 9666 fe3a dd3f 6770 539f 1c66 dc3f
00000150: 4498 5445 2a74 d33f 72ec 9570 1906 dd3f
00000160: bf8f bc0a 4a48 df3f 6356 b8a0 5af4 dd3f
00000170: ac14 5846 782d db3f e453 91fa 6dcc de3f
00000180: a244 97dc a4a7 dd3f 4266 927a 60b5 b93f
00000190: 86b7 6c0e 4dbd de3f 4402 b7b1 d767 df3f
000001a0: ad65 893d b51b dc3f 861a efda c321 de3f
000001b0: a680 a767 0677 de3f 7c10 6f8d f0f2 d83f
000001c0: 84a2 71d3 0732 cd3f 1de0 1c69 3593 dd3f
000001d0: 2498 7567 737e d83f f328 dd64 5c12 de3f
000001e0: 2cf3 3815 fbba de3f bc56 091f 26e5 dc3f
000001f0: 2032 d88c 2309 df3f fab3 fd61 1204 c13f
00000200: 5efd d48f 0a12 c93f 5bd9 8f2d 4c45 e03f
00000210: 55ee 4bf5 a26e de3f a9a1 8524 e6db df3f
00000220: 4325 f35a 96d9 c53f b90b 8ff6 986f de3f
00000230: a3a0 61c2 78d2 de3f 8583 a063 a186 de3f
00000240: 0760 c36b 1078 df3f af81 96d3 252e dd3f
00000250: 1f4e 265e e878 de3f 5127 f05e 6708 e03f
00000260: c480 3e3f cde7 df3f 3aae 72f6 cf58 d0bf
00000270: 6121 fc10 a653 de3f 0f16 913e ed68 de3f
00000280: 1081 bad7 8223 de3f 6c6c b646 d18d dbbf
00000290: f94f 409f 3e20 d4bf 5ecd ada0 20bb d4bf
000002a0: 072a dc70 5ee8 dcbf 8e8a 7526 c335 c6bf
000002b0: df1d ba28 20d7 dcbf 6a24 b39f 4699 ddbf
000002c0: af3a 4f57 53de d8bf 1dfb 373e 1fe7 ddbf
000002d0: 4ba5 ed4e 842d d6bf e1f1 b896 89b2 dcbf
000002e0: 3ba7 dba8 ec14 debf 7a57 0734 85c2 debf
000002f0: 8190 bc0a 8792 dcbf 16fe 4bb4 8d06 dcbf
00000300: 51bb b82b 531b ddbf 3424 11ab 6c31 d6bf
00000310: 1980 00b5 88a2 dcbf 1427 956c f4d3 ddbf
00000320: a5f1 a11b 4980 d9bf 5485 525b 6914 ddbf
00000330: b220 607d 0397 d5bf cbcd 731f 8c2a dcbf
00000340: 6a72 3642 43ae dcbf 68a9 bb07 cec3 d9bf
00000350: a7fc 0409 15ed d5bf b47c 522d 611b debf
00000360: 0a15 3bca 872b dcbf f4e9 9575 a824 dbbf
00000370: 58af a808 26ca dbbf 13ac 9446 92ef dcbf
00000380: 24ef 4326 a317 c8bf cd61 52d3 f3cf d7bf
00000390: b9bd 2ab6 905e dcbf cb3d af8e c095 dcbf
000003a0: 98bc 5c36 617d dcbf e0d6 0f3a f58a dcbf
000003b0: 8414 e5a5 f6ac d0bf 119d 577d d9b0 ddbf
000003c0: f18f 196d af1c d9bf 2126 24ac a6da ddbf
000003d0: bf12 1cc5 bf9b dabf 35e4 c80d 8346 dabf
000003e0: 5652 78a2 d6c2 dcbf ba48 3fd8 4b8b dbbf
000003f0: 5788 e7df 0f33 ddbf ebec 11ca 90b0 dabf
00000400: 06ab 283b 87ca dcbf 6fc7 795d 7bc2 ddbf
00000410: b649 dcd2 7dbb d3bf 7a94 a6a2 fce4 ddbf
00000420: 1cb1 2015 2553 dfbf 3827 0ea7 7f37 debf
00000430: 8703 f480 7be4 ddbf 78aa 8eac 8190 ddbf
00000440: 55e0 a177 0dc8 d9bf c1b6 fd56 c72d d5bf
00000450: 38fe b6d0 6e99 ddbf 53f1 e5c4 1cb9 d9bf
00000460: 0be5 c94d 0ae2 dbbf 457f 81fe fd5b dcbf
00000470: 05a2 6d55 9d86 ddbf db8e 6e6e c366 debf
00000480: 4556 3a05 2436 d5bf 4168 99a5 40e7 d5bf
00000490: dbf1 d00c 514a ddbf 7c52 09db b5ed ddbf
000004a0: 3188 d3e0 d9e7 debf bb45 9024 804f d4bf
000004b0: a1f0 bc60 e104 dfbf 8664 c63c 897c dbbf
000004c0: fa5c 397e cc6e dcbf bd70 4c03 ef7c dcbf
000004d0: 4d58 8ae4 4bbe ddbf f58e 8a87 8414 debf
000004e0: 43d3 7ae9 4b8f ddbf 6cb9 5314 b564 dcbf
000004f0: 084d 6aba 160f cc3f 0b71 54a1 4423 dcbf
00000500: 5b57 2437 4abe dcbf a353 d3c8 cdea dbbf
00000510: 7e9a 0664 e9cf dbbf 79c6 8cd0 7ae9 debf
00000520: 4b25 896c 5bd0 d9bf 69b8 4c50 0e47 dabf
00000530: fec9 09e4 4ab1 d6bf 63b0 a53f 8112 dbbf
00000540: b35c c2d7 8efc dabf e40f debc f93b dabf
00000550: 9514 75d1 d9a6 dcbf a676 978e 82b8 e0bf
00000560: f17f 75d8 de9b dbbf 34ba cb8d f862 ddbf
00000570: 1c48 c09d a130 dcbf 5963 282b fae8 dabf
00000580: 5e4f c2f5 a59e dcbf 47f4 1c15 e021 dbbf
00000590: f90a 7148 6535 e0bf 09b9 17b4 5fbe dabf
000005a0: bedf 6ba7 4ea2 dbbf 6efe 9004 bcb3 d9bf
000005b0: e18e 1274 2a92 dabf 7423 37dc 98fe dabf
000005c0: f8ae 5e57 f4de dabf b96c 9956 b3d1 debf
000005d0: 2cbc f682 e95c dabf 1e81 1ac7 023d d6bf
000005e0: 0fa5 466d eb7e dcbf 6fc6 d0b4 1429 dabf
000005f0: 24eb 2441 a590 dbbf 0cc8 abbb 93b2 e1bf
00000600: 29a2 ca23 b06a dbbf 47e3 3059 5e4c c7bf
00000610: 3085 922c 6915 d7bf a7a7 e1ac 3201 dfbf
00000620: b8fb ae9b da51 dcbf a58e 3ef0 a5b0 dbbf
00000630: f109 c41b 428b dabf 4fc0 2dfb 511a e0bf
00000640: 9cec 8ca2 d74a dcbf fe78 ebeb a591 d9bf
00000650: de96 8c0f d184 dabf b9ef 77f7 0ed8 dcbf
00000660: b7c6 4579 9c7c e0bf c7fc 19f8 6539 dbbf
00000670: 5643 3725 562e dcbf 9761 d1dd a90a dbbf
00000680: b0ab 3e73 a585 dcbf a4c7 5eaa 49e5 dcbf
00000690: b0a7 1cbc 8574 dbbf 5489 5f9a ad05 dbbf
000006a0: cbc2 2fb8 67f1 dbbf bbd7 bcf7 8331 debf
000006b0: d06a d97d c41a dcbf be1b 7a09 cfc5 dbbf
000006c0: 8e92 62f3 8f00 dbbf 695c 651f 8fac d9bf
000006d0: c939 63ef 934b ddbf cdef cbfd 08b5 dbbf
000006e0: 3627 6346 b1ef d9bf 508f fca0 6969 dbbf
000006f0: b966 7efc 5c54 dabf 3df5 b759 1a7d dbbf
00000700: 9856 b6ee 959d dfbf 9740 09f4 3964 e1bf
00000710: 161a a745 a7b0 ddbf 5c68 0be3 9d8b dbbf
00000720: a8f5 97a5 5f5f dcbf f9c0 0a4c 1872 ddbf
00000730: c1ad 965f b247 dbbf 5af7 519c abcb dbbf
00000740: 2868 a98d 51cf dabf 3921 652f 8e39 dbbf
00000750: 07c0 fcd1 d9c3 dabf f304 1fea b8ce dabf
00000760: c356 6596 6f53 dbbf d9e6 bffe 390d ddbf
00000770: 5db0 008b 1fca dbbf 0c64 05ae 1241 c13f
00000780: b165 2dc6 374b dbbf 347d 1268 bba7 dabf
00000790: e29a 4f94 d1fc d9bf a961 1008 67d4 d73f
000007a0: 3452 6e90 3284 c1bf fab5 2200 75ab 9abf
000007b0: aa5d f700 59ec d93f 9063 950d f601 dbbf
000007c0: 3674 29e3 273e db3f 71e5 d650 eebe db3f
000007d0: 522a 18c1 4397 d83f 7090 2de0 8ee7 d93f
000007e0: 6d40 ee71 1ba1 c9bf 4d2c 2528 eb4d da3f
000007f0: 7c0f 1d64 55eb d83f e71d 95e0 044d da3f

input_gate_weights f8 [108, 81]
0.5427656370972213 -0.08623636878524417 0.05459252815602754 0.5462601174287383 -0.6676528521314857 0.47288577923153347 0.4563586506452704 0.559425605728855
0.4989523466345311 -0.14007406140480796 0.48300902037984755 0.49320268982175786 0.46379522085389396 0.5273964284348714 0.46696898324992026 0.45619778530696176
-0.09287680328076595 0.4912523093038206 0.4697588496116546 0.5449513865439446 0.47537253136234164 0.19909387736990714 0.5167522308817344 0.37749223381529823
0.5578166825060441 0.5100473064804006 0.4547235221903534 0.5022064849384823 0.5697004085439974 0.2067736477828399 0.4878735879714779 0.18460611323612902
0.5613471889248188 0.5559605888047423 0.5794029466344183 0.4596428047558344 0.5133837327899662 -0.17420801162087365 0.44393976622339515 0.5550011547664407
0.4651163440429632 0.5815241382399151 0.26893249853651185 0.5560012855114884 0.5082377134217712 0.46184086029251914 0.5571385329175261 0.561059504742046
0.4717246601705985 0.002025976092171958 0.5351705714944845 0.5261265339963946 0.46323554189890526 0.4899083675633851 0.48768955236229006 0.46086159765551815
0.12799741409582624 0.48200771660010633 0.5617321295082559 0.5598601601329266 0.5222052877572091 0.4608738632518038 0.5475359003509048 -0.013461492109200376
0.11663895042298907 0.5138704809316363 0.4540000033852095 0.503865033737704 0.08045770303162338 0.5081792418911614 0.5305282422610242 0.5184732599054855
0.5593225586580258 0.448964273593945 0.4543635425618721 0.5258684962997583 0.5239163548389613 -0.18555956892507347 0.4957264467235658 0.47555546426033823
0.48503614399324707 -0.5509169386107864 -0.3304766705868716 -0.3205525938386058 -0.4818575881439662 -0.15376246983744912 -0.45564442154212575 -0.4295520336264906
-0.5574650502482433 -0.4687746201381143 -0.325066297929925 -0.4343521270677294 -0.4766575880084571 -0.4243678303545245 -0.4699743201054027 -0.4681898410539404
-0.41507347088968166 -0.26220722897128 -0.4388352868644966 -0.47329211688370754 -0.5493991440377226 -0.429040274646218 -0.35104846505684306 -0.47949322805157785
-0.4382528451142448 -0.5411525091313655 -0.5439253794084639 -0.43925815612647523 -0.45626898251079534 -0.5517857691673812 -0.3980573219018653 -0.44273323876341203
-0.2593706671812991 -0.5697854132856143 -0.5265358833473769 -0.551634988075232 -0.4377688216744959 -0.4463695916064632 -0.29621211943228 -0.4088659171296015
-0.5599595477779482 -0.41825728294666054 -0.5551206400441921 -0.4278064940987975 -0.5333453871276432 -0.4635712955799385 -0.4546612497574496 -0.5602115706671983
-0.5223009875773975 -0.4489087926811285 -0.3264482664008212 -0.4750741407940182 -0.49463422743243907 -0.4318940061923289 -0.4569721292693842 -0.47022910980680616
-0.4913887118846922 -0.33157308604746294 -0.428820171309265 -0.5536659207111388 -0.5019738409909098 -0.4604891630815824 -0.4324840130743283 -0.5169451492961894
-0.37132634864450087 -0.3372505595822373 -0.45826948705217896 -0.41661578019061696 -0.45935024259673446 -0.31687416858826 -0.44138955599926133 -0.471768445251736
-0.476530119063523 -0.4744997804551075 -0.41164080547529475 -0.4021756821607218 -0.4868270111495788 -0.4753251950509179 0.06141499480185192 -0.4469777844754826
-0.4293554820804514 -0.44261779254476397 -0.6120542467699085 -0.5050704333055688 -0.43108667169053144 -0.4819956802478196 -0.416995844316535 -0.4586109014419475
-0.43775175434367153 -0.5985752741246474 -0.4627932633668953 -0.5235574283768664 -0.42747588763046934 -0.4748029268546504 -0.4124304448746448 -0.4753902448876154
-0.5242794705634893 -0.42880573993075244 -0.4784240346896753 -0.44206302616891163 -0.4521392094740347 -0.5930385404994782 -0.44030601051077545 -0.4483282521286045
-0.459751698786005 -0.5047515013259447 -0.6257302621619982 -0.6366298168748419 -0.4257221733997949 -0.4488893692509743 -0.5875319129630316 -0.5358692239102977
-0.4321621095992725 -0.28349195523322557 -0.6392289212377833 -0.5846630353441282 -0.5613284088266595 -0.43556242675181817 -0.4754159873039534 -0.5228813430687581
-0.41538914352053447 -0.6434336524656736 -0.4171209010925005 -0.6128533939457326 -0.5123282039471692 -0.566651677143705 -0.4936565255241723 -0.46602927282924594
-0.629132178127036 -0.5436809703044362 -0.4367308193399309 -0.45177208771267 -0.48905706706647545 -0.5022181455201128 -0.42522758566681557 -0.45589890456313376
-0.44975616177291045 -0.5267692241661569 -0.4507171431080947 -0.450456035370757 -0.642877678786418 -0.5345250303976173 -0.4611788282048485 -0.43888635394123243
-0.5661387606405819 -0.5431512706511027 -0.4474899408199447 -0.4777674820304425 -0.4276491446253479 -0.47905005447352983 -0.4069857681544625 -0.47434432342046706
-0.4782572888215211 -0.47893662504086326 -0.5012030233161564 -0.4249056472361744 -0.4043271197596575 -0.48987040171144797 -0.4780654126897217 -0.04660301137967278
-0.4572905005791421 -0.44502624150024983 -0.4491843032185009 0.548443821913709 0.05293904704958371 0.12152997376325932 0.42672374086793385 -0.2710541217732388
0.3811541430706052 0.3625733636284421 0.577106254932929 0.3853672124097072 0.009669489593297038 0.38693262941672135 0.395564155461922 0.34633707595640795
00000000: 9734 970a 565e e13f 258e a82f 9613 b6bf
00000010: 5e7b 1246 8df3 ab3f cae5 6e7f f67a e13f
00000020: 208c 9f83 695d e5bf 13bf 22b7 c243 de3f
00000030: f928 f1e9 fa34 dd3f 43d0 2487 d0e6 e13f
00000040: 73b2 c3d2 d5ee df3f a932 6064 f2ed c1bf
00000050: 9715 8daa 9ee9 de3f 0c5b c503 a290 df3f
00000060: d7f2 6626 d2ae dd3f 93f5 8479 6ee0 e03f
00000070: 8181 d3df d1e2 dd3f 7aaa 1932 5832 dd3f
00000080: c6dd a530 c6c6 b7bf 38d7 a286 ad70 df3f
00000090: 42ac 056c 8710 de3f 10b7 e3e3 3d70 e13f
000000a0: 2d8d e7e8 806c de3f 689c 117e e87b c93f
000000b0: f7b4 78f9 3b89 e03f a5c3 ae2f d528 d83f
000000c0: 85da 105f a2d9 e13f f3e0 97ba 4e52 e03f
000000d0: 4ce3 21b0 301a dd3f f7cb 9455 1312 e03f
000000e0: 9cdb e659 fc3a e23f 2072 7313 8f77 ca3f
000000f0: fbdb 3a24 5239 df3f 12d4 7e51 2ca1 c73f
00000100: b346 4461 8ef6 e13f 2e00 59dc 6dca e13f
00000110: 0b07 600c 788a e23f 4627 91a7 c96a dd3f
00000120: ac33 d4b8 a36d e03f 8d71 4eb8 724c c6bf
00000130: 0eb2 5456 8269 dc3f e3d9 1ec8 91c2 e13f
00000140: a2f9 9f57 77c4 dd3f 8d66 7282 d89b e23f
00000150: cdef 82a7 3036 d13f 20c9 3935 c3ca e13f
00000160: c3b0 b7bc 7b43 e03f 8a6c baf7 cc8e dd3f
00000170: 371c 4730 14d4 e13f f343 ff0f 33f4 e13f
00000180: 5590 09a1 bc30 de3f 540e dea1 c798 603f
00000190: d036 cb08 1e20 e13f ab50 2250 07d6 e03f
000001a0: 9e3d b3af a6a5 dd3f d52c 2ea0 a85a df3f
000001b0: 76cd 7f3d 4e36 df3f ac6a 7aa4 c17e dd3f
000001c0: 71cf c121 3862 c03f dae4 cde4 36d9 de3f
000001d0: 7136 aba8 b5f9 e13f f555 c3da 5fea e13f
000001e0: 3be5 16dd e7b5 e03f e2d9 8f16 f57e dd3f
000001f0: e093 2c02 6a85 e13f d83e eae2 b291 8bbf
00000200: 35aa 81dd 0cdc bd3f be65 bf81 a071 e03f
00000210: 6618 bb07 560e dd3f 440b 3090 a91f e03f
00000220: 116b 3b43 e098 b43f 2fb7 0d1d 0143 e03f
00000230: e2b1 435d 16fa e03f 4ea0 e43b 5597 e03f
00000240: 8b3d 2b6c f8e5 e13f 1023 0aa6 d4bb dc3f
00000250: 8711 f3d2 4a14 dd3f 4555 332b ead3 e03f
00000260: 8dee 3b3b ecc3 e03f 361c ff7b 6ac0 c7bf
00000270: fc28 1c6b fbb9 df3f faa9 9b2f 806f de3f
00000280: 670d f509 d50a df3f 20aa 448f 1ca1 e1bf
00000290: b4bd 109f 8726 d5bf 7cd3 cb06 ef83 d4bf
000002a0: f018 9a35 c1d6 debf 78ea a615 7dae c3bf
000002b0: 8b35 4838 4729 ddbf d7c9 16d0 c77d dbbf
000002c0: 9f55 eff1 c0d6 e1bf 9508 ac43 6700 debf
000002d0: 3303 a9df e2cd d4bf 420d 2ddd 6ccc dbbf
000002e0: 7bbd f8d3 8e81 debf da37 36b0 d728 dbbf
000002f0: a700 b42b 0f14 debf e759 e985 d2f6 ddbf
00000300: 1323 ba51 9090 dabf 2c36 4dd4 00c8 d0bf
00000310: 8e7b 5a99 e015 dcbf aa16 de04 6b4a debf
00000320: 0af5 8283 ad94 e1bf 6b6e 1157 6575 dbbf
00000330: 9cba 2efb 9377 d6bf c9a3 485d 04b0 debf
00000340: b241 49a9 550c dcbf 05c3 1b11 1f51 e1bf
00000350: 83c2 8032 d667 e1bf 5420 c43d ce1c dcbf
00000360: 3509 84d1 8233 ddbf 811b 1fa1 3aa8 e1bf
00000370: 691e e06a c579 d9bf 2dd3 55cb bd55 dcbf
00000380: de76 456d 8799 d0bf f995 799e ae3b e2bf
00000390: f3b7 e4c7 61d9 e0bf 5e99 236b fea6 e1bf
000003a0: 033a 1385 6704 dcbf 913b 78c3 5191 dcbf
000003b0: c4fd 68ad 23f5 d2bf e652 a1f3 db2a dabf
000003c0: 6e41 1949 30eb e1bf 6276 e431 bac4 dabf
000003d0: 6e61 4a5c 8cc3 e1bf 9bed 4a7d 2e61 dbbf
000003e0: 26f1 6558 2a11 e1bf f454 78f0 26ab ddbf
000003f0: f8de 9d7f 2b19 ddbf b567 dbd0 40ed e1bf
00000400: 9307 8a8f b0b6 e0bf 56f2 dcf1 ebba dcbf
00000410: 4bc1 0145 87e4 d4bf ccad 785e 9d67 debf
00000420: c77d 9351 16a8 dfbf 6dce fbc1 26a4 dbbf
00000430: b34f 9907 083f ddbf d1d5 0fd6 3b18 debf
00000440: bfc5 caa3 e972 dfbf 7eb0 3352 7e38 d5bf
00000450: b8db e828 ca71 dbbf 77a6 cb97 a1b7 e1bf
00000460: 5c1c d071 2b10 e0bf 7842 e689 a778 ddbf
00000470: e79c 0c6d d1ad dbbf f0b1 c18d d08a e0bf
00000480: f48e e496 cfc3 d7bf 7da8 fd5e 8395 d5bf
00000490: 1634 e98a 4954 ddbf 6ca3 ba3b d5a9 dabf
000004a0: 8135 578f fe65 ddbf 3e29 c297 aa47 d4bf
000004b0: b804 f4fa b93f dcbf b205 e946 7431 debf
000004c0: d1f4 3b2f 787f debf 31e3 c053 345e debf
000004d0: 91ca 4dad 5258 dabf 571d 8812 3fbd d9bf
000004e0: 7e99 ec7a 2c28 dfbf 4958 ed5d ba6b debf
000004f0: a8e0 5044 c971 af3f 4516 97b5 489b dcbf
00000500: e234 796a 8f7a dbbf dae0 e693 d953 dcbf
00000510: 4326 a8c9 f295 e3bf bd2a 2778 8929 e0bf
00000520: a3bf 298d ec96 dbbf f491 de68 04d9 debf
00000530: 4213 7a56 0fb0 dabf 4810 d289 e159 ddbf
00000540: 700d 2bef 1f04 dcbf 35e8 5155 8727 e3bf
00000550: 5613 bea2 679e ddbf ad9b 0e82 fbc0 e0bf
00000560: 57e4 4cd3 c35b dbbf 02b1 b8d0 2b63 debf
00000570: 0920 27aa 4265 dabf a64d a834 cb6c debf
00000580: a719 81bd e5c6 e0bf 0abd 55a1 8d71 dbbf
00000590: 9c33 a7d7 7f9e debf 21a4 0ab8 c24a dcbf
000005a0: 9589 7b4b d9ef dcbf 82cf 16f6 2bfa e2bf
000005b0: 9810 d842 f92d dcbf 04f9 30fb 68b1 dcbf
000005c0: d33e a463 926c ddbf 9ea8 d99e ec26 e0bf
000005d0: 244e 8378 fb05 e4bf 6a59 647e 455f e4bf
000005e0: 48c9 fb36 083f dbbf c31e 1d7a 9aba dcbf
000005f0: 900a f1b9 0fcd e2bf 8b15 f436 d725 e1bf
00000600: cc26 d343 8ba8 dbbf a0f8 1971 bb24 d2bf
00000610: daf4 eb35 9074 e4bf be75 ff40 8fb5 e2bf
00000620: 323d c7fe 66f6 e1bf 35fd 903a 41e0 dbbf
00000630: 74d3 5d2d 376d debf 6767 85a7 71bb e0bf
00000640: 722f a258 bc95 dabf 7a8c cf2b 0297 e4bf
00000650: dbe6 2add 1bb2 dabf 32aa 87b8 7e9c e3bf
00000660: 35b0 181e fe64 e0bf d1c8 b1b2 0222 e2bf
00000670: f054 258a 1198 dfbf fdef 7171 6cd3 ddbf
00000680: f856 3dce d921 e4bf 8148 5da2 d565 e1bf
00000690: 3119 8ed2 65f3 dbbf 0f2e 7e79 d5e9 dcbf
000006a0: 7a67 3b03 b64c dfbf d3ee cec9 2b12 e0bf
000006b0: d9f1 72c3 ed36 dbbf 6a60 5899 722d ddbf
000006c0: 004e 7f11 cec8 dcbf 6ba7 ca21 4bdb e0bf
000006d0: 1755 59b7 8cd8 dcbf 9101 0d8d 45d4 dcbf
000006e0: f3e9 b635 7492 e4bf 0170 8e3c d41a e1bf
000006f0: d7d5 2f34 f483 ddbf 48a6 35ca b616 dcbf
00000700: 6e60 be08 cf1d e2bf 4b46 07c6 7e61 e1bf
00000710: b114 47d9 aca3 dcbf e46e 9a0f be93 debf
00000720: f101 9584 9a5e dbbf d317 478f c1a8 debf
00000730: 724b 0a09 0e0c dabf f695 084b a85b debf
00000740: c8f8 a375 c49b debf 4b0e 5acd e5a6 debf
00000750: 3093 39ec da09 e0bf 1af7 b074 a731 dbbf
00000760: 0e3b 10db 7ee0 d9bf 6142 a862 095a dfbf
00000770: 6478 36ac 9f98 debf aaa7 8a93 59dc a7bf
00000780: 9091 3060 3f44 ddbf 66be 4658 4f7b dcbf
00000790: f2cc 0c85 6fbf dcbf 0d01 da0e da8c e13f
000007a0: cbcb 84a7 d31a ab3f 0d04 cc9e 961c bf3f
000007b0: 6c17 dd17 714f db3f 6d92 1d63 f358 d1bf
000007c0: 2948 ce58 d464 d83f fdd4 cbe8 6634 d73f
000007d0: 8320 6889 a777 e23f 3106 903d dba9 d83f
000007e0: b7e9 93ec 98cd 833f 2268 4613 81c3 d83f
000007f0: b371 cb51 ec50 d93f a800 a8fb 622a d63f

output_gate_weights f8 [108, 81]
0.5470380866030999 -0.1559818832794785 0.004276559798573566 0.5586570103715313 -0.9149777954969189 0.5449469443448255 0.5526759154805192 0.48925805010726053
0.5519959502747923 -0.2613070883163034 0.542029667308108 0.5434974093176894 0.5219416962082519 0.5599783420116129 0.4897491005765229 0.5356315523767136
-0.19492202752039567 0.550330244047028 0.5256647685542299 0.5178614861044769 0.5326877783244867 0.21276258787155297 0.5618737162046105 0.4243557242732684
0.4842666645392498 0.4353536346038709 0.533460800481715 0.5235346112396062 0.5276295160136482 0.23422166440325445 0.5380104926504383 0.2345261308622225
0.4851973049630224 0.5445535142531669 0.5409684047212111 0.5426597938361286 0.556453206998565 -0.3044001587672866 0.5341670687746554 0.4874518612374398
0.545567869412313 0.553257894518036 0.31926836821534554 0.5687007572207783 0.5651922939469853 0.5409100736419075 0.5462721397819644 0.5384613862975465
0.5447064315659771 -0.07246280507558701 0.561355234640756 0.5620752664107677 0.5230556344562677 0.534300200810513 0.5468916306199363 0.49925931601516416
0.13446763257143882 0.5436598500276867 0.5186599328894006 0.5549823823035511 0.5676665570262679 0.5511591256814808 0.5557931728716646 -0.1277335927523575
0.07062450707950091 0.5577380672369538 0.5326945146017087 0.5531811207590505 0.051218758161308234 0.549401626207194 0.539764877014622 0.5475049377228043
0.567237679825013 0.528902756465424 0.5292897424450991 0.5590357920959312 0.5575849989007576 -0.32715021465672495 0.5406487207707272 0.555062675381249
0.5478251604361373 -0.5578345294943088 -0.3819486734900698 -0.37245976645382894 -0.48603379493987797 -0.24032518611274914 -0.5135692048468123 -0.4882893528553126
-0.5376335026744956 -0.49296148662454453 -0.3664171818676702 -0.4912583707515157 -0.5115462615360803 -0.4921439690504516 -0.5044876200355385 -0.5303891657351094
-0.4897155171510475 -0.3574410057080317 -0.4876681982413695 -0.5039164444791318 -0.5354850358285096 -0.4642239343110335 -0.41233598200210614 -0.4796747534930591
-0.5302473523918162 -0.5409911777565521 -0.5051315194019517 -0.5037627794474768 -0.503054294252421 -0.5189182039321594 -0.5378955345760827 -0.478564034547693
-0.26233549823640256 -0.5218151719109688 -0.5418824130491482 -0.5208518232850211 -0.4813592166350128 -0.47546827168349426 -0.2886329887155879 -0.5134566724794261
-0.5445126653181916 -0.4956242290634549 -0.5531065048539346 -0.5062491770000334 -0.5335090212621316 -0.505651876389861 -0.4887137706979745 -0.5519227007457644
-0.5213012253229297 -0.5075338468174064 -0.3361248366942315 -0.5100159882874692 -0.5140427945358481 -0.49313232708701715 -0.4690641677025331 -0.49533580936983207
-0.49104891263588657 -0.3948120324178696 -0.5033188274341817 -0.5244344246166769 -0.5105603851068319 -0.4952263424635726 -0.4887538051422351 -0.5594594213831001
-0.3899399501492997 -0.4045132249935693 -0.47237377547939485 -0.49646296398504275 -0.522407006360909 -0.37619810525837816 -0.500438559240952 -0.518385641027392
-0.490973380432954 -0.49683378477986045 -0.4891592317646337 -0.5009882733518445 -0.524953842775354 -0.5008230356325818 0.107797822936722 -0.4704760946413904
-0.48257906963909303 -0.48323750619505157 -0.6023255090137601 -0.631851194727508 -0.5326785144756067 -0.5093321649289393 -0.46504851820221027 -0.4964096930216345
-0.48053418402402137 -0.5557156038290739 -0.5126784315153188 -0.630506308709088 -0.4791305143752642 -0.534721807684472 -0.5243878802285142 -0.5013241666335729
-0.5899773257719787 -0.510425763531556 -0.6065095080200519 -0.49617965122481306 -0.5149184042683802 -0.6081754637926199 -0.4960915144990064 -0.5327810873497927
-0.5075529705530869 -0.594286851446529 -0.5629308874129968 -0.5510358861043789 -0.5184106855908233 -0.4797899745053844 -0.538135823194901 -0.6740820948372458
-0.5027896406742546 -0.27117507933182744 -0.5541522059958489 -0.5839684926368154 -0.538700272071286 -0.5177165649367447 -0.4972794050821712 -0.5939983693372283
-0.5112066559956973 -0.5588216805758643 -0.48413078774425405 -0.5877108844390034 -0.6394460437604367 -0.5588610315868263 -0.5296269308947341 -0.5307866044248934
-0.5994850323562538 -0.5425377577228503 -0.4841515496497612 -0.5466035371936557 -0.5301560100509887 -0.5455148305655181 -0.5184717895422665 -0.5213495882763894
-0.502930416484495 -0.5623870344587746 -0.5841421051076283 -0.5111286108250732 -0.589034234442162 -0.5184791604026014 -0.5047953232816234 -0.49141004095413765
-0.6194616853832984 -0.6620713483522219 -0.5850962445797828 -0.4947420223147729 -0.5020377663291792 -0.5557707873009755 -0.5384208480697575 -0.5169018181978527
-0.5175996287650361 -0.509448967298107 -0.5020208596869334 -0.49805784624067323 -0.5100224157771176 -0.5203934002085824 -0.507887755839776 -0.023457584059976357
-0.5101380271245846 -0.486211290315636 -0.48937077692853975 0.545206042939893 -0.07125135652533696 0.041738468918034025 0.47654229624266986 -0.47095675237302814
0.43969066547513974 0.4251375384821707 0.5230366817635017 0.45068042252590745 -0.16826913634531693 0.42466043702451595 0.4354955065334506 0.4260715540444041
00000000: 2c0e 7404 5681 e13f bd17 badf 36f7 c3bf
00000010: 8e93 9647 4c84 713f 6f42 a7aa 84e0 e13f
00000020: d436 8783 7f47 edbf 5d84 0093 3470 e13f
00000030: 74d2 c866 85af e13f 88fc 20ff 0050 df3f
00000040: b38c 3e69 f3a9 e13f 3504 a25d 41b9 d0bf
00000050: 4a9a d199 4e58 e13f d05d cfad 5464 e13f
00000060: 4043 7412 bfb3 e03f d00f 2db3 57eb e13f
00000070: 602e 8e9c 0c58 df3f ff3c 05c8 e423 e13f
00000080: 9c2c bc7a 34f3 c8bf 5bd0 052c 4e9c e13f
00000090: c831 b3eb 3ed2 e03f 6ba7 5540 5292 e03f
000000a0: ff3d 5c3d c70b e13f 233e 5cf2 cd3b cb3f
000000b0: cf95 7296 defa e13f f2f0 67e9 a428 db3f
000000c0: 1a4d af9b 39fe de3f 0060 b47d d5dc db3f
000000d0: d48a 7862 1c12 e13f 5024 33a8 cbc0 e03f
000000e0: 8ada 754b 57e2 e03f 9136 50ba f9fa cd3f
000000f0: d6d4 dac7 6137 e13f 2b2a 0ec7 f304 ce3f
00000100: f21a 3bff 780d df3f 8174 d47d fb6c e13f
00000110: f44c cef8 9c4f e13f 362b 6c12 785d e13f
00000120: 5e05 baf4 76ce e13f 7f5f b3cd 4a7b d3bf
00000130: 3098 5f89 e517 e13f 92e7 984a 6932 df3f
00000140: 20fa 9bbf 4a75 e13f 58ae 66e6 49b4 e13f
00000150: e275 0898 e46e d43f 6028 2fee cb32 e23f
00000160: 3e83 4e26 0e16 e23f 64ce 8ba4 224f e13f
00000170: 158b e2b5 0f7b e13f 2ed1 895f 133b e13f
00000180: 3ee5 af2e 3c6e e13f a9df f921 ec8c b2bf
00000190: f40d c740 9ff6 e13f d3fd e344 85fc e13f
000001a0: 6b4d 7f2b dfbc e03f bf46 17bc fc18 e13f
000001b0: e8ff 7ee0 2280 e13f 988a a058 ddf3 df3f
000001c0: 65e7 2142 3c36 c13f bb8c 8057 a965 e13f
000001d0: 4e2d 30b7 dc98 e03f 8e32 bb69 6ac2 e13f
000001e0: 61be 2e0e 532a e23f 8b34 7676 18a3 e13f
000001f0: 2d5d 9ac3 0ec9 e13f 1f69 bc09 9359 c0bf
00000200: 14dc 339c 7214 b23f fc8a d080 fdd8 e13f
00000210: 4522 df5d d50b e13f 8a97 cde4 a8b3 e13f
00000220: ea35 7d56 5839 aa3f 4fbb 1db8 b294 e13f
00000230: 1ad5 c9fd c045 e13f f05f 3d13 2985 e13f
00000240: 0309 7da2 cf26 e23f 5f10 3979 c5ec e03f
00000250: 6c1e bd0a f1ef e03f 2c0e 8b07 9fe3 e13f
00000260: 3d9b e07e bcd7 e13f f11e 3574 07f0 d4bf
00000270: 4db4 ca8b fe4c e13f 6fc4 bfcc 12c3 e13f
00000280: 24f9 7fa1 c887 e13f 4a3e 98cc c7d9 e1bf
00000290: d6fc 58d9 d871 d8bf f8ad ff7c 61d6 d7bf
000002a0: 7a1f 817d 2d1b dfbf 1133 61c7 f9c2 cebf
000002b0: d497 61af 286f e0bf 9ae8 5ffc 2140 dfbf
000002c0: 8211 e72c 4b34 e1bf 825b cf55 ae8c dfbf
000002d0: ab1a 340d 6173 d7bf 6ce5 10f3 c670 dfbf
000002e0: 6b08 f643 965e e0bf 6bb3 ff6a 497f dfbf
000002f0: af43 a938 c324 e0bf 4685 1fb3 f2f8 e0bf
00000300: 7d7a a0c0 7f57 dfbf 6cfb 703d 50e0 d6bf
00000310: 43bd afac f435 dfbf 068b 1e61 1520 e0bf
00000320: d12f 8c83 b122 e1bf d0b9 f84d d8b5 ddbf
00000330: 1370 6a75 b663 dabf 1e0d bebc fdb2 debf
00000340: af07 aa4b c9f7 e0bf fc71 fcba cc4f e1bf
00000350: 5453 8093 092a e0bf 3c68 d51e d31e e0bf
00000360: f6a5 bd51 0519 e0bf 8001 6659 fa9a e0bf
00000370: 1866 35b2 7036 e1bf 5d25 5b0b cba0 debf
00000380: 7055 60d4 1aca d0bf 5d41 3dbb b5b2 e0bf
00000390: 625b 4ac9 1957 e1bf c146 6271 d1aa e0bf
000003a0: f6d5 44e3 96ce debf daa3 4a79 126e debf
000003b0: c921 c57f f678 d2bf acc9 06b0 3c6e e0bf
000003c0: e794 39d3 a56c e1bf 33b2 bbaf 4eb8 dfbf
000003d0: 33ae b169 0cb3 e1bf 25f2 5a79 3133 e0bf
000003e0: 6c23 ce82 8112 e1bf f42c 08d8 4c2e e0bf
000003f0: 502b 901f 1647 dfbf 0df0 b3cb 59a9 e1bf
00000400: 020e 44e8 7fae e0bf e433 369f b73d e0bf
00000410: 7767 3ebf 1183 d5bf b337 c40c 0d52 e0bf
00000420: 4cd4 e8df 0973 e0bf 701a 5ce4 7a8f dfbf
00000430: 7080 00b7 2505 debf dbfd 71f7 94b3 dfbf
00000440: c87a 206b 586d dfbf a754 d3af 9944 d9bf
00000450: df4e e915 301b e0bf ad01 d4b3 2ac8 e0bf
00000460: 2258 95bb 8256 e0bf 5deb 3fd4 c9b1 dfbf
00000470: c869 380a be47 dfbf a6f1 c871 17e7 e1bf
00000480: 20e3 52b1 c6f4 d8bf 5166 0970 8be3 d9bf
00000490: d402 4b37 5f3b debf 4a6c 7f98 0cc6 dfbf
000004a0: 0caf f0e5 8eb7 e0bf bab8 b937 a113 d8bf
000004b0: a71c b3b9 9703 e0bf 75b7 dd7b 9d96 e0bf
000004c0: 72a1 0a9d 1b6c dfbf 935a 4bee 1fcc dfbf
000004d0: 2acc bd85 624e dfbf c638 378f 1808 e0bf
000004e0: 4426 5400 6ccc e0bf 2003 e407 be06 e0bf
000004f0: 3edd 175c a398 bb3f 7036 02c4 471c debf
00000500: 7060 7552 93e2 debf e8bb 5301 5ded debf
00000510: 4557 5825 4046 e3bf af61 29ff 1f38 e4bf
00000520: 078c decf b30b e1bf 2676 e5f7 724c e0bf
00000530: 0ed5 2edc 5ac3 ddbf 1e80 3c29 2dc5 dfbf
00000540: e090 3f73 12c1 debf 1754 0a17 6cc8 e1bf
00000550: c021 1799 dc67 e0bf 8778 fa90 1b2d e4bf
00000560: 8879 7008 13aa debf 54cf 8ee8 701c e1bf
00000570: ea01 8017 c9c7 e0bf 3f57 8cfa d80a e0bf
00000580: 5a4f f220 18e1 e2bf 71ec 2c69 6855 e0bf
00000590: f117 b5a0 8668 e3bf 6be1 bc4b 68c1 dfbf
000005a0: 4f1e 4e29 367a e0bf 8301 e763 2c76 e3bf
000005b0: 792a a69f f6bf dfbf 9c07 43ec 8a0c e1bf
000005c0: cd6b 30ba df3d e0bf 1bfb ecdb 6504 e3bf
000005d0: 461b eba2 8703 e2bf b8b3 b702 16a2 e1bf
000005e0: 064e 9001 d296 e0bf 54c1 5c02 e1b4 debf
000005f0: 4fb3 2d9e 6838 e1bf ffa4 049d 1492 e5bf
00000600: 1dd5 ee4c da16 e0bf 1b1b 4eb8 ee5a d1bf
00000610: 0745 3868 9dbb e1bf 10a0 38b1 deaf e2bf
00000620: 298f 5c5a 083d e1bf 6106 6054 2291 e0bf
00000630: 4158 73ff 6cd3 dfbf 7fc8 45de 0802 e3bf
00000640: 27f8 9f0f ce5b e0bf a2cf 4b01 dee1 e1bf
00000650: 5d4a 16b3 fffb debf 7166 850e 87ce e2bf
00000660: c13e b08c 5776 e4bf 6493 b587 30e2 e1bf
00000670: 70c2 682d b4f2 e0bf 221d 6530 34fc e0bf
00000680: ed2b 0d3c fb2e e3bf 5a79 c824 785c e1bf
00000690: a36b 03c8 56fc debf 4efd 83b3 c67d e1bf
000006a0: 8b4c 9ebc 09f7 e0bf 5561 9884 db74 e1bf
000006b0: b371 7f26 5297 e0bf dac3 ed54 e5ae e0bf
000006c0: b8dd 5e87 0118 e0bf 4f3c 1618 13ff e1bf
000006d0: 68ec b4c8 4ab1 e2bf 2e65 7163 2a5b e0bf
000006e0: 54e9 a452 5ed9 e2bf 57c6 b29b 6197 e0bf
000006f0: e062 9585 4827 e0bf 1abd b419 4373 dfbf
00000700: f414 fb4f a1d2 e3bf 4953 9940 b02f e5bf
00000710: 5571 6fc2 1bb9 e2bf 6320 7371 daa9 dfbf
00000720: efb3 7781 b110 e0bf a1f4 70d1 dfc8 e1bf
00000730: d536 be5b be3a e1bf 0be3 8cae 758a e0bf
00000740: 57f6 be18 2d90 e0bf cdd7 b0eb 674d e0bf
00000750: 637c c80c 8e10 e0bf 3fac 4704 2ee0 dfbf
00000760: 16ab 7f87 1a52 e0bf 3a67 5e0f 10a7 e0bf
00000770: 89dc abd2 9d40 e0bf 67e8 85d1 4305 98bf
00000780: 0e46 defb 0c53 e0bf e980 b6f5 151e dfbf
00000790: 17ad a1ce d951 dfbf ea44 80f1 5372 e13f
000007a0: de6b 1266 873d b2bf 22e4 f99d be5e a53f
000007b0: 0279 6142 ab7f de3f 1271 51ca 2724 debf
000007c0: f39e 2451 e423 dc3f a74d 0514 7435 db3f
000007d0: 0e0b 596c b7bc e03f 1a8f ecb2 f2d7 dc3f
000007e0: 24c0 c3d2 d789 c5bf 2839 3bf8 a22d db3f
000007f0: 966e 878b 28df db3f 6a1a 989f c144 db3f

gate_gate_weights f8 [108, 81]
0.35061398020719037 -0.15462788642583872 -0.23730235360204352 0.20369953180642433 0.18834241844319524 -0.12101282045035733 0.12432469928745371 -0.46966394804090716
-0.18017271310951483 -0.16494101116052598 0.15810309422404156 -0.133471211427596 -0.12684689741543143 -0.16037525589991616 -0.21965008476006537 0.10931707548211642
0.08004674164056075 0.16874917048365373 -0.14808140488010094 0.3875567474255276 0.11115973761984749 0.1713033326566551 -0.16842287880382562 0.15095234843716263
0.47939640311356846 -0.5178648960042143 0.12764365261339877 -0.17674620154926574 -0.3944863760389386 -0.13966845158180305 -0.18028195941034597 0.337376922190891
0.5183176448959439 -0.26001458736092564 0.248832701202676 0.09774057777528178 0.1688156416969345 0.23483610552403672 0.13064535674279482 0.4791058261874191
-0.13085214270865636 0.3664505415724752 0.14832802116230034 0.3227304531886798 0.16162179800274015 -0.13218284408436673 -0.3662979038705577 0.2645529685913046
0.1456583662329642 -0.2076873718453206 -0.1698611948767005 -0.17349367809288183 -0.12530880624253177 0.12100525471254137 0.12183051794020086 -0.27877281711189067
-0.22289208927758025 -0.15228109362599204 0.45584198277868493 -0.2770497352132212 -0.21245351026377285 -0.13791519199662902 0.17492280679271915 0.31406311414025967
0.17580122430911319 0.19161581793990679 0.11949140821438221 0.1406860414991086 0.17329445582684483 -0.15705905680707558 -0.1749572777452884 0.16368925330031078
-0.21721753010903838 0.12343350745203915 -0.12234916846679682 0.18196400525893125 0.19737275732253975 -0.2346003307422084 0.16203412498367425 -0.1399856141879985
-0.1637398451719421 -0.2991785380263841 0.24643528797236935 0.3142129110877167 -0.16534643302983393 -0.21512004452622155 0.06832628516239495 -0.08259622432091795
0.3550100348804126 0.10623248574889607 0.2705968750164537 -0.09046444266648924 0.1080314704630838 0.08476998409109437 0.12659240056427631 0.19916975031945977
-0.08031373091288 -0.12681961815684978 -0.08712330935254087 0.09748327555070593 -0.3708800619120496 -0.07332673533868074 -0.24519211431818463 0.10655829395620627
-0.1571189479774764 -0.3839770965677746 0.39376007872071295 -0.09265783412568444 0.08510027005191954 0.2928131270009584 0.14009208584366972 0.07272919156947444
-0.445708899196734 -0.4120499999366304 0.2863872336357586 -0.21463542928435508 -0.057766243184914065 -0.10726360503985029 -0.3101255194745449 -0.0684778707439071
-0.38841710168541116 0.07099298808291982 -0.3024516022986858 -0.18747904094783252 -0.2522386166773372 -0.12448868036275071 0.10696512461097138 0.3391316573554858
-0.1976726119855437 -0.08414100751364861 0.28479213779791757 0.12083651402984336 0.11822594294044464 0.10872113909069157 -0.09658375070983774 -0.07519330678736419
0.31314794331773993 0.327642787487644 0.07387596564762701 -0.41471242323106 0.19159141354397818 0.10466110562566316 0.06305953421051726 -0.16487743343988406
-0.37431947351027917 -0.2627213236111356 -0.09430377312801058 -0.05398289808840874 -0.11700496017197577 -0.2693820531822318 0.11548397841012913 0.1503205120448987
-0.10490993306596735 0.11676789554066605 -0.08703463367568404 0.07411398613731777 -0.12554833881576052 -0.1066989235699863 0.22933209988828712 -0.11199063061631484
0.0766634693702854 0.08778061920789819 -0.3777457909250804 0.45382799464229806 0.5635546671006616 -0.1594830064395018 -0.4500520756105289 0.13015227750067918
-0.09895344184851806 0.40316855284628944 0.13975547965530738 0.47488617838208075 -0.11611758757464404 0.15284410684827082 0.10875828355742309 0.13608875634776338
0.3262082560505062 -0.08515633507532784 -0.21844115677029044 -0.08985717172057064 0.12726922525576348 -0.4679156214654156 -0.09375839815179729 -0.4896898934453424
0.11445070902093721 -0.24641846211545965 -0.4541448529440182 0.5016838710418944 -0.09750843384968738 0.13446169286992496 0.3820228724946007 0.25192335002453925
0.13065591354566594 -0.7373669821129452 -0.49327295130011567 0.27582541518719356 -0.27621447388516085 -0.0963726094577177 -0.14154968292225853 -0.5778175303384677
-0.0941884952623537 -0.4450513469695239 0.08056579701245174 -0.3540731745977173 -0.27505962932535544 -0.27687599488964215 -0.17338398428065094 0.13152313213713085
0.41118629061266343 -0.2807638997835746 -0.11546485301922284 0.5616394543410594 0.17173769822287788 0.1184909196418868 0.10715234639646057 -0.12285628740226837
-0.11753849958911516 0.41024701945361103 0.6158715090147083 0.10563368611133486 -0.4111955947294165 0.2134227204725031 0.15087174015341626 0.11116189269207134
-0.24025193671999281 -0.7664627294179794 -0.4724675455878552 -0.11906067601502304 -0.06726866264805723 -0.12372028479220902 -0.5119779785351264 0.12695507156289093
0.18508624292220296 -0.15826433022352213 0.1554658889121227 -0.07464114153845157 0.0905801069390404 -0.14601369620426985 -0.12224235754404211 0.4204866644332152
-0.13799864637806958 0.07130896929128284 0.13834425957856158 0.2755997691269909 -0.3371409683382389 -0.38309144776876675 0.1494989620608874 0.40909038699834793
-0.13967818280993866 0.13334485528142942 -0.28097167391098177 -0.1492417985721576 -0.35236549093745395 0.12335662640003536 -0.16832188563359293 -0.1548779100661214
00000000: 54a8 a09e 7570 d63f 75d1 9fb9 d8ca c3bf
00000010: 8707 fe6b ec5f cebf 69d8 a885 d312 ca3f
00000020: 81df d4b7 9a1b c83f 2023 3b3a b2fa bebf
00000030: 584f 8655 bed3 bf3f 468a 3c60 f90e debf
00000040: 32ee 3743 e60f c7bf 8d10 5a7c c91c c5bf
00000050: 6059 8be1 b83c c43f d0fe 04ac 9515 c1bf
00000060: c4c9 ffe5 843c c0bf 33c1 9627 2d87 c4bf
00000070: 82d6 4d75 7e1d ccbf be0d 1730 34fc bb3f
00000080: bc60 7f79 f17d b43f 7a2a 3aa4 9299 c53f
00000090: d189 8ddb 54f4 c2bf 7e5a e2d0 bacd d83f
000000a0: 348d b5ed f674 bc3f e062 ba81 44ed c53f
000000b0: 3a28 2e82 e18e c5bf 9760 e513 6852 c33f
000000c0: fc56 4c40 6eae de3f 90b4 0267 5992 e0bf
000000d0: be1d c290 a056 c03f 3e54 ac99 9e9f c6bf
000000e0: d581 f3c8 433f d9bf b3d4 e9e3 a7e0 c1bf
000000f0: 48f5 dcaf 7a13 c7bf 760a cf5f 9597 d53f
00000100: fc91 b8e2 0e96 e03f d8ad 4c39 14a4 d0bf
00000110: 6da0 ebfc bfd9 cf3f 8077 09c9 8605 b93f
00000120: 8b1f 123e c09b c53f b2a7 9208 1c0f ce3f
00000130: c2d2 4aaf fcb8 c03f d912 b37b aba9 de3f
00000140: 3ec9 c554 c3bf c0bf efef e9f8 ec73 d73f
00000150: 177a fc9f 69fc c23f c797 77a1 9da7 d43f
00000160: d109 5fe8 05b0 c43f b3a1 3710 5eeb c0bf
00000170: d6e9 6dc3 6c71 d7bf 1833 0a93 6fee d03f
00000180: e6ff adef eea4 c23f 7c15 eff2 7f95 cabf
00000190: bd6d 6dfa 02be c5bf fb5f bc74 0a35 c6bf
000001a0: 5e32 5b74 1e0a c0bf 946f a24b 33fa be3f
000001b0: 3239 35ea 4830 bf3f 5999 20f1 69d7 d1bf
000001c0: 2efe fd5c ba87 ccbf ab1c 7666 f27d c3bf
000001d0: 6668 0bda 832c dd3f b6cc 06d0 2ebb d1bf
000001e0: 4a6c 4037 ad31 cbbf 67a0 9f7b 34a7 c1bf
000001f0: 9ae7 3fdb de63 c63f 6c30 072d 9c19 d43f
00000200: 3990 808e a780 c63f 485e b9fb dd86 c83f
00000210: b90a 6f2a fd96 be3f fd05 9f0d 0002 c23f
00000220: 7a5d 2d42 832e c63f 9974 43dc 821a c4bf
00000230: 6a7d 0e05 0065 c6bf d3d4 d0fa c4f3 c43f
00000240: e6d5 f7b5 c8cd cbbf 4eb1 bc9d 5699 bf3f
00000250: c3f7 416d 4652 bfbf ae71 d1b5 984a c73f
00000260: eb2b e9b0 8243 c93f a793 1536 6207 cebf
00000270: 9e07 d2c1 88bd c43f e188 6c71 0ceb c1bf
00000280: 6965 0860 6df5 c4bf 2542 1fbd bd25 d3bf
00000290: 3cf9 3507 318b cf3f 9f92 4678 101c d43f
000002a0: 46cb 2f69 122a c5bf bf22 fab9 0d89 cbbf
000002b0: c2ca 3ad8 d47d b13f 803e 3bb2 0625 b5bf
000002c0: 540b 6402 7cb8 d63f 9e75 105c 0d32 bb3f
000002d0: 261c 268e 7551 d13f 8914 b47e ad28 b7bf
000002e0: 6fe6 9350 f3a7 bb3f 788b 5a55 7cb3 b53f
000002f0: db3f 2c06 2e34 c03f 8ebe fcf5 647e c93f
00000300: cac8 b0cf 708f b4bf cac8 3c10 a03b c0bf
00000310: b871 6394 b64d b6bf 6ab1 65f8 a9f4 b83f
00000320: 34a5 29ba 7fbc d7bf 99bb 337a 8ac5 b2bf
00000330: c3e9 1d88 7462 cfbf 65d2 a883 6747 bb3f
00000340: 7895 9243 791c c4bf ebfb 0aac 1493 d8bf
00000350: b0da 2479 5d33 d93f dbba 497f 6cb8 b7bf
00000360: 97f6 c09c 21c9 b53f 48c0 1345 73bd d23f
00000370: 1441 9097 89ee c13f a862 415b 619e b23f
00000380: 3583 659e 7e86 dcbf 36db 82f6 065f dabf
00000390: 9647 9d1e 2b54 d23f c06b ab7a 2c79 cbbf
000003a0: 8e7f 957a 8993 adbf dd7c b2ab a075 bbbf
000003b0: 6815 f3b4 18d9 d3bf 9044 5807 c487 b1bf
000003c0: 678a 3c67 d3db d8bf bcbb 0fb2 982c b23f
000003d0: cbb8 1ff7 5d5b d3bf a437 c72e 50ff c7bf
000003e0: 65b7 5a70 ad24 d0bf 8e55 e17a 7dde bfbf
000003f0: 9645 0400 1162 bb3f 6253 5844 55b4 d53f
00000400: ba7a e50d 564d c9bf 600b 86db 438a b5bf
00000410: b2ff 7fcd 083a d23f 04bb eb4b 24ef be3f
00000420: 00cd 772e 0e44 be3f 6744 c708 26d5 bb3f
00000430: 62af 9f72 b6b9 b8bf 8ca2 8759 de3f b3bf
00000440: abff d6ab 9d0a d43f c1e6 4174 19f8 d43f
00000450: 09bf 6a08 89e9 b23f 956d c1f9 a58a dabf
00000460: 76d2 ae43 1186 c83f 0c4f d3f9 11cb ba3f
00000470: 299a 226d ab24 b03f 0d82 3c28 b41a c5bf
00000480: b6e2 3eaa d9f4 d7bf 47c9 3719 6dd0 d0bf
00000490: c465 79c5 4a24 b8bf 2281 aa7b a5a3 abbf
000004a0: 1d8e 687d 09f4 bdbf 5902 2339 8e3d d1bf
000004b0: ffc4 7ba6 5b90 bd3f e04d 93d9 b33d c33f
000004c0: a43b 8b9b 60db babf 4ae5 9134 80e4 bd3f
000004d0: a4a3 41d9 e647 b6bf 67cf a25a 22f9 b23f
000004e0: dff1 a3cc f711 c0bf f561 40e3 9e50 bbbf
000004f0: baba 7816 c15a cd3f e69a f4ff 6aab bcbf
00000500: 2c47 be95 37a0 b33f 1b76 b868 ca78 b63f
00000510: 5664 8eae fc2c d8bf 24de bf92 840b dd3f
00000520: 8793 16cc a308 e23f 1674 766c f069 c4bf
00000530: 01a0 8f38 a7cd dcbf 41c3 ae6f d4a8 c03f
00000540: e0e6 9044 0355 b9bf 8d07 5079 83cd d93f
00000550: 1a36 47ef 81e3 c13f 274d 5eff 8864 de3f
00000560: 7d9e 1fd9 e1b9 bdbf 065b 264c 6590 c33f
00000570: 9658 0c37 95d7 bb3f 6bf8 ee3a 5b6b c13f
00000580: fc03 db97 98e0 d43f b91c 323a cecc b5bf
00000590: 21e3 363c e1f5 cbbf 0ad5 d92d e100 b7bf
000005a0: a160 21a4 5b4a c03f 7fd0 de5c 54f2 ddbf
000005b0: 8e8d c9e5 8c00 b8bf d8e2 6147 1457 dfbf
000005c0: 5eba 3f44 a44c bd3f 5650 f5e1 a38a cfbf
000005d0: 74a4 c292 b510 ddbf 9fc7 6155 cb0d e03f
000005e0: 4cf5 770e 50f6 b8bf c176 b86e 0a36 c13f
000005f0: e90c ec0f 1073 d83f e810 5d1d 831f d03f
00000600: e793 da3d 55b9 c03f fe68 2aa4 8298 e7bf
00000610: 2777 75b6 c891 dfbf 959d 68a4 1fa7 d13f
00000620: f030 0179 7fad d1bf 3ce0 d915 e0ab b8bf
00000630: bb83 74cd 4c1e c2bf 9f7e 7b30 7b7d e2bf
00000640: beae cfba bc1c b8bf 3597 11a5 b87b dcbf
00000650: 4b3b 58c7 f59f b43f 2170 5288 22a9 d6bf
00000660: 06bf 19b4 939a d1bf 6f4d c617 56b8 d1bf
00000670: 7c5a 1147 7231 c6bf b825 99ff bfd5 c03f
00000680: 1ead af4d e050 da3f a7f1 dd25 09f8 d1bf
00000690: 1115 8ec7 1a8f bdbf 6838 114e f3f8 e13f
000006a0: 1cc5 ad3a 80fb c53f 4c20 bcc0 6b55 be3f
000006b0: e263 760f 566e bb3f 262f 8078 8273 bfbf
000006c0: a493 c1cb 0017 bebf 4d6c f5b6 7c41 da3f
000006d0: f333 b82a 38b5 e33f ba40 342b cf0a bb3f
000006e0: b7d0 e753 0751 dabf 548d 538a 6f51 cb3f
000006f0: 7ebd ece2 c34f c33f 3985 ac15 1b75 bc3f
00000700: fdaa 8151 93c0 cebf f37f 8ed8 dc86 e8bf
00000710: 9628 2e84 e83c debf 9263 b9ad c27a bebf
00000720: e27a 1ee2 8438 b1bf c3ca 08f1 21ac bfbf
00000730: ee93 42a4 1f62 e0bf 3244 3654 1040 c03f
00000740: f32a 25f0 e7b0 c73f bb78 376d 0142 c4bf
00000750: 96b4 4266 4ee6 c33f 6f00 d88d ae1b b3bf
00000760: 20ab f804 4230 b73f d492 fba8 93b0 c2bf
00000770: f06c d66f 464b bfbf 2b44 09e6 40e9 da3f
00000780: 9804 8b8c f0a9 c1bf b97c 04fb 4d41 b23f
00000790: 4958 3dc3 43b5 c13f 7ce0 cb36 6da3 d13f
000007a0: 74e3 49b6 b793 d5bf 47d3 e2fd 9184 d8bf
000007b0: c331 6b30 c822 c33f 4f04 5172 892e da3f
000007c0: 1e13 9185 f9e0 c1bf 1205 43b8 7111 c13f
000007d0: e833 a39d 70fb d1bf 3d25 08f2 5a1a c3bf
000007e0: ae2e f4fc 278d d6bf 0c0f 22c4 4c94 bf3f
000007f0: a3a8 ff50 928b c5bf 4cac 4d13 0ad3 c3bf
