balderdash_lstm/lstm_model/models/lstm_model_7.npz (npz, 903256 bytes, 19 tensors)

forget_gate_weights f8 [108, 81]
00000000: f1cd 37e0 bdab ad3f a9ce 424a 23d4 e3bf
00000010: 870f 000c c14b efbf acd5 ce96 b3e5 f13f
00000020: 3e2b c9d7 63e8 03c0 e243 4e9e 2ceb c23f
00000030: 67f0 e880 068c e0bf fe9a 7d96 9986 f6bf
00000040: 0a02 9f64 7fe0 de3f 0430 4c76 a5be c6bf
00000050: f722 8391 f3a9 f33f 1fb1 6b6d 7d27 df3f
00000060: c524 3934 8df6 e8bf 3757 48a5 8d1a dabf
00000070: b0a1 db1b 7f70 b03f 1d4b 9750 979a debf
00000080: 08e4 0ccd 2029 debf db8a fe58 da85 e33f
00000090: a647 71d3 7fa4 d63f f795 a7da d819 ebbf
000000a0: 4a77 6ce5 0d6c b6bf ebbe ef9c d7f2 f13f
000000b0: 9174 1dc7 5e95 f33f af82 f664 5827 d3bf
000000c0: 8471 2ec6 2eb2 d0bf 66ac a304 fedf edbf
000000d0: a432 b566 1293 e0bf 9f20 bf6c 8420 e93f
000000e0: 5e82 7c5f af1b 00c0 d8e7 cb7e 2895 b5bf
000000f0: 86f6 d096 a038 e83f ff9d 16da 6445 f13f
00000100: 353a e9a8 be17 f8bf 43ef 4154 70ea fbbf
00000110: 6eee 8a5c ea14 8d3f 0dd0 0fd2 8583 cebf
00000120: 36e3 e3db c2af fd3f 96d6 712b 72ff e1bf
00000130: 4270 17dc c428 c43f 981d 80fe f729 f1bf
00000140: a0ec 663c 3a50 e4bf fb68 f92c bc43 c33f
00000150: 37ab dd56 e6c5 edbf 941d b248 ebf7 f33f
00000160: 1e30 ebe7 c809 ff3f 5c2b db2c 7f2a 5cbf
00000170: 5199 8113 d76a d53f 57c4 4674 a3f7 953f
00000180: 9854 d342 7ec1 bd3f 6521 ed0f 10d9 eabf
00000190: e4fe 9521 96a6 f93f 4b53 14cb aea0 f63f
000001a0: c904 f9dd 0b1d dabf 0fc4 6a4c 2fc7 f53f
000001b0: 0079 3f8c f8e4 26bf d30c 4521 8082 e4bf
000001c0: bd37 d395 f912 e1bf 9796 14c1 8962 993f
000001d0: 7276 5b8f 0c24 acbf 5c7f a7d6 03fe e83f
000001e0: 167f 59cc 20ed e33f c1ff 3405 7c3a c4bf
000001f0: 2738 ac69 e2b0 e6bf 9809 a685 0b70 e2bf
00000200: 3d22 d0b4 7afe e03f fe3a 7eeb d337 e93f
00000210: 1790 5c00 65e7 d3bf c0bc cccd e0df db3f
00000220: 1df6 6b31 1350 debf 150e 8f8f f107 e03f
00000230: 8f2b c19a eeaf de3f d744 8c98 cdcb e53f
00000240: 57e9 19cc aa77 f43f dbfd 1834 21a4 e5bf
00000250: 5cc4 965e 384e e6bf dac2 cbe5 78b2 f13f
00000260: 366f e9c6 0799 e93f 531f b613 7f7c e7bf
00000270: 846b c04e 4e15 ea3f e198 c15e 9d09 db3f
00000280: 5ddc a6e5 8e06 f03f 2b7c 2242 1d0e eabf
00000290: f998 c86e 0393 e2bf 4a67 95fe d0a1 e7bf
000002a0: a68c dd07 2827 cbbf ffc7 a4fe 2083 e1bf
000002b0: 8294 38a6 aec4 e03f c2c7 2cd6 4077 f4bf
000002c0: 528b 02e1 015a f7bf b5ea 48b0 b1ff e6bf
000002d0: baba cee5 9e33 ddbf 12b7 5913 9b69 f0bf
000002e0: c5f5 a179 dbcb bcbf e869 2d21 1af8 e3bf
000002f0: e471 e3ac 5ac3 e6bf bdd0 0cfb 65b1 ebbf
00000300: 8737 6464 ad06 eebf 2e50 c385 6b59 ddbf
00000310: de81 1c2d 4b16 f4bf 60b9 a656 4683 f7bf
00000320: 7883 487f 245b ebbf a5de ed47 a924 e8bf
00000330: 2ed9 4aa8 7f94 a2bf 1764 387c 70ae fbbf
00000340: ba1c 8aa0 6926 02c0 381c 5a0a d207 f4bf
00000350: b5cb 378d 45b1 d23f d09d 402c 556b e9bf
00000360: b9cc 4912 8bd4 eebf 847f 7dd7 2c3d e0bf
00000370: 5ffe 4452 9d41 d5bf 344f 544c 97d2 f1bf
00000380: 8697 fd7c 8f32 d73f c216 81eb 738e d73f
00000390: 9539 650b 91d7 dbbf 085a 0b66 5437 e5bf
000003a0: 92e4 5a6f 466a e8bf 3720 b354 83fa f0bf
000003b0: a2e9 00a1 563e e23f 21f1 00e9 f1db f7bf
000003c0: bae2 dfdc ca82 ccbf 8499 5a12 582c f5bf
000003d0: 7986 363c 9053 f0bf 9b0d a67d 733b f8bf
000003e0: a40a 7554 09a9 b03f 25a9 4a4c e6ef 9ebf
000003f0: 375e f4c0 bfc8 e7bf d702 63c5 1279 e0bf
00000400: cca6 b409 c786 e8bf ae6f 70ff 6afe f7bf
00000410: 7a12 2a38 e95a babf 43e1 4182 4ffc e83f
00000420: f02e 2114 537a dd3f 220c 50a9 d95c f6bf
00000430: ae06 a8db df0e 8e3f 6799 1a42 ff29 f3bf
00000440: f595 4e80 c8b1 ebbf 25d4 1b08 9327 fabf
00000450: a155 e560 0926 ecbf d061 6f7d 7e8f debf
00000460: b25a f681 80af a23f 08cd 550a 75c7 e9bf
00000470: a1cc e314 30de f3bf 1be4 4aa5 c676 dd3f
00000480: 822f 10e6 d79e f5bf 79e4 ff2e 9321 edbf
00000490: 7d27 1c46 9853 ecbf c53e b558 530f febf
000004a0: 6ddd 2124 a06a f23f a5ec f41a d635 f7bf
000004b0: 4b4a 2cd5 ff0e fabf 77aa 1eb7 b541 d33f
000004c0: b443 060f fef1 aabf e12c d9eb 6814 e83f
000004d0: f9cb e969 89b3 eebf d59e 83e6 c743 f9bf
000004e0: d827 a58d 7f9f b43f f832 787f d5b9 f2bf
000004f0: 1689 b842 1200 d23f 2458 a09d c759 fabf
00000500: 3879 37fe f84c f1bf edda ce2e 53eb f2bf
00000510: a45b f53b bfdb ecbf 58ad 72a7 5c52 edbf
00000520: b80c 7c73 6163 f4bf 6b02 5d8e 1725 c9bf
00000530: ade2 ab56 c66a f6bf b403 64a0 97ab f23f
00000540: 1099 9ac6 a1b9 bfbf 1c66 a60e 2d12 f5bf
00000550: f00b e273 dba7 cf3f e31a 85e9 3355 d8bf
00000560: 471c 5dd7 4e6c d83f 2a6d fb2b fc02 c33f
00000570: dcad e4a3 e34c ca3f 8ab4 ca57 0112 e3bf
00000580: 85bb 0cc2 f8ae cdbf f865 976d 6ac4 91bf
00000590: 3061 f9d6 2e97 9dbf 3204 069c 48d8 aabf
000005a0: 7758 d79f 13db d7bf cd93 dfae 1ffd f3bf
000005b0: 42ac ef5f 133a d53f 0223 93ea a269 a6bf
000005c0: 1c25 acd7 b4fa d9bf d0c0 e64f 3ef7 00c0
000005d0: c104 c67c 14df f3bf d04e 2207 549f cfbf
000005e0: 792a 0947 6d88 b03f e162 e2a1 bbce c5bf
000005f0: 9804 2155 14e1 eebf 68b2 5f6c 08ec a4bf
00000600: 2435 8ee8 f173 c9bf 6a84 c4e3 41bb ea3f
00000610: 0a8f 9096 197b d3bf ac4d 9be3 cdea f0bf
00000620: dddf 9901 087e d4bf 1f01 161f bec3 d23f
00000630: f603 3938 26c0 9ebf 8947 de91 368c abbf
00000640: f699 dffe 7e86 b7bf 02e5 a1d8 a300 e6bf
00000650: dacc 20c5 abc8 d3bf 9d1e 0d44 6d2f eabf
00000660: d48a 2c57 faef febf 7f94 e11d 2aa5 ac3f
00000670: 3136 5cbd 7f84 d43f 43ee 2528 2e68 d43f
00000680: d04d e29f c1f0 f0bf 3c29 227d 0527 91bf
00000690: 9576 c860 4058 debf ac40 9c4e 4f43 f0bf
000006a0: 13c1 9046 c9fd be3f a498 90fb 6e20 f53f
000006b0: f836 0e8a 7e60 d0bf 7d7b dfcd ec9d e03f
000006c0: f284 4666 e866 d3bf 278d 87d1 4316 ecbf
000006d0: 2af1 d655 4e23 efbf e06b d8d3 2f7f 60bf
000006e0: 1cf9 badd f846 dbbf 911d 2131 2a3d b03f
000006f0: c281 9efd 9f18 e9bf 66f6 6721 3270 a8bf
00000700: 6193 676b d259 f0bf 8322 1f21 6ae5 00c0
00000710: b3e2 8850 d6f5 f2bf fe06 1ad0 c1e0 bdbf
00000720: 95aa 1f2d 85c7 ab3f 836e 9a7b 7442 dc3f
00000730: 94fb ac36 1e89 f4bf 9b17 ac93 dbc5 d7bf
00000740: 00af caa3 a489 cdbf 22b6 414f cd13 de3f
00000750: cbdd 40f8 023e e73f eaa3 32c4 e890 bc3f
00000760: a658 0562 92d4 dcbf 758b 8574 3fd8 ec3f
00000770: 45fa 06fe 883e f2bf 6c1d 837a fb40 e33f
00000780: 46e3 af31 d4c8 cbbf f984 73d7 4884 d13f
00000790: 5a94 eb06 35e0 b0bf eb70 78e7 a739 f43f
000007a0: 9b86 4827 1fd5 f2bf f4e3 3c20 eabd f0bf
000007b0: 321a dd37 d175 ea3f 1c51 3fed ea48 f4bf
000007c0: b7c1 9d77 e488 f33f ad0f b1e1 4f49 e13f
000007d0: 3a0e 4a91 b027 f4bf eb68 f6b8 aa91 ec3f
000007e0: 30a8 91da 06cd f0bf 1b40 6cc0 405a ec3f
000007f0: f26e a4ad 1cba f13f e13e 406f 50aa e63f
0.05795091020618404 -0.619645733872365 -0.9779973253612163 1.1185794726310219 -2.4884716852442628 0.14780194978496214 -0.5170929448863831 -1.4078613165417546
0.48245224787027097 -0.17769306446314215 1.2289920505592684 0.4867852753220791 -0.780096628187629 -0.407870685013552 0.06421656065106762 -0.47818549032415253
-0.4712602617688053 0.6100894678278012 0.35379024170571893 -0.8469051619146616 -0.0875862774959987 1.121787655862074 1.2239673402721432 -0.2992764459577683
-0.2608754096379686 -0.9335928049671451 -0.5179531103145405 0.785219395061194 -2.013518091189595 -0.08430722327821571 0.7569125123624907 1.0794418829990489
-1.5057970617377923 -1.7447360316572975 0.014200049351863 -0.23838875538751872 1.8554104413471584 -0.5624323700455587 0.15749417063386956 -1.0727462712692155
-0.6347933940627577 0.15050461002358148 -0.9304076859092224 1.2480271186521792 1.9398888644527754 -0.0017191163964748934 0.3346460047236138 0.02145247838206318
0.1162337220333306 -0.8389969168720596 1.603170520014765 1.4142291958607582 -0.40802284886383383 1.3611290917435814 -0.00017467054396908682 -0.6409302377509455
-0.533566277148331 0.024789955529874588 -0.054962532519977084 0.7810076897112412 0.6226963034823452 -0.15803480390786542 -0.7090923370285552 -0.5761773691486267
0.5310643702987999 0.7880649184679382 -0.31099820170698095 0.4355394372714265 -0.4736373884805703 0.5009696773417455 0.4794880400920016 0.6811283091975849
1.2792156193450717 -0.6762853639156065 -0.6970483634414779 1.106072328224562 0.7999304661748059 -0.7339473137844642 0.8151008165472011 0.4224618363717934
1.0016011210225522 -0.8142229358380794 -0.5804459727994803 -0.7385029766403275 -0.21213245758108207 -0.5472569440373717 0.5240090605262966 -1.279114567395013
-1.4594744481516568 -0.7187126582205879 -0.4562756771291948 -1.0257826572300854 -0.11248561591670299 -0.6240358970638313 -0.7113469483115833 -0.8654050734826552
-0.938315101697058 -0.4585827642706616 -1.2554427873766296 -1.4695495018782694 -0.8548758016587348 -0.7544752507082718 -0.0362892048773794 -1.7300877430300312
-2.2687561552189353 -1.2519092945456247 0.2920698050576747 -0.7943521370224804 -0.9634452206795664 -0.5074676712792869 -0.33212979349261745 -1.113913820420703
0.3624609680758727 0.3680696296545244 -0.4350321399005222 -0.6630041115811887 -0.7629730391410183 -1.0611604031164583 0.5701096672631147 -1.4911975003916
-0.2227414682854681 -1.3233261792134678 -1.0204012252874277 -1.5145144374990653 0.06507929145758823 -0.030212019354317072 -0.7432554978030969 -0.5147794585428426
-0.7664523305477018 -1.499613759812728 -0.10294969197463813 0.780799631508707 0.46059109655173724 -1.3976685155655635 0.014676808253173714 -1.197753198831913
-0.8654520517345065 -1.6346617047067948 -0.8796431438919862 -0.47750818490524427 0.036495223869839846 -0.805597801385745 -1.24174507293791 0.4603745092568389
-1.3512801157803271 -0.9103485029182955 -0.8852044457755565 -1.8787415948062727 1.1510316287438755 -1.4506436398503777 -1.6286619498320245 0.30088560946266035
-0.0526275056209963 0.7524914366162215 -0.9594161099070099 -1.579048061796063 0.08055875023015291 -1.1703696231153895 0.28125435367304996 -1.6469188840178584
-1.0812921457614504 -1.1824523762167545 -0.9018245860159948 -0.9163039465396805 -1.2742628584972362 -0.19644445849737066 -1.4010680566408766 1.1668926491986271
-0.12392626856544475 -1.3169375011697246 0.2473100963435111 -0.38020036511117733 0.38161059409725734 0.14852859637799415 0.2054714727649828 -0.5959479059871609
-0.2319022128590086 -0.01735082906620808 -0.028897029753666092 -0.052431363149488056 -0.3727463780354649 -1.2492977934827991 0.3316696583630724 -0.04377469171010341
-0.40592690526735153 -2.120724319676903 -1.2419628976788746 -0.2470498118242319 0.06458170875809256 -0.17037148861415743 -0.9649755156207389 -0.04086328814432677
-0.19885085921524948 0.8353585671030832 -0.3043884249075154 -1.057325257385723 -0.32019233852724743 0.2931971839498306 -0.030029866391718195 -0.053804116541086584
-0.09189599726196448 -0.6875781279660773 -0.3091229844169 -0.8182894066930718 -1.9335883527025333 0.0559476052738228 0.32058709613997666 0.3188586608955328
-1.0587784047573798 -0.016750417482890287 -0.4741364426753106 -1.0164330549924143 0.12105997059621058 1.320418341326822 -0.25588954431519495 0.5192779561001398
-0.30315599429930196 -0.8777178852437019 -0.9730598141245868 -0.002013772404791933 -0.4262067952476103 0.06343330096671297 -0.7842559770106663 -0.047730986192601674
-1.021929187344732 -2.11201883198038 -1.1850188394438816 -0.11671077089888723 0.05425659347368598 0.44155609198217166 -1.2834760795373983 -0.3714512769805595
-0.23076303479808047 0.4699586175910061 0.7263197754572784 0.11158613958345112 -0.4504743535266108 0.9013974452794701 -1.1402673647823047 0.6016824143234039
-0.21706631113172586 0.2736990074173061 -0.06592112940741526 1.2640761415305473 -1.1770316633705196 -1.0463658580104012 0.8268819895827788 -1.267802168605221
1.2209210083493482 0.5401992233314467 -1.2596898722994312 0.8927816021489695 -1.0500553644037716 0.8860172041186191 1.1079375059989016 0.7082903073187162

input_gate_weights f8 [108, 81]
00000000: 1493 7684 0ea7 f53f 1ab1 038d f1c4 e7bf
00000010: 3d7b 9f6d 6b64 f7bf bcdf 9408 0534 f43f
00000020: 697e 0d37 b7d7 fcbf fa04 e5b3 d405 f83f
00000030: d44f 7da8 4c05 c6bf 67fc 1387 5168 f13f
00000040: 2634 1f3c 0f47 fa3f 73c4 f605 32e2 e0bf
00000050: d2b9 7283 ad19 e73f 7c44 05d3 5c8d c6bf
00000060: 0cd1 b5e6 c3bf d23f 7410 ed1d ff76 f33f
00000070: c65a 111c c6c5 82bf d8c0 0f7c 5e7f e93f
00000080: d427 37d4 3efd dcbf 1b9e fc4a fcb1 f83f
00000090: 8317 65ec d51d f43f 0d12 81b6 8a72 d13f
000000a0: 8972 ce29 bd88 d53f de2a 9fab e5ef fabf
000000b0: f09c 36ae 73fd f83f 400e f3ed 6334 cabf
000000c0: 030d 18cb 3b66 e23f feef 00bc 9f49 efbf
000000d0: 2bcb 4258 bfab e03f 8dd8 6c11 010b e63f
000000e0: f2fb df32 d536 fe3f c09b a335 c74d d13f
000000f0: 74f0 8a5a 7122 f83f 2896 4222 57eb f9bf
00000100: 94f7 7db6 039e 993f 89b4 486b 7462 0040
00000110: d1b3 e770 ce62 f73f e284 2569 c053 c03f
00000120: b06b a4fa f6f9 f43f f7d4 6dc3 3b55 ebbf
00000130: f26c 078a 88e6 f13f 5176 8cc8 b1c9 f03f
00000140: 865e c16a 5aef c53f 8bf3 003b f55c e63f
00000150: e595 c2c9 a213 eebf e03c b98d 6510 f33f
00000160: 3fa4 bc4a a6eb db3f 20c5 40c4 5941 e23f
00000170: 7719 e580 d5f7 e73f cc6a 94a2 f9fa e63f
00000180: 112b ced3 5413 e73f 0414 d7a3 a467 dcbf
00000190: d978 38b6 07fc bb3f f477 a52f 06b5 e33f
000001a0: 3fe0 9a66 fa10 e03f 32db a98b f2f7 f23f
000001b0: 74b1 c2ad 41a9 f03f add2 68b7 6732 f0bf
000001c0: b910 371d 74ea ecbf cf35 55b4 972e ed3f
000001d0: a6bd db16 b85a e03f 442a c706 dc23 fb3f
000001e0: 6216 70ef 22fe 0140 adc3 1e8a ce85 c7bf
000001f0: c8a1 43bc 5333 db3f 89d3 8f03 11af e8bf
00000200: be89 8c90 aca4 f4bf 2026 e2b4 48f1 f83f
00000210: 3cfa f252 eada ef3f 3f45 93b3 65f0 e63f
00000220: 4907 c263 84e5 f6bf 1cd7 fe72 9a20 f23f
00000230: f3b0 e582 d158 dd3f 7d14 f77c 4e4a d23f
00000240: 9f58 50e9 7089 f73f 7d01 c3e0 36fc e83f
00000250: 3d88 3c82 98b9 de3f a798 cabe d991 b33f
00000260: f4e9 6ed0 f1be 0140 39cb c3aa 5dbf d0bf
00000270: 6040 55b9 8a7d f63f 864b af44 03eb ea3f
00000280: 3ce4 f3ff 8c19 f83f 2e62 ca51 717a ddbf
00000290: 7bdd 68c4 8cee e8bf 5286 5159 1fe1 c33f
000002a0: 2950 9f01 0e27 cdbf 2114 03ff 9827 e5bf
000002b0: 613a b15c 873b c9bf b16b ec69 b6cd f3bf
000002c0: ea64 0512 5a80 e8bf e144 3ea4 a072 d8bf
000002d0: 0a0e cfec 5175 c3bf c2ed dce0 63f2 d8bf
000002e0: 0cc9 1a84 1261 f1bf ade4 6143 ab81 e3bf
000002f0: a7e4 db37 4244 dbbf 986e 6463 712a b3bf
00000300: 4c71 f9ff 0c83 e2bf ef4d 7dec 2b12 cf3f
00000310: 088e 2374 783e b6bf 030f 0c78 b73f e0bf
00000320: 03a2 04da f717 ecbf e4e5 3a98 ec4f 553f
00000330: 17d7 8139 8327 c93f 4fbf 66b3 b61a e9bf
00000340: 5298 f180 2aea e93f ce23 d640 d70e e9bf
00000350: 72cb bd90 89c8 b3bf 4e2f f0b6 4064 e1bf
00000360: 9916 67aa 120f cbbf b977 a574 0d5e efbf
00000370: f060 6be7 e96f c8bf 37ad d4c0 b86d 9c3f
00000380: 3943 fad7 66c7 e2bf e2de 3a2c de53 e8bf
00000390: 4441 abcc 5f2e abbf 3af4 3203 60fc e1bf
000003a0: 36e9 4221 7bce dbbf b33c 5b06 9c84 d53f
000003b0: 9215 b6aa 9947 b2bf 1b02 b42f 809d e6bf
000003c0: 3823 97ef 2f03 d8bf 420d 4da7 7579 efbf
000003d0: 57ca 8751 1528 ecbf f8b4 63b2 128e ca3f
000003e0: 57d2 57a5 c310 f7bf 69ae 61dd 8a4f f3bf
000003f0: 946d 7258 d386 e2bf 329c 5ca3 a179 e8bf
00000400: 8b8b 1e33 3bc6 f2bf a862 4970 b95a c7bf
00000410: 01b0 db92 5a1b b83f 3a8b c2f6 2c71 f2bf
00000420: 3d8b 3baa 46d9 d6bf 3b8c a51b c717 ccbf
00000430: 61e0 55d8 73a7 e6bf 06c1 84ea 47c4 babf
00000440: 1a74 666e f889 da3f e531 93e9 e62d f7bf
00000450: 002e 6122 8528 d7bf 8aac cb89 b976 ecbf
00000460: 103a 52f1 ab48 f3bf 7c13 a415 5477 d13f
00000470: c044 9eaa 869c f8bf cac0 5c7a 4d29 edbf
00000480: 605e b14e 27bc debf daa3 7b1e 0243 d23f
00000490: bffa 7fbc 7c0d d23f 5b5b b7cd 91bd e9bf
000004a0: 4167 0a94 c006 eabf d792 5563 f1dd aebf
000004b0: 71ff d44e 47ec e4bf 9ea6 f685 1d7d edbf
000004c0: 4338 7437 cd4b f5bf 34b8 270d 4389 e5bf
000004d0: 9d84 04b3 9f05 debf b300 486e 0c08 e7bf
000004e0: 46a2 0a2b 0759 f7bf 0053 03fd c6b1 ba3f
000004f0: 4c92 9336 fb72 b03f ac43 2092 d492 e2bf
00000500: 35ae d1fc 0160 f3bf 27a4 9a80 0cd1 af3f
00000510: f635 1df0 4877 c4bf 1f24 5a83 e15f ecbf
00000520: 36ef 5a1a 7fb9 efbf 0e9d b96d 6805 e2bf
00000530: a69e 7f90 274e f8bf 94af 8589 f7bb 7f3f
00000540: f972 07e3 2b54 d8bf 58aa d7d0 8d6d e4bf
00000550: 00cd 6a79 ccd1 b9bf 1102 3097 5d4b dfbf
00000560: fe4d 2596 9b8b d53f cb3e b5fd b219 f1bf
00000570: 0f8a 5145 8bcf a1bf 17af 0709 92e5 e2bf
00000580: 95dd 9070 c517 f0bf 2d9e c430 7466 c83f
00000590: c87f 6772 7a38 cd3f e14e b238 4c4e dd3f
000005a0: 35d4 eafb fbcb cd3f 2c46 3b64 3559 e2bf
000005b0: 3882 883d c4a1 d73f ad79 08af dd27 e1bf
000005c0: fdad ae4c eb4e cabf 3d8d b35c d842 f0bf
000005d0: 12d2 1427 5ec1 ebbf 8450 261c bbeb e8bf
000005e0: 982f ce9c d11a d83f aeb3 b761 11b8 d0bf
000005f0: 1e18 9482 5f29 e7bf ecd4 a15a 4e27 bebf
00000600: 3874 080a 0ec8 df3f a651 ac00 aea2 f2bf
00000610: 8fd1 5053 16a2 f0bf abfa 4c25 6dd1 c73f
00000620: f437 1e2d 2035 ebbf 4693 bb58 0b67 6ebf
00000630: 18dd 7289 862a db3f b36f 326a 2466 e9bf
00000640: 963c 0e0e 2234 d03f cd88 a309 ca62 ccbf
00000650: daa5 89b0 f052 aabf a3b4 e21b c17e e6bf
00000660: 7a30 0234 d80e f3bf c734 b6fd 4c36 eebf
00000670: 753d 8791 e056 f0bf 7ce9 bdd4 1c49 dfbf
00000680: f215 91a5 2c9e d5bf 9337 3f1f 0499 f5bf
00000690: 6973 d927 3723 d83f 1ab3 01ae a0da d2bf
000006a0: 6942 8604 15d9 f2bf b633 62e5 ce7a e7bf
000006b0: 43d2 653f 9cf8 82bf 7a51 800c 658f e6bf
000006c0: 449e 6c47 161f d43f a386 f792 8ceb d6bf
000006d0: 7104 0c1d 899f f8bf 2efa ee5e 6048 ba3f
000006e0: 4096 b27f b469 f2bf dd55 2c5a 6bdb e3bf
000006f0: 1fcf 0af3 cfc1 e33f 5e6f 725a 5704 d9bf
00000700: 4c48 5a82 8f8e f5bf 8a7d 1e3f f93d fabf
00000710: 8045 83a6 b816 e5bf 7ce4 fc66 894a 87bf
00000720: 966c 15d7 3af4 d03f e210 ac9b 61e7 dabf
00000730: 21f3 1e13 37f9 e9bf 931b a1d1 32d5 87bf
00000740: c3b1 e2f6 f4e0 f5bf c112 36b6 6193 f1bf
00000750: d111 8473 3689 dbbf 2077 6082 830a d43f
00000760: 00f8 9e39 84ad d53f ed23 867f 75a8 f8bf
00000770: b7ce 9e2b d17e e33f 5fb7 9898 473d e6bf
00000780: 20cf dfbe 1f6e d4bf 498b 59a0 76b7 c5bf
00000790: b68b e366 b3bd e43f f84f cc1d 5a5c cbbf
000007a0: 3850 06a0 9cc6 ddbf dbbb 0540 fb3a d03f
000007b0: 6082 31e9 728c eb3f ccdd 099f 6c0b e5bf
000007c0: fae2 485c c7c9 f23f 6973 d99f 699d d03f
000007d0: 3e64 0d47 7fed d83f 5d24 1ae9 cc40 d93f
000007e0: 0503 c32e cee9 99bf 7d38 003f 3ba8 f83f
000007f0: a185 2478 1e50 ed3f 663a f019 cb9d dc3f
1.3532853292792355 -0.7427909616649544 -1.4620165140292578 1.2627001128403057 -1.8026649618622292 1.501423552239713 -0.17203672625566802 1.087968375824653
1.6423485134612377 -0.5276117435916049 0.7218844954821242 -0.17618904403437685 0.29295442133231187 1.2165518921838414 -0.009166286212502494 0.7967979834629899
-0.45295687412419494 1.5434534959002864 1.257284091393985 0.2726160795466804 0.33647088129672703 -1.6835686401342893 1.561877899666623 -0.2047238265860063
0.5749796835592921 -0.9777373001047633 0.5209652637334775 0.6888432827315839 1.888386915903308 0.27037220228379155 1.5084088837457132 -1.6199561441693593
0.02501683999388822 2.0480736142695304 1.461622658763407 0.12755589613065071 1.311026553222046 -0.8541544739697703 1.1187825576551487 1.0492418130810572
0.1713669797197676 0.6988474037567455 -0.9398969593645999 1.1915030990674538 0.4362579088070255 0.5704773743692932 0.7490031735876944 0.7181366134057838
0.7211097847769868 -0.4438258743287522 0.10931442450280161 0.6158476763337135 0.5020725254062269 1.1855340438466553 1.0413224017639466 -1.0123059429580892
-0.9036198206527138 0.9119375726820013 0.5110741087391275 1.6962547554745848 2.249090071304452 -0.18377095932149015 0.4250077570455031 -0.771370417553599
-1.2902036329693227 1.558907229018935 0.9954730625248156 0.7168453700379941 -1.4310344597619908 1.1329597942362346 0.4585460451405787 0.2857853145945411
1.4710549463102678 0.7807878866079104 0.48007786482242293 0.07644425304406131 2.2182346614692907 -0.26168004680873796 1.4056498755999414 0.8411880818842838
1.506237983527412 -0.46059830653533396 -0.7791198574185921 0.1553076921582482 -0.22775435523237889 -0.6610836964324599 -0.19712917352667872 -1.2377227914464408
-0.7656679489110989 -0.381996307748592 -0.15201782286577298 -0.38979432067182185 -1.0861992988907927 -0.609578734976045 -0.426041178273929 -0.07486637760706072
-0.578497409772845 0.24274205252969192 -0.08689072451993962 -0.5077779144926072 -0.8779258020559272 0.0013007936949364024 0.19651832874267747 -0.7845109466488597
0.8098347204620586 -0.7830616251313758 -0.0772787073490642 -0.5434878895771165 -0.21139748878902223 -0.9802310255288297 -0.19091533469941835 0.027762305039840753
-0.5868410318672438 -0.7602377761713479 -0.053088182195667716 -0.5620575010758622 -0.4344775986497952 0.33621883984319395 -0.07140503328090222 -0.7067261630728042
-0.3751945342778984 -0.9835766093823752 -0.8798929779425845 0.20746072493003687 -1.4415928324425715 -1.2069195411412699 -0.5789581992607276 -0.7648475828799575
-1.1733963009689627 -0.1824561880373683 0.09416738591579589 -1.152630771547321 -0.35701147674824424 -0.21947563981948 -0.7079409814168792 -0.10455750918913873
0.41467104703207414 -1.4487065433523807 -0.3618481479395257 -0.8894927684135763 -1.205242102299625 0.272908230909074 -1.5382143654608598 -0.9112918271912573
-0.4802339809880092 0.2853398606953853 0.28207319648928925 -0.8043908136267918 -0.8133242503565513 -0.06028704011513291 -0.6538425960243172 -0.9215228668665139
-1.33100625669205 -0.6730056054054843 -0.46909325105850447 -0.7197324899607537 -1.459235351687441 0.10427516629290423 0.06425447542603385 -0.5804236272834848
-1.2109393954987244 0.06214179105638378 -0.15989028667756572 -0.8867042127104731 -0.9913936152220006 -0.5631601470057903 -1.5190807003472542 0.007747618620083236
-0.3801374165612255 -0.63837328710117 -0.1008575245312393 -0.48897495045096756 0.3366459814326105 -1.0687742147892318 -0.03478656026051762 -0.590523736607312
-1.0058035275559167 0.1906266439557255 0.2282860811819758 0.45790391480225706 0.2327876071991867 -0.5733897168776756 0.3692484475050466 -0.5361164492240299
-0.2055334209847927 -1.0163196202418725 -0.8673544658000216 -0.7787757444189229 0.37663688958195385 -0.261234612872438 -0.7238004255639259 -0.117787263037673
0.49658537845408857 -1.1647167230886253 -1.039572072460121 0.18607868501017796 -0.8502350693904632 -0.0037112447370070438 0.42447055266116385 -0.7937185358200537
0.2531819474469982 -0.22176480742115814 -0.05141403346062719 -0.7029729408874527 -1.1911241561492987 -0.9441285090739705 -1.0212102589319703 -0.48883744025774667
-0.33777919930102407 -1.3498574467261946 0.3771493806032625 -0.2945939730914674 -1.1779985596405373 -0.7337412338398426 -0.009263249096627684 -0.7050042385258586
0.31439740157154383 -0.3581267771934142 -1.5389491209646418 0.1026668769618275 -1.1508069027126027 -0.6205345879740737 0.6174087283056656 -0.39088996727672576
-1.3473048297787669 -1.6401302781667675 -0.6590235950663299 -0.01137263627571116 0.2649066067148821 -0.4203723926768942 -0.8116717694716479 -0.0116371126388353
-1.367421116253454 -1.0984818570733952 -0.43024979859208395 0.31314170581923584 0.3387156069474031 -1.5411276799588862 0.6092305995902824 -0.6949804287339524
-0.319221435928954 -0.1696613581617277 0.6481568345592368 -0.21375585989937895 -0.46524730327041963 0.25359994175135875 0.8608946375425823 -0.6576445680829521
1.1742623906013123 0.2596077023534265 0.38949567736341695 0.3945801044834008 -0.025305959323989508 1.5410721264811678 0.9160301538978964 0.4471309426598168

output_gate_weights f8 [108, 81]
00000000: a251 bbd5 4ce8 d3bf 30aa fc9d 121f f3bf
00000010: 5a5a 5a38 6a13 f5bf 005a 955c 7eed ee3f
00000020: 9fca 45f9 8750 f8bf 2d14 a856 b961 0040
00000030: 7a07 2332 2eb1 dd3f 6b70 f04e 35ef d43f
00000040: 7ad7 438d 728b ff3f 15c0 231a cb0e eebf
00000050: b260 74b7 1b98 f33f 1243 5d91 66c1 d53f
00000060: 10f6 ffa7 f7fb cfbf f332 220b e335 ee3f
00000070: e754 6fee a435 e4bf 0b3d 34d0 e992 d63f
00000080: 2115 3734 4350 92bf 5c17 40c2 453b 0040
00000090: bea3 22c4 cb4c f73f 0bf5 1b73 6477 f3bf
000000a0: 711f 6228 4ea7 e73f ffa7 3308 4750 efbf
000000b0: af4f 2f71 8f98 f93f d8c1 40f0 9e3c b83f
000000c0: d8ba 9ae1 9370 e1bf 83b5 87a7 68dd f0bf
000000d0: 3f5c fdfe 229b d63f 94dd d151 3294 eb3f
000000e0: 4cd6 c480 188c dc3f 5827 3e85 0a98 c33f
000000f0: a468 93a0 c8c9 fb3f 8768 5cca 81c2 f2bf
00000100: 1aea aa4e bee7 e4bf 61d6 746c 65cb f13f
00000110: e6d3 c89c ec1d da3f b0ad 4b8f 1fa6 e13f
00000120: 6d9b 57d3 6191 f63f 2ba2 6dc3 7171 f5bf
00000130: 016d b22e 7430 f63f d718 ca8a 7409 e53f
00000140: 3060 f061 b9f2 d93f da5d f738 1060 dfbf
00000150: 184e 9d5b 56d4 edbf 7ea4 093e 492d fb3f
00000160: 66bf 8659 06b9 f23f 5e27 9793 2d7f de3f
00000170: 3a1c c538 c42b dfbf 6e3d 6b08 dfb4 c73f
00000180: b191 6568 7591 ea3f c923 6598 6106 e1bf
00000190: 1a86 c300 89ea ea3f 1c2f b6f4 6f83 e73f
000001a0: 6f21 0ae5 0e85 e03f a019 457b d835 f73f
000001b0: cf90 ae3a 30b4 e53f 9408 739e 2b75 debf
000001c0: 22be ab9d 631e 00c0 7b8f e820 d466 eb3f
000001d0: c993 cca6 2ca1 debf 341e e1fe 167b f63f
000001e0: 471b 7b2f 8ddc f33f e678 d436 3380 e83f
000001f0: cab6 5993 e3a2 ddbf 0a3a 96d7 b63b f4bf
00000200: 0528 eda7 5d14 f7bf 7b65 ca95 47e4 fc3f
00000210: dfa4 facf 1d7e ed3f dc8a de1a 5728 f53f
00000220: 1e48 e5ca 5fcd f9bf 7368 ff04 8cba f23f
00000230: 17ee abea 932c 93bf 615d 708f e862 e73f
00000240: e6db ebae 72a4 fc3f 685f 55bb d2cb dd3f
00000250: 2924 6011 f080 a23f aa64 b8fc 4c56 e33f
00000260: d1e5 21b2 194f fe3f 4995 2a93 6153 f0bf
00000270: 1e58 c4c5 b09e f73f 2c01 be61 2cf7 f53f
00000280: e74a d82d 1b57 f93f 25e0 30aa 67f5 e1bf
00000290: feb5 8a08 adb1 d0bf 0d29 ddcb a8a1 d7bf
000002a0: 286c 0d35 7c95 babf 62f4 820e 24f1 753f
000002b0: e931 4bf8 79e1 c03f 1753 c2cd 6be2 e1bf
000002c0: 1d01 19c6 2539 e9bf 0a3a bf5e 9640 d1bf
000002d0: 425c 8c69 638b c73f 88ec 9bd1 bfd3 d7bf
000002e0: 3a58 e98e 3f1c f1bf aa8b c7a9 4317 f1bf
000002f0: c80b 7a4c c0a5 dbbf d282 f471 08d2 ebbf
00000300: 5fb4 6b04 3b0e f3bf d5cd a4dd e813 d23f
00000310: 5893 37ea 257b cabf 5512 cc04 c80a e1bf
00000320: 1c30 60d3 45b4 f3bf 76f1 e98a 33de be3f
00000330: cb15 c2e5 ac30 fcbf 126f 9025 8c6f f7bf
00000340: b07e 9d7c 7dc4 9cbf 3a07 8c83 d2d7 f3bf
00000350: da31 c683 d32a 98bf e31a 1100 1f9e f6bf
00000360: 8f9b 911b 46ad ebbf 2e4e b50a 2f90 eabf
00000370: 5f8f e251 32a9 e5bf dcff 83b6 1e88 babf
00000380: f677 5592 9967 ecbf 293e 1612 280b e6bf
00000390: b16b babe 7fda e7bf 7bb1 bac6 1bca fcbf
000003a0: bd0e f694 35c2 bdbf b95b 7a5c f485 8e3f
000003b0: a44e 0e10 a5d7 ef3f 3caf d71a 1b9a f2bf
000003c0: 4ff4 d8de cb27 8c3f 9e0a 4bac 1e9a fabf
000003d0: ef00 598a 5a74 f9bf 8ffa 5b79 98c5 e0bf
000003e0: bc5a c932 f1df f7bf 33a3 192b 647d e8bf
000003f0: dca8 b9b9 a184 e3bf d8e3 7ba6 6f1e f2bf
00000400: 009f d6f8 c4f3 fbbf 0d7d 24e3 ff91 e8bf
00000410: 02ba be1b f8ad a73f 615f 7229 1cc3 d1bf
00000420: b400 6f71 ff05 d23f 989d f9a8 c049 d7bf
00000430: b2b1 ddab bb99 693f 1996 b246 bf0d d6bf
00000440: 809d 5420 98a5 d83f bb7d 4abd e7fa f4bf
00000450: 583f 99ac 3973 debf f362 aaee 0f89 e0bf
00000460: 1e32 8fdd d681 ecbf 597c 81b2 2bae e5bf
00000470: e57d becf c943 e5bf 1c7a f002 7b86 d4bf
00000480: 707f e98a a158 cbbf 2d89 7d58 de99 d0bf
00000490: 1a09 de6e 83f0 d2bf dd32 55cb 2161 f8bf
000004a0: f594 d5f7 630e ddbf 194d 4afb e412 debf
000004b0: 9aff b8ed e750 eabf 6131 644d ed0c dabf
000004c0: e8ef e2ca 3034 e7bf 02a7 12fe 2079 e2bf
000004d0: 67eb 1803 5aa6 f2bf 4be1 70f9 4947 00c0
000004e0: 617d 96ac a60e e4bf 6db3 0934 1e19 d2bf
000004f0: e3ba a7a5 5335 e0bf f156 7b43 c03c f0bf
00000500: 634f 4905 87ae f3bf 259e 997d 6e6c c2bf
00000510: 4242 b33d 8d97 eabf 2889 3661 8015 e2bf
00000520: 2f4f 23f4 5e91 f2bf 1b87 c636 feee c6bf
00000530: a1b4 1ca3 bbd4 e6bf 97d3 cd94 baa5 eb3f
00000540: 58b7 38b4 a821 d53f 7b51 50c9 9392 edbf
00000550: 7047 52e1 c590 d73f 4eb2 01a4 5c17 dabf
00000560: c341 89a2 64be d43f 2650 ef00 b7d5 e7bf
00000570: 6f12 4be6 520f c7bf 3ba4 3a47 6999 babf
00000580: 4e99 49a8 c9cf f1bf 4b9c c3d0 2d86 c4bf
00000590: 623a 360e f7a3 b83f b4d3 1e7a f3b7 e23f
000005a0: 33dd e224 4c99 ce3f 646c 73a1 c6bc f6bf
000005b0: 6f44 b0bc 1bb2 df3f 481e 9b29 b17e 00c0
000005c0: 137f a03c 1dbb e2bf d20f 47ca 1685 f5bf
000005d0: 0775 99d5 a2d6 f2bf 97a3 1be4 c78b f1bf
000005e0: c944 5877 fab4 d5bf 1b44 43da 8e70 e9bf
000005f0: 0225 443d 9dcc f4bf 31c4 3ecc 2228 dfbf
00000600: c294 0d98 2096 d33f a843 21ec 258f f3bf
00000610: ec45 b099 36a5 f4bf 9938 bbba 0e78 b03f
00000620: 49e4 4784 18b2 febf 8cf3 82f9 5fee d13f
00000630: 8d4a c05e 2c90 d03f 4ff0 bcb1 0c8e d2bf
00000640: 562a 0b09 ad44 c63f c01b e94f e1af bfbf
00000650: 9387 67e4 2057 d0bf d1e4 9c06 5460 fabf
00000660: 8e96 fb8f daef f5bf 107e fdea 161a eabf
00000670: 2fc8 fd90 dfc1 e3bf 3c98 cbf4 5a9c c0bf
00000680: 7eeb 7b4d 31c5 f1bf 70e1 2811 4b66 f7bf
00000690: 2258 ebf8 545a 8dbf 6391 6a2c b542 d4bf
000006a0: 6f4c 72c5 7879 f3bf 24d4 a3a0 fae7 d53f
000006b0: fc64 34b4 4592 c23f fd41 b5a8 3797 d7bf
000006c0: a03c 608f aebb 8cbf 4bb6 27fc c80a b93f
000006d0: 886c 158b 962b fdbf beaa 21af 195a a2bf
000006e0: 89ca dba2 1316 f2bf 84a5 0c24 d35b e9bf
000006f0: 4725 6da8 c9a8 d4bf 9ebe 817c dbe5 d63f
00000700: a30a b632 e5b2 fdbf 269c ed0b b1c5 f7bf
00000710: b917 a4f9 210a f8bf 9384 da61 9c7f c6bf
00000720: 5b79 0ba6 7433 c93f f306 c049 eb52 c0bf
00000730: 26ff 5b9f e6b3 f1bf 754a 4eea 34cd cfbf
00000740: 4046 b8ce 0563 f8bf 0b0e 268f b826 e1bf
00000750: 4d95 7a79 7d29 c83f fe3b 3746 99d6 acbf
00000760: f60a 1c8f 1cea d4bf 1e02 0fea 5f39 ebbf
00000770: 2d5d f7f9 0450 d63f fc03 9ada e077 f0bf
00000780: 4a4b 5f30 507b c9bf 72bf b57f 3bdd 8fbf
00000790: 21e6 9395 6ffe d63f 172a f53d 00f5 c53f
000007a0: 33ef aaf5 79a0 e8bf b46a e8f7 6305 e1bf
000007b0: c550 7266 defe fa3f f2f8 d49c 751a 01c0
000007c0: 6278 ee74 a268 f23f 3509 6752 2772 e23f
000007d0: 5468 8504 f613 723f 31b2 d1d1 7c14 e33f
000007e0: 0575 a36f 8a2c d4bf 0d53 8c68 4bf0 fa3f
000007f0: f76e b20b 6887 e33f 9290 fe7f 68fc 993f
-0.3110534751151822 -1.1950861140600288 -1.317239971283604 0.966490917994463 -1.519660924645599 2.047716786388739 0.4639392366044529 0.32710011204631567
1.9715447920002291 -0.9393058310070069 1.2246358076281862 0.33992923923237683 -0.2498769350349197 0.9440779893353394 -0.6315483719760352 0.35271687824656855
-0.017884302198372674 2.0289416480836007 1.4562490140472018 -1.2166485306218557 0.7391730107055833 -0.9785494957152422 1.5997461720735193 0.09467500081587532
-0.5449923902832223 -1.0540548843522124 0.35321879292809294 0.86184040050914 0.4460507638462772 0.15307742601390362 1.7367635986798087 -1.1724870590901746
-0.6532889877774466 1.1121572720125175 0.40807643233284663 0.551528720735794 1.410493684344796 -1.340196383849739 1.386829550180494 0.6574042044383316
0.40543970646240535 -0.4902382427512443 -0.932170084890859 1.6985561774584137 1.1701720711825714 0.4765123311341223 -0.48704629463140103 0.18520725165442847
0.8302561797141178 -0.5320289589372972 0.841129781238297 0.7347945956730402 0.5162424539021638 1.4506459059935892 0.6782456537371447 -0.4759015128476076
-2.0148384397541728 0.856302322649284 -0.4785873059175257 1.4050512272095945 1.2413455824586934 0.7656494208238456 -0.4630669535607522 -1.2645786687240865
-1.4424721297859844 1.8057323313899747 0.9216450750438091 1.3223486947614935 -1.6126401830301869 1.1705436892721337 -0.018724738310068014 0.7308237840215207
1.790148433004782 0.4655653790882668 0.0361399670801535 0.6042847572272383 1.89431161482786 -1.0203567265210316 1.4762428021690606 1.3728450601630113
1.5837661543670778 -0.5612066577950868 -0.2608444770256425 -0.3692419043405984 -0.10384346289849644 0.005356922956875372 0.13188099502293874 -0.5588892954570807
-0.7882260197730236 -0.269567101026866 0.18394129422878974 -0.3722991511310245 -1.0693965513687673 -1.0681797630320298 -0.431991648372954 -0.8693887925802193
-1.190974252003137 0.2824651875009441 -0.20688318191892097 -0.5325660794920376 -1.2315119034638036 0.12057802335215748 -1.7618836378982106 -1.4647332637168273
-0.028093300562771872 -1.2401909960321533 -0.023600869100435996 -1.4136037829027195 -0.8649015940144283 -0.8301005562920574 -0.6769038771931085 -0.10363952594707321
-0.8876464708407628 -0.6888618806132786 -0.745422241703059 -1.799342895780767 -0.11624464880702141 0.014903935501292641 0.9950738252250244 -1.1626235054527134
0.013747780550256076 -1.6626269083214207 -1.5909066585737113 -0.5241205568598434 -1.4921733840798614 -0.7653065530585991 -0.6099403979726747 -1.1324306968001476
-1.7470140190361576 -0.7678222118737793 0.0462491544598045 -0.2775335697892754 0.28161607816219747 -0.3638765001437263 0.0031250634628376623 -0.34458906082213187
0.38510707051542425 -1.311256160180945 -0.47578279357275255 -0.5167312299191437 -0.8908495261508198 -0.677511070865772 -0.6645249421598548 -0.32070803916022483
-0.21364230425660535 -0.25939139024389385 -0.29592977358710615 -1.523713869351176 -0.4540033264405133 -0.46990322628080744 -0.8223762171764861 -0.4070389991545849
-0.7251209223390989 -0.5772862398491443 -1.1656131859769745 -2.034809063680006 -0.6267884608131845 -0.28278307992768853 -0.506509612603477 -1.0148317943580276
-1.2301092344759688 -0.14393406994644056 -0.8309999661524403 -0.5651246927921294 -1.1604909454953931 -0.1791684882601253 -0.7134683786186039 0.8639805704429929
0.3301793823219348 -0.9241427356633233 0.36821124080699175 -0.4076758958461014 0.32412067291900487 -0.744838239503683 -0.18015514607226943 -0.10390336979857377
-1.113229424832372 -0.160344817100141 0.09625190827339616 0.5849549660839473 0.23905326653560052 -1.421087866466018 0.49524587084403654 -2.0618613481963486
-0.5853410896415617 -1.3449924375026865 -1.1774013847091866 -1.0966261778323536 -0.3391710439182814 -0.7949899924225322 -1.2999546426020179 -0.4868247026998374
0.3060380444424703 -1.2224482749772765 -1.2903352740726133 0.06433193262930316 -1.9184804122180756 0.280174249328234 0.25879964116135384 -0.28992001874189993
0.17397082273085357 -0.12377746773664366 -0.2553179007064667 -1.6485176332774254 -1.371058046753578 -0.8156847562458456 -0.6174161750661876 -0.1297715850152502
-1.1106427218171286 -1.4624739332485568 -0.014332450720228766 -0.3165715154412025 -1.2171561920884206 0.3422838753461426 0.1450888757615657 -0.36860457873720504
-0.014029849768148417 0.09782081752902021 -1.823141616149572 -0.035843660953863474 -1.1303898202574223 -0.792459078225122 -0.3228019852436614 0.3577793804060806
-1.8561756115820252 -1.485764547914877 -1.5024738074875883 -0.17576937463767148 0.19688280208260775 -0.12753048993186375 -1.1064211106276587 -0.2484499115058331
-1.5241754603379292 -0.5359766765472512 0.18876617843231216 -0.05632475835920302 -0.3267890355638622 -0.8507537433106938 0.34863399897354236 -1.0292671717763815
-0.1990757213776198 -0.015558686098955585 0.3592795334548971 0.171539335491915 -0.7695894048879154 -0.5319080202055688 1.6872238160913622 -2.137919640778926
1.1505455558431312 0.5764347657607575 0.0044135675492161415 0.596250924876193 -0.3152185526103753 1.6836656650459105 0.610279105039324 0.025376923381955914

gate_gate_weights f8 [108, 81]
00000000: 371c 342c ae22 f03f 8355 3fbc 9349 ed3f
00000010: 8466 e9c3 04a9 cb3f 9c32 850d 2af9 fb3f
00000020: ee94 cbb4 385a c7bf ea3f b3da 285c c03f
00000030: 1eaf 801e fb45 d03f f487 739c d480 fdbf
00000040: 8d98 17fd 4e3b e2bf bcf1 acc2 2a02 f23f
00000050: b2b8 7d3d 32b6 db3f 4d62 4aae cddc c63f
00000060: 6baa c0a6 989a cbbf 11b3 b699 b070 f3bf
00000070: 0e57 46a8 1b86 e63f d32a 1671 80db c73f
00000080: 02d3 44e0 81a8 e2bf 66f7 f028 554c e63f
00000090: 9de6 c6d9 d764 dfbf a4d5 edd8 3cbb ea3f
000000a0: daf7 62cd 1766 d53f 691f d2c0 18a2 a93f
000000b0: 6a1e 6524 d77f f0bf 937c a981 a562 e4bf
000000c0: bc12 2197 7697 e43f cfb3 e53d 3171 edbf
000000d0: 7daa 3f0d a3da c73f 089b 0138 96e9 eabf
000000e0: ee27 76a3 3a63 f7bf 9570 ef17 b46a e53f
000000f0: 4aa8 4b49 2e26 dfbf 4046 a38d 5d4c e53f
00000100: c7fd 14ce 305a fd3f 2687 ff1b 8574 f93f
00000110: 3de8 adf8 1d82 de3f c823 1dfe 4bda d03f
00000120: 0f75 8005 6536 f83f 1eaa 4da7 0830 edbf
00000130: eff3 6844 ed15 d13f 7191 d937 6d06 dd3f
00000140: 6a20 3d69 179c d2bf 6cd2 6ba1 2313 553f
00000150: bbf7 9d27 6659 e7bf ed7b 58d0 4585 e13f
00000160: c652 0a0f b8bd e63f 9ff2 db82 7750 d1bf
00000170: 7391 2a11 bc95 f0bf 7b20 988a 3925 d63f
00000180: 4584 939a cc75 e03f 9f93 0872 52d1 f33f
00000190: 58b0 eeaa f09b f3bf 8479 ca7d 77df f6bf
000001a0: 4008 9775 e1aa 34bf 5236 8196 b267 cf3f
000001b0: adbf 0ca1 2d50 e23f dc5a a329 7668 dcbf
000001c0: 16ad 8bfe a825 d8bf d7b9 4aec 4a58 dbbf
000001d0: 6700 9c6b 7017 f13f 03a8 ace6 ce9f e1bf
000001e0: 77b6 c3e7 6c5e 00c0 83b3 6f7d 1572 d4bf
000001f0: 94db f2e0 78b6 ebbf 8a29 513f 651f e5bf
00000200: 62e8 0de1 cab8 b1bf e6e1 99c4 9e31 0040
00000210: dc93 d0f5 5d9f c33f 7989 f60e 88c7 e8bf
00000220: c8aa b067 679d d3bf 2255 f770 8add cfbf
00000230: c21e 6916 4f09 fbbf 3b23 242d b682 d53f
00000240: f031 d8c2 03c6 01c0 f72b 490e 3e1d ca3f
00000250: e8a9 ee12 fc0a d2bf fa22 256f f1cc 0140
00000260: 91d6 ab07 c5b0 fc3f 7a70 ef00 aeed d2bf
00000270: 5f53 6210 90e9 e73f d10a dbcd aa68 dbbf
00000280: 54c3 3d84 ac26 e3bf 8afd 869b 5811 f7bf
00000290: 6584 c570 e6d0 f6bf 5a1a 244f ae75 f23f
000002a0: 6020 5e4d 3e74 95bf 836e be83 d4bd ee3f
000002b0: 9b64 848f 2b58 c7bf 2a3a 495a c276 a1bf
000002c0: ef5a 8972 2cfe f43f ebec b1e6 d12f cabf
000002d0: 4417 58bc 545f f2bf 5655 00f8 5599 e1bf
000002e0: 572f de11 f320 f7bf e482 b734 9937 ba3f
000002f0: 6fda da00 871b f2bf 2c5d 2213 bc85 dd3f
00000300: f4d8 9cfd 0e81 c1bf a791 8a01 0901 ea3f
00000310: 98ba a9ff 85dd ea3f 26e7 11d9 7a14 c43f
00000320: bb9e d7db f525 fabf 6afc 1866 ad59 cfbf
00000330: 3673 75ec 2b90 cbbf bf09 a473 e37d d4bf
00000340: 8ea5 e4a8 9880 b13f 1311 69cd 6e70 00c0
00000350: 84bb 0c81 19e6 d43f c400 4146 974a b53f
00000360: cba1 db2b edb3 e0bf d6e2 a863 033a f33f
00000370: 62c6 7811 e315 a2bf 9a5a a3e5 5cbe cdbf
00000380: 8960 182d cb5a f5bf 6637 09ac 719c ddbf
00000390: 5cbc da83 5558 e13f 099b 5eac d911 f2bf
000003a0: ec21 6e20 8296 d1bf 0bf7 b664 bbaf d33f
000003b0: 35a2 5edf dbac f73f aab9 6f90 9072 e23f
000003c0: ebde 36d9 416f f5bf 787e 3ec5 2441 c6bf
000003d0: 1c5e 3748 8abc f5bf 5157 de37 e134 bbbf
000003e0: f3a7 6b56 de9f f4bf 6d2f 9e2a 8565 dd3f
000003f0: a0f1 34a1 9ebe cabf 5049 5a34 08b6 f13f
00000400: a311 ea7d 7e63 c2bf edb9 bc34 6fc8 d23f
00000410: 2c3d f157 90d2 ebbf bb4c cc37 84d6 ebbf
00000420: 7a13 6f2a bdae e6bf ac94 5685 4fd1 d13f
00000430: df92 27a6 5292 d03f 84c9 f471 ba0a 72bf
00000440: 3ec7 b5da a63f fc3f 20a0 9141 bb05 d43f
00000450: 89f9 9f25 e8c2 d1bf ddf7 7424 688b 01c0
00000460: 26e5 f459 773e f23f ef0f 5ad6 5d6c dabf
00000470: 74c4 9674 3c17 613f 17d0 5d7a cefe edbf
00000480: 8c16 deab 927c e7bf b359 8263 5400 c4bf
00000490: c68b a518 e8a0 e23f c098 4c2b d202 d53f
000004a0: db98 0f3e e4fb dd3f 86eb 67d7 5946 c8bf
000004b0: b5d6 4bef c651 c73f 9676 3a3f e005 d63f
000004c0: 4690 dd56 6d41 e63f 76f5 020e ae12 fabf
000004d0: 6c9b 9c32 f8f3 be3f 3b8f c2c5 5905 d2bf
000004e0: 71d5 3ead b91c e03f 0047 8359 e371 f23f
000004f0: bf02 1d5c 4730 b43f 8901 7433 b29c e93f
00000500: 808f 65ed 7cbe 94bf 5cb7 cfee 1c98 d8bf
00000510: cf9a a34b 35ad f8bf dced 7dba 4469 c9bf
00000520: 21a9 9587 f7f5 fb3f 252c 998b 8c19 ee3f
00000530: eb02 c966 2e73 dc3f 8816 da77 6d1b c3bf
00000540: ee41 1b8e b139 a63f 6c5d 7bee 5b00 e53f
00000550: 8d49 886a 2c3f dbbf 5253 4c8c 772c c0bf
00000560: b9b2 cdb5 b8f7 b5bf 0899 59dc 5f81 eebf
00000570: d532 302b ea2a cabf a10c d96d 4d58 f6bf
00000580: 51bc 6db9 35f4 f43f 805b e011 398b cc3f
00000590: ff81 cdd5 3b66 e43f 9765 4115 260a ea3f
000005a0: e236 2074 66d5 babf 3425 aaf5 dcf7 fbbf
000005b0: 9a48 f916 027e bb3f 107b f46c def3 d9bf
000005c0: 1a07 8644 acf1 e5bf d388 8777 b35d ddbf
000005d0: 72cc 8548 e3ab f8bf 828f 8445 7b8b eb3f
000005e0: 8b5a ba27 fb0d d23f a9ae f977 0cec e1bf
000005f0: ccc1 35db 7415 eb3f d84a 0a4a 02dd b7bf
00000600: a3b6 dec8 e4ef d3bf 7274 7973 f0ee f4bf
00000610: 7761 7885 2f6f dfbf 2af0 2adf 8471 fa3f
00000620: eca9 4734 42e0 f1bf 1d9e 7a72 7464 963f
00000630: b661 982d 31a9 eb3f bd1f 3426 d6cb be3f
00000640: 4b8f 9262 355d e23f 3df7 c47b 3f9c ffbf
00000650: 2c0f f945 b8d1 d0bf eb7e 091e 8e41 00c0
00000660: aae9 c080 fb96 ebbf 8b17 1f74 e27f edbf
00000670: ae5c 437b bfce e43f cdfa f28e 2009 d6bf
00000680: 51ee e9da 1611 f83f 7a14 dfd4 4c39 e6bf
00000690: 0c25 aeba 9b46 da3f 9cac 5791 3cd3 e53f
000006a0: 1953 284e 0ada e0bf d8b6 75cf 38a4 ebbf
000006b0: ab17 b328 fe17 d3bf 5af7 a318 2c88 bc3f
000006c0: ab94 c3c2 ab4c d03f c881 9c65 a018 fd3f
000006d0: 39a8 45ae 49bd f43f a1c9 a914 1c60 dfbf
000006e0: db06 4632 146a fabf 578f 4244 783e f13f
000006f0: 5c4b aa6e 5480 f3bf 4450 563a 6808 8dbf
00000700: c398 a661 4c85 f3bf 089c c4a5 2299 fcbf
00000710: fc5b 4b2c 2e84 e8bf e06f 18b8 61e9 f43f
00000720: 0eac bff5 021d db3f 6d11 a38a 8088 793f
00000730: 47fc 6195 e8b1 eabf 6b76 2250 795e c1bf
00000740: 4774 e984 ee05 d1bf 9ebf 1281 e67a de3f
00000750: 2ce6 cc49 e629 fdbf 9275 acc9 23d5 d73f
00000760: c376 3dea 3c66 debf c670 4a6a bbed f53f
00000770: b5af 770f ad07 fd3f 5d41 b36a 74cc d93f
00000780: 4e76 a278 279e ec3f 14fc 0588 2715 703f
00000790: 7966 5e7b 16e8 e0bf 3c6a e708 07bf b6bf
000007a0: eae6 6f49 763c f4bf d666 9c2f d3d2 ebbf
000007b0: 0c2c 7ecc c513 b1bf 7c34 ba6b 4ee8 ef3f
000007c0: 5ddc 24ea 917f d4bf ede8 67bf 6087 d03f
000007d0: 9505 1fcb 8d0b b2bf d174 46d4 400e e1bf
000007e0: 5a70 45ca fbf7 f7bf 5f72 c895 a2b9 c5bf
000007f0: fb0f 9214 323b fdbf ca9c 1291 1e8c c9bf
1.0084668852521312 0.9152315785128596 0.21609553876878718 1.7483311203133445 -0.18244084194080962 0.1278124873992959 0.2542712972524316 -1.843952761781563
-0.5697398131567454 1.1255290607942774 0.43299537663450416 0.1786133862522256 -0.21565540449349227 -1.2150121693077305 0.7038706099144478 0.18638616105848502
-0.583069742226684 0.6968179511675145 -0.49052997844010254 0.8353561627288184 0.33435626084599124 0.050064824617094335 -1.0312110349349504 -0.6370418102705052
0.6434891654722246 -0.9200674256259108 0.18635976931485124 -0.841014012706041 -1.461725843927066 0.6692753283964686 -0.48670537145392656 0.6655719534266566
1.8345192003324529 1.5909472554853408 0.4766917160519631 0.26332378211787644 1.5132799353517077 -0.9121135013240893 0.26696330719624844 0.4535172505768719
-0.290777066013567 0.0012863014177898714 -0.7296629689951638 0.5475186414004135 0.7106590551143988 -0.270536306183013 -1.0365563078458677 0.34602201971620844
0.5143797892634515 1.238604016726846 -1.225571315483668 -1.429557315226334 -0.0003153610647040929 0.24535209988464374 0.5722873826507474 -0.4438758284208413
-0.37729859216661177 -0.4272639567888325 1.068222446774621 -0.5507578378067141 -2.0461061579324524 -0.3194631314243496 -0.8660244363335203 -0.6600824581776561
-0.06922595972528847 2.024228607126349 0.153300995852219 -0.7743568699118405 -0.30648217321383386 -0.24894838825154247 -1.6897726893820821 0.33610300453488023
-2.221686861250639 0.2040174073939338 -0.2819204506764934 2.225069874115772 1.7931566524179383 -0.295756817735089 0.747261077881017 -0.42826337912644613
-0.5984709341847556 -1.4417348933492087 -1.42600101519954 1.1537306872793551 -0.02095124575819829 0.9606726239321265 -0.18237823970483621 -0.034109185715909554
1.3120541071017973 -0.20458434833913172 -1.1482741696540453 -0.5499677509093697 -1.445544309422038 0.10241086518318415 -1.1317205460924489 0.46128751629426534
-0.1367510546057883 0.8126263647177908 0.8395414346139942 0.15687499617688977 -1.6342676723087795 -0.24492423520311785 -0.21533726735915487 -0.32018362324756916
0.06836847422950695 -2.054898838776475 0.32654416658891017 0.08316941704925102 -0.5219636780357687 1.2016633885343047 -0.03532323444632081 -0.2323719140319625
-1.3346664201290273 -0.4626735858954504 0.5420329642564741 -1.1293579800782843 -0.2748112980557653 0.3076008304159223 1.47970187429213 0.5764849492095909
-1.339662407392036 -0.17386302596149839 -1.3585303135822704 -0.1062756310842279 -1.2890303970148096 0.45932130014329325 -0.20894224997927058 1.1069414181734665
-0.14366131923828815 0.29348354482763633 -0.8694535939811536 -0.8699360933118422 -0.7088304356371815 0.2784003069048804 0.25893083787950205 -0.004404762555440537
1.7655399840700308 0.3128498211212918 -0.27752116846377156 -2.193069729632937 1.1402505411081818 -0.41286416943353194 0.002086275174143776 -0.9373543157548764
-0.7339566571033216 -0.15626005991789568 0.5821419221286923 0.32829717853963913 0.46849924145352667 -0.1896469404017262 0.1821831386984535 0.34410864042897893
0.6954867073623141 -1.6295605227781755 0.12091017947805732 -0.28157657921314055 0.5035065063190541 1.1528047081559976 0.07886167525158337 0.8003779416031175
-0.02025790404276462 -0.3842842418806549 -1.542287154641304 -0.19852503877687766 1.7475505157731919 0.9406187750368004 0.4445301059495665 -0.149274524232329
0.043408917042714865 0.65629383638854 -0.4257308044772337 -0.126357024674372 -0.08581118048250404 -0.9532927802763718 -0.2044346533661129 -1.3965582171374893
1.309621548014338 0.22299874661322505 0.6374797035060168 0.8137388625283845 -0.10481872878173307 -1.7480134578966728 0.10739148198016082 -0.40550957336556426
-0.6857510889387612 -0.4588440577773671 -1.5419648011127518 0.8607765538949794 0.28210333709413565 -0.5600645392673488 0.846369197983273 -0.09321607883093053
-0.3115169488545268 -1.3083347807617227 -0.4911612323208127 1.6527146069993344 -1.1172506372628233 0.02186757992481435 0.8644033327610063 0.12029779846864037
0.5738779950374718 -1.9756464800588696 -0.26280028184213466 -2.0320093485496407 -0.8621804728239131 -0.921860911178315 0.6502377898676934 -0.3443070789325418
1.504172186977389 -0.6944946439404156 0.4105595896767944 0.682035716888453 -0.5266162420763038 -0.863796620554889 -0.29833940481727933 0.11145282365393197
0.2546796228401244 1.8185123414224211 1.296212845564254 -0.4902410699643501 -1.6508981670198668 1.0777514139562834 -1.2188305209026202 -0.01417619159727946
-1.2200435461505073 -1.7873865580857018 -0.7661352982639751 1.3069779578427116 0.423645725239738 0.006233694186623101 -0.8342173497802684 -0.13569561398337568
-0.2659870431869575 0.47625124554451215 -1.8227293856456397 0.3723840207547592 -0.47499010920533297 1.3705400611861918 1.8143740276527585 0.40310392780249577
0.8943059307236554 0.003926424426366832 -0.5283310327096863 -0.08885234801656677 -1.2647612446439163 -0.869485466947675 -0.06670795671941238 0.9971077064561906
-0.320286253601301 0.2582628125379774 -0.07048879822743566 -0.5329898973465338 -1.4980428601475269 -0.16972763360617457 -1.8269520572221143 -0.19958860477092905
