balderdash_lstm/lstm_model/models/lstm_model_3.npz (npz, 903256 bytes, 19 tensors)

forget_gate_weights f8 [108, 81]
-0.18847356045229477 -0.356989432135156 0.06874438429786253 1.0465166958860213 -1.7642672845017002 0.5736635258160661 0.22157741414890772 -0.959288854870455
0.6958877983602332 -0.4677083745301436 0.4972922807309978 0.7883587766384795 0.07232544027395457 1.0387368556057222 0.16145126460303383 0.14380483557333637
-0.5799672720598049 0.7224354937707751 0.5546823247761787 -0.4774370371442319 0.3976015908586586 0.7357685231451498 0.926147681644547 0.08834473688530406
-0.7246564768304415 -1.256214739741065 0.24562480162738698 0.9048894123924522 -0.7479644173554592 -0.34842551142369094 0.6399310498655794 0.7264742684631712
-1.2300273293309114 -1.1496734252773302 0.013757742841144907 0.2854154863237917 0.9422806772355472 -0.4225692351739311 0.3730852381112058 -0.8815312518567344
0.24089531112657533 -0.3926656396020326 -0.17825501061942323 0.21199615732924032 1.0343501459188624 0.4865425278896468 -0.16807837904558448 -0.22683302302389768
0.42536354149986627 -0.43406415039380114 1.1465795222741693 1.4331016069283828 0.19569390753639412 0.7866873101232348 0.5617214870205303 -0.43948454157441935
0.7891817490903034 0.44995668348845486 -0.5898783066228203 0.4963218590166729 1.0401723057627508 0.26782604023814943 -0.18026906355993602 -0.16849225353043348
0.21995498160745702 0.9904127331355641 0.3234177904303751 0.6711379135456396 0.266707286889874 0.5902815115473331 0.9843141474927807 0.8346897191973928
1.263495995884936 0.18550633830555335 0.16958120412393274 1.128865965695342 1.0828933358120554 -0.3552828578023117 0.874251843190942 0.45831752113033564
0.7937765944406155 -0.7595144111814639 -0.03074415281120502 -0.8147839539960616 -0.46827739502691224 -0.3179384474958787 -0.2724090565488911 -0.3945111519007745
-0.22925435275672745 -0.3491602875895012 -0.10687187977622431 -0.3549056866176687 -0.34198408378168244 -0.3648010135895154 -0.39154448915539725 -0.17838818878232843
-0.350790680599841 0.1518097583096249 -0.2829275208095791 -0.35306193118514634 -0.9344105412401565 -0.30404665345712933 -0.8548856638031164 -0.3691323263384519
-0.857393851594089 -0.6620919704974543 0.1588132706758457 -0.35689708279161253 -0.3037951510211267 -0.5117170259921572 -0.36919372200858735 -0.30004212679989506
-0.42097975015600414 0.1738431897279686 -0.4754803540138161 -0.43750765452159646 -0.2868372436717466 -0.3577900093048917 0.1561115207813643 -0.3537427818596243
-0.36198011866121627 -0.39470202305479585 -0.7297233046108976 -0.80469920166119 -0.6865891331098326 -0.2886208108451437 -0.2791118930697175 -0.797626545253586
-0.41317465903546385 -0.35680012412457285 -0.43732019863355776 -0.25202751169188514 0.13356057753460918 -0.3226805713170397 -0.21679817438164176 -0.3095555420600176
-0.17264290650356362 -0.9838367176057132 -0.29318798959405146 -0.5720827317982575 -0.6383107314937488 -0.4760906379845321 -0.39348795400650055 -0.03681539595181424
-0.49660918106394464 -0.5029583657990456 -0.40470259104567063 -0.3313109468224552 -0.206109393398023 -0.6972389428194382 -0.3828376435266614 -0.44913904937472066
-0.29404513669678695 -0.22991222556909358 -0.32527290840153783 -0.4067311228411029 -0.2544854268412519 -0.3815083913669353 0.33788461952363574 -0.3943247875579589
-0.4080455563419971 -0.3157042274504838 -1.0764466345618757 -0.35431749743496055 -1.1477536170301925 -0.12442097206646967 -1.0816002469358716 0.2831193137421188
0.30938719796985825 -0.8422337011684228 0.16533165427594015 -0.3666510937194751 0.25642309181100814 -2.4615467441883778e-05 0.2500712628903818 0.042424131166030304
-0.36327383371156885 0.2535343059376441 -0.1999640702689218 0.3388754294342425 0.2688512839870128 -1.243024546825555 0.34442541349147515 -1.0053189210663211
0.15261003578120902 -1.2077942207732566 -0.9623289064825601 -0.26753365764790643 0.2493624588142821 0.23820056589229893 -0.8539888411459234 -0.761759677469487
0.3111954918151514 0.07128798958395693 -0.33431432938451466 -1.133198421123931 -0.6485812062905832 0.30085739151947 0.1939515936918509 -0.2416596748076751
0.25217934517531326 -0.7697728866032743 0.2886481877693572 -1.0588446284930229 -1.293321325217727 -0.7186196107485641 0.09913470122684932 0.15840637351696618
-1.167111119929427 -0.732150565275651 0.28423145879214945 -0.8671064020411022 0.15495216605648154 0.6039314585338588 0.14871921740500707 0.251685794578533
0.25193168073039934 -0.44853002900488603 -0.7206836280649023 0.28864069615885407 -0.9221074769691517 -0.6134419066167293 -0.09450887083884509 0.28981164911276347
-0.5401056152447326 -0.9902165457441683 -0.8413213284495848 0.027024063404089266 0.2950191336272175 0.007075432598298603 -0.9499740440711427 0.19226165608320572
-0.15012875447105273 0.13882165631217724 0.21617600681544452 0.27940833067057336 0.2833291909709164 0.08750678570256108 0.07983046909536475 0.5790677395096339
0.09760507702806669 0.3033723084662555 0.3122793924946232 0.2599340142456369 -0.3565695574523922 -0.1429735414557564 0.516300242783079 -0.847467352457648
0.622873145035667 0.6739428138159582 -0.1514670041738777 0.5845908153258556 -0.38660641813986785 0.6073062637429395 0.6032211220537304 0.5808266587252914
00000000: 0bd2 26d1 e61f c8bf 5670 0234 ead8 d6bf
00000010: 3ecd 5762 3b99 b13f 68c6 784a 88be f03f
00000020: 8666 0555 703a fcbf c037 499c 735b e23f
00000030: 97a1 a611 a65c cc3f a6bf 628a 7eb2 eebf
00000040: 8a90 f47c b644 e63f bc06 2b1b efee ddbf
00000050: a7be 9200 a3d3 df3f a9a8 652f 3c3a e93f
00000060: 4e3b a588 eb83 b23f 8b9f 7f89 aa9e f03f
00000070: 7416 af5e 6faa c43f 49a6 e564 3268 c23f
00000080: 09e9 4786 178f e2bf 06e2 660a 311e e73f
00000090: 6ea7 9225 f5bf e13f 52c0 1b13 548e debf
000000a0: 2dd5 64f1 4d72 d93f 5ab5 0a6e 6a8b e73f
000000b0: ddbe 7d76 00a3 ed3f fe33 b2bb c29d b63f
000000c0: 5248 9ac7 6230 e7bf 710e 7fa0 7419 f4bf
000000d0: 20be 092d a270 cf3f 961c 17a4 daf4 ec3f
000000e0: e8a0 e312 53ef e7bf 7409 2a84 9a4c d6bf
000000f0: 73c3 5bae 507a e43f 3fea 0df7 463f e73f
00000100: 8b99 0a23 31ae f3bf ca57 2af6 0f65 f2bf
00000110: a853 8efc 042d 8c3f 7516 e250 3f44 d23f
00000120: 1a24 8cce 2927 ee3f 7e89 57d5 5f0b dbbf
00000130: 4db6 13e8 a0e0 d73f 380d 2407 8135 ecbf
00000140: 8331 8655 a8d5 ce3f 3ea2 1610 6f21 d9bf
00000150: f2b1 7a68 0fd1 c6bf 3eaa 4da9 b022 cb3f
00000160: 7759 15bd b28c f03f 828c 5945 8323 df3f
00000170: 5a2e 95a2 9783 c5bf a62d c54f dd08 cdbf
00000180: 41c5 e900 2839 db3f 77ac 9300 b5c7 dbbf
00000190: cee4 e6c4 6358 f23f a4a3 59f3 fbed f63f
000001a0: e797 727a 7f0c c93f 440a a5dd 8a2c e93f
000001b0: 5ad6 0657 9ff9 e13f 4138 4ac5 8320 dcbf
000001c0: 7d2c 5e15 fa40 e93f 36c5 0c1e 17cc dc3f
000001d0: 7113 7278 48e0 e2bf e00e 31c2 bcc3 df3f
000001e0: 7a4b 37b7 8ba4 f03f 15c3 f5d4 0f24 d13f
000001f0: 6138 3c82 0e13 c7bf 5b72 4577 2791 c5bf
00000200: de53 4c1e 7c27 cc3f c27e 4b0b 76b1 ef3f
00000210: 6af4 3588 e0b2 d43f 2518 b937 f679 e53f
00000220: 6200 b370 bb11 d13f 8def 700d 96e3 e23f
00000230: 7517 0f62 807f ef3f c453 c836 c7b5 ea3f
00000240: 783e cf93 4737 f43f 5a8d 1cf4 abbe c73f
00000250: 7c42 dd3e d6b4 c53f c9a9 43c2 d50f f23f
00000260: eee7 65f6 8753 f13f 40c8 c54f f4bc d6bf
00000270: 4f21 5f00 dff9 eb3f b411 1c03 1355 dd3f
00000280: 837c 2e2c 9e66 e93f c5ae 9b2a f14d e8bf
00000290: 212b 782b 657b 9fbf 35ff 76cc b512 eabf
000002a0: b22f 46c0 41f8 ddbf 25b1 8880 1a59 d4bf
000002b0: b9bf 4065 266f d1bf 258d d4b3 ab3f d9bf
000002c0: 3024 c7e5 3458 cdbf 3391 1064 a458 d6bf
000002d0: c43c 809c f45b bbbf ebfc 4b57 c6b6 d6bf
000002e0: 0612 e635 11e3 d5bf 2389 ba59 e658 d7bf
000002f0: 497e f69d 100f d9bf 0009 6896 6cd5 c6bf
00000300: dabe 3ac1 5a73 d6bf fea5 938d 806e c33f
00000310: fbfd 4008 7c1b d2bf 93c7 f911 9198 d6bf
00000320: 9140 75ef b0e6 edbf 989f 4318 8075 d3bf
00000330: fc50 fb2d 395b ebbf 8148 6131 dd9f d7bf
00000340: 3b6b 0c3b c56f ebbf 6962 0780 db2f e5bf
00000350: 639d dc45 fe53 c43f 8d2d a8dc 66d7 d6bf
00000360: 776c 9437 6171 d3bf 932a 6e62 fc5f e0bf
00000370: e295 7ab4 dea0 d7bf 0ac8 81e4 e333 d3bf
00000380: c3b0 cc0c 55f1 dabf 0fc9 415f 7e40 c63f
00000390: 574f 9826 456e debf 06e0 fa1a 2000 dcbf
000003a0: 6913 3699 8a5b d2bf f233 3311 08e6 d6bf
000003b0: ce73 245a 76fb c33f 1b1f d2c3 b8a3 d6bf
000003c0: 96ef dca8 ae2a d7bf 5edd 2b46 cc42 d9bf
000003d0: ebd9 0db0 e459 e7bf 5e11 488a 18c0 e9bf
000003e0: f4dc 0fc6 89f8 e5bf de97 e16b c378 d2bf
000003f0: 762e 2a21 f8dc d1bf c423 c91a 2886 e9bf
00000400: 1bf8 0520 7471 dabf d4b8 1430 d0d5 d6bf
00000410: 08ba c0db 0dfd dbbf 7d2b 1a00 3821 d0bf
00000420: f1e3 4554 8318 c13f 3b1f 3769 cca6 d4bf
00000430: ad9c 66e6 0ac0 cbbf 7d5f 5c0c c2cf d3bf
00000440: 44db a8aa 2919 c6bf 8c0e d723 977b efbf
00000450: 6cbb b88e 97c3 d2bf 60c1 f571 804e e2bf
00000460: 9872 8ea0 0a6d e4bf 62d2 04de 4478 debf
00000470: dbfb 7419 e82e d9bf fc64 34b3 77d9 a2bf
00000480: f107 e4df 71c8 dfbf 7f68 8b24 3c18 e0bf
00000490: 9272 49b2 a5e6 d9bf fe30 5ad4 3234 d5bf
000004a0: fb7d 05e8 ca61 cabf f906 1d0b c84f e6bf
000004b0: 5cfb a775 6980 d8bf ebf0 1ab6 b1be dcbf
000004c0: 7146 6ab1 a2d1 d2bf da89 e288 c36d cdbf
000004d0: 8d00 f775 45d1 d4bf 9a8b b7f9 e107 dabf
000004e0: afdf 653e 7d49 d0bf fd83 042c a26a d8bf
000004f0: 0f3a abcf e69f d53f b711 a408 9e3c d9bf
00000500: 9316 f11b 6b1d dabf 25f6 0681 7f34 d4bf
00000510: 0052 351b 2039 f1bf dc8e f84b 23ad d6bf
00000520: 8a2a 90e5 325d f2bf bb46 f685 0dda bfbf
00000530: 24f6 7e0f 3c4e f1bf f3da 5878 a01e d23f
00000540: 3e39 45f6 ffcc d33f ed6f 4317 94f3 eabf
00000550: 3eeb 0d70 9629 c53f 7356 2426 3677 d7bf
00000560: 7b1e 5166 3c69 d03f 80d1 ce0a aacf f9be
00000570: a326 f2e5 2a01 d03f 64b0 d69f 9db8 a53f
00000580: a428 d2e4 e03f d7bf ada3 1af4 e739 d03f
00000590: 5f0c 1733 6c98 c9bf 3da2 b591 22b0 d53f
000005a0: 998e 0d04 dc34 d13f 0ddb 0bb5 6de3 f3bf
000005b0: c2db b6e3 100b d63f 497a 004b c915 f0bf
000005c0: 1860 5cc4 b988 c33f 954d 6808 2053 f3bf
000005d0: 35d1 aafd 65cb eebf 4554 8b7d 451f d1bf
000005e0: fc8e baea 1beb cf3f f6b3 322c 5b7d ce3f
000005f0: 9ddc fb67 e053 ebbf 1693 c4d4 5560 e8bf
00000600: b88e 007f a0ea d33f c455 dcff ed3f b23f
00000610: 369a d2ed 6765 d5bf aab2 e9aa 9421 f2bf
00000620: 632f ba5f 2dc1 e4bf e280 555c 3f41 d33f
00000630: 2cf0 f4e3 67d3 c83f 87cd 0748 b4ee cebf
00000640: 724c 10d6 b423 d03f e2df a9bf faa1 e8bf
00000650: 3838 a13f 3679 d23f cdc3 ae10 07f1 f0bf
00000660: e778 b0b3 71b1 f4bf 18bd cd8d eefe e6bf
00000670: 4105 ab4b e460 b93f c4dd ddf8 a846 c43f
00000680: 3251 aeb5 7cac f2bf 306b b305 c76d e7bf
00000690: 036d 0025 d930 d23f 7f66 ddec 55bf ebbf
000006a0: ec16 d4fa 78d5 c33f 4db6 ed10 6853 e33f
000006b0: ad46 8537 3b09 c33f e248 25bc 9e1b d03f
000006c0: 650e 640e a61f d03f 0a65 764b b7b4 dcbf
000006d0: eea4 a91c d70f e7bf 3f01 93d3 1679 d23f
000006e0: b858 1f8a e781 edbf 8945 ddeb 50a1 e3bf
000006f0: 514a 6fbd bb31 b8bf fa1a bc28 468c d23f
00000700: 3496 3b92 8b48 e1bf c0bc fd9b daaf efbf
00000710: a2c8 e3b4 1aec eabf 4535 1a32 32ac 9b3f
00000720: bde1 a7ee 97e1 d23f a6fe d5f9 20fb 7c3f
00000730: 93b3 6af7 2f66 eebf 3e7a 93aa 079c c83f
00000740: ae39 5245 6b37 c3bf 642e eb74 e8c4 c13f
00000750: eee1 b9c7 a7ab cb3f ba71 9d7a d3e1 d13f
00000760: ed38 4ec2 1022 d23f bf44 c53e d866 b63f
00000770: 892a fd05 c56f b43f cd99 6b11 b987 e23f
00000780: db54 c275 a5fc b83f 4ef9 d7af 736a d33f
00000790: 78aa 7eb4 62fc d33f 7e64 9346 c2a2 d03f
000007a0: 4176 001f 09d2 d6bf 8575 5ffe f44c c2bf
000007b0: 2672 3516 8885 e03f 3977 67da 731e ebbf
000007c0: ee83 6fa9 93ee e33f 1ad7 1685 f090 e53f
000007d0: 88c9 ac52 4563 c3bf 93ba 2bcc f7b4 e23f
000007e0: 5c67 95d8 28be d8bf edd1 ad8b 0d6f e33f
000007f0: 3145 ef61 964d e33f b1d7 fbc9 2196 e23f

input_gate_weights f8 [108, 81]
0.7479640366492666 -1.029447984258031 -1.1480564604138852 1.1111211055117827 -1.9398751917033565 0.8834979525306186 0.4770141913720757 0.6043458163942553
0.950551098158318 -1.1153986982138169 0.6937467761711099 0.9201403167284571 0.5218368311735867 1.0861294866943156 -0.509879083621503 0.6182186569669267
-0.8702234047684639 0.925475393525432 0.7978531451827698 0.5335385410764917 0.6311833382597691 -1.201942443247987 1.069668844609393 -0.1204727250075218
0.6453674188208568 -0.5452866350804751 0.5638998875914675 1.0013945316466089 1.00335737892515 -0.6126296706123128 0.8751084626679718 -1.1357232454336987
-0.07428430733600602 1.421019486331123 1.1946295787384433 0.5804626398340337 1.054867750550458 -1.1039711820372748 0.7264020370660267 0.7987181941145035
0.533817272827767 0.7750763736832007 -0.6476784078421369 1.2836898997016088 0.9829831247150921 0.8013236809780755 0.6120028994734573 0.9287894103104511
0.6665655724604147 -1.1888733797247806 0.999708631418525 0.7799710979128208 0.6873928487221121 0.8874577017579629 0.8408843033231513 0.28741514753154024
-1.1520730241760897 0.7396740085739427 0.6591853811040066 1.4474837861387349 1.2995807580249432 0.46790946971239505 0.42037271070922533 -1.0159266065200556
-1.114433914293822 1.198794766327618 0.6995542542404154 0.8033639562668207 -1.099015666418649 0.8588736076196088 1.0104011016280825 0.9734794794053537
1.1467634014514472 0.6037003763393748 0.5556900738577512 0.8416766219524672 1.1918435622226466 -0.2612777695583665 1.0377380899006947 0.6126123445572553
0.8963732498285474 -0.3504435301569579 -0.18453869873992004 -0.03477282430928727 -0.5558661314590728 -0.19972425465542423 -0.4037171372376188 -0.5105015269339186
-0.6717475030668745 -0.3699814846712618 -0.15598482369123134 -0.421563378606626 -0.49429274772720844 -0.44045412319534905 -0.476853045825499 -0.4774871983085597
-0.43308444175920924 0.24363468885904324 -0.35368544374441213 -0.4447692867889376 -0.481503159201817 -0.3934891443934648 0.18722784654654792 -0.42424850514506196
-0.41821961215326126 -0.573450175935137 -0.6106383634689309 -0.44794316415868324 -0.38417590903192744 -0.7595032103639944 -0.010005101082338676 -0.3762623771024764
-0.5835449716664223 -0.6837660544486521 -0.5126948867567943 -1.0103676364117784 -0.441625870958292 -0.3782838794702246 -0.12849398386135247 -0.4093148619529182
-0.5102178317199015 -0.4598307319306531 -0.5754541953972193 -0.17430061624227658 -0.9400800874338916 -0.4576103928353001 -0.385865578862722 -0.4387554240969724
-0.8579012379426545 -0.42014769114092393 -0.1029577053025839 -0.4931360856578135 -0.4400947788605551 -0.39245959447207074 -0.3869370459110045 -0.39208028397905453
-0.30886098532619627 -0.6021503717213383 -0.39594898912174764 -0.5534193564061216 -1.0431850927627715 -0.4312228911739528 -0.5051696483848126 -0.9169803737369425
-0.5669588288586622 -0.18349052655311976 -0.3670328363685368 -0.40896366298355985 -0.5694549548057493 0.03982655717853071 -0.39072169508226273 -0.7594489340185543
-0.41834395274027186 -0.3388653068630722 -0.41758128342904693 -0.42384979741601625 -0.4760615016323624 -0.39374672643067815 -0.08692308063652844 -0.38394292443619576
-0.5025600216068897 -0.40714097089081647 -0.21254043659556862 -0.7491615489423751 -0.761033868292193 -0.3111456819766693 -1.129621678543312 -0.08782654431841162
-0.12731379386987107 -0.8043771288820477 -0.06478480726540452 -0.7416221886373059 -0.03403904938354521 -0.2196336975099357 -0.11991626268388966 -0.16971558035386272
-0.926747715562941 -0.13590289003196493 -0.34742073696921666 -0.018961287615574605 -0.07028212665841417 -0.3701601714853267 -0.04551755505635033 -0.5363649147524796
-0.04508718059951535 -0.6861997134434872 -0.5814358143391581 -0.997419830152275 -0.11651103126877664 -0.029257648016829754 -0.7382014364360534 -0.5004727823811936
-0.007423296875403789 -0.924483775215195 -0.9873537172486193 -0.19279085035025179 -0.7328851618863091 -0.09939928874079428 -0.009276542937977592 -0.7486200853634462
-0.0886707896650705 -0.4595261340389043 -0.08536604720885616 -0.39710504857325496 -0.7828073812899004 -0.6054320143099311 -0.2281733705324542 -0.1784867675861815
-0.3205798097243343 -0.7563142330747656 -0.05672972335368346 -0.8409121546412286 -0.2833531012806168 -0.37679666260286904 -0.1654562666754183 -0.1668627243940397
-0.08047624368238875 -0.40568924874221474 -1.033680184563496 -0.11655352705630447 -0.5819287698368081 -0.6757636813497904 -0.038088181874829735 -0.09960766234040695
-0.849797818357321 -1.2100788376789733 -0.793257208525307 -0.019216710139280804 -0.10764225665758907 -0.4610505751047675 -0.6370816939121632 -0.10124833249845405
-0.46911346131575166 -0.13953205517245384 -0.16445380647652957 -0.1261968110826681 -0.09642944516205826 -0.33612422684873045 -0.0418980704332447 -0.4175095955575236
-0.04003813229626843 -0.07346496644108749 -0.02604406826150879 0.533091894346888 -0.388484837527914 -0.4404980322053256 0.8449031676377318 -0.5265516905809839
0.6394303260087062 0.48665860898251045 0.6041653285995133 0.6618947017461461 -0.23605802637820894 0.5770855285097954 0.7621821957354523 0.4915534559579681
00000000: 92c4 7f46 52ef e73f 5124 1573 9e78 f0bf
00000010: c806 7773 705e f2bf 7618 a1ec 26c7 f13f
00000020: 9a00 ab91 ba09 ffbf 8476 867f 9d45 ec3f
00000030: daf0 ea87 6687 de3f 6d68 9c09 cd56 e33f
00000040: 218a f822 ea6a ee3f e244 2d4e acd8 f1bf
00000050: fb87 6b70 2c33 e63f c38d 021b ca71 ed3f
00000060: 7ba4 7727 e3b2 e03f 742c 0950 c960 f13f
00000070: a633 a2f0 ed50 e0bf 5766 2e7e 72c8 e33f
00000080: e537 f6c0 ded8 ebbf 0539 8e92 7e9d ed3f
00000090: 7943 b251 0388 e93f dc87 226b bf12 e13f
000000a0: d462 7366 a732 e43f 82ca d6ff 273b f3bf
000000b0: f35b 1214 5d1d f13f 77a1 f7ed 4cd7 bebf
000000c0: 1baa b792 d9a6 e43f 97ba 13f5 fc72 e1bf
000000d0: bb8c edc6 770b e23f f80b bd45 b605 f03f
000000e0: d7f0 8a77 c00d f03f 33da fa89 a99a e3bf
000000f0: ab93 7376 e300 ec3f 901d 4723 ec2b f2bf
00000100: 8239 9dde 4b04 b3bf 9355 cced 7ebc f63f
00000110: 0241 b8e7 331d f33f 5162 d462 2693 e23f
00000120: 4482 a301 bde0 f03f 9539 a9af dda9 f1bf
00000130: 9e48 1e7c af3e e73f a324 4e75 198f e93f
00000140: b4b9 1af6 0715 e13f 54e4 9bf7 6ccd e83f
00000150: 083c 8011 c8b9 e4bf 6bc8 966b fe89 f43f
00000160: 8d7a a506 9974 ef3f 1ef5 698f 71a4 e93f
00000170: 2b76 c91a 8795 e33f c5f1 c491 a4b8 ed3f
00000180: 8a6c cb52 8154 e53f f80b d017 a005 f3bf
00000190: 6316 aff4 9cfd ef3f 818b abf2 85f5 e83f
000001a0: 0081 9849 1fff e53f dd47 b4b1 0d66 ec3f
000001b0: 07c4 cf32 86e8 ea3f 8378 c180 0265 d23f
000001c0: be0a 971f e46e f2bf 83d7 90d3 68ab e73f
000001d0: e5f9 baf0 0b18 e53f 494c 2fc2 e428 f73f
000001e0: f9a5 6331 15cb f43f f3d1 798f 3af2 dd3f
000001f0: a220 28f1 62e7 da3f 073d e241 3c41 f0bf
00000200: ac1f f7a7 b8d4 f1bf a9e3 bf6b 432e f33f
00000210: 28b0 779a bf62 e63f fa6f de53 28b5 e93f
00000220: b5f4 9073 9195 f1bf d0f5 0381 e47b eb3f
00000230: 1b5c 7558 9a2a f03f 6ff0 eb6f be26 ef3f
00000240: 2cbd 9794 2459 f23f 79bc 9e73 8351 e33f
00000250: a7c9 bd8c 36c8 e13f cafe a2cf 03ef ea3f
00000260: 4c1c 1b8e ca11 f33f 5733 db64 c6b8 d0bf
00000270: ebfd 5e41 939a f03f 3afa 1f34 859a e33f
00000280: 2dbb 20f4 16af ec3f 739c 47b3 aa6d d6bf
00000290: e198 f7cd f69e c7bf bc58 655e becd a1bf
000002a0: 9f43 f2c4 a7c9 e1bf 5544 fb7a 9090 c9bf
000002b0: de4c 5167 80d6 d9bf e2a7 574c 0756 e0bf
000002c0: baf0 9a9e f47e e5bf 5678 32d2 c6ad d7bf
000002d0: 908c 368a 4ff7 c3bf 61a1 13f7 e4fa dabf
000002e0: 8ada 880c 7ea2 dfbf d2ca a07d 6630 dcbf
000002f0: 6d62 34a3 c284 debf 8e9c 3f77 268f debf
00000300: 38c8 70ce a7b7 dbbf 8f0d 69e6 6b2f cf3f
00000310: 1c06 7d45 c8a2 d6bf d384 4199 1977 dcbf
00000320: af51 6ca0 f2d0 debf 9d0f a017 ed2e d9bf
00000330: edb1 e802 15f7 c73f 3c65 be33 e326 dbbf
00000340: b39e 2f31 1cc4 dabf 09dc f02e b459 e2bf
00000350: 4d06 1977 598a e3bf bbcf 21ce 19ab dcbf
00000360: 3801 4d8d 5696 d8bf 390d 37ad d94d e8bf
00000370: 4ed8 88ef 8d7d 84bf e7b3 17cb ae14 d8bf
00000380: 54ae 2181 66ac e2bf f019 3f59 69e1 e5bf
00000390: a34c 6e1b ff67 e0bf de34 3541 772a f0bf
000003a0: 1a56 3528 9943 dcbf 856e bb96 cd35 d8bf
000003b0: cc68 35a9 7d72 c0bf c2b0 76f6 3632 dabf
000003c0: 1656 a258 b453 e0bf 1fa0 d5e0 dd6d ddbf
000003d0: 3377 b2ea 1e6a e2bf e573 378b 7b4f c6bf
000003e0: c3c7 e4d5 2215 eebf 8f63 e219 7d49 ddbf
000003f0: 1e85 778a 05b2 d8bf 531a 5ca1 9114 dcbf
00000400: f42b 054c ed73 ebbf dd2b 3c24 b3e3 dabf
00000410: 6353 25a9 6f5b babf 482d 18a8 8a8f dfbf
00000420: 032c 964a 832a dcbf e792 d0d8 0e1e d9bf
00000430: 811c 7399 93c3 d8bf f12b 46e7 d717 d9bf
00000440: 5720 bfdd 60c4 d3bf 1228 3adb d044 e3bf
00000450: ed60 ca6d 3a57 d9bf ea9a 9782 9cb5 e1bf
00000460: 0a74 11da e2b0 f0bf 873c b8e5 2799 dbbf
00000470: add3 d789 592a e0bf d1c4 8839 e757 edbf
00000480: 980b 84d7 8624 e2bf b2f2 5519 9e7c c7bf
00000490: fab3 304b 777d d7bf 8512 71ed 752c dabf
000004a0: 7ef2 ed98 f938 e2bf 1529 3081 2564 a43f
000004b0: fcd2 8d91 9501 d9bf a3ef d2d9 674d e8bf
000004c0: f3ec dfb6 25c6 dabf 2375 ae1c f8af d5bf
000004d0: 35f7 efd8 a6b9 dabf 5c5a 94e6 5a20 dbbf
000004e0: 4852 19a9 ca77 debf 0b51 3b78 2533 d9bf
000004f0: 51f9 994c 9740 b6bf d7fa fe57 8592 d8bf
00000500: 4284 22c1 f814 e0bf 9c9d b500 990e dabf
00000510: 2bb5 2068 8634 cbbf 401a 04a4 21f9 e7bf
00000520: afd3 eeb2 635a e8bf 0b69 1894 cfe9 d3bf
00000530: 6e23 632e ee12 f2bf 4f7a 91e7 cc7b b6bf
00000540: 9c19 8082 d14b c0bf 575c c61a 75bd e9bf
00000550: 138a 7bb4 bc95 b0bf edec c574 5ebb e7bf
00000560: 844c c7f7 906d a1bf 35ce f3fd f41c ccbf
00000570: c060 7c0a d5b2 bebf 7de9 9e79 3db9 c5bf
00000580: 8f89 3fd3 eaa7 edbf 1641 0f12 4465 c1bf
00000590: 4d0a cf2f 243c d6bf a6b7 cb78 966a 93bf
000005a0: 81c0 7d6b 02fe b1bf 31eb b349 b4b0 d7bf
000005b0: 6cc8 b8b4 134e a7bf e6ad f2c0 e629 e1bf
000005c0: 739b 49bc aa15 a7bf 8c75 f819 59f5 e5bf
000005d0: fbe9 e947 1f9b e2bf 4259 dcfd dcea efbf
000005e0: 6b31 ecbc aad3 bdbf e786 8f85 b7f5 9dbf
000005f0: 5e4c 6b9e 589f e7bf f6b0 1b7f df03 e0bf
00000600: 1209 ef14 e467 7ebf 8b6b 87ff 5e95 edbf
00000610: d856 a5d2 6698 efbf 5876 9cde 5ead c8bf
00000620: c7cf 4095 cb73 e7bf d72a 6356 3b72 b9bf
00000630: 25f5 4e84 94ff 82bf aa78 f81b b2f4 e7bf
00000640: 32d3 b8fd 20b3 b6bf 98ae 564d e068 ddbf
00000650: 8c69 f39c 8cda b5bf 37b6 2c4b 2b6a d9bf
00000660: 0aa4 b610 c20c e9bf ad33 adf5 b25f e3bf
00000670: 37a3 20f6 c834 cdbf 5b94 c686 a7d8 c6bf
00000680: e287 a12d 6184 d4bf 2ac6 11e8 b933 e8bf
00000690: 05c8 07a5 ad0b adbf 6cc6 5f9b c0e8 eabf
000006a0: 711b ce0b 7522 d2bf dec2 c7bf 6f1d d8bf
000006b0: ba03 25c3 ab2d c5bf 78d0 18fc c15b c5bf
000006c0: 7385 b852 179a b4bf 9bf1 eb09 d0f6 d9bf
000006d0: 4a93 b33b f489 f0bf 1db6 f0b2 73d6 bdbf
000006e0: 889e 6115 299f e2bf ed19 e727 db9f e5bf
000006f0: dc71 084f 4b80 a3bf efdc 2e44 e37f b9bf
00000700: a7d1 c131 8b31 ebbf 2b9b 96a0 7b5c f3bf
00000710: 99d6 fdf0 5c62 e9bf f7f5 5696 8bad 93bf
00000720: 5711 0364 718e bbbf 3f20 7845 da81 ddbf
00000730: ed74 0726 f962 e4bf 1cfb da24 69eb b9bf
00000740: 9bba 9d77 f405 debf 35cc dab6 2fdc c1bf
00000750: f27b 4284 d20c c5bf 87d2 3a94 3727 c0bf
00000760: d4ab 57a1 99af b8bf 6a59 6d30 0f83 d5bf
00000770: f475 8df4 a973 a5bf 57e3 ab2a 7ab8 dabf
00000780: a45c 9cc9 e07f a4bf 3a26 449c 99ce b2bf
00000790: b07b c0d5 4bab 9abf 3971 7fbb 160f e13f
000007a0: 2527 0b82 efdc d8bf f48c 91a8 1e31 dcbf
000007b0: c14e 295e 7209 eb3f e05c 56ee 82d9 e0bf
000007c0: 78e5 4896 3676 e43f 1864 7926 6a25 df3f
000007d0: bbc8 f686 5255 e33f e2a6 2ccc 3d2e e53f
000007e0: e458 a03f 2637 cebf e938 fe11 7c77 e23f
000007f0: 23df 88ea cb63 e83f e3d0 64a0 9c75 df3f

output_gate_weights f8 [108, 81]
0.022992263853927657 -1.0938821959265173 -1.1722786689889775 1.1752639300764292 -2.323877731320134 1.1627088849156642 1.1054125933701495 -0.11694739924213829
1.1165530498624732 -1.2955199269466187 1.1561689406796867 0.9590176675764494 0.8106744065380407 1.1755531019788197 -0.5204394165221433 0.9566968277551207
-1.1259429273760408 1.2183507956657356 1.1628424473307026 -0.20158198951713202 1.1083765035903097 -1.0832982912705291 1.2231423978429967 0.054624420605103585
-0.09259223266381306 -1.194025374560185 1.0119685546713575 1.1760100593459653 0.44424720714375293 -0.7031885123823582 1.1645101693701978 -1.1772887622233934
-0.9113518093076566 0.8278096978906756 0.8056963461495212 1.0539519270053517 1.2436297472821318 -1.235848483854643 1.0586044144681372 0.16480183857990996
1.0579675569385516 0.07897194557217552 -0.5736774632058601 1.1740664435809358 1.1400788192109168 0.9422414250064005 -0.05827671018011348 0.4868561627577831
1.11168600781116 -1.2325013062555326 1.2422717209223797 1.174284987190289 0.842964455967656 1.0795123687464687 1.0802565564360895 0.14590403345044303
-1.2744391158542216 1.0825739284813316 -0.0745018322071274 1.2261369339937154 1.3028440015762324 1.14549042704786 0.07955531524939385 -1.3090163102486585
-1.1135308237016635 1.2390486813265151 1.0279958738503558 0.9463877231545575 -1.0577313846079033 1.1042435070931822 1.0658731992692472 1.0924545848267682
1.3797127415432906 0.9802675793113431 0.9247701840522291 1.0811949321414522 1.3107516407285151 -0.4800758480518661 1.1578871870115295 1.2883102445998655
1.263739813581992 -0.7096882074819727 -0.1414206122645282 -0.18470983105088853 -0.5338195143554711 -0.04935814119414346 -0.2517522906685215 -0.20432511860469096
-0.5975394253410194 -0.2597069950484512 -0.08301124157173555 -0.26220414341989395 -0.37656509971238616 -0.2206290683349891 -0.46435962532900993 -0.7097302545146641
-0.2665424825261677 0.06400230595238933 -0.21556753034568457 -0.27198038013030124 -0.9011131641743685 -0.14686641378665335 -0.285264017686409 -0.3290415837965502
-0.6816762780861051 -0.6431670398247669 -0.5130327808919845 -0.2665841474425623 -0.31254611171608865 -0.7733843472666759 -0.4433150953310958 -0.22154331263470536
-0.4433511810986585 -0.6447855711215316 -0.6323025638642757 -1.0477790242443088 -0.18477752632406697 -0.2936354052608971 0.07874738622761568 -0.3101938556529325
-0.352966329042844 -0.25280146494698 -0.779747193223643 -0.47405468594383515 -0.9402028386169247 -0.3885476537647737 -0.23291765859712305 -0.8556994688211809
-0.9804460768635175 -0.25036537315576796 -0.08016489122305992 -0.3844379153669682 -0.0371695528919493 -0.263965083204548 -0.19918824230910975 -0.2368510487068142
-0.25933949020029906 -0.5598557745728393 -0.24534408712371603 -0.5636297218439924 -0.9809543974542678 -0.4691068046516114 -0.21486729469911048 -0.7168166370557615
-0.17111404630716928 -0.23506824062299742 -0.3394113821060905 -0.2514520401316118 -0.36808380792529904 -0.1837132248871707 -0.2852506369255783 -0.7042847037658501
-0.3034120417910072 -0.3155399754124576 -0.23785592612015838 -0.27566824572160314 -0.36547097137083695 -0.3931710390710151 -0.13443950316394793 -0.3216779834516419
-0.24292267136333465 -0.27102019951599327 -0.6967696188245577 -0.7325875092082825 -1.0266599758418515 -0.28242736841900457 -0.9509028015233615 0.13823799199668105
0.29191811104303544 -0.9995096401932152 0.08488759979240482 -0.6995394072389963 0.19500087430448793 -0.10355337642892885 0.12496433579647664 -0.11252321370121207
-1.1738670117676475 0.11488551936021599 -0.6277279974087268 0.1826492005762234 0.1362948085746022 -1.0963101033303393 0.23998460919467332 -1.0761325113203244
0.04425043587460999 -1.050444774689441 -0.9079558264591867 -1.059422068020218 0.12120801602762822 0.08933051445408531 -0.9662786767987136 -0.957536843753805
0.1657988963696356 -0.8021997082838515 -1.224926771302077 -0.405801303935948 -0.9937761639263454 0.17375199830648758 0.09789061639379654 -0.5892247847026035
0.09448086608908943 -0.5265146109611333 0.23116209181492678 -0.8920593434661412 -1.1659605988036472 -0.6932829605013954 -0.10785567244889353 0.0004824107046953656
-0.948925456679085 -1.059520449794834 0.19476930604256756 -0.8226591550618662 -0.09580905603114864 0.14210120469675994 -0.002114165237685508 0.021882241763834433
0.09566947853432235 -0.5443240948475996 -1.1346568132919506 0.1119456961933397 -0.9035890745366698 -0.7490159349688766 -0.08381052123981554 0.2725504588760698
-0.9581376930602378 -1.096949008537541 -1.0258691413655627 0.026817773936754868 0.14149968753039352 -0.24601571675944428 -1.0030038965712802 0.0718741625764362
-0.42933066637349027 0.0018370090298040188 0.048561727154584344 0.14420672937565937 0.1575467693912072 -0.10343799764036016 -0.0036276074496224696 -0.2806715519633559
0.03305441472686367 0.29723821471076384 0.150553258833499 0.2645433380790769 -0.4849009759122316 -0.6707898284646581 0.8312112135991155 -1.0913772892754057
0.7619227365271121 0.7595339663481012 0.3740836908645663 0.7454117634855307 -0.53432310535937 0.7517345517643036 0.7583347776594066 0.6688709289515866
00000000: 2e26 41b5 488b 973f 9be5 129e 8a80 f1bf
00000010: 74b2 1147 a7c1 f2bf 0f8c fd8c e1cd f23f
00000020: 9761 3f35 4d97 02c0 d6b3 b7a1 749a f23f
00000030: 0bc8 911d c5af f13f aae4 18c7 43f0 bdbf
00000040: b988 16bb 66dd f13f 24d5 581a 73ba f4bf
00000050: 6aec cd00 ab7f f23f 97dd d0d1 45b0 ee3f
00000060: 7c1f f973 0bf1 e93f bb5d fbc4 10cf f23f
00000070: b661 3090 70a7 e0bf 62a5 6caa 429d ee3f
00000080: afe1 23bb dc03 f2bf e209 6767 5d7e f33f
00000090: bcf9 9aae 009b f23f 3827 384a 70cd c9bf
000000a0: 0c34 2900 e9bb f13f 1a1d cd96 3055 f1bf
000000b0: 1763 51c3 fd91 f33f 38ad 1f68 bbf7 ab3f
000000c0: 6c9a 27e3 1fb4 b7bf 4648 e559 ba1a f3bf
000000d0: 494d 6ef0 0531 f03f ec86 8aec efd0 f23f
000000e0: 7564 81d6 8b6e dc3f 245d f331 8580 e6bf
000000f0: e8de 546a d5a1 f23f 2b2a bbbd 2cd6 f2bf
00000100: db0e 0445 cb29 edbf 2311 78c3 6a7d ea3f
00000110: 2401 27b4 43c8 e93f e6b4 20b2 fcdc f03f
00000120: 518d 4e4e e8e5 f33f 5378 4f0f 09c6 f3bf
00000130: 89ab b82e 0bf0 f03f b9bc 8205 3a18 c53f
00000140: 477b 9463 6fed f03f 4cb3 8863 8137 b43f
00000150: 367c ddd6 905b e2bf aa2d 28e5 f9c8 f23f
00000160: 90f8 b549 c33d f23f 7dd8 2a7d d726 ee3f
00000170: 2f22 afe8 71d6 adbf 96a5 39c0 a628 df3f
00000180: 0684 6f44 77c9 f13f 1251 2a4a 53b8 f3bf
00000190: 56b7 e14f 58e0 f33f 39a8 020e dfc9 f23f
000001a0: d949 4298 90f9 ea3f 164c f6c2 ae45 f13f
000001b0: dceb 5219 bb48 f13f 1d17 03be fbac c23f
000001c0: 8164 3545 1a64 f4bf e345 250a 3952 f13f
000001d0: 635a d254 8d12 b3bf 43bb fec2 419e f33f
000001e0: 7ef4 a8f3 72d8 f43f 7dd3 20c5 ed53 f23f
000001f0: 0818 38b5 bc5d b43f 602d 2716 bbf1 f4bf
00000200: 752f 6eb2 05d1 f1bf 5e30 c7b5 24d3 f33f
00000210: 76c3 29cd ab72 f03f 7b1c 09e8 ce48 ee3f
00000220: f87f 8dbe 77ec f0bf a991 5c3d fbaa f13f
00000230: 7cb5 480e d10d f13f bf23 a3a8 b17a f13f
00000240: d1d8 ecaa 4d13 f63f ee14 4f1d 5a5e ef3f
00000250: 483f 1aa4 b797 ed3f 2960 a20e 934c f13f
00000260: 8fb7 61b6 d6f8 f43f dcdc be0c 90b9 debf
00000270: 54c0 0ab7 b486 f23f eb87 fa33 eb9c f43f
00000280: ffcd 1f3d 4738 f43f efbd 2f0b c4b5 e6bf
00000290: 6506 5414 121a c2bf 077f ce5d 92a4 c7bf
000002a0: 7ef2 83a9 0c15 e1bf 9abd 7064 7845 a9bf
000002b0: 1952 c7a3 b51c d0bf b548 1453 5327 cabf
000002c0: 4721 3d00 0b1f e3bf 50a2 9116 0a9f d0bf
000002d0: e73e c087 3940 b5bf 0a4e 37e3 f3c7 d0bf
000002e0: 7019 0581 a419 d8bf 65da 85c4 923d ccbf
000002f0: 01bd 176f 11b8 ddbf 61e9 0339 1cb6 e6bf
00000300: 5f73 5c33 080f d1bf 1121 ef82 7462 b03f
00000310: 9904 7582 b797 cbbf fa0c 7465 2068 d1bf
00000320: bdf7 4346 ebd5 ecbf e917 0cc6 84cc c2bf
00000330: 8913 ac02 c441 d2bf d588 5b6e 040f d5bf
00000340: a3d7 1ac5 4ad0 e5bf 3a33 3d0b d394 e4bf
00000350: cd9f f6b8 c36a e0bf 5476 b9f4 b60f d1bf
00000360: 0901 1468 c100 d4bf 30f5 d787 90bf e8bf
00000370: 9c4a 1147 465f dcbf a3ef 3401 885b ccbf
00000380: af8c dda1 dd5f dcbf 04ca 9c59 15a2 e4bf
00000390: 232b 1f96 d23b e4bf 8b06 29f0 b3c3 f0bf
000003a0: b07f 4c3c caa6 c7bf c3c4 a227 ecca d2bf
000003b0: 283b 7ee8 c928 b43f 71c4 5c54 37da d3bf
000003c0: 1001 f515 0097 d6bf bb00 1532 e62d d0bf
000003d0: 0a63 c162 b0f3 e8bf 963c 2977 e956 debf
000003e0: f1e9 6e43 2416 eebf eddc 76fa f6dd d8bf
000003f0: def2 2aef 3ed0 cdbf 5354 39da e361 ebbf
00000400: 94d9 7373 d05f efbf 9f4f 707c fc05 d0bf
00000410: 1027 17b2 af85 b4bf a1fc 757c a19a d8bf
00000420: dadd 273c e307 a3bf a190 e9cd cde4 d0bf
00000430: 9690 3b15 007f c9bf 7d0a 1c9a 2251 cebf
00000440: a52e 3ea9 0499 d0bf 078c 48a8 56ea e1bf
00000450: 904e 3b5f 6f67 cfbf e9f3 cb32 4109 e2bf
00000460: f4de fd79 fa63 efbf a5d2 138c d805 debf
00000470: e438 db81 c580 cbbf 2743 ac71 29f0 e6bf
00000480: 4b44 63a8 10e7 c5bf 8aea e652 b716 cebf
00000490: d94a 8284 eab8 d5bf 182d 384c ca17 d0bf
000004a0: c87b 4e63 af8e d7bf f1d5 5d3a ea83 c7bf
000004b0: bc8b 30e3 8b41 d2bf 7dea 3713 8089 e6bf
000004c0: 161e 2d57 1a6b d3bf 9e89 be94 ce31 d4bf
000004d0: 8c45 ec1f 1072 cebf e9e0 fa6c 8ca4 d1bf
000004e0: ca34 6b5b e063 d7bf 99d6 a2dc b629 d9bf
000004f0: 3498 b04a 5035 c1bf 6c27 b140 5f96 d4bf
00000500: 7b32 7b10 1718 cfbf 6380 5e1b 6558 d1bf
00000510: e154 b6cc ef4b e6bf da3e 305c 5b71 e7bf
00000520: 7da5 c502 336d f0bf cbb7 b63d 4a13 d2bf
00000530: b7f6 46b6 cb6d eebf d360 5853 c8b1 c13f
00000540: 468e 024d c9ae d23f ad54 15a4 fbfb efbf
00000550: a2be f198 31bb b53f d359 8b77 a062 e6bf
00000560: a622 eae4 c9f5 c83f 8b12 275d 7982 babf
00000570: dc87 69a7 a9fd bf3f d634 e342 52ce bcbf
00000580: 1f53 96c6 28c8 f2bf 6aa4 6f2c 2369 bd3f
00000590: 03ee 7406 5916 e4bf 36c6 8e8b 0c61 c73f
000005a0: bca3 b8b8 1b72 c13f 4240 8176 7c8a f1bf
000005b0: 4769 04d0 d0b7 ce3f c187 64b9 d637 f1bf
000005c0: 7394 d43d fea7 a63f 4bb9 182e 9fce f0bf
000005d0: 005b 9b60 f90d edbf 9eeb ec8d 64f3 f0bf
000005e0: 7909 da10 7d07 bf3f 957a 1d56 5dde b63f
000005f0: 2d86 7542 c1eb eebf aa67 944e 24a4 eebf
00000600: d36b cff2 e538 c53f 8413 feb8 9eab e9bf
00000610: f3cb 6bd0 4c99 f3bf 330f 4508 a6f8 d9bf
00000620: a474 73ab 03cd efbf 44a6 2b67 813d c63f
00000630: a423 ff03 5c0f b93f 544a 89ef edda e2bf
00000640: 0e4d f3e5 e52f b83f 2337 5e2b 35d9 e0bf
00000650: 85c4 352c b896 cd3f e6e7 4809 c08b ecbf
00000660: 7294 044d c6a7 f2bf 1d48 47bf 5f2f e6bf
00000670: 7328 dbe9 6d9c bbbf 6419 2d33 829d 3f3f
00000680: c2e9 58eb 985d eebf 0bfe 14b7 cbf3 f0bf
00000690: 2bd5 db5b 33ee c83f d7dc d74a 3953 eabf
000006a0: 807d 503a f186 b8bf 5588 724d 5f30 c23f
000006b0: 3800 bcd1 b951 61bf f790 f462 4c68 963f
000006c0: fdc0 8781 cb7d b83f a072 395d 1a6b e1bf
000006d0: 2f5c 14e7 8d27 f2bf 770e 1420 79a8 bc3f
000006e0: 8b0d 85a2 33ea ecbf 59f9 1b44 f0f7 e7bf
000006f0: 0525 c937 9b74 b5bf 177b d87a 7771 d13f
00000700: 8346 1861 10a9 eebf 19c6 5067 1a8d f1bf
00000710: 4740 c2c2 f569 f0bf db1e 0a58 1e76 9b3f
00000720: 4f2b 2b69 a91c c23f f653 e468 717d cfbf
00000730: 258c 58d0 4d0c f0bf 4874 b159 5866 b23f
00000740: 269e cf54 277a dbbf 7656 266d f918 5e3f
00000750: b8b3 ee2b 15dd a83f cc0a 44b9 5d75 c23f
00000760: 9216 1017 7e2a c43f 4471 07a1 e97a babf
00000770: 61bc 7beb a4b7 6dbf 5269 26d0 85f6 d1bf
00000780: a208 7b1c 82ec a03f 4e77 d36e f305 d33f
00000790: 3f80 7f45 5445 c33f d727 5b2e 47ee d03f
000007a0: 70db 551a 9e08 dfbf 52d8 f73a 1c77 e5bf
000007b0: e540 4f42 4899 ea3f 5b8f 5008 4876 f1bf
000007c0: 05cf 6eca ab61 e83f ff51 352d 1a4e e83f
000007d0: 02bd 8eb8 fcf0 d73f 592b 47c5 69da e73f
000007e0: 4280 e0c4 2c19 e1bf 993a 639e 350e e83f
000007f0: 3fee ae4b 4744 e83f 56f3 a201 6467 e53f

gate_gate_weights f8 [108, 81]
0.7007027768330089 0.6223485658058481 0.11953069705625248 1.142871698601895 -0.24217879358968383 -0.21245932005483092 0.16176486972550724 -1.452640517332276
-0.3867133116859248 0.69330894886207 0.26263374222905805 -0.43648581350211485 -0.053047559076993746 -0.9755481360401387 -0.22472186587227952 0.061642588213580964
-0.577777752873504 0.38243028174863025 -0.2631775521006487 0.6126109776568228 0.20873428280973805 -0.07605818889103778 -0.6057520301861219 -0.43263794997061816
0.7150656956017305 -1.2389621685773426 0.10790832526776874 -0.5713735623609482 -1.0619836793729736 0.518653338528587 -0.35632580084679966 0.7153262734731507
1.4733977134780734 0.6176397860308339 0.6269993731568553 0.1064232438503595 0.5975109633363934 -0.5974992365537563 0.10305330147409747 0.33824200104659125
-0.16789435373222364 0.5399548626215996 -0.5240165424114521 0.8555702368881679 0.7287589357847433 -0.17491809872602426 -0.7636286409148141 0.7875850655183888
0.22936485549196078 0.6746556846123176 -0.8966135426382527 -1.0857546264475089 0.014184393111089022 0.35237119802156913 0.235203492812451 -0.15694341262581854
-0.3987699828596018 -0.19436861239262393 0.7567437175467184 -0.9006510252878407 -1.0047213865031002 -0.17865040093702347 -0.07797562424530764 -0.15566774183926088
-0.16188241427906783 0.8404218216203988 0.11960332117728545 0.10762751536016278 -0.26296807523599636 -0.24256190567955668 -0.9584082763193373 0.5025373510337484
-1.4397792290127773 0.10779924454965394 -0.08456551916066712 1.0902512495733836 0.882828485489079 0.09365375874709664 0.576350299268381 -0.2573966420042461
-0.4017258660082631 -1.013719208759783 -0.3339774613235696 0.5119838937790829 0.08909737032009549 0.6335182556742293 -0.2429911025351445 0.12300347063025319
0.986138712184371 -0.20766351605833364 -0.3554009733378693 0.1353320492270698 -0.29105057797770567 -0.20225997796912434 -0.24891292893823747 0.5683944157350603
0.19573445802503187 0.5867740243986588 0.24962344138322912 -0.16649110231784972 -1.4331991989518356 0.15188878386717866 -0.2534786925873 -0.20197395044717664
0.16197312472191727 -1.3590433783942868 0.6544340461588558 0.17440212500659283 -0.22249931267786863 0.9232866218457813 -0.3584473204832408 -0.24706143259375507
-1.0488210410322822 -0.7391653564598193 0.8920575651373571 -0.7186488830805597 0.1806573342195289 0.16412829327273026 0.42562129212483873 0.24987625987139084
-1.7311963251720197 -0.16063241963310182 -1.1102593611101519 0.06613701538650667 -0.7850026438712796 0.27300371297308024 -0.23020234421569685 1.1653349492638856
-0.6890692900817403 0.17264639560448988 -0.03801275357991528 -0.25748246437623173 -0.46669149460124276 -0.20844569631815904 0.2555534179903662 0.20484196050469997
1.1419133380236763 0.9284490802213302 -0.23960078437646126 -1.4284070604451382 0.5792818369170952 -0.19634799229480873 -0.12759970590850914 -0.504168979990601
-0.5629262620218466 -0.2742284780661052 0.2590292023271275 0.2832312153109253 0.2874868193905208 -0.21259789176888236 -0.1617503274819625 -0.00402737845882784
0.22617210174052052 -0.387705386766673 0.21798159340974385 -0.20382627591102642 0.25243264017285133 0.2591362192512126 -0.10663115652905984 0.20324993177818987
-0.10910712263386022 -0.16603277128075533 -1.3822787056266348 0.23196356861448839 1.2387827498919977 0.573125252582844 0.21334638005378997 -0.2889578353093857
0.23346806762096187 0.6841029055796212 -0.31658358909157797 0.2308552362212653 0.2396786293769464 -0.41494408799018534 -0.24361528211426675 -0.6682051979582831
0.8269179322340359 0.27846207539847867 0.3606106853539226 0.3915207532416492 -0.26654820282599806 -1.745071170474728 0.25423267634321567 -0.9700912285407642
-0.40944360932491236 -0.15423435507218924 -1.4097455041490945 0.7807778616116832 0.2544014285481146 -0.36680730355576674 0.8680610361163569 -0.08459739305530968
-0.31980166103869573 -1.3609048265493742 -0.7355763491389755 1.5228133635079115 -0.7159567832025393 0.24647425504706713 0.3511789752251046 -0.28276020181564665
0.31623933071266025 -1.915823206484426 -0.27393640213529147 -1.3406908934243018 -0.31825564829268765 -0.6615516560278343 0.46840578269914995 -0.3085238032236407
1.4486263882459893 -0.6165773255623203 0.26942480575467126 0.785713982090854 -0.49389634119880377 -0.7946641742190832 -0.26402740537001257 0.34356453974204315
0.27461252662483554 1.476340711979139 1.4465066548848495 -0.30180298161580554 -1.417239144854877 0.3591585100874519 -0.5245452097773324 -0.2013756453205741
-0.6672576442395274 -1.4310572831326471 -0.8674764618686859 0.5287313978416986 0.3463207209244704 0.3467206189819613 -0.9227172016377739 -0.26158877584350926
-0.3501085063311524 0.35750354153316255 -0.8364513731412583 0.3237155729800451 -0.2789381025321966 0.6765534813938376 0.5168573462780438 0.23289770901753956
0.3973981585217146 -0.2756726427811594 -0.284220500387279 0.04712297689513198 -0.9181139225794861 -0.9585471514510429 0.35707300306791606 1.022363962240878
-0.2107467266465147 0.10699588059255503 -0.19228559106985885 -0.22417577529518706 -1.0064729203940308 0.11896156819444527 -0.3236255487537582 -0.14179739345454
00000000: 65da d63a 286c e63f e827 1b8a 47ea e33f
00000010: 2585 b952 9099 be3f 444e 90d5 3349 f23f
00000020: 834f 20f7 b6ff cebf acd5 aef3 dd31 cbbf
00000030: ba6e 8e14 b6b4 c43f 1b96 acfb 033e f7bf
00000040: 169c a730 e9bf d8bf 1160 ac3f 962f e63f
00000050: 23cb 6cc1 fdce d03f e135 8a31 62ef dbbf
00000060: ed93 bcb6 0c29 abbf bdea 7eb9 b037 efbf
00000070: 850b 4fa4 afc3 ccbf 8514 d608 9e8f af3f
00000080: 9656 1ec5 277d e2bf 5411 47dc bc79 d83f
00000090: 6312 d4a8 e6d7 d0bf cd9c 4656 829a e33f
000000a0: 4065 1c13 ceb7 ca3f 8947 e1a9 8c78 b3bf
000000b0: e851 e414 5262 e3bf 6d77 8815 57b0 dbbf
000000c0: c43a 2374 d1e1 e63f b655 b0fe c9d2 f3bf
000000d0: 19bf fd47 e19f bb3f 0e75 8435 b148 e2bf
000000e0: c8ae 3c99 e2fd f0bf c020 dee2 ce98 e03f
000000f0: b2e9 56bb 0ace d6bf ee2c d1ec f3e3 e63f
00000100: 683b 167b 0993 f73f 71bf 3683 b4c3 e33f
00000110: 3847 4afd 6010 e43f 681c dfbf 8d3e bb3f
00000120: 1f00 d14f cf1e e33f 6944 0cb8 b61e e3bf
00000130: cc79 937f b361 ba3f bd3c 28c7 c1a5 d53f
00000140: 2542 3beb 8f7d c5bf 87d4 886b 4f47 e13f
00000150: bf0b 0757 bec4 e0bf 70b3 5bd5 d460 eb3f
00000160: a29f 7b42 fe51 e73f f4dd c05c b763 c6bf
00000170: e693 e054 a56f e8bf 1f06 6798 e533 e93f
00000180: 5249 98dc d35b cd3f 790d af84 c796 e53f
00000190: 1e06 59e2 0eb1 ecbf f929 413e 405f f1bf
000001a0: 93b4 3404 b50c 8d3f c884 e3ec 3f8d d63f
000001b0: cc68 c4e6 251b ce3f 9377 46c4 b816 c4bf
000001c0: c78a c088 7285 d9bf 2c30 cc18 12e1 c8bf
000001d0: ba21 ca99 3e37 e83f 6d0b 5719 22d2 ecbf
000001e0: 22f6 89bb 5613 f0bf 058d b82e 04de c6bf
000001f0: d5ce 04e4 35f6 b3bf 2ff3 1eaa ebec c3bf
00000200: b124 901d 90b8 c4bf 1b8a d64d bce4 ea3f
00000210: 880d f3c0 529e be3f 9723 9f12 7a8d bb3f
00000220: 87f6 c10c 78d4 d0bf c716 13be 440c cfbf
00000230: ae3b 60d5 47ab eebf 63ab f635 c914 e03f
00000240: 9c1e e1f1 5509 f7bf 27d0 df35 bb98 bb3f
00000250: 5011 2afb 15a6 b5bf fc73 554b ab71 f13f
00000260: c7e3 2486 2140 ec3f 6c5c f756 b1f9 b73f
00000270: 65b8 cc2e 7671 e23f 8f8a e0c3 2f79 d0bf
00000280: fe9d 1d68 e0b5 d9bf 4934 0fa2 3138 f0bf
00000290: f117 7f00 e35f d5bf 4b84 fb0b 2c62 e03f
000002a0: 9235 afd3 15cf b63f e345 b113 c845 e43f
000002b0: 36c0 4d1b 551a cfbf 60c4 a6cb 277d bf3f
000002c0: 84d8 c4c5 728e ef3f 337e 05d5 b794 cabf
000002d0: 4ff9 5cb9 e3be d6bf 69f5 c382 8f52 c13f
000002e0: 6b5a 799a 92a0 d2bf 8962 55ab a7e3 c9bf
000002f0: c8af abfc 60dc cfbf a1f4 597c 4930 e23f
00000300: 5c7a f5a3 d30d c93f cce7 9d51 dac6 e23f
00000310: 1c29 8732 a9f3 cf3f 19dc c397 944f c5bf
00000320: ac6c 8248 62ee f6bf fd5b ab77 1771 c33f
00000330: 734c b9b1 fe38 d0bf 1e43 e84b 48da c9bf
00000340: ec7a c10c 89bb c43f f2c7 0045 a4be f5bf
00000350: 0a85 34ab 1ff1 e43f d1cb a00f cf52 c63f
00000360: 05be aa83 db7a ccbf b12e b562 908b ed3f
00000370: 501e b407 cdf0 d6bf 42ea 8b82 b59f cfbf
00000380: fa71 6992 f8c7 f0bf 6c98 0a1b 3ea7 e7bf
00000390: 4342 8d4e bc8b ec3f f069 44f1 2bff e6bf
000003a0: 8cb1 208f c71f c73f bc32 fae9 2702 c53f
000003b0: 9313 8a16 613d db3f c8e2 18fe f1fb cf3f
000003c0: 781b f9ea fab2 fbbf d431 8066 9a8f c4bf
000003d0: 3dbc e051 9fc3 f1bf 43dd 23fe 5aee b03f
000003e0: fa6b 56dd bd1e e9bf 18fb b990 e478 d13f
000003f0: d839 ef39 4577 cdbf 5b96 7f42 36a5 f23f
00000400: 4487 320a db0c e6bf 3f60 72ef 4619 c63f
00000410: 1ecd e95a 6876 a3bf 8985 f2ba 977a d0bf
00000420: 838e a800 46de ddbf 25d7 563c 59ae cabf
00000430: b793 29b9 fc5a d03f c5ac 9be8 4238 ca3f
00000440: 9cd8 9aeb 4645 f23f 1da9 71d8 dab5 ed3f
00000450: ac15 7f0e 3dab cebf 3ecc 9f5c c1da f6bf
00000460: 2d39 1710 7a89 e23f ad4e c556 ee21 c9bf
00000470: 159a ede9 2f55 c0bf 33f4 16fc 2622 e0bf
00000480: fd2f aeef 7d03 e2bf e63f 3b9a f58c d1bf
00000490: 010e 2d38 ef93 d03f 60df bdd1 7520 d23f
000004a0: da0d d41d 2f66 d23f 5d46 2c60 6836 cbbf
000004b0: 307f 5317 3cb4 c4bf 06f9 4e2c 037f 70bf
000004c0: 911e 1f1a 35f3 cc3f 4a56 2941 2ad0 d8bf
000004d0: ab93 6923 d2e6 cb3f f439 8dba fa16 cabf
000004e0: af0f 7f3b db27 d03f a127 b914 b095 d03f
000004f0: 6fe7 06f2 2d4c bbbf 3566 f300 1804 ca3f
00000500: 7e1c 79c3 71ee bbbf 2488 5bd5 8f40 c5bf
00000510: 4cfa a946 d01d f6bf e305 8872 fbb0 cd3f
00000520: 4729 5adc 0dd2 f33f 9b5c 0bc5 0a57 e23f
00000530: a687 8626 ef4e cb3f bae9 2401 497e d2bf
00000540: 0dd2 8b19 48e2 cd3f 7f04 d2c6 2be4 e53f
00000550: f34f 66d0 e742 d4bf d220 d714 aa8c cd3f
00000560: f8ae 5c11 caad ce3f 7487 e5a5 718e dabf
00000570: 9048 be1a c92e cfbf e1ef 07de ef61 e5bf
00000580: e279 6d98 1c76 ea3f eed0 c098 52d2 d13f
00000590: 44ba 0bd7 3e14 d73f ed33 b80f ad0e d93f
000005a0: c17e 7c31 200f d1bf 341a 66bf cfeb fbbf
000005b0: 98fe 9d21 5945 d03f 6902 97c2 fc0a efbf
000005c0: 29d4 e6f7 5234 dabf c233 7a8b f3bd c3bf
000005d0: e60d 404d 518e f6bf 0a04 a2da 21fc e83f
000005e0: 8bde eaed 1c48 d03f 7e2e 2d57 c579 d7bf
000005f0: efa6 21f0 27c7 eb3f 81d9 7fbc 2ca8 b5bf
00000600: ff87 d762 a177 d4bf 47f8 af23 44c6 f5bf
00000610: 506a 6869 d789 e7bf 12da a28b 715d f83f
00000620: 5e89 2633 1ee9 e6bf c1d6 5de8 778c cf3f
00000630: 979d 6861 b779 d63f e225 da3e be18 d2bf
00000640: dfaa c7e3 433d d43f a24b 0c3c 36a7 febf
00000650: 04b8 168c 2c88 d1bf 9fd6 544b 7873 f5bf
00000660: bfcc 4bf0 4c5e d4bf 5222 e860 6e2b e5bf
00000670: f5ce 7c3f 5cfa dd3f 5284 389f dabe d3bf
00000680: d939 1add 922d f73f 95d9 175f 00bb e3bf
00000690: 47a3 5c8a 413e d13f 7de2 22a6 9124 e93f
000006a0: e006 4466 ff9b dfbf a45c f28f e36d e9bf
000006b0: cef6 d333 d3e5 d0bf b678 901f f6fc d53f
000006c0: ff3c 3b6b 4093 d13f 9742 3b70 179f f73f
000006d0: 1fd4 8229 e424 f73f da02 f873 bd50 d3bf
000006e0: 0834 1cf4 02ad f6bf dcf6 b9f9 73fc d63f
000006f0: 1a8c 2809 13c9 e0bf f56e 6e59 adc6 c9bf
00000700: 0579 00b4 2c5a e5bf 081e 5c52 9ce5 f6bf
00000710: 54d3 38ff 5dc2 ebbf 9726 c31b 5eeb e03f
00000720: 3a0e 9362 1e2a d63f f316 d8ad ab30 d63f
00000730: 43b5 8f39 e686 edbf 32e8 4fd9 debd d0bf
00000740: ec98 2f82 2d68 d6bf feb3 c588 56e1 d63f
00000750: 7dc0 8aab 35c4 eabf b7ee c985 c1b7 d43f
00000760: 27fb fe32 1fda d1bf 769b 927c 53a6 e53f
00000770: fbc4 de6a 188a e03f 8b96 c595 97cf cd3f
00000780: 4dd9 95af f86e d93f f567 49de 9ea4 d1bf
00000790: 1608 812e ab30 d2bf 1c3c 4fb9 8020 a83f
000007a0: bc65 ef72 3061 edbf 7eff 6413 6bac eebf
000007b0: 6b84 9db9 48da d63f d2ef 6650 9a5b f03f
000007c0: 5bc9 57ad bff9 cabf 8fa5 f3ff 1464 bb3f
000007d0: 9f8b 9172 d09c c8bf 0461 b9b3 cab1 ccbf
000007e0: 7c6e 5659 831a f0bf 9942 e0ec 4374 be3f
000007f0: 5709 03ef 47b6 d4bf 30cc c5bf 6a26 c2bf
