balderdash_lstm/lstm_model/models/lstm_model_25.npz (npz, 903256 bytes, 19 tensors)

forget_gate_weights f8 [108, 81]
000000 76 68 1b 7e 21 35 e6 3f 93 f7 49 f4 ca 16 e4 bf
       0.6939856970814293 -0.6277823230045548
000010 3f 4a 03 52 5a 2d e7 bf e9 52 19 2a ce 24 ea 3f
       -0.7242862321675786 0.8169928381199415
000020 f9 19 04 29 9e 2b 03 c0 b0 a0 8a d2 ad a5 e9 bf
       -2.396297760427157 -0.8014744865549996
000030 f0 1a 6d 4c 32 24 e5 bf 42 bb c1 25 94 02 01 c0
       -0.6606685154627865 -2.1262591314074664
000040 b3 28 8d 89 7f d4 cf 3f b4 08 0a 45 71 b1 de bf
       0.248672430194636 -0.4795802282534496
000050 f8 ff 31 57 3b 99 f7 3f 31 65 23 bf 73 80 c3 3f
       1.474910107237518 0.15235754807398785
000060 4b 87 ac bc e3 d6 d4 bf a7 c9 5a 1c 9d d2 e4 bf
       -0.32561582017125507 -0.6507096818734696
000070 b3 71 e9 38 ff dc c3 3f d8 a4 22 c2 4e 91 ca bf
       0.15518179205799995 -0.20755943755401662
000080 bb 07 0f 26 a9 61 ec bf aa d7 52 e4 1d 90 dc 3f
       -0.8869214766821111 0.44629618928172
000090 a3 14 b4 0b 29 87 eb 3f 31 5a ae 66 b7 d3 ea bf
       0.8602490643103419 -0.8383442883958364
0000a0 a6 1a 39 04 59 39 d7 3f 34 55 cd ba 72 5c ea 3f
       0.3628752270928238 0.8237851761320258
0000b0 f0 0e b7 bd d4 0c 01 40 46 8e 8f ae 04 f3 dc bf
       2.1312651463975882 -0.4523326592154472
0000c0 c3 34 80 91 ba 5c d6 bf 9d 7d 4b bc 7a 5f e2 bf
       -0.3494097157388973 -0.5741552045473558
0000d0 ef 4d 16 e6 c4 0f e9 bf 8f 6e 17 5e 71 e6 c2 bf
       -0.7831749433411782 -0.14765755743325257
0000e0 63 0d 5e ef 9c 6a 04 c0 ea 90 d6 ec 1d 91 d1 3f
       -2.5520571423127634 0.27448223236775837
0000f0 b9 d0 19 5b cd 73 ed 3f 66 c7 f5 c2 b7 2c fc 3f
       0.9203860072434714 1.760917436182774
000100 7d 91 82 cc c1 3c fe bf 58 ea 02 aa 73 bc fd bf
       -1.8898332585023063 -1.8585087433881622
000110 87 cf 75 52 9e 70 d0 3f 14 fa ce 7e ab a1 ee bf
       0.2568736844325418 -0.9572350956657965
000120 aa b4 e1 a4 a2 ce 06 40 a7 3d dd 63 f7 a5 f1 bf
       2.8508961564426345 -1.1030191327043697
000130 fe 49 65 59 ab f6 ec 3f 47 d2 83 66 8b 2e f2 bf
       0.9051110025414457 -1.1363634113778447
000140 1e a8 e7 27 96 dd ed bf ef 1b 76 b9 23 01 df 3f
       -0.9332991389649157 0.4844445525308733
000150 71 48 55 34 37 14 bc bf 8d c4 90 37 4c ff 02 40
       -0.10968346622147053 2.3746570912413234
000160 74 68 5a 92 50 c6 fd 3f 20 40 49 37 07 ba db 3f
       1.860916682903306 0.43322925948177904
000170 2b 1a e8 8b f3 04 d5 3f d1 cc 4e ec ef 76 d5 bf
       0.3284272066379425 -0.33538435055670585
000180 e9 12 50 61 81 93 e3 bf c0 00 9c db 5d ab e7 bf
       -0.6117560291901017 -0.7396687783475713
000190 77 fc 65 8c 11 16 01 40 b6 52 9f 35 ef 33 f7 3f
       2.13577565847623 1.450179299795463
0001a0 f1 8e d1 b6 1b 9b dc bf 90 d1 dc 20 f6 b9 00 40
       -0.4469670567834632 2.090801483858918
0001b0 65 36 58 09 35 20 ea 3f fa f3 f0 0f bc 3f df bf
       0.8164315397750214 -0.48826505238304174
0001c0 95 15 d2 52 71 29 ed bf 42 49 e1 f9 97 d6 e5 bf
       -0.9113089196768437 -0.6824455147237034
0001d0 b4 c0 56 06 4a fa af bf 56 cb 0a 34 9f de f2 3f
       -0.0624564297426117 1.1793510468384816
0001e0 76 cf 17 f4 7c 0b e4 3f 8f 23 d1 73 7b 58 9c 3f
       0.626402355903777 0.02768128294363553
0001f0 71 af 26 db 85 5d e0 bf d4 00 a3 98 4d 58 d9 bf
       -0.5114163666053014 -0.3960145941346245
000200 32 df 72 84 e2 a9 d6 3f f3 b7 74 47 2a b8 e0 bf
       0.3541189473576082 -0.5224810977576894
000210 c2 9b 6f e9 ff 0d da 3f 71 f9 85 fa d2 01 d5 3f
       0.4071044711731099 0.32823633637590094
000220 29 cb c2 ca 41 a6 f6 bf cc 24 36 bf b5 42 de bf
       -1.4155900879238266 -0.4728216521549029
000230 35 1c 71 43 af 27 e4 3f c6 12 84 a8 00 d3 e5 3f
       0.6298443143103954 0.682007149822845
000240 24 4c 5a 19 75 fa ee 3f 9a c1 18 71 34 71 ee bf
       0.9680734152956387 -0.9513189515037539
000250 27 36 42 43 ff 40 e0 bf 7b c3 5e c3 76 7a fa 3f
       -0.5079342187543191 1.654898417629936
000260 b1 a9 11 d5 c1 09 ea 3f c1 4a e3 fe 5e 9f db bf
       0.8136910592559642 -0.431602238573003
000270 34 38 4e ee 01 00 f2 3f 73 33 87 3d 14 40 c6 3f
       1.1250018414316516 0.17383053783705868
000280 be a7 a9 2a df a7 f7 3f ef 3a d0 4c 68 59 f4 bf
       1.4784843126785598 -1.2718279839061173
000290 8f 6a 59 47 d6 3f d8 bf 25 7d 32 4f 41 37 d3 bf
       -0.37889630286887493 -0.30024750455955235
0002a0 64 25 88 74 c3 42 ed 3f 3a 45 2a 35 bd 49 d8 bf
       0.9143998409282799 -0.37950067703157553
0002b0 dc 51 a7 22 3c 3e 00 40 55 b0 a8 07 c7 87 f9 bf
       2.030388136607355 -1.595648794095742
0002c0 a1 a2 3c 8f 43 dc f5 bf c0 21 cf 8a f7 8a d5 bf
       -1.3662753672780712 -0.3366068702275946
0002d0 6c 0c 19 69 6c b5 d0 3f 57 54 ce cd 92 51 f8 bf
       0.2610732103677893 -1.5199153937621952
0002e0 d2 d3 a9 68 88 9e ce 3f 64 6f dd a2 14 5e c0 bf
       0.23921303854481707 -0.1278711123694577
0002f0 55 93 21 b3 5a 59 df 3f 04 63 73 20 f8 71 db bf
       0.489828753407257 -0.42883113068596423
000300 50 a2 0a 01 b1 26 f5 bf 1b a9 39 33 fa 90 b0 bf
       -1.3219461479840398 -0.06471217871299866
000310 d7 00 05 34 ce 3a e3 bf 44 0f e3 56 1f a1 fa bf
       -0.6009284034735413 -1.6643365282079268
000320 85 65 00 fc e6 0c e4 bf d6 03 92 92 b7 90 da 3f
       -0.6265749856858497 0.4150828296042709
000330 95 15 4f 2c 02 48 de bf 1a 66 ef 8c ba ca 04 c0
       -0.4731450493530585 -2.5989886293944098
000340 ba 58 7a 2a c3 6a 07 c0 f7 45 ca 8f c6 fc f1 bf
       -2.927130061968538 -1.124212800674625
000350 2e 02 15 47 bd 2f e3 bf cf 19 de db 33 05 e0 3f
       -0.599577559311063 0.5006350797928522
000360 55 0b 91 66 bd 2c ef bf b9 be d9 e6 c0 f3 d7 bf
       -0.9742114070180415 -0.3742525343322814
000370 35 1b 6f ad c2 a3 e1 3f b5 19 8d 59 89 5a fe bf
       0.5512402903922068 -1.8971036432354655
000380 91 41 d9 0e 44 9b e9 3f 47 92 6b 05 89 1c de 3f
       0.8002033510220362 0.47049165276829225
000390 f3 96 96 92 26 e7 dc bf e0 c3 9e 70 34 c8 e7 bf
       -0.4516083175206937 -0.7431890678036517
0003a0 af fb 6e bd 62 4c db bf 7b a6 e3 6e a7 24 fe bf
       -0.42653721331947286 -1.8839487392055208
0003b0 24 1b 35 83 bc 47 e4 3f 3a 43 7c 47 ab e8 f9 bf
       0.6337568819661539 -1.6193039696119755
0003c0 31 04 2d 27 e9 ed d9 3f b9 71 db 94 87 b4 ee bf
       0.4051459200455297 -0.9595373065345064
0003d0 d8 3b 0d 96 2b a2 f2 bf ec 87 c8 50 ca f9 fe bf
       -1.1645923482317269 -1.9359839587782472
0003e0 77 d4 cf ce 67 11 dc 3f 4f 6f 9c ce cd b9 c2 bf
       0.43856234737842875 -0.14629528606826134
0003f0 6b 92 cf 8c 50 ff f9 bf 3f 1d 45 52 dd 67 b0 3f
       -1.6248326778815236 0.06408484705490468
000400 a8 42 9e 39 c5 65 e1 bf 0e 03 0d a8 0a 64 f9 bf
       -0.5436731458049353 -1.5869242252812827
000410 86 c9 80 58 9f c9 b7 bf e3 22 14 e8 67 65 f2 3f
       -0.0929202643463097 1.1497572961399605
000420 7e 9d 6b 90 79 a0 c8 3f 1a 9b 97 e6 25 c5 fd bf
       0.19239730407501193 -1.8606318480976314
000430 a4 43 81 1e 67 c4 cb bf ad 81 b3 4e 36 4f f5 bf
       -0.2169312380742926 -1.3318389009728933
000440 66 70 14 6d c6 0a c3 bf 13 56 32 21 00 0b f6 bf
       -0.1487663300148398 -1.3776856705420684
000450 ee c1 3a cf d1 8e ed bf 64 48 4a c6 4d 31 cb 3f
       -0.9236840293361277 0.21244213277947488
000460 12 77 ba 0d 9b a8 d8 3f 2b d7 1e d1 8a 23 e9 bf
       0.38529087391531036 -0.7855886539825624
000470 94 97 21 a7 68 17 fb bf 33 31 b0 fa 45 43 b4 3f
       -1.6932150391162155 0.07915150995558377
000480 b9 6c d2 14 82 dd f0 bf ea 3b eb 74 de 31 d7 bf
       -1.0540791333540211 -0.36241876047000565
000490 1c 38 fe ec de d1 b5 3f 18 1e c2 a6 ac 11 08 c0
       0.08523362432444553 -3.008630087660787
0004a0 05 88 3a 0a 75 a8 f7 3f 1c a7 eb 62 b8 df e5 bf
       1.4786272429996654 -0.6835596019784336
0004b0 74 8d 70 74 e5 5a fb bf 40 43 5e b3 93 f4 d1 3f
       -1.7096914814399868 0.2805527927057945
0004c0 80 e3 fa 01 95 9a ee 3f f6 84 e7 66 7b e5 f8 3f
       0.9563698805496728 1.5560258884145788
0004d0 f3 4a 6d af 22 4e f4 bf d8 d3 f3 0b 45 3d f8 bf
       -1.2690760471929792 -1.5149584261791826
0004e0 fd 8f 0f 13 42 f5 bb 3f fc 9b 5a f8 3b 04 ef bf
       0.10921109166480387 -0.9692668772376005
0004f0 33 38 ec f9 ae ae d2 bf b1 7b e6 11 d4 3b fc bf
       -0.2919118347789464 -1.7646065425139847
000500 30 9c de fa e3 2f fc bf a6 16 ed 53 82 c4 fc bf
       -1.7616920280068022 -1.797975852810319
000510 1b c5 8b 61 74 90 ef bf 65 5f 18 8f cd 24 e2 bf
       -0.9863836198038912 -0.5669925494030222
000520 20 da f3 17 d7 67 de bf ac c1 34 e3 4e f6 dd 3f
       -0.47508790339580464 0.4681584566888215
000530 1e 87 a8 7e e7 5b f3 bf 4a 01 a2 b9 b8 e1 f2 3f
       -1.2099375674810697 1.1801078082354075
000540 29 da ae f0 38 82 d6 bf 9d d5 e9 58 b1 a5 00 c0
       -0.35169814590645615 -2.080904669414578
000550 9b 13 53 d0 e7 e4 e1 3f 91 b5 82 ba 11 dd da bf
       0.5591925686681977 -0.41974299634861106
000560 c1 f5 a0 fd 72 f9 cb bf 6d 65 c0 12 53 b1 e8 3f
       -0.21855008491722397 0.7716460577241101
000570 51 41 98 94 65 23 a8 bf c1 81 7c 93 f7 75 b2 bf
       -0.04714505614186016 -0.07211253500691496
000580 85 93 18 f2 d1 06 a8 3f 3b f5 13 d9 b0 21 d1 bf
       0.046927033236250394 -0.2676813239957771
000590 bb 36 3f dd 84 bc e6 3f 9c 7c d6 ea 81 57 e7 3f
       0.7105125733594017 0.7294320666004697
0005a0 6c cf 2a 2f 46 5f d1 bf 63 45 73 24 0c 9b f3 bf
       -0.27144007307219087 -1.225353376754662
0005b0 fa 02 96 09 3f 30 f8 3f 6e a0 5b 68 33 6f dd bf
       1.5117788671925028 -0.45991215888216785
0005c0 d6 0f a8 63 88 ba de bf 99 bc c6 9e 6a 34 06 c0
       -0.4801350568015982 -2.775593986930812
0005d0 84 ad fa a8 07 5a ec bf 45 e1 21 03 c4 34 ea bf
       -0.8859899807334135 -0.8189411221674524
0005e0 95 65 6a cd c7 df de 3f 8a 5d 90 0e 7d d7 ee bf
       0.48240847644918833 -0.9638047489597039
0005f0 88 11 a4 5c 39 38 ea bf 10 5d dc 14 db 75 e9 3f
       -0.8193632897751266 0.7956366927564051
000600 90 70 be a3 0d 85 bb 3f 7e 27 f4 60 9f 00 fd 3f
       0.10749898193029339 1.8126519953970894
000610 5c 2d 45 45 fc ca d3 bf 29 b2 ff 80 58 3e f0 bf
       -0.3092642475573564 -1.0152211226478676
000620 e2 4e 25 f0 55 2c d3 3f e9 21 6d ad 9a f4 e1 3f
       0.29958103610736775 0.5611089122040173
000630 4e c3 b7 58 7d f5 a4 3f c6 8a 11 ca 70 e6 e5 bf
       0.04093543727856873 -0.6843799540186744
000640 05 ba 5c c6 12 20 da 3f 5d fb cc 2d 76 4e e2 bf
       0.40820760127363115 -0.5720778364701392
000650 59 be b4 ef 02 31 d1 bf f2 84 1d 7c e0 67 c6 bf
       -0.2686164227370447 -0.17504507122342933
000660 59 fb 0f 02 cf 95 f9 bf 62 58 50 9e 68 4e da 3f
       -1.5990743713916429 0.41103568516098765
000670 88 2e 5f fc f9 eb d3 3f fe 49 76 f6 b1 98 d8 3f
       0.3112778629845043 0.3843197733741873
000680 72 f7 ad f5 01 56 ee bf f1 17 22 27 da cd bf bf
       -0.9479989813259933 -0.12423480468177651
000690 52 4e e7 b8 fb 07 b4 bf f5 da e1 d0 59 21 ed bf
       -0.07824681534048608 -0.9103211478930847
0006a0 a7 66 78 a3 69 9c da 3f ba e6 b1 6e 80 de f3 3f
       0.41579667056940156 1.2418217014332371
0006b0 44 76 97 bb 9f d3 e2 bf d5 18 67 46 35 d2 f1 3f
       -0.5883330024623281 1.1138203382593492
0006c0 02 83 42 e0 54 9a bf 3f 81 2a 23 e1 a7 da e2 bf
       0.1234486625203424 -0.589191379281445
0006d0 43 8c 41 1c 0a 50 f5 bf 27 62 61 35 f2 dd d2 bf
       -1.3320408920051399 -0.2947965165417678
0006e0 e0 7b d9 51 7f 15 dc 3f 52 e2 6c 30 12 cf dd 3f
       0.4388120936691262 0.4657636139777753
0006f0 ae eb 66 69 5b 39 ed bf 2a b8 3e 8b 77 50 b0 3f
       -0.9132515963204832 0.0637278284982307
000700 cb 19 81 9b c8 a5 f1 bf 00 6d af 30 9c c6 f7 bf
       -1.1029745172869407 -1.4859887983100748
000710 e9 37 8d 6a cd 4e ef bf ab 47 4c 60 99 92 dd 3f
       -0.9783694344603165 0.46207270053957455
000720 78 9b 7a 4d cf 04 d1 3f 3c 4a 12 59 a1 5c c5 3f
       0.265918565428755 0.16688935136024152
000730 82 82 bf ed 47 09 ea bf 23 b6 75 5d f5 32 b2 bf
       -0.81363293109105 -0.07109006435140279
000740 2b 12 b9 4b 3c b3 b7 3f da d2 98 6f 26 13 f9 3f
       0.09257866715149336 1.5671753272301232
000750 03 3d 35 6c bc 37 fb 3f ec a8 fb a4 ae 28 d3 3f
       1.7011074282525562 0.2993580447351991
000760 a5 58 ec e6 1d 32 eb bf ca 9b 30 44 c1 d7 f3 3f
       -0.8498677740306176 1.2401745475451542
000770 16 11 5d c5 52 e9 f7 bf 08 2d 01 5a 08 a4 e0 3f
       -1.4944637021554334 0.5200235135938849
000780 28 53 ce 0e 91 0f a2 bf 89 93 22 52 09 e8 d5 bf
       -0.03527501397835514 -0.3422873785114509
000790 f2 3c 62 20 88 7f f1 bf 48 df 7b d9 00 bf f8 3f
       -1.0936356797208728 1.5466316695655724
0007a0 39 a4 5e a5 8d 04 e9 bf 55 19 48 8f 37 74 00 c0
       -0.7818058233143638 -2.0567465967061858
0007b0 03 9a 6f 1a c4 0e e9 3f 9d f5 92 c5 3d 3f ed bf
       0.7830524936987903 -0.9139698847645154
0007c0 5c d8 47 f8 4a ee f3 3f 3c 3e a1 4e 95 06 bd 3f
       1.2456769655668927 0.11338170213388649
0007d0 7d 9a 19 8f b3 a2 f7 bf 80 93 35 e1 93 71 f2 3f
       -1.477222022041729 1.1527289197194648
0007e0 37 d3 f9 ac 53 65 f0 bf 2e e6 8d 09 95 a2 ed 3f
       -1.0247380024786261 0.9260964571578307
0007f0 2d 40 b6 b5 f5 e7 f6 3f ee 80 91 14 a0 f3 eb 3f
       1.43163081151216 0.8734894181943937

input_gate_weights f8 [108, 81]
000000 2b ed 01 ee 0b 40 ff 3f 94 b4 8f aa 08 e2 d8 bf
       1.9531363770646049 -0.38879601150876764
000010 85 ab 93 e6 a8 78 00 c0 4c 24 d6 da f2 d4 eb 3f
       -2.0589159025016124 0.8697447084570142
000020 68 4d c5 fc fd b5 fd bf ef ae d0 db 2d c6 f7 3f
       -1.8569316743713333 1.4858835779695558
000030 9b 2d a9 38 57 04 d6 3f fe ca 29 57 54 2a f7 3f
       0.3440149358109125 1.4478343396010014
000040 10 46 9b 7b 61 3d fa 3f dc ab b5 74 e2 b5 e3 bf
       1.6399855450039276 -0.6159527091489241
000050 78 31 1e c4 cd d8 f2 3f 98 41 cd 8b 26 6b ee bf
       1.1779306088311312 -0.9505799036506231
000060 ae 96 8d 59 b0 52 99 3f b4 56 e3 44 c9 1d f0 3f
       0.024729495492826707 1.0072720232905512
000070 bc d2 a4 1f 16 18 a6 3f 57 95 f3 16 d3 f2 f2 3f
       0.04315251480367041 1.1842833420317527
000080 e6 ab e5 96 e6 fe de 3f 97 08 6c cd 9f 84 ff 3f
       0.4843079064946195 1.969878961972915
000090 07 d4 6f 4f 35 74 f7 3f 2d 4b 51 1b 35 99 dc 3f
       1.465871153164018 0.4468510405323965
0000a0 3f af af 3d d9 a2 d9 bf 23 1b 86 90 0d 87 03 c0
       -0.4005644895939788 -2.440943841068831
0000b0 d8 21 9c f2 74 ca ee 3f 5a 93 46 66 7e 70 c5 bf
       0.962213968131489 -0.16749553674631096
0000c0 15 90 d2 92 0b d8 ea 3f 12 87 4c b0 bd 24 ed bf
       0.8388727061869782 -0.9107349818552584
0000d0 ed d8 a3 6b df 6b e4 3f 91 11 92 ea 55 c2 d3 3f
       0.6381680586189568 0.30873630435260063
0000e0 5d e0 88 99 f9 38 fb 3f d6 55 2f 87 cb e1 bf bf
       1.7014099118660149 -0.12453910875714
0000f0 ba 9b d4 74 3b f0 07 40 b4 ff 09 3f bf 75 f6 bf
       2.9923009040244013 -1.4037468397582247
000100 6a 39 27 27 ca 9a bf bf 65 81 ba 34 1e cb fe 3f
       -0.123455652769939 1.9245893535335992
000110 99 70 3f 7b f0 2b f6 3f c1 83 00 81 da 33 c9 3f
       1.3857273878448153 0.1968949441807393
000120 95 36 a2 2b c2 68 fd 3f 96 dc 05 6f 48 72 f1 bf
       1.8380758003653785 -1.0904011093933028
000130 76 b5 c1 80 af 4f f0 3f 81 1c a1 85 31 3a e1 3f
       1.0194544820363638 0.5383536920497961
000140 98 53 83 19 46 ed cc 3f c3 0e 9b f1 09 ff e4 3f
       0.22599102254630732 0.6561326712475978
000150 1f 63 49 5f 8f 67 e7 bf 41 77 23 ec 3e b6 f7 3f
       -0.7313916073863743 1.4819936012422235
000160 5b 96 79 33 73 e1 d4 bf 2b 17 1d b7 e1 43 a5 bf
       -0.3262603762326301 -0.041533521273363704
000170 66 9a df ef 87 0b 90 3f ef f2 11 a1 14 1b c6 3f
       0.015668987289155466 0.17270143379928224
000180 ad 03 64 fd da 47 ec 3f 55 af 8f 19 05 a3 f3 bf
       0.8837714146649113 -1.2272997854697298
000190 7c 1c cd a6 d4 a4 d2 bf 0a 46 99 f6 bd 15 e4 3f
       -0.29131046570950736 0.6276540581113192
0001a0 c5 f0 0f c2 44 e1 d5 3f 6e 66 06 98 d8 bf e5 3f
       0.3418743033541996 0.6796687096823015
0001b0 43 2b b6 5f f6 54 f7 3f a4 91 5a 54 0f 56 e7 bf
       1.458242772935322 -0.7292553565535411
0001c0 f2 87 b9 e6 ea 10 f0 bf 77 57 79 23 d0 34 d1 3f
       -1.0041302693066396 0.2688484522271816
0001d0 1a e6 c3 c5 a1 1c e0 3f 88 f7 9e 60 09 3f ef 3f
       0.5034951078989167 0.9764449011924947
0001e0 30 1f 56 92 e5 e9 03 40 b1 d2 b3 36 47 45 e2 3f
       2.4892074043781562 0.5709568088919551
0001f0 44 27 8e 7d e5 cd e5 3f 7f 4f af 0a ae 3d e4 bf
       0.6813838436366741 -0.6325292786300308
000200 f9 ce 70 b4 2f 2b ea bf 0d ef 0b 84 7b ec 00 40
       -0.8177717708808522 2.115469962705794
000210 33 18 cb 39 11 a1 e9 3f b7 86 16 72 93 a5 f5 3f
       0.8009115341926701 1.3529238182604055
000220 eb e5 52 a2 47 06 00 c0 ff 3c 3b 19 7f 08 f1 3f
       -2.003066318659639 1.0645743356324713
000230 02 3a 27 77 0e 83 97 bf e6 6b f8 b0 c9 68 ba bf
       -0.022960878393684332 -0.10316143580023115
000240 f1 09 ec 74 36 1c fa 3f 9f d8 ae 3c c1 2c f7 3f
       1.6318878714815777 1.448426472704831
000250 e1 67 90 3c a9 11 cb 3f f7 21 1d 39 66 6f da 3f
       0.2114764734004089 0.41304927423018917
000260 12 a1 c1 97 f2 63 01 40 dc ac db 9a a2 8d b4 bf
       2.1738025527921616 -0.0802861812659787
000270 80 e1 85 74 6d 81 ef 3f 3c e4 7a e3 86 9a ff 3f
       0.9845492626036929 1.9752262960376035
000280 71 fd 2b ca 5c 55 f3 3f f4 86 3b 39 44 f8 e7 bf
       1.2083404443108885 -0.7490559690306484
000290 4b 53 b1 72 ad 96 e5 bf c4 6b 64 4d 2d f4 c6 bf
       -0.674643253335128 -0.17932668951911357
0002a0 59 d6 89 a7 7f e7 d0 bf f6 08 7a 9e 97 aa c1 bf
       -0.264129556285615 -0.13801856268043594
0002b0 86 1f 80 28 ed 80 9f 3f 2f e5 1d 32 87 7a e8 bf
       0.030765252682641207 -0.7649570444911314
0002c0 0e 6a 8f 1b 68 6c c2 bf 77 5f e1 4a d5 da d8 bf
       -0.1439333090373371 -0.388356516957621
0002d0 05 5f 9c 51 9e 83 d2 bf 41 6e 9f 9a f5 45 d6 bf
       -0.2892833516102516 -0.3480199823368118
0002e0 66 81 a5 f3 8e 79 fa bf 78 ee 66 0b e8 1c ac bf
       -1.6546773450318937 -0.05490803851304532
0002f0 b1 de 0c 98 50 46 b7 bf 4c c0 15 a8 d1 60 c4 bf
       -0.09091666900791996 -0.1592046805121775
000300 30 72 70 05 cd 18 af bf 4a e8 1f 76 9c 70 b2 bf
       -0.06073609057805063 -0.0720308102026205
000310 d5 64 fa 49 25 67 c9 bf c8 f5 08 a3 65 c4 e6 bf
       -0.19846025573932616 -0.711474245479331
000320 6a 10 f9 2c 0e 6f f7 bf b9 b3 df b9 0e 58 ec 3f
       -1.4646131283525627 0.885749209437214
000330 a9 1d 91 71 a5 82 eb 3f 87 65 8f ee d3 eb ee bf
       0.8596980302908622 -0.9662875804307739
000340 b4 b0 aa a1 84 6d f5 3f 57 d0 fb 44 28 6e fc bf
       1.3392378153903737 -1.77689387270677
000350 35 ee ef c9 e1 12 cc bf 05 ef 15 57 c7 4d b6 3f
       -0.2193262325307487 0.08712430835833736
000360 b2 30 8c 86 8b c8 e3 3f 75 9d c3 23 0d 95 f3 bf
       0.6182305934794583 -1.2238894841228476
000370 a4 cc 78 b9 0e d7 f3 bf ea 1d 9b 29 28 ef d7 bf
       -1.2400042767519972 -0.37397197783545144
000380 75 51 61 b8 1b ac c1 bf b5 7f 11 5a 28 d9 e3 bf
       -0.1380648279470155 -0.6202584990642125
000390 47 ff 54 80 b9 35 ce bf 72 ce b1 ce ce 5f cc bf
       -0.23601454511844563 -0.22167382328517565
0003a0 08 e9 6f 45 60 77 b4 3f 47 94 00 13 8c 41 eb 3f
       0.07994653411143215 0.8517513629091206
0003b0 3e ed 85 d6 cb 5f cb bf 07 20 07 a3 97 c8 ee bf
       -0.2138609693027806 -0.96198636857389
0003c0 9f f0 5c a9 8a 0a e3 bf 23 21 dd 98 de 65 aa 3f
       -0.5950368221160892 0.05155845275891326
0003d0 1b 6b 17 8d 16 37 f6 bf ba 1e a0 20 ee e7 e4 3f
       -1.3884492408166753 0.6533117902008236
0003e0 a7 ef 98 b0 2f 6d fc bf da 2e ff d6 d3 82 ff bf
       -1.7766568086944774 -1.9694403074562872
0003f0 06 6d 30 52 7c d5 f2 bf 88 f4 8e bb c4 57 c9 bf
       -1.177120514918728 -0.19799098165632167
000400 64 cf c2 9c 2c fd e3 bf 78 ce bb ab f0 00 99 3f
       -0.6246550618875344 0.024417648774898798
000410 2e 16 bf 36 c3 be db 3f 5c 03 fa 53 9f 87 f7 bf
       0.433518222297013 -1.4706109314285731
000420 10 93 7d 69 b5 29 e0 bf b7 99 a2 5b 5e 3b e7 bf
       -0.5050913868295499 -0.7259971418141536
000430 11 01 f4 11 85 48 fa bf 45 3e 94 8c 00 61 e6 3f
       -1.642705030564745 0.6993410821614324
000440 ea 0f 1d 33 cb e6 d1 3f 33 2a 26 90 45 5c e2 bf
       0.27971153251223646 -0.5737636390125033
000450 ba d6 75 9b 3d 34 e9 bf 84 cd 99 bc 8a 74 f2 bf
       -0.7876270328840385 -1.1534526221483654
000460 a2 15 bb f5 f7 2c f1 bf 93 c7 1c de b9 f6 96 3f
       -1.0734786604747133 0.022425560170809055
000470 07 31 13 d7 fe 16 00 c0 d6 a0 e9 6e 97 e2 df bf
       -2.0112282564861093 -0.4982050498133622
000480 1f be 27 7e 84 8d e0 bf 54 80 84 03 19 a6 e6 3f
       -0.5172750915498375 0.7077755993559642
000490 ce 18 bb 8e 53 57 c8 3f fa df 06 82 f1 8b 00 c0
       0.19016499013213778 -2.0683317335460716
0004a0 53 80 bd 6a 3a 36 d7 bf 4c fd 88 16 ff 31 c2 3f
       -0.3626848261246824 0.1421507701906911
0004b0 52 0b 68 01 0d 21 db bf 83 ed 05 ac 93 10 f8 bf
       -0.42389226090761156 -1.5040470809607036
0004c0 7a a1 c6 b7 4d 97 f5 bf 42 5b f6 26 db 9e e0 bf
       -1.349439351915946 -0.5193916092856414
0004d0 c8 cf 96 47 ff 7d c2 bf 60 60 3f 2f ee d3 f0 bf
       -0.14447012897073663 -1.0517408223731977
0004e0 d8 cb a7 a2 5c 23 02 c0 9e 55 0c 12 d8 21 ba 3f
       -2.2672665317017895 0.10207891884450368
0004f0 c7 fb ee c6 40 42 b7 3f c2 19 8c a4 f6 fe e7 bf
       0.0908546910932123 -0.7498734678090886
000500 52 e6 19 12 b2 a3 f9 bf 56 54 f3 22 22 da d6 3f
       -1.6024647433354358 0.3570638028443843
000510 4f cb 3d 21 78 5c 95 3f 9b 95 70 d6 0c df df bf
       0.02086055472268394 -0.49798890057930983
000520 32 1c 51 90 9e 8b f5 bf 1c 68 e8 6f ed 01 f0 bf
       -1.346586765039103 -1.0004705783271737
000530 bc d9 8c df 29 95 fa bf 4f 61 23 e9 a9 6a c7 bf
       -1.6614168865613541 -0.18294261821462007
000540 e6 44 01 3b b4 73 c6 3f e6 7b be b0 9c e6 8e bf
       0.17540600663281863 -0.015088295120049677
000550 6d 9c 0e 37 6e 66 c2 bf c7 17 9c aa 51 11 e1 bf
       -0.1437509316285487 -0.533364136907715
000560 90 29 8c aa 6f 4f e8 3f ff 69 65 d1 66 a8 fe bf
       0.7596968012815513 -1.9161136798417144
000570 eb c8 39 6d 46 ba b6 3f c0 37 3a eb c0 4d e0 bf
       0.08877983252185444 -0.5094914049420751
000580 17 9d 9a d0 ec f7 f4 bf 87 47 aa 27 a4 5c f1 3f
       -1.3105285786239784 1.0851174878521037
000590 50 9f 8d 73 62 36 f1 3f 38 2a c8 82 05 5c e7 3f
       1.075777484302268 0.7299830965360519
0005a0 77 fc ad ca c7 40 cd 3f 12 67 47 54 64 de e5 bf
       0.22853944202867968 -0.6833974500725353
0005b0 50 50 de 40 f6 b4 e2 3f 2c 64 96 be 65 a9 b8 bf
       0.5845900790177527 -0.0963347997952872
0005c0 63 75 e6 53 be 32 ef bf e6 ff a6 2f b0 07 e8 bf
       -0.9749442709614126 -0.7509385042867478
0005d0 a4 3b 8e 08 80 90 f4 bf 8c 6c 9c b8 ae 2a ef bf
       -1.2852783521845845 -0.9739602666553693
0005e0 2e 93 9e 22 ab 08 f9 3f a2 c9 ab b3 b1 0a d6 bf
       1.5646163322755444 -0.3444027189827016
0005f0 ee e0 f9 7e d3 d6 f2 bf 76 67 1b e4 bf 3a e6 bf
       -1.177447792053552 -0.6946715789047022
000600 2b 0e b3 bd fd 2e ed 3f 29 f6 f8 e2 fe a5 ec bf
       0.9119862275187577 -0.8952631409699211
000610 7a 36 ac 76 f6 dd f4 bf 73 05 7f 17 19 6a b1 3f
       -1.3041901240971172 0.06802517722737438
000620 86 fa c2 fd 7d e6 e9 bf 27 02 9f a0 e1 7b d9 3f
       -0.8093862491876542 0.398186117989129
000630 c3 20 d6 c6 dc b3 e9 3f 9e 69 af c9 f9 3f f8 bf
       0.8032058604740303 -1.515619075615724
000640 8c 6a 96 f4 79 b9 c5 bf 5c e8 59 14 5a ad da bf
       -0.16972279017212022 -0.41683055865690277
000650 ac 59 ac 11 05 f3 c9 3f b8 dd b6 99 3a d9 f4 bf
       0.20272887576056797 -1.303034401365819
000660 f8 0f ee 75 71 4a e6 bf 00 c3 e8 9e 30 29 ef bf
       -0.6965873053854912 -0.9737780669875917
000670 e5 68 ce 4e 60 c3 f8 bf b2 70 5c 28 6b 38 f9 bf
       -1.5476992681856754 -1.5762740685086496
000680 60 68 f0 e8 c1 60 d9 bf 03 62 6b 46 80 4a f3 bf
       -0.3965306067272021 -1.2056887388954471
000690 e1 15 e7 c6 f0 35 df 3f 67 b9 ba 83 90 f5 df bf
       0.48766726898278817 -0.4993630682391967
0006a0 ae dc f8 29 b0 84 f4 bf 0a 21 82 54 5c 89 f3 bf
       -1.282394565538009 -1.2210353184801215
0006b0 f2 8f fb 2d 74 8d e3 bf 1b 8b f6 40 76 4b 05 c0
       -0.6110173128222398 -2.661846644901187
0006c0 dc 37 a3 4b c9 7b f2 3f 41 00 ae f5 ca e8 e1 bf
       1.1552212671845075 -0.5596670912200424
0006d0 4a 3e fd 34 93 10 f3 bf 38 e7 f6 3c 67 10 d6 bf
       -1.1915466375247825 -0.34475117639123054
0006e0 a8 90 a5 6a 52 53 f6 bf d8 11 4c 97 9d a2 e5 bf
       -1.3953422704590057 -0.6761005358717354
0006f0 9d 62 e8 ab b8 9a ea 3f e8 5c 29 3a f0 a6 cc bf
       0.8313868863652548 -0.22384455528183556
000700 a4 54 f4 3a da 54 f2 bf 6b b6 a1 06 d2 8f 02 c0
       -1.1457159331232925 -2.3202248113728294
000710 74 bb ed a7 a7 c4 e0 bf 8a a4 13 eb 7d 62 b3 3f
       -0.5240057258468895 0.07572161664178814
000720 45 30 6e 5e e7 24 a1 bf 76 30 c0 59 7f b8 bc 3f
       -0.03348467853274476 0.11219020787410891
000730 13 cd ce 62 2a 3d d3 bf ae 89 9a 3e 1f 86 d2 3f
       -0.3006082501335225 0.28943616021765706
000740 4c be 47 0e 5f 53 01 c0 98 d1 62 48 73 1e f2 bf
       -2.1657086482662518 -1.13243416095529
000750 02 a6 07 2d 99 ee e4 bf c3 09 f1 a2 bb 33 ee 3f
       -0.6541257743348867 0.9438150579883814
000760 96 54 1a 3e 84 9e dd 3f 2f 8d d5 09 21 8f 01 c0
       0.4628000837777305 -2.194887234525275
000770 8d 93 8d 6a 62 a8 cf 3f 74 75 d2 2b 5c 69 d3 bf
       0.24732618525299835 -0.3033056667280427
000780 ba f1 6b 45 ab 2f e8 bf d3 f6 99 da a4 bd c6 bf
       -0.7558189731494658 -0.17766247438333113
000790 df 13 b8 a4 d0 80 e9 3f ca 66 e7 91 cc fc 8c 3f
       0.7969744889420517 0.014154051020273246
0007a0 f3 94 0c 26 e0 80 e3 bf 9d 19 44 a6 e6 3b bf bf
       -0.609481882395498 -0.12200776633480932
0007b0 c5 5a 0c 09 69 7e e9 3f 10 0b 53 09 46 5c a2 bf
       0.796680944130309 -0.035860241544943716
0007c0 58 d3 ef 55 3b 81 fa 3f e9 f9 94 38 80 55 d1 3f
       1.6565507275492646 0.2708435585554115
0007d0 92 d7 61 71 1e b1 e0 bf 7f 47 69 ec 09 c6 e6 3f
       -0.5216209616180427 0.7116746537596866
0007e0 82 81 fb 8b c0 a7 bd 3f 17 30 e8 aa f7 ee fc 3f
       0.11584094445743712 1.808341662984281
0007f0 10 01 7e 97 1f 13 e9 3f 69 ee ea 54 54 30 d3 3f
       0.7835844000656227 0.29982479374641585

output_gate_weights f8 [108, 81]
000000 50 45 40 c0 27 31 f3 bf 58 4c cc c9 af e8 f1 bf
       -1.1995008001143397 -1.1193082697616514
000010 d6 1f 8a 19 a2 aa f0 bf fd de eb 2a c9 ad e4 3f
       -1.0416584966314892 0.6462140882785828
000020 48 f0 80 8f b5 d3 fd bf c9 52 82 04 37 69 02 40
       -1.8641868215190858 2.3013744690200366
000030 80 24 4b 3b fe 1f a0 3f f3 14 30 b8 2c 65 e2 3f
       0.0314940879230301 0.5748504254740098
000040 6c 80 dd 43 7e f6 0a 40 c5 85 2f a6 6b c6 ea bf
       3.3703580190631808 -0.8367212529957945
000050 bb 78 1c a7 3e d0 ee 3f 41 47 08 50 0a 3b d0 3f
       0.9629205001727067 0.2536035329404634
000060 55 43 04 f1 43 35 db bf 6d 0e 22 23 9d b1 e8 3f
       -0.42512606179029905 0.7716813741867107
000070 16 fe 3f f0 da 9a f3 bf 35 cc 8a 8c db 75 d8 3f
       -1.225306452251862 0.3821934578401767
000080 f7 1d fe 6c 48 63 d8 3f 2b 97 6f 46 3a 3a 03 40
       0.3810597481137558 2.403431463509056
000090 81 f2 f6 67 79 8c 00 40 d3 77 d9 1a 03 c7 f1 bf
       2.0685909387814836 -1.1110869454200738
0000a0 0b 98 4c 21 2d e5 dc 3f ff 83 76 d7 d4 08 f9 bf
       0.4514878106296016 -1.5646561066171214
0000b0 2c de 10 6e c6 48 f6 3f 95 9f f3 dc aa 50 9c 3f
       1.392767362542041 0.027651471839731896
0000c0 dd ca 50 0f 77 25 d0 3f ca d8 65 a8 94 ab df bf
       0.25228668685592287 -0.4948474545011662
0000d0 ef c1 a3 e0 4a 55 a5 3f ea a4 9e f4 ac 5e e9 3f
       0.04166635505851334 0.7928070810059158
0000e0 12 df 7e 57 2e 94 e0 3f b2 97 2f a8 86 53 d3 3f
       0.518088503732516 0.30197302269368287
0000f0 1e b4 76 32 21 59 07 40 8c cb ce 8b 76 8a cc bf
       2.9185203497386416 -0.22297555758049403
000100 51 34 00 e1 62 1d e0 bf 4a d1 a4 f6 a3 ea ef 3f
       -0.5035871882006494 0.9973926369916992
000110 01 a9 8c 63 a2 35 9f 3f 8c cf 3a c6 be f3 e9 3f
       0.03047803623773238 0.8110040542292025
000120 b6 0f 51 80 7f 40 f4 3f 32 eb 92 7a 51 be fb bf
       1.26574659465494 -1.7339644229929942
000130 e3 38 53 c3 12 67 f0 3f 39 52 67 75 83 c9 cf 3f
       1.0251643781553461 0.2483372042903669
000140 e5 23 ed fe cb b7 cb bf f6 02 a4 6b ce 32 e4 bf
       -0.21654653499197632 -0.631201944575962
000150 50 a6 59 15 7a e7 f2 bf ef d7 a3 88 0f ed f7 3f
       -1.181512912177272 1.4953761422634633
000160 33 b0 db 8b b7 4a f1 3f 60 00 f5 3a fa b2 e9 bf
       1.080741449662139 -0.8030978347305897
000170 67 a9 73 09 f7 35 ef bf 2a 4f 50 1a 54 7a dd bf
       -0.9753375229459323 -0.46059134072969476
000180 cc 2d 90 30 7d ef be 3f 0c 45 b0 e3 78 61 c8 bf
       0.12084181247353526 -0.19047461621861606
000190 00 23 a1 f6 ea a1 b4 bf 1d 08 00 7a 4b 51 c6 3f
       -0.08059566994883127 0.174355921335576
0001a0 9d 22 36 aa f8 f1 d7 3f 20 4e df 9d 75 22 f3 3f
       0.3741437589856476 1.1959129492651144
0001b0 8a dc fc 23 5b f3 f3 3f b1 1e 0b bb e6 d8 e5 bf
       1.2469130903025722 -0.6827272084419375
0001c0 00 26 1c 7a 5f 3e fc bf bc 79 52 6c 1c 82 e0 3f
       -1.7652277727050887 0.5158826938311942
0001d0 61 2c e4 90 11 d3 f2 bf f7 05 88 b8 2e 2f e3 3f
       -1.1765304241005412 0.5995095829131846
0001e0 de 3a 60 db 35 5c ea 3f 3e cb 04 33 aa 15 f3 3f
       0.8237561497388375 1.192789267818355
0001f0 e2 07 fc 71 47 e1 e0 bf 7c aa c0 b1 19 cb f3 bf
       -0.5274998880633996 -1.2370850509129516
000200 52 2b 78 99 e3 f6 f5 bf 96 91 be 75 6e 6a ed 3f
       -1.3727756495379322 0.9192421245284546
000210 59 e5 7e 2c ac ec e9 3f 3f c7 ea c5 2e 0c fb 3f
       0.8101406926208866 1.6904742938172175
000220 c6 9c fc 8c c0 67 02 c0 48 7e 7f c9 3d 73 f5 3f
       -2.300660230120772 1.3406350966469223
000230 9e ac e2 f3 58 55 e4 bf 9f cb 95 af 24 a3 c1 bf
       -0.6354183925044656 -0.13779123853200034
000240 18 1f bb 59 67 71 02 40 e1 46 0f 1a 81 ca e4 3f
       2.305372906706804 0.649719763658336
000250 b9 ae ca a4 29 32 e8 bf 5f 41 88 c0 98 00 d2 3f
       -0.7561233728970002 0.28128641893365186
000260 d4 0b 93 69 c1 bd fb 3f 27 c3 6c 64 b8 8e f2 bf
       1.7338270305633516 -1.1598438189359486
000270 c4 2e 2d e8 e2 a1 f8 3f df b5 cd 5d 00 79 04 40
       1.5395230359453516 2.559082730140957
000280 fa da 4f 08 f3 a2 f6 3f 6e 0b ef ab 3d 19 d3 bf
       1.4147825550732578 -0.2984155825653748
000290 c3 97 c6 65 e2 cd cc 3f 09 7a d6 08 19 7a f1 bf
       0.22503309220809173 -1.0923090310312793
0002a0 9c 73 c2 76 13 08 bb bf 19 44 72 78 fb 73 dd bf
       -0.10559198045161938 -0.46020399820651076
0002b0 82 eb 40 ee e0 e2 e4 3f 4b ad 4a 39 de 77 e0 bf
       0.6526951459303378 -0.5146323317507407
0002c0 2c 29 ed fc a4 36 f2 bf ba 32 dd 95 39 0e dd bf
       -1.13834093856219 -0.4539932216182866
0002d0 69 19 4c 31 64 86 ec 3f cd 76 fd 29 1c 6c d5 3f
       0.8914051974141276 0.3347235117015373
0002e0 6b ba 42 15 27 91 f6 bf f7 f4 09 f0 2b 9e e4 bf
       -1.4104376631254592 -0.6443080604800845
0002f0 88 43 a0 76 35 d6 b0 3f c3 38 f8 96 43 f6 ee bf
       0.06576856752532312 -0.9675615261674227
000300 73 36 f8 77 80 2c f7 bf 0c d4 d8 19 32 3f ee 3f
       -1.4483647047340156 0.9452143196891725
000310 48 f4 9c 46 e1 4e 8c 3f f5 de d0 bd 64 50 e1 bf
       0.013822326629105444 -0.5410636622754895
000320 1e 9e 85 e5 29 6c f8 bf db 94 96 97 6e b0 e2 3f
       -1.5264071431828437 0.5840371094424442
000330 60 b7 2e e5 7c 37 f8 bf 69 bc 3e 87 1a 03 fc bf
       -1.5135468437615245 -1.7507577212343455
000340 d9 31 81 c3 cf 42 b6 bf c4 0e 0f 34 dc 14 01 c0
       -0.08695696375907093 -2.135185629567646
000350 4a 5d 3b 1e 7e dc d2 3f 95 05 5f d0 ca d3 fa bf
       0.2947078032716105 -1.6767070903300454
000360 0d 8f 43 32 2a 92 f4 bf 2b 41 38 c6 8c f1 f0 bf
       -1.2856847728189138 -1.0589721434553876
000370 c8 62 42 0f 3d c9 e2 bf 34 4c d9 1b d2 fb e4 bf
       -0.5870652483018484 -0.6557398361131903
000380 95 04 51 0f 69 20 f0 bf ac c7 49 2f ef 5b e4 bf
       -1.0079126928615427 -0.6362224505994525
000390 9a c8 5f 69 d8 c3 f1 bf 2b b5 35 ff 73 87 fe bf
       -1.11031380807666 -1.9080696076519625
0003a0 0c 19 f1 2a f2 59 9f 3f 77 99 2d 94 8a 9a e3 3f
       0.030616554137190596 0.6126149076560939
0003b0 d0 90 d2 75 82 c8 f6 3f 77 dc cf 66 b0 72 f7 bf
       1.4239525415842316 -1.4655002609340764
0003c0 c0 e7 49 6e bc 1b c9 bf 99 9f ac 3d bf 52 fe bf
       -0.19615893731298506 -1.8952019127991433
0003d0 18 19 0f b2 60 43 fb bf 7c 05 e2 09 15 03 d3 bf
       -1.7039496379307533 -0.29706312146307545
0003e0 16 c5 1b 34 de 3f ee bf ad fb 22 83 8b 96 e1 bf
       -0.9452963845962212 -0.5496270715010404
0003f0 ae bd 42 34 7d 06 ee bf 2f 23 d7 a2 b2 13 d1 bf
       -0.9382921238629274 -0.2668272581327526
000400 3b bd db 36 8c c5 f1 bf ef 3d e7 0a e2 58 e8 bf
       -1.110729421892599 -0.7608499730067119
000410 a4 2f 0b 55 c2 8d e5 3f 47 c3 90 8c 08 a9 db bf
       0.6735545788774187 -0.43219197966668726
000420 2b 48 61 de ab 6a db 3f fe 3d aa 86 0d 86 d7 3f
       0.42838570324704744 0.3675569357955907
000430 8b 49 32 02 ea 7c da bf 47 e5 bb ce 5f 7e e1 3f
       -0.41387415136809896 0.5466765439770506
000440 e7 bf 68 11 b1 4e d1 3f 65 91 e4 64 e6 19 f0 bf
       0.27042795848956164 -1.0063232365729047
000450 98 42 61 90 89 5f ea bf 15 1d 41 96 42 88 f4 bf
       -0.8241622753067359 -1.2832666272459552
000460 be 09 9c 30 bf 8e d8 bf da e2 8a 18 af 27 e9 bf
       -0.3837125754072551 -0.7860942344041988
000470 6a 24 09 b1 53 16 f4 bf 3c 94 8c c9 0d d6 d6 3f
       -1.2554509082276817 0.3568148105862894
000480 ba 00 72 3c 95 91 d7 bf 3b 01 55 72 e1 53 f1 bf
       -0.3682606783186305 -1.0829786745162682
000490 6a 0e 76 94 7b 0e e8 bf 31 e5 07 32 31 23 06 c0
       -0.7517679118759137 -2.7671836765918205
0004a0 47 9f 06 15 a5 4b be bf a8 2b ad 92 f4 22 e4 bf
       -0.11834174884154179 -0.6292670120977748
0004b0 09 e4 c5 a7 e4 3d bc 3f c7 72 ca 00 06 d8 cc bf
       0.11031941505451938 -0.2253425124989887
0004c0 94 e3 e9 b1 e5 8b d0 bf 35 5c 27 7d d2 98 f0 bf
       -0.2585386502683431 -1.0373101128404987
0004d0 51 8f 4b 32 9b bb e2 bf 67 e4 92 66 aa a6 06 c0
       -0.5854011518790491 -2.8313797010019246
0004e0 a0 f0 56 bd d2 e3 dc 3f 66 b5 05 4e 0f 52 f3 bf
       0.4514052247066136 -1.2075341270204603
0004f0 b9 40 5d 21 24 12 eb bf ad a3 7d 84 8d ae f1 bf
       -0.8459644939084888 -1.105115430395226
000500 0d 39 69 99 84 d5 00 c0 97 30 57 72 31 8a ea bf
       -2.1042568192707507 -0.8293692811216883
000510 61 86 b9 1a 84 a5 f1 bf 06 de 39 eb 2a b3 d2 3f
       -1.1029091876920563 0.29218552562039724
000520 f7 77 b1 97 d2 0a fd bf 7c 4e 5f ff 71 62 e5 bf
       -1.8151422429577886 -0.6682672488918366
000530 35 49 b7 57 ec d7 f4 bf 52 6b 8f 86 d8 e2 fb 3f
       -1.3027156282810897 1.742882276178268
000540 ef ff 88 f5 c8 5e d5 3f 2d 28 d8 01 0b 64 e4 bf
       0.33391021707575325 -0.6372122798941341
000550 87 c1 5e b7 c1 34 d8 3f 56 c4 42 f0 7d d9 c2 3f
       0.37822001368751795 0.14726232749447615
000560 e7 e0 14 fd f1 13 d8 3f 75 d8 e5 8e 87 4a f0 bf
       0.3762173625468805 -1.01819568461863
000570 b4 fc 5e 8f 96 4e b1 3f 28 94 00 42 77 f6 e0 3f
       0.06760540962476363 0.5300861634356169
000580 f3 93 a0 99 3e ba f5 bf 40 92 a4 7c 19 27 96 bf
       -1.3579698563637492 -0.021633527977558353
000590 13 e6 19 8d f3 1d e8 3f 4f b4 a3 d6 07 18 e4 3f
       0.7536561733133474 0.6279334251572751
0005a0 39 24 1c 87 c3 30 d3 3f ff 5f f0 de 09 17 f6 bf
       0.29985130495385054 -1.3806246479562103
0005b0 ca f2 fa 7e 9d 23 ef 3f ef 0a e2 f9 0a 59 02 c0
       0.9730975608905166 -2.2934779665096054
0005c0 8d 1c 7c 95 51 5d d0 bf 19 1e 73 d9 ae 53 fe bf
       -0.25569572065473595 -1.8954304212692306
0005d0 4f 11 e1 4a df 4c f0 bf c6 31 56 9d 1e d9 f1 bf
       -1.0187676358192055 -1.115507711979363
0005e0 1b 0b 4a d8 b1 2d b4 bf 47 44 d1 77 3d 1c f9 bf
       -0.07882224588869884 -1.5693945579880777
0005f0 4f 9b b6 78 9e da f7 bf 10 6e 46 5a a3 50 b8 bf
       -1.4908737864841048 -0.09498043970091197
000600 f5 5b 15 cc 01 ad e2 3f 8f 97 62 1a a0 9f ee bf
       0.5836190210346773 -0.9569855227789378
000610 12 30 fd fc 90 f2 f5 bf 23 0c dd 66 41 6e bd bf
       -1.3717203028090847 -0.1149636150485525
000620 5d ea e0 37 01 af fe bf 6a 17 9f c5 2b ed e9 3f
       -1.9177257712132338 0.8102015361589399
000630 1d 57 87 37 3e f5 ce 3f 27 1e 2e 5a af 6a b7 bf
       0.2418592234741305 -0.0914716334501625
000640 17 33 cf b1 b0 63 ac 3f a9 cb 7b 87 26 26 d8 bf
       0.0554480759670694 -0.377328522022419
000650 8d 18 58 ca dc 0c d8 bf 37 fe 60 d8 35 f7 fe bf
       -0.37578506241005344 -1.9353540851879083
000660 8d d3 d3 9b dc 0c ee bf a5 37 b5 06 71 d6 dd bf
       -0.9390700381760425 -0.46621347098413884
000670 97 02 ea e4 ec 9b e0 bf d7 d2 07 2a 10 f1 e5 bf
       -0.5190338583925777 -0.6856766529950516
000680 56 94 f1 73 b5 81 ee bf c6 a7 86 49 a0 5f ff bf
       -0.9533335938000487 -1.9608462211713102
000690 46 b2 0d 3a c8 e7 c7 3f f9 29 2e 90 01 3a d2 3f
       0.1867609294380534 0.28479041175947334
0006a0 3d e5 9e 8d b8 3f f3 bf 83 bd a9 f1 c1 e2 d1 3f
       -1.2030568630273841 0.2794651851645186
0006b0 5f 27 68 1f 35 4f ac 3f 45 4d 75 45 51 99 fb bf
       0.055291805347293936 -1.7249310219966258
0006c0 51 af 72 f4 09 8c ed 3f 4d e1 47 91 fa fc a6 bf
       0.9233445906042822 -0.044898824915380865
0006d0 0e 1f b3 e7 7a 2f fd bf 99 c7 b0 16 c3 b9 d2 bf
       -1.8240918207902186 -0.29258801666139217
0006e0 62 7e 86 cf d2 2c f6 bf 13 48 a7 a1 e2 e9 f0 bf
       -1.3859432321986778 -1.0571008982265127
0006f0 ff c8 ac 9c 78 a1 d5 bf 47 ec 01 a3 11 16 e7 3f
       -0.3379804163006525 0.7214439567318401
000700 ae 3c d9 40 0c 88 ee bf 06 da 5f c1 37 0c f9 bf
       -0.9541074053357954 -1.565482859963255
000710 06 24 da 99 f4 5f 03 c0 7f 9a 8a 3d 83 68 eb bf
       -2.421853258103968 -0.8565078927975519
000720 30 8c cb c5 49 de c9 3f 25 69 51 2c 80 f9 e2 3f
       0.20209619672741175 0.5929566255174775
000730 3d 5f ba 92 aa 4b f6 bf 6c 4c 48 b6 fe 49 e2 3f
       -1.3934732181132425 0.5715325889781417
000740 c7 e1 8c 85 8b 5f 01 c0 1f 2b 94 74 41 a2 dc bf
       -2.1716528352373845 -0.4474033010925939
000750 8d 60 ff 39 8d b3 c5 3f 7c 7d d2 1e 8a 99 d4 3f
       0.16954198200142337 0.32187130937560204
000760 c6 10 1a a3 07 e0 ea bf 1f 0f b5 07 b1 9c d4 bf
       -0.8398473916609184 -0.32206369164144805
000770 42 9b fd 34 11 f4 c0 bf c6 ab 2e 27 80 db f6 bf
       -0.1324483402961168 -1.428589013152974
000780 0e a8 e8 b3 1e 4d dc bf 1e 8d 7c a5 9f aa cb 3f
       -0.4422070271417632 0.21614451961895836
000790 33 fc be 8d 1b 4b d5 3f 10 93 bd 13 e4 c2 d3 3f
       0.3327092060316687 0.30877019813333195
0007a0 ae 41 dc 7f fd 83 ed bf 28 fe f0 82 bf a0 d9 bf
       -0.9223620888970367 -0.4004362848972698
0007b0 bc c6 57 b0 88 e2 03 40 0e c3 83 f0 db bc 05 c0
       2.4856122757708743 -2.717216376324706
0007c0 ad 7b 63 5f da d4 e3 3f 0f c6 98 85 c3 19 e4 3f
       0.6197330344256123 0.6281449899017292
0007d0 75 d5 79 17 02 61 f6 bf fc 50 76 d7 2b 77 f2 3f
       -1.398683635428225 1.154094545029749
0007e0 fd 32 8c 49 ed 58 e1 bf 54 38 73 65 6f 14 09 40
       -0.5421053348996733 3.1349780965602267
0007f0 96 20 6f b4 66 e2 ea 3f c1 49 43 57 ac 00 ea 3f
       0.840136864099821 0.8125821785309243
