balderdash_lstm/lstm_model/models/lstm_model_9.npz (npz, 903256 bytes, 19 tensors)

forget_gate_weights f8 [108, 81]
0.2600958805024407 -0.6543784554294222 -0.927067973480901 0.9362756971599204 -2.5505668620451982 -0.15101503663248916 -0.5716033188205503 -1.5818016812303064
0.4832080340970839 -0.08837643573451026 1.5074807635838197 0.5306354217577864 -0.5770906667433106 -0.6226968679519486 -0.0458730766536845 -0.26876327857796856
-0.7934020833403018 0.30910333585768424 0.18449622010779165 -0.8658117187169438 -0.3334708533903213 1.2066583871997043 1.2470232410599165 -0.23000188970650903
-0.1932222274345139 -0.7557090029758695 -0.7138732951117164 0.5181426831386647 -2.2262492816083155 0.1224528802105169 1.1569602830970038 1.345879422206138
-1.7363018778257844 -1.6791822882857281 0.10060038050373278 -0.29234251055457483 2.174526313688479 -0.7787026535581927 0.3385298506495364 -0.9304236668325494
-0.564120481586644 0.345303883537797 -0.6400790720882316 1.4660031019642505 1.9691854342540183 -0.18464007444558544 0.21609256853483952 -0.3983774240990585
-0.06469850244456468 -0.8462199239972262 1.7424161929744144 1.4017284403720598 -0.2942475164482711 1.5631442758000778 0.28859036425006424 -0.6167737634330499
-0.7189960064401745 -0.14855157611853684 -0.10682622993424462 0.696948372629881 0.7103508670017994 -0.19033571879583167 -0.8709440820434624 -0.549617146146484
0.5050555576781237 0.5165833457475565 -0.19104806379320405 0.5799820190203385 -0.6282487989256482 0.5396162274823465 0.2504506540962475 0.6760112959470254
1.2882130140329302 -0.5895588087342832 -0.5807466857673217 1.3760130210903994 0.6969329083413165 -0.7979041190568349 0.714223212694825 0.3257784384165214
0.9994000220151885 -0.9330746051877339 -0.4321074640576142 -0.5521707177701501 0.26684633701551513 -0.45065443841268443 0.9727273009222096 -1.185597709126402
-1.3772513721114126 -0.8394816501106177 -0.13570990621712145 -1.1367879474163398 0.11591738385008653 -0.40153730594502085 -0.29757997231342903 -0.7710235379363898
-0.8874684479476629 -0.2973529236239622 -1.2049979120841616 -1.9424536906216177 -0.749346775334024 -0.3692227862849052 -0.09156322719385032 -2.1565776779943735
-2.665839554982796 -1.200867999845613 0.14033325768679245 -0.15201896055667263 -0.8401878202038542 -0.6304939103922287 -0.1669313400972033 -1.2373879051350798
0.5783167994492625 0.5042018122165988 -0.2606260864348801 -0.699717602773133 -0.8078632053270884 -1.3432436827709189 0.7576658496497655 -1.206805005390694
-0.11432515008808647 -1.0468010068371623 -0.9865543543154476 -1.7729241045525366 0.3636014878151349 0.16657268980668402 -0.875664703921365 -0.3473883191551051
-0.7129452039104549 -1.5716623999378265 -0.02073967522827123 1.0371518182533186 0.3945907109232136 -1.7795131590510016 -0.0018406608461177545 -1.2302410722642165
-0.395610923596656 -1.595480649593637 -0.9550070911205031 -0.258038531370821 0.1176021699108387 -0.8383695581219325 -1.2897914356376674 0.43321896498645196
-1.6832769273425519 -0.9443821446799385 -0.4523352188182003 -2.3985148034301362 1.3946383381838996 -1.4104078956422312 -1.7673695370557256 0.37728480955807037
0.23708307139455612 1.0954923786320976 -0.7268432233974357 -1.230807386255104 0.1295847894254576 -1.1117326951898705 0.1806636972726796 -1.820791498784712
-1.4368033767114805 -1.5990945645292134 -0.9106433794814955 -0.6969734851503855 -1.0263399694964697 0.10578733287651157 -1.351786103080046 1.2994222172101486
-0.10189705206644957 -1.657921729290716 0.21946367341657333 -0.19430474534631398 0.36243687765322724 0.47469853083320157 0.2961870649948105 -0.44357797389736503
-0.2555935044950841 -0.11620852179326624 0.13770363882405603 -0.005389861475551438 -0.9090791388751995 -1.1692576764545723 0.5914675230958254 0.014292578367510644
-0.3992986003986174 -2.387835292941121 -1.2635741958954716 -0.35255181224662324 0.4846883812142922 -0.2925077281602469 -1.0261984699183007 0.31081832255677566
-0.2654547449660052 1.2106086932000957 -0.3421702700926124 -0.8268721637794993 -0.09888975869419642 0.3950139347594829 -0.2048653698200636 -0.16462782577822596
0.35312811290785195 -0.5268592911972647 -0.16542848719088277 -0.637224100775653 -1.8671002976469169 0.30514996724443694 0.2934111757609963 0.38469553146521146
-1.1050237554596054 -0.16385192742362012 -0.3854236076199754 -0.8062167392873838 0.2608323691008826 1.4582627172026659 -0.4251678154858839 0.9261648562048549
-0.29738823774303197 -0.587660121351298 -1.1099445504900276 -0.08471548591469444 -0.26919979064008526 -0.007196825155911501 -0.7981595247774838 -0.11895469317096274
-1.1153460248789102 -2.355171181519974 -1.2410560328508005 0.3343447418594034 0.09238007699927314 0.6133576266617735 -1.285525702730405 -0.23071665911260553
-0.29293502359723445 0.6033698188093015 1.0951263811876248 0.25270966232716424 -0.45661934327802073 1.106386295962685 -1.4110343452599061 0.46651729910293815
-0.19187604955933868 0.01580250028448022 -0.49224671656897134 1.2800858849090846 -0.8967327759178452 -1.3090677970290403 0.7841276885530533 -1.298806535748761
1.2218316338522281 0.40831755754645166 -1.2692851951269541 0.9033805818159559 -1.1466225279263331 0.9504686173642357 1.5068289529680015 0.8056611892615129
00000000: 8444 2531 69a5 d03f f5d7 2816 abf0 e4bf
00000010: 759f 6874 8aaa edbf 3aed 6a73 f8f5 ed3f
00000020: b9f6 5599 8f67 04c0 6038 c5f1 7554 c3bf
00000030: 82d1 130b 934a e2bf 9045 9a47 0f4f f9bf
00000040: a421 e763 e1ec de3f 107e 378d d69f b6bf
00000050: d910 2f26 a41e f83f 4290 d122 f7fa e03f
00000060: c9a8 8fd8 8677 e2bf a59b 65fb 21ed e3bf
00000070: f72b fd07 ad7c a7bf 50eb f6e4 6a33 d1bf
00000080: adcb 10c4 8c63 e9bf f0f7 a55b 59c8 d33f
00000090: 5c9e cc77 929d c73f 1a40 0cc7 bab4 ebbf
000000a0: d1c2 5e22 9657 d5bf 2878 6706 794e f33f
000000b0: ac44 5ba4 cef3 f33f 4061 27b1 b370 cdbf
000000c0: 7083 d885 81bb c8bf 3e5f a2a5 c42e e8bf
000000d0: 34c3 ffce 0cd8 e6bf 8fc0 d7f6 9f94 e03f
000000e0: 7a02 8ac8 5bcf 01c0 fe1f ce6b 1259 bf3f
000000f0: b2c2 2ac9 e882 f23f 7ec1 6bdc b888 f53f
00000100: 0fec 537a e4c7 fbbf b65a 433f eedd fabf
00000110: 518b 3a50 f2c0 b93f eafe 835c bdb5 d2bf
00000120: eaaa 4c0d 6e65 0140 4ae8 cad3 21eb e8bf
00000130: 079c 501b 79aa d53f e00b 8fda 07c6 edbf
00000140: 9563 6d65 460d e2bf 1f81 be75 7519 d63f
00000150: a922 2f1b 877b e4bf 0e56 2cab bf74 f73f
00000160: cd16 fe95 c881 ff3f 7a2c a334 49a2 c7bf
00000170: e504 62d9 eba8 cb3f 6817 fe05 047f d9bf
00000180: 2a7e 19c0 1490 b0bf 8b55 59ce 3b14 ebbf
00000190: f388 4dcd efe0 fb3f 5b56 14cd 7a6d f63f
000001a0: 5ec5 0489 f3d4 d2bf e2da 7792 a302 f93f
000001b0: a443 19b8 4378 d23f ac39 df54 9cbc e3bf
000001c0: 59af b3e9 0302 e7bf 3364 99f0 bc03 c3bf
000001d0: b02c ecbb f658 bbbf ab43 6eac 664d e63f
000001e0: b9a7 cebd 31bb e63f 588f bebb eb5c c8bf
000001f0: 68af a01f c6de ebbf daa3 80b2 7696 e1bf
00000200: a87f dc45 6a29 e03f c79b f4cb d987 e03f
00000210: 045c fa50 4374 c8bf a1bb 7e73 368f e23f
00000220: ce61 a439 9d1a e4bf b1ae 2d40 8944 e13f
00000230: 75bb 262e 6207 d03f ab35 fa70 e2a1 e53f
00000240: 30d9 d83f 859c f43f 8fa3 526f aadd e2bf
00000250: 7131 d412 7a95 e2bf 3941 c73a 2604 f63f
00000260: baa0 1a3e 464d e63f 632b 1638 6e88 e9bf
00000270: b92f 92a3 eada e63f 0f6b afce 8dd9 d43f
00000280: 49a9 45c1 15fb ef3f 3e4d 4046 bfdb edbf
00000290: 6509 9f10 a6a7 dbbf 6736 d4ec 61ab e1bf
000002a0: 7f7f a2a8 0214 d13f 07e7 b1b6 85d7 dcbf
000002b0: 4764 2c01 9520 ef3f 1291 ae4d 35f8 f2bf
000002c0: 2e6f 19bc 3809 f6bf a626 1a9f 08dd eabf
000002d0: c90e 7934 f15e c1bf 0b3e 0a8f 4830 f2bf
000002e0: 478b acfc c2ac bd3f 9319 4a87 c9b2 d9bf
000002f0: 06f8 41de 8c0b d3bf 9d41 fc8d 39ac e8bf
00000300: ce58 053b 2466 ecbf 0f6f 958e d407 d3bf
00000310: 6865 02e4 ab47 f3bf fa6d 3352 4a14 ffbf
00000320: b386 ad16 a6fa e7bf cd06 029c 58a1 d7bf
00000330: 8655 500a b070 b7bf d727 32cc ab40 01c0
00000340: 4046 48b0 a353 05c0 c065 225d c136 f3bf
00000350: 3228 27b0 70f6 c13f c83d fb77 5b75 c3bf
00000360: 16bd 4891 d1e2 eabf e0c6 ae90 012d e4bf
00000370: 738d 3293 015e c5bf 8056 9042 57cc f3bf
00000380: 4995 8b3b 9281 e23f 36bc c1d6 6b22 e03f
00000390: d339 6e09 19ae d0bf 7513 8b2b 1664 e6bf
000003a0: c4b0 d0ef 03da e9bf 83f4 8016 ed7d f5bf
000003b0: 6456 b173 cc3e e83f 8bd5 ecc3 124f f3bf
000003c0: 6416 bdbc 6944 bdbf 5891 9c69 b2bf f0bf
000003d0: 1c5c f06f da91 efbf de7d 75aa e55d fcbf
000003e0: 3e59 bc2c 3f45 d73f db2f 90ff 4052 c53f
000003f0: 3652 33fc 7105 ecbf 4926 7237 9c3b d6bf
00000400: a655 d475 72d0 e6bf 975f 0179 8725 f9bf
00000410: db20 570b c83c 95bf b628 4681 2c98 f03f
00000420: 2f1e ae65 f940 d93f a9cf 4eca e278 fcbf
00000430: 864d c688 4a28 5ebf ed21 3943 11af f3bf
00000440: 776e b27a b051 d9bf f47c b6b7 1687 f9bf
00000450: def0 f907 6b8f eebf 6e1d 560b b483 d0bf
00000460: efa7 b401 2d1b be3f bd0f 4365 ecd3 eabf
00000470: 4098 2b58 fca2 f4bf 04ec a709 dcb9 db3f
00000480: 16c3 90c9 b3ee fabf 2274 4ae7 6038 eebf
00000490: 9bcd e96a 0ff3 dcbf 6aa2 7d87 2830 03c0
000004a0: 52f6 434a 7050 f63f 66db 9cde 0791 f6bf
000004b0: b49d 9947 2547 fcbf 8916 952f 6f25 d83f
000004c0: bd94 09f3 bc58 ce3f addf 3304 2387 f13f
000004d0: 6bf5 39b8 4c42 e7bf 2d41 fa15 63b1 f3bf
000004e0: f818 5200 3c96 c03f 3ac0 fb38 a8c9 f1bf
000004f0: 4028 aeef fc1f c73f b4d7 4144 f621 fdbf
00000500: 7e21 9c89 25fd f6bf 4fd4 9d2e e495 f9bf
00000510: 6124 a695 fd23 edbf 30cd 9c56 9b4d e6bf
00000520: 230a b975 e36b f0bf 8222 09ef e014 bb3f
00000530: 46a8 fe76 eaa0 f5bf 79d0 69f3 6eca f43f
00000540: 6528 2fda ec15 babf 2d1a 6aef d886 fabf
00000550: 7ffa fdb9 6217 cc3f d629 5c57 fade c8bf
00000560: 41a3 1872 2a32 d73f 82d2 58f2 7561 de3f
00000570: f6a8 6997 baf4 d23f 335e c7de 9463 dcbf
00000580: 3017 b8db a45b d0bf 605b 9e78 d7bf bdbf
00000590: e10e a5d8 45a0 c13f 0c88 47ec ad13 76bf
000005a0: 003c 5e22 2d17 edbf 6882 8f89 47b5 f2bf
000005b0: 5bf7 8a4c 4ded e23f 46d2 4f65 6d45 8d3f
000005c0: 983d 83b7 1b8e d9bf 6455 db63 491a 03c0
000005d0: 7c0c 7793 9937 f4bf 76aa ef79 3590 d6bf
000005e0: 9d42 846a 2205 df3f 19a2 9155 72b8 d2bf
000005f0: c811 3816 4f6b f0bf 6640 9888 72e4 d33f
00000600: dc9b 0ce6 35fd d0bf 6ac3 9838 a75e f33f
00000610: 3d85 ed21 1ee6 d5bf 8afb ac9c bc75 eabf
00000620: 543b 80d7 d650 b9bf 8266 d086 e847 d93f
00000630: 2ae5 ba47 0739 cabf 0b52 dd4b 8612 c5bf
00000640: e231 0fa8 a699 d63f da26 2904 08dc e0bf
00000650: 64e2 27bb c22c c5bf f4bd 21cc 2364 e4bf
00000660: 0ded cb8f a4df fdbf 552e 6cba 9387 d33f
00000670: 2829 0bab 3fc7 d23f f5dd a301 da9e d83f
00000680: a108 b063 2dae f1bf c9e3 d596 19f9 c4bf
00000690: 6662 75c7 c7aa d8bf 2c44 170c 87cc e9bf
000006a0: 0ab2 c13f 7ab1 d03f e5c8 7549 0b55 f73f
000006b0: 6ab6 b411 f335 dbbf 3357 037b 24a3 ed3f
000006c0: bd91 d4ac 6808 d3bf 3cc0 4b99 1cce e2bf
000006d0: 41a6 8b37 55c2 f1bf 86e6 7701 eaaf b5bf
000006e0: dee8 38c2 913a d1bf a6ed df0a 6b7a 7dbf
000006f0: 5020 fdd7 858a e9bf f8ff df94 d073 bebf
00000700: a041 c912 75d8 f1bf 37e1 08fd 63d7 02c0
00000710: 2390 1992 5ddb f3bf 770b f87c e765 d53f
00000720: 048b 8381 38a6 b73f be76 682c a0a0 e33f
00000730: e74f 3666 8391 f4bf 80f8 c39c 1f88 cdbf
00000740: c2ff 8c8a 72bf d2bf 9cbd e538 ce4e e33f
00000750: bb00 833d a385 f13f 1304 c525 652c d03f
00000760: fb67 8656 4039 ddbf db6f de1d c2b3 f13f
00000770: fdc8 e6bf 9893 f6bf 6a95 aa5f 6bdb dd3f
00000780: c41b dff6 648f c8bf d2e0 aad7 872e 903f
00000790: 0689 4e5f f880 dfbf 8117 3c56 3b7b f43f
000007a0: ac30 3aef 08b2 ecbf aec8 0713 f1f1 f4bf
000007b0: 6626 47f3 9217 e93f a5f3 ad5c e9c7 f4bf
000007c0: 2bd1 c953 9f8c f33f dbda 02f7 df21 da3f
000007d0: 3ee0 25fe fd4e f4bf 22b6 d764 7ee8 ec3f
000007e0: a2ce 24dd 9058 f2bf f584 6e29 3d6a ee3f
000007f0: a69d 1aad f81b f83f f81b 71f9 f9c7 e93f

input_gate_weights f8 [108, 81]
1.6118247559438814 -0.812848991054883 -1.7654408737119607 1.235828053214167 -1.6636802201589505 1.5429029214157877 -0.09326728385963837 1.3666408458501322
1.6178827498413142 -0.496195879839193 0.8991888328048039 -0.5701299717548033 0.25693089562712973 1.4320376647138022 -0.13421912265687372 0.8461296578758596
-0.1720296814917017 1.7298024292382759 1.6055203034698016 0.17282571700468013 0.20147056664480215 -1.9929523856331284 1.6096890245345528 -0.4502490703578138
0.5435377485128029 -0.845866800560292 0.5084464879038454 0.46820683931099555 1.9733273401841505 0.1877999942256275 2.1275995788104836 -1.7077130714447242
0.01298373610999613 2.0819822300717576 1.512508354741555 0.1663257029705169 1.274957790400895 -0.9491342842290589 1.1586273902449247 0.8196629567019028
0.31430033711699373 0.8077613882292497 -1.020369083443429 1.3915721207484626 0.2668362006782347 0.1872587774562932 0.4756865565428024 0.5326761415078026
0.7534026345748652 -0.6626345927623666 -0.23148293437998693 0.5994654526145767 0.40068830559960206 0.8882670274760569 1.2263758935165736 -0.9481713061774263
-0.9559076641052517 0.6926299041291677 0.46863593098495887 1.6319581088694115 2.258867071267022 0.02239769737486741 0.6517242949416856 -0.6787161547044046
-1.2742555068648944 1.6070773707001647 1.0203967248789114 0.8499496237072769 -1.6427483953777051 1.1674828467099112 0.41564274246234445 0.03613361440516938
1.3562479846470095 0.8863553647587005 0.46294506487815007 -0.029387606861264706 2.372343651115751 -0.2883011839243192 1.2766278695268867 1.317234131176998
1.5535131541900777 -0.651954928246278 -0.9055101652780694 -0.012144866149215066 -0.351950998389372 -0.6300566411785947 -0.16070122782209567 -1.0758252573296385
-0.7569343785442959 -0.4234640448919778 -0.04677230869911295 -0.5272207449810683 -1.3047354783227758 -0.3714447890601815 -0.5884915070204481 -0.01219813945940347
-0.5032122442500198 0.029962452523598096 -0.09897266018739657 -0.2445390855777213 -0.932200866862668 0.42056555923114086 0.30165022763959354 -0.8996972879075539
1.0811075549961642 -0.9204244467461713 0.06722729326419971 -0.5534848516554082 0.02149938308782039 -0.8949183658623715 -0.6512762085423918 0.17230244695704827
-0.5925104104244766 -0.9478544750459854 0.042847916845212525 -0.37559294236030305 -0.08902304228816556 0.6061777050458741 -0.05588562809033596 -0.7429863543446107
-0.47838847015051766 -0.8554961204063464 -0.9615541565275554 0.5229887473050914 -1.5650257317143648 -1.1873214808047539 -1.1152551251038811 -0.6260200543972197
-0.9556141379160777 -0.07358601611680411 0.14928910363150943 -1.145711825744784 -0.09468861700132328 -0.3676760761183054 -0.8501843828648292 0.11157256297404577
0.3001436904474583 -1.195207339161803 -0.5018148079212903 -1.1264945148961025 -1.2269421739986999 0.07892941279630132 -1.6612614756350885 -0.8164682323232412
-0.331422812530352 0.46904067202483796 0.34410509026429753 -1.2044303745393732 -0.6994292536121786 0.01228785840877754 -0.5401101464236466 -1.0683426841719361
-1.4533404717053255 -0.5080162969388548 -0.4908863193797885 -0.9606944214882495 -1.8587297207035804 -0.03117338860849425 -0.04669696634849889 -0.6958583920700172
-1.295767160521007 0.06222555363465935 -0.07559699762415127 -0.9075465481796208 -1.2019422554280486 -0.8519503513887634 -1.7407182945888595 -0.025459998380761625
-0.2852032355328903 -0.5175250972615851 -0.04114489292100172 -0.2928204139007157 0.4184174695445714 -1.3100509323796188 0.056416185301894274 -0.7432223010600854
-1.0465133342487383 0.34301671782261806 0.3990399759215679 0.6149152710834767 0.6420435310494285 -0.5989461180232277 0.5102671854939668 -0.44170682210899226
-0.38524227081808765 -1.12966996501616 -1.0662864480118965 -0.6868518227326393 0.6730825394365941 -0.4142315148430257 -0.6559965174969989 -0.24364996550121712
0.81854526573157 -1.318615358607528 -1.284947398953119 0.18158936049810492 -0.9001613289163543 0.1480390177616143 0.556090865221528 -0.9019448858169739
0.236862598175212 -0.38132515557092217 -0.002733934929512539 -0.8436780409492363 -0.9601076228582809 -0.9784295298427474 -1.120877292978733 -1.2585355860380334
-0.2792310346984862 -1.2867589860262127 0.3247322128208017 -0.31176374291794545 -1.2555252437003404 -0.7135354665435842 -0.17495246169646012 -1.444079312979215
0.7361374332063988 -0.501975564722838 -1.4492581377819658 0.08388318798631242 -1.3476194793907448 -0.5190313478724591 0.5933662922125214 -0.309383518229544
-1.3691317986431153 -1.6925697018406773 -0.5172416945025463 0.014120345229684497 0.4121508435410218 -0.1983062053468811 -0.692068861283677 0.08705179267443475
-1.5266263241498634 -1.226189322342328 -0.5139360489095174 0.4342861190996377 0.42048204076728274 -1.9289539520190537 0.5342629532997669 -0.6825411662799818
-0.5207099789895346 -0.24184621117033228 0.70412491541568 -0.22566434801405102 -0.5230216039074601 0.16556398609074344 0.6699159717478668 -0.5691026804109357
1.3093165955009893 0.34482208330214026 -0.027249849100813517 0.3156335325860344 0.08416524690393883 1.8031052793036264 0.8222138489960092 0.4261780288165334
00000000: 2d98 5ac1 08ca f93f ad5a 25e3 db02 eabf
00000010: 25d5 f9ed 3e3f fcbf 108c 00a3 f3c5 f33f
00000020: 3a5b 8926 6f9e fabf 7f23 46f9 baaf f83f
00000030: dac1 f65d 5de0 b7bf 93dd a4ca c2dd f53f
00000040: c04b b505 d9e2 f93f 146f 145d acc1 dfbf
00000050: c466 baa8 27c6 ec3f 4700 e535 813e e2bf
00000060: 953b 8348 8e71 d03f 3b60 8953 a0e9 f63f
00000070: 1b90 279b 172e c1bf 5d14 1881 7e13 eb3f
00000080: 275d f98f 1105 c6bf 7eea e14f 45ad fb3f
00000090: fc77 c70e 36b0 f93f 62af 3831 271f c63f
000000a0: 2d4a 6c9b c9c9 c93f b278 6c0a 22e3 ffbf
000000b0: 5db2 5147 49c1 f93f 0a70 0f7a e1d0 dcbf
000000c0: 7320 c046 a964 e13f 29b7 a540 5711 ebbf
000000d0: b704 aa91 3145 e03f 15ac a6d1 19f7 dd3f
000000e0: 284c 66b0 bf92 ff3f eaab b188 d409 c83f
000000f0: 93cb 8fed 5205 0140 a9e8 0cf1 ca52 fbbf
00000100: b653 c78f 3797 8a3f 3d17 a84c e6a7 0040
00000110: fdaa e8f5 3b33 f83f de0c 5f1f 294a c53f
00000120: 16d6 d823 3a66 f43f 70d6 c8dc 4e5f eebf
00000130: e5a0 d5df bc89 f23f f1df 18cf ad3a ea3f
00000140: 4983 4229 7f1d d43f 6751 2d69 2ed9 e93f
00000150: 09d3 3388 6e53 f0bf 7b3d ca20 e143 f63f
00000160: 8352 d324 d813 d13f 0628 887a 18f8 c73f
00000170: 5de2 df06 a671 de3f db55 e4d5 ae0b e13f
00000180: 6204 87d7 df1b e83f c59a 2376 4d34 e5bf
00000190: 9140 5f98 3ba1 cdbf 5bf7 412c d22e e33f
000001a0: 0d28 1c90 e0a4 d93f 58fe 23f9 ae6c ec3f
000001b0: 781a 3454 3c9f f33f 6b34 e159 6b57 eebf
000001c0: 6a7d 6aab cb96 eebf acec 4e30 062a e63f
000001d0: f9e5 538f 21fe dd3f fd93 201b 801c fa3f
000001e0: 46d3 28e6 2812 0240 804c ec06 6cef 963f
000001f0: f50f 99e8 ecda e43f 091d f7f0 0ab8 e5bf
00000200: d5b8 0bbe 5963 f4bf 32c8 d4c2 96b6 f93f
00000210: 94ce 2484 8b53 f03f 933f a28d c932 eb3f
00000220: 7142 9b8a b248 fabf 2a29 547e 02ae f23f
00000230: 6683 6c04 e499 da3f c01d 50e8 1a80 a23f
00000240: 7232 3516 31b3 f53f 87ba 08ed 055d ec3f
00000250: 9bc2 5f56 e4a0 dd3f 97e1 81e9 c817 9ebf
00000260: b552 e34e 8ffa 0240 1398 16cf 8673 d2bf
00000270: 6d7b 4c58 116d f43f 6b48 a918 6413 f53f
00000280: 5e6f f29b 30db f83f d014 e994 d0dc e4bf
00000290: 5b13 4274 f0f9 ecbf c3c2 6657 68df 88bf
000002a0: 271f f87a 5d86 d6bf 63ab 8f8b 6c29 e4bf
000002b0: 1a23 f69a db91 c4bf b810 878b 9436 f1bf
000002c0: 521b 2272 ce38 e8bf 69f2 f5ef 081a dbbf
000002d0: dc34 7140 8af2 a7bf 1ded 2e0a fede e0bf
000002e0: 5f3c 154f 32e0 f4bf 481e 525d c0c5 d7bf
000002f0: ef0c 1424 ecd4 e2bf 68c7 6690 56fb 88bf
00000300: e804 8090 501a e0bf a487 c926 7aae 9e3f
00000310: 1ff7 b3b2 4556 b9bf 1c35 9387 0e4d cfbf
00000320: da4b 8fe9 96d4 edbf 5930 aece 8bea da3f
00000330: abc0 a2c1 3c4e d33f 639c 7bf7 51ca ecbf
00000340: 39ac 826f 374c f13f a0d6 26f8 1d74 edbf
00000350: 0ee5 f7d1 ce35 b13f dd1f 16dd 25b6 e1bf
00000360: dd46 fc2c ef03 963f 2bff 3ed7 2ba3 ecbf
00000370: 4247 0b34 41d7 e4bf 1ac4 59af 010e c63f
00000380: 5901 6a64 d8f5 e2bf 7a12 76e8 d254 eebf
00000390: a494 1a83 29f0 a53f 44f0 02fb b609 d8bf
000003a0: 25d5 37cf 36ca b6bf 4a90 57c9 ce65 e33f
000003b0: 65c7 ed81 0a9d acbf 9019 a951 8bc6 e7bf
000003c0: d41d 85ac ea9d debf 1d01 6066 3960 ebbf
000003d0: 84cc f338 0dc5 eebf 783e bbe5 52bc e03f
000003e0: 63c9 f16b 580a f9bf bb50 1ecf 44ff f2bf
000003f0: eb47 10c2 15d8 f1bf a1d6 8835 5b08 e4bf
00000400: b33b be19 6494 eebf 6523 aa7c 88d6 b2bf
00000410: ea8c dfc4 e71b c33f c46d 63ec d554 f2bf
00000420: b2fb 5261 833d b8bf 59c8 9c3c 0188 d7bf
00000430: 282e ffe0 b534 ebbf bcbb 1afd 0490 bc3f
00000440: 2ba5 a4e1 8d35 d33f da39 1abb 911f f3bf
00000450: 7074 95ed dd0e e0bf 63a2 c91c 1f06 f2bf
00000460: 5b85 f61d 8ea1 f3bf ab10 a7ce b734 b43f
00000470: 8951 bfe9 8694 fabf d9a3 81fc 8120 eabf
00000480: 3cd6 3d07 0836 d5bf 6dcb b52a c304 de3f
00000490: 55a0 445b d105 d63f 4c4a cfc8 5845 f3bf
000004a0: ef28 4475 b961 e6bf f953 0770 602a 893f
000004b0: 1e13 e412 9548 e1bf 7707 977f ee17 f1bf
000004c0: 65d7 3ef0 e140 f7bf 3bff a564 ab41 e0bf
000004d0: 678f f273 ae6a dfbf c5bb 373a 02be eebf
000004e0: c766 2860 5bbd fdbf 98e0 50b2 eaeb 9fbf
000004f0: 0614 942e aae8 a7bf d4cf 92d1 7844 e6bf
00000500: 35b2 9a58 76bb f4bf d536 ac1b 07dc af3f
00000510: 7fb5 7828 535a b3bf e0ee 000f 9f0a edbf
00000520: 35e7 6bcd 273b f3bf 6cf9 2062 2d43 ebbf
00000530: c1ed 2c6d fbd9 fbbf df38 9b91 2f12 9abf
00000540: 02f0 5412 c540 d2bf 9520 f3ca 908f e0bf
00000550: ca7a fc82 f110 a5bf 2781 53d5 91bd d2bf
00000560: 7637 f110 5ac7 da3f e6a2 6af7 f7f5 f4bf
00000570: 7d65 ac0d 95e2 ac3f f6bf 9622 7ac8 e7bf
00000580: e9d1 16c4 84be f0bf c5e1 4164 fcf3 d53f
00000590: 044e 98f7 de89 d93f 0aaa 63ca 62ad e33f
000005a0: a7e6 0ee0 9e8b e43f bb3a 9f0c 912a e3bf
000005b0: c964 3dd9 1b54 e03f 9e34 d8b0 ec44 dcbf
000005c0: 5dd4 8c32 cfa7 d8bf 3349 30d0 2013 f2bf
000005d0: cb10 e660 820f f1bf a9b5 7aac b0fa e5bf
000005e0: 1171 cc64 e489 e53f 1b4b 4ee6 c482 dabf
000005f0: 6710 9e68 ecfd e4bf 9de7 bf0c ec2f cfbf
00000600: 6d9b 53d7 8531 ea3f f48f 136b 0c19 f5bf
00000610: b357 f900 258f f4bf 8009 52f6 513e c73f
00000620: 7f3a 9a21 1fce ecbf 63b7 e849 f1f2 c23f
00000630: c462 f711 7fcb e13f 801b 6c85 bbdc ecbf
00000640: a270 677c 8351 ce3f 266e 14a0 a167 d8bf
00000650: b59f 9223 7a65 66bf c55e 4717 69ff eabf
00000660: bd21 1a9f 33b9 eebf 2eb0 0372 4b4f efbf
00000670: 40c3 4207 1def f1bf 342b ee35 f622 f4bf
00000680: 32ba 83d8 ebde d1bf 3911 2d97 9096 f4bf
00000690: bd79 819e 69c8 d43f e94f fae9 eff3 d3bf
000006a0: 20ed 4fa3 a116 f4bf cee7 aa54 48d5 e6bf
000006b0: 86a5 ab9e d764 c6bf cb36 e1e8 f21a f7bf
000006c0: a673 1f17 708e e73f e705 3c0f 2f10 e0bf
000006d0: 38c4 134d 2930 f7bf dede 155d 5e79 b53f
000006e0: 04f9 7671 d98f f5bf 9ac0 16a1 e79b e0bf
000006f0: f83f 734e dbfc e23f 6ee8 2d87 f0cc d3bf
00000700: 975f b1be f6e7 f5bf eab2 b9f7 c314 fbbf
00000710: 8f83 4074 3e8d e0bf eefe c1a7 20eb 8c3f
00000720: 96c2 81ee ad60 da3f f683 4705 1962 c9bf
00000730: 2663 b998 6d25 e6bf 6049 98ba 0649 b63f
00000740: 53fb 76b9 0f6d f8bf 9da2 e2b1 789e f3bf
00000750: 9fa8 4903 2a72 e0bf edf0 a801 58cb db3f
00000760: 01a7 6981 2de9 da3f b096 b6d1 fedc febf
00000770: 4661 fc9e ae18 e13f 3c14 6b92 60d7 e5bf
00000780: aebf 4ef9 a7a9 e0bf d6ac d10f d1f4 cebf
00000790: a54a 80f9 3088 e63f 31f8 4bc1 91e2 ccbf
000007a0: c949 7ccd 97bc e0bf b1db d360 3331 c53f
000007b0: 6934 b79e f36f e53f 01ca 0dd3 1636 e2bf
000007c0: c696 5cf5 f5f2 f43f 7429 aea4 9011 d63f
000007d0: 80f1 d56a 62e7 9bbf 0797 fefc 5633 d43f
000007e0: cb84 e986 da8b b53f 12aa ddeb 84d9 fc3f
000007f0: 5132 f86a 934f ea3f c19b 0236 8046 db3f

output_gate_weights f8 [108, 81]
-0.4991123327639116 -1.283113018201288 -1.3569886167875616 0.7637482506179769 -1.6310254527588057 1.9356306415400897 0.30841644519970063 0.3854168215325853
2.2782681274260814 -0.8811680334613077 1.23085244571168 0.26777065244666576 -0.33508030955839924 0.8671563909382076 -0.7893336294765553 0.350832804923847
0.13587885456445284 2.1663860772203933 1.6831772541588736 -1.0859425818996786 0.6693440489348929 -1.0087831784980368 1.5537206996181203 -0.03371990623886504
-0.48282518382367456 -0.9047125976711329 0.18130426407791095 0.8022551831121533 0.295679416474888 0.2070465982264642 2.379119111514296 -0.802885067138508
-0.8190458904925084 1.0361423019125604 0.1738044881490476 0.575756871682095 1.3092871867066247 -1.5339922005944524 1.474461426606114 0.504379670738793
0.28638948148508486 -0.4165303572783484 -0.855376225895944 1.7597766400875106 1.4483421545564288 0.15738836009671248 -0.5148700079734623 0.08210100380695831
0.6638986018366198 -0.36714939485596315 0.578299095838563 0.6276249331886503 0.3756677524847291 1.2347387378900425 0.9206500204239154 -0.4486044495102892
-1.9647653321690979 0.30115985595530514 -0.8157802684972176 1.2072977309506825 0.8841585310835159 0.8447357320010239 -0.35806035663308394 -1.3427285502227966
-1.4285698566693223 1.6022908047042734 1.094225671712042 1.3786312007044486 -1.8557481899160388 1.32708354948118 -0.5291694013082782 0.4565028982137294
1.7203850215332468 0.548918993702025 -0.30990983842818276 0.27172367448884105 2.0352490798440104 -1.1095230039545911 1.3339104641980088 1.7387369586698422
1.572147648970502 -0.5097299017620943 -0.21112093414233818 -0.702078053323555 -0.14836519343977134 -0.07112749261053311 0.31766147141242823 -0.2864528307540503
-0.8156517864522023 -0.3013963434776082 0.5244073962933256 -0.29184992279268973 -1.34577598230269 -1.0251329468603978 -0.10268910944840845 -0.9788676668134006
-1.1504648777335853 0.5152012368810189 -0.2078908631582128 -0.5667939242457048 -1.5687534493493553 0.6016863362008393 -1.7596086281101218 -1.6027962098511102
-0.051518865541938505 -1.5035481076008232 0.07630152269072007 -1.6755479365285617 -1.19521023990602 -0.483997089965212 -0.7094157412999169 0.13344587988138867
-1.0121095576709063 -0.7270721151837723 -0.765683277122769 -1.8843802982318796 -0.02731704902679653 0.0042971105165147475 1.4050027475164146 -1.1857476886665888
-0.1585440174755617 -1.7786807071906812 -1.5504287129176095 -0.5162004106983766 -1.3984674872297747 -0.796670544372021 -0.7568238566563106 -0.8783171172371212
-1.6641894829663935 -0.5059433791459876 -0.05045982409071796 -0.5947851347982881 -0.007835259064945295 -0.2277675193045816 -0.045454964453516836 -0.15833441566537568
0.41352732662581576 -1.0533472057949704 -0.633577119634928 -0.7041544740692225 -0.8775302735482486 -0.8015619343263221 -0.5857966411496547 -0.12286278170021664
-0.08072442309096182 -0.4733149853909654 -0.46906225865054174 -1.8886815825061614 -0.35609150636360026 -0.43224148433291665 -0.6051443961134539 -0.29943583215680525
-0.9468338883867986 -0.8996236409416031 -1.038297775791034 -2.3363266423860662 -0.17089430110138645 -0.4616504338965764 -0.6845385083043979 -1.3033973172904194
-1.6144505692017692 -0.6153239469999162 -0.8208562379495037 -0.4010309720316359 -1.3415923880283014 -0.3668218779716511 -0.8369778129767758 1.0975641659491593
0.484284413866044 -0.7998240182075207 0.2877060454649983 -0.20759843051972524 0.2444049449930702 -0.8189114816007405 -0.19054641995029614 0.03709714519455715
-1.143619607084084 -0.09389055349903687 0.3545771819725068 0.6840996787469645 0.28709889084135765 -1.5638896133116384 0.976535466349848 -2.0437914994919937
-0.4724031524949263 -1.5428826429228193 -1.3392248090564667 -1.103476286777064 -0.4350167887576175 -1.253494288736162 -1.1859323609859975 -0.24826516993560047
0.5283114801078992 -1.1657518263220077 -1.5520912132358915 0.039989838060941564 -2.034119002589894 0.4355923556393066 0.10011415005970628 -0.18294237280866962
0.27354565681560616 -0.3098295985325354 -0.2936101985862042 -1.7250709112100429 -1.044322986306798 -0.7714683416505098 -0.5555785702868214 -0.24300308275420973
-0.95257592674397 -1.547745501955671 0.1940163247848459 -0.39780583631161687 -1.4661161367592543 0.192211274003042 0.18910762671411077 -0.9335864612679701
0.2912963999302487 0.18159068175792903 -1.71013904503919 -0.16812353183663092 -1.3274143456520806 -0.8691648126092092 -0.48316692833640573 0.5551021593599093
-1.6317650666569614 -1.4509607773765791 -1.6977440921189901 -0.4583514077761336 0.4166632960604858 0.1124852784434802 -1.0919019627762139 -0.15235570009046123
-1.8997280407316288 -0.8419152232044523 0.04282824087762908 0.024944228485746397 -0.46892673309717126 -0.6811588295087024 0.3626867047931863 -1.202843347142928
-0.3255865003485593 -0.23291238961788258 0.23254482661873077 0.03850600809899342 -0.8282562814756212 -0.4615640923864163 2.076800738829009 -2.3903128320312828
1.0270526115671395 0.5814023408489059 -0.6617056192270999 0.7166029196049156 -0.3022070654108187 2.1538021795525792 0.5192921513179201 0.07237808423089767
00000000: cd14 90da 74f1 dfbf 31f1 2384 a187 f4bf
00000010: 8359 22b2 39b6 f5bf 6a01 d92b a070 e83f
00000020: c0ae 2825 ae18 fabf 8ecd e8d5 57f8 fe3f
00000030: 439a 6b54 18bd d33f e0e2 f350 abaa d83f
00000040: 7183 d6a3 e439 0240 04e7 bf4d 8732 ecbf
00000050: 5288 8855 92b1 f33f 9a91 c584 2723 d13f
00000060: 758f c5ae f471 d5bf 901a 73c2 bebf eb3f
00000070: 5f83 8799 3842 e9bf 7dc2 e06f 0b74 d63f
00000080: fd3f 4972 7a64 c13f dd5e 4139 c254 0140
00000090: 2ebc bf45 4bee fa3f 9b7c 2954 0560 f1bf
000000a0: a552 fe35 446b e53f c776 86d4 f923 f0bf
000000b0: 29a6 7f3c 0adc f83f 154c 0a4d bc43 a1bf
000000c0: c04d 8d99 9be6 debf e7da 68d5 67f3 ecbf
000000d0: 4e84 6b66 fa34 c73f 0d6c d00f 13ac e93f
000000e0: 5d0a f75b 69ec d23f 48bb 10c0 8080 ca3f
000000f0: 98f0 c999 6f08 0340 21d0 3906 3cb1 e9bf
00000100: 2ad5 32ba 9f35 eabf 3777 4bf3 0994 f03f
00000110: 54c4 3fb8 393f c63f bb4c caac 996c e23f
00000120: f8a0 ff1e d7f2 f43f b7f4 dd67 3b8b f8bf
00000130: c9c9 67dd 6497 f73f 43e4 d2d5 e023 e03f
00000140: c765 398c 3454 d23f 164f 93f1 6ea8 dabf
00000150: b5f7 7ff6 3d5f ebbf c80c d78c 0b28 fc3f
00000160: 02cf b3d2 682c f73f 3e77 b141 4d25 c43f
00000170: 32fe bdaa d079 e0bf 12d5 5146 9204 b53f
00000180: f4f2 d747 a83e e53f 6bc3 e92c 607f d7bf
00000190: 1edb fd1a 6d81 e23f cc61 46e2 8015 e43f
000001a0: e75b c5c1 f00a d83f 0879 2568 7dc1 f33f
000001b0: d209 1908 f775 ed3f 5427 df6f efb5 dcbf
000001c0: 92b1 dfc5 ad6f ffbf 028d 0cfd 3346 d33f
000001d0: 615d bd38 df1a eabf b37d ef6c 1751 f33f
000001e0: 8f75 efd4 064b ec3f e59f d63a 1308 eb3f
000001f0: 9fec 6efc 75ea d6bf 69cc a9ee d07b f5bf
00000200: 6b23 e710 6cdb f6bf 9a2e ceae fba2 f93f
00000210: 4f26 27c7 f281 f13f 4655 0497 df0e f63f
00000220: 31cf 9403 25b1 fdbf dd4c c1f5 bb3b f53f
00000230: ec36 15ab f4ee e0bf 1ddc 96ee 5737 dd3f
00000240: 8137 c071 b286 fb3f 474f c390 be90 e13f
00000250: fa7d 3013 90d5 d3bf 1aa0 deb1 eb63 d13f
00000260: 2727 69ab 3048 0040 7a50 8231 9bc0 f1bf
00000270: ae5c b87f b257 f53f eb55 5dd8 ddd1 fb3f
00000280: 4afc 0c4b 8427 f93f 4f91 3b15 b54f e0bf
00000290: 4a37 d2c1 0206 cbbf cb72 c864 6c77 e6bf
000002a0: ce21 d872 a1fd c2bf 2ad5 9b4e 6935 b2bf
000002b0: 7d99 bac7 9054 d43f 73db fb40 3e55 d2bf
000002c0: d38e 77c6 d119 eabf 29b3 97e3 134a d3bf
000002d0: f287 1b05 f2c7 e03f c605 6f4c abad d2bf
000002e0: 9eb7 7b65 4c88 f5bf 8a14 0dce f166 f0bf
000002f0: c67c bc5e d549 babf 8469 0249 e252 efbf
00000300: 8aff 10dc 4d68 f2bf 3f68 e84d 877c e03f
00000310: 106c 33f5 2a9c cabf 239e 0603 2d23 e2bf
00000320: 3115 8737 9d19 f9bf 66d8 0db4 0341 e33f
00000330: dee0 7760 5b27 fcbf 8f69 77a3 0da5 f9bf
00000340: 1e61 4245 ae60 aabf 4abb e175 880e f8bf
00000350: 0676 9720 7f88 b33f ca53 645a 0bcf fabf
00000360: c9d9 c3c5 941f f3bf d59f 30ee cef9 debf
00000370: dcd2 04a4 88b3 e6bf 7031 f02c c114 c13f
00000380: 2ba6 a2ca 9931 f0bf f787 91bd 2c44 e7bf
00000390: c5c3 4a37 7a80 e8bf 551f a2f4 6b26 febf
000003a0: 9bf5 c520 00f9 9bbf a8f1 2bd2 d899 713f
000003b0: 68f8 3529 e47a f63f e416 8291 d2f8 f2bf
000003c0: c959 049d 2b4b c4bf e28f b6e6 7975 fcbf
000003d0: 082b 8c56 8ece f8bf 9433 44b9 b684 e0bf
000003e0: 27bd a271 1f60 f6bf 8875 b839 537e e9bf
000003f0: 7c7c 25aa e637 e8bf 279d c17f 2c1b ecbf
00000400: 4401 bb26 85a0 fabf 6fe9 612b b030 e0bf
00000410: 468d 76bc ded5 a9bf 1161 c3d5 7a08 e3bf
00000420: 775b 84ab ee0b 80bf 808a 406f 7c27 cdbf
00000430: b292 8983 df45 a7bf 7999 8e58 4d44 c4bf
00000440: 550d f751 3b77 da3f de8e 8399 82da f0bf
00000450: bc6d 0a86 4346 e4bf 54b3 aef6 6e88 e6bf
00000460: 1c78 445e ba14 ecbf 3ccd b436 65a6 e9bf
00000470: 7205 fb98 d8be e2bf e44a 4c6d ef73 bfbf
00000480: 9f05 2a15 5baa b4bf 9e7f bdef ca4a debf
00000490: 3c49 2cb5 1d05 debf 6bbe d62d 0a38 febf
000004a0: 33c3 8d07 34ca d6bf c6cc cb2f d8a9 dbbf
000004b0: 4e47 d5c7 575d e3bf 2a4c 97e8 f429 d3bf
000004c0: c0b4 2b95 764c eebf 29af 9184 b7c9 ecbf
000004d0: 3483 e820 de9c f0bf b992 ce05 ccb0 02c0
000004e0: 4bd0 264d dddf c5bf c547 f142 ae8b ddbf
000004f0: f3a3 404d bde7 e5bf c54d 3725 b7da f4bf
00000500: d5ae bb1e cad4 f9bf cbed 99d8 bbb0 e3bf
00000510: 28be 164d 7444 eabf 1dc6 63cf 7daa d9bf
00000520: 384e 7294 2977 f5bf 661d 5678 027a d7bf
00000530: b8cf c6b1 85c8 eabf e335 6071 9f8f f13f
00000540: 9b19 e10d 84fe de3f 2636 188a 2898 e9bf
00000550: d58d 089e c669 d23f 333e e4da 9592 cabf
00000560: ccea dc46 a948 cf3f 2769 f9d9 8534 eabf
00000570: 3e38 0739 d363 c8bf 996b c5a2 65fe a23f
00000580: 22d9 b712 444c f2bf 0184 ae18 3609 b8bf
00000590: 59b4 1e7e 64b1 d63f a383 6d02 25e4 e53f
000005a0: 946a b806 d45f d23f 24a4 7b1d b105 f9bf
000005b0: 226a 6b4e c73f ef3f 8d49 915b af59 00c0
000005c0: 778d 9f6e da3b debf 7fb6 ceb5 a5af f8bf
000005d0: db3a 4efe 766d f5bf 74e7 39c0 d6a7 f1bf
000005e0: b031 3ba8 50d7 dbbf 7883 fd06 500e f4bf
000005f0: 2f3f 1b36 94f9 f2bf 19fd cd30 27c7 cfbf
00000600: e445 257a ede7 e03f 7de2 1463 eba6 f2bf
00000610: 261d 9498 5dd5 f8bf ddc4 494d 8c79 a43f
00000620: aa5d 022f e045 00c0 67f0 76c2 bee0 db3f
00000630: f28e 5fb8 14a1 b93f 3708 22da a76a c7bf
00000640: 7618 7fa4 c581 d13f 53ec 4186 3fd4 d3bf
00000650: bac9 2c6e 82ca d2bf 4fd9 aef4 e399 fbbf
00000660: 4b61 0a05 8cb5 f0bf b539 2960 deaf e8bf
00000670: d4b0 b7b5 4cc7 e1bf 66d5 a09a b91a cfbf
00000680: d04f 8a82 807b eebf 31e4 96c9 90c3 f8bf
00000690: c9a6 ebe4 86d5 c83f d971 479c a675 d9bf
000006a0: 414d b831 3675 f7bf e2fd e107 619a c83f
000006b0: e1a4 14c0 ad34 c83f 344c e4b6 f0df edbf
000006c0: 2c26 c9a7 99a4 d23f 9c4e b40b 5d3e c73f
000006d0: 58e5 60c2 ba5c fbbf 7692 7667 1285 c5bf
000006e0: 2112 2dd3 163d f5bf 5bb2 9fb9 32d0 ebbf
000006f0: 40ac edfa 34ec debf 2a79 8c9a 65c3 e13f
00000700: 24c0 c0af b51b fabf 3fc7 e9a5 2237 f7bf
00000710: 690d 8ab5 f529 fbbf e656 9e24 a155 ddbf
00000720: 9a7e 8187 9caa da3f 3f3a 32d0 d5cb bc3f
00000730: 26fe 4831 6e78 f1bf 22b5 9f3e 6480 c3bf
00000740: b6c8 e33a 4965 febf 7f5d b531 f8f0 eabf
00000750: 054a d44b 95ed a53f ffea 47d6 fa8a 993f
00000760: 92d6 b745 e502 debf 77e3 039a 0dcc e5bf
00000770: acf7 f14b 4236 d73f 730a 63aa d83e f3bf
00000780: ae08 c1c2 68d6 d4bf 5efa 1ebc 12d0 cdbf
00000790: 6439 9764 07c4 cd3f 0229 f83a 0fb7 a33f
000007a0: a19e 3451 1381 eabf 67af 731e 448a ddbf
000007b0: 44a2 acb4 499d 0040 9c44 8655 5c1f 03c0
000007c0: 703c 1fb8 ce6e f03f d571 f814 d99a e23f
000007d0: 451d 4543 b12c e5bf b77a fd3e 69ee e63f
000007e0: 79d0 a34d 5c57 d3bf d3da 19a3 fc3a 0140
000007f0: c05b df92 0a9e e03f d205 b8c0 5e87 b23f

gate_gate_weights f8 [108, 81]
1.0152348670794171 1.0337636954884484 0.2594428632766904 1.7813172989726893 -0.11166024264818454 0.3308649360989641 0.14723348337770964 -1.8827948091303914
-0.6325904822328122 1.206351177970046 0.19070846158984747 0.23633734973316975 -0.143174017683593 -1.0292961623610821 0.8869116014547374 0.20282539141419956
-0.6874645851013782 0.626739686074442 -0.7548090996420537 0.8449700253225606 0.23550450016431992 0.1293567270645048 -1.1267177721004473 -0.708075483977511
0.5279409786959437 -0.8380544024266897 0.21895524466428448 -0.7394310116996312 -1.4255138875227558 0.761908541213765 -0.36396371428814905 0.7789597370602188
2.053670006417399 1.5746618499700684 0.5080935622810695 0.4904199755320567 2.048904099024184 -0.8071668731850881 0.19631741990666549 0.4592749850970909
-0.23933615950300838 -0.00976041433975358 -0.8013444135031057 0.5284707144236318 0.8591376855850473 -0.35191609303577187 -1.1232987722375787 0.3531305941576407
0.4177156277161599 1.3220704401157166 -1.35844724553449 -1.5353810035045903 0.03675636198861745 0.2724988676165874 0.6027390393167137 -0.5734904470811656
-0.301002051235562 -0.4885059951911105 1.1246072690199846 -0.5171921136299323 -2.016174937546952 -0.2660831266120175 -0.8595912415680093 -0.5626103741734145
-0.12235721313715982 2.344361759379732 0.19657611444348735 -0.7780110859919338 -0.3041482792257551 -0.024552887838687244 -1.7542199874010513 0.40090541361235044
-2.5826709901127303 0.14224477577699615 -0.22467867251275242 2.2792015780083807 1.8489312755685607 -0.38407792716641753 0.7495334809976542 -0.2378006953386126
-0.5141851498159999 -1.5286171109558184 -1.469564306932238 1.3051612265056307 -0.04781393203221852 0.9588214263907537 -0.2258704049016516 0.13856116521301826
1.2463321821394775 -0.36090741506578555 -1.1578863573563893 -0.8992821559958083 -1.565613616155702 0.2903960350750795 -1.3345205160787792 0.37505834429085094
-0.4817996492013849 0.8854176225250259 1.0954849302707983 0.028104292352117217 -1.5555233650563778 -0.4987658003786453 -0.03240743129543123 -0.3371248064468705
0.04679691931547506 -2.1323933675128375 0.25795722102289403 -0.16609078050751927 -0.8051078536050945 1.1744446628091971 -0.0460124908753603 -0.13758559685278932
-1.4253836051084188 -0.39121028333930813 0.6387819873305955 -1.2601919709640803 -0.4169445574511694 0.2722457936729777 1.6023534467258842 0.5644100494336922
-1.3073479094595777 -0.3414056256051523 -1.6308975957615441 -0.16532776967651103 -1.4472426998145693 0.36786346815232174 -0.40147152234079936 1.067537691566891
-0.1363770598760182 0.6609177115302023 -1.018176948175982 -1.0648564748838998 -0.6174361021754615 0.7199190086555122 0.3157536641062578 -0.13702776710267628
1.839193817176109 0.3014788689994701 -0.450922402897576 -2.265226787863124 1.2698819115372122 -0.4295729832595223 -0.28006294824795663 -0.8919578359912868
-0.7383021674895697 -0.24725546102383208 0.5097580417791139 0.354574604800555 0.5305484080082205 -0.17691403699935318 0.02105715011647422 0.34547257401044196
0.6487673835690674 -1.7171749375691387 0.016503473310309196 -0.3144251560697807 0.4786571379873559 1.2903554849038579 0.21091432118754522 0.7389669076936642
-0.032551982017253546 -0.411906173090477 -1.587149865181833 -0.28082244096560594 1.9599718463506237 0.872470982135232 0.5555142681479227 -0.09362717705391486
0.10281156408953321 0.6504473568590223 -0.5989177329735 -0.09996179899046187 -0.3212722062000732 -1.1263803415946998 -0.13213911531884528 -1.3439671087614355
1.3836850507432277 0.10390972632954644 0.624163222739715 0.910294983209035 -0.20733856948729723 -1.7277845566521886 0.0402224906884609 -0.22322808190196403
-0.6780797895190833 -0.5190603579241615 -1.5304465832292227 0.8477336022632809 0.3303679738398582 -0.6161822506528993 0.8054542254104036 -0.10502498105867325
-0.24717515037276017 -1.2050298807078044 -0.39970665817310475 1.6924470249557935 -1.1932604698665998 -0.016179877028897397 1.066767913906506 0.03078969951018605
0.5622704818168379 -1.9352708231067313 -0.3667844477873699 -2.331199531609388 -1.0558910682639415 -0.9194969239275912 0.6923468586229156 -0.4562559725427266
1.4829435584154549 -0.6906191342480138 0.470096757010831 0.5911356770329415 -0.7450578156436626 -0.8272478584940924 -0.18105595479632924 0.1935937265778467
-0.0351815317187905 1.8628313105751693 1.302842549178372 -0.5329496535269125 -1.735703819207515 1.1130879329857275 -1.2648019938793056 -0.09765746073546809
-1.2689842245839908 -1.6917988758179452 -0.7930916587840139 1.4297497045034513 0.42626356754552125 -0.008894747922911473 -0.911335008539229 -0.13467640510213946
-0.170763458558236 0.4509452685411126 -2.0741088438017568 0.28788078283680946 -0.5504399457479198 1.3984241057366502 2.0660629392751106 0.41092450659650354
0.7956422821681156 0.21572228873879015 -0.5169628416843517 -0.23498305107951592 -1.2005886535965211 -0.9381763445154205 -0.18636120123459513 1.0438413810446712
-0.2976284566240205 0.3782744186475065 -0.1383936375700675 -0.6398535375174663 -1.6848806287807971 -0.23044385990754457 -1.952239549441115 -0.2962500533636643
00000000: 0ed7 7dea 663e f03f cba3 fecc 4b8a f03f
00000010: 160e 3d3d b69a d03f 2630 6e91 4680 fc3f
00000020: f1f7 6f02 c495 bcbf 270b fc1f e42c d53f
00000030: cae0 fdf9 8bd8 c23f 8fb2 2473 ed1f febf
00000040: ef6c 1e65 2e3e e4bf 72f5 8de4 364d f33f
00000050: ada7 cc86 2269 c83f 0fb1 f661 4d40 ce3f
00000060: 3242 cbb5 8653 c2bf 93d3 b340 ff77 f0bf
00000070: 5a1d 5670 9461 ec3f c110 76b3 2ef6 c93f
00000080: 6765 c5ba b5ff e5bf ed70 d962 400e e43f
00000090: 49f2 b569 6527 e8bf c58a 1b94 fe09 eb3f
000000a0: 511f 22ef 0225 ce3f 163c 21e0 c28e c03f
000000b0: fae4 ef36 0907 f2bf 8c0c d9ea 8da8 e6bf
000000c0: 36f4 b67a e4e4 e03f 6720 5677 57d1 eabf
000000d0: bb75 8fb7 b906 cc3f 50bd 9c39 6ba9 e7bf
000000e0: 0677 6ea6 e7ce f6bf 4ccc 6105 8e61 e83f
000000f0: 2717 7376 2e4b d7bf 7a61 72f8 3ced e83f
00000100: f1b5 528a ea6d 0040 b815 be9f d031 f93f
00000110: 49c5 296e 4d42 e03f 89c7 0d77 0a63 df3f
00000120: fe97 0fd5 2764 0040 36d3 579f 4fd4 e9bf
00000130: 5f2e 11e1 ed20 c93f a339 37e8 c264 dd3f
00000140: 9167 e838 91a2 cebf efc3 13a3 44fd 83bf
00000150: 1f80 1a0a 9da4 e9bf f0fb 6a6a 3be9 e03f
00000160: 432a cb50 0e7e eb3f 3c95 a113 cb85 d6bf
00000170: 8f5b 2622 08f9 f1bf 82f1 4710 b199 d63f
00000180: ca6a 0454 dabb da3f a1e2 7455 3327 f53f
00000190: 3697 ce2d 33bc f5bf e33a cfab eb90 f8bf
000001a0: 1475 52d9 bad1 a23f c50e 2717 9f70 d13f
000001b0: 6568 bc61 a349 e33f 5906 59a3 085a e2bf
000001c0: 607b 851b 9e43 d3bf 6aba 4fa6 ae43 dfbf
000001d0: 2a8e 1431 64fe f13f 0545 b979 d68c e0bf
000001e0: 653b 5e53 2021 00c0 0a3a b485 8107 d1bf
000001f0: e9cd ce7d c581 ebbf 6ae2 ae78 e700 e2bf
00000200: d592 da64 cd52 bfbf 553b f4bc 40c1 0240
00000210: edd1 5af7 6729 c93f 7858 4881 77e5 e8bf
00000220: e131 1a58 2a77 d3bf 5d77 2869 6424 99bf
00000230: 6308 3efa 4811 fcbf 1048 102e 6fa8 d93f
00000240: 9de5 7668 4fa9 04c0 3d99 fea9 1335 c23f
00000250: 0c86 464f 45c2 ccbf fb4c 7409 ce3b 0240
00000260: 82e5 11f6 3895 fd3f 1ae5 1296 bb94 d8bf
00000270: f48a 84a3 2dfc e73f e402 b9d0 4070 cebf
00000280: f88d 516a 3474 e0bf 7494 3a37 3775 f8bf
00000290: 3049 dadc 5583 f7bf 3a95 fdbc f0e1 f43f
000002a0: 323b be54 117b a8bf ecac a145 aaae ee3f
000002b0: 6aeb 1749 52e9 ccbf d6f3 8a4c 5fbc c13f
000002c0: a8dc a303 faf0 f33f 43da 256a 1b19 d7bf
000002d0: c048 55d8 b386 f2bf 951b 3c5f ebc6 ecbf
000002e0: 02fa f8dc c00c f9bf 3646 6240 d995 d23f
000002f0: f063 462f 325a f5bf 1e8d b4b6 f400 d83f
00000300: 83d4 2232 ced5 debf 8281 8156 5755 ec3f
00000310: f961 cc34 1b87 f13f a546 1e22 5fc7 9c3f
00000320: d34b d177 6ce3 f8bf b954 3f64 c7eb dfbf
00000330: 615b 1ff3 b497 a0bf 5204 97ec 7393 d5bf
00000340: 95eb 060c c4f5 a73f 4a66 fd40 240f 01c0
00000350: 29dd 0301 5f82 d03f 5534 3973 7642 c5bf
00000360: 8792 9f8b 71c3 e9bf d0a2 9b7c 86ca f23f
00000370: a0ca 08ff f28e a7bf 4a12 71a3 679c c1bf
00000380: b11f 030a 5fce f6bf 3947 33db 9609 d9bf
00000390: 3e7b 1bec e670 e43f 638f 5f0e bf29 f4bf
000003a0: abde 9f39 38af dabf dd22 139f 796c d13f
000003b0: fa20 255e 3da3 f93f 173f fba9 a50f e23f
000003c0: 37f7 39a4 e5ea f4bf 4c40 29fb 96d9 d5bf
000003d0: d8bb ce13 2818 fabf 52cc f0d9 7529 c5bf
000003e0: cd40 11f6 e727 f7bf fade 4637 138b d73f
000003f0: 07a9 ae9c b5b1 d9bf 226f 0867 a214 f13f
00000400: fbca 0bb2 cd74 c1bf f8d1 8be6 3c26 e53f
00000410: 954f 5fe9 734a f0bf 8ff6 68f1 a609 f1bf
00000420: 88d3 465b 09c2 e3bf 9b36 be96 9309 e73f
00000430: 4e6d 3bdb 4e35 d43f 80c9 2c39 208a c1bf
00000440: bd6d fc7e 566d fd3f 306b b206 6e4b d33f
00000450: 10a5 5ea3 e9db dcbf 7729 df38 2f1f 02c0
00000460: 4259 fdb1 6f51 f43f 4411 96ae 1f7e dbbf
00000470: d0f6 e224 8dec d1bf d2ca df28 eb8a ecbf
00000480: 2fe0 fddd 2ba0 e7bf d368 6d23 11a6 cfbf
00000490: b60e ca18 f04f e03f 9212 e7ae 59b1 d63f
000004a0: afe2 aaa7 40fa e03f 89ca 8e81 1ea5 c6bf
000004b0: 798d 636c 0190 953f e28b c2ff 381c d63f
000004c0: 0f80 e4d0 b3c2 e43f b8ec 656d 8c79 fbbf
000004d0: db80 8d58 49e6 903f 7a00 97b0 8a1f d4bf
000004e0: 10c5 698c 51a2 de3f 4a05 feca 4ba5 f43f
000004f0: 0e18 e18f 3dff ca3f 74db abed 9da5 e73f
00000500: 4540 5e44 a7aa a0bf 5d6c 9cb5 ab5c dabf
00000510: 94e8 cc41 f764 f9bf e087 fbaf fef8 d1bf
00000520: b481 5270 0b5c ff3f b35a df43 48eb eb3f
00000530: b503 c5db c5c6 e13f 279f 765f f3f7 b7bf
00000540: 7a47 6ad1 db51 ba3f 2255 aff9 76d0 e43f
00000550: 5ab3 8385 552a e3bf 886b 83b1 1897 b9bf
00000560: ab8e af4c b98f d4bf ce1a a064 a705 f2bf
00000570: 558d 683d efe9 c0bf 0c7b b0a7 e380 f5bf
00000580: 0e80 8eef 9223 f63f b95b 52ec d399 ba3f
00000590: a90e a126 25f9 e33f c40f d3f1 2221 ed3f
000005a0: dcdc 92fb 118a cabf 1eae 556b 01a5 fbbf
000005b0: 3826 24d4 0a98 a43f deab a8df bc92 ccbf
000005c0: 5004 0263 d4b2 e5bf 04e6 bd77 249c e0bf
000005d0: 48e9 738e b57c f8bf 301d 2e38 a220 eb3f
000005e0: 2d6e d2b6 bf24 d53f 8ec1 ddd6 c3b7 e3bf
000005f0: 9a01 92f0 47c6 e93f 24f7 e8ca eae2 babf
00000600: c810 9e71 6fa3 cfbf 1d7c 8569 cd47 f3bf
00000610: 3334 363c cb94 d9bf b05c e654 4314 fb3f
00000620: 7afc 5a4a 9817 f3bf b108 c52a 7591 90bf
00000630: ce68 6a3b 7b11 f13f dcb6 ccc1 5587 9f3f
00000640: 791a 5daa 1efe e13f b457 e289 def6 febf
00000650: 3167 fb79 6579 d7bf e5b3 a5f0 4ba6 02c0
00000660: 6a50 6508 eee4 f0bf d254 21d0 846c edbf
00000670: a0c2 6899 b427 e63f 6b3e 2b40 4c33 ddbf
00000680: f854 5306 23ba f73f 23c9 724c 8d19 e6bf
00000690: a44c 54b5 1016 de3f a25e 0b5e 95ea e23f
000006a0: 0533 fa7c 83d7 e7bf 9761 3d80 d078 eabf
000006b0: 2e53 4c6e d72c c7bf 416a 2ee2 adc7 c83f
000006c0: 868f 4f50 5003 a2bf a929 4e34 28ce fd3f
000006d0: 1fef c86d 71d8 f43f fc00 8a6e ec0d e1bf
000006e0: ff9d 305e 71c5 fbbf 5eef db4a 35cf f13f
000006f0: 0d09 fa03 a13c f4bf afb9 1150 1400 b9bf
00000700: 8ba6 fb66 c24d f4bf 22c3 b0b2 9b11 fbbf
00000710: bba5 26c2 0161 e9bf 84ed e439 41e0 f63f
00000720: 2f65 85fc e647 db3f 4d05 7bdb 6837 82bf
00000730: 1f07 2c09 a829 edbf ca6f ba91 133d c1bf
00000740: 4603 eeb6 93db c5bf 8ce1 2a8b 49dc dc3f
00000750: 89c8 a360 c697 00c0 1795 db84 a36c d23f
00000760: 4fc7 ac3b 349d e1bf 393b 81f4 f15f f63f
00000770: 5a50 9d01 4c87 0040 293e 3d4d 964c da3f
00000780: 7142 a7cd e675 e93f 2f60 93b7 c99c cb3f
00000790: 2e02 49a8 f58a e0bf d11a c0b3 ec13 cebf
000007a0: ea54 b272 9c35 f3bf cc62 b265 8a05 eebf
000007b0: c5de 4510 afda c7bf fdc5 1c05 93b3 f03f
000007c0: aac8 e339 580c d3bf f548 40e8 a535 d83f
000007d0: dc40 abf9 e1b6 c1bf f6c1 3b20 ae79 e4bf
000007e0: 6570 e463 45f5 fabf e4f6 ee34 2f7f cdbf
000007f0: f7ea ac89 5f3c ffbf 00a7 a8c8 c2f5 d2bf
